Results/NN_MLP_MLs/MLP_Ensemble/Model_Results/AllVar/test5-0/best_model_0.pt (torch, 98866 bytes, 14 tensors)

country_embedding.weight f4 [8, 2]
0	0x413505f6	11.313955
1	0x4155489c	13.330227
2	0x413e8cb7	11.909354
3	0x414d7017	12.839866
4	0xbf5f854e	-0.8731278
5	0xc0ccf442	-6.4048166
6	0x414c2138	12.75811
7	0x4148143c	12.50494
8	0x40a0ee76	5.029109
9	0x40a8558b	5.2604423
10	0xc06adcfe	-3.6697383
11	0xbfdf7b5f	-1.7459525
12	0x41851660	16.635925
13	0x41712a60	15.072845
14	0xc17d45d9	-15.829553
15	0xc196c0af	-18.844084

fc1.weight f4 [200, 92]
0	0xbc97fd8f	-0.018553523
1	0x3b616627	0.0034393163
2	0xbdb67394	-0.089087635
3	0xbd9d0089	-0.07666118
4	0xba2dd12b	-0.0006630595
5	0x3d4abb23	0.049494874
6	0xbd2735c1	-0.040822748
7	0x3d37525d	0.044756282
8	0xbd395f9e	-0.045257203
9	0xbcbd0019	-0.023071336
10	0x3d82c14b	0.06384524
11	0xbdfff88e	-0.1249858
12	0xbdcaa43a	-0.09894605
13	0xbd4e9981	-0.05043936
14	0xbd90ad23	-0.07064273
15	0x3d748764	0.05969943
16	0xbdbe98ff	-0.093065254
17	0xbda884ff	-0.08228492
18	0xbdb8df1d	-0.090269305
19	0xbe048a9e	-0.12943503
20	0xbdc9280e	-0.09822093
21	0x3d5dca4c	0.054148003
22	0x3ce17e9b	0.02752619
23	0x3c9b6b80	0.018972158
24	0xbcc2f01e	-0.023796137
25	0xbdb26dd1	-0.08712352
26	0xbc5e2e00	-0.013560772
27	0xbdffd02c	-0.124908775
28	0xbddc3e2b	-0.10754045
29	0xbda8ff2b	-0.082517944
30	0x3d1548d0	0.036446393
31	0x3d0201b2	0.031739898
32	0xbd95d7ed	-0.07316575
33	0xbd19b23c	-0.037523493
34	0x3ceb09fa	0.02869128
35	0x3dd4441d	0.10364554
36	0xbc296ae0	-0.010340422
37	0xbcfb8e3d	-0.030707473
38	0x3d136f48	0.035994798
39	0xbdd4e302	-0.10394861
40	0xbbf5475f	-0.0074853147
41	0xbde689a7	-0.11256724
42	0xbdb7d0d9	-0.089753814
43	0xbdafdcd5	-0.08587042
44	0x3c1f85fd	0.009736535
45	0x3bcce1f9	0.006252524
46	0xbda42bcf	-0.08016168
47	0xba192392	-0.0005841787
48	0x3ce5d5c9	0.028056042
49	0xbd3e92d7	-0.046526756
50	0xbce446a9	-0.027865725
51	0xbb68239b	-0.0035421613
52	0x3d0445e1	0.032293204
53	0x3d92d959	0.07170362
54	0xbde23ac5	-0.11046366
55	0xbd89ff57	-0.06738155
56	0x3c70ecdb	0.014704908
57	0x3d56f26f	0.052477296
58	0x3d5838f8	0.052788705
59	0x3dbc6654	0.09199205
60	0xbcfe47d9	-0.031040119
61	0xbe0a92ab	-0.13532512
62	0xbcc75cb2	-0.024336193
63	0xbddcf991	-0.107897885
64	0xbdfc1d3c	-0.123102635
65	0x3d7cf8b5	0.061760623
66	0x3d7e7efe	0.062132828
67	0xbe0b3a3f	-0.13596438
68	0xbc8ffba1	-0.01757604
69	0xbd5ccb53	-0.053904843
70	0xbd124c35	-0.035717208
71	0xbda42614	-0.08015075
72	0x3c442319	0.011971259
73	0xbdc2f437	-0.095192365
74	0x3bc70919	0.0060740826
75	0x3cc9885e	0.024601158
76	0x3d2c6217	0.042085733
77	0x3bf89f11	0.0075873216
78	0xbe08686d	-0.13321085
79	0xbdc6efe9	-0.09713728
80	0x3cd0b1b6	0.025475364
81	0xbc3b6598	-0.011437796
82	0xbdf4f676	-0.11961071
83	0xbd75e582	-0.06003333
84	0x3d3d54fa	0.046223618
85	0x3ccfe477	0.025377495
86	0xbda29319	-0.07938213
87	0xbd8d4b24	-0.068990976
88	0xbdfcbd91	-0.123408444
89	0xbd025d14	-0.031827047
90	0xbddd8306	-0.10816006
91	0xbd8c774d	-0.06858692
92	0x3fc91a95	1.5711237
93	0xc38bd876	-279.6911
94	0x42bc9031	94.281624
95	0xc2d3b929	-105.86164
96	0xc1c754c4	-24.91639
97	0xc1da501f	-27.289122
98	0x42529863	52.648815
99	0x40b52149	5.660313
100	0xc21ab456	-38.67611
101	0x409b74bb	4.8579993
102	0x3f02fd6d	0.5116795
103	0xc20a1f3a	-34.530495
104	0xc1eba421	-29.455141
105	0xc25e8d48	-55.63797
106	0xc1e93786	-29.152111
107	0xc134af4f	-11.2928
108	0x412adf34	10.679493
109	0xc1ede5f6	-29.737286
110	0xc22cfb47	-43.245388
111	0x41e9daf7	29.231916
112	0x409d75cb	4.920629
113	0x41c716af	24.886076
114	0xc1b6847f	-22.814695
115	0x419ca497	19.580366
116	0x4255142a	53.26969
117	0x41bedb11	23.856966
118	0x418f1d73	17.88938
119	0x41b9983d	23.199335
120	0xc1ae3cab	-21.779623
121	0x41ffc514	31.97123
122	0x42649318	57.143646
123	0x41f0eae3	30.11469
124	0xbf06cd52	-0.52657044
125	0x416df944	14.873356
126	0x3f849fa9	1.0361224
127	0xbbf7128d	-0.007540053
128	0xbe8f817a	-0.2802847
129	0xc2226cec	-40.60637
130	0xbf5c2645	-0.85995895
131	0xc0b0bbcd	-5.522925
132	0xc128310e	-10.511976
133	0x424913db	50.26939
134	0xc2113628	-36.302887
135	0x41267b5c	10.405117
136	0x4011595a	2.2710786
137	0x40620b16	3.5319266
138	0xc11a648a	-9.649546
139	0xc1fb81d7	-31.438398
140	0xc01315a9	-2.298197
141	0xc05e4e98	-3.473547
142	0xc14c2ded	-12.761212
143	0x4151e427	13.118201
144	0x418611c9	16.758684
145	0x427ed9f0	63.71283
146	0xc14b9ddb	-12.726039
147	0xc1cde3e9	-25.736284
148	0xc0f5d1cd	-7.6818604
149	0x41fcd16b	31.602255
150	0xbda650e8	-0.081209004
151	0x3d20dd5c	0.039273605
152	0xbcb26876	-0.021778326
153	0xc2116cd7	-36.35629
154	0x3fef43b7	1.869254
155	0x40139d7c	2.306487
156	0xc19092e2	-18.07172
157	0xc0a700ff	-5.2188716
158	0xc1ff253b	-31.893179
159	0x424a6945	50.602802
160	0x41a817e8	21.011673
161	0x4202b2ff	32.6748
162	0xc165dab4	-14.365894
163	0x4115deff	9.366942
164	0xc2a10677	-80.51263
165	0xc20b6751	-34.850895
166	0xc17c5d62	-15.772799
167	0x423b97cc	46.89824
168	0x414dfd13	12.874286
169	0x41f29140	30.320923
170	0x40e6447f	7.1958613
171	0x405f8d73	3.4930084
172	0xbfb8c3f1	-1.4434797
173	0x40e6fee1	7.218613
174	0x3e3d40b1	0.18481709
175	0x3d921847	0.07133537
176	0x3d80aa6e	0.06282507
177	0xc2177c02	-37.8711
178	0x3fc24f50	1.5180454
179	0x3dcba5b1	0.099437125
180	0xc0fe6f7a	-7.951108
181	0xc058433b	-3.3791034
182	0x415bb36f	13.731307
183	0x4190b8ca	18.090229
184	0xba421600	-0.0007403791
185	0x3d7e47f6	0.062080346
186	0xbda16732	-0.07881011
187	0xbd9d14f3	-0.07670011
188	0xbd77f6d9	-0.060538147
189	0x3d9572ec	0.0729731
190	0xbd19814a	-0.037476815
191	0x3db419c4	0.08793977
192	0x3d1a6b84	0.03770019
193	0x3c584bd6	0.013201674
194	0xbbc168b5	-0.0059023746
195	0xbca8d5ba	-0.020609725
196	0x3c5650ba	0.01308077
197	0xbcc30603	-0.023806578
198	0xba400906	-0.00073255633
199	0x3c59f2b4	0.013302494
200	0xbda703f5	-0.081550516
201	0xbd5fd2e3	-0.054644477
202	0x3dac6a33	0.084186934
203	0xbdb7c76f	-0.08973586
204	0xbbf54fbe	-0.0074863127
205	0x3dc8b8f4	0.09800902
206	0x3d1a4303	0.037661564
207	0x3b4173a2	0.0029518385
208	0xbdb90998	-0.09035033
209	0x3d538b81	0.051646713
210	0xbda29579	-0.07938666
211	0xbcf270fe	-0.029594894
212	0xbd0f472f	-0.034979995
213	0xbc7cf499	-0.015439176
214	0xbb829bfd	-0.0039858804
215	0x3db01ca4	0.08599213
216	0x3c553e53	0.0130153475
217	0x3dbf3f49	0.093382426
218	0x3d703a19	0.058649156
219	0xbd86fd52	-0.06591286
220	0x3d2a87e5	0.041633505
221	0xbda16f22	-0.07882525
222	0xbd49fc88	-0.0493131
223	0x3cd1355f	0.025538145
224	0x3cf003b6	0.029298645
225	0x3d95b070	0.073090434
226	0xbd09785c	-0.03356205
227	0xbba2824b	-0.00495938
228	0x3d5bd956	0.053674065
229	0xbdd8fdac	-0.10595259
230	0x3d9a5eb3	0.07537594
231	0xbdb0903e	-0.08621262
232	0x3abc5734	0.001436925
233	0xbc913503	-0.017725473
234	0xbd75e805	-0.060035724
235	0x3c61c499	0.013779783
236	0x3db0900a	0.08621223
237	0xbcf9a9ae	-0.030476417
238	0xbd894370	-0.06702316
239	0xbd1def60	-0.038558364
240	0xbdd3a0f6	-0.10333435
241	0x3d40c31c	0.04706107
242	0xbd62167d	-0.055197228
243	0xbd8e7d5b	-0.069575034
244	0xbd8581cf	-0.065189
245	0x3d6087d6	0.054817043
246	0x3d4d268e	0.050085597
247	0x3d9961b8	0.074893415
248	0x3d05e62f	0.032690223
249	0xbd239c4a	-0.03994397
250	0xbceeab70	-0.029134482
251	0x3cd25332	0.025674436
252	0x3daf8513	0.08570304
253	0x3cbe38d4	0.023220457
254	0xbd4a0d02	-0.04932881
255	0xbd48bd9d	-0.049008954

fc1.bias f4 [200]
0	0xbdbcfebd	-0.09228275
1	0x3f62d775	0.8861001
2	0xbdcc2c36	-0.0996937
3	0xbd55a268	-0.052156836
4	0x3dca2db2	0.09871997
5	0xbc0ce8d6	-0.008600434
6	0x3f558f4c	0.8342178
7	0x3f527817	0.8221449
8	0xbcc85421	-0.024454178
9	0x3f5dc8f9	0.86634785
10	0x3f47b451	0.78009516
11	0x3f747b3b	0.95500535
12	0x3f462555	0.77400714
13	0xbd5bb29f	-0.053637143
14	0xbdaf1f14	-0.085508496
15	0x3f513824	0.8172629
16	0x3c590ce2	0.0132477
17	0xbdc0fe15	-0.09423462
18	0xbda3d86d	-0.08000264
19	0x3f4ad8cb	0.7923705
20	0xbc8f6b14	-0.017507114
21	0x3dbef309	0.09323699
22	0x3d348a9d	0.044077504
23	0x3f716567	0.9429535
24	0x3f4a40c8	0.790051
25	0xbd8ff4d6	-0.070291206
26	0x3d421610	0.04738432
27	0x3f5ae4f7	0.8550562
28	0x3f77bef2	0.96775734
29	0xbda2c13d	-0.079470135
30	0x3f46c17d	0.7763899
31	0xbe022b51	-0.12711836
32	0x3f5592ce	0.8342713
33	0x3d95e2af	0.07318627
34	0x3f5a1631	0.8519011
35	0x3f4ff47a	0.81232417
36	0xbcef5be3	-0.02921862
37	0x3f6dcf85	0.92894775
38	0xbdd446b5	-0.10365049
39	0xbcc48b7e	-0.023992296
40	0x3f584d71	0.84493166
41	0x3f4d5fed	0.80224496
42	0xbd0174da	-0.03160558
43	0xbc20702d	-0.00979237
44	0xbdf27944	-0.11839536
45	0x3f724b37	0.9464602
46	0x3ba9941e	0.0051751276
47	0x3b74dc6f	0.0037362834
48	0x3f5f09e5	0.8712447
49	0x3c8aa28f	0.016923217
50	0x3d99b5ec	0.07505402
51	0x3f61905a	0.8811089
52	0x3b6c0aa4	0.0036017084
53	0x3f5d5af7	0.86466926
54	0x3f4ad45d	0.7923029
55	0x3f43eb84	0.76531243
56	0xbd4f579d	-0.050620664
57	0x3f47cbd8	0.78045416
58	0x3f5c0601	0.8594666
59	0x3f4c7844	0.7987101
60	0x3f61d7b9	0.8821979
61	0x3f685b41	0.9076424
62	0x3f4a9b6a	0.79143393
63	0x3f59ffc9	0.8515592
64	0xbde58466	-0.112068936
65	0x3f5c504f	0.8606004
66	0x3f737f76	0.95116365
67	0x3d28ed5b	0.041241985
68	0x3d4f5142	0.050614603
69	0xbd6a3a3a	-0.057184435
70	0x3f43bcc9	0.7645994
71	0xbd42f49d	-0.047596563
72	0xbd7bb2f2	-0.061449952
73	0x3d53dfea	0.051727213
74	0xbda63141	-0.08114863
75	0x3d8983c3	0.06714585
76	0x3f493f86	0.78612554
77	0x3cf162b4	0.02946601
78	0xbcfc1ab9	-0.030774461
79	0x3f6fd9db	0.93691796
80	0x3f703b98	0.9384093
81	0xbdaf919d	-0.085726954
82	0x3f763f13	0.96189994
83	0x3f640d62	0.8908292
84	0x3dbfbe0e	0.09362422
85	0x3f69f42a	0.9138819
86	0x3f4b7c79	0.79486805
87	0x3f64c9ab	0.8937022
88	0x3f5d9e61	0.8656979
89	0x3d4cf806	0.05004122
90	0x3f55d2bd	0.83524686
91	0xbb077608	-0.0020669717
92	0x3f4b13ad	0.793269
93	0xbc8e8b24	-0.017400332
94	0x3f492ed7	0.78587097
95	0x3cfd514f	0.03092256
96	0x3f467c95	0.7753385
97	0x3f5f3e5a	0.87204516
98	0x3f6413bb	0.89092606
99	0x3b37a8aa	0.0028024116
100	0x3f7a9b89	0.9789358
101	0x3f493561	0.78597075
102	0x3f7397e1	0.95153624
103	0xbdd4a3f3	-0.10382833
104	0x3f52d4b6	0.8235582
105	0x3f53551e	0.82551754
106	0xbd948f95	-0.072539486
107	0x3f6427a5	0.8912299
108	0xbd2fda96	-0.04293307
109	0xbcfee674	-0.031115748
110	0x3daa70c8	0.083222926
111	0x3c01cb5d	0.007922021
112	0x3cf79085	0.03022028
113	0x3f55012e	0.83204925
114	0x3cf30d74	0.0296695
115	0xbd4c29ff	-0.049844738
116	0x3f6755e2	0.9036542
117	0xbde94a8f	-0.11391174
118	0xbdbbc849	-0.09169061
119	0x3d61aa7e	0.055094235
120	0x3f6de79d	0.9293154
121	0x3f6db89e	0.9285983
122	0x3f53e4a8	0.82770777
123	0x3f5b3ac1	0.85636526
124	0xbd83331a	-0.06406231
125	0x3f4e5a8c	0.80606914
126	0xbd25c633	-0.04047222
127	0x3f589056	0.8459524
128	0x3f6e6a94	0.93131375
129	0x3f774db1	0.9660292
130	0x3dab2d99	0.083583064
131	0x3f59182f	0.84802526
132	0x3f610306	0.8789524
133	0x3f529257	0.82254547
134	0x3c9e4e49	0.019324439
135	0xbdcc70f4	-0.099824816
136	0x3f58d11c	0.84694076
137	0x3f5d35dc	0.8641031
138	0x3f6447fb	0.89172333
139	0x3d43e7aa	0.047828354
140	0x3f58b0c0	0.846447
141	0xbd8d89b5	-0.06911031
142	0x3da51fdb	0.080627166
143	0xbd164198	-0.03668365
144	0xbc9eeaa6	-0.019398998
145	0x3f4e85a1	0.8067265
146	0x3d49eff3	0.0493011
147	0x3f6ca628	0.92441034
148	0x3d00c650	0.031439126
149	0x3c7668d2	0.01503964
150	0x3f4e3a84	0.8055804
151	0x3dbd7cdb	0.0925233
152	0x3d90bd65	0.07067374
153	0x3d84a66f	0.06477057
154	0x3f6d2608	0.92636156
155	0x3f65738c	0.89629436
156	0x3d0ac00d	0.03387456
157	0xbcfc6e88	-0.030814424
158	0x3f4701bd	0.7773703
159	0xbb0c98ec	-0.0021453453
160	0x3f4ad0ee	0.7922505
161	0x3f75565b	0.95834893
162	0x3f472fe1	0.7780743
163	0xbd2892ba	-0.041155554
164	0x3f6515b7	0.8948626
165	0x3f69a296	0.9126371
166	0x3da7a564	0.08185843
167	0x3f7473b9	0.9548908
168	0x3c91a91a	0.01778083
169	0x3da94fcc	0.08267173
170	0xbceacd70	-0.028662413
171	0xbd92e4d0	-0.07172549
172	0x3f6248a0	0.88392067
173	0x3f64a645	0.8931621
174	0xbc0768ea	-0.00826476
175	0xbd1b915f	-0.037980434
176	0x3f515aa2	0.8177892
177	0x3f69b730	0.91295147
178	0x3d01139f	0.031512853
179	0x3f69d643	0.9134256
180	0xbd232b20	-0.03983605
181	0x3f64bd61	0.8935147
182	0x3d3effe5	0.04663076
183	0x3f53c12b	0.82716626
184	0xbd361eb4	-0.044462875
185	0x3d717997	0.058953848
186	0xbdd2ba21	-0.102894075
187	0xb997f5a1	-0.00028983972
188	0xbd5d4fdb	-0.054031234
189	0xbd1327ca	-0.035926618
190	0xbe027708	-0.1274072
191	0x3f644ea0	0.8918247
192	0x3b744899	0.0037274717
193	0x3f4795c4	0.779629
194	0xbc8bd2ae	-0.017068233
195	0x3c0d924e	0.008640839
196	0x3ca10202	0.019654278
197	0xbe0ebec1	-0.13939954
198	0x3f5e246a	0.86774313
199	0x3f72890b	0.9474036

fc2.weight f4 [20, 200]
0	0xbd8f3c88	-0.06993967
1	0xbd6e603f	-0.058197256
2	0x3d53d2f0	0.051714838
3	0xbd00e84b	-0.03147153
4	0xbcc86a03	-0.024464613
5	0xbd0c61f6	-0.03427311
6	0x3c2578c0	0.01009959
7	0xbafaac46	-0.0019124828
8	0x3b6cd116	0.0036135367
9	0x3c5333d3	0.012890774
10	0x3c27039a	0.01019373
11	0xbd55bb02	-0.052180298
12	0xbb921f04	-0.0044592638
13	0xbd74d9ef	-0.05977815
14	0xbd3daab6	-0.04630538
15	0x3cd41bd7	0.025892181
16	0x3b38bbea	0.0028188177
17	0xbd44a02c	-0.048004314
18	0xbd379ef2	-0.044829316
19	0x3d31d3b2	0.04341478
20	0xbd6e1178	-0.05812213
21	0xbd0ee90a	-0.034890212
22	0x3c237fd9	0.009979212
23	0xbd85e6dc	-0.065381736
24	0xbd84e6b5	-0.064893164
25	0x3d1f26db	0.038855415
26	0xbd8b3431	-0.06797064
27	0x3c1d9d9b	0.009620096
28	0x3d2ee917	0.04270276
29	0x3c4e73d5	0.012600859
30	0xbd39f3d2	-0.04539854
31	0xbd10d15a	-0.035355903
32	0xbd9579d1	-0.07298625
33	0x3ce920f5	0.028458098
34	0xbc0d9156	-0.008640608
35	0xbc226538	-0.009911828
36	0xbd49805d	-0.049194682
37	0xbd874b1f	-0.06606125
38	0xbce6cab3	-0.028172826
39	0x3d268821	0.040657166
40	0x3d1062cc	0.03525047
41	0x3d0865d9	0.033300254
42	0xbcd1834e	-0.025575306
43	0xbd77f51b	-0.060536485
44	0x3d4037d4	0.04692824
45	0xbd12735f	-0.035754558
46	0x3c69990a	0.014257679
47	0xbcd28602	-0.025698666
48	0xbd436f91	-0.04771382
49	0xba82917e	-0.0009961573
50	0xbc615429	-0.0137529755
51	0xbd7e44ea	-0.06207744
52	0xbc071012	-0.008243578
53	0xbc9185d9	-0.017764019
54	0x3c8c3dfe	0.017119404
55	0x3d788faf	0.060683902
56	0x3d260cce	0.040539555
57	0x3d22362c	0.039602444
58	0xbc2057bd	-0.009786543
59	0x3c0238a4	0.0079480745
60	0xbd067938	-0.032830447
61	0xbd660e1c	-0.0561658
62	0x3d43987b	0.04775284
63	0x3cc17599	0.023615645
64	0x3d5e8987	0.054330375
65	0x3cdfc9cc	0.027317904
66	0xbd5280cf	-0.051392373
67	0xbd2a07d2	-0.041511364
68	0x3d8e6261	0.06952358
69	0xbd2bf81e	-0.04198467
70	0xbcdd23e6	-0.026994657
71	0xbce9a9a6	-0.028523277
72	0x3cda2c71	0.02663252
73	0x3d3bc7d3	0.045844864
74	0xbc4b7c60	-0.01241979
75	0x3cb91d21	0.022596898
76	0xbc5a77ad	-0.013334197
77	0xbd2f729c	-0.04283391
78	0x3da5966a	0.0808533
79	0x3ccd840f	0.025087385
80	0xbcddf2a5	-0.027093241
81	0xbd109804	-0.035301223
82	0xbd2d9ca4	-0.042385712
83	0xbccf45e2	-0.025301877
84	0x3d6b7b7b	0.057490807
85	0xbd214290	-0.03937012
86	0xbc1c6837	-0.009546331
87	0x3d0342e9	0.032046232
88	0xbc24e57c	-0.010064479
89	0x3cb8138c	0.022470258
90	0xbd45dc50	-0.04830581
91	0xbbe5ecb9	-0.007016745
92	0xbad8d018	-0.0016541509
93	0x3db3e4df	0.08783888
94	0x3d52bbfa	0.0514488
95	0xbd74c857	-0.05976137
96	0xbcc413bc	-0.023935191
97	0xbd5ad441	-0.053425077
98	0x3d64c0c8	0.055847913
99	0x3d274571	0.04083771
100	0x3d25fac3	0.040522348
101	0x3c659a8c	0.014013898
102	0xbcef0432	-0.029176805
103	0x3c87d919	0.016583012
104	0xbd8cdffc	-0.06878659
105	0xbc7fc3fb	-0.01561069
106	0xbd333c66	-0.043758772
107	0xbd822763	-0.06355169
108	0xbda3fb9d	-0.08006976
109	0x3cafb529	0.021448689
110	0x3d34d917	0.044152346
111	0xbcb1e4fe	-0.021715637
112	0xbd685956	-0.056725822
113	0xbd0b8d35	-0.034070212
114	0xbc37c1b0	-0.011215612
115	0x3d69ce81	0.057081703
116	0x3cf2802e	0.029602136
117	0xbd07a87d	-0.033119667
118	0x3d628fc9	0.055312905
119	0x3d9df9eb	0.07713684
120	0xbb7ca73e	-0.0038551833
121	0x3d22ae06	0.039716743
122	0xbd67456c	-0.05646269
123	0xbada32cb	-0.0016647218
124	0x3b334d99	0.0027359484
125	0xbc11dde3	-0.008903
126	0x3d57df84	0.052703395
127	0x3d033a10	0.032037795
128	0x3c0457af	0.008077546
129	0x3c373517	0.011182091
130	0xbd22f49c	-0.03978406
131	0x3d34e35a	0.04416213
132	0xbbd86802	-0.0066041956
133	0xbd2ba2ab	-0.04190318
134	0x3d727d69	0.05920163
135	0x3aa15927	0.0012309895
136	0x39270d4d	0.00015931316
137	0xbb0081c1	-0.001960859
138	0x3b4f62e3	0.0031644634
139	0x3d52783b	0.051384192
140	0x3d20ec7b	0.039288025
141	0x3d7b2eca	0.06132392
142	0xbd65932b	-0.056048553
143	0xbc834cdb	-0.016027858
144	0xbc88e4be	-0.016710635
145	0xbd279c3f	-0.040920492
146	0xbda396a9	-0.079877205
147	0x3d1ee1eb	0.03878967
148	0xbbe466d6	-0.006970267
149	0x3d4a82a6	0.049441002
150	0x3d6a7998	0.057244867
151	0x3ca1e255	0.019761244
152	0xbd096546	-0.033543848
153	0x3d5f8caa	0.054577507
154	0x3d02eb0b	0.031962436
155	0x3d05bae3	0.032648932
156	0xbc7e2630	-0.015512034
157	0x3ccc470b	0.02493622
158	0xbd892ba4	-0.06697777
159	0x3cee4c7d	0.029089207
160	0x3d56cfeb	0.05244438
161	0xbc7f8c62	-0.015597435
162	0xbc6bbad2	-0.014387803
163	0xbc4935a8	-0.012280859
164	0x3c329757	0.01090034
165	0xbbb1e6d3	-0.0054291277
166	0xbd7cbbe7	-0.061702635
167	0xbc82c87b	-0.015964737
168	0xbc9237f5	-0.017848948
169	0x3d0ca4f5	0.034337003
170	0xbd5a85cc	-0.053350255
171	0xbd5f3569	-0.054494295
172	0x3d45ba58	0.048273414
173	0xbd857838	-0.065170705
174	0x3d07e5a1	0.033177976
175	0xbc59a612	-0.013284223
176	0xbd9b48a3	-0.07582214
177	0xbd9611a7	-0.07327586
178	0x3c86d970	0.016461104
179	0xbc4ce22c	-0.012505095
180	0x3cf71dcf	0.030165581
181	0x3b4ef417	0.0031578594
182	0xbd1cb7dd	-0.038261283
183	0x3d57905c	0.052627906
184	0xbb8ce352	-0.0042995596
185	0x3cbf28ac	0.023334824
186	0xbd090ee4	-0.033461466
187	0xbc8624ff	-0.016375063
188	0xbd28d8ef	-0.04122251
189	0xbd065356	-0.03279432
190	0xbd6fcf40	-0.05854726
191	0x3cd93452	0.026514206
192	0x3d4d3934	0.05010338
193	0x3c824853	0.015903627
194	0xbcad1952	-0.021130238
195	0x3bdf8efd	0.0068224655
196	0xbdaa2e22	-0.083095804
197	0xbcea264b	-0.028582713
198	0xbbaaad9c	-0.005208684
199	0x3cfb308e	0.030662801
200	0xbc5541b1	-0.01301615
201	0x3cd35de6	0.02580161
202	0x3c8c55b0	0.017130703
203	0xbc975e93	-0.018477714
204	0x3d8df732	0.069319144
205	0xbc91d648	-0.017802373
206	0x3bf9e79e	0.007626488
207	0xbcf6ae5e	-0.030112442
208	0x3a89f71f	0.0010525918
209	0x3c68c8f4	0.014208067
210	0xbda1effa	-0.079071
211	0x3d0cf5cd	0.0344141
212	0x3cf66f7d	0.030082459
213	0xbd02cbf5	-0.03193279
214	0xbd3a43bb	-0.04547475
215	0xbd15b642	-0.036550768
216	0x3c952a67	0.018208696
217	0xbd3b3283	-0.04570247
218	0xbccdb75f	-0.025111852
219	0xbd352b85	-0.044230957
220	0x3d6095fe	0.054830544
221	0x3d130079	0.035889123
222	0xbdde6dd2	-0.1086079
223	0xbd8e3a3a	-0.069446996
224	0xbd4c390b	-0.049859088
225	0x3d37e372	0.044894643
226	0x3d3df042	0.046371706
227	0x3ccb352a	0.024805624
228	0x3c0efe10	0.008727565
229	0xbd34de59	-0.04415736
230	0xbcae373b	-0.02126657
231	0x3dab98f1	0.08378781
232	0xbd23d15a	-0.039994575
233	0xbc965bf2	-0.01835439
234	0x3d5c9efa	0.05386255
235	0xbce0bbb6	-0.027433258
236	0xbd016c5e	-0.031597488
237	0xbd9636c4	-0.073346645
238	0xbd43bb62	-0.047786124
239	0xbd6128ee	-0.054970674
240	0xbcc2d54c	-0.023783349
241	0xbd03faf7	-0.03222176
242	0x3d16d7b1	0.036826793
243	0xbd1dcfef	-0.03852838
244	0xbc8a5063	-0.016884034
245	0xbd737b47	-0.05944374
246	0x3d938dea	0.07204802
247	0xb9c100bb	-0.00036812373
248	0xbd8dc3a2	-0.069220796
249	0x3d5a03ad	0.05322616
250	0x3d090f68	0.03346196
251	0x3d457e5f	0.04821622
252	0x3dc15785	0.09440521
253	0xbcd25c82	-0.025678877
254	0x3ca9843e	0.02069294
255	0x3d41a612	0.047277518

fc2.bias f4 [20]
0	0x3d0f380e	0.034965567
1	0x3cb0931e	0.021554526
2	0x3d6c5c84	0.057705417
3	0xbc44b331	-0.012005613
4	0x3d0aed04	0.033917442
5	0x3f7202a6	0.9453529
6	0x3ce750c1	0.028236749
7	0x3f58768e	0.845559
8	0x3f599da1	0.8500615
9	0x3d42c05b	0.047546726
10	0xbd50a515	-0.050938684
11	0x3f6df248	0.92947817
12	0x3f65ed9e	0.898157
13	0x3f6709c9	0.90249306
14	0xbd472c94	-0.048626497
15	0xbd7c5bdc	-0.06161104
16	0xbd16dd79	-0.036832307
17	0x3d05fad5	0.032709915
18	0x3d27c391	0.04095799
19	0x3cd8f61f	0.026484547

fc3.weight f4 [1, 20]
0	0xbf510eb8	-0.81663084
1	0xbf552870	-0.8326483
2	0xbf4c833d	-0.79887754
3	0xbf3a9b8a	-0.72893584
4	0xbf5aa326	-0.85405195
5	0x3fa891a8	1.3169451
6	0xbf70483d	-0.93860227
7	0x3fb65e0b	1.424745
8	0x3fb92688	1.4464884
9	0xbf45b996	-0.77236307
10	0xbf4de644	-0.8042948
11	0x3fad169b	1.3522524
12	0x3faff8d6	1.3747814
13	0x3fc0586f	1.5026988
14	0xbf597332	-0.849414
15	0xbf5e98bb	-0.869518
16	0xbf549946	-0.83046377
17	0xbf62ff3f	-0.88670725
18	0xbf5f7f94	-0.87304044
19	0xbf4fc7bb	-0.8116414

bn1.weight f4 [200]
0	0x3fe4af4a	1.7865994
1	0x401094ee	2.25909
2	0x3fe62b1d	1.7981907
3	0x3fe89b90	1.8172474
4	0x3f800000	1.0
5	0x3f800000	1.0
6	0x4012f338	2.296095
7	0x400f1526	2.2356658
8	0x3fe0285c	1.7512317
9	0x4011e6f7	2.279722
10	0x40123a00	2.28479
11	0x40139bee	2.3063922
12	0x40102cf2	2.2527432
13	0x3fe677ce	1.8005311
14	0x3f800000	1.0
15	0x400fd42f	2.2473257
16	0x3fe8a0cb	1.817407
17	0x3fe7e6b6	1.8117282
18	0x3fe6106f	1.7973765
19	0x40127c7b	2.2888477
20	0x3fe711e0	1.805233
21	0x3f800000	1.0
22	0x3f800000	1.0
23	0x4012e3ef	2.295162
24	0x4013c27d	2.3087456
25	0x3fe392b2	1.7779143
26	0x3f800000	1.0
27	0x4013856b	2.3050182
28	0x4012df69	2.2948859
29	0x3fe33710	1.7751179
30	0x400ea6fa	2.2289414
31	0x3fe8a450	1.8175144
32	0x401119de	2.2672038
33	0x3f800000	1.0
34	0x4014aab6	2.3229194
35	0x400ed780	2.231903
36	0x3fe5b7a3	1.7946666
37	0x4013754c	2.3040342
38	0x3f800000	1.0
39	0x3f800000	1.0
40	0x4013a2cd	2.3068116
41	0x40168a5f	2.3521955
42	0x3f800000	1.0
43	0x3f800000	1.0
44	0x3fe5c475	1.7950579
45	0x40134388	2.3009968
46	0x3fe6b615	1.8024317
47	0x3f800000	1.0
48	0x400b4e50	2.1766548
49	0x3f800000	1.0
50	0x3fe92bec	1.8216529
51	0x4011ae19	2.276251
52	0x3f800000	1.0
53	0x4011cf8b	2.2782924
54	0x400dd121	2.2158892
55	0x4012698e	2.2876925
56	0x3fe569f0	1.7922955
57	0x400e58ad	2.2241623
58	0x400f1e16	2.2362113
59	0x400f4562	2.2386098
60	0x40153206	2.3311782
61	0x401549bc	2.3326254
62	0x40115370	2.2707176
63	0x4011be68	2.2772465
64	0x3fe7efe8	1.8120089
65	0x400f7797	2.2416742
66	0x401370bd	2.303756
67	0x3f800000	1.0
68	0x3fe3a42f	1.778448
69	0x3f800000	1.0
70	0x400fe47d	2.2483208
71	0x3f800000	1.0
72	0x3fe62564	1.7980161
73	0x3fe76520	1.8077736
74	0x3fe527f1	1.7902814
75	0x3f800000	1.0
76	0x40148241	2.32045
77	0x3f800000	1.0
78	0x3fea8b56	1.8323772
79	0x4011178c	2.2670622
80	0x40141382	2.3136907
81	0x3fe813f1	1.8131086
82	0x400e9181	2.2276309
83	0x4012b94f	2.2925603
84	0x3fe72dc3	1.806084
85	0x4012cf57	2.293905
86	0x4014584c	2.3178892
87	0x4012ec81	2.295685
88	0x4014f4d8	2.327444
89	0x3f800000	1.0
90	0x4013666e	2.3031268
91	0x3f800000	1.0
92	0x400ced35	2.201978
93	0x3f800000	1.0
94	0x40130544	2.2971964
95	0x3f800000	1.0
96	0x40112694	2.2679796
97	0x40130424	2.2971277
98	0x400d454b	2.2073543
99	0x3f800000	1.0
100	0x4014b449	2.3235037
101	0x40137c70	2.30447
102	0x401518d3	2.3296402
103	0x3f800000	1.0
104	0x4012f30e	2.296085
105	0x40142c73	2.315213
106	0x3fe4a94a	1.7864163
107	0x40161f51	2.3456614
108	0x3f800000	1.0
109	0x3f800000	1.0
110	0x3f800000	1.0
111	0x3fe57e20	1.7929115
112	0x3f800000	1.0
113	0x4010d17e	2.2627864
114	0x3f800000	1.0
115	0x3fe1361b	1.7594637
116	0x400b5c11	2.1774943
117	0x3fe9a56c	1.8253608
118	0x3f800000	1.0
119	0x3f800000	1.0
120	0x40107c4d	2.2575867
121	0x40103105	2.252992
122	0x4014a12f	2.3223379
123	0x40141706	2.3139052
124	0x3fe5e930	1.7961788
125	0x4013c738	2.3090343
126	0x3fe8e521	1.8194925
127	0x40129b7f	2.2907407
128	0x4013e37a	2.310759
129	0x40149c53	2.3220413
130	0x3f800000	1.0
131	0x400fe193	2.248143
132	0x400f5f05	2.2401745
133	0x4010342f	2.253185
134	0x3f800000	1.0
135	0x3f800000	1.0
136	0x400e4952	2.223225
137	0x400c8a56	2.1959434
138	0x400f04d6	2.2346702
139	0x3fe497b5	1.7858797
140	0x40132580	2.2991638
141	0x3fe9d287	1.8267373
142	0x3fe41a8d	1.7820603
143	0x3fe9c5ba	1.8263466
144	0x3f800000	1.0
145	0x40143d61	2.3162463
146	0x3f800000	1.0
147	0x40118127	2.2735078
148	0x3fe57e2d	1.7929131
149	0x3f800000	1.0
150	0x40129e18	2.2908993
151	0x3fe8d0c5	1.8188711
152	0x3f800000	1.0
153	0x3f800000	1.0
154	0x4011e4e6	2.2795959
155	0x40143461	2.315697
156	0x3fe70fe5	1.8051726
157	0x3fe7ffae	1.8124902
158	0x401459fd	2.3179924
159	0x3f800000	1.0
160	0x4012b488	2.2922688
161	0x40125958	2.286703
162	0x40164533	2.3479736
163	0x3f800000	1.0
164	0x40154566	2.3323607
165	0x400ed6f1	2.231869
166	0x3fe96f8c	1.8237166
167	0x400e48c2	2.2231908
168	0x3f800000	1.0
169	0x3f800000	1.0
170	0x3fe2a450	1.7706394
171	0x3fea2707	1.829316
172	0x400df3b1	2.2179987
173	0x40138c71	2.3054469
174	0x3fe825e2	1.8136561
175	0x3fe4b6bf	1.786827
176	0x4010b896	2.2612662
177	0x400d7553	2.210286
178	0x3feae686	1.83516
179	0x40108559	2.258139
180	0x3feaeb19	1.8352996
181	0x401484e6	2.3206115
182	0x3feaab20	1.8333473
183	0x4010334a	2.2531304
184	0x3fe50cf2	1.7894576
185	0x3f800000	1.0
186	0x3fe3680c	1.7766128
187	0x3fe56223	1.7920574
188	0x3fe63d33	1.7987427
189	0x3f800000	1.0
190	0x3fe36390	1.7764759
191	0x40140f46	2.3134322
192	0x3f800000	1.0
193	0x40146f9e	2.3193126
194	0x3f800000	1.0
195	0x3f800000	1.0
196	0x3f800000	1.0
197	0x3fe91fbd	1.8212811
198	0x4013d5a1	2.3099139
199	0x4010e58b	2.2640102

bn1.bias f4 [200]
0	0xbf5a623c	-0.85306144
1	0x3f6cf175	0.92555934
2	0xbf5bbaa7	-0.85831684
3	0xbf5041f5	-0.8135064
4	0xbf5d55a3	-0.86458796
5	0xbf5d1319	-0.86357266
6	0x3f6871ac	0.9079845
7	0x3f668fec	0.9006336
8	0xbf46c10f	-0.77638334
9	0x3f683b73	0.9071571
10	0x3f69e357	0.9136252
11	0x3f6714e4	0.9026625
12	0x3f69b8f4	0.9129784
13	0xbf5c1e53	-0.8598377
14	0xbf5afceb	-0.8554217
15	0x3f6a73bf	0.91582865
16	0xbf56e875	-0.8394845
17	0xbf521ef7	-0.820785
18	0xbf5a2638	-0.8521457
19	0x3f65e267	0.8979859
20	0xbf5bce71	-0.8586188
21	0xbf5c4a6e	-0.8605107
22	0x3f58fe23	0.8476278
23	0x3f63d1b1	0.8899184
24	0x3f69f6da	0.9139229
25	0xbf4da3a1	-0.803278
26	0x3f5c9103	0.8615877
27	0x3f63165f	0.8870601
28	0x3f67cbed	0.9054554
29	0xbf5566eb	-0.83360165
30	0x3f644f5a	0.8918358
31	0xbf5288d2	-0.8224002
32	0x3f60a1dd	0.87746984
33	0x3f5d56d3	0.8646061
34	0x3f62fa16	0.8866285
35	0x3f647d5e	0.89253795
36	0xbf54b73f	-0.8309211
37	0x3f6940fa	0.9111477
38	0x3f57c3f3	0.8428337
39	0xbf5a3004	-0.85229516
40	0x3f6c09ab	0.9220225
41	0x3f665c52	0.8998462
42	0x3f5b47f0	0.8565664
43	0xbf5d0772	-0.86339486
44	0xbf5a57d0	-0.8529024
45	0x3f621406	0.88311803
46	0xbf4ed059	-0.80786663
47	0x3f5ac363	0.85454386
48	0x3f65d8dc	0.89784026
49	0xbf56cae5	-0.8390334
50	0xbf59539b	-0.84893197
51	0x3f61a2a7	0.8813881
52	0xbf57d36e	-0.8430699
53	0x3f62f880	0.8866043
54	0x3f689d57	0.9086508
55	0x3f68f95e	0.91005504
56	0xbf591262	-0.84793675
57	0x3f670358	0.9023948
58	0x3f62071a	0.88292086
59	0x3f620bfa	0.88299525
60	0x3f668ffd	0.9006346
61	0x3f65b36c	0.897269
62	0x3f631ef3	0.887191
63	0x3f6b088f	0.91809934
64	0xbf502b49	-0.8131605
65	0x3f69cd53	0.91328925
66	0x3f65bb5c	0.8973901
67	0xbf5b0b98	-0.85564566
68	0xbf4ad5e6	-0.79232633
69	0xbf5d38a7	-0.8641457
70	0x3f68e58c	0.9097526
71	0xbf5cf3f3	-0.86309737
72	0xbf5996b7	-0.849956
73	0xbf4f5cb7	-0.81000847
74	0xbf4a9c14	-0.79144406
75	0xbf5d2ed5	-0.86399585
76	0x3f6babc7	0.92058986
77	0x3f5c5c83	0.8607866
78	0xbf5682b3	-0.8379318
79	0x3f683ab8	0.907146
80	0x3f647860	0.8924618
81	0xbf51f241	-0.82010275
82	0x3f63b298	0.8894439
83	0x3f6657eb	0.899779
84	0xbf4fc0c3	-0.81153506
85	0x3f6308d8	0.8868537
86	0x3f6ca8ed	0.9244526
87	0x3f667693	0.9002468
88	0x3f693c5a	0.91107714
89	0x3f5c78dc	0.86121917
90	0x3f62aa84	0.88541436
91	0x3f5b68fc	0.8570707
92	0x3f6a697c	0.91567206
93	0xbf5a84f5	-0.85359126
94	0x3f65a2ac	0.8970134
95	0x3f590c60	0.8478451
96	0x3f6874df	0.9080333
97	0x3f63e3b8	0.89019346
98	0x3f63d362	0.8899442
99	0x3f5a1718	0.8519149
100	0x3f68b480	0.9090042
101	0x3f647477	0.8924021
102	0x3f61258e	0.8794793
103	0x3f593448	0.848454
104	0x3f615f50	0.8803606
105	0x3f66b45f	0.90118974
106	0xbf4e52b7	-0.8059496
107	0x3f62bcca	0.8856932
108	0x3f5b7a37	0.8573336
109	0x3f58d537	0.8470034
110	0x3f5a005a	0.85156786
111	0xbf59f25c	-0.85135436
112	0xbf5cace7	-0.8620133
113	0x3f623afc	0.88371253
114	0x3f588503	0.8457796
115	0xbf5d1e4d	-0.8637436
116	0x3f6b4b1b	0.91911477
117	0xbf577df8	-0.8417659
118	0x3f5e0be0	0.8673687
119	0xbf58717a	-0.8454815
120	0x3f6487c5	0.8926967
121	0x3f62b216	0.8855299
122	0x3f6113ef	0.8792104
123	0x3f6af764	0.9178374
124	0xbf59df13	-0.8510601
125	0x3f689c8e	0.90863883
126	0xbf50f6ac	-0.8162639
127	0x3f6d3964	0.92665696
128	0x3f6ba673	0.92050856
129	0x3f674e2a	0.90353644
130	0xbf5b6c91	-0.85712534
131	0x3f6824ac	0.90680957
132	0x3f670d09	0.90254265
133	0x3f68566b	0.90756863
134	0xbf589973	-0.84609145
135	0xbf5beca4	-0.8590796
136	0x3f67b3d2	0.9050876
137	0x3f6d2cf0	0.92646694
138	0x3f62c894	0.8858731
139	0xbf565831	-0.8372832
140	0x3f642310	0.89116
141	0xbf50b2b6	-0.8152269
142	0xbf4fcc29	-0.811709
143	0xbf5a67d5	-0.85314685
144	0x3f57d01b	0.8430192
145	0x3f6290ec	0.88502383
146	0x3f5b1ce0	0.85590935
147	0x3f657256	0.8962759
148	0xbf540f26	-0.82835615
149	0x3f5baae0	0.8580761
150	0x3f6c80ec	0.9238422
151	0xbf597a42	-0.84952176
152	0x3f5948fb	0.84876984
153	0x3f5b7e15	0.8573926
154	0x3f6a5f64	0.91551805
155	0x3f654f9e	0.8957461
156	0xbf534301	-0.82524115
157	0xbf588709	-0.8458105
158	0x3f6b2761	0.9185696
159	0x3f5bd649	0.8587385
160	0x3f66835c	0.9004419
161	0x3f5f5a5e	0.87247264
162	0x3f672f3c	0.9030645
163	0x3f5ae607	0.85507244
164	0x3f6c2c8a	0.9225546
165	0x3f678d18	0.90449667
166	0xbf5683a6	-0.8379463
167	0x3f68d946	0.9095653
168	0xbf58e1ea	-0.8471972
169	0x3f5b98d9	0.857801
170	0xbf5935ce	-0.84847724
171	0xbf591c76	-0.8480905
172	0x3f6a7d2a	0.91597235
173	0x3f64502b	0.89184827
174	0xbf50af24	-0.81517243
175	0xbf50c90c	-0.81556773
176	0x3f6cb658	0.92465734
177	0x3f6a19c8	0.9144559
178	0xbf5b5d70	-0.8568945
179	0x3f61cb01	0.88200384
180	0xbf51ccf8	-0.8195338
181	0x3f62b712	0.88560593
182	0xbf579d97	-0.8422484
183	0x3f69e7f6	0.9136957
184	0xbf515a61	-0.8177853
185	0xbf5bd788	-0.8587575
186	0xbf58e308	-0.8472142
187	0xbf51676a	-0.8179842
188	0xbf51db5d	-0.81975347
189	0xbf5cf8c7	-0.86317104
190	0xbf523f73	-0.82128066
191	0x3f66b616	0.9012159
192	0xbf5bbb65	-0.85832816
193	0x3f693b32	0.9110595
194	0xbf5adef0	-0.85496426
195	0xbf58fbd1	-0.8475924
196	0x3f5ae61a	0.8550736
197	0xbf512478	-0.8169627
198	0x3f616af3	0.88053817
199	0x3f651217	0.8948073

bn1.running_mean f4 [200]
0	0x46712110	15432.266
1	0x4616a99a	9642.4
2	0x3b0eef7a	0.002181022
3	0x44ccf8ef	1639.7792
4	0x00000000	0.0
5	0x00000000	0.0
6	0x461289a1	9378.407
7	0x46cd4680	26275.25
8	0x3fb32899	1.3996764
9	0x464f4476	13265.115
10	0x46455cba	12631.182
11	0x45a004e8	5120.6133
12	0x468d8733	18115.6
13	0x3f4ac587	0.7920765
14	0x00000000	0.0
15	0x46443e14	12559.52
16	0x4401be60	518.9746
17	0x45a62b2d	5317.397
18	0x460df711	9085.767
19	0x4649310f	12876.265
20	0x41f8473f	31.034788
21	0x00000000	0.0
22	0x00000000	0.0
23	0x463f01d2	12224.455
24	0x45a1b2e0	5174.3594
25	0x4440a048	770.5044
26	0x00000000	0.0
27	0x4588e499	4380.5747
28	0x460984ba	8801.182
29	0x3da661db	0.08124133
30	0x46811295	16521.291
31	0x45a3ee8a	5245.8174
32	0x46465ae5	12694.724
33	0x00000000	0.0
34	0x45cdc31e	6584.3896
35	0x46722072	15496.111
36	0x4616d925	9654.286
37	0x452b80e6	2744.0562
38	0x00000000	0.0
39	0x00000000	0.0
40	0x45be8613	6096.7593
41	0x4555427b	3412.155
42	0x00000000	0.0
43	0x00000000	0.0
44	0x4293023b	73.50436
45	0x45f41777	7810.933
46	0x441dc1c4	631.0276
47	0x00000000	0.0
48	0x470b175c	35607.36
49	0x00000000	0.0
50	0x438a2893	276.317
51	0x466fcdd0	15347.453
52	0x00000000	0.0
53	0x46423f7f	12431.874
54	0x46d6cc8b	27494.271
55	0x465a0c98	13955.148
56	0x45d183f7	6704.4956
57	0x469c305c	19992.18
58	0x46d156ca	26795.395
59	0x46b5a885	23252.26
60	0x45abd054	5498.041
61	0x45dab4db	6998.607
62	0x464fda40	13302.5625
63	0x46950d1e	19078.559
64	0x44be88d2	1524.2756
65	0x4683e959	16884.674
66	0x45e3269f	7268.8276
67	0x00000000	0.0
68	0x42be0fca	95.03084
69	0x00000000	0.0
70	0x467154bb	15445.183
71	0x00000000	0.0
72	0x429603d5	75.007484
73	0x43373277	183.19713
74	0x43009516	128.58237
75	0x00000000	0.0
76	0x4503bf71	2107.965
77	0x00000000	0.0
78	0x4572308f	3875.035
79	0x4687b504	17370.508
80	0x464e1af5	13190.739
81	0x44d95c7f	1738.8905
82	0x468fcac7	18405.389
83	0x45df6bbb	7149.4663
84	0x4388dc80	273.72266
85	0x46232055	10440.083
86	0x45159012	2393.0044
87	0x458d71a7	4526.2065
88	0x4596659f	4812.7026
89	0x00000000	0.0
90	0x46031fb6	8391.928
91	0x00000000	0.0
92	0x46b6a9e2	23380.941
93	0x00000000	0.0
94	0x4684a205	16977.01
95	0x00000000	0.0
96	0x46819926	16588.574
97	0x460d86af	9057.671
98	0x46aff932	22524.598
99	0x00000000	0.0
100	0x45027652	2087.395
101	0x45b626eb	5828.8647
102	0x44b85374	1474.6079
103	0x00000000	0.0
104	0x45a8bd76	5399.6826
105	0x4634d766	11573.85
106	0x437ad1dc	250.81976
107	0x45513607	3347.3767
108	0x00000000	0.0
109	0x00000000	0.0
110	0x00000000	0.0
111	0x42c76f30	99.71716
112	0x00000000	0.0
113	0x464a77bd	12957.935
114	0x00000000	0.0
115	0x42363078	45.547333
116	0x46d1d885	26860.26
117	0x44b2022f	1424.0682
118	0x00000000	0.0
119	0x00000000	0.0
120	0x464a9420	12965.031
121	0x469ea7dc	20307.93
122	0x45e5ba48	7351.285
123	0x46164d40	9619.3125
124	0x42666b30	57.604675
125	0x46568123	13728.284
126	0x45007761	2055.4612
127	0x4630e882	11322.127
128	0x4633d6e2	11509.721
129	0x4578746d	3975.2766
130	0x00000000	0.0
131	0x462ce466	11065.1
132	0x4698b113	19544.537
133	0x46ce7c27	26430.076
134	0x00000000	0.0
135	0x00000000	0.0
136	0x46a329e9	20884.955
137	0x46ae9588	22346.766
138	0x469a5a02	19757.004
139	0x3ca34216	0.019928973
140	0x4636cdbe	11699.436
141	0x446f233e	956.55066
142	0x40c96bc7	6.2944064
143	0x433ee1bc	190.88177
144	0x00000000	0.0
145	0x4440dc1d	771.4393
146	0x00000000	0.0
147	0x4695e56c	19186.71
148	0x442c2ec0	688.73047
149	0x00000000	0.0
150	0x4653fa17	13566.522
151	0x3f71c8a6	0.9444679
152	0x00000000	0.0
153	0x00000000	0.0
154	0x45da3658	6982.793
155	0x449d5979	1258.796
156	0x429d4070	78.625854
157	0x3ead5f46	0.3386175
158	0x45e66cc4	7373.5957
159	0x00000000	0.0
160	0x4642705c	12444.09
161	0x4632eea1	11451.657
162	0x45442471	3138.2776
163	0x00000000	0.0
164	0x45690237	3728.1384
165	0x46d1165c	26763.18
166	0x42ed4d6d	118.65122
167	0x46de3168	28440.703
168	0x00000000	0.0
169	0x00000000	0.0
170	0x45ec6a85	7565.315
171	0x440b3b4c	556.9265
172	0x4685d7e7	17131.951
173	0x45e5b79a	7350.95
174	0x439b6b6f	310.83932
175	0x4440fe22	771.9708
176	0x467208fe	15490.248
177	0x46f012c4	30729.383
178	0x3e1747ee	0.14773533
179	0x46826aa4	16693.32
180	0x4439c67b	743.10126
181	0x462224dd	10377.216
182	0x441c235a	624.55237
183	0x4628f1d5	10812.458
184	0x42c53942	98.61183
185	0x00000000	0.0
186	0x46644571	14609.36
187	0x432fc42d	175.76631
188	0x43df7ed1	446.99075
189	0x00000000	0.0
190	0x45852fc0	4261.9688
191	0x45dad83f	7003.031
192	0x00000000	0.0
193	0x459e5a3f	5067.281
194	0x00000000	0.0
195	0x00000000	0.0
196	0x00000000	0.0
197	0x44c54f0b	1578.4701
198	0x4629a821	10858.032
199	0x4696c90f	19300.53

bn1.running_var f4 [200]
0	0x4d11fa93	1.5306987e+08
1	0x4d7fad02	2.6809552e+08
2	0x3e46b0a6	0.19403324
3	0x4a7d4e85	4.1501772e+06
4	0x3e3dbfd0	0.18530202
5	0x3e3dbfd0	0.18530202
6	0x4d095d30	1.440366e+08
7	0x4df4cd6d	5.1338794e+08
8	0x440573ec	533.8113
9	0x4d01c4a4	1.3607174e+08
10	0x4c92589a	7.67275e+07
11	0x4c66814f	6.0425532e+07
12	0x4e0bc462	5.862258e+08
13	0x436efcb8	238.98718
14	0x3e3dbfd0	0.18530202
15	0x4cb085d7	9.254879e+07
16	0x49bb2d5c	1.5333555e+06
17	0x4b140d46	9.702726e+06
18	0x4cc3777d	1.0248087e+08
19	0x4d3efd40	2.0026675e+08
20	0x46b8f93e	23676.621
21	0x3e3dbfd0	0.18530202
22	0x3e3dbfd0	0.18530202
23	0x4d1d0343	1.6463979e+08
24	0x4ad837b0	7.085016e+06
25	0x4a396a12	3.0378285e+06
26	0x3e3dbfd0	0.18530202
27	0x4c642808	5.9809824e+07
28	0x4be4e433	3.0001254e+07
29	0x4083c47b	4.1177344
30	0x4db69d43	3.8296995e+08
31	0x4a96c4c5	4.9403865e+06
32	0x4cfc42d8	1.3225747e+08
33	0x3e3dbfd0	0.18530202
34	0x4c24632a	4.309316e+07
35	0x4d9c86c3	3.2825968e+08
36	0x4ce77e73	1.21369496e+08
37	0x4b9c5408	2.0490256e+07
38	0x3e3dbfd0	0.18530202
39	0x3e3dbfd0	0.18530202
40	0x4ca2920b	8.523375e+07
41	0x4aea2e30	7.673624e+06
42	0x3e3dbfd0	0.18530202
43	0x3e3dbfd0	0.18530202
44	0x48227b93	166382.3
45	0x4d179388	1.5893926e+08
46	0x48e55274	469651.62
47	0x3e3dbfd0	0.18530202
48	0x4ea5fbd6	1.3923725e+09
49	0x3e3dbfd0	0.18530202
50	0x49167500	616272.0
51	0x4debac07	4.9423997e+08
52	0x3e3dbfd0	0.18530202
53	0x4d63aafa	2.3872707e+08
54	0x4e26c92f	6.9955066e+08
55	0x4d01e40d	1.362004e+08
56	0x4c2c0e90	4.510368e+07
57	0x4e32518b	7.479221e+08
58	0x4e34c1e0	7.581512e+08
59	0x4e6ab6c7	9.8446176e+08
60	0x4c8e1ce8	7.45081e+07
61	0x4c9c8afc	8.207357e+07
62	0x4da5d3d0	3.4776525e+08
63	0x4d6b7800	2.4690688e+08
64	0x4a880b42	4.457889e+06
65	0x4dc992d2	4.227303e+08
66	0x4cc415d8	1.0280518e+08
67	0x3e3dbfd0	0.18530202
68	0x48327ae4	182763.56
69	0x3e3dbfd0	0.18530202
70	0x4ddeddf0	4.6738586e+08
71	0x3e3dbfd0	0.18530202
72	0x480c1ec7	143483.11
73	0x48583f76	221437.84
74	0x48e4612a	467721.3
75	0x3e3dbfd0	0.18530202
76	0x4a1fa89c	2.615847e+06
77	0x3e3dbfd0	0.18530202
78	0x4a9cee02	5.142273e+06
79	0x4d9ef3cb	3.3334717e+08
80	0x4d4e11c8	2.1607949e+08
81	0x49f3ea1f	1.9981479e+06
82	0x4ddc3c1c	4.6186586e+08
83	0x4d0e0003	1.4889784e+08
84	0x483a44cd	190739.2
85	0x4ccecfbc	1.0842877e+08
86	0x49b75b83	1.5020644e+06
87	0x4bf1f69f	3.1714622e+07
88	0x4c0bd520	3.6656256e+07
89	0x3e3dbfd0	0.18530202
90	0x4b98c22c	2.002236e+07
91	0x3e3dbfd0	0.18530202
92	0x4dfb4f6f	5.2703587e+08
93	0x3e3dbfd0	0.18530202
94	0x4d2ce5e9	1.8129678e+08
95	0x3e3dbfd0	0.18530202
96	0x4df0a4a9	5.0466538e+08
97	0x4c5fd429	5.8675364e+07
98	0x4e0d8ca9	5.9370144e+08
99	0x3e3dbfd0	0.18530202
100	0x4b1e3790	1.0368912e+07
101	0x4c134683	3.8607372e+07
102	0x4b05e6f1	8.775409e+06
103	0x3e3dbfd0	0.18530202
104	0x4c0f984a	3.7642536e+07
105	0x4c378ca1	4.8116356e+07
106	0x490cd62f	576866.94
107	0x4c008020	3.368563e+07
108	0x3e3dbfd0	0.18530202
109	0x3e3dbfd0	0.18530202
110	0x3e3dbfd0	0.18530202
111	0x48713729	247004.64
112	0x3e3dbfd0	0.18530202
113	0x4d978ddb	3.1783203e+08
114	0x3e3dbfd0	0.18530202
115	0x47d1be44	107388.53
116	0x4e9587c3	1.2543512e+09
117	0x4ab4a9f8	5.919996e+06
118	0x3e3dbfd0	0.18530202
119	0x3e3dbfd0	0.18530202
120	0x4da7113f	3.5036566e+08
121	0x4e072f6b	5.6700794e+08
122	0x4bbe79b5	2.4965994e+07
123	0x4c84c7fc	6.961558e+07
124	0x4784a48e	67913.11
125	0x4ce4bb8a	1.1992174e+08
126	0x4aa2c19d	5.3331985e+06
127	0x4d261e7c	1.7418848e+08
128	0x4d53e5ef	2.2219134e+08
129	0x4c3e01ee	4.9809336e+07
130	0x3e3dbfd0	0.18530202
131	0x4d44e6ff	2.0646706e+08
132	0x4e038299	5.5159354e+08
133	0x4e080f97	5.7068077e+08
134	0x3e3dbfd0	0.18530202
135	0x3e3dbfd0	0.18530202
136	0x4e15a205	6.276058e+08
137	0x4e15991d	6.274599e+08
138	0x4db47999	3.784835e+08
139	0x3fb5be0e	1.4198625
140	0x4d87a3c4	2.844571e+08
141	0x49946690	1.215698e+06
142	0x4616eca0	9659.156
143	0x48b62529	373033.28
144	0x3e3dbfd0	0.18530202
145	0x4a26325d	2.7229672e+06
146	0x3e3dbfd0	0.18530202
147	0x4db7b0a6	3.8522592e+08
148	0x49fb7c37	2.0601669e+06
149	0x3e3dbfd0	0.18530202
150	0x4d0a177b	1.4479966e+08
151	0x43d4f9bd	425.95108
152	0x3e3dbfd0	0.18530202
153	0x3e3dbfd0	0.18530202
154	0x4ccada21	1.06352904e+08
155	0x4ace3040	6.756384e+06
156	0x482b6663	175513.55
157	0x4352a5b6	210.64731
158	0x4c8a8482	7.262312e+07
159	0x3e3dbfd0	0.18530202
160	0x4d801f72	2.6869306e+08
161	0x4d1ed220	1.6653568e+08
162	0x4bc3d996	2.5670444e+07
163	0x3e3dbfd0	0.18530202
164	0x4b904b93	1.8913062e+07
165	0x4e4a90c5	8.496213e+08
166	0x48642450	233617.25
167	0x4e2da07e	7.282441e+08
168	0x3e3dbfd0	0.18530202
169	0x3e3dbfd0	0.18530202
170	0x4c9e27b1	8.291879e+07
171	0x49acb38b	1.4147694e+06
172	0x4df30b0c	5.0969843e+08
173	0x4c117b20	3.813696e+07
174	0x48d3adbc	433517.88
175	0x4a3324c4	2.935089e+06
176	0x4d2b0aae	1.7935024e+08
177	0x4ea45a02	1.3786811e+09
178	0x4220fc64	40.246475
179	0x4da7995e	3.5148077e+08
180	0x48d4e0d4	435974.62
181	0x4cd2e47f	1.1056844e+08
182	0x49daa88a	1.7912492e+06
183	0x4d452742	2.0673027e+08
184	0x4813b37f	151245.98
185	0x3e3dbfd0	0.18530202
186	0x4d4c0dee	2.1396656e+08
187	0x489dbb12	323032.56
188	0x49e0e038	1.842183e+06
189	0x3e3dbfd0	0.18530202
190	0x4c50d361	5.4742404e+07
191	0x4cfdcb2f	1.33060984e+08
192	0x3e3dbfd0	0.18530202
193	0x4b898f04	1.8030088e+07
194	0x3e3dbfd0	0.18530202
195	0x3e3dbfd0	0.18530202
196	0x3e3dbfd0	0.18530202
197	0x4b09b1c3	9.023939e+06
198	0x4cc44a82	1.0291304e+08
199	0x4da45f89	3.4471555e+08

bn2.weight f4 [20]
0	0x3fdd9f08	1.7314157
1	0x3fe0d314	1.7564416
2	0x3fe4211c	1.7822604
3	0x3fe029c6	1.7512748
4	0x3fdda926	1.7317245
5	0x4014dd7b	2.326018
6	0x3fdb591e	1.7136571
7	0x4013444e	2.301044
8	0x401427cc	2.314929
9	0x3fe69862	1.8015254
10	0x3fe007af	1.7502345
11	0x401498ec	2.3218336
12	0x401523e3	2.3303154
13	0x40140fed	2.313472
14	0x3fd9ce4f	1.7016085
15	0x3fdd007e	1.7265775
16	0x3fe16d94	1.7611566
17	0x3fe0dd2d	1.7567497
18	0x3fdf3108	1.7436838
19	0x3fdee117	1.7412442

bn2.bias f4 [20]
0	0xbf43552f	-0.76301855
1	0xbf440467	-0.7656922
2	0xbf49d19c	-0.78835464
3	0xbf4de7f9	-0.8043209
4	0xbf411437	-0.7542147
5	0x3f7724b1	0.9654036
6	0xbf3e2734	-0.7427857
7	0x3f67dfdf	0.90575975
8	0x3f664679	0.8995128
9	0xbf4e8847	-0.8067669
10	0xbf47181a	-0.7777115
11	0x3f7027b5	0.9381059
12	0x3f6dade8	0.92843485
13	0x3f62f191	0.8864985
14	0xbf40d668	-0.7532716
15	0xbf404296	-0.751016
16	0xbf44ab26	-0.7682365
17	0xbf42cf05	-0.76097137
18	0xbf414f11	-0.7551127
19	0xbf43a66a	-0.764258

bn2.running_mean f4 [20]
0	0x3e7383ec	0.23780793
1	0x3ee3cf75	0.44494215
2	0x3eafff16	0.34374303
3	0x3e0594c8	0.13045037
4	0x3e8824e1	0.26590636
5	0x3e65f8dc	0.22458214
6	0x3e8ca6f9	0.2747114
7	0x3e8d032a	0.27541476
8	0x3eaa2063	0.33227834
9	0x3ec5652f	0.3855376
10	0x3e664171	0.22485901
11	0x3e7b8891	0.24563815
12	0x3e6a4a5d	0.2287993
13	0x3e8815f7	0.26579258
14	0x3e3d9f7f	0.18517874
15	0x3e797786	0.24362001
16	0x3ef79977	0.48359272
17	0x3ea3a121	0.3195887
18	0x3ec787f1	0.38970903
19	0x3e84924e	0.25892872

bn2.running_var f4 [20]
0	0x3e7b7430	0.24556041
1	0x3eb5817a	0.35450345
2	0x3ebe4a78	0.3716619
3	0x3e5576db	0.20846121
4	0x3e813010	0.2523198
5	0x3eafaccd	0.34311524
6	0x3e73ea43	0.23819833
7	0x3f173a27	0.5907311
8	0x3f54c463	0.8311216
9	0x3e9548e0	0.29157162
10	0x3e801659	0.2501705
11	0x3f026455	0.50934345
12	0x3ecb52b8	0.39711547
13	0x3ed6e302	0.41970068
14	0x3e78127f	0.24225806
15	0x3e77ff71	0.24218537
16	0x3ec84ef1	0.39122728
17	0x3eec3ad6	0.46138638
18	0x3ea044ee	0.3130259
19	0x3e6e9fc4	0.23303133
