Results/NN_MLP_MLs/MLP_Ensemble/Model_Results/Macros/test4/best_model_0.pt (torch, 53490 bytes, 14 tensors)

country_embedding.weight f4 [8, 10]
000000 47 5d a6 3f 80 44 91 3f 21 9a fd 3f cb c9 36 c0
       1.2997216 1.134903 1.9812661 -2.8560665
000010 e1 66 b4 bf ed be 42 40 16 5d f0 3f 6e f9 8f c0
       -1.4093896 3.0429032 1.8778408 -4.499198
000020 a9 cd ee bf 8f 97 5b c0 6d 7a af c0 bf 7a a1 c0
       -1.8656512 -3.4311254 -5.4836946 -5.0462337
000030 04 d8 8e c0 dc cf ca 40 a4 bd ce 40 74 3c 9e c0
       -4.463869 6.3378735 6.4606495 -4.9448795
000040 3b 6d c3 c0 e1 e1 48 40 88 f1 a5 40 2a b9 b2 40
       -6.107084 3.1387866 5.185734 5.585103
000050 d1 ec cc bf 89 91 6e c0 dd c5 21 c0 25 e7 8c 40
       -1.6009771 -3.7276328 -2.5277016 4.403216
000060 1f 99 34 40 04 a2 3f c0 81 8a 09 c0 d4 fc 24 40
       2.8218458 -2.9942636 -2.1490786 2.5779314
000070 ad 1d 65 40 d1 8d 66 40 ec cb 5f 40 bc 75 c6 3f
       3.5799363 3.6024058 3.4968214 1.550468
000080 68 b3 d2 3f 14 31 23 c0 4c 88 33 c0 9b d5 2c 40
       1.6461 -2.5498705 -2.805194 2.7005374
000090 6a 9e 24 40 89 9c 17 c0 9a a9 d3 bf 06 67 dc bf
       2.5721688 -2.3689291 -1.6536133 -1.721894
0000a0 23 19 9a 3f 91 ac 03 40 d2 42 83 3f 4b 23 a9 bf
       1.2038921 2.0574076 1.0254767 -1.3213896
0000b0 8d 45 36 bf 2d e7 6c 40 bf ec 50 be c3 ff 3f c0
       -0.71199876 3.7016098 -0.20402811 -2.9999855
0000c0 6f 52 f7 bf 3a 69 b9 be 81 64 01 41 b2 57 de 40
       -1.9322032 -0.36213094 8.087037 6.948205
0000d0 3e d8 c8 40 d9 b4 ee c0 f9 88 c2 c0 18 38 cf 40
       6.2763968 -7.459576 -6.0792203 6.4755974
0000e0 da f4 bc 40 ef 45 c5 c0 ee 76 a0 c0 fe a9 3e c0
       5.904889 -6.164787 -5.014518 -2.9791255
0000f0 51 49 2a c1 52 96 1e c1 44 c5 c6 c0 ef a9 00 41
       -10.6428995 -9.911699 -6.2115803 8.041488
000100 f1 69 01 41 e1 39 e8 c0 9f 76 e0 c0 a2 73 19 41
       8.088365 -7.2570653 -7.01448 9.590731
000110 ac 70 d3 40 f0 f3 2b 41 85 37 d8 bf 25 3b 54 bf
       6.607504 10.747055 -1.6891943 -0.8290275
000120 02 11 38 c0 b2 98 1d 3f e0 bc 44 3f 70 a7 d8 bf
       -2.876038 0.6156112 0.768507 -1.6926098
000130 e5 29 16 c0 58 0f 15 40 16 ed 82 3f 15 f3 02 40
       -2.346307 2.3290615 1.0228603 2.0460865

fc1.weight f4 [200, 35]
000000 4c d3 44 be df d7 f1 3d dd 9b 03 3e d9 d1 4b be
       -0.19221228 0.11808752 0.12852426 -0.1990427
000010 b5 b0 2d bb c4 91 6c bd d2 c6 76 bd aa 2e d3 bd
       -0.002650303 -0.0577562 -0.060248204 -0.10311635
000020 64 d7 11 3d a3 81 07 be 44 cf 7d 3d b6 5e 61 3d
       0.035605803 -0.13233046 0.061965242 0.055021964
000030 b7 74 b1 3d 33 e9 0a 3d af 89 4c be 26 24 09 be
       0.0866484 0.033913802 -0.19974397 -0.13392696
000040 e9 87 6a 3d 09 42 53 3b da 05 07 be c9 e7 02 be
       0.05725852 0.0032235405 -0.13185826 -0.12783732
000050 c2 41 ff 3d 1f 29 ad 3d e6 95 d9 bd 2b a7 85 bd
       0.12463714 0.08455109 -0.10624294 -0.065260254
000060 62 49 3f be 56 3f 97 bc e4 23 cc bd 63 74 c8 bd
       -0.18680337 -0.018462818 -0.09967783 -0.09787824
000070 3d 13 be bc 1e c9 bc 3c dc e1 36 bd 92 13 fb 3d
       -0.023202533 0.023045119 -0.04464899 0.12259592
000080 e2 b8 08 be e8 b1 01 3e 35 7d b0 3d a0 c9 26 be
       -0.13351777 0.12665522 0.08617631 -0.16287851
000090 24 53 7f bd e1 ec f9 3b a2 1e 67 3b 5d f1 b3 3c
       -0.06233515 0.007627115 0.0035266061 0.021965677
0000a0 9c 4c 3c 3d 02 d3 27 bc 31 d0 bb bd 77 c3 90 3d
       0.045971498 -0.010243179 -0.09170569 0.07068532
0000b0 b9 c4 38 be 2b 2e cd bd 29 6a 77 bd 93 42 df bd
       -0.18043794 -0.100185715 -0.060403977 -0.1090137
0000c0 2d bb a1 bd d8 c5 21 be 21 d3 23 bd c6 1a ff 3c
       -0.07897029 -0.15798128 -0.03999627 0.031140696
0000d0 a8 2f 05 be b8 1f 0e bc ab f0 d0 3d 59 ff 38 bd
       -0.1300646 -0.0086745545 0.10202154 -0.045165394
0000e0 0f 6b 82 bc 56 2e 0b bd 2d b4 ee 3c 98 fa d0 3d
       -0.01592019 -0.033979736 0.029138649 0.10204047
0000f0 00 04 0f 3e 3f 0f b2 3d 2a 1e 10 3e 9f 60 05 bd
       0.1396637 0.08694314 0.14074007 -0.03256285
000100 eb 49 30 be 99 82 74 bd 59 a1 0a 3e 8d 8b 9d 3c
       -0.17215697 -0.05969486 0.13538112 0.019231582
000110 6c 7c d5 bd ab 67 19 be cf 92 36 be a4 a9 22 be
       -0.10424122 -0.14980952 -0.1782944 -0.15885025
000120 21 6f 0c bd 9f 03 9e 3d 9a 23 90 3d 2e fc 3a be
       -0.03428567 0.077155344 0.070380405 -0.18260261
000130 86 e2 ab 3d 80 b6 19 be 32 df 50 bd c4 34 aa bd
       0.08392815 -0.15011024 -0.050994106 -0.083108455
000140 75 5b 05 bd 5e ae 42 bd b9 0d 33 be c9 3d 29 be
       -0.032557923 -0.04752957 -0.17485704 -0.16527475
000150 e4 59 42 bd 45 15 86 bc ba 65 c8 bd c7 77 48 3d
       -0.047449008 -0.016367564 -0.09785028 0.048942354
000160 f8 c9 1b be cb b0 d3 bc 56 52 00 3e cf ed b4 bd
       -0.15213764 -0.025841137 0.12531409 -0.08834421
000170 72 cd 06 3e 9b ec 2c 3d 65 64 32 be 83 4f d1 3d
       0.13164309 0.042217832 -0.1742111 0.10220244
000180 db c5 bb bc 35 6a a9 bd df 9a f6 3d 6a d5 1f be
       -0.022921493 -0.082722105 0.12041258 -0.15608755
000190 68 9c c2 3c 59 7d 93 bc ec ea 10 3e 34 ab e8 3c
       0.023756221 -0.018004106 0.14152116 0.028401949
0001a0 53 28 93 3d 7d 82 74 3d 24 7e 26 bd e5 9a 11 bd
       0.071854256 0.059694756 -0.04064764 -0.03554811
0001b0 65 a3 0e be af 92 bb 3d 81 6d 09 3e 95 dc ec 3d
       -0.13929518 0.09158837 0.13420679 0.1156551
0001c0 38 2f f4 bd ae 07 f7 3b db 07 f4 bd 5f 90 be bd
       -0.11923069 0.0075387573 -0.11915561 -0.0930488
0001d0 da b7 c9 bd 77 9b 6c 3d 54 4a ce bd b3 ae 71 bb
       -0.0984952 0.05776545 -0.10072771 -0.003687781
0001e0 cd 01 e9 3b 0a 27 df 3d 23 d7 02 be 4b a7 ed bd
       0.0071108104 0.10896118 -0.1277738 -0.11604174
0001f0 b7 02 c9 bd b0 4c f2 3d 2f e0 78 bd 57 ff 11 3e
       -0.09814971 0.11831033 -0.060760673 0.1425756
000200 ef 5b 7a 3d d1 56 af 3c 86 ec a4 ba 69 dd 08 bd
       0.06112283 0.021403702 -0.0012582697 -0.03341428
000210 bc bb ad 3c 32 18 1e bd 10 ac 9b ba 9d ad b0 3c
       0.021207683 -0.038597293 -0.001187684 0.02156716
000220 d7 63 07 be f8 70 b5 bd 58 c4 0b 3e fa 77 0c be
       -0.1322168 -0.08859438 0.13649118 -0.13717642
000230 7d f9 13 3f 85 10 93 3f 44 1a 7a 3d 4f a9 c2 3e
       0.57802564 1.1489416 0.061060205 0.38019797
000240 3b bf a1 be ab 28 c7 3f 09 1b 25 3f 47 f4 10 40
       -0.3159121 1.5559286 0.6449438 2.2649095
000250 77 ca 3f 40 57 0d 25 3f 0e 57 f2 3a d5 fa d3 3e
       2.9967325 0.6447348 0.0018489079 0.41402307
000260 00 e8 7e be aa 53 d0 3f ae 20 4f 3f 60 5c c1 3f
       -0.24893188 1.6275532 0.8090924 1.5106316
000270 04 24 3e 40 de 1e d7 3e be b7 92 bd 11 7f 88 3e
       2.9709482 0.42015737 -0.07163952 0.26659444
000280 d0 44 37 be e1 29 cd 3f 79 5d 20 3f 24 19 68 3f
       -0.17897344 1.6028405 0.6264263 0.9066336
000290 0b 0c 0b 40 62 f8 0b c1 67 be bc c0 52 11 8b c0
       2.17261 -8.74814 -5.8982425 -4.3458643
0002a0 be 90 b1 40 a9 88 b0 40 10 ca b6 c0 22 40 98 c0
       5.5489187 5.516682 -5.712166 -4.7578287
0002b0 39 6d ce 40 3a 2e 72 40 b7 60 7c 40 6e 07 80 bd
       6.450833 3.7840714 3.943403 -0.06251417
0002c0 34 8e 2b be ea 42 9c 3d 60 41 a6 bd 42 04 e7 bd
       -0.16753465 0.0762995 -0.08117938 -0.11280109
0002d0 98 6e c7 bd 17 09 c7 3d 44 53 b7 3d 38 d9 04 3e
       -0.09737891 0.097185306 0.089514285 0.12973487
0002e0 a8 21 7b 3d 95 37 67 bd dd 79 41 bd 81 8a 4c 3d
       0.061311394 -0.05644949 -0.04723536 0.049936775
0002f0 b5 48 0e 3e a1 3e 3c 3d 8b ca a3 bd a8 ba a2 bd
       0.13894923 0.045958165 -0.079976164 -0.07945758
000300 22 a6 23 be b6 94 15 3d 77 44 c2 bd 1a 52 1a be
       -0.15981343 0.036518775 -0.09485715 -0.15070382
000310 c4 c6 17 3e 5e cf e0 bd 93 86 9d bc 99 5a 46 3d
       0.14821917 -0.10977052 -0.019229209 0.048426244
000320 fc 74 b0 3b 59 ef e8 bd 14 e9 0b be 0f f7 09 3e
       0.0053850394 -0.11373777 -0.13663131 0.13473152
000330 9c 7b e1 3c 03 99 0f 3e 9c 1a 68 bd 80 ef 4b 3d
       0.027524762 0.14023213 -0.056666 0.049788952
000340 f5 52 1e bd 20 51 f6 bb f5 e0 fb 3e 44 0f 81 3f
       -0.038653333 -0.007516995 0.49195066 1.0082784
000350 c8 e5 5a 3d bd 74 c6 3e c8 9d 56 be 5a a5 ab 3f
       0.053441793 0.3876094 -0.20958626 1.3409836
000360 08 0d 61 3f f1 dd 09 40 8d 71 45 40 4d 01 16 3f
       0.8791051 2.1541712 3.0850556 0.58595735
000370 b9 04 a7 bd af 7b a4 3e 34 11 b8 be 3b 79 be 3f
       -0.08155198 0.32125613 -0.35950625 1.4880747
000380 72 65 3c 3f c2 47 bb 3f c9 ce 38 40 51 30 17 3f
       0.73592293 1.4631274 2.8876212 0.590581
000390 e0 06 89 3d ae 53 59 3e 5d 52 c0 be ff 22 b6 3f
       0.066907644 0.21223328 -0.37562838 1.422943
0003a0 26 a7 3c 3f ec 24 52 3f 75 9b 07 40 ad dd 06 c1
       0.7369255 0.8208759 2.1188633 -8.42912
0003b0 7c b1 c1 c0 3c e0 85 c0 e4 c4 b2 40 2f e3 b1 40
       -6.0529156 -4.1836224 5.5865345 5.5589824
0003c0 ee c5 b2 c0 a4 56 98 c0 0a fa c3 40 e2 47 75 40
       -5.5866613 -4.7605762 6.1242723 3.8325124
0003d0 09 1e 84 40 3a 35 37 3f 49 17 86 3f da 8d b9 3c
       4.1286664 0.7156559 1.0475856 0.022650648
0003e0 c0 9f d7 3e fa 2b 95 be 84 98 a8 3f 65 68 15 3f
       0.42114067 -0.29135114 1.3171544 0.5836242
0003f0 e3 27 1e 40 53 75 49 40 4c 5c 04 3f 40 70 87 3d
       2.4711845 3.147786 0.51703334 0.06613207

fc1.bias f4 [200]
000000 d8 7d 6c 3d 22 cb fa bc 38 58 13 be 94 3b d6 bb
       0.0577372 -0.03061444 -0.14389122 -0.006537864
000010 ac e1 40 3f 53 12 1e 3d 87 68 0f 3f a1 fb 08 3f
       0.7534435 0.038591694 0.5601887 0.53508955
000020 1d cb 4f be 14 d7 31 3f 1d 0e 37 3b 11 d6 b2 bd
       -0.20292325 0.6946881 0.0027931996 -0.08732236
000030 45 cf 1b 3f 91 ed 24 3f cd 47 20 3f 87 6a 17 3f
       0.60863143 0.64425 0.6260956 0.5914692
000040 95 00 e5 3e c1 9b 16 3f 14 7d 5d bd 1b 7d 64 bc
       0.44727007 0.5883141 -0.054074362 -0.013945843
000050 64 54 ff 3e 01 9d 82 3d 17 63 0f be 1e 3e 0a 3f
       0.49869072 0.06377602 -0.14002644 0.54001033
000060 a0 26 9f bd 22 4e 06 3f d3 84 39 bb d2 09 9a bd
       -0.07771039 0.5246297 -0.002830793 -0.07521404
000070 6a 89 f9 3e 24 f1 91 3c f5 d4 44 3d cc 47 02 3f
       0.4873765 0.01781518 0.048054654 0.50890803
000080 7c cd 2e 3f d0 d4 ba 3c 76 7c 3a 3f 14 f6 85 3c
       0.68282294 0.022806555 0.7284616 0.01635269
000090 ca 49 3c 3f 32 16 da 3e c1 16 d0 3c 74 bd 14 be
       0.73550093 0.4259506 0.025401475 -0.14525396
0000a0 d9 c7 29 3f 6a eb 09 3f 91 5d 8c bd 8f 07 3e 3f
       0.6632057 0.5387484 -0.06853784 0.74230283
0000b0 97 7e 41 3f 98 bd 41 bd 6b 46 c7 bd 06 97 2c 3f
       0.75583786 -0.04729995 -0.09730228 0.67417943
0000c0 87 3b ab bd cd 70 04 3f 98 f7 f4 3e 20 7d 07 3e
       -0.08360963 0.5173462 0.4784515 0.13231325
0000d0 91 82 18 3f fd 21 1f 3f 84 4b c9 bd 61 d0 2e 3f
       0.5957423 0.62161237 -0.098288566 0.6828671
0000e0 26 92 e0 3e cd 29 0e 3f ce c0 12 3f a4 bb cb 3d
       0.43861502 0.5553253 0.57325447 0.09947899
0000f0 de 03 81 bc d9 1d 0f 3f b3 16 3b 3f 6c c6 73 3d
       -0.015748914 0.5590492 0.7308151 0.0595154
000100 48 5d 3a 3f da 3a 0a 3f 0c 83 be 3d 9d 04 04 bd
       0.72798586 0.5399605 0.09302339 -0.032230962
000110 b8 b4 15 3f a6 d3 1a 3f 65 e0 26 3e 58 7d 33 3a
       0.5847888 0.604792 0.16296537 0.0006846986
000120 63 e2 93 bc 43 e6 08 3f e1 4e fb 3e bf ef bc 3d
       -0.018052286 0.5347635 0.49083617 0.092254154
000130 64 56 0d 3f 9e 37 69 bd 16 7a 5c ba 1a ee 4a b8
       0.55209947 -0.056937806 -0.0008410526 -4.8382302e-05
000140 5a 81 82 bd 8f a7 10 3e 85 d1 d3 3d dc 84 23 3f
       -0.06372328 0.14126419 0.10342697 0.638746
000150 da fd a3 bd 57 a6 0a 3f 8b 0c 3c 3f 6e 58 1c 3f
       -0.08007403 0.54160064 0.7345664 0.61072433
000160 5d a8 e5 3e 61 66 ba bc b3 da 22 3f ab e7 3a 3d
       0.44855013 -0.022753896 0.6361496 0.045631092
000170 6a 04 3d 3f d2 f6 ce bc 76 6d 8b bd 3d 5a 6b 3d
       0.7383486 -0.025264177 -0.068079874 0.057459105
000180 1d c2 0e 3f ba 58 23 3f 7b 4d f5 3e 78 d6 f5 bd
       0.55764943 0.6380726 0.47910675 -0.12003797
000190 b9 94 f9 3e 19 c6 18 3f bd 36 ed 3e d2 7b c2 3d
       0.4874628 0.59677273 0.46330824 0.09496273
0001a0 1a 3d 06 3f 51 e4 f6 3e 36 4f 14 3f 2e 23 a3 bd
       0.52436984 0.48221067 0.57933366 -0.07965694
0001b0 08 3f cf bd 2b bb bd 3d 75 c6 5e 3d 7e 83 8a 3b
       -0.10119444 0.09264215 0.054388482 0.004227101
0001c0 35 ae 2c 3f e1 43 05 3f 05 cd 19 3f 9a d7 46 3f
       0.6745332 0.520567 0.6007846 0.7767273
0001d0 f6 98 a9 bd 56 7c 8b 3d 50 d1 3d 3f fb ce 36 bd
       -0.08281128 0.068108246 0.7414751 -0.044630986
0001e0 80 b1 3c 3f 1a c8 98 3f 88 39 0a bd 45 5c 22 3f
       0.73708344 1.1936066 -0.033746272 0.6342204
0001f0 bc 9b 89 bd f1 f4 0d 3f b7 4a 0e 3f 03 b0 0d 3d
       -0.06719157 0.55451876 0.55582756 0.034591686
000200 04 37 bf bd ae 15 f0 3e a5 8d 67 be 0c 45 2a 3e
       -0.09336665 0.4689154 -0.22612627 0.16627902
000210 b6 05 1b 3f 21 f7 9a 3d f4 1d 34 be c8 dc 0e 3f
       0.6055559 0.07566667 -0.17589551 0.55805635
000220 12 06 34 be 17 40 14 3f 10 30 1a 3e 37 3c fb 3d
       -0.1758044 0.57910293 0.15057397 0.122673444
000230 1b fd 79 bd 1d 0d bc bd b0 1c f0 3e 79 b6 aa bd
       -0.061032396 -0.09182189 0.46896887 -0.08335585
000240 45 09 1f 3b 0c fc cc bd 1a 51 31 3f 04 c7 09 3f
       0.0024267 -0.100090116 0.69264376 0.538193
000250 f7 00 3f 3f 6c 80 27 bd b9 c6 10 3f 60 58 2f 3f
       0.7461085 -0.040893957 0.56553227 0.68494225
000260 1c 56 34 3d 83 9d 39 3f 9e c0 3b 3f 82 a8 23 be
       0.044027433 0.7250597 0.73340786 -0.1598225
000270 96 4e 32 3f ea e1 02 3f d9 bf 39 3f e2 ca 36 3f
       0.6965116 0.5112597 0.7255836 0.71403325
000280 78 57 15 3f 40 34 49 3d 49 9f 20 3f 54 33 2f 3f
       0.5833659 0.049122095 0.6274305 0.68437696
000290 f5 5f 32 3f 6b da 83 3c 79 78 99 bd 19 16 1c 3f
       0.6967767 0.01609536 -0.074936815 0.6097122
0002a0 57 da 20 3f 42 05 0f be a8 9d 27 3f a3 8e e1 bd
       0.6283316 -0.1396685 0.6547494 -0.11013534
0002b0 94 b0 36 3f 68 3d d8 3d d9 41 3f 3c 0f ee 10 3e
       0.71363187 0.10558587 0.011673414 0.14153312
0002c0 d8 83 0e bd 5f 2b 44 3d 24 5c 2a 3f 9c 4f e6 3e
       -0.034793705 0.047892924 0.66546845 0.44982612
0002d0 ef 73 ed 3e d5 3a 0e 3f da 23 d8 bc be 11 0e 3f
       0.46377513 0.5555852 -0.026384283 0.5549582
0002e0 d6 52 0f 3f f2 76 a1 3d e7 96 e1 3d 7e 44 2c 3f
       0.5598577 0.07884015 0.110151105 0.6729201
0002f0 b8 cb 26 3f 4b c0 2e 3f 0f 3a 21 3f fd 40 e2 3e
       0.651546 0.68262166 0.62979215 0.44190207
000300 2c a9 65 be 03 33 2f be 33 36 18 be 3d 18 03 3e
       -0.22427815 -0.17109303 -0.14864425 0.12802215
000310 d5 b9 17 3f ad 1d f7 3e 72 f5 1f 3f 3b a8 19 3f
       0.5926793 0.48264828 0.62483895 0.60022324

fc2.weight f4 [20, 200]
000000 fa d0 62 bd 3b 06 98 bd 68 c5 22 3c aa 6b 90 bc
       -0.055375077 -0.07423063 0.009934761 -0.017629463
000010 57 fd 2b bd c0 03 7a bc 48 96 0b bd 1b 0f 4a 3d
       -0.04198965 -0.015259683 -0.034078866 0.049330812
000020 31 98 3e bd fc c1 29 bd 52 f8 81 bd 50 37 a5 3d
       -0.04653186 -0.041444764 -0.063461915 0.08067191
000030 25 8d 1c bc a7 74 0d 3d 24 91 a7 bc 19 7c c9 bc
       -0.009555136 0.034535076 -0.02045495 -0.024595307
000040 1a 47 d7 3c a0 e2 28 bd 07 c7 67 3d 97 ac 6d 3d
       0.026279021 -0.04123175 0.05658629 0.058025923
000050 49 e0 55 3c 43 b9 54 3d 9b 0a 77 bd 74 08 54 3d
       0.013053962 0.05193449 -0.06031285 0.051765874
000060 d3 99 e9 bc 71 a6 79 3c 06 9a dd 3c b0 22 2f bc
       -0.028515732 0.015237437 0.027050983 -0.0106894225
000070 88 b6 bd 3b 2a 1f a5 bd cf 6b 7a 3d 1f 9e 96 bc
       0.0057895817 -0.08062585 0.06113797 -0.018385945
000080 16 50 47 3d 16 21 13 bc a0 6f 2c bd 99 b2 fc 3c
       0.04866036 -0.008980056 -0.04209864 0.03084688
000090 97 ee 7f bc de 42 6b bd 94 36 91 bb 78 8f bc bd
       -0.015620849 -0.057436816 -0.004431555 -0.09207052
0000a0 cc 14 5a bd 4b 1a 92 bd 92 7f 06 bb 96 d5 54 bd
       -0.05324249 -0.07133921 -0.0020522815 -0.051961504
0000b0 e9 04 83 bc d5 69 43 bd 59 ed 9b bd 1d e6 a8 bc
       -0.015993552 -0.04770835 -0.0761363 -0.020617539
0000c0 6c 4c 2d 3c d9 9e 11 3d cc 48 21 bd 0f ef 97 3d
       0.010577302 0.03555188 -0.039376065 0.07418644
0000d0 f5 4b 83 bd b2 3e 32 3c bd be a1 bd ad cc 49 3d
       -0.06410972 0.010879206 -0.078977086 0.04926746
0000e0 a0 a7 29 bd 62 05 d1 3c c8 84 43 bc fb 36 8e bc
       -0.041419625 0.025515262 -0.011933513 -0.017360201
0000f0 d4 26 0c bd a9 9a 1d bd 8f 7f f5 3c 8f 9c 8d 3d
       -0.034216717 -0.038477574 0.029968051 0.06914627
000100 1a a5 5c 3d 10 1e f7 bc 62 da 48 bc 10 27 d5 bc
       0.05386839 -0.030165702 -0.012259098 -0.026019603
000110 5e 87 48 bc 60 54 9a 3b 75 50 96 3c d7 72 1c bc
       -0.012239305 0.0047097653 0.018348912 -0.009548864
000120 bc 79 92 3c f1 92 83 bc a8 b1 8f bd 54 40 4c bc
       0.017880313 -0.016061278 -0.07016307 -0.012466509
000130 53 61 91 bc aa 31 ea bc 16 c7 87 3c d7 a6 4b 3c
       -0.017746603 -0.028588135 0.016574424 0.012429914
000140 96 67 4b bc 3a f3 9f bc 50 76 82 bc 47 4f 7c 39
       -0.0124148335 -0.01952516 -0.015925556 0.00024062126
000150 4e c1 0e 3b 1b 8c b2 bc 2e 7c e3 3c a4 a6 08 bd
       0.00217827 -0.021795323 0.027769174 -0.033362046
000160 35 f9 71 bc 41 b7 5c bd 6a e6 8c bd ba b2 ab 3b
       -0.014768888 -0.053885702 -0.068798855 0.0052398117
000170 10 ab 1b bd 6b f0 84 3d 24 f8 93 bc 90 b3 63 bd
       -0.038004935 0.064911686 -0.018062659 -0.055591166
000180 d0 1b 43 3d 44 d4 72 bd 8f f8 35 3d c0 da 30 bc
       0.047633946 -0.059284464 0.044426497 -0.010794342
000190 3a ff 26 ba ff 04 a7 bd d1 62 42 3d 32 d1 ab bb
       -0.0006370429 -0.0815525 0.04745752 -0.005243444
0001a0 7d e7 48 bd ed 64 8b bd 8e 07 e8 39 cf 4f c6 bd
       -0.04904889 -0.068063594 0.00044256117 -0.09683191
0001b0 95 39 87 3d e5 48 57 3d 32 c3 5c 3d a0 29 5f 3d
       0.0660278 0.052559752 0.05389709 0.054483056
0001c0 33 34 62 bd fb 0d 01 bd ea b1 f2 3c 51 a7 08 3d
       -0.055225562 -0.031507473 0.029625852 0.03336269
0001d0 e2 e5 7f 3d 1d 34 33 3c ab 40 6c bb 01 2d 38 bb
       0.062475093 0.010937718 -0.0036049287 -0.0028102996
0001e0 4b 4e df 3c 50 8b a3 bc 26 6a b8 3d 9d ee 0f bd
       0.027259013 -0.01996389 0.09004621 -0.03513967
0001f0 27 8a 0e 3d 0d 84 19 3d f1 da ad bd 83 46 b2 3c
       0.03479972 0.03747945 -0.084890254 0.021762138
000200 24 dc 83 bd f5 cd a3 3c d6 86 87 3d 0f 3a 19 bc
       -0.06438473 0.019995669 0.06617515 -0.009352221
000210 cd a5 80 bd ee d6 a1 bd d2 2a 46 3d 89 02 c5 bc
       -0.06281624 -0.07902323 0.04838068 -0.02404906
000220 7b 00 64 bd c0 e4 3a 3d db 38 75 3d 05 f4 10 bd
       -0.05566452 0.04562831 0.059868675 -0.035388965
000230 33 57 91 3c c1 44 a7 bb 44 f3 60 3d c7 3c 69 3c
       0.017741775 -0.0051046317 0.054919496 0.014235682
000240 99 c9 c9 3c b5 07 65 3c ad 12 16 3c 44 11 88 bd
       0.024632262 0.013978888 0.009159726 -0.06643918
000250 4d 89 cc 3c 2a a0 0f 3d 18 35 9b 39 46 dc ec 3c
       0.024967814 0.035064854 0.00029603462 0.028913628
000260 71 5f e2 bb 8d 4a 8a bd 99 34 99 bd ff d1 a7 3d
       -0.00690835 -0.06752501 -0.07480735 0.081943505
000270 d8 17 24 bd b7 73 86 bd d2 f7 5b 3d 48 26 83 bd
       -0.0400618 -0.065650396 0.053703137 -0.06403786
000280 90 0f 36 3d 63 04 52 3d 18 cc be bc 95 05 d0 3c
       0.044448435 0.051273715 -0.023290679 0.025393287
000290 89 9e 2b 3d 9d f0 a2 bd c7 a3 32 bd 5d 14 8a bb
       0.041899238 -0.079560496 -0.04361322 -0.0042138533
0002a0 58 89 0a 3c 48 bd ab bc d6 a4 93 bd fb 9a c0 3d
       0.008455597 -0.02096428 -0.07209174 0.0940456
0002b0 54 57 3f bd 7d 65 96 bd 36 75 c3 3c f5 bb 09 bd
       -0.046714142 -0.07343576 0.023859601 -0.033626515
0002c0 16 2d dc bc 6d 0a d0 bc 79 66 40 3d cb c7 44 3c
       -0.026876967 -0.025395596 0.046972726 0.012010525
0002d0 07 07 65 3d 9d ac 23 bd da b7 4b 3d e7 3d 94 bd
       0.055914905 -0.03995954 0.04973588 -0.072383694
0002e0 dd 28 e9 3c a9 4a 6e bb 9f 2e 88 bb 39 36 84 3d
       0.028461868 -0.003636042 -0.0041559483 0.06455655
0002f0 aa 95 0b bc ae 0c 34 bd 80 33 60 bd 9a 54 a0 bb
       -0.008519569 -0.043957405 -0.054736614 -0.004892898
000300 a9 81 d7 bc cd 07 f4 3c 63 c4 8f bd d8 db b3 bc
       -0.026306944 0.029788876 -0.0701988 -0.021955416
000310 17 d0 3d 3d 1c cc 32 bd f5 39 aa bd e7 32 20 3d
       0.046341028 -0.043651685 -0.08311836 0.039111044
000320 6d d7 f7 be cf bc 0a bf 7f 05 00 bf 00 8b 1e 3f
       -0.48406544 -0.5419435 -0.50008386 0.6193085
000330 64 a7 2b 3f b6 27 18 bf 23 c6 48 3f 6a 14 37 3f
       0.6705229 -0.59435594 0.7842733 0.71515524
000340 9c 8a ed be 10 a3 3f 3f fd fb 1f 3f 00 bf 29 bf
       -0.46394813 0.7485819 0.6249388 -0.6630707
000350 a5 56 44 3f 1f 88 3e 3f fa 67 36 3f ee e1 32 3f
       0.7669471 0.74426454 0.71252406 0.6987599
000360 07 2a 25 3f 81 39 34 3f 5d 83 10 3f 54 1a ea be
       0.64517254 0.70400244 0.56450444 -0.45723212
000370 3f e0 2b 3f ae ba 1c 3f 6e 7d 07 bf 3b 4b 34 3f
       0.6713905 0.6122235 -0.52925766 0.7042729
000380 3e 7a 1a bf a7 9b 3c 3f 01 f2 1d bf 9d 89 1c 3f
       -0.60342777 0.73675007 -0.61697394 0.6114748
000390 66 03 2d 3f c9 db 1e 3f b2 03 0c bf e9 8c 37 3f
       0.6758331 0.62054116 -0.5469314 0.71699387
0003a0 f4 c8 42 3f cf ed f9 be 36 36 22 3f 23 1e 0f 3f
       0.7608788 -0.48814246 0.6336397 0.5590536
0003b0 59 83 42 3f cd eb 22 3f 08 ac e9 be 1d b6 15 3f
       0.7598167 0.63641053 -0.45639062 0.5848101
0003c0 5a 92 3d 3f ac fc 36 3f c3 4f 10 bf 26 3e 24 3f
       0.7405144 0.71479297 -0.56371707 0.6415733
0003d0 c4 f7 32 3f 62 9d 1a 3f 00 4a 1f 3f a7 16 38 3f
       0.6990931 0.603964 0.6222229 0.71909565
0003e0 ec 34 15 bf 38 e6 40 3f c7 b2 36 3f 3a ae 0d bf
       -0.5828388 0.75351286 0.7136654 -0.55343974
0003f0 a5 38 3f 3f 98 19 31 3f bd ef 10 3f 38 70 2e 3f
       0.7469581 0.6917968 0.5661581 0.6813998

fc2.bias f4 [20]
000000 d2 81 86 3d 11 18 05 3f ae 92 cf 3e a9 f5 c5 bb
       0.0656773 0.5198985 0.40541595 -0.006041248
000010 d3 83 eb 3e d6 6e d5 bc b3 60 ee 3e 1a b4 da 3c
       0.4599901 -0.026053827 0.4655815 0.026697207
000020 bd ab 49 3c 30 2a 07 3f 8d 2e df 3e ee 99 ed 3e
       0.012309012 0.5279875 0.43590203 0.46406502
000030 5a ed be 3c 7a 67 f2 bc 53 85 00 3f 72 d2 ef 3e
       0.023306537 -0.029590357 0.50203437 0.46840245
000040 62 72 01 3f bc 57 9d 3b 5b d2 ea 3e d7 41 5c 3d
       0.5056516 0.0048017185 0.45863613 0.053773727

fc3.weight f4 [1, 20]
000000 8e 5b da be c3 08 6d 3f 04 9f 74 3f b9 00 f3 be
       -0.42647976 0.92591494 0.9555514 -0.4746149
000010 13 77 4e 3f 38 a9 d3 be b4 cc 73 3f 4e ac a6 be
       0.8065044 -0.4134004 0.9523423 -0.32553333
000020 94 e6 d4 be b0 47 6c 3f 41 92 48 3f ec 30 6c 3f
       -0.41582167 0.92296886 0.78348166 0.9226215
000030 dc 40 dd be 25 44 09 bf 81 1a 4c 3f 58 3c 77 3f
       -0.43213546 -0.53619605 0.7972794 0.9657645
000040 a8 1f 70 3f a8 65 e9 be e0 d2 7a 3f 0e 8d 00 bf
       0.93798304 -0.4558537 0.9797802 -0.5021523

bn1.weight f4 [200]
000000 2f 2b c8 3f 4b 18 ca 3f f3 65 c9 3f 00 00 80 3f
       1.5638179 1.5788664 1.5734237 1.0
000010 6e 40 e8 3f 00 00 80 3f b8 24 e5 3f 40 0a de 3f
       1.8144662 1.0 1.7901831 1.7346878
000020 0f c0 ca 3f 27 de e2 3f 00 00 80 3f 00 00 80 3f
       1.5839862 1.7724046 1.0 1.0
000030 e7 4d e5 3f 1f d3 e1 3f e6 3b e1 3f e7 96 e5 3f
       1.7914399 1.7642554 1.7596405 1.7936677
000040 3c d3 e0 3f 5d e2 e2 3f 00 00 80 3f aa 2c c7 3f
       1.7564464 1.772533 1.0 1.5560505
000050 23 2f e6 3f 00 00 80 3f 26 ba cc 3f 6e 93 e4 3f
       1.7983135 1.0 1.5994308 1.7857492
000060 00 00 80 3f 52 39 e1 3f 14 39 c8 3f 00 00 80 3f
       1.0 1.7595618 1.5642419 1.0
000070 88 c3 df 3f 00 00 80 3f 79 d3 c8 3f 86 48 e2 3f
       1.7481546 1.0 1.5689536 1.7678382
000080 18 32 e5 3f 63 fe c6 3f a3 2c e4 3f 00 00 80 3f
       1.7905912 1.5546383 1.7826122 1.0
000090 0e 6d e4 3f d0 db dc 3f 81 76 c8 3f 00 00 80 3f
       1.7845781 1.7254581 1.5661165 1.0
0000a0 53 8b e7 3f 1c 48 df 3f a8 56 c8 3f c3 43 dd 3f
       1.8089393 1.7443881 1.5651445 1.7286304
0000b0 a2 c1 e0 3f 59 2a f0 3e 00 00 80 3f a3 f7 e0 3f
       1.7559092 0.4690731 1.0 1.7575573
0000c0 bc 05 c9 3f 9c 05 e5 3f 79 c8 e1 3f 6d 62 cc 3f
       1.5704875 1.7892337 1.7639304 1.5967537
0000d0 c0 a1 e3 3f bc d5 e4 3f 00 00 80 3f 39 37 e2 3f
       1.7783737 1.7877727 1.0 1.7673103
0000e0 e9 48 df 3f f3 4e e1 3f cb 0c e3 3f 00 00 80 3f
       1.7444125 1.7602218 1.7738279 1.0
0000f0 00 00 80 3f ae 49 de 3f 93 ac e3 3f 00 00 80 3f
       1.0 1.7366235 1.778704 1.0
000100 44 f8 e2 3f 95 35 e1 3f 44 db c5 3f e7 da ca 3f
       1.7732015 1.7594477 1.545754 1.5848054
000110 2a 3d e3 3f 5d 31 e1 3f 00 00 80 3f 00 00 80 3f
       1.7753041 1.759319 1.0 1.0
000120 00 00 80 3f 52 dd de 3f c5 06 e4 3f 1a 84 c2 3f
       1.0 1.7411292 1.7814566 1.5196564
000130 e0 36 e2 3f 00 00 80 3f 10 f4 c9 3f 6e d9 c4 3f
       1.7672997 1.0 1.5777607 1.5378854
000140 c4 72 c8 3f 00 00 80 3f 00 00 80 3f 9d 0f e3 3f
       1.5660024 1.0 1.0 1.773914
000150 00 00 80 3f fa 5c e1 3f 57 35 e0 3f 32 cb de 3f
       1.0 1.7606499 1.7516278 1.740576
000160 7c 56 e1 3f 00 00 80 3f 1b 06 e3 3f 00 00 80 3f
       1.7604518 1.0 1.7736238 1.0
000170 fb 5e e3 3f d2 38 c9 3f d7 fd ca 3f 60 60 ca 3f
       1.7763361 1.5720465 1.5858716 1.5810661
000180 a8 fb e4 3f b0 25 e5 3f 3b 4c e0 3f 7c 39 cc 3f
       1.7889299 1.7902126 1.7523264 1.5955043
000190 6a 0b e4 3f 86 7a dc 3f c1 5c de 3f f9 6f c9 3f
       1.7815983 1.7224891 1.7372056 1.5737296
0001a0 61 1f e6 3f 2a ee e5 3f 18 aa db 3f 00 00 80 3f
       1.7978326 1.7963307 1.7161283 1.0
0001b0 00 00 80 3f 77 05 cc 3f 00 00 80 3f 30 97 c5 3f
       1.0 1.5939168 1.0 1.5436764
0001c0 d7 49 e4 3f 33 bb df 3f 09 73 e3 3f 3a 70 e6 3f
       1.7835034 1.7479004 1.7769481 1.8002999
0001d0 de 0d c8 3f 00 00 80 3f 74 34 e2 3f 70 34 c5 3f
       1.5629232 1.0 1.7672257 1.5406628
0001e0 ae 03 e1 3f 17 12 62 40 00 00 80 3f ce 0c e1 3f
       1.7579248 3.532354 1.0 1.7582033
0001f0 62 03 ca 3f ad e9 e4 3f 02 74 e2 3f 00 00 80 3f
       1.5782282 1.7883812 1.7691653 1.0
000200 00 00 80 3f 21 f3 e1 3f 2b 6b ca 3f 00 00 80 3f
       1.0 1.7652322 1.5813955 1.0
000210 4f b0 e0 3f 00 00 80 3f 04 37 c5 3f 58 42 de 3f
       1.7553805 1.0 1.5407414 1.7363997
000220 3a b1 c8 3f db a0 e5 3f 00 00 80 3f 00 00 80 3f
       1.5679085 1.7939714 1.0 1.0
000230 00 00 80 3f 00 00 80 3f 8d d2 e4 3f 00 00 80 3f
       1.0 1.0 1.7876755 1.0
000240 0f 09 ca 3f 00 00 80 3f f0 d9 e4 3f 6b 0e e4 3f
       1.5784014 1.0 1.7879009 1.78169
000250 d5 5c de 3f 00 00 80 3f 32 f6 e3 3f 13 3b e1 3f
       1.737208 1.0 1.7809508 1.7596153
000260 46 03 cc 3f 56 44 e3 3f 9c b1 e2 3f 00 00 80 3f
       1.5938499 1.775523 1.7710452 1.0
000270 d6 11 e5 3f 0b 03 e1 3f 9b 4f e1 3f e2 d2 e5 3f
       1.7896068 1.7579054 1.7602419 1.7954981
000280 42 fc e2 3f be 20 c6 3f c7 7b e5 3f b4 f5 e2 3f
       1.7733233 1.5478742 1.7928399 1.7731233
000290 75 4f df 3f d9 05 c6 3f 3c 47 cb 3f dd 7e e2 3f
       1.7446123 1.5470535 1.5881114 1.7694966
0002a0 70 d6 e3 3f 00 00 80 3f 66 d4 e0 3f 00 00 80 3f
       1.7799816 1.0 1.7564819 1.0
0002b0 d7 3a e1 3f d9 4f ca 3f ed f5 c9 3f 00 00 80 3f
       1.7596081 1.5805618 1.5778176 1.0
0002c0 3e 3e cb 3f d1 4d c8 3f 4f b0 e4 3f 77 50 e2 3f
       1.587837 1.5648748 1.7866305 1.7680806
0002d0 3c b9 e0 3f b6 80 e4 3f 77 fb ca 3f 05 7b e1 3f
       1.7556529 1.785178 1.5857991 1.7615668
0002e0 15 c2 e3 3f 66 ea c6 3f 01 4e c6 3f eb ea df 3f
       1.7793604 1.5540283 1.5492555 1.7493566
0002f0 f5 fa e2 3f 35 2e e6 3f fd bf e6 3f 76 3c e8 3f
       1.7732836 1.7982851 1.802734 1.8143451
000300 88 3d cb 3f d3 fd c5 3f 00 00 80 3f 00 00 80 3f
       1.5878153 1.5468086 1.0 1.0
000310 2a c9 e6 3f 70 9d e5 3f ed 65 e4 3f 47 ec e6 3f
       1.803014 1.7938671 1.7843605 1.8040856

bn1.bias f4 [200]
000000 8c 9b 1d bf 0c fd 17 bf e5 9c 1a bf 5c 35 19 3f
       -0.6156547 -0.59370494 -0.6039565 0.59847045
000010 37 01 17 3f 54 0b 16 bf 86 d2 12 3f f8 93 0f 3f
       0.5898623 -0.58611035 0.57352483 0.5608516
000020 9e 92 1b bf 88 65 16 3f 3e 1d 18 3f b2 6c 17 bf
       -0.60770595 0.58748674 0.5941962 -0.5915023
000030 72 60 13 3f c7 58 15 3f 07 62 1b 3f c6 9a 13 3f
       0.5756904 0.5833859 0.6069645 0.5765804
000040 97 df 13 3f 31 9b 10 3f 47 a8 13 3f da 46 19 bf
       0.57763046 0.56486803 0.57678646 -0.59873736
000050 c1 bd 16 3f 8e 10 16 3f 78 2c 1b bf 68 2f 17 3f
       0.5888329 0.5861901 -0.6061473 0.5905671
000060 bd 22 1a bf e8 44 1a 3f c2 a6 16 bf 1a 20 1a 3f
       -0.60209256 0.6026139 -0.588482 0.60205233
000070 c4 df 12 3f c5 e9 16 3f 1e 58 1a bf ff 16 14 3f
       0.5737269 0.58950454 -0.60290706 0.5784759
000080 8a d2 16 3f c5 2f 19 bf 46 5c 13 3f 0c 1d 1a 3f
       0.5891501 -0.59838516 0.57562673 0.6020057
000090 5f 42 11 3f eb 57 0f 3f 9f b6 17 bf 4c 29 18 3f
       0.567419 0.5599353 -0.5926303 0.59438014
0000a0 27 15 13 3f e7 86 19 3f 4a 85 17 bf 44 84 13 3f
       0.5745415 0.5997147 -0.5918776 0.57623696
0000b0 f9 8f 10 3f bb 99 1c 3f 0f 60 19 3f 17 37 10 3f
       0.56469685 0.61172074 0.599122 0.5633406
0000c0 9d be 13 bf 2c f6 17 3f 66 75 17 3f 2a 77 15 bf
       -0.5771273 0.59360003 0.5916351 -0.58384955
0000d0 77 94 10 3f 05 a3 14 3f bb 8f 18 3f b5 3c 17 3f
       0.5647654 0.5806125 0.59594315 0.59077007
0000e0 36 ec 19 3f 8a f2 17 3f 86 ef 17 3f 21 e9 19 bf
       0.60126054 0.5935446 0.5934986 -0.6012135
0000f0 f5 22 19 3f 02 76 09 3f e1 53 18 3f b7 df 19 bf
       0.59818965 0.5369569 0.5950299 -0.60106987
000100 e2 8a 12 3f 30 49 19 3f ec 45 17 bf bc 05 1a bf
       0.5724317 0.598773 -0.5909107 -0.60165
000110 97 21 18 3f fe 1e 0f 3f b4 83 17 bf 0c 20 1a bf
       0.59426254 0.55906665 -0.5918534 -0.6020515
000120 88 e9 19 bf e5 a0 16 3f bd a3 18 3f 32 11 0c bf
       -0.60121965 0.58839256 0.59624845 -0.5471374
000130 bf 6b 13 3f 39 23 19 bf e1 c4 13 bf 6c e9 11 bf
       0.5758628 -0.5981937 -0.5772229 -0.569968
000140 be fc 13 bf 32 4d 17 3f 5c 5b 19 3f a3 fc 16 3f
       -0.5780753 0.59102166 0.5990503 0.58979243
000150 a0 02 17 bf 0e bc 18 3f e3 c2 17 3f 7f 05 15 3f
       -0.5898838 0.5966195 0.5928175 0.5821151
000160 6f 17 18 3f 6a 18 1b bf 48 d9 13 3f 30 25 1b bf
       0.59410757 -0.6058413 0.5775342 -0.6060362
000170 fe f0 10 3f 89 bd 14 bf 5c 8c 1a bf bb e7 16 bf
       0.56617725 -0.5810171 -0.6037042 -0.5894734
000180 75 b2 0f 3f f3 ab 10 3f 9f 52 17 3f eb ae 1a bf
       0.5613168 0.56512374 0.59110445 -0.60423154
000190 82 9e 19 3f c5 5b 12 3f f6 97 17 3f d0 1a 19 bf
       0.6000749 0.5717128 0.5921625 -0.5980654
0001a0 38 b8 13 3f ce 02 11 3f 29 79 0d 3f 84 a6 17 3f
       0.5770297 0.56644905 0.55263 0.5923846
0001b0 88 cb 19 bf 39 c6 15 bf 09 78 19 3f c6 6e 17 bf
       -0.6007619 -0.5850559 0.59948784 -0.591534
0001c0 d2 8d 13 3f 50 87 12 3f 21 cd 13 3f 4a ac 16 3f
       0.57638276 0.5723772 0.57734877 0.5885664
0001d0 e0 49 15 bf 4e 0f 18 bf 19 ab 13 3f 03 2f 0b bf
       -0.5831585 -0.59398353 0.5768295 -0.5436861
0001e0 c7 91 16 3f 07 a7 17 bf a7 00 16 bf 84 63 12 3f
       0.5881619 -0.5923924 -0.58594745 0.571831
0001f0 ae 9b 18 bf ba df 13 3f bf 49 0f 3f a9 39 15 3f
       -0.5961255 0.57763255 0.559719 0.5829111
000200 6b 99 1a 3f 1c ad 15 3f 86 de 15 bf 3a c3 19 bf
       0.6039035 0.5846727 -0.5854267 -0.6006352
000210 69 d8 11 3f b7 55 18 3f b4 85 11 bf 0c 35 13 3f
       0.5697084 0.5950579 -0.5684464 0.5750282
000220 ca d3 18 bf b1 a0 1a 3f f4 86 18 bf 07 17 1a 3f
       -0.59698164 0.60401446 -0.5958092 0.60191387
000230 c4 e5 19 bf ad 84 1a 3f d3 42 17 3f 18 6e 16 3f
       -0.6011622 0.603587 0.5908634 0.5876174
000240 59 46 14 bf bc ff 1a bf c9 37 18 3f 45 e7 12 3f
       -0.5791984 -0.6054647 0.5946012 0.5738414
000250 37 d5 16 3f 16 bc 16 bf ed f1 17 3f 46 74 12 3f
       0.5891909 -0.58880746 0.59353524 0.5720867
000260 7e 4d 19 bf b5 a6 17 3f b6 3b 10 3f 54 37 18 bf
       -0.5988387 0.5923875 0.5634111 -0.59459424
000270 70 a9 16 3f 0d 8b 11 3f e2 cd 14 3f 91 28 13 3f
       0.5885229 0.568528 0.5812665 0.57483774
000280 0b a1 14 3f 70 81 0d bf a6 a8 10 3f 2e 56 18 3f
       0.5805823 -0.5527563 0.5650734 0.595065
000290 44 15 12 3f cb 03 15 bf 28 6e 1c bf 49 8e 15 3f
       0.570637 -0.5820891 -0.61105585 0.58420235
0002a0 b4 58 16 3f 4e b9 16 bf 8c e1 11 3f 30 17 18 bf
       0.587291 -0.588765 0.5698478 -0.5941038
0002b0 c7 da 17 3f ea db 15 bf 7e b3 1b bf db 63 17 bf
       0.593182 -0.5853869 -0.6082076 -0.5913674
0002c0 96 65 13 bf 30 51 14 bf 6d ce 0f 3f 4b 07 16 3f
       -0.5757688 -0.5793638 0.56174356 0.5860488
0002d0 a8 94 19 3f 06 ba 12 3f ba e3 11 bf 83 9e 13 3f
       0.59992456 0.573151 -0.5698811 0.57663745
0002e0 b4 3d 18 3f 66 a9 1a bf 01 dd 1b bf aa e0 17 3f
       0.5946915 -0.6041473 -0.608841 0.59327185
0002f0 a6 ca 12 3f 6f 92 13 3f 89 99 14 3f 8a de 11 3f
       0.57340467 0.57645315 0.58046776 0.5698019
000300 36 2b 15 bf ac 33 13 bf bb af 1b 3f 9c 44 1a bf
       -0.5826906 -0.5750072 0.6081502 -0.6026094
000310 65 b8 13 3f bb 8a 16 3f 56 e4 12 3f 98 dc 13 3f
       0.5770324 0.58805436 0.57379663 0.57758474

bn1.running_mean f4 [200]
000000 b2 12 99 45 00 19 00 42 ed 10 3d 42 00 00 00 00
       4898.337 32.024414 47.26653 0.0
000010 66 7e 2f 46 00 00 00 00 2a f5 ef 45 78 6d 9c 46
       11231.6 0.0 7678.6455 20022.734
000020 0a 24 a9 45 6a 23 24 47 00 00 00 00 00 00 00 00
       5412.505 42019.414 0.0 0.0
000030 9e 4c e2 46 5f c3 75 46 c7 de 13 47 26 21 b7 46
       28966.309 15728.843 37854.777 23440.574
000040 e8 1c 8b 46 ed 32 b1 46 00 00 00 00 fe d4 76 3f
       17806.453 22681.463 0.0 0.9641875
000050 40 cd 5a 45 00 00 00 00 54 ff 81 43 4d c8 95 46
       3500.8281 0.0 259.99475 19172.15
000060 00 00 00 00 97 10 5a 45 8f 19 3f 3e 00 00 00 00
       0.0 3489.0369 0.18662094 0.0
000070 b3 06 05 47 00 00 00 00 19 9e 96 42 87 64 0a 46
       34054.7 0.0 75.308784 8857.132
000080 fc 42 28 46 29 b1 e4 45 03 07 27 47 00 00 00 00
       10768.746 7318.145 42759.01 0.0
000090 95 9b e0 46 f4 5d 10 47 74 1e be 44 00 00 00 00
       28749.791 36957.953 1520.9517 0.0
0000a0 9d bf 4e 44 d9 ef 98 46 21 d0 77 43 83 08 37 46
       826.99396 19575.924 247.813 11714.128
0000b0 ce 26 92 46 71 4b 9d 3e 00 00 00 00 2b e3 ee 46
       18707.402 0.3072162 0.0 30577.584
0000c0 c6 2d 8d 3f 3b ed a3 45 14 03 2c 45 26 14 0c 45
       1.1029594 5245.654 2752.1924 2241.2593
0000d0 2c 0e d0 46 2b 3e 8f 46 00 00 00 00 d6 ec 32 46
       26631.086 18335.084 0.0 11451.209
0000e0 d2 91 a4 46 52 32 8a 46 b2 4e 16 46 00 00 00 00
       21064.91 17689.16 9619.674 0.0
0000f0 00 00 00 00 e4 e7 a2 46 0c ac 4a 47 00 00 00 00
       0.0 20851.945 51884.047 0.0
000100 bf c8 1a 47 41 e7 79 46 4f 1a c3 3f 86 78 15 44
       39624.746 15993.813 1.5242404 597.8832
000110 d2 a9 35 42 a2 c3 3b 46 00 00 00 00 00 00 00 00
       45.41584 12016.908 0.0 0.0
000120 00 00 00 00 c0 b1 b4 46 47 24 27 46 b8 ba d6 3e
       0.0 23128.875 10697.069 0.4193933
000130 0f 27 41 45 00 00 00 00 45 d6 0b 45 6b 26 ce 42
       3090.4412 0.0 2237.3918 103.075035
000140 7f 3b 71 43 00 00 00 00 00 00 00 00 e7 91 0c 46
       241.2324 0.0 0.0 8996.476
000150 00 00 00 00 6d ea f7 45 17 ec 3e 47 8d f1 0d 47
       0.0 7933.303 48876.09 36337.55
000160 e6 30 a1 45 00 00 00 00 33 82 f2 45 00 00 00 00
       5158.1123 0.0 7760.275 0.0
000170 f2 9a a3 46 e9 9f 2b 44 62 10 5f 44 67 e1 d3 44
       20941.473 686.4986 892.256 1695.0438
000180 a2 a2 85 46 bb f2 4b 46 14 e6 7b 46 13 b3 6d 44
       17105.316 13052.683 16121.52 950.79803
000190 e7 77 0c 46 ea 03 4f 46 00 69 ad 45 07 9f bc 43
       8989.976 13248.979 5549.125 377.2424
0001a0 71 e8 ca 46 1f fe ed 45 ac 5d d3 46 00 00 00 00
       25972.22 7615.765 27054.836 0.0
0001b0 00 00 00 00 e6 c0 ea 44 00 00 00 00 30 1d 88 42
       0.0 1878.0281 0.0 68.05701
0001c0 f4 c0 39 46 fc 64 a4 46 d6 a2 bf 46 28 15 12 45
       11888.238 21042.492 24529.418 2337.3223
0001d0 86 50 b8 3f 00 00 00 00 75 7f cc 46 68 e6 10 44
       1.4399574 0.0 26175.729 579.6001
0001e0 b1 86 ba 46 cb 51 6f 45 00 00 00 00 ee ac 79 46
       23875.346 3829.112 0.0 15979.232
0001f0 7e 54 68 44 16 4a 1c 46 45 48 08 46 00 00 00 00
       929.3202 10002.521 8722.067 0.0
000200 00 00 00 00 23 75 36 46 cd 95 03 46 00 00 00 00
       0.0 11677.284 8421.45 0.0
000210 14 4a 2a 46 00 00 00 00 6f d1 29 42 8f 22 0b 47
       10898.52 0.0 42.454525 35618.56
000220 e8 7f 21 44 f7 c5 2d 45 00 00 00 00 00 00 00 00
       645.99854 2780.3728 0.0 0.0
000230 00 00 00 00 00 00 00 00 92 6b ed 46 00 00 00 00
       0.0 0.0 30389.785 0.0
000240 24 c3 5c 45 00 00 00 00 07 88 c4 46 4c 9d c6 45
       3532.1963 0.0 25156.014 6355.662
000250 6a ab 45 46 00 00 00 00 bc 21 8e 43 58 ed 50 46
       12650.854 0.0 284.26355 13371.336
000260 a8 ee 50 45 7e cb c0 45 b5 97 14 46 00 00 00 00
       3342.916 6169.4365 9509.927 0.0
000270 86 e6 9b 45 e2 d1 87 46 1d 90 fd 45 55 67 41 46
       4988.8154 17384.941 8114.014 12377.833
000280 44 67 3a 47 c1 a7 6b 3f 85 9e b5 46 c0 38 f0 45
       47719.266 0.9205285 23247.26 7687.0938
000290 49 f7 8e 46 98 d2 ae 45 38 0a 22 43 8b a3 13 47
       18299.643 5594.324 162.03992 37795.543
0002a0 17 1c 9d 46 00 00 00 00 f7 23 a5 46 00 00 00 00
       20110.045 0.0 21137.982 0.0
0002b0 f6 a4 19 47 7f 25 0b 44 9c 65 11 42 00 00 00 00
       39332.96 556.5859 36.349228 0.0
0002c0 8c a5 81 44 7b 90 ed 44 35 46 09 46 5b 66 97 46
       1037.1733 1900.515 8785.552 19379.178
0002d0 e6 a2 35 47 d2 38 fe 44 a8 a0 25 45 7b e6 b7 45
       46498.9 2033.7756 2650.041 5884.81
0002e0 4e 0e a8 46 1b 40 8f 42 2c 96 5a 43 1d f9 c5 45
       21511.152 71.625206 218.58661 6335.139
0002f0 9e 23 d1 46 43 f1 79 46 6d 24 36 46 ed 83 ee 45
       26769.809 15996.315 11657.106 7632.4907
000300 20 de 02 45 55 ff de 41 00 00 00 00 00 00 00 00
       2093.8828 27.874674 0.0 0.0
000310 ef 1b 12 45 28 37 08 46 e0 2f ff 46 3a b9 81 44
       2337.7458 8717.789 32663.938 1037.7883

bn1.running_var f4 [200]
000000 1c 90 94 4c e0 6b 07 47 d3 7c 8d 47 d0 bf 3d 3e
       7.788976e+07 34667.875 72441.65 0.18530202
000010 21 6e 4a 4c d0 bf 3d 3e da d9 7a 4c 46 28 b2 4d
       5.306586e+07 0.18530202 6.575908e+07 3.7362298e+08
000020 01 c2 da 4b 36 77 0e 4f d0 bf 3d 3e d0 bf 3d 3e
       2.8673026e+07 2.3901773e+09 0.18530202 0.18530202
000030 c2 ea 29 4e 5b 05 e1 4d 21 ce 01 4f 13 56 3b 4e
       7.1268365e+08 4.7190307e+08 2.1777697e+09 7.857451e+08
000040 00 19 c0 4d 33 a9 df 4d d0 bf 3d 3e f8 24 70 44
       4.02858e+08 4.6905098e+08 0.18530202 960.57764
000050 0d 2d 4f 4b d0 bf 3d 3e 15 ce 2e 49 0c 11 f1 4d
       1.3577485e+07 0.18530202 716001.3 5.0555328e+08
000060 d0 bf 3d 3e 75 22 4c 4a f3 bf af 42 d0 bf 3d 3e
       0.18530202 3.3445412e+06 87.8749 0.18530202
000070 8d fa 84 4e d0 bf 3d 3e aa df 2d 48 66 f8 31 4d
       1.1155063e+09 0.18530202 178046.66 1.866154e+08
000080 99 f8 87 4d 7c aa fc 4b 38 96 3a 4f d0 bf 3d 3e
       2.8515203e+08 3.3117432e+07 3.130407e+09 0.18530202
000090 c7 e2 d5 4d dd aa b1 4e ae 7e 3a 4b d0 bf 3d 3e
       4.4855114e+08 1.4903825e+09 1.2222126e+07 0.18530202
0000a0 15 8b 19 4a 87 5c 39 4e c7 54 99 49 d8 26 49 4d
       2.5156532e+06 7.774622e+08 1.2560889e+06 2.1092288e+08
0000b0 18 99 6f 4d 5e 6c 2d 43 d0 bf 3d 3e fc 2b 79 4e
       2.5123674e+08 173.42331 0.18530202 1.04510234e+09
0000c0 b4 58 70 44 a6 99 1c 4c 96 51 d5 4b 9b 40 9b 4a
       961.386 4.10518e+07 2.7960108e+07 5.0873095e+06
0000d0 86 b8 60 4e ab ce 1e 4e d0 bf 3d 3e dd cc 56 4d
       9.425473e+08 6.660861e+08 0.18530202 2.2523438e+08
0000e0 b6 2f 3f 4d af 7b f2 4d 5d a2 9a 4c d0 bf 3d 3e
       2.0047344e+08 5.08524e+08 8.107287e+07 0.18530202
0000f0 d0 bf 3d 3e ab 6b 3f 4e c6 de 5d 4f d0 bf 3d 3e
       0.18530202 8.028761e+08 3.7223644e+09 0.18530202
000100 a6 68 21 4f 43 2e cc 4d 3b 7a 7a 44 25 c2 b7 48
       2.70799e+09 4.2819798e+08 1001.90985 376337.16
000110 cb cb d1 47 3d 34 ad 4d d0 bf 3d 3e d0 bf 3d 3e
       107415.586 3.6323523e+08 0.18530202 0.18530202
000120 d0 bf 3d 3e 76 7f ff 4d 4c a3 51 4d 3c 84 a1 43
       0.18530202 5.3581792e+08 2.1982125e+08 323.03308
000130 2b ed fd 4b d0 bf 3d 3e 5d 91 8f 4a 28 f7 9a 48
       3.3282646e+07 0.18530202 4.7044305e+06 317369.25
000140 c9 91 8b 49 d0 bf 3d 3e d0 bf 3d 3e b3 0c 63 4b
       1.1433531e+06 0.18530202 0.18530202 1.4879923e+07
000150 d0 bf 3d 3e e0 71 e1 4c df 39 2f 4f 1a e7 9d 4e
       0.18530202 1.1819802e+08 2.9398054e+09 1.3245842e+09
000160 38 3d 90 4c d0 bf 3d 3e 0b 65 c7 4c d0 bf 3d 3e
       7.562285e+07 0.18530202 1.0454025e+08 0.18530202
000170 3a 88 33 4e da 86 26 4a 08 b2 86 4a a1 6e 03 4b
       7.5301235e+08 2.7283745e+06 4.4137e+06 8.613537e+06
000180 60 c5 30 4e d9 63 b4 4d 48 d7 ef 4d 35 41 c3 4a
       7.414313e+08 3.783053e+08 5.029829e+08 6.3981065e+06
000190 20 49 59 4d a3 68 5a 4d c2 47 e7 4b 7f f6 a2 49
       2.2784051e+08 2.2901816e+08 3.0314372e+07 1.3349919e+06
0001a0 90 93 43 4e b0 75 de 4b dc ac de 4d d0 bf 3d 3e
       8.2030694e+08 2.915824e+07 4.669838e+08 0.18530202
0001b0 d0 bf 3d 3e fd f4 56 4a d0 bf 3d 3e ff a3 4d 48
       0.18530202 3.5218552e+06 0.18530202 210575.98
0001c0 45 dd ca 4d bc b9 8f 4d 79 40 88 4e 54 ed a9 4b
       4.2543734e+08 3.0141427e+08 1.1429633e+09 2.227268e+07
0001d0 a1 cf cc 44 d0 bf 3d 3e 57 b4 2b 4e 9a 4a 9a 49
       1638.4884 0.18530202 7.201807e+08 1.2639552e+06
0001e0 78 14 3b 4e d0 04 d3 4a d0 bf 3d 3e 40 2f 80 4d
       7.846702e+08 6.914664e+06 0.18530202 2.6882253e+08
0001f0 fd 79 38 4a ce 54 81 4c d0 1c d3 4b d0 bf 3d 3e
       3.0224632e+06 6.780683e+07 2.7670944e+07 0.18530202
000200 d0 bf 3d 3e c3 f6 b4 4d ee c3 95 4b d0 bf 3d 3e
       0.18530202 3.7950883e+08 1.9630044e+07 0.18530202
000210 d0 98 ef 4c d0 bf 3d 3e ad 2e 57 47 92 24 ad 4e
       1.2561779e+08 0.18530202 55086.676 1.4524275e+09
000220 e3 cf 35 4a 70 86 fb 4b d0 bf 3d 3e d0 bf 3d 3e
       2.9788088e+06 3.2967904e+07 0.18530202 0.18530202
000230 d0 bf 3d 3e d0 bf 3d 3e 66 01 b9 4e d0 bf 3d 3e
       0.18530202 0.18530202 1.5519383e+09 0.18530202
000240 ea 2c 2e 4b d0 bf 3d 3e 9d 25 49 4e 6b f4 46 4c
       1.1414762e+07 0.18530202 8.4367136e+08 5.2154796e+07
000250 ed af d8 4c d0 bf 3d 3e be c1 89 49 4d 42 55 4d
       1.13606504e+08 0.18530202 1.1285038e+06 2.2361826e+08
000260 2a 1c 8a 4b 87 a3 dd 4a d2 6b ce 4b d0 bf 3d 3e
       1.8102356e+07 7.2626595e+06 2.7056036e+07 0.18530202
000270 71 fe 0b 4c d4 78 b9 4c c2 9d 7d 4c 04 2a 85 4d
       3.6698564e+07 9.724074e+07 6.6483976e+07 2.792654e+08
000280 5f 9a 19 4f b5 6d 27 44 bf 82 b1 4d 4f 96 df 4c
       2.577031e+09 669.7142 3.7226698e+08 1.17224056e+08
000290 b0 87 75 4d 20 b2 bf 4c fd 23 59 48 14 30 c5 4e
       2.574569e+08 1.0050381e+08 222351.95 1.6541312e+09
0002a0 4f 55 15 4e d0 bf 3d 3e 81 c8 ef 4d d0 bf 3d 3e
       6.26349e+08 0.18530202 5.0286186e+08 0.18530202
0002b0 c5 6f d0 4e 77 42 44 4a 9d 02 0b 47 d0 bf 3d 3e
       1.7484929e+09 3.2155178e+06 35586.613 0.18530202
0002c0 04 77 9c 4a f0 c0 3d 4b f9 4d c9 4b 47 9b 48 4d
       5.127042e+06 1.2435696e+07 2.6385394e+07 2.1035122e+08
0002d0 57 d9 14 4f f2 5a 70 4b e4 01 e1 4b 69 1e 85 4c
       2.4972716e+09 1.5751922e+07 2.9492168e+07 6.9792584e+07
0002e0 b9 78 aa 4d 8d 75 1c 48 aa b7 a1 49 1a 63 a8 4b
       3.575048e+08 160214.2 1.3247892e+06 2.2070836e+07
0002f0 f9 43 10 4e 10 b4 ad 4d 64 67 95 4c 3b b1 43 4c
       6.0509344e+08 3.6428237e+08 7.833066e+07 5.1299564e+07
000300 80 d9 16 4b d8 4a d1 46 d0 bf 3d 3e d0 bf 3d 3e
       9.88608e+06 26789.422 0.18530202 0.18530202
000310 2b 10 93 4b 64 02 46 4c 2f a0 e4 4e 73 b8 96 4a
       1.9275862e+07 5.190696e+07 1.9178515e+09 4.9388095e+06

bn2.weight f4 [20]
000000 77 1e b4 3f 4e 6d e8 3f a6 33 e6 3f 6a 6d af 3f
       1.4071797 1.8158357 1.7984512 1.3705266
000010 85 3f ea 3f 06 14 b7 3f 49 a6 e7 3f 0b e5 b3 3f
       1.8300635 1.4302986 1.8097621 1.4054273
000020 d0 4a b9 3f 87 12 e8 3f 84 d1 e6 3f 18 aa e7 3f
       1.4475956 1.8130654 1.8032689 1.8098783
000030 9d c9 b3 3f 45 a0 ad 3f 4d 01 e8 3f 20 bc e7 3f
       1.4045902 1.3564535 1.8125397 1.8104286
000040 c2 c4 e6 3f 1a 0b b5 3f 9f e7 e7 3f 66 8a b3 3f
       1.8028796 1.4144013 1.811756 1.4026611

bn2.bias f4 [20]
000000 c0 fd e2 be 6f 66 e3 3e 33 a1 de 3e 5e 75 d8 be
       -0.4433422 0.44414088 0.4348236 -0.42277044
000010 50 92 00 3f a0 74 e9 be 68 fb de 3e 17 c3 04 bf
       0.50223255 -0.4559679 0.43551183 -0.51860183
000020 d3 7b ef be 00 db e3 3e 14 39 02 3f 70 a8 e2 3e
       -0.46774158 0.4450302 0.50868344 0.44269133
000030 6f 96 dd be d7 58 ce be 20 b0 00 3f 9d 86 dd 3e
       -0.43278834 -0.40302154 0.50268745 0.43266764
000040 0c db e0 3e d1 31 db be 3b 46 dc 3e 2f 9f d3 be
       0.4391712 -0.42811444 0.43022332 -0.41332385

bn2.running_mean f4 [20]
000000 73 b3 82 3e 3f d3 8e 3e 1b 18 50 3e 15 e7 2d 3e
       0.25527534 0.27895543 0.20321696 0.16982682
000010 98 ea 66 3e b4 7f 6b 3e d0 cc 83 3e 99 cd 1e 3e
       0.22550428 0.22997934 0.25742197 0.15508117
000020 41 2b 36 3e 5d 52 82 3e e7 50 fa 3d fc 49 f0 3e
       0.17789938 0.25453463 0.12222462 0.46931446
000030 67 b9 7b 3e f1 ee 59 3e c9 2e 39 3e 2f 4c 9f 3e
       0.24582444 0.21282555 0.18084253 0.3111281
000040 e8 64 97 3e 13 16 c3 3e 98 8c f8 3e 1c b6 da 3e
       0.29569173 0.3810278 0.48544765 0.42717063

bn2.running_var f4 [20]
000000 4e 67 81 3e ca 52 f0 3e 75 e7 e2 3e 28 1b 84 3e
       0.25274128 0.46938163 0.44317213 0.2580197
000010 b4 f6 d8 3e 7c 25 80 3e 90 a5 0a 3f 6c 11 9c 3e
       0.4237572 0.25028598 0.5415888 0.30482042
000020 33 72 8b 3e 89 a5 e1 3e bd d1 90 3e 04 b6 a3 3f
       0.27235565 0.44071606 0.28285018 1.2789922
000030 71 7f 63 3e 59 6e 82 3e 63 d6 ab 3e 87 14 10 3f
       0.22216584 0.25474814 0.33562002 0.5628132
000040 32 12 28 3f 24 a1 91 3e d7 64 a8 3f a3 23 b1 3e
       0.65652764 0.28443253 1.3155774 0.345975
