Results/NN_MLP_MLs/MLP_Ensemble/Model_Results/AllVar/test7/best_model_1.pt (torch, 98866 bytes, 14 tensors)

country_embedding.weight f4 [8, 2]
0	0x3ff35efc	1.9013362
1	0xc135ee1b	-11.370631
2	0x41132527	9.19657
3	0x3fc342fb	1.5254816
4	0x404edaca	3.2321038
5	0x406a139d	3.657447
6	0xc17faf68	-15.980324
7	0x4059a155	3.400472
8	0xbfac0d95	-1.3441645
9	0xbfeb7688	-1.8395548
10	0x40f87aa7	7.764972
11	0xc1ed3bd5	-29.654215
12	0x414e20ac	12.882977
13	0x417f8f10	15.972427
14	0xc0f97103	-7.7950454
15	0x414cbe80	12.796509

fc1.weight f4 [200, 92]
0	0xbde20bc7	-0.110374026
1	0xbdceb8ae	-0.100938186
2	0x3d75049b	0.059818845
3	0x3bb6790a	0.005568628
4	0xbdd260cf	-0.10272371
5	0xbdb43d70	-0.08800781
6	0xbd50f5fd	-0.051015843
7	0xbdc57c81	-0.09642888
8	0xbd08d7f2	-0.033409066
9	0xbc148436	-0.009064725
10	0x3da8ef4c	0.08248767
11	0x3dc9583a	0.09831281
12	0xbe1e65a3	-0.15468459
13	0x3d845d5a	0.06463118
14	0x3d8bddee	0.06829439
15	0xbb96a02e	-0.0045967316
16	0xbd50ddbd	-0.050992716
17	0xbe2cd5f2	-0.16878489
18	0xbe1bf9b1	-0.15231968
19	0xbdc51597	-0.096232586
20	0x3cdc209a	0.026871014
21	0xbd2c733f	-0.042102095
22	0x3c7b1860	0.015325636
23	0xbdbf8100	-0.09350777
24	0x3dd18229	0.10229904
25	0xbc0c95e4	-0.008580659
26	0x3dd96782	0.10615446
27	0x3d246a8a	0.040140666
28	0xbddd8b36	-0.10817568
29	0x3d5b80ed	0.05358975
30	0xbc55351f	-0.013013153
31	0xbdb23e4c	-0.087032884
32	0xbe333f82	-0.17504695
33	0xbdad4efb	-0.0846233
34	0xbe26c107	-0.16284572
35	0xbd4b9a8b	-0.04970793
36	0xbd79c860	-0.060982108
37	0xbe0f03dc	-0.13966316
38	0x3c918611	0.017764123
39	0xbd1a5528	-0.037678868
40	0x3d896bad	0.06709991
41	0xbcc51061	-0.024055662
42	0x3c3f5edc	0.011680331
43	0xbbf70238	-0.0075381063
44	0xbe06c425	-0.1316076
45	0x3d2e297f	0.042520043
46	0x3d122d7f	0.03568792
47	0x3d46aa65	0.048502345
48	0xbd6f6147	-0.05844238
49	0xbc238c91	-0.009982244
50	0x3cd3f36a	0.025872905
51	0x3d649280	0.055803776
52	0xbe092591	-0.13393237
53	0xbd978487	-0.073983245
54	0x3dc935a1	0.09824682
55	0xbe13a3cb	-0.14417951
56	0xbdc6accf	-0.097009294
57	0xbd89346a	-0.0669945
58	0xbce8e328	-0.028428629
59	0x3cbbcd2b	0.02292498
60	0xbda1a00e	-0.07891856
61	0xbd808b35	-0.06276552
62	0xbe3af4bf	-0.18257426
63	0xbd8c8bbc	-0.0686259
64	0xbce57390	-0.028009206
65	0xbd8863c1	-0.066596515
66	0xbd419842	-0.047264345
67	0xbd7c4298	-0.061586946
68	0xbb3a0b7d	-0.0028388195
69	0xbdadac71	-0.08480156
70	0xbe03060f	-0.1279528
71	0x3cda580a	0.026653308
72	0xbc7d499f	-0.015459447
73	0x3d4ea044	0.05044581
74	0x3d3e01db	0.04638849
75	0xbd37be6a	-0.044859327
76	0xbd0c48c6	-0.03424909
77	0x3ccd255a	0.025042225
78	0xbce8fd3c	-0.028441064
79	0xbe2967c8	-0.16543496
80	0xbde83180	-0.113375664
81	0xbd58494c	-0.052804276
82	0xbddb1efe	-0.10699271
83	0xbd014563	-0.031560313
84	0xbcad43fe	-0.021150585
85	0xbe09964c	-0.1343624
86	0xbcdecd83	-0.027197605
87	0xbd9b76a7	-0.075909905
88	0xbba24954	-0.004952589
89	0xbdaf24fb	-0.08551975
90	0x3e5777fa	0.21041861
91	0x3defd177	0.11709874
92	0x3d925bb0	0.07146394
93	0x3cb0fdbd	0.021605367
94	0x3d095850	0.033531487
95	0x3d9f7d5b	0.077875815
96	0x3dca762c	0.09885821
97	0xbd8dafdf	-0.069183104
98	0x3c559178	0.013035171
99	0x3d9f5706	0.0778027
100	0x3d9aae34	0.07552758
101	0x3d84a564	0.06476858
102	0xbd9a870e	-0.07545291
103	0xbd99c179	-0.07507605
104	0xbd81214d	-0.0630518
105	0x3c569792	0.013097661
106	0x3dd4ce80	0.10390949
107	0xbd86dfe5	-0.06585673
108	0x3d638f65	0.055556674
109	0xbd6c5c36	-0.057705127
110	0xbdc8c0f2	-0.098024264
111	0xbcb5865b	-0.022158792
112	0x3d760bee	0.06006997
113	0x3dc639b7	0.09678977
114	0xbd849a7a	-0.064747766
115	0x3cb95807	0.022624983
116	0x3db83ca1	0.08995939
117	0x3d8d7d2d	0.06908641
118	0x3d8511df	0.06497549
119	0x3d97bbbf	0.074088566
120	0x3d870dda	0.06594439
121	0x3cdc9abf	0.026929257
122	0xbd920228	-0.071293175
123	0xbdb34ddf	-0.08755087
124	0xbd43ad69	-0.0477728
125	0xbc46e835	-0.012140323
126	0xbd82e076	-0.06390469
127	0x3d1c3bb5	0.03814288
128	0x3d0429b4	0.032266334
129	0xbcc1648a	-0.023607511
130	0x3d2420bf	0.04007029
131	0x3d0a0312	0.033694334
132	0x3d825c8c	0.06365308
133	0x3d8fcaf8	0.07021135
134	0xbd109e0f	-0.035306986
135	0x3dd09d01	0.10186196
136	0xbc4579b1	-0.012052939
137	0xbb6abda5	-0.0035818603
138	0xbdc9893e	-0.0984063
139	0xbd896c94	-0.06710163
140	0xbd797a0f	-0.06090742
141	0xbd36a75b	-0.044593196
142	0x3d97ce2a	0.074123695
143	0xbd0b8c3a	-0.034069277
144	0xbd9f8efd	-0.07790945
145	0x3d244d79	0.040112946
146	0x3d08b973	0.033379983
147	0x3d8a4b4a	0.067526415
148	0xbd5cfae2	-0.053950198
149	0x3cb92d20	0.022604525
150	0xbd1b7699	-0.0379549
151	0xbcbfe399	-0.023423957
152	0xbdaa2833	-0.08308449
153	0xbd42a085	-0.047516365
154	0xbd02c896	-0.031929575
155	0x3d369dc7	0.044584062
156	0x3c9c07cd	0.019046688
157	0x3cd2f877	0.025753243
158	0x3dd51d3a	0.10405965
159	0x3dd019eb	0.101611935
160	0x3d91a13e	0.07110833
161	0x3b5992fe	0.0033199186
162	0xbd93b5df	-0.072124235
163	0x3da6ddf1	0.08147801
164	0xbcd592ab	-0.026070913
165	0xbc0a1893	-0.0084287105
166	0xbdb7f239	-0.08981747
167	0xbca8b449	-0.02059378
168	0xbd89b78d	-0.06724463
169	0x3dc43423	0.09580257
170	0xbdb89769	-0.09013254
171	0xbda66f26	-0.08126669
172	0xbb68027f	-0.0035401878
173	0xbd66e7e1	-0.05637348
174	0x3d18cc8c	0.037304446
175	0xbd2460af	-0.040131267
176	0xbd489300	-0.048968315
177	0x3bc17dbf	0.0059048827
178	0x3d9a90d7	0.07547157
179	0xbd9631b4	-0.07333699
180	0x3d488a1c	0.048959836
181	0x3d892c5c	0.06697914
182	0x3dd0dd0b	0.101984106
183	0xbd9572c9	-0.07297284
184	0x3f048b63	0.5177519
185	0xc2917097	-72.7199
186	0x4139e4da	11.618372
187	0xc20c9dd2	-35.15412
188	0xc1a8dbaf	-21.107267
189	0xc1ce8e3e	-25.819454
190	0xbf4905d4	-0.7852452
191	0xc19afabc	-19.372429
192	0xc241bf7e	-48.437004
193	0xc1bd3263	-23.649603
194	0xc1cb98e2	-25.44965
195	0xc1a3c05d	-20.468927
196	0xc1a3b661	-20.464052
197	0xc1a61333	-20.759375
198	0xc1ace76f	-21.613005
199	0xc163d069	-14.238381
200	0x3e3a8fd1	0.18218924
201	0xc1d2d142	-26.352177
202	0x409ac64b	4.8367057
203	0x412d1cba	10.819513
204	0x4041bbd3	3.0270889
205	0x410aae32	8.667528
206	0x40440eb7	3.0633981
207	0x40ce9486	6.4556303
208	0x408b0077	4.3438067
209	0x40cac76b	6.336843
210	0x41096e45	8.589421
211	0x4169b0d7	14.605674
212	0x409c5167	4.884937
213	0x41883a0a	17.02834
214	0x4139560b	11.583507
215	0x3fc2ad4a	1.5209134
216	0x3e8725dd	0.26396075
217	0x412471f8	10.277824
218	0x3faebd19	1.3651458
219	0x3cd0337d	0.025415177
220	0xbe2e1b01	-0.17002489
221	0xc06ac03d	-3.6679833
222	0x3f3e59a6	0.7435554
223	0x3f230ef1	0.63694674
224	0xbec8ce96	-0.39220113
225	0x416cb146	14.79328
226	0x407acc10	3.918705
227	0x40e3e523	7.121721
228	0x407a19fa	3.9078355
229	0x40e42a07	7.1301303
230	0xbfbee0fd	-1.4912411
231	0x4056989b	3.3530643
232	0x4079f468	3.9055424
233	0x40a75b31	5.229882
234	0x40c41502	6.1275644
235	0x412cd6a6	10.802404
236	0x40471832	3.1108518
237	0x4165a303	14.352298
238	0x4107be67	8.483985
239	0xc03b906d	-2.93069
240	0xc081e666	-4.059375
241	0x4176ee40	15.4331665
242	0xbc250659	-0.010072314
243	0xbc524712	-0.012834327
244	0x3df5d928	0.1200431
245	0xc08c45ab	-4.3835044
246	0x3f629f07	0.88523906
247	0x3f61ad05	0.8815463
248	0xc1266a60	-10.40097
249	0x40d7fafa	6.749387
250	0x400af415	2.1711476
251	0x40f5b62a	7.678487
252	0x409b38cf	4.8506846
253	0x40cf8a2f	6.485618
254	0xbfaa89ce	-1.3323305
255	0x40a4154f	5.127601

fc1.bias f4 [200]
0	0xbe1017aa	-0.14071527
1	0xbd85b86c	-0.06529316
2	0x3edde38f	0.43337676
3	0x38fc9fed	0.00012046085
4	0x3d479237	0.048723426
5	0x3dccd792	0.10002054
6	0xbdf825b1	-0.12116564
7	0x3eff9451	0.49917844
8	0x3ee46d53	0.44614658
9	0x3d80a501	0.06281472
10	0xbdd96346	-0.10614638
11	0xbcfffe84	-0.031249292
12	0x3f0d6b31	0.55241686
13	0x3ed1b045	0.40954795
14	0xbe043427	-0.1291052
15	0xbd603e11	-0.05474669
16	0xbd419f51	-0.047271077
17	0x3f0595ce	0.5218171
18	0xbd7115b9	-0.058858607
19	0xbdd57ad8	-0.10423821
20	0xbd015d9a	-0.031583406
21	0x3c599c53	0.0132818995
22	0xbddac744	-0.10682538
23	0x3eb5973f	0.35466954
24	0x3eebef22	0.4608088
25	0x3dd5405e	0.10412668
26	0xbd2d9d0b	-0.042386096
27	0x3f0856e6	0.53257596
28	0xbe014119	-0.12622489
29	0xbb6fa807	-0.0036568658
30	0x3f08dda1	0.5346318
31	0xbe1a9b3c	-0.1509828
32	0xbdc0be9d	-0.094113566
33	0x3ed7df38	0.4216249
34	0x3ed84c39	0.42245653
35	0x3d7dbf72	0.061950155
36	0x3ed62af8	0.41829658
37	0x3d643868	0.055717856
38	0xbb37dc60	-0.0028054938
39	0x3ef1d529	0.4723294
40	0xbcb98012	-0.022644076
41	0x3bf692bc	0.0075248163
42	0x3f10d85e	0.5658015
43	0xbe4a5e61	-0.19762565
44	0xbdabf3a6	-0.083960816
45	0x3f16a60f	0.58847135
46	0x3d61623b	0.05502532
47	0x3f10d28e	0.5657128
48	0x3ed79817	0.42108223
49	0x3ecb7a4b	0.3974174
50	0xbe24cf63	-0.16094737
51	0x3dacae11	0.08431638
52	0xbda80703	-0.082044624
53	0xbde868db	-0.113481246
54	0xbb822ed4	-0.0039728675
55	0xbda6217e	-0.08111857
56	0xbe197137	-0.14984594
57	0x3f1bd5db	0.6087319
58	0x3ef2765e	0.47355932
59	0x3efbf64c	0.49211347
60	0xbd4c1acb	-0.04983024
61	0x3efcac27	0.49350092
62	0x3ef5aee7	0.47985002
63	0xbc9e3e27	-0.019316746
64	0x3f02b38e	0.5105523
65	0xbd02d306	-0.03193953
66	0xbdbc1860	-0.09184337
67	0x3d07f3b0	0.033191383
68	0xbc880a84	-0.016606577
69	0x3dcd3c04	0.10021213
70	0xbe09d789	-0.13461126
71	0xbdf7ee41	-0.1210599
72	0x3d415570	0.04720062
73	0x3f020273	0.5078499
74	0x3ef1c2e2	0.47218996
75	0x3f12c7be	0.5733603
76	0x3f1a8d21	0.60371596
77	0xbd407a4d	-0.046991635
78	0xbd77b2ae	-0.060473137
79	0xbd405e0c	-0.04696469
80	0x3ed56931	0.41681817
81	0x3efef6f6	0.4979779
82	0xbd50d694	-0.050985888
83	0xbc99eaa9	-0.018788652
84	0xbe1854e8	-0.14876139
85	0x3ede3934	0.43403018
86	0x3d61eef7	0.055159535
87	0xbe25aedd	-0.16179986
88	0xbd39fe57	-0.045408573
89	0x3ee2cc59	0.4429653
90	0x3f0d416c	0.5517795
91	0x3f145fb5	0.5795854
92	0x3d9ffe58	0.07812184
93	0xbdb495a3	-0.088176034
94	0x3f0b5351	0.54424006
95	0x3cc105ef	0.0235624
96	0x3f001e72	0.50046456
97	0xbde56edb	-0.11202785
98	0xbdc5c2cf	-0.096562974
99	0xbe185d4f	-0.14879344
100	0x3ebe9d23	0.3722926
101	0x3d898055	0.067139305
102	0x3a75de59	0.00093791407
103	0x3f11e6fb	0.56993073
104	0xbde848b0	-0.11341989
105	0x3ef914c7	0.48648664
106	0x3dc5b318	0.096533
107	0xbdf560c5	-0.11981348
108	0xbdd255fd	-0.10270307
109	0x3f0e781e	0.55652034
110	0x3d5ca229	0.053865585
111	0x3db7f62f	0.08982503
112	0x3ef8a00d	0.4855961
113	0x3ef3fae4	0.47652352
114	0x3ed05a8a	0.40694076
115	0x3f039e97	0.51413864
116	0x3ecc3a25	0.3988811
117	0x3f044eab	0.5168254
118	0x3ce4686b	0.027881822
119	0xbd0ef5bb	-0.034902316
120	0xbdab4cba	-0.08364244
121	0x3f052960	0.5201626
122	0xbd5293d8	-0.051410526
123	0xbc4742f7	-0.012161962
124	0x3ba8976b	0.0051450036
125	0xbdb46ba1	-0.08809591
126	0x3edb2f31	0.42809442
127	0x3ef0049d	0.4687852
128	0x3f0050aa	0.50123084
129	0xbd79da1f	-0.060999032
130	0x3eec611f	0.46167848
131	0xbbb18f64	-0.005418705
132	0x3f1065c1	0.56405264
133	0xbd4b3cfa	-0.0496187
134	0x3f0a91f7	0.54128975
135	0x3eef6df3	0.46763572
136	0x3edbd37a	0.4293478
137	0x3da994f9	0.082803674
138	0x3d8404b6	0.06446211
139	0x3ed460ab	0.41480002
140	0x3d9b1856	0.07573001
141	0x3eead740	0.45867348
142	0xbcadafb3	-0.021201944
143	0x3efdc858	0.49566913
144	0xbdc8f562	-0.09812428
145	0x3d2b72a7	0.041857388
146	0x3f1533e3	0.582823
147	0x3ef8b3e4	0.48574746
148	0x3bf74d9d	0.007547094
149	0xbdd08926	-0.10182409
150	0x3ed3a568	0.41337132
151	0x3cbec16c	0.02328559
152	0x3d171768	0.036887556
153	0x3eeff3b0	0.46865606
154	0x3d2f109d	0.042740453
155	0x3ef95956	0.4870097
156	0xbb46a554	-0.0030310946
157	0xbdcd95dc	-0.10038349
158	0x3f0b4ae9	0.5441118
159	0x3eda4227	0.42628595
160	0x3daeddd9	0.08538408
161	0xbd5735c5	-0.052541513
162	0xbc601967	-0.013677931
163	0xbe088eed	-0.13335772
164	0x3f073dde	0.52828777
165	0xbdad6c1c	-0.08467886
166	0x3eda905c	0.42688262
167	0x3ed22b42	0.41048628
168	0xbd821ca9	-0.06353123
169	0x3ed90314	0.4238516
170	0x3edbdea8	0.4294331
171	0xbe15ab92	-0.1461623
172	0x3f142dc2	0.5788232
173	0x3eea887c	0.45807254
174	0x3f0d0ace	0.5509461
175	0xbd86fb6b	-0.06590923
176	0x3d265704	0.04061033
177	0xbce955da	-0.02848332
178	0xbe4cefb7	-0.20013319
179	0xbc65895b	-0.014009799
180	0x3cb1fdd8	0.021727487
181	0x3f0ce4b7	0.5503649
182	0xbd9b06a2	-0.075696245
183	0x3db0f35e	0.086401686
184	0xbda2de6b	-0.07952579
185	0xbd88067c	-0.06641862
186	0x3f1b585a	0.6068169
187	0x3d113c6a	0.035458006
188	0x3ef15020	0.47131443
189	0x3ce4c4a2	0.027925793
190	0x3edb4d7a	0.42832547
191	0x3f1c7230	0.61111736
192	0x3f080d5a	0.5314537
193	0x3d801e08	0.06255728
194	0xbd9e9263	-0.07742765
195	0x3eefb214	0.4681555
196	0x3b19cdc7	0.00234686
197	0x3eed9415	0.4640204
198	0x3cc5f659	0.02416532
199	0x3f05d378	0.522758

fc2.weight f4 [20, 200]
0	0xbf0ea477	-0.55719703
1	0x3f0c242f	0.5474271
2	0x3f70fbe3	0.9413435
3	0xbe789e6b	-0.24279182
4	0xbf18b858	-0.59656286
5	0x3f1deb02	0.6168672
6	0x3edbc301	0.42922214
7	0x3f57b953	0.8426716
8	0x3f55141d	0.83233815
9	0xbf20304f	-0.62573713
10	0xbecb2b69	-0.39681557
11	0xbf1c5641	-0.61069113
12	0x3f6878c9	0.90809304
13	0x3f72dbde	0.9486674
14	0xbf1472bb	-0.57987565
15	0xbef7973e	-0.48357576
16	0x3f152c02	0.58270276
17	0x3f650813	0.89465445
18	0xbe9eeebe	-0.3104152
19	0xbf087b7f	-0.5331344
20	0x3f0c1c6e	0.5473088
21	0xbf130c78	-0.574409
22	0xbf1f01c4	-0.6211207
23	0x3f593ecc	0.84861445
24	0x3f6f5d4e	0.93501747
25	0xbf0a5127	-0.5403008
26	0x3f12324f	0.57108015
27	0x3f62739c	0.88457656
28	0xbf16380a	-0.5867926
29	0xbf04552e	-0.51692474
30	0x3f703ae7	0.9383988
31	0xbf1c0eb7	-0.60959953
32	0xbf211646	-0.6292461
33	0x3f7a1871	0.97693545
34	0x3f631243	0.8869974
35	0x3eff68c9	0.49884632
36	0x3f4de410	0.8042612
37	0x3f1a28ac	0.6021831
38	0x3f1fb466	0.6238464
39	0x3f5cbd5f	0.8622646
40	0xbf051810	-0.5198984
41	0x3efd49c1	0.49470332
42	0x3f779cff	0.9672393
43	0xbef69e12	-0.48167473
44	0xbf1d684e	-0.6148728
45	0x3f698833	0.9122345
46	0x3f15838d	0.58403856
47	0x3f598978	0.84975386
48	0x3f5f11b0	0.87136364
49	0x3f646fbb	0.8923299
50	0xbeecb5e6	-0.46232527
51	0xbee7a9fb	-0.45246872
52	0x3f106326	0.5640129
53	0xbf0a3dc5	-0.540005
54	0xbedaddf8	-0.42747474
55	0xbf039ca8	-0.51410913
56	0xbf0d2b8c	-0.5514457
57	0x3f63b2ae	0.8894452
58	0x3f6e1dd5	0.9301427
59	0x3f5802b0	0.843791
60	0xbf1aea82	-0.6051408
61	0x3f672927	0.9029717
62	0x3f5c2733	0.85997313
63	0x3f0242a3	0.5088293
64	0x3f5d9c01	0.8656617
65	0x3f0144c3	0.5049555
66	0xbf125147	-0.5715527
67	0xbf03ecbe	-0.51533115
68	0xbf10f906	-0.5662998
69	0xbf12d216	-0.57351816
70	0xbeffa746	-0.49932307
71	0xbf0596a2	-0.5218297
72	0x3f20ea9d	0.6285799
73	0x3f706fd9	0.93920666
74	0x3f7cc812	0.98742783
75	0x3f6d13ab	0.92608136
76	0x3f7842cc	0.96976924
77	0xbf045cc0	-0.51704025
78	0xbf0235db	-0.50863427
79	0xbf1a8183	-0.6035387
80	0x3f657a94	0.89640164
81	0x3f5a4b1b	0.8527085
82	0xbead7e34	-0.33885348
83	0xbf0a1096	-0.5393156
84	0xbf0d78e4	-0.5526259
85	0x3f645f12	0.89207566
86	0x3f02f82b	0.51159924
87	0xbf190253	-0.5976917
88	0xbf04b861	-0.5184384
89	0x3f71e309	0.94487053
90	0x3f5e8bde	0.8693217
91	0x3f7048ad	0.93860894
92	0xbf0d5455	-0.55206805
93	0x3f127065	0.5720275
94	0x3f772ab3	0.9654953
95	0xbf08c932	-0.53432
96	0x3f6b3bd8	0.9188819
97	0xbf0cadcc	-0.54952693
98	0xbf022f8b	-0.50853795
99	0xbf1d66a4	-0.6148474
100	0x3f718e25	0.9435752
101	0xbf180aa4	-0.59391236
102	0xbf045880	-0.5169754
103	0x3f6dbbfd	0.9286497
104	0xbf0a059e	-0.5391482
105	0x3f5f0752	0.87120545
106	0xbf1bd654	-0.60873914
107	0xbeca00c3	-0.39453706
108	0xbf03f985	-0.5155261
109	0x3f6b7d4e	0.91988075
110	0xbefd8ef0	-0.49523115
111	0xbf2074b9	-0.62678105
112	0x3f78196b	0.96913785
113	0x3f76f5b8	0.9646869
114	0x3f56d374	0.839164
115	0x3f71ea73	0.94498366
116	0x3f68a69b	0.9087922
117	0x3f67cdf2	0.9054862
118	0xbf1153e6	-0.56768644
119	0x3f09a27f	0.53763574
120	0xbf13439a	-0.57525027
121	0x3f622462	0.88336766
122	0xbf198cea	-0.5998064
123	0xbf13a08d	-0.57666856
124	0xbf0ec0e7	-0.55763096
125	0xbf17b043	-0.5925333
126	0x3f618b0a	0.8810278
127	0x3f787f8d	0.9706963
128	0x3f7c3a31	0.98526293
129	0xbf133415	-0.57501346
130	0x3f73e564	0.952719
131	0xbe875cdd	-0.26438037
132	0x3f745187	0.954369
133	0xbf06a8d2	-0.5260135
134	0x3f496c59	0.7868095
135	0x3f6ee889	0.9332357
136	0x3f6ab62c	0.9168422
137	0x3f12b90f	0.57313627
138	0xbf1780c9	-0.59180886
139	0x3f59374b	0.84849995
140	0xbf0b55b6	-0.5442766
141	0x3f569042	0.8381387
142	0xbf0ae079	-0.5424877
143	0x3f478b8b	0.779473
144	0xbef3321c	-0.47499168
145	0xbf19ac92	-0.60028946
146	0x3f5fffe4	0.87499833
147	0x3f7a677b	0.9781415
148	0xbf08e7ca	-0.5347868
149	0x3ef01c39	0.46896532
150	0x3f739775	0.9515298
151	0xbefb1879	-0.4904211
152	0xbefffd53	-0.4999796
153	0x3f6ceb45	0.9254649
154	0x3eb13a38	0.3461473
155	0x3f5e5cb8	0.8686023
156	0xbf14486d	-0.5792301
157	0xbf0cb29b	-0.5496003
158	0x3f68b0d8	0.9089484
159	0x3f63f3dd	0.8904398
160	0x3f15fcf1	0.5858908
161	0x3f134f22	0.5754262
162	0xbed3ca8b	-0.41365466
163	0x3ea50f29	0.3223813
164	0x3f53fc77	0.82807106
165	0xbf20bddc	-0.627897
166	0x3f7acf30	0.97972393
167	0x3f510783	0.81652087
168	0xbefa14df	-0.48844048
169	0x3f7a3550	0.977376
170	0x3f6ce1a0	0.92531776
171	0xbf109ddf	-0.5649089
172	0x3f56c29e	0.8389071
173	0x3f5a9e00	0.8539734
174	0x3f5c7a0d	0.86123735
175	0xbf12489f	-0.5714206
176	0xbee1f173	-0.44129524
177	0xbf1c626f	-0.610877
178	0xbf101060	-0.56274986
179	0xbf0d1764	-0.55113816
180	0x3f0fe476	0.5620798
181	0x3f64c94e	0.89369667
182	0xbf19afff	-0.60034174
183	0xbf199f0b	-0.60008305
184	0x3f0c359e	0.54769313
185	0xbf15c381	-0.5850144
186	0x3f6aeb08	0.9176488
187	0xbefa953b	-0.4894198
188	0x3f670019	0.90234524
189	0xbf0b2798	-0.5435729
190	0x3f88026e	1.0625741
191	0x3f4d9cda	0.8031746
192	0x3f75b501	0.95979315
193	0x3f14841e	0.58014095
194	0x3f1a11c3	0.6018335
195	0x3f55b903	0.8348543
196	0x3f1745ce	0.5909089
197	0x3f647c48	0.8925214
198	0xbf1c275a	-0.60997546
199	0x3f61fa01	0.882721
200	0x3d11ace6	0.03556528
201	0x3dc135ee	0.094341144
202	0xbdc9eb57	-0.09859341
203	0xbe0d40ad	-0.13794203
204	0xbd155ad7	-0.036463585
205	0x3d592648	0.053015023
206	0x3c21fd8b	0.0098871095
207	0x3d0da8d6	0.034584843
208	0x3c6881fb	0.014191146
209	0xbd84a5af	-0.06476914
210	0x3c85f2ea	0.016351182
211	0xbe1bd92d	-0.15219565
212	0xbdcb7f79	-0.09936423
213	0xbccdbef5	-0.02511547
214	0x3d0a96f0	0.03383535
215	0xbd93a728	-0.07209617
216	0x3e1b3a36	0.15158924
217	0xbdc52c2a	-0.09627564
218	0xbd82e0db	-0.06390544
219	0xbe203d77	-0.15648447
220	0x3dacbd3a	0.084345296
221	0xbdd4213b	-0.10357901
222	0x3b8c7c25	0.00428726
223	0xbded73a4	-0.11594322
224	0xbe051d9a	-0.12999573
225	0xbddbfb1b	-0.10741254
226	0x3d1eed0c	0.038800284
227	0xbd983a62	-0.07433011
228	0x3d1b1379	0.037860367
229	0xbdc449ef	-0.09584414
230	0xbdc691aa	-0.09695752
231	0xbd1636aa	-0.036673225
232	0x3d7e753a	0.062123515
233	0x3ce0aa89	0.027425067
234	0xbdd63b8a	-0.10460575
235	0x3dfc5731	0.12321318
236	0x3d425850	0.047447503
237	0x3cef0b7b	0.029180279
238	0x3de62b39	0.11238713
239	0xbe02dee5	-0.1278034
240	0xbd62eda4	-0.055402413
241	0x3dfa0814	0.12208572
242	0x3cadeb66	0.02123041
243	0xbd256437	-0.040378775
244	0xbbb697f4	-0.0055723134
245	0xbd431b6c	-0.047633573
246	0x3dab742f	0.0837177
247	0xbc5a1237	-0.013310007
248	0xbd460b67	-0.048350718
249	0xbd98a165	-0.074526586
250	0x3aec8b30	0.0018046852
251	0x3d82011f	0.0634787
252	0x3cea28c4	0.028583892
253	0xbd2cd0c6	-0.04219129
254	0xbd0fa0e1	-0.035065535
255	0xbb31c575	-0.002712575

fc2.bias f4 [20]
0	0x3f296954	0.6617634
1	0x3e259af6	0.16172394
2	0x3f18a021	0.5961934
3	0x3da3691c	0.079790324
4	0x3f193a65	0.5985473
5	0x3e2c1f58	0.16808832
6	0x3e35331b	0.17695276
7	0x3f30e5bf	0.69100565
8	0x3f306395	0.6890195
9	0x3f0aaa6c	0.54166293
10	0x3e1b935b	0.1519293
11	0x3f15e7b5	0.5855668
12	0x3f22e8cb	0.63636464
13	0x3c837bca	0.016050238
14	0x3f1169a1	0.568018
15	0x3f34277c	0.7037275
16	0x3e2dde7b	0.16979401
17	0x3f288490	0.65827274
18	0x3f13b1f5	0.57693416
19	0x3f277d1e	0.6542529

fc3.weight f4 [1, 20]
0	0x3f73b200	0.9519348
1	0xbf3555b1	-0.7083388
2	0x3f8472a6	1.0347488
3	0xbf45f7df	-0.77331346
4	0x3f887ded	1.066343
5	0xbf4bb91e	-0.7957934
6	0xbf38eb82	-0.72234356
7	0x3f6a3288	0.91483355
8	0x3f906505	1.1280829
9	0x3f765056	0.9621633
10	0xbf197c0b	-0.599549
11	0x3f8174ee	1.0113809
12	0x3f86d63d	1.053413
13	0xbf1ca6af	-0.6119184
14	0x3f88d523	1.0690044
15	0x3f82c7ae	1.0217187
16	0xbf33e7d3	-0.7027561
17	0x3f84919f	1.035694
18	0x3f8c8468	1.0977907
19	0x3f78cb31	0.97185045

bn1.weight f4 [200]
0	0x3fb94567	1.4474305
1	0x3f800000	1.0
2	0x3fee7ef6	1.8632495
3	0x3f9774d3	1.1832527
4	0x3f800000	1.0
5	0x3f800000	1.0
6	0x3f1b6f8a	0.6071707
7	0x3fe3a566	1.7784851
8	0x3fe09a23	1.7547039
9	0x3fbb5f1c	1.46384
10	0x3fb0b9c3	1.380669
11	0x3f800000	1.0
12	0x3fee0d24	1.859776
13	0x3ff44911	1.9084798
14	0x3fc1329c	1.509357
15	0x3fb83433	1.439093
16	0x3f800000	1.0
17	0x3ff31fbf	1.8994063
18	0x3fa3d9e9	1.2800876
19	0x3f800000	1.0
20	0x3f800000	1.0
21	0x3f800000	1.0
22	0x3fb6a3de	1.4268758
23	0x3feb75eb	1.8395361
24	0x3fef8d2a	1.8714955
25	0x3f800000	1.0
26	0x3f800000	1.0
27	0x3fe956ec	1.8229651
28	0x3fbc1051	1.4692479
29	0x3f800000	1.0
30	0x3ff06070	1.877943
31	0x3fc03d2d	1.5018669
32	0x3fb68908	1.4260569
33	0x3ff35cd1	1.90127
34	0x3ffa4b6a	1.9554265
35	0x3f800000	1.0
36	0x3fe3bf32	1.7792723
37	0x3f800000	1.0
38	0x3f800000	1.0
39	0x3ff2f585	1.8981177
40	0x3fbddb43	1.4832538
41	0x3f800000	1.0
42	0x3fea8b18	1.8323698
43	0x3fbe0cd7	1.4847668
44	0x3fbdc8dc	1.4826922
45	0x3feb538a	1.8384869
46	0x3f800000	1.0
47	0x3fe5533d	1.7916027
48	0x3fe568c1	1.7922593
49	0x3fe4067c	1.7814479
50	0x3fae708c	1.3628097
51	0x3f9df3a0	1.2339973
52	0x3f800000	1.0
53	0x3fb0a864	1.3801389
54	0x3fa998b9	1.3249732
55	0x3fc29bf0	1.5203838
56	0x3fb8871a	1.441623
57	0x3fed43e5	1.8536345
58	0x3fec67c5	1.8469168
59	0x3ff0b527	1.8805283
60	0x3faf45ca	1.3693173
61	0x3fea9cb7	1.8329076
62	0x3fe7f737	1.8122319
63	0x3f800000	1.0
64	0x3ff5826c	1.9180427
65	0x3f800000	1.0
66	0x3f800000	1.0
67	0x3fc0aecb	1.5053343
68	0x3fb8ce87	1.4438027
69	0x3f800000	1.0
70	0x3fafc0ed	1.3730751
71	0x3faa89c7	1.3323296
72	0x3f800000	1.0
73	0x3fee90e4	1.8637967
74	0x3ff9c5bc	1.9513469
75	0x3feb5157	1.8384198
76	0x3ff65a2b	1.9246267
77	0x3fb3df9e	1.4052618
78	0x3fbad0c9	1.4594966
79	0x3f800000	1.0
80	0x3fec8551	1.8478185
81	0x3fea1bc0	1.8289719
82	0x3fa4f2c0	1.2886581
83	0x3fc50c7e	1.5394437
84	0x3fb8520a	1.4400036
85	0x3fe7426e	1.8067148
86	0x3f800000	1.0
87	0x3fbfda90	1.4988575
88	0x3fc7633b	1.5577158
89	0x3fef95f2	1.8717635
90	0x3febd3df	1.8424033
91	0x3ff223ba	1.8917153
92	0x3fb2084a	1.390878
93	0x3f800000	1.0
94	0x3ff1b487	1.8883218
95	0x3fb567e5	1.4172331
96	0x3ff54284	1.9160924
97	0x3fc1f7a6	1.5153701
98	0x3f800000	1.0
99	0x3fbe68b4	1.4875703
100	0x3ff498e7	1.9109162
101	0x3f800000	1.0
102	0x3fc6cbed	1.5530983
103	0x3ff01b46	1.8758323
104	0x3fb6a3a5	1.426869
105	0x3feea408	1.8643808
106	0x3f800000	1.0
107	0x3fb2097e	1.3909147
108	0x3fbf7c2f	1.4959773
109	0x3fe8c8d1	1.8186284
110	0x3f800000	1.0
111	0x3f800000	1.0
112	0x3ff1945f	1.8873404
113	0x3ff2dc5d	1.89735
114	0x3fe81daa	1.8134053
115	0x3fea70b4	1.8315644
116	0x3fe3ac3e	1.7786939
117	0x3fed1065	1.8520628
118	0x3f800000	1.0
119	0x3f800000	1.0
120	0x3fc3ef7b	1.5307459
121	0x3fe5314b	1.7905668
122	0x3fc0b7cc	1.505609
123	0x3f800000	1.0
124	0x3fb6ccdb	1.4281267
125	0x3f800000	1.0
126	0x3ff6a44c	1.926889
127	0x3fe99831	1.824957
128	0x3ff70fd4	1.9301705
129	0x3f800000	1.0
130	0x3ff01756	1.8757122
131	0x3f810604	1.0079961
132	0x3fee2fc5	1.8608328
133	0x3fabcafe	1.3421323
134	0x3fe7439c	1.8067508
135	0x3ff5e139	1.9209358
136	0x3ff8c81f	1.9436072
137	0x3f800000	1.0
138	0x3f800000	1.0
139	0x3ff13fe5	1.8847624
140	0x3f800000	1.0
141	0x3fea367c	1.8297877
142	0x3fc4b3cf	1.5367373
143	0x3fdec8f6	1.7405078
144	0x3fb1b776	1.3884113
145	0x3f800000	1.0
146	0x3fe6d714	1.8034387
147	0x3ff01a59	1.8758041
148	0x3fbf2805	1.4934088
149	0x3f800000	1.0
150	0x3ff032c5	1.8765494
151	0x3f800000	1.0
152	0x3fb905f1	1.4454938
153	0x3ff550ae	1.9165246
154	0x3f06f6e7	0.52720493
155	0x3fe86035	1.815436
156	0x3f800000	1.0
157	0x3f800000	1.0
158	0x3fe9b39b	1.8257936
159	0x3ff6cec8	1.9281855
160	0x3f800000	1.0
161	0x3f800000	1.0
162	0x3f800000	1.0
163	0x3f0c7c3e	0.5487708
164	0x3fe9f87e	1.8278959
165	0x3fc3260d	1.5245987
166	0x3ff5f566	1.9215515
167	0x3fe0fa7a	1.7576439
168	0x3f800000	1.0
169	0x3fe87524	1.8160748
170	0x3ff28bdd	1.8948933
171	0x3fbc6333	1.4717773
172	0x3fe5dbb0	1.7957668
173	0x3fe7014f	1.8047274
174	0x3febb80c	1.8415542
175	0x3fba584f	1.45582
176	0x3fb59e1f	1.418888
177	0x3f800000	1.0
178	0x3fb95df8	1.4481802
179	0x3fb3cdc5	1.4047171
180	0x3f800000	1.0
181	0x3feb0f03	1.8363956
182	0x3fb6444b	1.4239591
183	0x3fc8e157	1.5693768
184	0x3f800000	1.0
185	0x3fbaf0b5	1.4604708
186	0x3fe90868	1.820569
187	0x3fbc8e05	1.4730841
188	0x3fe89918	1.817172
189	0x3f800000	1.0
190	0x3ff963bb	1.948356
191	0x3fe91f2e	1.821264
192	0x3feadb60	1.8348198
193	0x3f800000	1.0
194	0x3f800000	1.0
195	0x3fe2f868	1.7732058
196	0x3f800000	1.0
197	0x3fecde72	1.8505385
198	0x3fca7201	1.5816041
199	0x3fe9af20	1.8256569

bn1.bias f4 [200]
0	0xbf06c13c	-0.526386
1	0x3f13c5d4	0.57723737
2	0x3efa41e3	0.48878393
3	0xbe869de9	-0.2629235
4	0xbf169a90	-0.58829594
5	0x3f15c550	0.585042
6	0x3f09eec0	0.5387993
7	0x3f1341ac	0.5752208
8	0x3f0ba2f5	0.5454553
9	0xbf059e91	-0.5219508
10	0xbef4aac6	-0.4778654
11	0xbf103f82	-0.56346905
12	0x3f1202e2	0.5703565
13	0x3f0d7c85	0.55268127
14	0xbefc7dc1	-0.49314693
15	0xbef54f37	-0.47912
16	0x3f0a44bc	0.5401113
17	0x3ef7af41	0.48375896
18	0xbe852fa6	-0.26012915
19	0xbf0e36c4	-0.55552316
20	0x3f15317a	0.5827862
21	0xbf157bba	-0.58391917
22	0xbee77499	-0.45206144
23	0x3f017010	0.5056162
24	0x3f0c98cb	0.54920644
25	0xbf0d2a87	-0.55143017
26	0x3f16d3a0	0.58916664
27	0x3ef6e389	0.4822047
28	0xbf119579	-0.568687
29	0xbf0b8bc0	-0.54510117
30	0x3f002b9b	0.50066537
31	0xbf0a6865	-0.54065543
32	0xbed2f788	-0.41204476
33	0x3f02bfdb	0.51074
34	0x3efe934e	0.4972176
35	0x3f12de3f	0.5737037
36	0x3f133ca4	0.57514405
37	0x3f0d4066	0.5517639
38	0x3f15f17c	0.585716
39	0x3f0483a1	0.5176335
40	0xbf04e2eb	-0.5190875
41	0x3f1075d0	0.5642977
42	0x3f0c23f9	0.5474239
43	0xbf032292	-0.51224625
44	0xbef84e05	-0.48497024
45	0x3ef7ae68	0.4837525
46	0x3f0cb12f	0.5495786
47	0x3f0cb0ff	0.54957575
48	0x3f0e6497	0.5562224
49	0x3f0d8958	0.55287695
50	0xbef37f82	-0.47558218
51	0xbe957df8	-0.2919767
52	0x3f175a3e	0.59122074
53	0xbf034152	-0.51271546
54	0xbee72296	-0.45143574
55	0xbef67f4f	-0.48144004
56	0xbef41b05	-0.47676864
57	0x3efdb819	0.49554518
58	0x3efe22c5	0.49635902
59	0x3f00d5b5	0.5032609
60	0xbef27569	-0.47355202
61	0x3f0edc7a	0.5580517
62	0x3f0be861	0.5465146
63	0x3f12f31b	0.574022
64	0x3f053c22	0.5204488
65	0x3f16bee9	0.58885056
66	0xbf1659bf	-0.5873069
67	0xbf01f6c6	-0.5076717
68	0xbeeb44c4	-0.45950902
69	0xbf173980	-0.59072113
70	0xbedf4420	-0.43606663
71	0xbf006e2c	-0.5016811
72	0x3f171166	0.5901092
73	0x3ee6c544	0.45072377
74	0x3f026c53	0.5094654
75	0x3f0405b6	0.51571214
76	0x3f013e07	0.5048527
77	0xbeecc3d9	-0.4624317
78	0xbf123ea4	-0.5712683
79	0xbf15daf0	-0.585372
80	0x3f13afc1	0.57690054
81	0x3ef6cda7	0.48203775
82	0xbea6fc72	-0.32614475
83	0xbf160ea1	-0.5861607
84	0xbf159f61	-0.5844632
85	0x3eef75a1	0.4676943
86	0x3f0b5316	0.54423654
87	0xbf0cc493	-0.5498745
88	0xbf163f94	-0.5869076
89	0x3f12fc2b	0.5741603
90	0x3ef069ad	0.46955624
91	0x3f14c52f	0.5811338
92	0xbeeffcc8	-0.46872544
93	0x3f0d7465	0.5525573
94	0x3f0d6b66	0.55242
95	0xbefb4b74	-0.49081004
96	0x3efc368c	0.49260366
97	0xbf179fd6	-0.59228265
98	0xbf0b43c9	-0.54400307
99	0xbf0f2933	-0.5592224
100	0x3ef71112	0.4825521
101	0xbf171827	-0.5902123
102	0xbf158013	-0.5839855
103	0x3f12d19f	0.57351106
104	0xbef9872f	-0.4873595
105	0x3f123487	0.571114
106	0xbf0e0d81	-0.55489355
107	0xbebe38b0	-0.37152624
108	0xbefefe3a	-0.49803334
109	0x3ef25be2	0.47335726
110	0xbf0d98ac	-0.55311084
111	0xbf180949	-0.5938917
112	0x3f0dbebd	0.5536917
113	0x3f011d80	0.5043564
114	0x3f0a681c	0.5406511
115	0x3f05318b	0.5202872
116	0x3f04118e	0.51589286
117	0x3f05476b	0.520621
118	0xbf13756a	-0.57601035
119	0x3f16667a	0.58750117
120	0xbf119911	-0.56874186
121	0x3f1151cb	0.5676543
122	0xbf1693ef	-0.5881948
123	0xbf16d871	-0.58924013
124	0xbf071f89	-0.52782494
125	0xbf183ec5	-0.5947078
126	0x3f0d1232	0.5510589
127	0x3f0907dc	0.5352762
128	0x3f00174c	0.5003555
129	0xbf0dcda5	-0.55391914
130	0x3f06f770	0.5272131
131	0x3d0d8853	0.034553837
132	0x3f0d90c0	0.55298996
133	0xbede25f8	-0.43388343
134	0x3f098b21	0.5372792
135	0x3ef9dcad	0.48801175
136	0x3eff3188	0.49842477
137	0x3f16384e	0.58679664
138	0xbf0ee39f	-0.5581607
139	0x3efef90c	0.49799383
140	0xbf17c58e	-0.5928582
141	0x3f11a201	0.56887823
142	0xbf16ace9	-0.5885759
143	0x3f003e77	0.50095314
144	0xbed32ab0	-0.41243505
145	0xbf16479b	-0.5870301
146	0x3eed21c5	0.46314827
147	0x3f04fc14	0.5194714
148	0xbeedc77b	-0.46441254
149	0x3ef10c31	0.47079614
150	0x3f141928	0.57850885
151	0xbf169cb8	-0.58832884
152	0xbefd26c4	-0.49443638
153	0x3f138613	0.57626456
154	0x3f11edaf	0.570033
155	0x3eff04ba	0.49808294
156	0xbf15411c	-0.58302474
157	0xbf16b471	-0.5886908
158	0x3f05e1eb	0.5229785
159	0x3efae4f3	0.490028
160	0x3eff127b	0.49818787
161	0x3f150167	0.58205265
162	0xbed3cd50	-0.41367579
163	0x3ef1b8be	0.4721126
164	0x3f124042	0.571293
165	0xbf134519	-0.5752731
166	0x3f139087	0.57642406
167	0x3f10a92d	0.5650814
168	0xbf0b70fe	-0.5446929
169	0x3f0418ba	0.5160023
170	0x3efcb350	0.49355555
171	0xbf0575a7	-0.5213265
172	0x3ef6b8e1	0.48187926
173	0x3f04a751	0.51817805
174	0x3f147e43	0.5800516
175	0xbf129108	-0.5725255
176	0xbf01f13b	-0.50758713
177	0xbf10ce5e	-0.5656489
178	0xbf105dc2	-0.56393063
179	0xbef12bfe	-0.47103876
180	0x3f0422d9	0.51615673
181	0x3efcb5c4	0.49357426
182	0xbf11624f	-0.5679063
183	0xbf158a24	-0.5841391
184	0x3f164d1f	0.5871143
185	0xbef0aa15	-0.47004762
186	0x3f155557	0.58333343
187	0xbef114a8	-0.47086072
188	0x3efc1b5f	0.49239632
189	0xbf10e141	-0.5659371
190	0x3f09c987	0.5382313
191	0x3eed5017	0.46350166
192	0x3f15766f	0.5838384
193	0x3f085650	0.532567
194	0x3f0d5d8f	0.55220884
195	0x3f1452be	0.57938755
196	0x3f1603cf	0.5859956
197	0x3efc49fd	0.492752
198	0xbf00046e	-0.5000676
199	0x3f14719e	0.57985866

bn1.running_mean f4 [200]
0	0x441e110e	632.2665
1	0x00000000	0.0
2	0x446350f2	909.2648
3	0x43748316	244.51205
4	0x00000000	0.0
5	0x00000000	0.0
6	0x404c16f6	3.1889014
7	0x44ef115a	1912.5422
8	0x4592b60e	4694.757
9	0x42552f71	53.29633
10	0x3f762830	0.9615507
11	0x00000000	0.0
12	0x44cd7721	1643.7228
13	0x4538bda2	2955.852
14	0x43430c7d	195.04878
15	0x41c9fe6a	25.249226
16	0x00000000	0.0
17	0x4595ad57	4789.6675
18	0x44305634	705.3469
19	0x00000000	0.0
20	0x00000000	0.0
21	0x00000000	0.0
22	0x42768a56	61.635094
23	0x44ccdfa9	1638.9894
24	0x4555f4eb	3423.3074
25	0x00000000	0.0
26	0x00000000	0.0
27	0x463ecf51	12211.829
28	0x4401f0de	519.76355
29	0x00000000	0.0
30	0x45aa4304	5448.377
31	0x4303554e	131.33322
32	0x43847491	264.91068
33	0x45993c8e	4903.5693
34	0x4505320b	2131.1277
35	0x00000000	0.0
36	0x45a7da32	5371.2744
37	0x00000000	0.0
38	0x00000000	0.0
39	0x4518a2fd	2442.1868
40	0x409fcb3f	4.9935603
41	0x00000000	0.0
42	0x459d7b19	5039.387
43	0x448d01c5	1128.0553
44	0x43a9accb	339.34995
45	0x46216f2a	10331.791
46	0x00000000	0.0
47	0x45da5d51	6987.6646
48	0x44025101	521.2657
49	0x45fb961e	8050.7646
50	0x446c5f5c	945.49
51	0x43d8f62e	433.92328
52	0x00000000	0.0
53	0x444d500e	821.25085
54	0x424339f3	48.80659
55	0x40f99039	7.7988553
56	0x43a6b821	333.4385
57	0x45b2fa65	5727.2993
58	0x4637256f	11721.358
59	0x45c7ddd2	6395.7275
60	0x438c8817	281.0632
61	0x452321d1	2610.1135
62	0x45bac7b8	5976.965
63	0x00000000	0.0
64	0x4562b11f	3627.07
65	0x00000000	0.0
66	0x00000000	0.0
67	0x42209925	40.149555
68	0x448f54e2	1146.6526
69	0x00000000	0.0
70	0x404c5efc	3.1932974
71	0x4186fd6e	16.873745
72	0x00000000	0.0
73	0x450d8a56	2264.646
74	0x4514bb7c	2379.7178
75	0x455d52aa	3541.1665
76	0x45657c99	3671.7874
77	0x3ddec4b8	0.10877365
78	0x42cd4a4b	102.6451
79	0x00000000	0.0
80	0x4599623f	4908.281
81	0x4577a0ce	3962.0503
82	0x41df89cc	27.942284
83	0x43996806	306.81268
84	0x43305a36	176.35239
85	0x44b12e12	1417.4397
86	0x00000000	0.0
87	0x42a5fb79	82.99116
88	0x411c4848	9.767647
89	0x4519d487	2461.283
90	0x4533d213	2877.1296
91	0x45ac6127	5516.144
92	0x40dfc532	6.9928217
93	0x00000000	0.0
94	0x45595181	3477.094
95	0x4256dcf3	53.71577
96	0x46067b78	8606.867
97	0x4392f223	293.8917
98	0x00000000	0.0
99	0x412cdf20	10.804474
100	0x45ed050d	7584.6313
101	0x00000000	0.0
102	0x42dcadb7	110.33929
103	0x43c8c834	401.5641
104	0x418cdc13	17.607458
105	0x46015ece	8279.701
106	0x00000000	0.0
107	0x4308adaa	136.67838
108	0x43ca86dc	405.0536
109	0x4651b6a3	13421.659
110	0x00000000	0.0
111	0x00000000	0.0
112	0x45da4440	6984.5312
113	0x44b004ca	1408.1497
114	0x4501916c	2073.0889
115	0x463f9388	12260.883
116	0x4642530f	12436.765
117	0x44f178e2	1931.7776
118	0x00000000	0.0
119	0x00000000	0.0
120	0x41e88ea7	29.069654
121	0x46219ccf	10343.202
122	0x43b01fe0	352.24902
123	0x00000000	0.0
124	0x4294fab0	74.489624
125	0x00000000	0.0
126	0x451f2ef2	2546.934
127	0x45de2a0e	7109.257
128	0x458d9743	4530.9077
129	0x00000000	0.0
130	0x45897176	4398.1826
131	0x452b8877	2744.529
132	0x453135e7	2835.369
133	0x3ef0b334	0.4701172
134	0x453d3b8c	3027.7217
135	0x45ae05c9	5568.723
136	0x453c547c	3013.2803
137	0x00000000	0.0
138	0x00000000	0.0
139	0x45cb75e4	6510.7363
140	0x00000000	0.0
141	0x45e03514	7174.635
142	0x44e6a28e	1845.0798
143	0x45f7723b	7918.279
144	0x42e9eefe	116.96678
145	0x00000000	0.0
146	0x461c07d5	9985.958
147	0x45aa1c31	5443.524
148	0x43786b27	248.41856
149	0x00000000	0.0
150	0x447b3793	1004.86835
151	0x00000000	0.0
152	0x418678fc	16.809074
153	0x45b1b313	5686.3843
154	0x3dde0372	0.10840501
155	0x4684d6ab	17003.334
156	0x00000000	0.0
157	0x00000000	0.0
158	0x464e85a1	13217.407
159	0x44e527ab	1833.2396
160	0x00000000	0.0
161	0x00000000	0.0
162	0x00000000	0.0
163	0x423b86ca	46.88163
164	0x46210792	10305.893
165	0x4441a551	774.58307
166	0x45cd0fcf	6561.976
167	0x464a9f7c	12967.871
168	0x00000000	0.0
169	0x45d9cb30	6969.3984
170	0x4632ea44	11450.566
171	0x42a7ac3f	83.83642
172	0x45814542	4136.657
173	0x4636c933	11698.3
174	0x4624e10d	10552.263
175	0x41014de3	8.081515
176	0x3da64c65	0.0812004
177	0x00000000	0.0
178	0x44754894	981.13403
179	0x4199377f	19.152098
180	0x00000000	0.0
181	0x46358142	11616.314
182	0x41d3cc32	26.474705
183	0x4253f539	52.989475
184	0x00000000	0.0
185	0x3d7c14d9	0.06154332
186	0x452e8673	2792.403
187	0x415127a7	13.072181
188	0x45684259	3716.1467
189	0x00000000	0.0
190	0x44b2809b	1428.0189
191	0x448dcba2	1134.3635
192	0x45618a61	3608.6487
193	0x00000000	0.0
194	0x00000000	0.0
195	0x45727332	3879.1997
196	0x00000000	0.0
197	0x45f8d5a0	7962.703
198	0x43020820	130.03174
199	0x45406960	3078.586

bn1.running_var f4 [200]
0	0x4a34c421	2.9616722e+06
1	0x3f27f62b	0.6561
2	0x4aaa2934	5.575834e+06
3	0x4a09c174	2.256989e+06
4	0x3f27f62b	0.6561
5	0x3f27f62b	0.6561
6	0x45be730d	6094.3813
7	0x4b8634f5	1.7590762e+07
8	0x4b932d6a	1.9290836e+07
9	0x47daf62c	112108.34
10	0x4485cd1b	1070.4095
11	0x3f27f62b	0.6561
12	0x4af0956a	7.883445e+06
13	0x4c354843	4.752206e+07
14	0x4944fa32	806819.1
15	0x472d8410	44420.062
16	0x3f27f62b	0.6561
17	0x4ca02fe2	8.398414e+07
18	0x4b0c4386	9.192326e+06
19	0x3f27f62b	0.6561
20	0x3f27f62b	0.6561
21	0x3f27f62b	0.6561
22	0x4793927e	75556.984
23	0x4ba15fe8	2.1151696e+07
24	0x4c8fd6bd	7.541297e+07
25	0x3f27f62b	0.6561
26	0x3f27f62b	0.6561
27	0x4dbd7724	3.9733773e+08
28	0x49a24cc1	1.3295601e+06
29	0x3f27f62b	0.6561
30	0x4cce0e7a	1.0803298e+08
31	0x482c99e6	176743.6
32	0x49635ba7	931258.44
33	0x4c19c16b	4.0306092e+07
34	0x4c24fe3a	4.3251944e+07
35	0x3f27f62b	0.6561
36	0x4bead3b5	3.0779242e+07
37	0x3f27f62b	0.6561
38	0x3f27f62b	0.6561
39	0x4beec06d	3.1293658e+07
40	0x45e7af5d	7413.9204
41	0x3f27f62b	0.6561
42	0x4cd19fec	1.0990371e+08
43	0x49f6425f	2.0173559e+06
44	0x496760c2	947724.1
45	0x4d4387d2	2.0502864e+08
46	0x3f27f62b	0.6561
47	0x4c8e1030	7.448205e+07
48	0x495264c9	861772.56
49	0x4d519413	2.197589e+08
50	0x49c5684f	1.6171619e+06
51	0x49440bb8	803003.5
52	0x3f27f62b	0.6561
53	0x49c2afa6	1.5948688e+06
54	0x4710d2d2	37074.82
55	0x45b02bf6	5637.495
56	0x49ccb06a	1.6768132e+06
57	0x4c95bd8b	7.8507096e+07
58	0x4d919a0e	3.0534906e+08
59	0x4cf743a0	1.2963763e+08
60	0x4980ab5f	1.0540599e+06
61	0x4ac47d47	6.4385635e+06
62	0x4cea3167	1.2278457e+08
63	0x3f27f62b	0.6561
64	0x4b5588ae	1.3994158e+07
65	0x3f27f62b	0.6561
66	0x3f27f62b	0.6561
67	0x47485ff9	51295.973
68	0x49f0b577	1.9718869e+06
69	0x3f27f62b	0.6561
70	0x4533506f	2869.027
71	0x46a69686	21323.262
72	0x3f27f62b	0.6561
73	0x4ad23222	6.887697e+06
74	0x4c3d111c	4.9562736e+07
75	0x4c3c4382	4.93522e+07
76	0x4bcf5ad0	2.71784e+07
77	0x41d48a51	26.567537
78	0x484e62be	211338.97
79	0x3f27f62b	0.6561
80	0x4c0e123b	3.7243116e+07
81	0x4c3d8299	4.9678948e+07
82	0x4800cba2	131886.53
83	0x496a7f6b	960502.7
84	0x48ded794	456380.62
85	0x4a34780f	2.9568038e+06
86	0x3f27f62b	0.6561
87	0x485d3d5e	226549.47
88	0x46687967	14878.351
89	0x4b72b749	1.5906633e+07
90	0x4b8a0b3e	1.8093692e+07
91	0x4d0ff2aa	1.5094032e+08
92	0x465cb85a	14126.088
93	0x3f27f62b	0.6561
94	0x4c803d1d	6.7234024e+07
95	0x47a30fb3	83487.4
96	0x4d691154	2.4438918e+08
97	0x499dbe00	1.292224e+06
98	0x3f27f62b	0.6561
99	0x45c7f956	6399.167
100	0x4d6ee213	2.5048709e+08
101	0x3f27f62b	0.6561
102	0x47bd7b84	97015.03
103	0x4a251434	2.704653e+06
104	0x468f748d	18362.275
105	0x4d1afe61	1.6252264e+08
106	0x3f27f62b	0.6561
107	0x490bb863	572294.2
108	0x49fa7c80	2.051984e+06
109	0x4e07ac18	5.690506e+08
110	0x3f27f62b	0.6561
111	0x3f27f62b	0.6561
112	0x4ca99032	8.889998e+07
113	0x4b8d7bee	1.8544604e+07
114	0x4bb7bad6	2.4081836e+07
115	0x4d98b61c	3.2025894e+08
116	0x4dd7f3d9	4.5288528e+08
117	0x4c05f31b	3.5114092e+07
118	0x3f27f62b	0.6561
119	0x3f27f62b	0.6561
120	0x478fd28a	73637.08
121	0x4dbc6f33	3.9517552e+08
122	0x4905fa96	548777.4
123	0x3f27f62b	0.6561
124	0x4853b591	216790.27
125	0x3f27f62b	0.6561
126	0x4b7324e4	1.5934692e+07
127	0x4d278daf	1.7569253e+08
128	0x4ca3ce15	8.5881e+07
129	0x3f27f62b	0.6561
130	0x4c356c84	4.7559184e+07
131	0x4adbb318	7.199116e+06
132	0x4b8947db	1.7993654e+07
133	0x43dd28b5	442.31802
134	0x4b17325e	9.90883e+06
135	0x4c2c15e7	4.5111196e+07
136	0x4bd81413	2.832183e+07
137	0x3f27f62b	0.6561
138	0x3f27f62b	0.6561
139	0x4c7c7637	6.618134e+07
140	0x3f27f62b	0.6561
141	0x4d2fb1e7	1.8422949e+08
142	0x4a9e6f53	5.1915935e+06
143	0x4d73dddb	2.5571269e+08
144	0x489b8238	318481.75
145	0x3f27f62b	0.6561
146	0x4d9acf4d	3.2465962e+08
147	0x4c1c516d	4.0977844e+07
148	0x494237b3	795515.2
149	0x3f27f62b	0.6561
150	0x4a11b508	2.387266e+06
151	0x3f27f62b	0.6561
152	0x46d370d2	27064.41
153	0x4c21a3e9	4.2373028e+07
154	0x409e8ab3	4.954431
155	0x4e3ccc62	7.9187776e+08
156	0x3f27f62b	0.6561
157	0x3f27f62b	0.6561
158	0x4e07b7bf	5.6924154e+08
159	0x4b7b07e2	1.6451554e+07
160	0x3f27f62b	0.6561
161	0x3f27f62b	0.6561
162	0x3f27f62b	0.6561
163	0x48460248	202761.12
164	0x4d837668	2.756969e+08
165	0x4a31b086	2.9112655e+06
166	0x4ce3b16c	1.1937674e+08
167	0x4de29d45	4.752447e+08
168	0x3f27f62b	0.6561
169	0x4d07c79f	1.4237541e+08
170	0x4db1bd3a	3.7274605e+08
171	0x482622c9	170123.14
172	0x4c1053c0	3.7834496e+07
173	0x4dce7480	4.3296768e+08
174	0x4db0215b	3.69372e+08
175	0x4687b2c2	17369.379
176	0x41abf569	21.49483
177	0x3f27f62b	0.6561
178	0x4aa7626c	5.484854e+06
179	0x46fe6893	32564.287
180	0x3f27f62b	0.6561
181	0x4d87092e	2.8319072e+08
182	0x476aee2b	60142.168
183	0x47948f68	76062.81
184	0x3f27f62b	0.6561
185	0x41240cde	10.253141
186	0x4b0d3a79	9.255545e+06
187	0x465ea1ba	14248.432
188	0x4c3ff74a	5.032273e+07
189	0x3f27f62b	0.6561
190	0x4a2b3884	2.805281e+06
191	0x4a8458e0	4.336752e+06
192	0x4b55833d	1.3992765e+07
193	0x3f27f62b	0.6561
194	0x3f27f62b	0.6561
195	0x4c4e67f4	5.410811e+07
196	0x3f27f62b	0.6561
197	0x4d020e27	1.3637285e+08
198	0x47ad3bb5	88695.414
199	0x4c177f23	3.9713932e+07

bn2.weight f4 [20]
0	0x3ff0f62e	1.8825128
1	0x3fc3404d	1.5253998
2	0x3feac6ab	1.8341879
3	0x3fbec2cc	1.4903197
4	0x3fefc80d	1.8732926
5	0x3fc9f54d	1.5777985
6	0x3fca778b	1.5817732
7	0x3febfcf1	1.8436567
8	0x3ff6a839	1.9270087
9	0x3fefe6a4	1.8742261
10	0x3fc97a1b	1.5740389
11	0x3ff54311	1.9161092
12	0x3ff27a10	1.89435
13	0x3fc53e79	1.540969
14	0x3ff281ac	1.8945823
15	0x3ff4d389	1.9127055
16	0x3fb8d63c	1.4440379
17	0x3ff5bddc	1.9198565
18	0x3ff2716f	1.8940867
19	0x3ff4d787	1.9128274

bn2.bias f4 [20]
0	0x3f360b93	0.7111141
1	0xbf2ef620	-0.68344307
2	0x3f33b527	0.7019829
3	0xbf2dd325	-0.67900306
4	0x3f337088	0.70093584
5	0xbf2f4608	-0.68466234
6	0xbf2ffbc4	-0.6874354
7	0x3f2e6271	0.6811896
8	0x3f3254e9	0.6966081
9	0x3f35fe32	0.71090996
10	0xbf32340b	-0.6961066
11	0x3f34bbe0	0.70599174
12	0x3f33db71	0.70256716
13	0xbf31ced2	-0.6945621
14	0x3f33776a	0.70104086
15	0x3f3468b8	0.7047229
16	0xbf2e6a5f	-0.6813106
17	0x3f344053	0.7041065
18	0x3f32cf8e	0.69847953
19	0x3f35722c	0.7087734

bn2.running_mean f4 [20]
0	0x3e395dbe	0.18102166
1	0x3e055b09	0.13023008
2	0x3de396e4	0.111127645
3	0x3df9d818	0.1219942
4	0x3df41d2a	0.11919625
5	0x3e48abd8	0.19596803
6	0x3e389a1f	0.18027543
7	0x3e1296bf	0.14315318
8	0x3e336bd6	0.17521605
9	0x3dd6e0a5	0.10492066
10	0x3dfa9feb	0.12237533
11	0x3dfb0973	0.12257662
12	0x3e325be0	0.1741786
13	0x3dc5bd64	0.09655264
14	0x3e065ba3	0.13120894
15	0x3e047876	0.12936577
16	0x3e284b47	0.16434966
17	0x3e14f5a2	0.14546826
18	0x3e02b96c	0.12766045
19	0x3e604651	0.21901824

bn2.running_var f4 [20]
0	0x3f89ca25	1.0764815
1	0x3f307e70	0.6894293
2	0x3f4a90d1	0.7912722
3	0x3f30f503	0.6912386
4	0x3f57e4c8	0.8433347
5	0x3f3e8bf3	0.74432296
6	0x3f36421e	0.71194637
7	0x3f5d0000	0.86328125
8	0x3f8f4ef9	1.1195976
9	0x3f428850	0.75989246
10	0x3f30b047	0.6901898
11	0x3f5b0550	0.8555498
12	0x3f85443c	1.0411448
13	0x3f2fe523	0.6870901
14	0x3f67421e	0.9033526
15	0x3f5b6876	0.8570627
16	0x3f38c263	0.7217161
17	0x3f7a4803	0.9776613
18	0x3f6a6f9b	0.91576546
19	0x3fa7850c	1.3087478
