Results/NN_MLP_MLs/MLP_Ensemble/Model_Results/AllVar/test5-itr100000/best_model_0.pt (torch, 98866 bytes, 14 tensors)

country_embedding.weight f4 [8, 2]
000000 24 dc cc c0 11 4e 02 40 a4 82 0c 41 eb 1d da c0
       -6.4018726 2.0360148 8.781895 -6.816152
000010 42 18 22 41 ad d6 50 c0 42 2c 10 c1 c6 c1 56 40
       10.130922 -3.2631028 -9.010805 3.355577
000020 97 09 3a c0 11 16 d3 be 5f 5d ba c1 d5 e7 82 41
       -2.9068353 -0.41227773 -23.295591 16.3632
000030 a4 3f dd 41 e1 41 99 c1 57 1d 88 40 b6 a9 58 c0
       27.656075 -19.157167 4.2535815 -3.3853583

fc1.weight f4 [200, 92]
000000 40 41 32 3f 6a 78 37 c1 d3 26 85 c0 79 b7 a1 c0
       0.69630814 -11.466898 -4.1609893 -5.0536466
000010 08 bb 15 c0 af 53 41 c0 fc 47 8d c0 12 f2 a4 c0
       -2.3395405 -3.0207326 -4.415037 -5.1545496
000020 7c 41 fd c0 63 63 aa c0 d7 55 71 c0 8b 79 94 c0
       -7.9142437 -5.324632 -3.7708642 -4.639837
000030 28 6b 8a bf 2c d7 6e bf c5 c8 79 c0 a1 49 13 c0
       -1.0813951 -0.93297076 -3.902879 -2.301369
000040 01 67 53 3f 2b 14 1c c0 a2 7d a4 bf 6b fb 92 3f
       0.82579046 -2.438731 -1.285084 1.1482977
000050 5a 5d 91 3f 1e e2 7f 3f ec 77 95 bf b9 b0 37 be
       1.1356614 0.999544 -1.1677222 -0.17938508
000060 2e 93 66 40 d7 1e 07 bf cb b4 66 3e 5a db 41 3f
       3.6027331 -0.5278143 0.22529905 0.7572533
000070 d5 ab a2 3f 61 b8 02 40 7c 43 70 3f e7 e5 0c 40
       1.2708689 2.0425036 0.93852973 2.2015321
000080 ca 36 f8 3f d6 1b 4a 40 fd 20 d6 3f 1d 44 d4 3d
       1.939172 3.157949 1.6728817 0.10364554
000090 8c 36 e1 3d e2 d2 52 be e7 dc 5a 40 96 5a 57 3f
       0.10996732 -0.20588258 3.4197328 0.841226
0000a0 38 9a a4 40 8d 2c d9 40 00 c9 4d bf 50 80 4f 3f
       5.1438255 6.7866883 -0.80384827 0.81055164
0000b0 28 97 ae 3f 8b 89 88 3f b1 a5 ba bf 83 59 0b 3e
       1.3639879 1.0666975 -1.4581815 0.13608365
0000c0 93 8b 59 40 43 40 68 bd a8 e4 b0 3e e3 98 a8 3f
       3.399144 -0.05670191 0.3454945 1.3171657
0000d0 1e 32 ad 3f 62 05 f2 3f 9f 3d 89 3f 88 f7 d3 3f
       1.353092 1.8907893 1.072193 1.6559916
0000e0 cd af 8b 3f c6 70 81 40 78 05 a8 3f 54 66 bc 3d
       1.0913025 4.0450163 1.3126669 0.09199205
0000f0 8b 17 82 bc 29 74 b9 be 6f 87 57 40 8c 5d 44 3f
       -0.015880367 -0.36221436 3.3676412 0.7670524
000100 37 6e 57 40 74 4f cc 40 1f d1 4a bf 24 c4 3a 3f
       3.366102 6.384699 -0.79225343 0.72955537
000110 86 ca b6 3f 6f aa 82 3f 3f 95 9f bf 02 c7 81 3e
       1.4280555 1.0208262 -1.2467421 0.25347143
000120 44 36 61 40 b8 5e 6e 3c 97 01 de 3e a4 e4 c6 3f
       3.518937 0.01454895 0.43360588 1.5538526
000130 47 8d b7 3f 89 81 dc 3f e1 37 9f 3f 4b 46 d5 3f
       1.433999 1.7227031 1.2438928 1.6662077
000140 2b 40 77 3f 87 6f 83 40 57 ac 73 3f 82 e5 75 bd
       0.9658229 4.107364 0.95184845 -0.06003333
000150 a2 46 c0 bb cc 95 14 be be e5 53 40 07 08 45 3f
       -0.005867795 -0.14510268 3.3108974 0.76965374
000160 3a 2c dc 3f 7c bf 94 40 a4 89 8d 41 17 45 34 c1
       1.7200997 4.6483746 17.692207 -11.266868
000170 ef ae 10 3f a4 6f 3a c1 a7 9e 82 c0 af 76 9f c0
       0.5651693 -11.652256 -4.0818667 -4.9832377
000180 1c 54 1b c0 24 12 41 c0 d7 ac 89 c0 79 f3 ab c0
       -2.4270086 -3.0167322 -4.3023486 -5.373471
000190 56 62 fd c0 b8 39 ab c0 cd fb 77 c0 f6 cd 90 c0
       -7.918254 -5.3507957 -3.8747437 -4.5251417
0001a0 3c 29 71 bf ad 5c 81 bf 56 de 7c c0 7a 7d 14 c0
       -0.94203544 -1.0106407 -3.9510703 -2.3201585
0001b0 8d 27 62 3f 3e cd 1b c0 c3 1d 92 bf 43 f0 9e 3f
       0.883416 -2.434402 -1.1415333 1.2417072
0001c0 eb a3 9b 3f 9c 62 60 3f 1d 29 96 bf 21 16 50 be
       1.2159399 0.87650466 -1.1731297 -0.20320942
0001d0 e6 a9 6a 40 d0 62 e3 be 90 fe 9e 3e 33 35 66 3f
       3.6666198 -0.44411325 0.3105359 0.89924926
0001e0 36 e5 b5 3f 2c 20 0c 40 44 e1 6b 3f d1 0c 17 40
       1.4210575 2.1894636 0.92140603 2.3601573
0001f0 4f af 0b 40 4e 31 54 40 c9 78 d4 3f 8d 12 f7 bb
       2.182575 3.3155093 1.6599361 -0.007540053
000200 66 c0 01 bd 77 28 a3 be e7 e6 55 40 a3 4d 63 3f
       -0.031677626 -0.3186681 3.3422182 0.8879034
000210 66 56 a0 40 69 6e d7 40 bd c9 35 bf 9a 7f 55 3f
       5.0105467 6.732228 -0.71010953 0.8339783
000220 e3 37 ad 3f 7c ec 91 3f 02 a3 a1 bf 64 1a c5 3c
       1.353268 1.1400294 -1.2627871 0.024060436
000230 1c 95 62 40 3f 07 9b bd 89 de b7 3e ea 92 b1 3f
       3.540351 -0.075697415 0.35911968 1.387296
000240 d2 5f b1 3f 34 2b ef 3f 5d 4d 8d 3f 2d 04 e0 3f
       1.3857367 1.868506 1.1039234 1.7501274
000250 72 3e 90 3f fb be 81 40 0d e0 8f 3f 5c dd 20 3d
       1.1269057 4.054563 1.124025 0.039273605
000260 c8 53 0d be 73 67 a8 be 1e c2 57 40 57 6f 46 3f
       -0.13801491 -0.32891425 3.371223 0.7751364
000270 0e 8e 5e 40 ae b8 c8 40 1e 01 59 bf 6a 4a 74 3f
       3.4774203 6.272544 -0.8476733 0.95426047
000280 4e 3a ba 3f 03 ce 86 3f fc f1 88 bf 9d e2 73 3e
       1.4549043 1.053162 -1.0698848 0.23816915
000290 c1 fd 67 40 2f d5 d2 3d cf f7 02 3f 50 b0 cd 3f
       3.624863 0.10294568 0.51159376 1.6069431
0002a0 ae ab c3 3f 94 02 ea 3f 25 ea ae 3f 0e 0b ee 3f
       1.5286767 1.8282037 1.3665205 1.8597124
0002b0 86 5c 6b 3f 3d a0 87 40 d3 1a 88 3f 47 18 92 3d
       0.91938055 4.2383103 1.0633186 0.07133537
0002c0 ec 5e 3d be 5e 1e 85 be 7f 17 4d 40 21 73 39 3f
       -0.18493241 -0.2599973 3.204559 0.724413
0002d0 c0 be d4 3f 13 84 93 40 73 61 8e 41 ae 35 35 c1
       1.6620712 4.6098723 17.797583 -11.325605
0002e0 07 07 3c 3c 57 9b 73 3d ac d7 82 bd 62 6e 97 bc
       0.011476285 0.059474315 -0.063887924 -0.018485252
0002f0 ca 3e de bd c9 64 90 3c d6 8a 7d 3d 2e 11 0e 3e
       -0.1085182 0.017626183 0.061899982 0.13873741
000300 84 6b 1a 3d f8 ab 9f 3d 36 5f f1 3d 19 a7 d7 3d
       0.03770019 0.07796472 0.11785738 0.10529918
000310 55 0b 34 bc 03 06 c3 bc de 4d ed 3d 87 0f 25 3d
       -0.01098903 -0.023806578 0.115871176 0.04029801
000320 88 a8 5c 3b b7 a0 33 bd b2 e1 d2 3d 8c 99 3c bd
       0.0033669788 -0.04385444 0.10296954 -0.04604487
000330 73 0a 5d bd 7b dd 6f 3d 50 cd 13 3e 8f de 82 3d
       -0.053965043 0.05856083 0.14433789 0.06390106
000340 98 09 b9 bd dc 0f fe 3d e8 f0 42 3d 97 6f c9 3d
       -0.09035033 0.12405369 0.047593027 0.09835737
000350 0e 2c 54 bd 99 f4 7c bc d3 ad fe 3d 4a 73 fd 3d
       -0.051799826 -0.015439176 0.12435498 0.12375505
000360 4e 08 c7 3d c0 f4 c6 3d f7 8f 6b 3c 52 fd 86 bd
       0.09718381 0.09714651 0.014377586 -0.06591286
000370 84 94 63 3c 51 b8 9f bc a5 58 3f bd 83 9a 15 3d
       0.013890389 -0.019497069 -0.046715397 0.036524307
000380 b5 a5 fb 3d 90 a7 2a 3e 1e 86 74 bc 50 c7 50 3d
       0.122874655 0.16665483 -0.014924554 0.05097133
000390 46 e5 ef 3b 76 b0 13 be 2b eb 3b 3e 44 99 bb bc
       0.0073210327 -0.14422783 0.18351428 -0.022900231
0003a0 34 57 bc 3a e6 b7 5e 3d 34 ee 83 3d e9 b7 13 3e
       0.001436925 0.054374598 0.06441918 0.14425625
0003b0 33 b5 a0 3d ae a9 f9 bc cd d9 7f 3d 9d 5f 98 bb
       0.07847061 -0.030476417 0.06246357 -0.00465007
0003c0 04 02 80 bc 4c 9a 47 3d 03 5a cc bd 5b 7d 8e bd
       -0.015625961 0.048731133 -0.09978106 -0.069575034
0003d0 07 f8 be bd 3b 8e eb 3d c5 05 58 3d e0 11 b0 3d
       -0.09324651 0.11501738 0.052739877 0.085971594
0003e0 29 c0 00 3e c8 ff 4f 3d c9 5a 39 bc e5 83 9b 3d
       0.12573303 0.05078104 -0.011313149 0.07593516
0003f0 64 a5 1e 3d 12 5f 50 bc 01 13 68 3d 29 4c 1e 3c
       0.038731948 -0.012717979 0.05665875 0.009661713

fc1.bias f4 [200]
000000 2c 9f 1a 3f 0c b8 13 3f 25 4d b2 bd 8a 0d 28 bd
       0.60399127 0.5770271 -0.087061204 -0.041028537
000010 b2 2d ca 3d d6 e8 0c bc c2 e9 23 3f 42 56 1c 3f
       0.09871997 -0.008600434 0.6402856 0.6106912
000020 c3 99 a5 bd d4 1f 20 3f 52 db 06 3f b3 ca 41 3f
       -0.08085968 0.62548566 0.52678406 0.7569992
000030 bc 1d 0d 3f 1c 19 c2 bd 14 1f af bd bc eb 1a 3f
       0.55123496 -0.094774455 -0.085508496 0.6051595
000040 bb 8c 0b bc 4e 93 39 be 70 d3 0d 3f 7a 5d 13 3f
       -0.0085174395 -0.18122599 0.55400753 0.5756451
000050 96 fe d6 bd 09 f3 be 3d 9d 8a 34 3d 67 40 3c 3f
       -0.10497777 0.09323699 0.044077504 0.7353577
000060 13 39 03 3f 70 1d a5 bd 10 16 42 3d fe b5 23 3f
       0.51258963 -0.080622554 0.04738432 0.63949573
000070 83 67 2f 3f 5f b9 08 be ac 21 13 3f 0f 72 49 be
       0.6851732 -0.13351963 0.57473254 -0.19672416
000080 44 1e 1b 3f af e2 95 3d a4 61 19 3f 13 ca 0b 3f
       0.60593057 0.07318627 0.5991461 0.54605216
000090 2d 11 14 3f d7 4c 3d 3f b5 46 d4 bd 7e 8b c4 bc
       0.5783871 0.73945373 -0.10365049 -0.023992296
0000a0 c9 d0 21 3f ba b8 08 3f da 74 01 bd 2d 70 20 bc
       0.63209206 0.5340687 -0.03160558 -0.00979237
0000b0 a2 b8 2a be 64 cb 40 3f 2b 5a 57 bd 6f dc 74 3b
       -0.16671994 0.7531035 -0.052576225 0.0037362834
0000c0 15 8c 20 3f 8f a2 8a 3c 9e b2 8a 3d dc 52 2e 3f
       0.6271375 0.016923217 0.0677235 0.68095183
0000d0 a4 0a 6c 3b 9d 69 2f 3f 58 d8 0e 3f 21 62 08 3f
       0.0036017084 0.6852053 0.55798864 0.5327473
0000e0 50 be 24 3f d2 28 e3 3e ee bd 2f 3f d8 c6 f3 3e
       0.64352894 0.4436708 0.68649185 0.47612643
0000f0 06 cf 30 3f 5d 44 39 3f 82 cb f8 3e 2a bd 22 3f
       0.6906589 0.7236994 0.48592764 0.6356989
000100 84 f5 06 3f 88 6d 0a 3f ba 00 83 bc 5b ed 28 3d
       0.5271838 0.5407338 -0.015991557 0.041241985
000110 55 8d 30 3c 3a 3a 6a bd 0e 1b 0f 3f 9d f4 42 bd
       0.010775884 -0.057184435 0.5590066 -0.047596563
000120 6b 54 d4 bd 62 ec 00 3b 80 bf 10 be c3 83 89 3d
       -0.10367664 0.0019672145 -0.14135551 0.06714585
000130 60 b6 fb 3e b4 62 f1 3c 15 7b 74 bd f7 09 3a 3f
       0.4916258 0.02946601 -0.059687693 0.72671455
000140 a5 79 2e 3f c6 6b a6 bc 44 f9 30 3f 77 56 2d 3f
       0.68154365 -0.020315062 0.6913035 0.6771006
000150 0c e5 24 3e 0b 62 2e 3f 8a c1 0b 3f 5f 9c 1d 3f
       0.16103 0.6811835 0.5459219 0.6156673
000160 54 46 18 3f 06 f8 4c 3d c1 8d c0 bd 08 76 07 bb
       0.5948231 0.05004122 -0.094020374 -0.0020669717
000170 15 04 11 3f 24 8b 8e bc 9f e9 17 3f 4f 51 fd 3c
       0.56646854 -0.017400332 0.5934085 0.03092256
000180 5d 8b 09 3f 5e 6c 1c 3f c1 b1 2d 3f aa a8 37 3b
       0.53728276 0.61102855 0.67849356 0.0028024116
000190 10 b1 47 3f c9 15 02 3f ef 9f 2e 3d f3 a3 d4 bd
       0.7800455 0.5081449 0.042632993 -0.10382833
0001a0 42 ed 07 3f 62 bb 17 3f 16 dd e3 3e 01 2d 38 3f
       0.530964 0.592703 0.44504613 0.7194367
0001b0 96 da 2f bd 74 e6 fe bc c8 70 aa 3d 0e e2 85 bd
       -0.04293307 -0.031115748 0.083222926 -0.06537257
0001c0 85 90 f7 3c 70 52 2b 3f 74 0d f3 3c 47 9b 77 3c
       0.03022028 0.66922665 0.0296695 0.015112705
0001d0 bd ec 34 3f 73 a0 e9 3e 49 c8 bb bd 7e aa 61 3d
       0.70673734 0.45630226 -0.09169061 0.055094235
0001e0 64 d1 1a 3f da db 30 3f 1c 55 0f 3f 39 05 23 3f
       0.60475755 0.69085467 0.5598924 0.63679844
0001f0 25 61 4e be 21 de 16 3f 9d 2f 91 bd 37 7b 24 3f
       -0.20154245 0.5893269 -0.0708916 0.6425051
000200 53 33 3d 3f ad b3 3a 3f 99 2d ab 3d d7 b6 04 be
       0.7390644 0.72930413 0.083583064 -0.12960373
000210 6f f1 2c 3f d2 26 15 3f 49 4e 9e 3c f4 70 cc bd
       0.675559 0.5826236 0.019324439 -0.099824816
000220 e0 21 12 be 17 5d 1a 3f 23 62 2d 3f 5a 69 3b 3d
       -0.14270735 0.60298294 0.6772787 0.045754768
000230 56 85 2e 3f b6 9c b6 bd 69 29 09 3d 80 fb a9 bd
       0.68172204 -0.08916609 0.033486757 -0.08299923
000240 a6 ea 9e bc 22 e3 03 3f f3 ef 49 3d d6 e2 2c 3f
       -0.019398998 0.5151845 0.0493011 0.67533624
000250 14 ea 5f bc d2 68 76 3c 1d 21 0a 3f 35 c1 4a 3d
       -0.013666648 0.01503964 0.53956777 0.049500663
000260 65 bd 90 3d 6f a6 84 3d dd 89 1a 3f 60 77 9d 3d
       0.07067374 0.06477057 0.6036661 0.076887846
000270 cd 61 7a bc 7a 85 a0 bd 12 66 13 3f ec 98 0c bb
       -0.015282107 -0.07837959 0.5757762 -0.0021453453
000280 b2 3a 17 3f 78 4c 1e 3f f2 22 18 3f ba 92 28 bd
       0.59073937 0.6183543 0.5942832 -0.041155554
000290 c3 e1 33 3f 44 9a 32 3f 77 ad 12 3d c8 40 39 3f
       0.7026636 0.6976664 0.03580996 0.72364473
0002a0 1a a9 91 3c cc 4f a9 3d 25 94 0c 3f 9a bf c9 bd
       0.01778083 0.08267173 0.5491355 -0.09850998
0002b0 a4 71 1a 3f 07 51 28 3f c8 61 12 3f c6 13 50 bd
       0.6032965 0.6574864 0.5718045 -0.050800107
0002c0 48 fb 0b 3f 96 c7 37 3f 86 b8 df 3b 87 74 34 3f
       0.546803 0.7178892 0.006827417 0.70490307
0002d0 74 66 ca bd cb 4b 20 3f 6c 8e bf 3c 10 5a 20 3f
       -0.09882823 0.6261565 0.023383342 0.62637424
0002e0 ef d4 57 bd 97 79 71 3d 96 9e 0f 3f ca a1 a7 3c
       -0.052693304 0.058953848 0.5610136 0.02046289
0002f0 f5 23 b4 bd ca 27 13 bd 2b 47 31 be 00 21 32 bd
       -0.08795921 -0.035926618 -0.17312305 -0.043488503
000300 99 48 74 3b ab 85 06 3f ae d2 8b bc 4e 92 0d 3c
       0.0037274717 0.5254771 -0.017068233 0.008640839
000310 02 02 a1 3c 27 e1 43 be 86 07 1a 3f 61 b6 3b 3f
       0.019654278 -0.19128858 0.6016773 0.73325163

fc2.weight f4 [20, 200]
000000 d8 1e 0f be 65 7b 0d be 7b 2b 05 be 6f 1b af bc
       -0.1397661 -0.13816603 -0.13004868 -0.021375386
000010 ab a5 99 bd 7e 70 ab bd 23 03 5b bd e3 e5 97 bd
       -0.07502302 -0.083710656 -0.05346979 -0.07416894
000020 56 82 7b 3d 8a 73 bb bd 6a f2 75 bd 15 4d f5 bd
       0.061403595 -0.09152897 -0.060045637 -0.11977593
000030 0d fd 7b bd 89 1b f9 bd 32 ce c5 bd a1 d2 2d bd
       -0.061520625 -0.12163455 -0.09658469 -0.0424372
000040 68 6a 07 bd 28 90 5e be 79 94 e8 bd 17 0c 60 bc
       -0.03306046 -0.21734679 -0.11356444 -0.013674757
000050 57 ef b0 bc f1 5b ad bd 77 00 5d 3c b8 c2 fa bd
       -0.021598501 -0.08464802 0.01348888 -0.12244171
000060 3f 81 db bd 4d 63 1d 3d e9 6b 80 bc f9 15 4b bd
       -0.10718011 0.03842478 -0.015676456 -0.0495815
000070 c0 26 28 bd df bf 91 3d a5 df db bd e1 44 8e bd
       -0.04105258 0.07116675 -0.10736016 -0.06946731
000080 51 80 1e be 2b 8f a1 3d 62 8c 89 bd f9 ce 95 bd
       -0.15478636 0.07888635 -0.06716229 -0.073148675
000090 63 cf d3 bd 71 35 0b be 3b 95 5b 3c 0c 8c 9b bc
       -0.1034229 -0.13594605 0.013402279 -0.018987678
0000a0 e9 9f e8 bc 2b e7 58 bd df 3f 07 3d 83 30 e1 bd
       -0.028396564 -0.052954834 0.033019897 -0.10995581
0000b0 d0 7a 7e bc b6 e6 c9 bd 58 00 5b bd 3f ee 0e 3d
       -0.0155322105 -0.09858458 -0.053467125 0.034895178
0000c0 f2 9d d6 bd 70 e0 a8 3c 65 1d 03 bd 89 b7 f2 bd
       -0.104793444 0.020614833 -0.032010455 -0.11851413
0000d0 3a 57 0b bb cb c7 a2 bd 34 e2 46 bd c6 3c a6 bc
       -0.0021261708 -0.07948264 -0.048555568 -0.02029265
0000e0 0d 5f 10 bd 47 61 d9 bc ec 49 8b bd b3 40 5d bd
       -0.035246897 -0.026535643 -0.06801209 -0.05401678
0000f0 05 42 bf bd 31 d0 f8 bd fb 0a cf bc de 42 83 bd
       -0.09338764 -0.12149084 -0.02527379 -0.06409238
000100 24 b1 86 3d 1d 10 0b bd 3e 82 f2 bd f0 be 0a bd
       0.06576756 -0.033950914 -0.11841248 -0.0338735
000110 91 e9 ca 3d 12 a4 bb bd a7 6a b4 bd 2c 3e a2 bd
       0.099078305 -0.09162153 -0.08809405 -0.079220146
000120 68 47 5e 3d 6b 72 de 3d 0f 74 bc bc 5e 13 f9 bc
       0.054267317 0.10861667 -0.02300456 -0.030404743
000130 a5 07 16 3d 28 44 02 3c 63 c7 30 bd d5 91 19 bd
       0.036628384 0.00795082 -0.0431589 -0.037492592
000140 50 2d ba bd 62 10 7b 3c 7c 5f d5 bd 22 85 b3 bd
       -0.09090674 0.01532373 -0.10418603 -0.087656274
000150 24 3c ff 3d b0 d9 cd bd 46 ea 34 3d c9 3f da bc
       0.12462643 -0.10051286 0.044168733 -0.026641743
000160 93 84 8e bd d5 07 95 3d 05 a6 57 be 05 90 30 3d
       -0.0695888 0.072768845 -0.21059425 0.043106098
000170 ba d8 8a bd f8 9b 1c 3b e0 0f 34 bd ae 5f a8 bb
       -0.067796186 0.0023896676 -0.043960452 -0.005138359
000180 f3 2b a6 bd 1c ee ef bd 49 20 9f bb 6a 3a 0a bc
       -0.081138514 -0.11715338 -0.0048561436 -0.008436779
000190 1a c5 c9 bc 0b 7a 7e bd 07 15 74 bb 1b f1 83 3d
       -0.024630118 -0.062128108 -0.0037243979 0.064424716
0001a0 cf 18 09 be 0f d6 e0 bd 6d 25 b3 bd 98 a0 02 be
       -0.1338837 -0.109783284 -0.08747373 -0.12756574
0001b0 75 fc cd bc 4a f1 8c 3d 6e 01 bb 3d b6 91 ff bc
       -0.025144795 0.0688196 0.09131132 -0.03119741
0001c0 75 29 d8 bd 32 8f c0 bd 22 ee 4c bc 7c 6c 43 3c
       -0.10554782 -0.09402312 -0.012507947 0.01192772
0001d0 d2 74 dc bc df e1 d5 bd 3f 6e 07 3d 48 6f 9f 3d
       -0.026911173 -0.10443472 0.033064123 0.07784897
0001e0 d2 7d 9d bd b8 82 97 bc f5 53 fd bd 24 5b 6f bd
       -0.07690014 -0.018494949 -0.12369529 -0.058436528
0001f0 e1 1a 40 3d c6 fc de bd 41 6d 82 3d 76 80 08 bd
       0.046900634 -0.108880565 0.06368495 -0.033325635
000200 09 e6 52 bd 1c 08 55 bd 40 79 b6 bd 5f 58 bf bc
       -0.05148891 -0.052009687 -0.08909845 -0.023357568
000210 4b 44 8a bd 68 59 d3 bd f9 99 67 3d 94 65 2d 3b
       -0.06751307 -0.10319787 0.056543324 0.002645825
000220 be 95 60 bd b0 48 81 bd 4e 49 88 bd e4 ee 81 bc
       -0.054830305 -0.06312692 -0.06654607 -0.015860982
000230 da 81 c1 bc 2c cf 74 3d 22 33 d1 bd 3d c8 4e 3d
       -0.023621488 0.059767887 -0.10214831 0.05048393
000240 fb 8d b7 3c c3 33 e8 bd c4 ef dd bc ca 9a ca bc
       0.022406569 -0.11337998 -0.027091868 -0.024732012
000250 53 be 25 3c 9b a5 c8 3d 7f 00 3b bb 9c 76 2c bd
       0.010116178 0.09797212 -0.0028534231 -0.042105302
000260 d4 80 c3 3c 86 65 d9 3d 51 24 35 bd 98 6f 07 bc
       0.023865141 0.10615067 -0.044224087 -0.008266352
000270 ec cd 77 3c 64 af 20 bd 50 2e 08 be 0c 4d 38 3c
       0.015124779 -0.039229766 -0.13298917 0.011248838
000280 0c 91 11 bc 6b 9f a7 bd 44 5f aa bd cb 09 09 3d
       -0.0088846795 -0.081847034 -0.08318952 0.033456605
000290 e4 21 87 bd 39 c0 87 bd 9c dc 07 bd f3 6c a6 bd
       -0.06598261 -0.066284604 -0.033169374 -0.08126249
0002a0 7e e7 97 bd af f7 a9 3d c7 35 01 be 64 20 86 bd
       -0.074172005 0.08299195 -0.1261817 -0.06549147
0002b0 8d 1e b9 bb a7 38 09 be fc 10 81 3d 45 02 71 bc
       -0.005649394 -0.13400517 0.06302068 -0.014710014
0002c0 1b 72 0e be 62 85 07 be e5 4d 2e be 67 7e 91 bd
       -0.13910715 -0.13234475 -0.17021902 -0.071041875
0002d0 84 c7 bf 3d c4 3f 3d bd 8d eb 45 bd f5 6c 0b bc
       0.093642265 -0.04620339 -0.04832034 -0.008509864
0002e0 97 e1 24 bd 21 f5 d3 bc d4 9e c4 bd f7 d1 68 bd
       -0.0402542 -0.025873723 -0.096006066 -0.056840863
0002f0 d4 a8 b9 bd 64 cc a7 bd 43 11 ff bd d1 2a 3e bd
       -0.090654045 -0.08193281 -0.12454464 -0.04642755
000300 2d f9 18 bb 24 d4 6b bd 34 17 ef bc c0 eb 0d bd
       -0.002334188 -0.05757536 -0.029185869 -0.034648657
000310 d4 2a d1 bc 12 02 f8 bc 7b 40 8d bd aa 05 1b bd
       -0.025533117 -0.030274425 -0.06897064 -0.0378472
000320 85 23 47 bd 7a 87 a2 bd 15 24 e5 bd 19 40 74 bd
       -0.04861786 -0.07935996 -0.11188523 -0.05963144
000330 67 9a 17 3c 1f 73 9d bd 72 01 8d bc 28 3a 0c bd
       0.009253121 -0.07687973 -0.017212603 -0.03423515
000340 1c 8e 65 bd 5f 16 80 3c 00 93 ad bd 3f f0 c9 bb
       -0.05604373 0.015635667 -0.08475304 -0.006162673
000350 7a ca 1c 3c 86 30 b6 bd 26 a9 d7 bd 41 78 54 bd
       0.009569759 -0.08895974 -0.105303094 -0.051872496
000360 a9 f0 d2 bd 56 8e e4 bd 4d 5d 9a bd 88 5e 90 bd
       -0.102998085 -0.11159961 -0.07537327 -0.070492804
000370 86 5e 27 3d 9a 89 b8 bc 73 7f 05 be 07 96 a2 bd
       0.04086163 -0.022526551 -0.130369 -0.07938772
000380 0c 67 49 bd ee b0 b2 3d 83 d6 e2 3d d6 42 33 bb
       -0.04917054 0.08725153 0.11076071 -0.002735307
000390 6e e2 33 3d 53 7d 18 3c 47 91 24 bd 07 ee ec 3d
       0.043917112 0.009307223 -0.04017761 0.115688376
0003a0 ca af 9e bd 3b 1d 29 3d db 8b ab 3c ac 3e 59 bd
       -0.07748373 0.041287642 0.020940712 -0.053038284
0003b0 e3 92 23 bd f6 dc df bd a0 4c 5a 3b 88 5d 00 be
       -0.039935004 -0.10930817 0.0033309832 -0.1253568
0003c0 d5 12 84 bd f7 e5 de bc 25 29 d5 3d 0f df c5 bd
       -0.064489044 -0.027209265 0.10408238 -0.09661686
0003d0 34 60 62 be 6c 2a cb bd ab 90 00 be e8 86 8b 3d
       -0.22107011 -0.09920201 -0.12555186 0.06812841
0003e0 52 15 a1 bd 2c df c5 3d 28 86 61 bd 1f 7f ee 3c
       -0.07865395 0.09661707 -0.055059582 0.02911335
0003f0 b7 6d 05 3e 10 05 80 bd cc 48 7e 3c e3 0e 2a 3d
       0.13030134 -0.062509656 0.015520286 0.041518103

fc2.bias f4 [20]
000000 77 1f 8c 3d a8 aa 02 3e ad f4 35 3e 10 68 21 3d
       0.06841939 0.12760413 0.17769118 0.039405882
000010 af d5 b8 3d a5 8d 41 3f 13 a2 d4 3d 5c e4 30 3f
       0.09025132 0.7560676 0.10382476 0.6909845
000020 d0 a9 44 3f 90 56 d0 3d f5 71 76 3d 05 e1 3b 3f
       0.76821613 0.101727605 0.06016727 0.7339023
000030 bb b0 4b 3f 83 7f 3e 3f fd 33 94 3b 56 cf 14 3c
       0.79566544 0.7441332 0.004522799 0.009082636
000040 ea 26 80 3d 93 b6 ca 3d 0c 71 03 3e 94 d7 18 3e
       0.06257422 0.098981045 0.12836093 0.14925987

fc3.weight f4 [1, 20]
000000 ce 86 54 bf c6 d0 5f bf c8 40 55 bf fe 8c 43 bf
       -0.83018196 -0.8742794 -0.83301973 -0.7638701
000010 6f d8 67 bf ea 17 a3 3f ef 93 80 bf b2 2c b2 3f
       -0.90564626 1.2741673 -1.0045146 1.391989
000020 bf 63 b7 3f 99 04 49 bf 62 fb 4f bf 14 43 a7 3f
       1.4327315 -0.7852264 -0.81242955 1.3067346
000030 6c 5e ad 3f b5 c4 be 3f 3d 4b 60 bf 9b 76 6e bf
       1.354444 1.490378 -0.87614805 -0.9314973
000040 d9 8e 5e bf 44 20 6c bf 76 dd 67 bf 91 a8 5d bf
       -0.8693672 -0.92236733 -0.905723 -0.86585337

bn1.weight f4 [200]
000000 e9 0d 0a 40 ea a9 0a 40 02 27 e6 3f fe ab ad 3f
       2.157099 2.1666207 1.7980654 1.3568113
000010 00 00 80 3f 00 00 80 3f cf 3a 0f 40 31 c6 0e 40
       1.0 1.0 2.2379644 2.2308466
000020 75 26 53 3e 10 b3 0d 40 c8 a0 0f 40 c0 85 0e 40
       0.20620139 2.214054 2.2441883 2.2269135
000030 97 f6 0b 40 4c b9 d7 3f 00 00 80 3f 28 f9 07 40
       2.1869256 1.6853423 1.0 2.1245823
000040 89 e4 d2 3f b4 27 d8 3f a6 5a 0b 40 f9 b4 0b 40
       1.6475993 1.6887116 2.1774077 2.1829207
000050 6a bc b2 3f 00 00 80 3f 00 00 80 3f ab 55 10 40
       1.396375 1.0 1.0 2.2552288
000060 02 7d 08 40 7d c7 c7 3f 00 00 80 3f 74 ea 0f 40
       2.1326299 1.5607754 1.0 2.248685
000070 91 56 08 40 aa 1c dc 3e 5b 63 09 40 0d 13 da 3f
       2.1302836 0.4299062 2.1466892 1.7037064
000080 39 7c 0e 40 00 00 80 3f fe 4d 0c 40 2b 3a 09 40
       2.226332 1.0 2.1922603 2.1441753
000090 d2 64 0c 40 71 8a 09 40 00 00 80 3f 00 00 80 3f
       2.1936536 2.1490748 1.0 1.0
0000a0 8e dd 0f 40 47 1d 0f 40 00 00 80 3f 00 00 80 3f
       2.2478976 2.236162 1.0 1.0
0000b0 c0 28 e2 3f 97 69 10 40 23 6d d3 3f 00 00 80 3f
       1.7668686 2.2564447 1.6517681 1.0
0000c0 bc 10 11 40 00 00 80 3f e9 91 d4 3f fc e5 10 40
       2.2666464 1.0 1.6607028 2.2640371
0000d0 00 00 80 3f bc 5d 10 40 86 2b 0a 40 4b d4 0f 40
       1.0 2.255721 2.1589065 2.2473323
0000e0 43 82 09 40 09 f4 0f 40 bb b6 09 40 b8 1d 10 40
       2.1485755 2.2492697 2.151778 2.251814
0000f0 e8 5a 10 40 5c a6 0f 40 3d 3b 0a 40 37 c2 0c 40
       2.2555485 2.2445288 2.1598656 2.199354
000100 8c 2d 07 40 ce 31 0c 40 6e 67 c7 3f 00 00 80 3f
       2.112155 2.1905398 1.5578439 1.0
000110 c5 69 ce 3f 00 00 80 3f a0 e4 0a 40 00 00 80 3f
       1.6126028 1.0 2.1702042 1.0
000120 06 eb d5 3f e1 da d8 3f 8e c5 ca 3f 00 00 80 3f
       1.6712348 1.6941797 1.5841539 1.0
000130 56 ad 0a 40 00 00 80 3f 0c d2 e0 3f 02 e9 0f 40
       2.1668296 1.0 1.7564101 2.2485967
000140 ec 6e 10 40 7d ab db 3f 75 f1 0e 40 30 3f 0a 40
       2.2567701 1.7161709 2.2334874 2.1601067
000150 ab d9 9e 3e 1c 0c 10 40 cd 76 0d 40 d6 63 0f 40
       0.31025442 2.250739 2.210376 2.2404685
000160 ae 18 0d 40 00 00 80 3f 02 6e dc 3f 00 00 80 3f
       2.2046313 1.0 1.7221072 1.0
000170 15 54 0a 40 00 00 80 3f 7f e3 08 40 00 00 80 3f
       2.161382 1.0 2.1388853 1.0
000180 86 93 10 40 99 53 0f 40 7c 0c 10 40 00 00 80 3f
       2.259004 2.2394774 2.250762 1.0
000190 bf 9d 0f 40 1a ab 0e 40 68 a9 e1 3f 00 00 80 3f
       2.244003 2.2291932 1.7629824 1.0
0001a0 f5 ae 10 40 10 f8 0f 40 42 06 e3 3f 07 b2 0f 40
       2.2606785 2.2495155 1.7736285 2.245241
0001b0 00 00 80 3f 00 00 80 3f 00 00 80 3f 8a 60 cf 3f
       1.0 1.0 1.0 1.6201336
0001c0 00 00 80 3f e7 cb 09 40 00 00 80 3f c4 e9 c8 3f
       1.0 2.1530702 1.0 1.569634
0001d0 e4 d7 0a 40 da 1b 0d 40 00 00 80 3f 00 00 80 3f
       2.169427 2.204825 1.0 1.0
0001e0 82 29 10 40 e2 c7 10 40 5f f6 10 40 61 1b 0d 40
       2.2525334 2.2621999 2.2650373 2.204796
0001f0 26 aa c9 3f d7 f3 09 40 be cc bf 3f cd 8a 0b 40
       1.575505 2.1555078 1.4984357 2.1803467
000200 5b 0a 10 40 dd 1a 10 40 00 00 80 3f 3b 76 bf 3f
       2.250632 2.2516396 1.0 1.4957956
000210 db 0d 0a 40 77 a8 10 40 00 00 80 3f 00 00 80 3f
       2.1570957 2.2602823 1.0 1.0
000220 e3 56 c5 3f e5 52 08 40 ac bd 08 40 a2 50 d0 3f
       1.5417141 2.1300595 2.1365767 1.6274607
000230 b1 57 0c 40 f4 9c df 3f 7d 64 db 3f 49 18 ca 3f
       2.1928523 1.7469773 1.7140042 1.5788661
000240 00 00 80 3f d7 64 0f 40 00 00 80 3f 41 09 10 40
       1.0 2.2405298 1.0 2.2505648
000250 9f 61 d2 3f 00 00 80 3f 6e 93 0a 40 9c b8 d5 3f
       1.6436042 1.0 2.1652484 1.6696963
000260 00 00 80 3f 00 00 80 3f 22 4e 0f 40 83 a2 c1 3f
       1.0 1.0 2.2391438 1.512772
000270 77 2e bb 3f 33 c8 d6 3f 4a 67 0a 40 00 00 80 3f
       1.4623555 1.6779846 2.1625543 1.0
000280 da bc 0f 40 96 91 0f 40 0d f0 0f 40 00 00 80 3f
       2.2459016 2.2432609 2.2490265 1.0
000290 7d d9 0d 40 9e 6d 10 40 31 5b db 3f 83 dd 0b 40
       2.2163994 2.2566905 1.7137204 2.185395
0002a0 00 00 80 3f 00 00 80 3f fa 25 09 40 33 87 da 3f
       1.0 1.0 2.142943 1.707251
0002b0 f8 03 0a 40 4d 72 0d 40 86 ae ff 3f da 97 c9 3f
       2.1564922 2.2101014 1.9975135 1.5749466
0002c0 ec 1f 0b 40 49 f3 10 40 0d 42 e0 3f 48 df 0b 40
       2.1738234 2.264849 1.7520157 2.185503
0002d0 bf c6 d9 3f 97 2b 0f 40 4a 29 ba 3f 26 ec 09 40
       1.7013777 2.2370355 1.454385 2.1550384
0002e0 ff f7 d7 3f 00 00 80 3f 8a 65 0e 40 de 21 ce 3f
       1.6872557 1.0 2.2249475 1.6104085
0002f0 c9 ca d3 3f 00 00 80 3f 81 85 c4 3f 67 9f c7 3f
       1.654626 1.0 1.5353242 1.5595521
000300 00 00 80 3f 7d 0e 08 40 00 00 80 3f 00 00 80 3f
       1.0 2.1258843 1.0 1.0
000310 00 00 80 3f 47 71 dc 3f d0 90 0f 40 dd 08 10 40
       1.0 1.722207 2.2432137 2.250541

bn1.bias f4 [200]
000000 cb aa 12 3f 96 78 30 3f cf 56 53 bf f3 7e c1 be
       0.5729186 0.68934 -0.82554334 -0.37792167
000010 03 94 57 bf ef f6 56 bf 40 c4 2b 3f 25 fa 1c 3f
       -0.8421022 -0.8397054 0.6709633 0.6131919
000020 ea c6 49 3f 1f 90 19 3f 9b 21 1f 3f f7 06 27 3f
       0.78819144 0.59985536 0.6216065 0.65245
000030 18 63 37 3f 8b 8a 58 bf 7b 8f 57 bf 93 59 1f 3f
       0.7163558 -0.845864 -0.8420331 0.62246054
000040 aa 4f 47 bf b8 2d 31 bf c2 49 0d 3f ff 52 21 3f
       -0.7785593 -0.69210386 0.5519067 0.63017267
000050 1c 54 12 bf 6e 6e 58 bf cd d6 53 bf d9 4a 22 3f
       -0.5715959 -0.845435 -0.82749635 0.6339546
000060 81 87 21 3f 05 aa 47 bf cf 0e 56 3f 6f ca 15 3f
       0.6309739 -0.77993804 0.83616346 0.58512014
000070 10 4e 1f 3f ed 49 42 3f fb 17 21 3f 98 83 2f bf
       0.6222849 0.7589405 0.62927216 -0.6856017
000080 3e 9a 10 3f f6 ad 58 3f 6d 0e 21 3f c5 21 19 3f
       0.56485355 0.84640443 0.62912637 0.59817153
000090 c4 00 22 3f 63 48 22 3f 86 c7 4c 3f c5 8c 55 bf
       0.6328242 0.63391703 0.7999195 -0.8341792
0000a0 72 8a 18 3f 23 bc 18 3f 04 f5 56 3f 70 8b 58 bf
       0.5958625 0.59662074 0.83967614 -0.84587765
0000b0 f7 b9 50 bf e3 3d 14 3f 77 1a 47 bf 1d 22 4d 3f
       -0.8153376 0.5790693 -0.7777476 0.8013018
0000c0 99 96 1a 3f a5 62 4e 3f 6d 7b 46 bf 35 cb 1f 3f
       0.60386044 0.8061927 -0.7753208 0.62419444
0000d0 8f 03 4f 3f 60 8d 19 3f a2 43 2a 3f b9 74 23 3f
       0.80864805 0.59981346 0.6650945 0.6384998
0000e0 b6 39 18 3f 33 f8 16 3f bf 98 39 3f 52 a0 13 3f
       0.5946306 0.5897247 0.724987 0.57666504
0000f0 8a ae 1c 3f bf 37 2b 3f 5b d0 28 3f 86 5a 33 3f
       0.61203825 0.66881937 0.65942925 0.7006
000100 81 69 32 3f af 7e 29 3f 43 25 12 bf 70 5e 47 3f
       0.69692236 0.6620893 -0.57088107 0.77878475
000110 87 e5 36 bf 1c 39 57 bf 2e 0d 33 3f 27 a7 57 bf
       -0.7144398 -0.84071517 0.69941986 -0.8423943
000120 53 3c 54 bf 77 65 2c bf 6a e4 23 bf bc b1 58 bf
       -0.8290455 -0.67342323 -0.6402041 -0.846462
000130 a4 bf 40 3f 31 2e 58 3f 06 84 56 bf 1c 38 2d 3f
       0.7529242 0.8444548 -0.837952 0.6766374
000140 ba 22 19 3f 53 50 2a bf 35 68 16 3f 71 a1 18 3f
       0.59818614 -0.66528815 0.5875276 0.5962134
000150 b3 5e 54 3f 7c 92 1f 3f 76 fc 3f 3f 07 75 15 3f
       0.82957 0.6233289 0.749946 0.58381695
000160 bf cd 27 3f 7d 48 56 3f ee d0 3d bf fc e1 55 3f
       0.6554832 0.8370436 -0.74146926 0.8354795
000170 04 7e 1d 3f 2c b0 57 bf b7 cb 26 3f ab ed 55 3f
       0.6152041 -0.8425319 0.65154594 0.8356578
000180 d6 39 19 3f c6 83 17 3f 00 6e 17 3f ca 2e 38 bf
       0.59853876 0.59185445 0.5915222 -0.71946394
000190 b9 3d 1d 3f 51 d8 24 3f e9 7a 4d bf d7 d8 57 3f
       0.61422306 0.6439257 -0.8026567 0.84315246
0001a0 85 c3 14 3f 46 da 27 3f 2d aa 1f 3f 95 97 16 3f
       0.5811084 0.65567434 0.6236904 0.58825046
0001b0 d1 39 50 3f 40 44 53 3f 18 fa 57 3f 4a 3e 47 bf
       0.8133822 0.82526016 0.8436599 -0.7782942
0001c0 b8 73 56 bf a2 1a 15 3f 0d a5 52 bf 3b ca 39 bf
       -0.8377032 0.58243763 -0.822831 -0.72574204
0001d0 d8 b4 3f 3f d0 26 12 3f 0c 9c 52 bf e5 ca 50 3f
       0.7488532 0.57090473 -0.8226936 0.8155959
0001e0 45 4c 15 3f 32 80 17 3f d1 eb 13 3f 99 0c 37 3f
       0.58319503 0.59179986 0.577817 0.715036
0001f0 34 2b 3e bf d5 b5 30 3f d6 d5 1a bf 97 ee 29 3f
       -0.7428467 0.69027454 -0.6048254 0.66379684
000200 1b ef 27 3f c8 6c 1f 3f 49 03 58 bf dc 87 15 bf
       0.6559922 0.6227536 -0.8438001 -0.5841043
000210 5f 17 2a 3f 3b 8f 2f 3f fd 54 50 3f 4c 59 49 3f
       0.6644191 0.6857793 0.8137968 0.7865188
000220 3d 05 1b bf b4 b9 3a 3f f2 dd 14 3f 5d fd 4c bf
       -0.6055487 0.7293961 0.5815116 -0.800741
000230 f0 bf 14 3f 2f 09 2f bf ce 42 48 bf 4a 55 3e bf
       0.58105373 -0.6837339 -0.78226936 -0.7434889
000240 86 68 55 3f 66 f1 12 3f 72 03 50 3f 38 c7 19 3f
       0.83362615 0.57399595 0.8125526 0.6006961
000250 8d 3d 4a bf 37 f5 56 3f 9e 06 39 3f 25 f2 57 bf
       -0.7900017 0.8396792 0.7227572 -0.8435386
000260 65 f3 4c 3f ee 66 54 3f b1 6b 19 3f 4b b6 24 bf
       0.8005889 0.8296956 0.5992995 -0.64340657
000270 6f 2f 20 bf 7a 38 4c bf cf dd 38 3f 1e fa 44 bf
       -0.6257238 -0.79773676 0.72213453 -0.7694415
000280 47 53 18 3f 07 6f 11 3f 93 9d 1e 3f 8c 79 50 3f
       0.5950207 0.5681004 0.6195919 0.81435466
000290 87 53 37 3f 1b bd 20 3f a8 b3 4e bf 32 d8 19 3f
       0.7161183 0.6278855 -0.80742884 0.6009551
0002a0 cc 74 48 bf de d7 57 3f 76 63 10 3f 49 96 38 bf
       -0.7830322 0.8431376 0.56401765 -0.72104317
0002b0 0d 75 1d 3f ea 34 15 3f 11 4e 29 3f dd b0 4a bf
       0.6150673 0.58283865 0.66134745 -0.7917612
0002c0 d8 86 38 3f c1 d4 34 3f 4b 44 56 bf 72 55 14 3f
       0.72080755 0.70637137 -0.83697957 0.5794288
0002d0 6b e0 33 bf 63 64 17 3f c9 7c 44 bf c5 b4 2f 3f
       -0.7026431 0.5913755 -0.7675291 0.6863521
0002e0 2e b2 46 bf 4e 2a 57 bf 8e ca 0b 3f eb 4f 39 bf
       -0.7761563 -0.84048927 0.5460595 -0.7238757
0002f0 81 55 2d bf 84 2a 53 bf 77 88 17 bf 6c be 1b bf
       -0.67708594 -0.8248675 -0.59192604 -0.60837436
000300 3b f5 56 bf 0c 51 1a 3f 5a 82 50 3f fb f7 52 bf
       -0.8396794 0.6027992 0.814489 -0.8240964
000310 f5 90 58 3f 91 33 2b bf fb 7c 14 3f 5c a6 17 3f
       0.84596187 -0.6687556 0.58003205 0.5923822

bn1.running_mean f4 [200]
000000 c5 50 6a 46 4e cb 1b 45 89 75 5b 43 5f 94 c2 45
       14996.192 2492.7065 219.45912 6226.5464
000010 00 00 00 00 00 00 00 00 1d f9 4f 46 ba dd 9a 46
       0.0 0.0 13310.278 19822.863
000020 bd 35 85 3f cd 2f d8 45 5b 84 52 46 08 4c 19 46
       1.0407025 6917.975 13473.089 9811.008
000030 d4 41 8b 46 06 b2 12 3e 00 00 00 00 fe 37 4e 46
       17824.914 0.14325723 0.0 13197.998
000040 b2 81 36 45 7e 52 4b 44 57 9c 56 46 2e 13 3e 46
       2920.106 813.28894 13735.085 12164.795
000050 1b 41 dc 45 00 00 00 00 00 00 00 00 5e e3 4c 46
       7048.138 0.0 0.0 13112.842
000060 6c 20 1f 46 e3 d3 15 43 00 00 00 00 37 24 02 46
       10184.105 149.82768 0.0 8329.054
000070 91 73 00 46 70 b3 93 3d 2b db 5b 46 77 3b 82 45
       8220.892 0.07211959 14070.792 4167.433
000080 4b fb 14 46 00 00 00 00 72 94 12 46 24 0e 6d 46
       9534.823 0.0 9381.111 15171.535
000090 ff 55 2b 46 4c 68 24 46 00 00 00 00 00 00 00 00
       10965.499 10522.074 0.0 0.0
0000a0 32 07 1c 46 03 c2 08 46 00 00 00 00 00 00 00 00
       9985.799 8752.503 0.0 0.0
0000b0 48 9c b4 44 4f 8a 44 46 34 1f b5 43 00 00 00 00
       1444.8838 12578.577 362.24377 0.0
0000c0 16 fd e6 46 00 00 00 00 09 10 46 45 c9 f4 7e 46
       29566.543 0.0 3169.0022 16317.196
0000d0 00 00 00 00 fc d9 4c 46 06 60 9e 46 ff b3 24 46
       0.0 13110.496 20272.012 10540.999
0000e0 83 68 28 46 83 fb a0 45 19 a8 b5 46 65 ce eb 45
       10778.128 5151.439 23252.049 7545.7993
0000f0 f0 ea 16 46 9b 1c 4e 46 3a eb 41 45 8c 46 35 46
       9658.734 13191.151 3102.7017 11601.637
000100 90 03 d4 45 96 da 84 45 3b 5d 2e 44 00 00 00 00
       6784.4453 4251.323 697.4567 0.0
000110 0f 12 9e 41 00 00 00 00 b6 62 9e 46 00 00 00 00
       19.758818 0.0 20273.355 0.0
000120 56 c1 67 41 28 04 35 41 c1 b1 a0 42 00 00 00 00
       14.484701 11.313515 80.347176 0.0
000130 cc fa ee 45 00 00 00 00 fe 77 ae 44 4a ba 5e 46
       7647.3496 0.0 1395.7498 14254.572
000140 07 ea 95 46 6f d4 db 40 a8 4e 98 46 7d 35 23 46
       19189.014 6.869682 19495.328 10445.372
000150 db 56 af 3e ac a8 40 46 6c 95 11 46 a1 7d 00 46
       0.34245953 12330.168 9317.355 8223.407
000160 fb d5 17 46 00 00 00 00 dc 01 f9 44 00 00 00 00
       9717.495 0.0 1992.0581 0.0
000170 78 48 85 46 00 00 00 00 f5 e8 27 46 00 00 00 00
       17060.234 0.0 10746.239 0.0
000180 e2 a5 8d 46 0a 08 22 46 2f aa a7 46 00 00 00 00
       18130.941 10370.01 21461.092 0.0
000190 c4 8f 0d 46 13 c5 bf 45 37 aa 03 45 00 00 00 00
       9059.941 6136.6343 2106.6384 0.0
0001a0 b3 18 ab 44 a3 ea 35 46 a4 22 36 45 9b de 16 46
       1368.7719 11642.659 2914.165 9655.651
0001b0 00 00 00 00 00 00 00 00 00 00 00 00 e6 db 31 42
       0.0 0.0 0.0 44.464745
0001c0 00 00 00 00 40 0a 5c 46 00 00 00 00 b9 5b cf 41
       0.0 14082.5625 0.0 25.919786
0001d0 5f 84 ce 46 92 f9 79 44 00 00 00 00 00 00 00 00
       26434.186 999.89954 0.0 0.0
0001e0 f6 d3 49 45 97 87 8b 46 35 5c 16 46 88 61 37 46
       3229.2476 17859.795 9623.052 11736.383
0001f0 7b 8e 88 45 6f c3 00 46 99 b2 c9 45 01 66 0e 46
       4369.81 8240.858 6454.3247 9113.501
000200 ea e7 71 46 77 b5 d4 45 00 00 00 00 6f 6b 70 44
       15481.979 6806.683 0.0 961.67865
000210 36 03 97 46 9c 30 ab 46 00 00 00 00 00 00 00 00
       19329.605 21912.305 0.0 0.0
000220 8b 71 be 45 fe 30 5f 46 27 be 68 46 15 33 03 44
       6094.193 14284.248 14895.538 524.79816
000230 fe 6c 73 46 84 35 dc 44 bb 23 9b 40 5d 98 45 40
       15579.248 1761.6724 4.8481116 3.0874245
000240 00 00 00 00 1b ef ed 44 00 00 00 00 c6 ec 71 46
       0.0 1903.472 0.0 15483.193
000250 c7 07 ac 42 00 00 00 00 c2 c6 52 46 15 c4 81 40
       86.01519 0.0 13489.689 4.055186
000260 00 00 00 00 00 00 00 00 f4 c4 aa 44 fd b9 25 42
       0.0 0.0 1366.1548 41.43163
000270 f3 15 ac 40 b0 cd 92 3e b2 b6 33 46 00 00 00 00
       5.3776793 0.28672552 11501.674 0.0
000280 72 9e 84 46 a0 a5 1d 45 35 47 1f 46 00 00 00 00
       16975.223 2522.3516 10193.802 0.0
000290 92 87 10 46 5c 44 86 46 2a f0 23 41 61 26 a4 46
       9249.893 17186.18 10.246134 21011.19
0002a0 00 00 00 00 00 00 00 00 89 8a c6 44 06 14 c5 44
       0.0 0.0 1588.3292 1576.6257
0002b0 eb c3 04 46 b7 ad 0d 46 ae cd b3 45 87 c6 22 43
       8496.9795 9067.429 5753.71 162.7755
0002c0 f9 22 66 46 82 e4 ee 46 b6 01 c5 43 7a 1e 4f 46
       14728.743 30578.254 394.01337 13255.619
0002d0 92 d5 06 42 40 18 9c 45 40 23 9b 45 b0 15 7e 46
       33.708565 4995.0312 4964.4062 16261.422
0002e0 42 10 24 44 00 00 00 00 d1 12 63 46 19 e2 43 44
       656.254 0.0 14532.704 783.5328
0002f0 ec dc 77 44 00 00 00 00 10 60 d2 43 2a b0 5e 44
       991.4519 0.0 420.7505 890.75256
000300 00 00 00 00 9f fd a9 45 00 00 00 00 00 00 00 00
       0.0 5439.7026 0.0 0.0
000310 00 00 00 00 a3 f4 a0 43 75 f1 38 46 dc a5 59 46
       0.0 321.91122 11836.364 13929.465

bn1.running_var f4 [200]
000000 28 27 97 4d 83 b5 1d 4c fb ec 7d 48 1a 0d b2 4b
       3.1699072e+08 4.1342476e+07 260019.92 2.3337524e+07
000010 32 66 dc 3e 32 66 dc 3e e2 b1 94 4d e7 f5 d9 4d
       0.4304672 0.4304672 3.118357e+08 4.5709642e+08
000020 60 d7 0d 44 29 e9 ce 4b 70 1a 7f 4d a0 00 45 4d
       567.36523 2.712021e+07 2.6749517e+08 2.0657203e+08
000030 b0 99 28 4e 38 ab 33 42 32 66 dc 3e 49 d7 70 4d
       7.071611e+08 44.917206 0.4304672 2.5254005e+08
000040 1a b9 8e 4a e8 a7 c4 49 ac 26 9e 4d 17 2a a7 4d
       4.676749e+06 1.611005e+06 3.316668e+08 3.5056918e+08
000050 6f 26 64 4c 32 66 dc 3e 32 66 dc 3e 44 98 ae 4d
       5.9808188e+07 0.4304672 0.4304672 3.661518e+08
000060 22 d4 cb 4c c8 5f fe 48 32 66 dc 3e 62 41 3f 4d
       1.0686491e+08 520958.25 0.4304672 2.0054582e+08
000070 d6 19 a0 4c 55 90 92 40 58 ab a0 4d 06 a2 15 4b
       8.393899e+07 4.5801187 3.3694797e+08 9.806342e+06
000080 1b d8 b8 4c 32 66 dc 3e 76 2a 46 4d e6 ac c0 4d
       9.6911576e+07 0.4304672 2.0779197e+08 4.0406957e+08
000090 ec 54 8c 4d 98 5a 43 4d 32 66 dc 3e 32 66 dc 3e
       2.9429696e+08 2.048434e+08 0.4304672 0.4304672
0000a0 f9 af 5c 4d 8f f6 f1 4c 32 66 dc 3e 32 66 dc 3e
       2.314075e+08 1.2685836e+08 0.4304672 0.4304672
0000b0 e2 87 a5 4a 62 e2 be 4d c3 f2 23 49 32 66 dc 3e
       5.424113e+06 4.003134e+08 671532.2 0.4304672
0000c0 83 b8 bf 4e 32 66 dc 3e 8c 7e 7c 4a 15 db 1f 4e
       1.6082702e+09 0.4304672 4.136867e+06 6.704838e+08
0000d0 32 66 dc 3e 03 85 a9 4d 45 0c fc 4d 29 2d cf 4c
       0.4304672 3.5550832e+08 5.2858282e+08 1.08620104e+08
0000e0 20 6a 3e 4d 09 de 0b 4d 4c 4a 68 4e 79 21 6b 4d
       1.9966413e+08 1.4666152e+08 9.742958e+08 2.4655246e+08
0000f0 2c 75 4f 4d 86 1d 8c 4d db f3 47 4c c9 26 b8 4c
       2.1753517e+08 2.9384314e+08 5.2416364e+07 9.6548424e+07
000100 62 b3 f8 4b 7d ae 93 4c 1e 37 f1 4a 32 66 dc 3e
       3.25977e+07 7.742769e+07 7.904143e+06 0.4304672
000110 69 3d 0d 47 32 66 dc 3e b3 6e 53 4e 32 66 dc 3e
       36157.41 0.4304672 8.8681184e+08 0.4304672
000120 5a 6b c6 46 8b 58 53 46 67 2e 86 48 32 66 dc 3e
       25397.676 13526.136 274803.22 0.4304672
000130 17 7d 8f 4c 32 66 dc 3e 9e 76 87 4a 8d 83 a0 4d
       7.522937e+07 0.4304672 4.438863e+06 3.3662198e+08
000140 59 15 1b 4e 6a 4d 9b 44 8d e1 1f 4e 6e 68 9a 4d
       6.504669e+08 1242.4192 6.7058976e+08 3.238169e+08
000150 c6 c0 80 42 c8 60 87 4d 47 b5 db 4c 8a 90 13 4d
       64.37651 2.8390835e+08 1.1519033e+08 1.547327e+08
000160 f1 a0 38 4d 32 66 dc 3e 6e 7e af 4a 32 66 dc 3e
       1.935972e+08 0.4304672 5.750583e+06 0.4304672
000170 3a 69 c7 4d 32 66 dc 3e d9 ab 94 4c 32 66 dc 3e
       4.1819526e+08 0.4304672 7.794657e+07 0.4304672
000180 f8 02 2c 4e c3 1c 35 4d 75 ce 41 4e 32 66 dc 3e
       7.214689e+08 1.8991006e+08 8.1288326e+08 0.4304672
000190 7e d1 11 4d 01 d8 6e 4c e2 b6 b3 4b 32 66 dc 3e
       1.529016e+08 6.261146e+07 2.3555524e+07 0.4304672
0001a0 3d 7e 00 4b f6 c0 11 4d 0c 7b 9a 4a 17 7c 4d 4d
       8.420925e+06 1.5283389e+08 5.062022e+06 2.1546635e+08
0001b0 32 66 dc 3e 32 66 dc 3e 32 66 dc 3e 35 56 a3 47
       0.4304672 0.4304672 0.4304672 83628.414
0001c0 32 66 dc 3e 77 14 d7 4d 32 66 dc 3e db 2e a5 47
       0.4304672 4.5105533e+08 0.4304672 84573.71
0001d0 2e 36 b3 4e 44 b2 9e 4a 32 66 dc 3e 32 66 dc 3e
       1.5033362e+09 5.200162e+06 0.4304672 0.4304672
0001e0 03 ff 64 4c 7f 8c 0b 4e cc 8f 1e 4d f8 b9 84 4d
       6.0029964e+07 5.8531014e+08 1.66264e+08 2.7834752e+08
0001f0 57 ee 92 4c ff a0 20 4c 5c da a7 4b 9c 1a 03 4d
       7.703417e+07 4.21079e+07 2.2000824e+07 1.3747245e+08
000200 2e 47 d8 4d 59 5a 0b 4d 32 66 dc 3e ce f7 3f 4b
       4.5356794e+08 1.4612213e+08 0.4304672 1.2580814e+07
000210 b1 d9 22 4e 4e 61 34 4e 32 66 dc 3e 32 66 dc 3e
       6.830439e+08 7.5656896e+08 0.4304672 0.4304672
000220 5a 33 0f 4d ed 4d 8a 4d 08 a5 94 4d c6 34 b4 49
       1.501567e+08 2.9004534e+08 3.1173043e+08 1.4762488e+06
000230 c6 9c 01 4e c6 25 32 4a 79 49 0d 46 1f c9 9a 45
       5.436338e+08 2.9187695e+06 9042.368 4953.14
000240 32 66 dc 3e 5d d0 87 4b 32 66 dc 3e 34 f9 b9 4d
       0.4304672 1.7801402e+07 0.4304672 3.900146e+08
000250 48 16 6a 48 32 66 dc 3e 8b 77 93 4d dc b0 41 45
       239705.12 0.4304672 3.0926064e+08 3099.0537
000260 32 66 dc 3e 32 66 dc 3e e0 03 45 4b ff 87 65 48
       0.4304672 0.4304672 1.2911584e+07 235039.98
000270 7a ee 37 46 c2 a3 32 43 b2 e7 4e 4d 32 66 dc 3e
       11771.619 178.63968 2.1695568e+08 0.4304672
000280 8d 27 02 4e 6c 58 d4 4b 5f a9 3e 4d 32 66 dc 3e
       5.459075e+08 2.7832536e+07 1.9992318e+08 0.4304672
000290 3f 22 de 4c 04 af dc 4d 63 2b 79 46 73 01 0d 4e
       1.1646207e+08 4.6280717e+08 15946.847 5.914206e+08
0002a0 32 66 dc 3e 32 66 dc 3e bf 8e 3c 4b 59 ed 74 4a
       0.4304672 0.4304672 1.2357311e+07 4.0128862e+06
0002b0 6c e5 4f 4d 07 87 0f 4d f3 54 f7 4b 17 3b 07 49
       2.1799494e+08 1.5049944e+08 3.2418278e+07 553905.44
0002c0 c9 47 9f 4d cc 42 c8 4e 74 62 e5 48 e4 d4 a3 4d
       3.3403523e+08 1.6799104e+09 469779.62 3.4357978e+08
0002d0 07 69 35 46 1e 48 88 4c fa 72 70 4b f5 69 ea 4d
       11610.257 7.145086e+07 1.5758074e+07 4.9160157e+08
0002e0 5f 1e b8 49 32 66 dc 3e 3d a6 b9 4d c6 35 ff 49
       1.5082999e+06 0.4304672 3.8933494e+08 2.0906808e+06
0002f0 26 4b a5 4a 32 66 dc 3e 7c c2 97 4a c3 95 50 4b
       5.416339e+06 0.4304672 4.972862e+06 1.3669827e+07
000300 32 66 dc 3e 43 3f 4e 4c 32 66 dc 3e 32 66 dc 3e
       0.4304672 5.4066444e+07 0.4304672 0.4304672
000310 32 66 dc 3e a2 85 cb 49 2f 5f 73 4d 06 ba 74 4d
       0.4304672 1.6672522e+06 2.5519384e+08 2.566145e+08

bn2.weight f4 [20]
000000 c2 86 e8 3f fa 96 ee 3f f6 45 f0 3f 2b 3e ec 3f
       1.8166125 1.8639824 1.877135 1.8456472
000010 1a 71 eb 3f fa 9e 0f 40 81 bd e8 3f 90 35 10 40
       1.8393891 2.2440782 1.8182832 2.2532692
000020 6c 68 12 40 cd b7 f0 3f 7d 7a ea 3f 63 f4 0f 40
       2.2876234 1.8806092 1.831863 2.2492912
000030 9c 45 12 40 5f 84 12 40 4d f3 e4 3f 8a a8 eb 3f
       2.2854986 2.2893293 1.788675 1.8410809
000040 d3 e6 ee 3f 99 af eb 3f 7e e0 ea 3f f6 f6 ed 3f
       1.8664192 1.8412963 1.834976 1.8590991

bn2.bias f4 [20]
000000 a8 30 63 bf c3 e2 60 bf 15 fb 63 bf 3d b1 67 bf
       -0.8874612 -0.8784601 -0.89054996 -0.9050482
000010 e6 71 5e bf 6c 20 60 3f d6 f2 58 bf 72 1e 5a 3f
       -0.86892545 0.8754947 -0.8474554 0.85202706
000020 4a 2e 58 3f b9 92 64 bf fb 8d 64 bf 89 6f 5f 3f
       0.8444563 -0.8928638 -0.89279145 0.87279564
000030 06 75 5c 3f d7 7f 55 3f 34 5a 5f bf 4e 29 5d bf
       0.86116064 0.83398193 -0.87247014 -0.8639115
000040 33 5f 61 bf 64 c6 5d bf 1f b0 5d bf 05 01 61 bf
       -0.8803589 -0.86630845 -0.86596864 -0.8789218

bn2.running_mean f4 [20]
000000 0f 78 22 3f 41 93 3e 3f 60 75 2e 3f ba 9c 1b 3f
       0.63464445 0.7444344 0.6814785 0.6078602
000010 06 e2 1f 3f c7 db e9 3e be d1 30 3f a8 0a 21 3f
       0.6245426 0.4567549 0.6907004 0.62906885
000020 d5 dc 1c 3f 3a d7 e3 3e 70 78 0b 3f 70 e3 24 3f
       0.6127446 0.44500142 0.5448065 0.6440954
000030 c5 e6 0a 3f b6 2e 18 3f 38 48 20 3f 1b a3 37 3f
       0.54258376 0.59446275 0.626102 0.71733254
000040 fa 7b 44 3f 04 c6 25 3f 2d a3 0e 3f 85 51 22 3f
       0.76751673 0.6475527 0.55717736 0.6340564

bn2.running_var f4 [20]
000000 7e 54 77 3f 14 f1 82 3f 2e 3d 81 3f 5c 1c 5a 3f
       0.966133 1.0229821 1.0096796 0.8519952
000010 15 74 65 3f 20 ca d7 3f 00 49 6a 3f 5a 94 6a 40
       0.8963025 1.6858559 0.9151764 3.6653047
000020 ec b3 50 40 fd 67 1e 3f 86 ab 4f 3f 2e b0 78 40
       3.2609816 0.61877424 0.811211 3.8857532
000030 87 dc 16 40 31 f2 48 40 56 22 74 3f 6a be 82 3f
       2.35721 3.1397822 0.9536489 1.021436
000040 ac e2 86 3f f9 09 73 3f 43 72 37 3f ac 5d 64 3f
       1.0537925 0.9493709 0.71658725 0.8920543
