Results/NN_MLP_MLs/MLP_Ensemble/Model_Results/Macros/test3/best_model_0.pt (torch, 53490 bytes, 14 tensors)

country_embedding.weight f4 [8, 10]
0	0xbf063917	-0.5243086
1	0xc0348aad	-2.820964
2	0xbfdee69d	-1.7414128
3	0xbfd17ccb	-1.6366209
4	0xbeba9c41	-0.36447337
5	0xbeacd866	-0.3375885
6	0xbffa2851	-1.9543554
7	0xbfd7355d	-1.681316
8	0x3ff968b1	1.9485074
9	0xbd8e16c8	-0.06937939
10	0x3f8c76e9	1.0973788
11	0xbf61e251	-0.88235956
12	0xbf6caa3c	-0.9244726
13	0x40317577	2.7727945
14	0xbcd0b59c	-0.025477223
15	0xbfd56a0c	-1.6672988
16	0xc024fd0e	-2.5779452
17	0xbef7caf3	-0.48397025
18	0x3fbf4fbd	1.4946209
19	0x3fefd7c1	1.8737718
20	0x3f663354	0.8992207
21	0xbfefdf02	-1.8739932
22	0xbf22b7ac	-0.6356151
23	0x400c24e6	2.189752
24	0x3ef0e9ae	0.47053283
25	0xbf6559f4	-0.8959038
26	0xbef5b68e	-0.4799084
27	0x3eebd390	0.46059847
28	0x3fdc44b7	1.720847
29	0x3fee82b9	1.8633643
30	0x3ffc2e46	1.9701622
31	0xbfecf1ce	-1.8511293
32	0xbfc106e6	-1.508023
33	0x3f823ec6	1.0175407
34	0xbfbf5448	-1.4947596
35	0xbf2afc0a	-0.6679083
36	0xbefff8f5	-0.49994627
37	0x3f818f72	1.0121901
38	0x3fc406f3	1.5314621
39	0x3fb03899	1.3767272
40	0x3f957bdb	1.1678423
41	0xbedd9502	-0.43277746
42	0xbfcd36bd	-1.603233
43	0x3fa75bf1	1.3074933
44	0xbf52d7e0	-0.8236065
45	0x3f806d0b	1.0033277
46	0xc0449808	-3.0717793
47	0xbe5b9906	-0.21445093
48	0x3f096682	0.5367204
49	0x4017e346	2.3732467
50	0x3fe35c96	1.776263
51	0xbed3b505	-0.41349044
52	0xbf5123fb	-0.81695527
53	0xbdab1f5a	-0.08355589
54	0xbd4e980d	-0.050437976
55	0xbf632179	-0.8872295
56	0xbf711fc4	-0.94189095
57	0x3fa39e37	1.2782658
58	0x400ee6a9	2.2328284
59	0x40818211	4.0471272
60	0xbf1637b0	-0.5867872
61	0xc02a2ef4	-2.6591158
62	0x3f12f37c	0.5740278
63	0x3f14a802	0.5806886
64	0xbfe8c04e	-1.8183687
65	0xbea19ba3	-0.31564054
66	0xbeadccad	-0.33945218
67	0x401d77fe	2.4604487
68	0xbead1da3	-0.33811674
69	0x4072ab83	3.7917182
70	0x3eb945ee	0.36186165
71	0xbe97a95f	-0.29621407
72	0xc0182096	-2.376989
73	0x3e99cc49	0.3003867
74	0xbf9c1c93	-1.219622
75	0xbfa24a96	-1.2679012
76	0xbfe03117	-1.7514981
77	0x3ff1dd85	1.8895727
78	0x3f26017b	0.6484601
79	0x3fc5f6e3	1.5465969

fc1.weight f4 [200, 35]
0	0xbd231e1e	-0.039823644
1	0x3e1aa5f9	0.15102376
2	0x3e039bdd	0.12852426
3	0xbdaacd1a	-0.08339901
4	0xbd7a167b	-0.061056595
5	0xbd166ec6	-0.036726736
6	0x3d1b9725	0.03798594
7	0xbd384786	-0.044990085
8	0x3d1aa4e6	0.037754916
9	0xbdcadb2f	-0.09905087
10	0x3d7dcf44	0.061965242
11	0x3e2e611a	0.17029229
12	0x3cd2f19c	0.025749974
13	0x3d60e2b1	0.05490369
14	0xbdd50767	-0.104018025
15	0xbd6a24f6	-0.057164155
16	0x3d9cc5f8	0.07654947
17	0x3d13c993	0.036080908
18	0xbe0705da	-0.13185826
19	0xbc65ed5e	-0.0140336435
20	0x3d79b036	0.060959063
21	0x3dd7d202	0.10538103
22	0xbc6a6b16	-0.014307758
23	0x3d84f4ba	0.064919904
24	0xbdbaf410	-0.091285825
25	0xbddcb6ab	-0.10777029
26	0x3db4ed4c	0.08834323
27	0x3d0ceb25	0.03440394
28	0xbd239886	-0.03994038
29	0xbcf8592f	-0.030315964
30	0xbd9f1282	-0.07767202
31	0x3e8402d6	0.25783414
32	0xbddfea3d	-0.10933349
33	0xbb3f711e	-0.002921171
34	0xbc8d80f0	-0.017273396
35	0xbdcb75e1	-0.09934593
36	0x3c8ef184	0.017449148
37	0x3bf9ece1	0.007627115
38	0x3c2ea1ab	0.010658662
39	0x3d786f92	0.060653277
40	0x3e0ff65d	0.14058824
41	0x3dac0aab	0.08400472
42	0xbdcf0381	-0.1010809
43	0x3d07bb20	0.03313744
44	0xbdd23c75	-0.102654375
45	0xbdcd2e2b	-0.100185715
46	0xbd619b50	-0.05507976
47	0xbd760c70	-0.060070455
48	0x3c78782e	0.015165372
49	0xbd80cf00	-0.06289482
50	0xbd14f1ce	-0.036363415
51	0x3c9749a4	0.018467732
52	0xbd504719	-0.050849054
53	0xbc0e1fb8	-0.0086745545
54	0x3db167c3	0.08662369
55	0x3c43ec9e	0.011958269
56	0x3da1abd0	0.07894099
57	0x3d6313c9	0.05543879
58	0x3bde30d3	0.0067807226
59	0x3d6697cf	0.05629712
60	0x3ddf55e3	0.109050535
61	0x3e3f1a80	0.18662453
62	0x3e32d52d	0.17464133
63	0xbcc80c16	-0.024419826
64	0xbdf2be06	-0.1185265
65	0xbdb281ec	-0.08716187
66	0x3dcd4937	0.1002373
67	0xbc2411d4	-0.010014016
68	0xbe04ef9c	-0.12982029
69	0xbe538078	-0.20654476
70	0xbeeaf762	-0.45891863
71	0x40086361	2.1310656
72	0xbd0c6f21	-0.03428567
73	0x3e58f7dc	0.21188301
74	0x3e81b8db	0.25336346
75	0xbf1f98b9	-0.6234241
76	0x3e24e9ea	0.16104856
77	0xbecedc2c	-0.40402353
78	0xbe26dd74	-0.16295415
79	0x3feafc9e	1.8358343
80	0xbd055b75	-0.032557923
81	0xbe4fd680	-0.20296669
82	0xbe58cc95	-0.21171792
83	0xbf248d59	-0.6427818
84	0xbe42923a	-0.19001094
85	0x3a3c4294	0.0007181552
86	0x3e239f5d	0.15978761
87	0x3fe02e20	1.7514076
88	0xbe1bc9f8	-0.15213764
89	0xbe0a6906	-0.13516626
90	0x3ea24ee5	0.31700817
91	0xbf13418b	-0.57521886
92	0x3c87a016	0.016555827
93	0x3e426cff	0.18986891
94	0x3d9f40c4	0.07776025
95	0x3f075db4	0.52877355
96	0xbf852b7d	-1.0403897
97	0xbf8a19dc	-1.0789142
98	0xbee50e8c	-0.4473766
99	0xbf70c3c1	-0.94048697
100	0xbec5a6c5	-0.38603798
101	0xbfa05e3c	-1.2528758
102	0x3e96ebca	0.29476768
103	0x3f8d0300	1.101654
104	0x3f2f7b79	0.6854778
105	0x3da8b1bd	0.08237026
106	0x3cb4ce1e	0.02207094
107	0xbd119ae5	-0.03554811
108	0xbdfe648a	-0.1242152
109	0xbcab3885	-0.020900974
110	0x3e030782	0.12795833
111	0x3de02435	0.10944406
112	0xbda83711	-0.08213628
113	0x3cbe974a	0.0232655
114	0xbd5e7e3c	-0.054319605
115	0xbdbe905f	-0.0930488
116	0xbda9e6f2	-0.082960024
117	0xbd53c7da	-0.051704265
118	0xbdda858a	-0.10670002
119	0xbc02c82c	-0.007982295
120	0xbc325358	-0.0108841285
121	0x3da9aefc	0.08285329
122	0xbd804cba	-0.062646344
123	0xbdeda74b	-0.11604174
124	0xbda8fbb8	-0.082511365
125	0x3c04061e	0.008058099
126	0xbd89202d	-0.0669559
127	0x3e0ddba4	0.13853317
128	0x3d3d346b	0.046192568
129	0x3a439117	0.000746028
130	0x3ca01741	0.019542338
131	0x3db6bfd5	0.08923308
132	0x3e072cbe	0.13200662
133	0xbd5cc3de	-0.05389773
134	0xbda7f489	-0.08200938
135	0xbd7be0f6	-0.061493836
136	0xba816bd8	-0.0009874059
137	0x3c4d08ec	0.012514334
138	0x3d0a6c4f	0.033794697
139	0xbe328191	-0.17432238
140	0x3f3337c7	0.70006984
141	0x4025fc7d	2.5935357
142	0x3d7a1a44	0.061060205
143	0x3e96c360	0.29445934
144	0xbebcca78	-0.3687322
145	0x3ef88e89	0.48546246
146	0x3dbe87fd	0.093032815
147	0xbed93913	-0.42426357
148	0xbdca9456	-0.09891574
149	0x40025821	2.036629
150	0x3af2570e	0.0018489079
151	0x3de66343	0.112494014
152	0xbe9eb959	-0.31000784
153	0x3f06b1c1	0.5261498
154	0x3dd2cd6a	0.10293086
155	0xbeefa1db	-0.46803173
156	0x3e2dcf4c	0.16973609
157	0x3fdd0811	1.7268087
158	0xbd92b7be	-0.07163952
159	0x3d71217f	0.058869835
160	0xbe02edaa	-0.12785974
161	0x3efca29c	0.4934281
162	0xbc6ae6a7	-0.014337218
163	0xbe971c41	-0.29513744
164	0x3db677bd	0.08909557
165	0x3e5b7865	0.21432646
166	0xbe966170	-0.29371214
167	0xbf3e091b	-0.74232644
168	0x3ed54212	0.4165197
169	0xbf42bd89	-0.7607046
170	0xbf1859cc	-0.5951202
171	0xbf558399	-0.8340393
172	0x3f36674c	0.7125137
173	0x3ececf69	0.40392616
174	0x3f142898	0.5787444
175	0xbc99add1	-0.01875964
176	0xbe1d54c6	-0.1536437
177	0x3d9c42ea	0.0762995
178	0xbbca35a3	-0.006170945
179	0xbd921f09	-0.07134826
180	0xbe1f45b2	-0.1555393
181	0x3e19533b	0.14973156
182	0x3d0cfa3e	0.034418337
183	0x3d48c7e7	0.049018767
184	0x3da33d0a	0.07970627
185	0xbd673795	-0.05644949
186	0x3cc9297b	0.024555912
187	0x3daef130	0.085420966
188	0x3da40274	0.080082804
189	0x3db9b5ca	0.09067877
190	0xbd06a389	-0.032870803
191	0xbd90dbbb	-0.0707316
192	0xbe0d54e7	-0.13801919
193	0x3d1594b6	0.036518775
194	0xbcde934c	-0.027169846
195	0xbde7761b	-0.11301824
196	0x3db6d2bc	0.08926913
197	0xbd8a8368	-0.06763345
198	0x3c9b1dab	0.018935045
199	0x3d43a383	0.04776336
200	0x3b7504fd	0.0037387006
201	0x3c9ffe2d	0.01953038
202	0xbcde49b9	-0.027134763
203	0x3d98895a	0.07448073
204	0xbd4d2200	-0.050081253
205	0x3db482af	0.088139884
206	0x3d8ee9ef	0.06978213
207	0x3d83c266	0.06433563
208	0xbdccc752	-0.09998955
209	0xbe147d8e	-0.1450102
210	0x3f2ae24e	0.66751564
211	0x401e1661	2.470116
212	0x3d5ae5c8	0.053441793
213	0x3e784059	0.24243297
214	0xbe9fa866	-0.31183165
215	0x3e72ff2a	0.2373015
216	0x3e949933	0.29023132
217	0xbebf50f8	-0.37366462
218	0xbdc5855b	-0.09644576
219	0x3ffea352	1.9893591
220	0xbda704b9	-0.08155198
221	0x3c688fa3	0.014194402
222	0xbee235ed	-0.44181767
223	0x3eb50f00	0.35363007
224	0x3c4df573	0.012570727
225	0xbf0951c1	-0.5364037
226	0xbe4ee732	-0.20205382
227	0x3ff36d5b	1.9017748
228	0x3d8906e0	0.066907644
229	0x3cfdf420	0.031000197
230	0xbecc8822	-0.3994761
231	0x3e8f687d	0.28009406
232	0x3dafbc44	0.08580831
233	0xbe6efd42	-0.23338798
234	0xbd82fa8d	-0.06395445
235	0x3f06937c	0.52568793
236	0xbf17e646	-0.59335744
237	0xbf1d11f3	-0.61355513
238	0x3eccafbb	0.39977822
239	0xbf4a8053	-0.7910206
240	0xbed81a2f	-0.42207476
241	0xbf57009b	-0.839853
242	0x3ef7d9e6	0.4840843
243	0x3ee36f20	0.4442072
244	0x3f567907	0.83778423
245	0x3dab69d5	0.08369795
246	0x4018a00b	2.3847682
247	0x3cb98dda	0.022650648
248	0x3e4f842b	0.20265262
249	0x3e3533b9	0.17695512
250	0xbe94c963	-0.29059896
251	0xbdb03533	-0.08603897
252	0x3dfbaace	0.12288438
253	0x3ede4207	0.4340975
254	0x3fe5cca7	1.795308
255	0x3d877040	0.06613207

fc1.bias f4 [200]
0	0xbde7e384	-0.11322692
1	0xbda54ea4	-0.0807164
2	0x3f83f9b5	1.031058
3	0xbe34fad7	-0.17673813
4	0x3f3c2559	0.7349449
5	0xbe12d320	-0.1433835
6	0x3f18def4	0.597152
7	0x3f797025	0.97436744
8	0xbe6f1d43	-0.23351006
9	0x3f047e72	0.5175544
10	0x3f231694	0.63706326
11	0x3ef3d3ae	0.47622436
12	0x3e6dcf9d	0.2322373
13	0x3f3f5a6b	0.7474734
14	0x3f25d7cd	0.6478241
15	0x3efa49a8	0.4888432
16	0x3ed7e21b	0.42164692
17	0x3f20b89e	0.62781703
18	0xbe526845	-0.20547588
19	0xbe19ec0b	-0.1503145
20	0x3eed8aa2	0.4639483
21	0xbd8277aa	-0.0637048
22	0xbe6ab545	-0.22920711
23	0x3e1ed1ed	0.15509768
24	0xbea32d28	-0.3187039
25	0x3f128ef8	0.57249403
26	0xbe054ba4	-0.13017136
27	0xbe4f8ae9	-0.20267834
28	0x3f73791a	0.9510666
29	0x3f59d2d9	0.85087353
30	0xbe01b959	-0.12668361
31	0x3f0d2fc1	0.5515099
32	0xbda99293	-0.0827991
33	0xbe0f2c0d	-0.13981648
34	0x3f1f5a04	0.6224673
35	0x3f3ab077	0.72925514
36	0x3d040aaf	0.03223675
37	0x3e7b2401	0.24525453
38	0xbdefc4cd	-0.11707459
39	0x3ee8ac7f	0.45444104
40	0xbdbf28cb	-0.093339525
41	0xbe57fda8	-0.21092856
42	0xbe6be2c3	-0.23035721
43	0x3f3892f1	0.72099215
44	0xbd357249	-0.044298444
45	0x3f275905	0.6537021
46	0xbe71ae99	-0.2360176
47	0x3f260fe1	0.6486798
48	0x3f00c6b0	0.50303173
49	0x3ef8fda1	0.48631003
50	0xb86cba2d	-5.6440174e-05
51	0x3c5ff392	0.0136689115
52	0x3f237006	0.6384281
53	0x3f0d199f	0.5511722
54	0x3f6f63e3	0.9351179
55	0xbd4f8222	-0.050661214
56	0x3f65a067	0.8969788
57	0xbe7214aa	-0.23640695
58	0xbdea8b8a	-0.11452396
59	0xbd92d519	-0.071695514
60	0xbe4840d8	-0.19555986
61	0x3ecd027b	0.40040955
62	0x3f379d9a	0.71724856
63	0x3f4ec392	0.80767167
64	0x3f49d87f	0.7884597
65	0xbe271ed8	-0.1632036
66	0xbdd585f6	-0.10425942
67	0xbe3a8ecc	-0.18218535
68	0x3f21c76f	0.63194937
69	0xbdf0a288	-0.117497504
70	0x3da08c1e	0.07839225
71	0x3f157756	0.5838522
72	0xbe0ea89a	-0.13931504
73	0x3e9ac75c	0.30230224
74	0x3ec8a92f	0.39191577
75	0xbf27bd59	-0.65523297
76	0xbd99f198	-0.075167835
77	0xbe63b839	-0.22238244
78	0xbe0ae7e1	-0.13565017
79	0xbe085e69	-0.13317265
80	0xbe4abbde	-0.19798228
81	0x3f13f167	0.57790226
82	0xbc8cd60e	-0.017191913
83	0xbe0edb4e	-0.13950846
84	0xbe54dba5	-0.20786913
85	0x3f26c69c	0.65146804
86	0x3f44124e	0.7659043
87	0x3f6af530	0.91780376
88	0x3ec4fe6e	0.38475364
89	0xbe2a2233	-0.16614608
90	0x3f77102c	0.9650905
91	0xbe3a9d7a	-0.18224135
92	0x3b4c701b	0.003119475
93	0xbe198322	-0.1499143
94	0xbe37c0db	-0.17944662
95	0x3f887ae6	1.0662506
96	0x3f19122d	0.5979336
97	0x3f206519	0.6265426
98	0xbe8106b9	-0.2520044
99	0xbe303724	-0.17208534
100	0xbe76fce2	-0.24119905
101	0xbe26e553	-0.16298418
102	0xbe89da65	-0.26924434
103	0x3bbc7fd0	0.005752541
104	0x3ed9211a	0.42408067
105	0x3f168d5f	0.58809465
106	0xbe20abdd	-0.1569056
107	0xbe787be5	-0.24266012
108	0x3ea2143d	0.31656066
109	0xbdb28b56	-0.087179825
110	0xbd5f92dd	-0.05458342
111	0xbe1e26f2	-0.15444544
112	0x3f30e299	0.6909576
113	0xbe465dbe	-0.19371697
114	0x3f19a3a6	0.6001533
115	0xbd1b1483	-0.03786136
116	0x3f1d77b3	0.6151077
117	0xbe18002b	-0.14843814
118	0x3f383eb9	0.7197071
119	0x3f6dce20	0.92892647
120	0x3f75f7fe	0.9608153
121	0xbcb32b1b	-0.02187114
122	0xbe5f909d	-0.2183251
123	0x3f34de61	0.70651823
124	0xbe3df69b	-0.18551104
125	0x3eaf8074	0.3427769
126	0x3ee08bd9	0.43856695
127	0xbd8d0833	-0.068863295
128	0xbe7c7c3e	-0.2465677
129	0x3f12d23b	0.57352036
130	0xbe8d8aa7	-0.27644846
131	0x3cb38b7b	0.021917095
132	0x3f341e20	0.7035847
133	0x3f25f44d	0.648259
134	0xbe82d8af	-0.2555594
135	0xbe75f0d2	-0.24017647
136	0x3ee0954f	0.43863913
137	0x3f136009	0.57568413
138	0xbcb0cd7b	-0.021582356
139	0x3f3183c6	0.69341695
140	0xbe750c86	-0.23930559
141	0xbe4ad06b	-0.19806068
142	0x3eeeb271	0.46620515
143	0x3f0a1546	0.5393871
144	0x3f8f8ee2	1.1215479
145	0xbe775ba1	-0.24156047
146	0x3ef2df9a	0.4743622
147	0xbe7f804d	-0.24951287
148	0x3f4f30a3	0.8093359
149	0x3ed6b0a1	0.41931632
150	0x3f21db1c	0.6322496
151	0x3f816f4e	1.0112092
152	0x3fa93522	1.321934
153	0x3f543b38	0.8290286
154	0x3f4958b6	0.7865099
155	0xbe8ad9f2	-0.27119404
156	0xbd826046	-0.06366019
157	0x3f209d16	0.62739694
158	0xbd696ca5	-0.056988377
159	0x3f4956b1	0.78647906
160	0x3f1a941e	0.6038226
161	0x3f766668	0.9625001
162	0x3f313329	0.6921869
163	0x3f0b2952	0.54359925
164	0xbc7753e4	-0.015095685
165	0xbd75e0c9	-0.060028825
166	0xbe59897b	-0.21243851
167	0x3ef1aa8a	0.47200423
168	0x3f243891	0.64148813
169	0xbe9cfd5e	-0.30662054
170	0x3f16dfa0	0.58934975
171	0x3f013571	0.5047217
172	0x3f16e83c	0.5894811
173	0xbd2a2cc2	-0.04154659
174	0xbe0a15a1	-0.13484813
175	0x3f5c238b	0.85991734
176	0xbd9e15b4	-0.07718983
177	0x3f4e422e	0.8056973
178	0x3f33e2e3	0.70268077
179	0x3f7e99aa	0.9945322
180	0x3ec64d8e	0.38731045
181	0x3f5324e2	0.82478154
182	0xbde87e9c	-0.11352274
183	0x3eeba462	0.46023852
184	0x3f266974	0.6500466
185	0x3f973bd4	1.1815133
186	0x3f4c71d8	0.7986121
187	0x3f11e27f	0.5698623
188	0x3f1e1710	0.6175394
189	0xbd8e473f	-0.06947183
190	0x3f10a74a	0.5650526
191	0x3efbd943	0.49189195
192	0xbe9529af	-0.29133365
193	0x3f0225d7	0.5083899
194	0x3e9e600a	0.30932647
195	0xbd65c3c9	-0.05609492
196	0x3ebb8515	0.3662497
197	0x3ef29ce3	0.4738532
198	0x3f0f35ac	0.5594127
199	0x3f190653	0.59775275

fc2.weight f4 [20, 200]
0	0xbd23c2dd	-0.039980758
1	0xbd3a7685	-0.045523185
2	0xbb5a93a7	-0.0033352168
3	0x3c89dabd	0.016827935
4	0xbd1c6b3c	-0.038188204
5	0xbc6bdd28	-0.0143959895
6	0xbce0bcdb	-0.027433803
7	0x3d4f2833	0.050575446
8	0xbd1cd9d8	-0.03829369
9	0xbd0792e8	-0.033099085
10	0xbcc9d203	-0.024636274
11	0x3d62d0ab	0.055374783
12	0xbb144fe0	-0.0022630617
13	0x3d2c7529	0.04210392
14	0xbbbfdec7	-0.0058554146
15	0x3bc5dfbd	0.0060386346
16	0x3cdf72c3	0.027276402
17	0xbcf9ec16	-0.030508082
18	0x3d7dc82f	0.061958488
19	0x3d91f315	0.07126442
20	0x3c3ab279	0.01139509
21	0x3d742061	0.05960119
22	0xbc815ded	-0.015791858
23	0x3d8ab413	0.06772628
24	0xbcb60f55	-0.022224108
25	0x3cefea39	0.02928649
26	0x3d3e42a2	0.046450265
27	0x3cd7906d	0.026313985
28	0x3aa9998b	0.0012939436
29	0xbd8eed61	-0.0697887
30	0x3db0787a	0.08616729
31	0xbcd328e4	-0.025776334
32	0x3d9cf7b4	0.07664433
33	0x3b7b0921	0.0038305002
34	0xbd0d5a5f	-0.034510013
35	0x3d47ba1f	0.048761483
36	0xbc5ccd52	-0.013476687
37	0xbd778737	-0.060431685
38	0x3bf75ae2	0.007548676
39	0xbd9535b1	-0.072856314
40	0xbcf77a08	-0.030209556
41	0xbd0cd095	-0.034378607
42	0x3cbd97fe	0.023143765
43	0xbd3900b2	-0.04516668
44	0x3c026cfe	0.007960556
45	0xbd3ae561	-0.04562891
46	0xbd149399	-0.036273573
47	0xbc8278d1	-0.01592675
48	0xbb8a65df	-0.0042235698
49	0x3d168e2d	0.036756683
50	0xbd0f132d	-0.034930397
51	0x3daeb6f9	0.08530993
52	0xbd76805c	-0.060181007
53	0x3d005b73	0.031337213
54	0xbd883bfa	-0.066520646
55	0x3d972bb7	0.07381385
56	0xbd385f8c	-0.045012996
57	0x3d796faa	0.060897507
58	0x3c728b2b	0.014803688
59	0xbc0f9efd	-0.008765933
60	0xbc92a58a	-0.0179012
61	0xbcf140ce	-0.029449847
62	0x3d0c6356	0.03427442
63	0x3d20b78a	0.039237536
64	0x3d73375a	0.05937896
65	0x3c283968	0.010267593
66	0x3a548fd0	0.0008108588
67	0xbd13687e	-0.035988323
68	0xbcac70cc	-0.02104988
69	0x3c129c22	0.008948358
70	0xbb616a8b	-0.003439578
71	0xbd679ebf	-0.056547876
72	0x3d10f6d1	0.035391632
73	0xbbab9d46	-0.0052372543
74	0xbd5e7a19	-0.05431566
75	0xbc9971ef	-0.018731086
76	0x3c35efa4	0.011104498
77	0xbd6585b7	-0.056035724
78	0x3d0c7d5d	0.034299243
79	0x3cb5572b	0.022136291
80	0xbc02ae6b	-0.007976155
81	0x3c61e655	0.013787826
82	0x3cc26241	0.023728492
83	0x3c5e213f	0.013557731
84	0xbc84cb2a	-0.016210157
85	0x39d7dd8d	0.00041173064
86	0x3cf1194e	0.029431012
87	0xbd1010f2	-0.03517241
88	0xbc60bb49	-0.013716527
89	0xbd4f86ff	-0.05066585
90	0xbd4a5cf5	-0.049405057
91	0x3c17193d	0.009222326
92	0xbd14beca	-0.036314763
93	0x3da16d85	0.07882217
94	0x3c39dc60	0.011344045
95	0xbd934cf2	-0.071924105
96	0x3d4dfcec	0.050290033
97	0xbd7696b5	-0.06020232
98	0x3d9d9e85	0.07696251
99	0x3b417937	0.0029521713
100	0x3c96ff36	0.018432241
101	0xbd97edf6	-0.07418434
102	0x3d9339c1	0.0718875
103	0x3caf0bd1	0.02136794
104	0xbd36e5ce	-0.044652753
105	0xbd87abcc	-0.066245645
106	0xba8007ba	-0.0009767928
107	0xbd629063	-0.05531348
108	0x3d35db12	0.044398375
109	0x3d29fc85	0.041500587
110	0x3d915955	0.07097117
111	0x3d9844de	0.074350104
112	0xbd0426be	-0.03226351
113	0x3c5b6ede	0.013393132
114	0x3d1c0656	0.03809198
115	0x3d8c9d9c	0.06865999
116	0x3d6bcb32	0.05756683
117	0xbca14014	-0.019683875
118	0x3929f89b	0.00016209709
119	0xbc7c6173	-0.015404093
120	0x3cf1e7d2	0.029529486
121	0xbcff7175	-0.03118203
122	0x3d6c286f	0.057655748
123	0xbd292ac9	-0.04130057
124	0x3d423943	0.04741789
125	0x3d309aeb	0.04311649
126	0xbda1f829	-0.07908661
127	0x3d18aa1f	0.037271615
128	0xbccb286f	-0.024799554
129	0x3cf6d6e7	0.03013177
130	0x3d8a780d	0.06761179
131	0xbc9714b8	-0.018442497
132	0xbd658ad7	-0.05604061
133	0xbd2caadb	-0.042155128
134	0x3d8cac9e	0.068688616
135	0xbbaf90a4	-0.0053578187
136	0xbd85a152	-0.0652491
137	0x3d1aa4d8	0.037754864
138	0x3d6a8d13	0.057263445
139	0xbc2bb853	-0.010480958
140	0x3c394018	0.011306785
141	0x3cd6c5d4	0.026217379
142	0x3d72777f	0.05919599
143	0x3cf4d7e9	0.02988811
144	0x3a8a976c	0.0010573692
145	0x3c5064e4	0.012719367
146	0x3b9dd363	0.004816459
147	0xbd24b8ac	-0.04021518
148	0x3d2b02fe	0.0417509
149	0x3ce92f3a	0.028464902
150	0x3c12e216	0.008965036
151	0x3d1ba46f	0.037998613
152	0xbcff8b72	-0.031194422
153	0xbd8f66fb	-0.07002064
154	0xbd995603	-0.074871086
155	0x3d82ec8f	0.06392776
156	0xbbee4255	-0.007271091
157	0xbd85b345	-0.065283336
158	0x3d98ad9b	0.074549876
159	0xbd14468d	-0.036200095
160	0x3d2caf77	0.042159524
161	0x3d776b81	0.060405258
162	0xbca50e2f	-0.020148365
163	0x3d049252	0.032366104
164	0x3d76f1cd	0.060289193
165	0xbd88d1bb	-0.06680628
166	0xbca301cd	-0.01989832
167	0xbc0e69d1	-0.008692221
168	0x3c93fbaf	0.018064348
169	0xbce51d74	-0.027968146
170	0xbd822fbc	-0.06356761
171	0x3d699d2a	0.05703465
172	0xbd45d2e4	-0.048296824
173	0xbd448f16	-0.04798802
174	0x3d0b7ee8	0.034056574
175	0xbd505cc6	-0.050869726
176	0xbc004572	-0.007829057
177	0xbccf9b2e	-0.02534255
178	0x3d3a9c58	0.045559257
179	0x3cb7404b	0.022369524
180	0x3d66162e	0.056173496
181	0xbb51770d	-0.003196183
182	0x3d7045b0	0.05866021
183	0xbd8d5ac8	-0.06902081
184	0x3d5e800b	0.05432133
185	0xbbf689c8	-0.007523749
186	0x3b3dc0b8	0.002895398
187	0x3d5b75b3	0.053579044
188	0xbbbe2e0b	-0.0058038286
189	0xbc7b37e4	-0.01533315
190	0xbd61e6a7	-0.055151608
191	0xba6f63d0	-0.00091319997
192	0xbb8e5b22	-0.00434436
193	0xbb7e4a54	-0.0038801627
194	0xbd94b5dc	-0.072612494
195	0xbd1df69a	-0.038565256
196	0x3d99d51d	0.07511351
197	0xbd1c9b4b	-0.038234036
198	0xbd8375de	-0.06418966
199	0x3d58f223	0.052965295
200	0xbf8d841d	-1.1055943
201	0xbf913f4b	-1.134744
202	0x3f9201da	1.1406815
203	0xbf890337	-1.0704106
204	0x3f7256c5	0.9466365
205	0xbf8b2cdc	-1.0873065
206	0x3f8c300b	1.0952162
207	0x3f88513a	1.0649788
208	0xbf8a4488	-1.0802164
209	0x3f8e24cf	1.1104983
210	0x3f8bf66a	1.0934575
211	0x3f7abab1	0.9794112
212	0x3fa1546e	1.2603891
213	0x3f893e14	1.072207
214	0x3f92a869	1.1457645
215	0x3f88c895	1.0686213
216	0x3f8872e9	1.0660068
217	0x3f865241	1.0493852
218	0xbf92681c	-1.1438022
219	0xbf86e13f	-1.053749
220	0x3f7e3171	0.9929419
221	0xbf8b99e7	-1.0906342
222	0xbf8eb005	-1.1147467
223	0x3f8a1010	1.0786152
224	0xc027250c	-2.6116362
225	0x3f834670	1.0255871
226	0xbf95359d	-1.1656986
227	0xbf8f7888	-1.1208658
228	0x3f864d3a	1.0492318
229	0x3f999f2d	1.2001702
230	0xbf8aed73	-1.0853714
231	0x3f899fa0	1.0751839
232	0xbf85ddb9	-1.0458289
233	0xbf8fd491	-1.1236745
234	0x3f80272b	1.0011953
235	0x3f94fa97	1.1638974
236	0x3f942b77	1.1575764
237	0x3f8422c7	1.0323113
238	0xbf84f0da	-1.0386002
239	0x3f7aa17a	0.97902644
240	0xbf8a7abd	-1.0818707
241	0xbf8870a7	-1.0659379
242	0xbf8fdbe5	-1.1238981
243	0x3f828a9f	1.0198554
244	0xbf84c92d	-1.0373894
245	0x3f85bd0c	1.0448318
246	0xbf8ce3ee	-1.1007059
247	0x3f894147	1.0723046
248	0x3f83e392	1.0303824
249	0x3f897153	1.0737709
250	0x3f948ca4	1.160542
251	0xbf911718	-1.1335173
252	0x3f8f938c	1.1216903
253	0x3f885d13	1.0653404
254	0x3f837caf	1.0272425
255	0xbf8fb7ab	-1.1227926

fc2.bias f4 [20]
0	0x3ca5917f	0.02021098
1	0x3f6d8510	0.9278116
2	0x3f50f17a	0.81618464
3	0xbc34e153	-0.01104005
4	0x3f685167	0.9074921
5	0xbd80b97d	-0.06285379
6	0x3f5c28d3	0.8599979
7	0x3d0fc66e	0.035101347
8	0xbca22d10	-0.019796878
9	0x3f75416a	0.9580294
10	0x3f6288d6	0.88490045
11	0x3f5e97f9	0.8695064
12	0x3d46f7c4	0.04857613
13	0xbdb4c379	-0.08826346
14	0x3f760b75	0.9611123
15	0x3f5dc56d	0.8662937
16	0x3f6b1df3	0.91842574
17	0xbcbf8379	-0.02337812
18	0x3f5c1bca	0.859799
19	0xbd0144d1	-0.03155977

fc3.weight f4 [1, 20]
0	0xbf3afac2	-0.73038876
1	0x3fa3c4fe	1.2794492
2	0x3fa9ba92	1.3260062
3	0xbf48e047	-0.7846722
4	0x3f94935c	1.160747
5	0xbf397884	-0.7244952
6	0x3fa7f1b1	1.3120633
7	0xbf3325f2	-0.69979775
8	0xbf35df41	-0.71043783
9	0x3fa47ef2	1.2851241
10	0x3f9278e0	1.1443138
11	0x3fa4b2c5	1.2867056
12	0xbf0c1242	-0.5471536
13	0xbf5ae12b	-0.8549983
14	0x3f93f416	1.1558864
15	0x3fa953cc	1.3228698
16	0x3fa689b3	1.3010772
17	0xbf3fffb9	-0.74999577
18	0x3fa8b7b5	1.3181063
19	0xc022b751	-2.5424387

bn1.weight f4 [200]
0	0x400d6989	2.2095664
1	0x400f1158	2.2354336
2	0x400b1e61	2.1737292
3	0x400e040e	2.2189975
4	0x40070356	2.1095786
5	0x400cd530	2.200512
6	0x4007d750	2.1225166
7	0x40065aba	2.0992875
8	0x400d2a82	2.2057195
9	0x40098d01	2.1492312
10	0x40091900	2.1421509
11	0x4006dc17	2.1071832
12	0x4013bcf8	2.3084087
13	0x40055b3c	2.0836935
14	0x400d0677	2.2035196
15	0x400a3255	2.159322
16	0x400b31aa	2.1749063
17	0x40085e21	2.1307452
18	0x400e3c1e	2.2224193
19	0x400ede1f	2.2323072
20	0x4008711d	2.131904
21	0x400df60c	2.2181425
22	0x400d60bc	2.2090292
23	0x4009c395	2.1525624
24	0x40833d54	4.1012363
25	0x4004a141	2.0723422
26	0x400ed36c	2.2316542
27	0x400de719	2.21723
28	0x400940e7	2.1445863
29	0x40111877	2.2671182
30	0x400ed331	2.23164
31	0x4008ea05	2.1392834
32	0x400d5ceb	2.2087963
33	0x400efa55	2.234029
34	0x4009f543	2.1555946
35	0x4013c55a	2.3089204
36	0x400d0a53	2.2037551
37	0x4008d59c	2.1380377
38	0x400dc7be	2.2153163
39	0x400534e7	2.081354
40	0x400dd4cd	2.2161133
41	0x400d00bf	2.2031705
42	0x400e3ab2	2.2223325
43	0x4008a81c	2.1352606
44	0x400d0d6a	2.2039437
45	0x40044126	2.0664763
46	0x400d5fed	2.2089798
47	0x4008fc02	2.1403813
48	0x40062a6c	2.0963392
49	0x40093be3	2.1442802
50	0x400de748	2.2172413
51	0x400e31db	2.221793
52	0x400a6b58	2.1628017
53	0x400ab679	2.1673872
54	0x4007dd8f	2.1228979
55	0x400eeb8e	2.233127
56	0x400c2128	2.1895237
57	0x400e725f	2.2257307
58	0x400d9a2f	2.2125356
59	0x400d1a9c	2.204749
60	0x400d89df	2.21154
61	0x400cdf71	2.2011378
62	0x40065ee5	2.099542
63	0x400e8fdc	2.2275305
64	0x400c9fef	2.1972616
65	0x400f164f	2.2357366
66	0x400f4bda	2.2390046
67	0x400fba30	2.245739
68	0x40072355	2.1115315
69	0x400c077e	2.1879573
70	0x4072114e	3.7823062
71	0x4007b24e	2.1202579
72	0x400efd5d	2.234214
73	0x400e2232	2.220837
74	0x400c9399	2.1965086
75	0x408f7592	4.483102
76	0x400b93ee	2.180904
77	0x400e44bf	2.222946
78	0x400f2960	2.2369003
79	0x400ca0e4	2.19732
80	0x400dac46	2.2136397
81	0x4008dc4c	2.1384459
82	0x400f9d14	2.2439623
83	0x400d178e	2.2045627
84	0x400e3aca	2.2223382
85	0x4010abd2	2.260487
86	0x4009d285	2.153474
87	0x40094d00	2.1453247
88	0x40087c52	2.132588
89	0x400d8be1	2.2116625
90	0x40058bc6	2.086656
91	0x400e307d	2.2217095
92	0x4014385f	2.3159406
93	0x400e91e3	2.2276542
94	0x400eb738	2.2299328
95	0x4008d95c	2.1382666
96	0x40099ea8	2.1503086
97	0x400aa503	2.1663215
98	0x400dd331	2.216015
99	0x400e2051	2.2207224
100	0x400d1454	2.2043657
101	0x400dd133	2.2158935
102	0x400e9b6b	2.228236
103	0x400df275	2.2179234
104	0x400bb785	2.1830761
105	0x4007d524	2.122384
106	0x400c885d	2.195823
107	0x400da438	2.213148
108	0x40085b68	2.130579
109	0x400f4b06	2.238954
110	0x400f3fdd	2.238273
111	0x400e9a5a	2.2281709
112	0x400a9f6a	2.1659799
113	0x400ee5c7	2.2327745
114	0x4009fc21	2.1560137
115	0x400e1132	2.2197995
116	0x40063a9b	2.097327
117	0x400d3d0c	2.206851
118	0x40091abd	2.142257
119	0x4001be83	2.027253
120	0x400534e7	2.081354
121	0x4064fd1f	3.5779493
122	0x400d37a1	2.2065203
123	0x400c7945	2.1949017
124	0x400e5e73	2.2245147
125	0x400aa767	2.1664674
126	0x4005b781	2.0893252
127	0x400ed510	2.2317543
128	0x400f4ab9	2.2389357
129	0x40094482	2.1448064
130	0x400d93b7	2.2121408
131	0x400ef422	2.2336507
132	0x4004f957	2.0777185
133	0x4006f3bd	2.1086266
134	0x400d7460	2.210228
135	0x400e5745	2.2240765
136	0x4004de66	2.0760741
137	0x4008026e	2.1251483
138	0x400e5c21	2.224373
139	0x4006f71e	2.1088328
140	0x400e29de	2.2213054
141	0x400d35c8	2.2064075
142	0x400b7a74	2.179349
143	0x4007c63d	2.1214745
144	0x4004efbc	2.0771322
145	0x400d0bfd	2.2038567
146	0x4010dc47	2.2634447
147	0x400edaf4	2.2321138
148	0x4005eb0a	2.0924706
149	0x4004d989	2.0757773
150	0x40090314	2.1408129
151	0x400408fc	2.0630484
152	0x400a9102	2.1651006
153	0x40049daf	2.0721242
154	0x4008010f	2.1250646
155	0x400cc578	2.1995525
156	0x400ead42	2.2293248
157	0x40043790	2.0658913
158	0x400ee552	2.2327466
159	0x40099532	2.1497312
160	0x400c003f	2.187515
161	0x40002d09	2.0027487
162	0x400688ad	2.102092
163	0x4005d3e1	2.091057
164	0x400d8aa2	2.2115865
165	0x400dde99	2.2167113
166	0x400ce9c7	2.2017686
167	0x400c03f8	2.1877422
168	0x40080943	2.1255653
169	0x400d5c00	2.2087402
170	0x4006e30f	2.1076086
171	0x40066a4f	2.1002386
172	0x400a2299	2.1583617
173	0x400efcec	2.2341871
174	0x400f3a38	2.2379284
175	0x4009aec7	2.1512926
176	0x400dad56	2.2137046
177	0x40067365	2.1007931
178	0x4007591d	2.114814
179	0x400d245b	2.205344
180	0x400aa6ce	2.166431
181	0x40054a17	2.082647
182	0x400ebafa	2.2301621
183	0x4006e2c7	2.1075914
184	0x4009a3c9	2.1506217
185	0x400a5945	2.1616986
186	0x40012be5	2.018304
187	0x40045e97	2.0682733
188	0x400dbda9	2.214701
189	0x400e16b8	2.2201366
190	0x400875b8	2.132185
191	0x40088045	2.132829
192	0x400e7062	2.2256093
193	0x40047099	2.0693724
194	0x4008f380	2.139862
195	0x400e9ba9	2.2282507
196	0x4009f7dd	2.1557534
197	0x4006acd2	2.104298
198	0x400dadab	2.2137249
199	0x400b051b	2.1721866

bn1.bias f4 [200]
0	0xbf9f377e	-1.243881
1	0xbf9d3edc	-1.2284808
2	0x3f988c76	1.1917865
3	0xbfa077a4	-1.2536511
4	0x3f996b97	1.1985959
5	0xbfa0de41	-1.2567827
6	0x3f95a8d5	1.1692148
7	0x3f93c129	1.1543323
8	0xbfa2a541	-1.2706681
9	0x3f9738ce	1.181421
10	0x3f974f7f	1.1821135
11	0x3f9895d4	1.1920724
12	0x3f9943e9	1.197385
13	0x3f98a89b	1.1926454
14	0x3f998000	1.1992188
15	0x3f985500	1.190094
16	0x3f99d005	1.2016608
17	0x3f97148b	1.1803144
18	0xbf9e65ff	-1.2374877
19	0xbfa034b2	-1.2516081
20	0x3f9b3f75	1.212874
21	0xbfa042d1	-1.2520391
22	0xbf9e78a2	-1.2380564
23	0x3f97713d	1.1831433
24	0xbf9e5f5a	-1.2372849
25	0x3f97b4c8	1.1852045
26	0xbf9ccda7	-1.225026
27	0xbfa1f236	-1.2652042
28	0x3f980920	1.1877785
29	0x3f97c1bd	1.1855999
30	0xbf9c1b1b	-1.2195772
31	0x3f985d20	1.190342
32	0xbf9f22ab	-1.2432455
33	0xbf9d5576	-1.2291706
34	0x3f966b9f	1.1751593
35	0x3f99e2cd	1.2022339
36	0x3f97b275	1.1851336
37	0x3f9404f8	1.1564016
38	0xbfa0ca65	-1.2561766
39	0x3f96c27a	1.17781
40	0xbf9f8e2b	-1.2465261
41	0xbfa06d63	-1.2533382
42	0xbf9cf817	-1.2263211
43	0x3f97f320	1.1871071
44	0xbfa096d6	-1.2546031
45	0x3f9ac65f	1.2091788
46	0xbf9e01a6	-1.2344253
47	0x3f956461	1.1671258
48	0x3f97791b	1.1833833
49	0x3f98ffd0	1.1953068
50	0x3f99a20a	1.2002575
51	0xbf9e2d67	-1.2357606
52	0x3f9352ca	1.150964
53	0x3f964960	1.1741142
54	0x3f992b2b	1.1966299
55	0xbf9a7845	-1.2067953
56	0x3f961663	1.1725582
57	0xbf9bba6e	-1.2166269
58	0xbf9e7b9a	-1.238147
59	0xbfa091be	-1.2544477
60	0xbfa15ef1	-1.2607099
61	0x3f934ce1	1.1507837
62	0x3f995fcf	1.1982363
63	0x3f99d517	1.2018155
64	0x3f95f033	1.1713928
65	0xbf9f4a29	-1.2444507
66	0xbf9b1b38	-1.2117682
67	0xbf9ed15b	-1.240764
68	0x3f966965	1.1750914
69	0xbf9f99af	-1.2468776
70	0xbf9af41c	-1.2105746
71	0x3f96d1b2	1.1782744
72	0xbf9ceada	-1.2259171
73	0x3f966b35	1.1751467
74	0x3f99624f	1.1983126
75	0xbfd2f544	-1.6481099
76	0xbfa1b2ab	-1.263265
77	0xbf9d11c1	-1.2271043
78	0xbf9d0150	-1.2266026
79	0xbf9ffede	-1.2499654
80	0xbf9e83c6	-1.2383964
81	0x3f995019	1.1977569
82	0xbf9d4171	-1.2285596
83	0xbf9ece95	-1.2406794
84	0xbf9ef7e8	-1.2419405
85	0x3f950a5e	1.1643789
86	0x3f9655a3	1.1744884
87	0x3f971f5d	1.1806446
88	0x3f97709a	1.1831238
89	0xbfa18244	-1.2617879
90	0x3f999c5d	1.2000843
91	0xbf9e522d	-1.2368828
92	0x3f960ae6	1.1722076
93	0xbf9d8585	-1.2306372
94	0xbf9f915d	-1.2466236
95	0x3f9802c8	1.1875849
96	0x3f94b067	1.1616334
97	0x3f9650b3	1.1743377
98	0xbf9ba618	-1.2160063
99	0xbf9c7005	-1.2221686
100	0xbf9eecdd	-1.2416035
101	0xbf9f0e06	-1.2426155
102	0xbfa03843	-1.251717
103	0xbf9d69d1	-1.2297918
104	0x3f95a068	1.1689577
105	0x3f95deb3	1.1708587
106	0xbf9ed139	-1.24076
107	0xbf9cdc21	-1.2254678
108	0x3f94366c	1.1579108
109	0xbf9bfd82	-1.218674
110	0xbf9d8307	-1.2305611
111	0xbf9b64a1	-1.2140085
112	0x3f97a436	1.1846988
113	0xbf9dc53c	-1.2325816
114	0x3f96bce8	1.17764
115	0xbf9ec680	-1.2404327
116	0x3f9a0d7d	1.2035366
117	0xbf9fda7b	-1.248855
118	0x3f957d6d	1.1678902
119	0x3f97dadc	1.1863666
120	0x3f990e89	1.1957561
121	0xbf9a7baa	-1.2068989
122	0xbfa0e955	-1.2571207
123	0x3f973cc0	1.1815414
124	0xbf9cd10c	-1.2251296
125	0x3f96e033	1.178717
126	0x3f98d30c	1.1939406
127	0xbf9c881b	-1.2229036
128	0xbf9d2497	-1.2276791
129	0x3f97ae13	1.1849998
130	0xbf9dab54	-1.231791
131	0xbfa0ad4a	-1.2552884
132	0x3f97b1fd	1.1851193
133	0x3f9aff08	1.2109079
134	0xbf99dd00	-1.2020569
135	0xbfa14134	-1.2598023
136	0x3f96f4a6	1.1793411
137	0x3f97f736	1.1872318
138	0xbf9e947b	-1.2389063
139	0x3f9a29b0	1.2043972
140	0xbf9e4640	-1.2365189
141	0xbf9d846f	-1.230604
142	0x3f97bc80	1.1854401
143	0x3f96b535	1.177405
144	0x3f999137	1.1997441
145	0xbfa29264	-1.2700925
146	0x3f991803	1.1960453
147	0xbf9d243b	-1.2276682
148	0x3f95f30d	1.1714798
149	0x3f96db05	1.178559
150	0x3f97c82a	1.185796
151	0x3f975b1f	1.1824683
152	0x3f9943a8	1.1973772
153	0x3f98b40c	1.1929946
154	0x3f974400	1.1817627
155	0xbfa0b3bd	-1.2554852
156	0xbf9df165	-1.2339293
157	0x3f95f89e	1.1716497
158	0xbf9ccff1	-1.2250959
159	0x3f96d041	1.1782304
160	0x3f95a68e	1.1691453
161	0x3f99cc56	1.2015483
162	0x3f9633ff	1.1734618
163	0x3f96b29a	1.1773255
164	0xbf9ef783	-1.2419285
165	0xbf9df0ec	-1.2339149
166	0xbf9d9ef6	-1.2314136
167	0x3f9a302f	1.2045954
168	0x3f98e086	1.1943519
169	0xbfa0b4e3	-1.2555202
170	0x3f965084	1.1743321
171	0x3f973efe	1.1816099
172	0x3f98152d	1.1881462
173	0xbf9e5969	-1.2371036
174	0xbf9f33fc	-1.2437739
175	0x3f986be2	1.1907923
176	0xbf9994a7	-1.199849
177	0x3f98222a	1.1885426
178	0x3f954397	1.1661252
179	0x3f99eccc	1.202539
180	0x3f9a1672	1.20381
181	0x3f99d9ef	1.2019633
182	0xbf9b2540	-1.2120743
183	0x3f96ed78	1.179122
184	0x3f9ae944	1.2102437
185	0x3f9759a5	1.1824232
186	0x3f99695b	1.1985277
187	0x3f982038	1.1884832
188	0x3f98fb1c	1.1951632
189	0xbf9f7089	-1.2456218
190	0x3f95b64f	1.1696261
191	0x3f985ad6	1.1902721
192	0xbf9dd83c	-1.2331614
193	0x3f9a87be	1.2072675
194	0x3f962544	1.1730123
195	0xbf9de651	-1.2335912
196	0x3f971433	1.1803039
197	0x3f9aca89	1.2093059
198	0x3f9575be	1.1676557
199	0x3f97c0a2	1.1855662

bn1.running_mean f4 [200]
0	0x3eba87ce	0.36431736
1	0x3d5d23c9	0.053989206
2	0x3e21c0a6	0.15796146
3	0x3e3b8860	0.18313742
4	0x3df1b85f	0.11802744
5	0x3e6c20e4	0.23059422
6	0x3e2ee306	0.1707879
7	0x3e0fe1aa	0.14050928
8	0x3da104a4	0.07862213
9	0x3e67b121	0.22626163
10	0x3e15f3e7	0.14643823
11	0x3e631143	0.22174554
12	0x3e50572e	0.20345756
13	0x3e915358	0.283839
14	0x3e4c94dc	0.1997866
15	0x3e247e2b	0.16063754
16	0x3daf60a9	0.08563358
17	0x3e915088	0.28381753
18	0x3e697ca8	0.22801459
19	0x3de3b8fe	0.11119269
20	0x3dfbd576	0.12296574
21	0x3e20510e	0.1565592
22	0x3e14e316	0.14539751
23	0x3e3eea00	0.18643951
24	0x3e1276ce	0.14303133
25	0x3e35399f	0.17697762
26	0x3e33a960	0.1754508
27	0x3dace47b	0.08442017
28	0x3e29ee5e	0.16594836
29	0x3e1f2f6c	0.15545434
30	0x3e97c798	0.29644465
31	0x3d4c435f	0.049868938
32	0x3e946b94	0.28988326
33	0x3eaede83	0.34154138
34	0x3eb80c80	0.35947037
35	0x3e85b03f	0.26111028
36	0x3e3dc8ff	0.18533705
37	0x3dbdc295	0.09265629
38	0x3e28d42d	0.16487189
39	0x3e32d709	0.17464842
40	0x3e7fc0b1	0.2497585
41	0x3e36df8e	0.17858717
42	0x3e875150	0.26429224
43	0x3e18b7bb	0.14913838
44	0x3e99754f	0.29972312
45	0x3d90c217	0.0706827
46	0x3ddec84a	0.10878046
47	0x3e70a65f	0.23500966
48	0x3e28d6da	0.1648821
49	0x3e2c441a	0.16822854
50	0x3d511e4d	0.051054288
51	0x3e785568	0.2425133
52	0x3e528eb0	0.20562243
53	0x3df1a0e9	0.11798269
54	0x3defec43	0.11714985
55	0x3e4d71c1	0.20062925
56	0x3e2cebee	0.16886875
57	0x3e5d1949	0.21591677
58	0x3d3eaa98	0.04654941
59	0x3e816431	0.25271752
60	0x3e62e8de	0.22159144
61	0x3e49eafa	0.19718543
62	0x3ea8451e	0.32865232
63	0x3e488e40	0.19585514
64	0x3e6ebd75	0.2331446
65	0x3deacfc4	0.114654094
66	0x3eb750c6	0.35803813
67	0x3e2083fd	0.1567535
68	0x3d22838e	0.03967624
69	0x3e0aa7b4	0.13540536
70	0x3e6f3728	0.23360884
71	0x3e3c6f12	0.18401745
72	0x3e38dbd2	0.18052605
73	0x3e06045b	0.13087599
74	0x3d481d63	0.04885615
75	0x3ebdcf1f	0.37072083
76	0x3cbc25af	0.022967188
77	0x3e60d3e4	0.2195583
78	0x3e1b38a5	0.15158327
79	0x3dcd2b39	0.1001801
80	0x3e4a186f	0.19735883
81	0x3e523fe7	0.2053219
82	0x3e48ebfb	0.1962127
83	0x3e742e12	0.238457
84	0x3e0e0429	0.13868774
85	0x3e65e5d6	0.22450957
86	0x3eb70962	0.35749346
87	0x3e531e38	0.20616996
88	0x3e17dcf5	0.14830382
89	0x3e4764b1	0.19472004
90	0x3e9529cc	0.2913345
91	0x3eab36dd	0.33440295
92	0x3de51b6a	0.111868694
93	0x3e5295eb	0.20565002
94	0x3e65e308	0.22449887
95	0x3e35d211	0.17755915
96	0x3e33ac7b	0.17546265
97	0x3e24e220	0.16101885
98	0x3df15bb5	0.1178507
99	0x3e1e2272	0.15442827
100	0x3d17b485	0.03703739
101	0x3e7394de	0.23787257
102	0x3df98e8d	0.121853925
103	0x3e25c3ef	0.16188024
104	0x3d91804a	0.07104547
105	0x3daa0c86	0.0830317
106	0x3e0c1b05	0.13682182
107	0x3e0c52b8	0.1370343
108	0x3dc746d8	0.09730309
109	0x3e8d3313	0.2757803
110	0x3dbab7f0	0.091171145
111	0x3ec99575	0.3937184
112	0x3ead0805	0.3379518
113	0x3e257f19	0.16161765
114	0x3ea14c0c	0.31503332
115	0x3e87f128	0.26551175
116	0x3e518110	0.2045939
117	0x3e5d8584	0.21632963
118	0x3e847da4	0.25877106
119	0x3e551013	0.20806913
120	0x3e5fe5af	0.21864961
121	0x3d5312b1	0.051531497
122	0x3e4b6cbc	0.19865698
123	0x3de66819	0.11250324
124	0x3e5a70a0	0.21332026
125	0x3e237a28	0.15964568
126	0x3e611dc3	0.2198401
127	0x3e31b63a	0.1735467
128	0x3e8aca64	0.27107537
129	0x3e635bf9	0.22203054
130	0x3e2bb60d	0.16768666
131	0x3e11f1fc	0.14252466
132	0x3e36b01e	0.17840621
133	0x3e414bf2	0.18876627
134	0x3deb1b84	0.114798576
135	0x3e812a2f	0.25227496
136	0x3e20535f	0.15656804
137	0x3e2dcd87	0.16972934
138	0x3e676c46	0.22599897
139	0x3e8a400c	0.2700199
140	0x3e8bc55f	0.2729902
141	0x3dd11c6a	0.10210498
142	0x3e58c463	0.21168666
143	0x3e1b879e	0.15188453
144	0x3ea32254	0.31862128
145	0x3e5ba40b	0.21449296
146	0x3e3992c6	0.18122396
147	0x3da97596	0.08274381
148	0x3ec199a3	0.37812528
149	0x3db9171e	0.090376124
150	0x3e65512e	0.22394249
151	0x3e57842e	0.21046516
152	0x3ea66c69	0.32504585
153	0x3e23343a	0.15937892
154	0x3da73636	0.08164637
155	0x3dabb6c0	0.08384466
156	0x3e052296	0.13001475
157	0x3e014c62	0.12626794
158	0x3e52d026	0.20587215
159	0x3e93c520	0.28861332
160	0x3d8a9da0	0.06768346
161	0x3e3d74ed	0.18501635
162	0x3e0ebb30	0.13938594
163	0x3e47da86	0.19516954
164	0x3e1831e1	0.14862777
165	0x3d47b112	0.04875285
166	0x3e262195	0.16223748
167	0x3dd69956	0.10478465
168	0x3e9b4228	0.3032391
169	0x3e56d927	0.20981275
170	0x3e9f2c81	0.3108864
171	0x3e5645dd	0.20925088
172	0x3e405563	0.18782572
173	0x3e7121f1	0.23548104
174	0x3e7db334	0.24775392
175	0x3dc49177	0.09598058
176	0x3e14f50f	0.14546607
177	0x3e72c0a3	0.23706298
178	0x3e3a0f4f	0.18169902
179	0x3e3466cd	0.1761734
180	0x3d86da15	0.065845646
181	0x3e9eaf9d	0.30993357
182	0x3e5e4f92	0.21710041
183	0x3df164dd	0.11786816
184	0x3e6649e7	0.22489129
185	0x3e8562bb	0.26051888
186	0x3ea911ac	0.33021295
187	0x3e5c63cc	0.21522444
188	0x3e946063	0.28979787
189	0x3e3993e0	0.18122816
190	0x3e277371	0.16352631
191	0x3d070c55	0.032970745
192	0x3deead7d	0.11654184
193	0x3e4c63ce	0.19959947
194	0x3d888430	0.06665838
195	0x3e828540	0.25492287
196	0x3e2dad2c	0.16960591
197	0x3e6d7439	0.23188867
198	0x3e601ae3	0.21885256
199	0x3d883fac	0.066527694

bn1.running_var f4 [200]
0	0x3ed4c7f8	0.41558814
1	0x3e49cfc4	0.19708163
2	0x3e787e12	0.24266842
3	0x3e94e1f8	0.2907865
4	0x3e831247	0.25599882
5	0x3ebdde92	0.3708387
6	0x3e75a091	0.23987032
7	0x3e86cd5e	0.26328558
8	0x3e5376bb	0.20650761
9	0x3eab5eb1	0.3347068
10	0x3e7fd3cc	0.24983138
11	0x3e803555	0.2504069
12	0x3e952a71	0.29133943
13	0x3e8b8ed6	0.27257413
14	0x3ecb4925	0.39704242
15	0x3e9b381d	0.3031625
16	0x3e600d5a	0.21880093
17	0x3e9e6fb8	0.3094461
18	0x3eb8f6fe	0.3612594
19	0x3e6c908a	0.23102012
20	0x3e81a78f	0.2532315
21	0x3e938c85	0.28818145
22	0x3e69235e	0.22767398
23	0x3e80238c	0.2502712
24	0x3e5d53f7	0.21614061
25	0x3e8adcce	0.27121586
26	0x3e83a07b	0.25708374
27	0x3e5bcaa5	0.21464022
28	0x3e97bc00	0.2963562
29	0x3e8c3ddd	0.27390948
30	0x3e950077	0.29101917
31	0x3e4ff683	0.2030888
32	0x3e8e07d3	0.27740344
33	0x3ee12af2	0.43978077
34	0x3f082fdd	0.53198034
35	0x3ee62831	0.4495254
36	0x3e896dfe	0.2684173
37	0x3e70f99a	0.23532715
38	0x3e7a9c67	0.24473725
39	0x3e922d26	0.2855007
40	0x3ea85e81	0.328846
41	0x3e936e99	0.28795317
42	0x3ea7e629	0.32792786
43	0x3e6bae55	0.23015721
44	0x3e918bea	0.28427058
45	0x3e4e74d6	0.20161757
46	0x3e6d9409	0.23201002
47	0x3ea3b2fd	0.31972495
48	0x3e83a3cf	0.25710914
49	0x3e8f909d	0.2804002
50	0x3e4fb481	0.202837
51	0x3e8768fe	0.2644729
52	0x3e95cafe	0.29256433
53	0x3e90184f	0.28143546
54	0x3e698c56	0.2280744
55	0x3e8d7fde	0.27636617
56	0x3e6b5570	0.2298181
57	0x3e7aa45c	0.2447676
58	0x3e4d6897	0.20059429
59	0x3ed259ea	0.41084224
60	0x3e842ca4	0.25815308
61	0x3ee6c7b8	0.45074248
62	0x3ef6bf59	0.48192862
63	0x3ed0fb6e	0.40816826
64	0x3e8d5e10	0.27610826
65	0x3e5d9eee	0.21642658
66	0x3e984d8f	0.29746673
67	0x3e60f699	0.2196907
68	0x3e48f4bf	0.19624613
69	0x3e67199c	0.22568363
70	0x3e69ca82	0.22831157
71	0x3e8cd4d3	0.27506122
72	0x3e8b5fe2	0.2722159
73	0x3e69e216	0.22840151
74	0x3e5068fc	0.20352548
75	0x3e8c6f94	0.27428877
76	0x3e42d4f0	0.19026542
77	0x3e900a1d	0.28132716
78	0x3e73ca8d	0.23807736
79	0x3e5ca7ec	0.21548432
80	0x3e9caa3e	0.30598634
81	0x3ec6b3b7	0.38808987
82	0x3e91226d	0.28346577
83	0x3e86a9ca	0.26301414
84	0x3e66d49c	0.22542042
85	0x3e94f2b9	0.29091433
86	0x3e99a53a	0.3000887
87	0x3ec87606	0.39152545
88	0x3e832f8d	0.25622216
89	0x3e8fc4a1	0.28079703
90	0x3e948d80	0.29014206
91	0x3eaf703e	0.34265321
92	0x3e78f1f5	0.2431105
93	0x3e88b66e	0.26701683
94	0x3e91c8e8	0.28473592
95	0x3e854e3d	0.26036254
96	0x3e9df548	0.30851197
97	0x3e737920	0.23776674
98	0x3e8c4a36	0.27400368
99	0x3e87157d	0.26383582
100	0x3e49d9f8	0.19712055
101	0x3e87e489	0.26541546
102	0x3e562710	0.20913339
103	0x3e7532f5	0.2394522
104	0x3e5e4a08	0.21707928
105	0x3e55d3fa	0.20881644
106	0x3e7b1513	0.24519758
107	0x3e709fb4	0.23498422
108	0x3e8431a2	0.25819117
109	0x3e9d52ec	0.30727327
110	0x3e54e8ba	0.20791903
111	0x3e92f73a	0.28704244
112	0x3efc0b3e	0.49227327
113	0x3e863d8d	0.26218835
114	0x3eccd793	0.4000822
115	0x3e7db3c2	0.24775603
116	0x3eb12e81	0.34605792
117	0x3e73390f	0.23752235
118	0x3e93e2ea	0.2888406
119	0x3eaab895	0.3334395
120	0x3e7a4c47	0.2444316
121	0x3e4d7caa	0.20067087
122	0x3e997b39	0.29976824
123	0x3e659053	0.22418337
124	0x3e7c541e	0.24641463
125	0x3e872d2d	0.26401654
126	0x3ea9be10	0.3315282
127	0x3e713c12	0.23558071
128	0x3e96d674	0.2946049
129	0x3ec09e19	0.3762062
130	0x3e92b15e	0.28650945
131	0x3e7319a7	0.23740254
132	0x3e8899e0	0.26679897
133	0x3e96d102	0.29456335
134	0x3e6908d7	0.22757278
135	0x3e8ae604	0.27128613
136	0x3e71f5dd	0.23628946
137	0x3ea4873a	0.3213442
138	0x3e7e8c1c	0.24858135
139	0x3eae5e0b	0.34056124
140	0x3eb3e597	0.351361
141	0x3e5ecb7d	0.21757312
142	0x3e9eecc8	0.31040025
143	0x3e887990	0.26655245
144	0x3ed49067	0.4151642
145	0x3e946a97	0.28987572
146	0x3e87ed4c	0.2654823
147	0x3e4f724b	0.20258443
148	0x3eaa60f9	0.3327711
149	0x3e56f5af	0.20992158
150	0x3e8efec1	0.27928737
151	0x3e98561e	0.29753202
152	0x3e9a1925	0.3009731
153	0x3e73b254	0.23798496
154	0x3e5fd7f2	0.2185972
155	0x3e552a34	0.2081688
156	0x3e686b89	0.22697271
157	0x3e839030	0.25695944
158	0x3e9a383f	0.30121037
159	0x3ec07baf	0.37594363
160	0x3e56de79	0.20983304
161	0x3e722b93	0.23649435
162	0x3e835721	0.25652412
163	0x3e9f32e4	0.31093514
164	0x3e709a7a	0.23496428
165	0x3e478dd3	0.19487695
166	0x3e84387b	0.2582434
167	0x3e64c6c7	0.22341453
168	0x3ece613c	0.4030856
169	0x3e9067ee	0.28204292
170	0x3eba68ee	0.3640818
171	0x3e946c0e	0.2898869
172	0x3e95c9c8	0.2925551
173	0x3ea6e2a3	0.32594785
174	0x3e88fc23	0.26754865
175	0x3e5f144d	0.21785088
176	0x3e74350b	0.2384836
177	0x3e8ba5b8	0.2727487
178	0x3e79835e	0.24366519
179	0x3e6f5638	0.23372734
180	0x3e647441	0.22309972
181	0x3e92e6e7	0.2869179
182	0x3e816f9b	0.2528046
183	0x3e86d4d2	0.26334244
184	0x3e6e5cfc	0.23277658
185	0x3e8f68de	0.28009695
186	0x3e8a2c68	0.26987004
187	0x3e91fbcf	0.28512427
188	0x3e9adcef	0.30246684
189	0x3e7ec604	0.24880224
190	0x3e719198	0.23590696
191	0x3e46cb2e	0.19413444
192	0x3e657046	0.2240611
193	0x3ea3dd16	0.32004613
194	0x3e56cb12	0.20975903
195	0x3eaf35f3	0.34220847
196	0x3e7cd416	0.2469028
197	0x3ec58a62	0.3858214
198	0x3e82a643	0.25517473
199	0x3e4f9579	0.20271863

bn2.weight f4 [20]
0	0x3fe07439	1.7535468
1	0x400c1372	2.1886868
2	0x400bd506	2.184877
3	0x3fdc80c8	1.7226801
4	0x400d5c19	2.2087462
5	0x3fe4a08a	1.7861493
6	0x400bf855	2.187032
7	0x3fe8f98a	1.8201153
8	0x3fe6d14d	1.8032624
9	0x400c6468	2.1936283
10	0x400be280	2.1856995
11	0x400c4b83	2.1921089
12	0x3fc8e3de	1.569454
13	0x3fd8ccff	1.693756
14	0x400c6c73	2.1941192
15	0x400bcc44	2.1843424
16	0x400bbe63	2.1834953
17	0x3fded553	1.7408851
18	0x400ac1d9	2.1680815
19	0x4063e11c	3.5606146

bn2.bias f4 [20]
0	0xbf45c178	-0.77248335
1	0x3f47f313	0.78105277
2	0x3f420ab1	0.75797564
3	0xbf3c9ac0	-0.7367363
4	0x3f5dd557	0.86653656
5	0xbf4e4f25	-0.80589515
6	0x3f437e18	0.7636428
7	0xbf53ef70	-0.8278723
8	0xbf5084f8	-0.81452894
9	0x3f472883	0.7779619
10	0x3f60fff7	0.8789057
11	0x3f46b8b7	0.776256
12	0xbf450f15	-0.7697614
13	0xbf33a678	-0.70175886
14	0x3f5ee1bc	0.87063193
15	0x3f426ef8	0.75950575
16	0x3f450e27	0.7697472
17	0xbf429bb4	-0.76018834
18	0x3f4256a8	0.75913477
19	0xbf39ec5c	-0.7262628

bn2.running_mean f4 [20]
0	0x3e70d1da	0.23517552
1	0x3e8085d7	0.25102112
2	0x3e5e4ae5	0.21708257
3	0x3e92ea39	0.28694323
4	0x3e508ece	0.20366976
5	0x3e46d996	0.1941894
6	0x3e5d10de	0.21588466
7	0x3e6e2cb1	0.23259236
8	0x3e7c71c3	0.24652772
9	0x3e954c2d	0.2915968
10	0x3e203be2	0.15647843
11	0x3e829703	0.25505838
12	0x3eafde40	0.3434925
13	0x3e8f69b0	0.2801032
14	0x3e717828	0.23580992
15	0x3e91e04f	0.28491446
16	0x3e9da598	0.307904
17	0x3e5d5fb3	0.21618538
18	0x3ea897aa	0.3292821
19	0x3eabfc8e	0.3359112

bn2.running_var f4 [20]
0	0x3e84b852	0.25921875
1	0x3f159d14	0.5844281
2	0x3e9e20a1	0.3088427
3	0x3ebb1607	0.36540243
4	0x3eb0f5e4	0.345626
5	0x3e947b20	0.29000187
6	0x3ef4563b	0.4772204
7	0x3e901a04	0.28144848
8	0x3ea7dd95	0.3278624
9	0x3f020266	0.5078491
10	0x3e817d14	0.2529074
11	0x3ef1f5a3	0.47257718
12	0x3ed52a85	0.41634002
13	0x3ecc8573	0.39945564
14	0x3eafeed7	0.34361908
15	0x3eb77915	0.35834566
16	0x3f1a2ec5	0.60227615
17	0x3e85bcf7	0.2612073
18	0x3f0cb3b0	0.5496168
19	0x3edd8c81	0.43271258
