Results/NN_MLP_MLs/MLP_Ensemble/Model_Results/Macros/test3/best_model_1.pt (torch, 53490 bytes, 14 tensors)

country_embedding.weight f4 [8, 10]
-1.1622657 -0.3165131 -1.3656749 -1.1004664 -0.6456578 -1.3029138 -1.7671266 -2.530864
-0.16626258 -0.46766567 -0.23102427 0.19671072 -0.748111 2.2850304 -0.7336153 0.14033905
-1.245992 -1.6835165 1.2805636 -0.33029145 1.3329118 0.82700515 -1.1596595 1.2194648
0.40979758 -0.799221 -2.6797688 -1.8532847 0.5054708 -1.012686 0.41966382 0.89581645
0.66494757 1.179737 -0.75872916 -1.9933565 -0.9837155 -1.1534587 1.3808115 -1.6714349
1.1482729 1.0215603 -1.4894409 1.2192559 1.9634972 -1.8365121 0.38537407 -1.8920752
0.13956156 -0.63972944 1.6236019 0.38210672 -0.73004556 2.0584245 0.49865496 1.3647993
-1.3823997 -0.40376386 1.4021931 -2.18023 1.801412 -0.29622945 -3.7541156 -0.569191
-0.4197423 -1.6620886 -0.6842432 -1.1213833 -0.15294716 -0.045072038 2.6934667 0.9227643
-1.6654283 0.83410037 -2.0502074 -1.7109244 -1.5017698 -1.4987762 1.4497014 -2.0190823
00000000: 1fc5 94bf 010e a2be 6fce aebf 15dc 8cbf
00000010: d449 25bf e1c5 a6bf 3431 e2bf adf9 21c0
00000020: bd40 2abe e071 efbe a091 6cbe 896e 493e
00000030: 3484 3fbf f03d 1240 36ce 3bbf 0ab5 0f3e
00000040: aa7c 9fbf 787d d7bf 82e9 a33f f61b a9be
00000050: db9c aa3f 9cb6 533f b96f 94bf 6c17 9c3f
00000060: fdd0 d13e bf99 4cbf 5581 2bc0 6f38 edbf
00000070: 8966 013f b29f 81bf 2dde d63e 3a54 653f
00000080: 013a 2a3f 9f01 973f 133c 42bf 4e26 ffbf
00000090: c7d4 7bbf 89a4 93bf 6ebe b03f 94f1 d5bf
000000a0: 9bfa 923f 7dc2 823f 00a6 bebf 9410 9c3f
000000b0: e053 fb3f d412 ebbf c04f c53e 852f f2bf
000000c0: 3ae9 0e3e 4fc5 23bf 30d2 cf3f 7ea3 c33e
000000d0: 44e4 3abf 3abd 0340 b44f ff3e beb1 ae3f
000000e0: 79f2 b0bf 23ba cebe 107b b33f e388 0bc0
000000f0: ab94 e63f 63ab 97be 6e43 70c0 80b6 11bf
00000100: 76e8 d6be 52bf d4bf 902a 2fbf 7d89 8fbf
00000110: 2e9e 1cbe 759d 38bd c261 2c40 483a 6c3f
00000120: c12c d5bf 9a87 553f 9936 03c0 92ff dabf
00000130: fe39 c0bf e6d7 bfbf d18f b93f a538 01c0

fc1.weight f4 [200, 35]
0.020134402 -0.1100673 0.010279506 0.039089516 0.042973477 0.009494866 -0.097604714 0.06803344
-0.045174394 0.112653345 0.05434081 -0.057519663 -0.023187928 0.14780521 -0.06038522 -0.10393374
0.054955423 0.047180828 -0.07190109 0.007651878 0.09738591 0.07506405 0.14030151 0.074438274
-0.07592712 -0.16169742 0.23621951 -0.09008023 0.05391109 -0.070461564 0.04654421 0.0815332
0.17163026 -0.05389401 0.112757355 2.0108275 2.0229728 0.10500846 0.5966528 -0.19809192
0.40463594 0.56863487 -0.19049296 -0.24865963 1.6561768 -0.09355657 0.39241818 -0.30125564
0.58208126 0.59534687 -0.5172156 0.03914453 1.5145563 0.11200889 0.66453683 -0.024455832
0.585346 0.4995825 -0.41611484 -0.21077333 0.78254974 0.69813615 -0.9948002 1.0213678
-0.56741023 -0.7103129 -0.8132705 -0.874255 1.0905894 -0.8831421 1.3847558 2.104303
-0.019541273 0.56625634 -0.107483186 0.18312247 0.38445923 -0.24602035 0.20434605 1.5432366
-0.12631357 0.43056116 -0.019016849 0.37946558 0.2765362 0.087929495 0.14703004 1.3611286
-0.13470379 0.26559576 0.0056768153 0.33314657 0.40318242 0.14253207 0.14377122 1.1358857
0.9724016 -0.80472386 0.9854503 -0.58318895 -0.72858715 -0.8044046 -0.91870064 1.0687797
-1.1859512 2.5308175 -1.1847305 -0.13175662 0.23031014 -0.5018609 -0.31365684 -0.72139925
-0.28204226 0.35690227 -0.59083486 -0.11890031 0.033198606 0.005228702 -0.20766316 -0.8546947
-0.55019766 0.102506205 -0.34762043 -0.065568134 -0.0793808 0.087965816 -0.38407603 -0.7804104
0.20608203 -0.3316237 0.4214075 0.115805484 0.18671702 0.8711411 -0.23545624 1.1583143
-0.3124567 0.5928023 1.0150186 -0.3784278 1.6630181 2.1897771 -0.1329421 0.5895807
-0.2993941 0.23575886 0.49983314 -0.1913284 0.07451542 1.8570236 -0.03429931 0.40488207
-0.39275837 0.2987089 0.35501462 -0.31143105 -0.1015179 1.6096623 0.10593716 0.39485508
-0.6184255 0.31060207 0.5095093 -0.1548826 -0.14110488 0.95240456 0.41948667 -0.774473
1.0378428 -0.19544235 -0.15630893 -0.7012423 -0.57067865 1.1165705 -0.9873309 1.4079993
2.077824 0.10390904 0.65957755 0.36134914 0.50899094 0.69541764 -0.36117673 0.39149132
1.6825943 -0.11228058 0.5820342 0.13147815 0.4897414 0.32807964 -0.06858263 0.41202772
1.4822655 0.14019795 0.39698926 0.28476304 0.17807636 0.43911806 -0.113948286 0.10709485
0.84486073 0.89357406 -0.42236084 1.1753412 -0.77821594 -0.5722279 -0.9004371 -0.5030472
1.0462236 -1.0244482 2.5692883 -1.131626 0.095195025 0.3844997 -0.46581098 -0.53804094
-0.59494483 0.1022294 0.24482569 -0.7340488 -0.025213834 0.041917935 -0.3283605 -0.4850043
-0.5861423 -0.29073557 0.38426775 -0.2452481 0.032248095 0.08652221 -0.41566813 -0.4813542
-0.7707819 0.5208339 0.00011452263 0.33700842 0.11267866 0.3134859 0.94309497 -0.24236004
1.000761 -0.38812095 0.6034057 0.93552905 -0.46943134 1.7897012 1.916104 0.038346406
0.2803574 -0.6845535 0.54112 0.45841473 -0.21738274 -0.13765107 1.6710163 -0.049915273
00000000: e7f0 a43c f76a e1bd 606b 283c 541c 203d
00000010: f504 303d 5b90 1b3c fbe4 c7bd 1e55 8b3d
00000020: c908 39bd ccb6 e63d 7894 5e3d bd99 6bbd
00000030: 9cf4 bdbc 405a 173e 7e56 77bd 36db d4bd
00000040: f018 613d af40 413d e140 93bd 9bbc fa3b
00000050: 4472 c73d 2ebb 993d 33ab 0f3e 1873 983d
00000060: ae7f 9bbd 0294 25be 87e3 713e fc7b b8bd
00000070: e0d1 5c3d 274e 90bd 24a5 3e3d e1fa a63d
00000080: d8bf 2f3e f7bf 5cbd 54ed e63d 66b1 0040
00000090: 6378 0140 ad0e d73d 3dbe 183f 9cd8 4abe
000000a0: 712c cf3e 0e92 113f 9610 43be a1a0 7ebe
000000b0: 9afd d33f 969a bfbd 09eb c83e 2e3e 9abe
000000c0: 4703 153f a768 183f 3e68 04bf 0456 203d
000000d0: fbdc c13f eb64 e53d 161f 2a3f 9957 c8bc
000000e0: 3cd9 153f 47c9 ff3e 010d d5be f7d4 57be
000000f0: 2e55 483f 0db9 323f 3aab 7ebf 2ebc 823f
00000100: cc41 11bf 11d7 35bf 7f32 50bf 2dcf 5fbf
00000110: 6f98 8b3f 9a15 62bf ae3f b13f e6ac 0640
00000120: 0515 a0bc 2df6 103f 2520 dcbd 7584 3b3e
00000130: d7d7 c43e c2ec 7bbe 1740 513e c788 c53f
00000140: 5858 01be 8372 dc3e 39c9 9bbc 5049 c23e
00000150: 2796 8d3e 6114 b43d 0b8f 163e 7639 ae3f
00000160: caef 09be 2bfc 873e 9404 ba3b 3092 aa3e
00000170: ed6d ce3e edf3 113e c338 133e b464 913f
00000180: 50ef 783f 6202 4ebf 7946 7c3f df4b 15bf
00000190: b084 3abf 76ed 4dbf f72f 6bbf c6cd 883f
000001a0: 40cd 97bf eaf8 2140 40a5 97bf 35eb 06be
000001b0: 6cd6 6b3e f579 00bf a197 a0be 9fad 38bf
000001c0: d867 90be e5bb b63e f440 17bf 0182 f3bd
000001d0: 43fb 073d 8855 ab3b a7a5 54be 46cd 5abf
000001e0: c1d9 0cbf c6ee d13d 4efb b1be 9648 86bd
000001f0: 6792 a2bd 6c27 b43d 9da5 c4be fac8 47bf
00000200: 2b07 533e 95ca a9be b9c2 d73e 6d2b ed3d
00000210: bf32 3f3e 1a03 5f3f 711b 71be a543 943f
00000220: 53fa 9fbe e4c1 173f 21ec 813f 4ac1 c1be
00000230: c7dd d43f 4f25 0c40 f921 08be c3ee 163f
00000240: 2f4a 99be c56a 713e 21ea ff3e 98eb 43be
00000250: 8a9b 983d f3b2 ed3f 6f7d 0cbd b44c cf3e
00000260: a017 c9be 5ff0 983e 7ac4 b53e e473 9fbe
00000270: 9ee8 cfbd 6a09 ce3f 95f5 d83d 722a ca3e
00000280: 2251 1ebf 3c07 9f3e 346f 023f 8b99 1ebe
00000290: cc7d 10be c9d0 733f f5c6 d63e dd43 46bf
000002a0: 08d8 843f 0a22 48be 730f 20be 9e84 33bf
000002b0: ff17 12bf c8eb 8e3f b8c1 7cbf 5239 b43f
000002c0: 12fb 0440 43ce d43d 13da 283f c102 b93e
000002d0: 3b4d 023f e406 323f 28ec b8be 8d71 c83e
000002e0: 405f d73f 5cf3 e5bd 3100 153f 35a2 063e
000002f0: 63bf fa3e 0efa a73e 0d75 8cbd 4cf5 d23e
00000300: e0ba bd3f 0d90 0f3e 2d42 cb3e 76cc 913e
00000310: a659 363e 15d4 e03e b85d e9bd 8b54 db3d
00000320: cb48 583f 45c1 643f ae3f d8be 9571 963f
00000330: 2939 47bf 877d 12bf 0c83 66bf b4c7 00bf
00000340: a8ea 853f 1e21 83bf 386f 2440 1fd9 90bf
00000350: 9cf5 c23d 25dd c43e c77e eebe 0dbd 09bf
00000360: 4e4e 18bf a65d d13d 96b3 7a3e 9fea 3bbf
00000370: 3e8d cebc 24b2 2b3d de1e a8be 7c52 f8be
00000380: 6c0d 16bf 4bdb 94be bebe c43e 5122 7bbe
00000390: 9416 043d 8e32 b13d 74d2 d4be 0f74 f6be
000003a0: f651 45bf 5f55 053f de2b f038 5e8c ac3e
000003b0: 12c4 e63d 3981 a03e ac6e 713f 3b2d 78be
000003c0: f018 803f cab7 c6be cc78 1a3f d57e 6f3f
000003d0: 4e59 f0be ee14 e53f e542 f53f 1f11 1d3d
000003e0: 018b 8f3e e63e 2fbf d786 0a3f 56b5 ea3e
000003f0: 9599 5ebe 67f4 0cbe dde3 d53f f573 4cbd

fc1.bias f4 [200]
-0.1564839 1.1045905 0.8517839 -0.10606685 0.9441987 0.8842791 -0.12028436 0.7444452
-0.015476409 1.0391678 0.7614742 0.75393325 -0.16766328 -0.17768331 0.7279531 0.8674722
-0.13434348 0.98786783 0.95343214 1.0862999 1.0499029 1.0648373 -0.24251623 -0.2825245
0.89443606 0.88365436 0.92743105 -0.25201488 -0.19533755 -0.17052358 -0.14107564 -0.33917603
1.5953536 -0.18136966 1.170537 -0.2477619 1.0081748 1.1848418 0.9141158 -0.06907271
0.21308209 0.0769522 1.1177647 -0.16697372 1.0496019 1.0010979 -0.25644383 -0.19421524
-0.12961759 0.9292023 -0.4327828 -0.19553837 -0.3022599 -0.056298647 0.7593978 0.947225
1.2152078 0.97081774 -0.08991757 1.0060561 1.6334575 -0.30872995 0.8318419 0.7093549
-0.14892472 0.97098804 -0.113214366 -0.26077595 -0.2750703 0.8914999 1.1909555 1.1857233
-0.05354027 -0.2923454 0.97477394 1.254923 0.9952037 0.8487116 -0.2423058 -0.061791506
1.038721 0.9885941 -0.5376184 -0.11271766 -0.25251147 1.0499715 1.1593022 0.92824894
-0.1627631 0.38330325 1.1001551 0.19034654 0.91195405 -0.18704456 -0.12324873 -0.09038419
-0.085103415 -0.16098256 0.99370533 1.1921406 0.84048676 -0.1940102 1.0643222 0.83276856
-0.12317781 1.1199074 -0.2510914 -0.10321885 0.95607674 -0.06441855 1.0100054 1.08396
-0.18491244 0.88344496 0.77386165 0.94031084 -0.24707629 1.1436782 -0.10269094 -0.1932927
0.8458157 -0.10206977 -0.17554443 0.98581576 0.88928276 -0.28821173 -0.25501305 -0.14665858
-0.3151849 0.8047513 1.1109829 1.5310823 1.0477386 0.6340193 1.0560523 -0.2310841
-0.1143778 0.56374335 0.84629595 0.16099542 0.93416584 0.84187 1.031461 -0.2660147
1.1952878 -0.15352234 -0.06713838 0.85022897 0.9770115 -0.08734874 -0.22379225 -0.27819973
0.8611152 1.0950826 0.99506515 -0.2911174 1.0154324 0.8589296 -0.21317029 -0.10469615
-0.2627444 0.9533014 0.9886216 0.8884639 -0.19468291 0.9344573 -0.060721297 -0.23986894
-0.26693398 0.95870715 0.9683942 0.9514835 1.1057566 0.8862891 -0.08881771 -0.03528973
0.7849791 1.0585967 1.0820519 1.144475 -0.1356359 -0.18514384 -0.21669623 1.0727834
-0.050797053 -0.07779171 -0.04242579 -0.30012968 -0.2868981 -0.067548856 1.052166 0.9925429
-0.26562893 1.2344549 -0.26051688 0.9430741 0.8762147 0.7323884 -0.107929654 0.7746967
00000000: 513d 20be 3963 8d3f 820e 5a3f 9439 d9bd
00000010: 02b7 713f 1d60 623f a657 f6bd f693 3e3f
00000020: c490 7dbc 7303 853f f9ef 423f c501 413f
00000030: ecaf 2bbe 9df2 35be 225b 3a3f a812 5e3f
00000040: 5691 09be e8e4 7c3f 2114 743f e00b 8b3f
00000050: 3863 863f 974c 883f 2d56 78be 0da7 90be
00000060: c3f9 643f 2c37 623f 1f6c 6d3f 1808 81be
00000070: 9106 48be bc9d 2ebe 2276 10be 7ba8 adbe
00000080: 8c34 cc3f f8b8 39be 28d4 953f 4cb5 7dbe
00000090: df0b 813f e5a8 973f 7e03 6a3f fe75 8dbd
000000a0: 3132 5a3e 1d99 9d3d ea12 8f3f 29fb 2abe
000000b0: 5b59 863f fa23 803f 9b4c 83be 5ce0 46be
000000c0: 79ba 04be 34e0 6d3f b595 ddbe 363b 48be
000000d0: cfc1 9abe 6999 66bd e567 423f 567d 723f
000000e0: ee8b 9b3f 8387 783f b426 b8bd 72c6 803f
000000f0: 2315 d13f da11 9ebe 97f3 543f 4898 353f
00000100: b97f 18be ac92 783f efdc e7bd 6d84 85be
00000110: 04d6 8cbe 5639 643f 3b71 983f c8c5 973f
00000120: 0b4d 5bbd 4cae 95be c98a 793f 51a1 a03f
00000130: abc5 7e3f 2a45 593f 031f 78be 1719 7dbd
00000140: cff4 843f 8114 7d3f 5ca1 09bf 84d8 e6bd
00000150: 2f49 81be 7765 863f 0464 943f b9a1 6d3f
00000160: 5fab 26be 5340 c43e e2d1 8c3f 34ea 423e
00000170: d275 693f 9c88 3fbe d569 fcbd 591b b9bd
00000180: b34a aebd 9dd8 24be 7963 7e3f 1098 983f
00000190: 242a 573f 9caa 46be b63b 883f 5230 553f
000001a0: a644 fcbd 2059 8f3f 0d8f 80be 6864 d3bd
000001b0: 72c1 743f dfed 83bd db47 813f 34bf 8a3f
000001c0: b059 3dbe 7329 623f cc1b 463f 36b8 703f
000001d0: 9101 7dbe 0c64 923f a14f d2bd 86ee 45be
000001e0: 6187 583f f509 d1bd ebc1 33be 6c5e 7c3f
000001f0: 09a8 633f 7d90 93be 1291 82be ab2d 16be
00000200: ea5f a1be 2e04 4e3f b034 8e3f 81fa c33f
00000210: 4c1c 863f 174f 223f b92c 873f 4fa1 6cbe
00000220: e83e eabd 7c51 103f daa6 583f fcdb 243e
00000230: 7e25 6f3f cb84 573f ea06 843f 1433 88be
00000240: 31ff 983f f634 1dbe d97f 89bd 9ba8 593f
00000250: 6d1d 7a3f e5e3 b2bd cc29 65be 3270 8ebe
00000260: 0c72 5c3f ab2b 8c3f 97bc 7e3f 570d 95be
00000270: b0f9 813f cfe2 5b3f 5049 5abe ef6a d6bd
00000280: 6f86 86be 900b 743f 4e16 7d3f 5f72 633f
00000290: f55a 47be 9838 6f3f e5b6 78bd 34a0 75be
000002a0: 92ab 88be d56d 753f afe8 773f 6c94 733f
000002b0: 6f89 8d3f d8e3 623f 0fe6 b5bd f78b 10bd
000002c0: 64f4 483f 1980 873f ad80 8a3f 287e 923f
000002d0: 23e4 0abe 5996 3dbe 9ee5 5dbe f750 893f
000002e0: 9210 50bd 4351 9fbd aac6 2dbd 99aa 99be
000002f0: 4fe4 92be 0e57 8abd 60ad 863f 4b17 7e3f
00000300: 8400 88be 9e02 9e3f 7862 85be 4e6d 713f
00000310: 9b4f 603f ce7d 3b3f 390a ddbd 8652 463f

fc2.weight f4 [20, 200]
-0.7814539 1.1022743 1.1224077 -1.7683382 1.0695448 0.9968732 -1.8618044 1.0338773
-0.7130112 0.9920812 0.96547747 1.062214 -0.8386579 -0.7429547 1.0195282 1.0749856
-2.012243 2.2946432 1.099309 1.0698156 1.0487125 0.9993405 -0.7561294 -0.71958965
1.1269678 1.0801338 0.9791175 -0.8203551 -0.8304548 -0.7390099 -0.7754883 -1.4293538
2.3996317 -0.7427913 0.96060234 -0.78280264 1.1270702 1.020111 1.0534388 -0.7139047
-3.2250087 -0.9103864 1.1018399 -0.66613823 1.0273226 0.9893756 -0.8388885 -0.85572314
-2.0115182 1.0063423 -1.1550548 -1.8497549 -0.7582982 -0.807056 1.066911 1.2214273
1.0111195 1.022759 -0.82121867 1.0630834 2.3819659 -0.8562897 1.0176957 -2.2730064
-0.7767782 0.9858783 -0.7038097 -0.7421447 -0.74305063 1.0835279 0.9921087 0.94897354
-0.70636284 -0.83575773 1.0063007 1.0167146 1.1214325 1.0643219 -0.7907259 -0.76358545
1.0576428 1.0102203 -1.5336816 -1.6781175 -0.80042565 1.0797778 1.0557401 1.0668396
-0.7983348 -2.8668022 1.0373375 -3.099444 1.0353317 -1.850974 -0.7026857 -0.7354851
-0.7024568 -0.79764515 1.0374391 1.0215526 1.0206431 -0.7498581 1.0975922 1.0892682
-0.74346966 1.0258626 -0.748358 -0.6933729 1.0500872 -0.7320589 1.0304048 1.0472721
-0.7874804 1.04097 1.0909145 1.0564717 -0.9394375 1.0663521 -2.3650503 -0.75426906
1.08629 -0.754132 -1.4118254 1.2179068 1.0977166 -1.6872145 -0.7334974 -0.69055724
-0.7243819 1.057254 1.0877496 2.2994103 1.056571 1.1012719 1.2491941 -0.7598365
-0.814174 -3.1418383 1.1074033 -3.0008698 1.0792816 1.0859027 0.9934705 -0.67941386
0.9808287 -0.75174326 -2.4371333 1.2014467 1.2823398 -0.8113756 -0.8216916 -0.7897181
1.1435366 0.9992677 1.0006157 -0.74732697 1.071017 0.9738701 -0.7217292 -0.722484
-0.7062401 1.0322804 0.9847978 0.9803609 -0.8256943 1.0115153 -0.81129766 -0.82533574
-0.6786651 0.9780403 1.2360332 1.0762314 1.0443794 1.093038 -0.75092524 -0.75925285
1.1019231 0.97172093 1.0838381 0.9907008 -0.6548756 -0.75249594 -0.80729574 1.0118105
-0.78941464 -0.6732911 -0.7421824 -1.600329 -0.81477916 -0.77708584 1.002575 1.1097598
-0.85096115 1.1085151 -0.7485068 1.0689546 1.0275102 1.2455134 -0.82737064 1.0919554
-0.7499886 0.94836324 1.0411264 -1.7684395 1.1196517 0.9688757 -1.7180184 1.0603087
-0.8072012 1.0149736 0.9793006 1.0524468 -0.73725826 -0.7454338 1.0405062 0.96481764
-1.9439827 2.267104 1.0137872 1.0134348 0.9496363 1.0485885 -0.7545331 -0.78343534
1.1059148 1.0906388 1.0415088 -0.736055 -0.77989775 -0.6918677 -0.6626153 -1.4505736
2.3449786 -0.79916763 1.0324293 -0.699046 1.0750133 0.9975453 0.98415637 -0.7235317
-3.1489222 -0.8707433 1.0256119 -0.73537076 1.0820746 0.9387063 -0.67709786 -0.76295894
-2.0541103 1.0388399 -1.1596129 -1.7601857 -0.6991778 -0.6551326 1.0105307 1.1270425
00000000: 5d0d 48bf 5317 8d3f 0eab 8f3f e858 e2bf
00000010: d8e6 883f 1533 7f3f 9b4f eebf 1756 843f
00000020: e787 36bf 09f9 7d3f 8829 773f a1f6 873f
00000030: 49b2 56bf 4732 3ebf e67f 823f 2199 893f
00000040: 97c8 00c0 6fdb 1240 28b6 8c3f b8ef 883f
00000050: 363c 863f c7d4 7f3f b291 41bf 0737 38bf
00000060: 7b40 903f d341 8a3f 72a7 7a3f cb02 52bf
00000070: b098 54bf c12f 3dbf 6786 46bf 11f5 b6bf
00000080: 9193 1940 9227 3ebf 09ea 753f c165 48bf
00000090: d643 903f ff92 823f 15d7 863f 75c2 36bf
000000a0: 8b66 4ec0 150f 69bf 1709 8d3f 0988 2abf
000000b0: 4f7f 833f b847 7d3f 66c1 56bf ac10 5bbf
000000c0: b7bc 00c0 d3cf 803f d6d8 93bf c5c4 ecbf
000000d0: d51f 42bf 399b 4ebf 8a90 883f bb57 9c3f
000000e0: 5d6c 813f c4e9 823f 633b 52bf 1e13 883f
000000f0: 2172 1840 cd35 5bbf da43 823f f078 11c0
00000100: f0da 46bf 8562 7c3f df2c 34bf 32fd 3dbf
00000110: 9138 3ebf 0bb1 8a3f d6fa 7d3f eeef 723f
00000120: 32d4 34bf 38f4 55bf 76ce 803f b423 823f
00000130: 1a8b 8f3f b33b 883f 036d 4abf 567a 43bf
00000140: d760 873f e64e 813f ae4f c4bf 8ecc d6bf
00000150: b2e8 4cbf 2936 8a3f 7e22 873f 338e 883f
00000160: ab5f 4cbf b079 37c0 7ac7 843f 4a5d 46c0
00000170: c085 843f b7ec ecbf 36e3 33bf c048 3cbf
00000180: 35d4 33bf 7932 4cbf ceca 843f 3cc2 823f
00000190: 6fa4 823f b3f6 3fbf e77d 8c3f 246d 8b3f
000001a0: 0754 3ebf 774f 833f 6494 3fbf e380 31bf
000001b0: 4269 863f 3668 3bbf 4ee4 833f 030d 863f
000001c0: 5198 49bf 813e 853f 16a3 8b3f 773a 873f
000001d0: fa7e 70bf 3a7e 883f fc5c 17c0 c717 41bf
000001e0: 8d0b 8b3f cb0e 41bf b2b6 b4bf 5fe4 9b3f
000001f0: fa81 8c3f a5f6 d7bf 7cc6 3bbf 5cc8 30bf
00000200: 1871 39bf 1954 873f 613b 8b3f 8a29 1340
00000210: b83d 873f 7af6 8c3f 98e5 9f3f a584 42bf
00000220: b56d 50bf e113 49c0 64bf 8d3f 400e 40c0
00000230: e625 8a3f dcfe 8a3f 1554 7e3f 11ee 2dbf
00000240: 9717 7b3f 3f72 40bf fef9 1bc0 01c9 993f
00000250: b623 a43f 50b6 4fbf 615a 52bf f72a 4abf
00000260: 685f 923f 02d0 7f3f 2d14 803f d250 3fbf
00000270: 1617 893f 8d4f 793f 3fc3 38bf b6f4 38bf
00000280: 27cc 34bf c421 843f b51b 7c3f eff8 7a3f
00000290: b460 53bf 5579 813f 34b1 4fbf 3449 53bf
000002a0: ffbc 2dbf d960 7a3f 5636 9e3f f3c1 893f
000002b0: 39ae 853f abe8 8b3f a33c 40bf 655e 42bf
000002c0: d10b 8d3f b4c2 783f 35bb 8a3f 919e 7d3f
000002d0: eda5 27bf 93a3 40bf efaa 4ebf 0283 813f
000002e0: 1417 4abf ce5c 2cbf aaff 3dbf 95d7 ccbf
000002f0: 5e95 50bf 19ef 46bf 6154 803f 9c0c 8e3f
00000300: 97d8 59bf d3e3 8d3f 249e 3fbf 81d3 883f
00000310: 7485 833f fc6c 9f3f 90ce 53bf 32c5 8b3f
00000320: 41ff 3fbf efc7 723f a143 853f 3a5c e2bf
00000330: bf50 8f3f 3d08 783f 07e8 dbbf 32b8 873f
00000340: bda4 4ebf a8ea 813f 72b3 7a3f 94b6 863f
00000350: f5bc 3cbf c0d4 3ebf 4f2f 853f 4afe 763f
00000360: 6dd4 f8bf 3b18 1140 c7c3 813f 3bb8 813f
00000370: 5d1b 733f 2638 863f 1529 41bf 388f 48bf
00000380: 9e8e 8d3f 0d9a 8b3f 2950 853f 1a6e 3cbf
00000390: 61a7 47bf 3e1e 31bf 28a1 29bf 65ac b9bf
000003a0: 2114 1640 4096 4cbf a526 843f aef4 32bf
000003b0: 099a 893f 215f 7f3f acf1 7b3f 6039 39bf
000003c0: f187 49c0 08e9 5ebf 4047 833f 4241 3cbf
000003d0: 6c81 8a3f 0e4f 703f 4956 2dbf 4751 43bf
000003e0: 8b76 03c0 b5f8 843f 326e 94bf c44d e1bf
000003f0: 51fd 32bf c5b6 27bf 1259 813f ee42 903f

fc2.bias f4 [20]
0.72609484 0.57740575 0.6635115 0.59635967 0.6224911 -0.064558506 0.56256145 -0.0025377925
-0.075304456 0.6658802 0.64616203 0.53682375 0.027977318 0.6070244 0.008581928 0.03753516
-0.07883119 0.6984509 -0.016409924 1.2432013
00000000: 5ae1 393f ddd0 133f e4db 293f 07ab 183f
00000010: 945b 1f3f 4037 84bd 0704 103f 1851 26bb
00000020: 3939 9abd 2077 2a3f e06a 253f 486d 093f
00000030: b030 e53c f365 1b3f 379b 0c3c 78be 193d
00000040: 3f72 a1bd aecd 323f 1b6e 86bc 3821 9f3f

fc3.weight f4 [1, 20]
1.2218058 1.3165603 1.4021392 1.2500399 1.2539206 -0.63117963 1.3745399 -0.506375
-0.5388715 1.2094914 1.290058 1.4027095 -0.67542535 1.25571 -0.568733 -0.6081886
-0.53577334 1.2056825 -0.52028584 -3.3616042
00000000: 2264 9c3f 0c85 a83f 4c79 b33f 4f01 a03f
00000010: 7880 a03f fd94 21bf ecf0 af3f cba1 01bf
00000020: 7cf3 09bf 9dd0 9a3f 9f20 a53f fc8b b33f
00000030: ade8 2cbf 1bbb a03f 7c98 11bf 40b2 1bbf
00000040: 7128 09bf ce53 9a3f 7431 05bf 8624 57c0

bn1.weight f4 [200]
1.8098271 2.1002123 2.109327 3.2053258 2.166268 2.124917 3.2307851 2.1349354
1.8188239 2.1006756 2.1001825 2.116742 1.8434689 1.8258142 2.1333995 2.0887363
3.3632636 3.5894735 2.0851328 2.0949063 2.0906272 2.1053488 1.8467628 1.8303194
2.1484392 2.1754112 2.0872085 1.8227257 1.8302495 1.8510804 1.8010529 3.120514
3.5770822 1.8526456 2.068608 1.8149841 2.1327453 2.0862174 2.10816 1.8646611
4.5607734 2.1336405 2.1583302 1.7934331 2.1147454 2.0884118 1.8195099 1.8197138
3.442147 2.0911214 2.5982587 3.1892948 1.840965 1.8236034 2.103335 2.3041904
2.1031945 2.0883622 1.8372784 2.1566548 3.6637647 1.8314004 2.084937 3.5770829
1.8210508 2.107479 1.8227676 1.8359238 1.8256822 2.2025483 2.1394322 2.0722275
1.8474448 1.8331803 2.152928 2.07929 2.1397738 2.1130924 1.838289 1.8386616
2.0916965 2.07342 2.9586833 3.095448 1.8243457 2.051857 2.0961108 2.1608324
1.8193688 4.26003 2.104196 4.498495 2.105645 3.2952032 1.8294935 1.8226458
1.8201771 1.780677 2.0762649 2.1051319 2.1164522 1.8381017 2.1142552 2.1077762
1.8526185 2.1134737 1.8642185 1.8339013 2.0676684 1.8521849 2.0951319 2.088149
1.8166056 2.108872 2.134354 2.1041188 2.385933 2.119873 3.7617373 1.8426437
2.1214628 1.8303999 2.909601 2.2130969 2.138878 3.1690264 1.8088253 1.8081846
1.8367449 2.067666 2.095761 3.5697668 2.084778 2.128674 2.3424332 1.836039
1.8572423 4.4681635 2.1164904 4.4446983 2.1587765 2.1024656 2.0537717 1.8476948
2.10899 1.8507893 3.9870906 2.2647235 2.341488 1.8446536 1.8457768 1.8173623
2.1810377 2.1057458 2.0982053 1.8500136 2.1173437 2.106596 1.843717 1.8288519
1.8124756 2.0975618 2.1262164 2.0951815 1.8396415 2.1349154 1.8581359 1.8153276
1.8254908 2.1123097 2.2557626 2.061405 2.0968883 2.142247 1.8524667 1.8546357
2.2165594 2.0923445 2.0799882 2.1007426 1.806228 1.8499267 1.8514107 2.0878797
1.8398304 1.8424734 1.8521357 3.0805552 1.8366206 1.8140054 2.1182556 2.1666348
1.8252326 2.1331525 1.8537015 2.1253998 2.0712647 2.278889 1.8459077 2.083492
00000000: 6aa8 e73f e169 0640 37ff 0640 0f24 4d40
00000010: 23a4 0a40 a4fe 0740 2fc5 4e40 c8a2 0840
00000020: 39cf e83f 7871 0640 6469 0640 b378 0740
00000030: caf6 eb3f 48b4 e93f 9e89 0840 dbad 0540
00000040: b63f 5740 efb9 6540 d172 0540 f212 0640
00000050: d6cc 0540 09be 0640 b962 ec3f e847 ea3f
00000060: 0780 0940 f039 0b40 d394 0540 134f e93f
00000070: 9e45 ea3f 34f0 ec3f e788 e63f 80b6 4740
00000080: eaee 6440 7e23 ed3f 1364 0440 6651 e83f
00000090: e67e 0840 9684 0540 18ec 0640 37ad ee3f
000000a0: dbf1 9140 918d 0840 1522 0a40 378f e53f
000000b0: fd57 0740 8aa8 0540 b3e5 e83f 62ec e83f
000000c0: 234c 5c40 efd4 0540 df49 2640 681d 4c40
000000d0: bea4 eb3f d66b e93f 0a9d 0640 db77 1340
000000e0: bd9a 0640 baa7 0540 f02b eb3f a206 0a40
000000f0: 1f7b 6a40 546b ea3f 9c6f 0540 edee 6440
00000100: 3118 e93f f0e0 0640 7350 e93f 8dff ea3f
00000110: f4af e93f 8df6 0c40 75ec 0840 609f 0440
00000120: 1279 ec3f a7a5 ea3f 93c9 0940 1613 0540
00000130: 0ef2 0840 e83c 0740 0e4d eb3f 4359 eb3f
00000140: 5bde 0540 eab2 0440 115b 3d40 d21b 4640
00000150: 2984 e93f a051 0340 ae26 0640 144b 0a40
00000160: 14e1 e83f 2a52 8840 26ab 0640 acf3 8f40
00000170: e3c2 0640 9ce4 5240 d82c ea3f 754c e93f
00000180: 90fb e83f 39ed e33f 86e1 0440 7bba 0640
00000190: f473 0740 eb46 eb3f f54f 0740 cee5 0640
000001a0: 9a22 ed3f 2743 0740 b69e ee3f 47bd ea3f
000001b0: ae54 0440 6514 ed3f a416 0640 3ca4 0540
000001c0: 8886 e83f c2f7 0640 4299 0840 e2a9 0640
000001d0: 20b3 1840 00ac 0740 4ec0 7040 c0db eb3f
000001e0: 0cc6 0740 8b4a ea3f e736 3a40 61a3 0d40
000001f0: 61e3 0840 54d1 4a40 9687 e73f 9872 e73f
00000200: 751a eb3f a454 0440 f320 0640 0f77 6440
00000210: 016d 0540 323c 0840 6dea 1540 5303 eb3f
00000220: 1eba ed3f 32fb 8e40 9474 0740 f83a 8e40
00000230: 6529 0a40 cc8e 0640 ff70 0340 4381 ec3f
00000240: b1f9 0640 aae6 ec3f 7e2c 7f40 3bf1 1040
00000250: f0da 1540 9c1d ec3f 6a42 ec3f 549f e83f
00000260: 1f96 0b40 8ac4 0640 ff48 0640 3fcd ec3f
00000270: 8f82 0740 78d2 0640 ebfe eb3f d217 ea3f
00000280: 33ff e73f 743e 0640 ee13 0840 7417 0640
00000290: 5f79 eb3f 74a2 0840 66d7 ed3f a85c e83f
000002a0: afa9 e93f 1530 0740 6a5e 1040 0fee 0340
000002b0: 6b33 0640 931a 0940 a11d ed3f b464 ed3f
000002c0: 1cdc 0d40 f9e8 0540 871e 0540 9172 0640
000002d0: 7b32 e73f 66ca ec3f 07fb ec3f d29f 0540
000002e0: 907f eb3f 2bd6 eb3f c812 ed3f d127 4540
000002f0: 6216 eb3f 5431 e83f 8091 0740 25aa 0a40
00000300: 39a1 e93f 9285 0840 1746 ed3f 8d06 0840
00000310: 9a8f 0440 51d9 1140 b446 ec3f ef57 0540

bn1.bias f4 [200]
-0.80238104 0.74579877 0.8098697 -0.8333806 0.80657494 0.7827327 -0.81746477 0.75292104
-0.86807054 0.78987235 0.8178266 0.85225785 -0.8561393 -0.8563933 0.80165213 0.8014517
-0.7931267 0.78424066 0.8012046 0.7467963 0.80896384 0.8200475 -0.839231 -0.867195
0.84685695 0.76955146 0.8177738 -0.8722562 -0.8405871 -0.85169655 -0.8651688 -0.87557155
0.7991877 -0.8551805 0.7895386 -0.8517213 0.8080617 0.8469821 0.84506685 -0.83235615
-0.7805247 -0.8446865 0.8245388 -0.84485734 0.78832865 0.77873826 -0.8480755 -0.8255403
-0.81751794 0.84946454 -0.85190934 -0.77830553 -0.8605785 -0.8728654 0.78720284 0.8147355
0.78366625 0.795839 -0.86941254 0.8018519 0.82025987 -0.8629667 0.84723675 -0.76310396
-0.85575813 0.802782 -0.8332066 -0.85328865 -0.8664696 0.8295854 0.7940226 0.7971781
-0.8492052 -0.83770496 0.80817235 0.7799894 0.77683985 0.7815385 -0.8683782 -0.8553577
0.8104849 0.77882403 -0.8110218 -0.78332335 -0.8349397 0.7385478 0.8020122 0.8159068
-0.8431435 -0.72851056 0.81644714 -0.7635327 0.765636 -0.833932 -0.86882234 -0.8332319
-0.88077927 -0.79734296 0.7803334 0.8357378 0.8152896 -0.8636167 0.8086436 0.86222434
-0.84158665 0.82783633 -0.82998747 -0.8468678 0.77780724 -0.84126484 0.85560733 0.77451694
-0.8714131 0.7914045 0.8236322 0.7924722 -0.8560648 0.8077819 -0.8121213 -0.85646105
0.75209004 -0.85921067 -0.8630373 0.8158835 0.8090803 -0.815828 -0.85809785 -0.84383273
-0.88125765 0.7931283 0.78072566 0.79805386 0.8506298 0.8169689 0.76328 -0.8741929
-0.83532554 -0.7440114 0.825449 -0.7758565 0.8102029 0.7785785 0.78744066 -0.8540122
0.79460126 -0.8299914 -0.77067554 0.83581454 0.80334616 -0.8596193 -0.8580579 -0.8259337
0.8014555 0.76283836 0.7983071 -0.82792825 0.8203522 0.86353004 -0.85379964 -0.8652449
-0.8556751 0.7904629 0.80307996 0.81708866 -0.8499562 0.7811246 -0.82867116 -0.8492431
-0.87207234 0.7854701 0.81056154 0.8033359 0.804901 0.8424271 -0.8574002 -0.8618475
0.79776543 0.8318805 0.81655294 0.79089284 -0.8455145 -0.86145777 -0.841339 0.76579934
-0.85130316 -0.86001915 -0.8607108 -0.8416132 -0.8459944 -0.8430127 0.793274 0.74759334
-0.8756752 0.8254208 -0.8498549 0.7971477 0.8521061 0.82428926 -0.8396979 0.8067834
00000000: d868 4dbf abec 3e3f 9f53 4f3f 6e58 55bf
00000010: b27b 4e3f 2c61 483f 5f45 51bf 6fbf 403f
00000020: df39 5ebf 1335 4a3f 165d 513f 922d 5a3f
00000030: f22b 5bbf 973c 5bbf 1339 4d3f f02b 4d3f
00000040: 5a0a 4bbf ffc3 483f bf1b 4d3f 0b2e 3f3f
00000050: 4118 4f3f a2ee 513f d8d7 56bf 7e00 5ebf
00000060: 9ecb 583f 5301 453f a059 513f 2f4c 5fbf
00000070: b730 57bf c908 5abf b47b 5dbf 7525 60bf
00000080: 9197 4c3f 1ced 5abf 341f 4a3f 680a 5abf
00000090: 22dd 4e3f d2d3 583f 4d56 583f 4b15 55bf
000000a0: 77d0 47bf 603d 58bf fa14 533f 9248 58bf
000000b0: e8cf 493f 645b 473f 7a1b 59bf 9c56 53bf
000000c0: db48 51bf 8276 593f bb16 5abf 083f 47bf
000000d0: df4e 5cbf 1b74 5fbf 2086 493f 8192 503f
000000e0: 5a9e 483f 1bbc 4b3f d291 5ebf 2b46 4d3f
000000f0: 8dfc 513f 63eb 5cbf 82e4 583f c85a 43bf
00000100: f712 5bbf 1f83 4d3f 074d 55bf 2071 5abf
00000110: f4d0 5dbf b55f 543f 1145 4b3f dd13 4c3f
00000120: 8365 59bf d573 56bf 62e4 4e3f 63ad 473f
00000130: fade 463f e812 483f 094e 5ebf b9f8 5abf
00000140: f07b 4f3f 0361 473f 209f 4fbf e187 48bf
00000150: 9cbe 55bf 7811 3d3f ac50 4d3f 45df 503f
00000160: 41d8 57bf ab7f 3abf ae02 513f e176 43bf
00000170: b900 443f 917c 55bf 246b 5ebf b04e 55bf
00000180: c07a 61bf ab1e 4cbf eec3 473f eaf2 553f
00000190: d2b6 503f fc15 5dbf 4403 4f3f bcba 5c3f
000001a0: 3972 57bf 15ed 533f 0f7a 54bf 54cc 58bf
000001b0: 601e 473f 225d 57bf 1509 5b3f be46 463f
000001c0: ee14 5fbf 7c99 4a3f 8fd9 523f 75df 4a3f
000001d0: 1027 5bbf cbca 4e3f 2ee7 4fbf 0841 5bbf
000001e0: f988 403f 3bf5 5bbf 03f0 5cbf bedd 503f
000001f0: e31f 4f3f 1bda 50bf 4dac 5bbf 6c05 58bf
00000200: 1a9a 61bf 750a 4b3f a3dd 473f 424d 4c3f
00000210: e0c2 593f e024 513f 5166 433f 1bcb 5fbf
00000220: e5d7 55bf 8877 3ebf a050 533f 889e 46bf
00000230: 7569 4f3f ec50 473f b695 493f 8ba0 5abf
00000240: fd6a 4b3f 517a 54bf fe4a 45bf f1f7 553f
00000250: 18a8 4d3f 0310 5cbf afa9 5bbf 6470 53bf
00000260: 302c 4d3f 6049 433f db5d 4c3f 1bf3 53bf
00000270: 9a02 523f 4e10 5d3f 9d92 5abf b180 5dbf
00000280: 860d 5bbf c75b 4a3f a696 4d3f b92c 513f
00000290: bb96 59bf c8f7 473f cb23 54bf ff67 59bf
000002a0: 2240 5fbf 9214 493f f680 4f3f 6ca7 4d3f
000002b0: fe0d 4e3f 4da9 573f 947e 5bbf 0aa2 5cbf
000002c0: 5b3a 4c3f 1ff6 543f 9d09 513f f477 4a3f
000002d0: a373 58bf 7f88 5cbf fe61 57bf 6d0b 443f
000002e0: 01ef 59bf 372a 5cbf 8b57 5cbf f673 57bf
000002f0: 1793 58bf aecf 57bf 0114 4b3f 4762 3f3f
00000300: 402c 60bf c74e 533f 1790 59bf df11 4c3f
00000310: a023 5a3f 9f04 533f 71f6 56bf 5b89 4e3f

bn1.running_mean f4 [200]
0.13592458 0.2136229 0.20082551 0.2269694 0.30630434 0.12867768 0.2663996 0.119726636
0.1547946 0.160599 0.16664708 0.08032754 0.12653677 0.29021364 0.16571015 0.22235383
0.21651755 0.09353265 0.13803366 0.30962417 0.12444111 0.296328 0.106041126 0.03995141
0.23224601 0.13256115 0.25333962 0.12757418 0.29067 0.13618138 0.14487103 0.10637588
0.031889707 0.1965408 0.13828583 0.13574198 0.13284944 0.23681323 0.08160949 0.2868287
0.16730294 0.30769306 0.3042104 0.17060897 0.1471208 0.14022265 0.1164739 0.070636794
0.14527059 0.12649156 0.14473197 0.1811961 0.12375174 0.20520933 0.10682668 0.21565077
0.10766638 0.079531714 0.1572425 0.24472149 0.11098256 0.12961502 0.08723014 0.15715912
0.10436771 0.18988977 0.2687457 0.1211944 0.22029822 0.38031906 0.30100408 0.17522234
0.12906824 0.14178422 0.17609829 0.16818613 0.24194372 0.13149524 0.06334649 0.16751055
0.13947962 0.10868401 0.23488782 0.35114053 0.054149058 0.22433433 0.24378905 0.18592449
0.14498432 0.37288103 0.087582156 0.123065725 0.115642175 0.15436186 0.33352184 0.16809517
0.22883087 0.22138609 0.11366727 0.35191435 0.12678841 0.10710257 0.35745355 0.24007212
0.15920801 0.29393587 0.08825214 0.27598783 0.13000984 0.21503758 0.079289645 0.1079064
0.03683643 0.17624024 0.066798136 0.2407387 0.24290332 0.2318566 0.067366906 0.17192647
0.16225459 0.3157326 0.1014579 0.19061555 0.16055577 0.18056895 0.37392896 0.24076581
0.16548133 0.16417782 0.24113551 0.020581227 0.097551286 0.069705896 0.14069897 0.024060154
0.23089406 0.12654912 0.200289 0.112073034 0.15462306 0.24469851 0.20920298 0.18225564
0.35061437 0.109607324 0.20040905 0.21701744 0.18990469 0.1671446 0.04237239 0.08249232
0.09147526 0.24200352 0.13051315 0.12318872 0.12728287 0.21566811 0.25616586 0.2232919
0.14444269 0.18803678 0.08964963 0.23407203 0.22220577 0.10955986 0.29799023 0.11561063
0.21450907 0.049436487 0.11085297 0.11104624 0.08575846 0.07558764 0.21730517 0.24950393
0.07678423 0.21229836 0.21284461 0.17143036 0.26729953 0.15357062 0.2353529 0.20671128
0.15990955 0.24733457 0.17734545 0.14039488 0.1700132 0.27057326 0.2540913 0.1742273
0.08427677 0.19128299 0.15720409 0.08924437 0.03460054 0.095781684 0.2715623 0.034036975
00000000: d02f 0b3e f6bf 5a3e 34a5 4d3e ab6a 683e
00000010: ecd3 9c3e 15c4 033e 8765 883e 3d33 f53d
00000020: 7a82 1e3e 1074 243e 88a5 2a3e c482 a43d
00000030: db92 013e e296 943e ecaf 293e b9b0 633e
00000040: c7b6 5d3e 0c8e bf3d b258 0d3e 0f87 9e3e
00000050: fbda fe3d 4eb8 973e 172c d93d 17a4 233d
00000060: e6d1 6d3e 1cbe 073e bbb5 813e cea2 023e
00000070: b3d2 943e 2273 0b3e 1259 143e 99db d93d
00000080: c89e 023d fe41 493e cd9a 0d3e f2ff 0a3e
00000090: af09 083e 2b7f 723e e022 a73d 36db 923e
000000a0: 7651 2b3e f289 9d3e 77c1 9b3e 1eb4 2e3e
000000b0: d6a6 163e 8796 0f3e de89 ee3d 06aa 903d
000000c0: d0c1 143e 0187 013e 9e34 143e 788b 393e
000000d0: 8d71 fd3d 6522 523e f2c7 da3d 8ed3 5c3e
000000e0: 3180 dc3d 86e1 a23d 2e04 213e 4598 7a3e
000000f0: d34a e33d cdb9 043e b7a5 b23d 52ee 203e
00000100: bdbe d53d 7772 423e 0999 893e c534 f83d
00000110: db95 613e 2eb9 c23e 351d 9a3e 7c6d 333e
00000120: 772a 043e e22f 113e 1c53 343e fc38 2c3e
00000130: 18c0 773e b0a6 063e cebb 813d e387 2b3e
00000140: bfd3 0e3e b995 de3d 6f86 703e b1c8 b33e
00000150: 67cb 5d3d e6b7 653e d6a3 793e fd62 3e3e
00000160: c576 143e 43ea be3e 465e b33d e209 fc3d
00000170: ced5 ec3d 0911 1e3e 60c3 aa3e 2421 2c3e
00000180: a452 6a3e 09b3 623e 63ca e83d 1e2e b43e
00000190: d2d4 013e 9858 db3d 2704 b73e 77d5 753e
000001a0: 6d07 233e c37e 963e 8abd b43d 474e 8d3e
000001b0: 4d21 053e d032 5c3e 9c62 a23d 08fe dc3d
000001c0: cce1 163d 5278 343e 76cd 883d 3584 763e
000001d0: a6bb 783e d16b 6d3e a9f7 893d 7e0d 303e
000001e0: 1126 263e b4a7 a13e 29c9 cf3d b930 433e
000001f0: bb68 243e 11e7 383e 9e73 bf3e 508b 763e
00000200: f073 293e 3b1e 283e 3aec 763e f699 a83c
00000210: f8c8 c73d f7c1 8e3d 6413 103e cd19 c53c
00000220: 7e6f 6c3e 1896 013e 8f18 4d3e 8c86 e53d
00000230: 8255 1e3e 3f92 7a3e 4e39 563e 39a1 3a3e
00000240: ba83 b33e ce79 e03d 0838 4d3e d239 5e3e
00000250: 6076 423e f427 2b3e ac8e 2d3d bcf1 a83d
00000260: 6257 bb3d c5cf 773e 3da5 053e 5e4a fc3d
00000270: 7156 023e 1ad8 5c3e 2c28 833e a2a6 643e
00000280: c9e8 133e b78c 403e 3a9a b73d 94b0 6f3e
00000290: e989 633e eb60 e03d 2d92 983e 44c5 ec3d
000002a0: 44a8 5b3e ea7d 4a3d e206 e33d 366c e33d
000002b0: 22a2 af3d b1cd 9a3d 3f85 5e3e f57d 7f3e
000002c0: 0d41 9d3d be64 593e f0f3 593e 718b 2f3e
000002d0: 7cdb 883e 9e41 1d3e 5a00 713e 1fac 533e
000002e0: 54bf 233e 4645 7d3e 0c9a 353e adc3 0f3e
000002f0: f117 2e3e 9488 8a3e 4118 823e a468 323e
00000300: 4d99 ac3d b0df 433e 1cfa 203e c1c5 b63d
00000310: 4cb9 0d3d 3029 c43d 370a 8b3e 5b6a 0b3d

bn1.running_var f4 [200]
0.26378593 0.34276155 0.3087975 0.26247534 0.29435286 0.23644282 0.28007507 0.24275175
0.22654249 0.29458755 0.323851 0.20805286 0.24078578 0.37051883 0.26379293 0.38852292
0.24954255 0.2175493 0.25792488 0.3201344 0.23789658 0.35704255 0.21604817 0.1969767
0.31868303 0.23359945 0.36751333 0.23106147 0.27591267 0.23880604 0.24707015 0.20962593
0.19468175 0.27629638 0.22798033 0.23658259 0.24517001 0.26242986 0.2174179 0.24455106
0.24512365 0.28509134 0.3083277 0.23312652 0.22994554 0.24404413 0.23090507 0.20487238
0.2400609 0.24540651 0.22959876 0.231985 0.2308627 0.25912082 0.27203077 0.2576164
0.22172168 0.21491304 0.26265287 0.35044035 0.22473215 0.27091 0.22159407 0.21742597
0.2232097 0.23016444 0.3209334 0.23104441 0.30534965 0.47894764 0.2622412 0.2757199
0.21785 0.22805734 0.34710783 0.22599903 0.2443234 0.23862651 0.19942571 0.23736446
0.2486059 0.21247444 0.2908617 0.32357568 0.19981995 0.35912475 0.29759288 0.31039768
0.23315115 0.35011774 0.2056509 0.22189936 0.23247328 0.24133152 0.32890967 0.27055582
0.30963624 0.29315594 0.22568452 0.42612273 0.23980595 0.21752934 0.34102294 0.3813947
0.23779175 0.38610926 0.22216214 0.29132086 0.21806693 0.23212041 0.21038759 0.22599292
0.1942265 0.29821107 0.20247689 0.41717136 0.32377887 0.2921587 0.19842316 0.25653604
0.26118547 0.34588018 0.21644664 0.23599808 0.2716647 0.25678474 0.44560155 0.33644077
0.24189483 0.272681 0.27824956 0.18920891 0.22154734 0.21435869 0.25132373 0.19016087
0.25843158 0.22955526 0.43165278 0.2056477 0.23134375 0.44093353 0.3305517 0.3787654
0.40007785 0.21785602 0.27337098 0.28818107 0.2720748 0.2692106 0.19420432 0.21681632
0.22368589 0.30080736 0.22574009 0.21282737 0.21434338 0.3436146 0.32986698 0.22518328
0.26228264 0.29942158 0.20219001 0.37574837 0.23993196 0.2200254 0.2698229 0.21862593
0.284604 0.19636586 0.22844446 0.23401566 0.20833337 0.2158984 0.26751727 0.33850273
0.21311712 0.34466273 0.34795958 0.24815227 0.42572057 0.25329682 0.31227252 0.2574693
0.22291374 0.3156884 0.30726847 0.23325166 0.22686958 0.3465048 0.40534893 0.27721643
0.2237129 0.2627155 0.26646486 0.2107322 0.19484933 0.23987532 0.3405483 0.19711283
00000000: f30e 873e 717e af3e b51a 9e3e 2b63 863e
00000010: 6bb5 963e 111e 723e 0066 8f3e ea93 783e
00000020: c1fa 673e 2ed4 963e cccf a53e cf0b 553e
00000030: 8c90 763e a5b4 bd3e de0f 873e 7aec c63e
00000040: 1588 7f3e 3ec5 5e3e bb0e 843e a8e8 a33e
00000050: 299b 733e 48ce b63e bb3b 5d3e 43b4 493e
00000060: 6c2a a33e b234 6f3e b52a bc3e 619b 6c3e
00000070: 6d44 8d3e 9289 743e f5ff 7c3e 2ea8 563e
00000080: a75a 473e b876 8d3e ad73 693e b542 723e
00000090: d90d 7b3e 355d 863e cca2 5e3e 986b 7a3e
000000a0: b201 7b3e 7ef7 913e 21dd 9d3e b8b8 6e3e
000000b0: d876 6b3e b4e6 793e 6172 6c3e 11ca 513e
000000c0: 86d2 753e d84b 7b3e f01b 6b3e 7a8d 6d3e
000000d0: 4667 6c3e 7cab 843e 9e47 8b3e 4ce6 833e
000000e0: 020b 633e 2a12 5c3e 707a 863e eb6c b33e
000000f0: 2f20 663e b7b4 8a3e 8ee9 623e eaa4 5e3e
00000100: 1591 643e 3ab0 6b3e 6251 a43e e896 6c3e
00000110: ca56 9c3e a038 f53e 7b44 863e 292b 8d3e
00000120: 1214 5f3e dd87 693e 1eb8 b13e 4a6c 673e
00000130: ea2f 7a3e 825a 743e 4136 4c3e ab0f 733e
00000140: 8c92 7e3e e692 593e d3eb 943e b6ab a53e
00000150: 9a9d 4c3e 33df b73e 185e 983e 72ec 9e3e
00000160: 2dbf 6e3e a242 b33e 2696 523e 9639 633e
00000170: 7a0d 6e3e 9c1f 773e d966 a83e 4b86 8a3e
00000180: a488 9e3e 8918 963e d819 673e c22c da3e
00000190: b18f 753e 03c0 5e3e 8f9a ae3e 2b46 c33e
000001a0: ae7f 733e 1db0 c53e 797e 633e 0228 953e
000001b0: f04c 5f3e f9b0 6d3e d86f 573e b06a 673e
000001c0: 50e3 463e 1faf 983e 1a56 4f3e 7c97 d53e
000001d0: 58c6 a53e d395 953e 712f 4b3e b158 833e
000001e0: 1aba 853e 3517 b13e 30a4 5d3e 7ba9 713e
000001f0: a317 8b3e 4a79 833e e325 e43e f741 ac3e
00000200: 47b3 773e d89c 8b3e ba76 8e3e fbbf 413e
00000210: 4edd 623e d880 5b3e 81ad 803e 88b9 423e
00000220: 2551 843e 8910 6b3e 9801 dd3e 5095 523e
00000230: 60e5 6c3e 0ac2 e13e 133e a93e 8aed c13e
00000240: 01d7 cc3e a615 5f3e 48f7 8b3e 788c 933e
00000250: 634d 8b3e f9d5 893e 7fdd 463e 1905 5e3e
00000260: ea0d 653e 6c03 9a3e 6928 673e 6bef 593e
00000270: d57c 5b3e 41ee af3e 53e4 a83e 7296 663e
00000280: e949 863e c94d 993e e60a 4f3e 1762 c03e
00000290: b9b0 753e 574e 613e 3a26 8a3e 7adf 5f3e
000002a0: 9eb7 913e 2214 493e 58ed 693e cda1 6f3e
000002b0: 5855 553e 7814 5d3e 06f8 883e 3b50 ad3e
000002c0: 603b 5a3e a277 b03e c227 b23e a11b 7e3e
000002d0: 0cf8 d93e 1fb0 813e 2fe2 9f3e 04d3 833e
000002e0: 8043 643e e9a1 a13e 4b52 9d3e 86d9 6e3e
000002f0: 8050 683e 1469 b13e e589 cf3e 50ef 8d3e
00000300: ff14 653e a582 863e 156e 883e 2fca 573e
00000310: 9586 473e e0a1 753e 595c ae3e f2d7 493e

bn2.weight f4 [20]
2.2399254 2.252759 2.2355134 2.229765 2.2622676 1.5132201 2.239059 1.5778006
1.5772028 2.2710876 2.2161508 2.2341008 1.492208 2.2382376 1.53597 1.5098325
1.5884529 2.2515159 1.5815519 4.7226973
00000000: f05a 0f40 342d 1040 a712 0f40 78b4 0e40
00000010: fec8 1040 32b1 c13f be4c 0f40 5ff5 c93f
00000020: c8e1 c93f 8059 1140 6ad5 0d40 82fb 0e40
00000030: ac00 bf3f 493f 0f40 aa9a c43f 3142 c13f
00000040: 6d52 cb3f d618 1040 4b70 ca3f 5620 9740

bn2.bias f4 [20]
0.62212 0.57129097 0.53958434 0.6041463 0.6016074 -0.52282864 0.54781896 -0.6155603
-0.58591026 0.6350395 0.5791709 0.5391985 -0.504616 0.59867066 -0.55006 -0.52439576
-0.6011251 0.6370408 -0.6026164 -0.5692478
00000000: 4243 1f3f 2040 123f 3322 0a3f 55a9 1a3f
00000010: f102 1a3f 19d8 05bf dd3d 0c3f 5c95 1dbf
00000020: 37fe 15bf f391 223f 8b44 143f ea08 0a3f
00000030: 842e 01bf 7b42 193f bbd0 0cbf cd3e 06bf
00000040: 56e3 19bf 1b15 233f 1245 1abf 39ba 11bf

bn2.running_mean f4 [20]
0.2193813 0.21439657 0.36567584 0.2153191 0.25584328 0.34415877 0.24517557 0.2853105
0.21651304 0.23843336 0.22549611 0.32384342 0.35969552 0.23300478 0.28495198 0.39082316
0.2381926 0.21303049 0.24831991 0.22581759
00000000: 7ea5 603e c68a 5b3e dd39 bb3e 9c7c 5c3e
00000010: e4fd 823e 9435 b03e 4e0f 7b3e 3814 923e
00000020: 98b5 5d3e e027 743e 74e8 663e cece a53e
00000030: 032a b83e ce98 6e3e 3ae5 913e f919 c83e
00000040: c3e8 733e aa24 5a3e 9347 7e3e ba3c 673e

bn2.running_var f4 [20]
0.37986708 0.41736233 0.5769565 0.4210761 0.42224598 0.42374495 0.44911936 0.3614684
0.30268553 0.4119005 0.33157358 0.53399354 0.35610545 0.4305879 0.29730716 0.3305673
0.34363148 0.3302142 0.33514112 0.29080182
00000000: f07d c23e 84b0 d53e 6cb3 133f 4997 d73e
00000010: a030 d83e 19f5 d83e f9f2 e53e 6312 b93e
00000020: 99f9 9a3e 9fe4 d23e 03c4 a93e cdb3 083f
00000030: 7453 b63e 0476 dc3e a538 983e 1e40 a93e
00000040: 77f0 af3e d611 a93e 9e97 ab3e fae3 943e
