Results/NN_MLP_MLs/MLP_Ensemble/Model_Results/LagRD/test7/best_model_1.pt (torch, 32434 bytes, 14 tensors)

country_embedding.weight f4 [8, 2]
37.680855 43.658485 36.26826 38.427834 -48.770725 -53.6046 32.908745 38.519115
35.663116 42.592598 37.227467 43.43514 28.67636 25.751596 12.879565 15.805944
00000000: 32b9 1642 4aa2 2e42 b312 1142 1ab6 1942
00000010: 3915 43c2 1c6b 56c2 8ea2 0342 9313 1a42
00000020: 08a7 0e42 d25e 2a42 ede8 1442 95bd 2d42
00000030: 2f69 e541 4503 ce41 b312 4e41 26e5 7c41

fc1.weight f4 [200, 9]
0.048314653 -0.0013316076 0.29138893 0.103730045 -0.12413542 -0.20132045 -0.055871885 -0.14378023
-0.10681617 0.05009558 0.14084053 0.1811789 -0.3823883 0.20664017 0.036758635 0.31618518
0.16325828 -0.3542336 -0.31693614 -0.16077738 0.29270393 -0.055523 0.14265315 -0.15490381
0.32707268 -0.14103281 0.24997494 0.0039472184 -0.17560582 0.17133829 -0.17694005 0.0980349
-0.096252404 -0.0365448 -0.3204627 -0.15892725 0.17455438 2.7533886 0.33201653 0.20667072
-0.015607874 0.14276683 0.2029874 -40.135025 -48.68908 0.2800221 0.14681104 0.29563165
-0.22505197 -0.05486866 -0.050515164 0.04868583 -0.35964242 -0.33335328 0.0857648 -0.17070968
0.16282448 -0.07464177 0.10944828 -0.020986017 0.12119981 0.22742663 -0.38895318 0.09225813
2.5468078 -0.251503 -0.015793202 -0.056802392 0.60072076 -0.19304523 -40.103817 -47.785633
-0.11520317 0.11120792 0.10716152 -0.32739848 0.0669661 0.0032344232 -0.22318622 -0.21797676
0.03703266 -0.20016019 -0.35990524 -0.1009053 0.09039492 -0.06167376 -0.02792303 0.1443344
-0.006759246 -0.23754048 0.0494531 -0.19935566 0.22848603 -0.121375926 0.10720758 0.006127503
0.31607157 0.0023656925 0.0969413 0.24875244 0.24147837 0.2070795 -0.24123964 -0.24003474
-0.20159054 0.04187612 0.33222163 -0.21055853 0.038577974 -0.28476942 -0.31340525 -0.16809733
0.19205698 0.2105231 -0.20701294 0.16809045 0.26791546 0.07407602 3.0291128 0.23687753
-0.01581409 0.08609879 -0.045932267 -0.2799195 -40.71386 -48.933846 -0.37929782 0.007251808
0.10316261 -0.19636758 0.1281136 -0.054484352 0.203513 0.34501585 -0.08835055 0.32567522
-0.038535915 -0.011452 -0.3146267 -0.21453874 -0.1947345 -0.14257431 0.23698986 -0.10892701
-0.5264742 2.7444746 0.10672319 -0.13737209 -0.17249072 0.09970844 -0.121350214 -40.4713
-49.095623 -0.31501582 -0.29104647 0.1425451 -0.13473164 0.08233881 0.14314477 0.32487583
0.44703126 0.12238566 -0.4895454 3.0607495 -0.08335447 -0.36460662 -0.28716633 -0.0071527446
-0.21499595 -40.335884 -49.33695 -0.25982758 -0.011318764 -0.18023849 0.11927056 -0.12830853
-0.15656254 0.018879216 0.24129932 -0.23447458 0.15653543 0.21414714 0.32606575 -0.23331031
0.08072996 -0.24647562 0.28458342 -0.12930211 0.20078425 -0.04883694 -0.14225253 -0.010635933
-0.049066883 0.15713203 -0.004311429 0.10168497 -0.19560736 0.3029012 0.05457467 0.06217864
0.24640755 -0.44044727 -0.12356667 0.10063601 -0.2538862 0.5223427 -0.19069432 -0.4886513
-0.043360624 -0.23949635 -0.2853566 0.2424973 0.013773582 0.31525192 0.12591513 -0.24940854
0.075736396 -0.24668434 -0.13714504 -0.090785764 -0.23310816 0.038526326 0.20891091 -0.08776112
-0.24374433 -0.029198807 0.1400085 -0.009654045 -0.16902587 0.0076208115 -0.31331074 -0.235587
-0.22189645 0.27451012 0.29383528 -0.11322224 0.014950117 0.14865932 0.039939128 -0.16691753
0.19224612 0.2049114 -0.019318502 -0.20738937 0.15958594 0.2913763 -0.33262578 0.3261292
-0.0615659 -0.22142029 0.32125786 -0.23499925 0.1348524 -0.354357 0.094275996 -0.04108714
00000000: 96e5 453d 5689 aeba ee30 953e 6b70 d43d
00000010: b63a febd f326 4ebe ebd9 64bd 203b 13be
00000020: 70c2 dabd 0631 4d3d 8038 103e f686 393e
00000030: 66c8 c3be 7b99 533e 3990 163d 06e3 a13e
00000040: 2e2d 273e 1b5e b5be 7445 a2be d3a2 24be
00000050: 4add 953e 166c 63bd ab13 123e 1b9f 1ebe
00000060: 1276 a73e e86a 10be 6ef9 7f3e ab57 813b
00000070: 03d2 33be 4e73 2f3e c62f 35be 86c6 c83d
00000080: fb1f c5bd 00b0 15bd b013 a4be d3bd 22be
00000090: 62be 323e 8537 3040 12fe a93e 7da1 533e
000000a0: 2bb8 7fbc 7831 123e eedb 4f3e 448a 20c2
000000b0: 9ec1 42c2 0f5f 8f3e a255 163e 085d 973e
000000c0: 0674 66be f6bd 60bd fde8 4ebd cb6a 473d
000000d0: 0d23 b8be 48ad aabe 75a5 af3d 85ce 2ebe
000000e0: 76bb 263e c9dd 98bd 6b26 e03d deea abbc
000000f0: 9b37 f83d 87e2 683e df24 c7be d5f1 bc3d
00000100: e6fe 2240 00c5 80be bf60 81bc a0a9 68bd
00000110: d6c8 193f a6ad 45be 4f6a 20c2 7d24 3fc2
00000120: a4ef ebbd fac0 e33d 8077 db3d c6a0 a7be
00000130: 8625 893d 9ef8 533b ee8a 64be 4d35 5fbe
00000140: 8faf 173d cbf6 4cbe 8045 b8be 70a7 cebd
00000150: f920 b93d a09d 7cbd d7be e4bc 66cc 133e
00000160: aa7c ddbb d03d 73be 558f 4a3d e423 4cbe
00000170: 3ef8 693e f193 f8bd a68f db3d 38c9 c83b
00000180: 22d4 a13e bc09 1b3b 2989 c63d f6b8 7e3e
00000190: 1b46 773e a60c 543e 8607 77be abcb 75be
000001a0: c06d 4ebe 4b86 2b3d f418 aa3e a89c 57be
000001b0: f003 1e3d 4ccd 91be a776 a0be b521 2cbe
000001c0: 96aa 443e 5e93 573e 33fb 53be e71f 2c3e
000001d0: 372c 893e 2bb5 973d fcdc 4140 0690 723e
000001e0: 8d8c 81bc 9054 b03d 7923 3cbd 9c51 8fbe
000001f0: feda 22c2 42bc 43c2 5333 c2be 93a0 ed3b
00000200: eb46 d33d 9514 49be 3630 033e fc2a 5fbd
00000210: b665 503e eba5 b03e 22f1 b4bd e7be a63e
00000220: d6d7 1dbd 2ba1 3bbc c016 a1be 0bb0 5bbe
00000230: 7b68 47be 00ff 11be 78ad 723e 2015 dfbd
00000240: 03c7 06bf 79a5 2f40 b091 da3d 45ab 0cbe
00000250: 68a1 30be f033 cc3d 7686 f8bd 9ce2 21c2
00000260: eb61 44c2 c149 a1be 0b04 95be 58f7 113e
00000270: 17f7 09be 40a1 a83d 8b94 123e 2056 a63e
00000280: 48e1 e43e 55a5 fa3d b2a5 fabe 52e3 4340
00000290: c0b5 aabd b8ad babe 7707 93be 9261 eabb
000002a0: e627 5cbe f257 21c2 0959 45c2 1f08 85be
000002b0: 5672 39bc 7090 38be 2044 f43d 5063 03be
000002c0: ee51 20be 96a8 9a3c 2b17 773e 1b1a 70be
000002d0: d34a 203e 6349 5b3e 17f2 a63e e6e8 6ebe
000002e0: c055 a53d 1b64 7cbe ebb4 913e c667 04be
000002f0: 639a 4d3e 3e09 48bd a6aa 11be 5642 2ebc
00000300: 5bfa 48bd 38e7 203e e346 8dbb 3640 d03d
00000310: 4c4d 48be de15 9b3e b089 5f3d 08af 7e3d
00000320: 4352 7c3e 4e82 e1be 8610 fdbd 411a ce3d
00000330: 5ffd 81be 40b8 053f 5f45 43be 8130 fabe
00000340: e99a 31bd 883e 75be 431a 92be 3651 783e
00000350: 97aa 613c b368 a13e e5ef 003e f464 7fbe
00000360: af1b 9b3d d29a 7cbe c06f 0cbe e3ed b9bd
00000370: e8b3 6ebe c8cd 1d3d beec 553e 1abc b3bd
00000380: 1d98 79be 5632 efbc 635e 0f3e 002c 1ebc
00000390: 1e15 2dbe 00b8 f93b 446a a0be b83d 71be
000003a0: d338 63be 978c 8c3e 9471 963e 10e1 e7bd
000003b0: 56f1 743c 263a 183e 3697 233d 6eec 2abe
000003c0: 2bdc 443e 4bd4 513e d641 9ebc e15d 54be
000003d0: 7f6a 233e 462f 953e ed4d aabe 68fa a63e
000003e0: 862c 7cbd 00bc 62be e97b a43e a5a3 70be
000003f0: bf16 0a3e 486e b5be c613 c13d fd4a 28bd

fc1.bias f4 [200]
-0.14878087 0.16531691 0.30723393 0.10838668 -0.33740643 0.12215176 -0.29568222 -0.063574485
-0.04711525 -0.22174168 -0.48663095 0.17789821 0.17858769 -0.49542165 -0.032051276 -0.1469954
-0.5458382 0.09856322 -0.6943967 -0.06294497 0.11988628 0.09432459 -0.34016493 -0.427257
-0.15133272 -0.30345088 0.044253945 -0.35473707 -0.2079797 0.18229301 -0.3630909 -0.1648668
-0.511504 -0.016859852 0.27532074 -0.37840673 0.15026496 0.022848297 -0.28639722 0.11374283
-0.023618402 -0.20415342 0.005689814 -0.07901948 -0.2623107 0.10380494 -0.3047667 -0.3273923
0.061927717 -0.7708055 0.02360658 -0.20423067 0.11490285 -0.32099092 -0.1474235 -0.2813381
-0.3319827 -0.046484828 -0.13432603 0.13793851 0.3217914 -0.06061307 0.291431 -0.40091112
-0.035152983 -0.016658604 -0.34155554 -0.25458112 -0.3302762 0.032104533 -0.5612774 -0.19902758
-0.28734034 -0.21357664 0.03397473 -0.2679996 -0.12247475 0.084264375 0.016146382 -0.1561204
-0.14720552 -0.68188363 -0.5357934 0.31051207 0.037906688 0.15353088 0.0021336218 0.10317641
-0.22992587 -0.1323306 -0.43810207 -0.098659754 -0.17104897 0.12980318 -0.45347166 0.17637889
0.23870265 -0.028144453 -0.27989727 0.20845151 -0.29011855 -0.4827648 0.06711121 -0.12921163
-0.8148222 -0.41319007 0.08569746 -0.1440899 -0.26431042 -0.041835748 -0.28386778 0.16421255
-0.21963482 -0.11346078 -1.0399195 -0.28800812 -0.2664057 0.18393111 -0.31004912 0.22439504
0.1278462 -0.075643435 -0.0686181 -0.27461386 -0.49364904 -0.27592072 -0.20889732 0.176494
-0.10761782 -0.012201667 -0.25260675 -0.53156316 0.27795157 -0.69896215 -0.26981091 -0.2667756
-0.2929896 -0.49091494 -0.21569762 -0.13314858 -0.098040104 0.014404278 0.08952453 0.3304426
-0.19335157 0.21261987 -1.174439 -0.22360286 0.17939138 0.1299747 0.07154508 -0.04035582
0.21135077 0.15664873 -0.12348227 -0.10559063 0.018488567 -0.33640677 -0.025258025 -0.039166555
0.18415973 0.22098128 -0.006187598 -0.09857027 -0.33208677 0.020479044 -0.052648574 -0.24472019
-0.24747984 -0.49021566 0.14807376 0.2459164 0.32988855 0.06526038 -0.035141945 -0.019736135
0.0892594 -0.725629 -0.19204673 0.0960166 -0.5416968 0.12291535 -0.15587887 -0.1719509
-0.11820276 0.011023482 0.19719975 0.21653776 -0.28656954 -0.6051101 -0.17745516 -0.17141433
-0.42590293 0.054567456 0.1455056 -0.40736076 0.078413054 -0.3063433 -0.33158115 -0.3282546
00000000: 035a 18be d648 293e c44d 9d3e d6f9 dd3d
00000010: 89c0 acbe b42a fa3d a963 97be 5733 82bd
00000020: ecfb 40bd 4010 63be b127 f9be f32a 363e
00000030: b1df 363e e8a7 fdbe 3348 03bd f685 16be
00000040: 0dbc 0bbf 83db c93d fbc3 31bf 4be9 80bd
00000050: f086 f53d 402d c13d 192a aebe 6ec1 dabe
00000060: f7f6 1abe ea5d 9bbe a043 353d 19a0 b5be
00000070: a1f8 54be 05ab 3a3e 0de7 b9be d8d2 28be
00000080: edf1 02bf ac1d 8abc d7f6 8c3e 87be c1be
00000090: 0fdf 193e 5a2c bb3c a8a2 92be 00f2 e83d
000000a0: 617b c1bc 980d 51be 9f71 ba3b f7d4 a1bd
000000b0: 974d 86be af97 d43d 620a 9cbe f79f a7be
000000c0: eba7 7d3d 8253 45bf 9662 c13c d821 51be
000000d0: 2f52 eb3d ec58 a4be 30f6 16be 8c0b 90be
000000e0: a3f9 a9be e066 3ebd c38c 09be c13f 0d3e
000000f0: d8c1 a43e 6945 78bd 7236 953e 3944 cdbe
00000100: 93fc 0fbd a077 88bc 5ee0 aebe 7558 82be
00000110: f619 a9be 0b80 033d e0af 0fbf e3cd 4bbe
00000120: 461e 93be d6b3 5abe 1629 0b3d 3e37 89be
00000130: 0bd4 fabd cd92 ac3d 6b45 843c 07de 1fbe
00000140: 0bbd 16be ed8f 2ebf c229 09bf 70fb 9e3e
00000150: 0b44 1b3d 3337 1d3e 3cd4 0b3b 274e d33d
00000160: b071 6bbe ac81 07be ea4e e0be 200e cabd
00000170: 7627 2fbe 20eb 043e 702d e8be ab9c 343e
00000180: 786e 743e 328f e6bc b24e 8fbe 5074 553e
00000190: 6b8a 94be f32c f7be 9a71 893d 0e50 04be
000001a0: 3098 50bf a68d d3be 2682 af3d 4e8c 13be
000001b0: b253 87be f65b 2bbd 1e57 91be 5627 283e
000001c0: f3e7 60be 205e e8bd 151c 85bf cd75 93be
000001d0: 5466 88be 7058 3c3e c2be 9ebe d0c7 653e
000001e0: 1dea 023e f2ea 9abd a587 8cbd 309a 8cbe
000001f0: 91bf fcbe 7b45 8dbe 2ee9 55be d8ba 343e
00000200: bb66 dcbd 80e9 47bc ac55 81be 8614 08bf
00000210: ab4f 8e3e 2fef 32bf a824 8abe d096 88be
00000220: bc02 96be 3459 fbbe d6df 5cbe 1a58 08be
00000230: 40c9 c8bd ecff 6b3c a358 b73d c62f a93e
00000240: f4fd 45be 06b9 593e 0454 96bf 26f8 64be
00000250: 60b2 373e 1618 053e 3a86 923d 254c 25bd
00000260: 566c 583e 8668 203e 46e4 fcbd e63f d8bd
00000270: 5675 973c 823d acbe ebe9 cebc 1c6d 20bd
00000280: 5e94 3c3e eb48 623e 56c1 cabb 36df c9bd
00000290: 4707 aabe abc3 a73c 08a6 57bd ee97 7abe
000002a0: 5b6b 7dbe 8cfd fabe a6a0 173e 82d1 7b3e
000002b0: 27e7 a83e 3ca7 853d 00f1 0fbd adad a1bc
000002c0: a2cd b63d d2c2 39bf e6a7 44be 5aa4 c43d
000002d0: a4ac 0abf 0bbb fb3d b69e 1fbe e613 30be
000002e0: 4a14 f2bd d69b 343c bbee 493e 13bc 5d3e
000002f0: 3eb9 92be 7fe8 1abf ceb6 35be 3d87 2fbe
00000300: f30f dabe 2082 5f3d 6cff 143e 9791 d0be
00000310: 0697 a03d 07d9 9cbe 01c5 a9be fd10 a8be

fc2.weight f4 [20, 200]
-0.56673634 -0.5549415 0.5854758 0.50107276 1.5520445 -0.6067328 -0.5110969 1.5227624
-0.5602775 -0.36560136 -0.44870937 -0.59819674 -0.5881302 1.7420533 -0.5538576 -0.5039524
1.6332961 -0.534414 1.9132578 -0.5500944 -0.5835772 -0.51611704 -0.40596044 -0.4358967
-0.5000915 0.52097136 -0.62886935 -0.57801867 -0.52980864 -0.61285436 -0.63440496 -0.62873524
-0.3813537 -0.38713214 0.6301426 -0.47087592 -0.5608094 -0.57373714 -0.49815863 -0.61005884
-0.48700908 -0.52113 -0.4105605 0.5402378 -0.5683945 -0.5227873 0.52214986 0.6168482
-0.5297157 1.9210441 -0.50577414 -0.5118283 -0.6046566 -0.62031406 0.6230194 0.5888074
-0.6223273 -0.50051206 -0.61960655 -0.50763595 -0.517461 -0.4957214 -0.581742 -0.5360083
-0.53207004 -0.2367867 -0.43155712 -0.19740036 -0.56887114 0.63601536 -0.30915827 0.54542637
0.5873843 -0.5814035 -0.61413485 0.52035284 0.4472238 -0.4505033 0.5360131 -0.3793043
0.6171715 1.8249036 -0.4758559 0.54806376 -0.58275604 0.6005918 -0.48682258 -0.3594851
0.5169531 -0.3765197 -0.5097352 -0.46046144 0.5469365 -0.5739548 1.7694932 -0.62641835
-0.5154681 -0.41403332 0.56475323 -0.62508714 -0.50991035 -0.5525768 -0.52143484 -0.5427334
2.0241632 -0.5360705 0.61709356 0.61738586 -0.5813917 0.5606651 -0.533893 0.53755426
-0.5964108 -0.6309429 1.8582258 -0.20087552 -0.51970744 0.5733597 -0.42483062 0.57829714
-0.5654637 -0.6244632 -0.4991497 -0.6196749 -0.33121383 -0.5120754 0.5268797 0.48911515
0.50403297 -0.5092227 -0.25715917 1.8141611 -0.53428173 1.7068139 0.58329463 -0.36799416
-0.6095721 1.8492798 -0.4992707 -0.4386434 -0.50299686 -0.1601282 -0.47748792 0.52706355
-0.44596055 -0.57056147 1.77155 -0.58626 -0.5914041 -0.4578939 -0.45796427 -0.17321412
-0.62333703 0.49499923 0.5774596 -0.55402243 -0.51743215 1.5863199 -0.54713005 0.4261393
0.5530578 0.60107994 -0.59809387 0.6234121 -0.614482 0.53074 -0.53158563 0.60935503
0.56556755 -0.6002853 -0.56662005 -0.5875418 -0.5815378 -0.3682159 0.58354324 -0.5700458
-0.612218 1.9468987 -0.6269279 -0.6208651 1.7280437 -0.5273655 0.6216875 0.5727902
-0.5932792 -0.61016136 0.6019162 -0.609271 -0.28661168 1.8134828 0.49967757 -0.5498907
-0.16477434 0.6219864 -0.5250936 -0.55153644 0.6276244 -0.50404865 -0.30522412 -0.58604103
-0.36169702 -0.2909578 0.32292104 0.43815148 1.3905127 -0.30700368 -0.36586502 1.354622
-0.35373875 -0.4141734 -0.3496101 -0.34977734 -0.39212254 1.5500342 -0.31721446 -0.39082143
1.4688226 -0.31135356 1.7216455 -0.32490364 -0.3311792 -0.43041295 -0.4383251 -0.42000774
-0.36121428 0.43589756 -0.37694496 -0.41100314 -0.40643787 -0.43719837 -0.31922182 -0.37205556
-0.43488508 -0.43054026 0.41329786 -0.35282922 -0.40806004 -0.39170364 -0.3845076 -0.31858906
-0.38415584 -0.41373447 -0.36510605 0.30011484 -0.43498638 -0.40675393 0.31774464 0.37395746
-0.4599227 1.7783737 -0.352924 -0.37520802 -0.43756422 -0.42748648 0.35476273 0.31819472
00000000: a215 11bf a510 0ebf bee1 153f 4e46 003f
00000010: 65a9 c63f d752 1bbf 3fd7 02bf e1e9 c23f
00000020: 596e 0fbf 1a30 bbbe 3cbd e5be 6c23 19bf
00000030: b38f 16bf 9afb de3f 9dc9 0dbf 0603 01bf
00000040: d90f d13f 5bcf 08bf a2e5 f43f fdd2 0cbf
00000050: 5165 15bf 3f20 04bf 0cda cfbe da2d dfbe
00000060: ff05 00bf 615e 053f 95fd 20bf 08f9 13bf
00000070: 8aa1 07bf 06e4 1cbf 5d68 22bf cbf4 20bf
00000080: cb40 c3be 2f36 c6be 0751 213f a616 f1be
00000090: 3491 0fbf 70e0 12bf a60e ffbe d12c 1cbf
000000a0: 4159 f9be c768 05bf fc34 d2be 064d 0a3f
000000b0: 4d82 11bf 63d5 05bf 9dab 053f c3e9 1d3f
000000c0: 739b 07bf c6e4 f53f 6a7a 01bf 2e07 03bf
000000d0: c6ca 1abf e7cc 1ebf 337e 1f3f 15bc 163f
000000e0: d850 1fbf 8f21 00bf 899e 1ebf 6ef4 01bf
000000f0: 5378 04bf 32cf fdbe 0bed 14bf d737 09bf
00000100: be35 08bf 3678 72be 0ef5 dcbe 5223 4abe
00000110: 8aa1 11bf e7d1 223f fe49 9ebe 10a1 0b3f
00000120: d15e 163f dcd6 14bf f137 1dbf d835 053f
00000130: 85fa e43e 5ea8 e6be 2838 093f 2c34 c2be
00000140: f4fe 1d3f 7196 e93f 62a3 f3be e84d 0c3f
00000150: 802f 15bf 62c0 193f cf40 f9be 6e0e b8be
00000160: 0a57 043f 31c7 c0be 027e 02bf 9ac1 ebbe
00000170: 0804 0c3f b4ee 12bf c17e e23f f45c 20bf
00000180: b8f5 03bf 2dfc d3be ab93 103f b605 20bf
00000190: 7c89 02bf ac75 0dbf c17c 05bf 93f0 0abf
000001a0: e48b 0140 eb3b 09bf d8f9 1d3f 000d 1e3f
000001b0: 16d6 14bf bf87 0f3f 36ad 08bf 289d 093f
000001c0: 61ae 18bf 7985 21bf 58da ed3f 50b2 4dbe
000001d0: 8c0b 05bf b4c7 123f 6683 d9be 480b 143f
000001e0: 3bc2 10bf d2dc 1fbf 8d90 ffbe 04a3 1ebf
000001f0: dc94 a9be 6017 03bf 97e1 063f 4d6d fa3e
00000200: 4e08 013f 6b5c 02bf 5eaa 83be 6e36 e83f
00000210: b0c6 08bf e178 da3f cc52 153f bb69 bcbe
00000220: eb0c 1cbf 33b5 ec3f 69a0 ffbe de95 e0be
00000230: 67c4 00bf a6f8 23be 4c79 f4be a3ed 063f
00000240: f154 e4be 5110 12bf 27c2 e23f 2315 16bf
00000250: 4266 17bf 1271 eabe 4b7a eabe 0b5f 31be
00000260: 0493 1fbf 8a70 fd3e 64d4 133f 6ad4 0dbf
00000270: 6f76 04bf 880c cb3f b710 0cbf ee2e da3e
00000280: 3295 0d3f 60e0 193f ae1c 19bf ef97 1f3f
00000290: b14e 1dbf 94de 073f ff15 08bf b1fe 1b3f
000002a0: 09c9 103f 4cac 19bf 030e 11bf 2469 16bf
000002b0: a9df 14bf cb86 bcbe 1763 153f 86ee 11bf
000002c0: 52ba 1cbf fa33 f93f 597e 20bf 04f1 1ebf
000002d0: 8930 dd3f 6d01 07bf e926 1f3f 61a2 123f
000002e0: 25e1 17bf 8933 1cbf 2e17 1a3f 2ff9 1bbf
000002f0: c4be 92be 3420 e83f bdd5 ff3e a3c5 0cbf
00000300: 9bba 28be 803a 1f3f 896c 06bf 7e31 0dbf
00000310: feab 203f 5509 01bf 5646 9cbe c906 16bf
00000320: 5a30 b9be 6cf8 94be e855 a53e 6455 e03e
00000330: 52fc b13f 962f 9dbe a952 bbbe 4164 ad3f
00000340: 3f1d b5be 890e d4be 1800 b3be 0416 b3be
00000350: 49c4 c8be 8567 c63f ef69 a2be bf19 c8be
00000360: 6102 bc3f bc69 9fbe e15e dc3f c559 a6be
00000370: 5290 a9be 165f dcbe 266c e0be 410b d7be
00000380: 14f1 b8be f72d df3e eefe c0be 016f d2be
00000390: a018 d0be 77d8 dfbe 0b71 a3be 117e bebe
000003a0: 42a9 debe c66f dcbe c79b d33e 08a6 b4be
000003b0: 3fed d0be 618d c8be 2ede c4be 1b1e a3be
000003c0: 13b0 c4be 01d5 d3be 2eef babe a7a8 993e
000003d0: 89b6 debe 0d42 d0be 6daf a23e 5a77 bf3e
000003e0: fd7a ebbe c0a1 e33f 74b2 b4be 441b c0be
000003f0: 6b08 e0be 82df dabe 76a3 b53e 6bea a23e

fc2.bias f4 [20]
0.59316665 0.34562114 0.5687736 0.13579981 0.6016679 -0.118850514 0.56016815 0.5924928
0.5422829 -0.15375128 0.05988511 0.42419267 0.48571524 0.0038128765 0.5065083 0.47251695
0.037502445 0.04191832 -0.05254604 -0.20494305
00000000: c5d9 173f 41f5 b03e 269b 113f 1b0f 0b3e
00000010: e806 1a3f e667 f3bd 2e67 0f3f 9cad 173f
00000020: 0dd3 0a3f fa70 1dbe 174a 753d c82f d93e
00000030: abaf f83e 74e1 793b 87aa 013f beed f13e
00000040: 2a9c 193d 8bb2 2b3d 843a 57bd 97dc 51be

fc3.weight f4 [1, 20]
1.7824684 1.5632002 1.8689984 -1.074026 1.7360225 -0.8894298 1.7032533 1.8170606
1.8090907 -0.56217164 -0.93563914 1.6598251 1.6962566 -1.0351692 1.7560782 1.7673378
-0.9656863 -0.8776157 -1.0140467 -0.36120403
00000000: ed27 e43f f216 c83f 573b ef3f af79 89bf
00000010: fc35 de3f acb1 63bf 3404 da3f 7195 e83f
00000020: 4990 e73f 7bea 0fbf 0c86 6fbf 2675 d43f
00000030: f01e d93f 6d80 84bf 2cc7 e03f 2038 e23f
00000040: 3837 77bf 6cab 60bf 48cc 81bf bcef b8be

bn1.weight f4 [200]
1.0 1.422375 1.0 1.0 2.5831952 1.5029347 1.4013408 2.44418
1.5522474 1.153396 1.3084178 1.0 1.4583398 2.7412164 1.4777187 1.0
2.5836043 1.3500227 2.7900245 1.0 1.0 1.4691463 1.3703265 1.3110116
1.2668793 1.0 1.0 1.4608068 1.4716811 1.4974254 1.5283536 1.0
1.225162 1.3780698 1.0 1.4322675 1.5454271 1.4149938 1.0 1.0
1.4469949 1.5393736 1.3640578 0.5720425 1.4577427 1.4246931 1.0 1.0
1.0 2.7642055 1.0 1.0 1.4643704 1.488191 1.0 1.0
1.0 1.4811815 1.0 1.4601622 1.0 1.4979438 1.0 1.5231425
1.3921802 1.0556743 1.362587 0.9708899 1.5211314 1.0 1.2289796 1.0
1.0 1.4980099 1.0 1.0 1.0 1.3201069 1.0 1.1586657
1.0 2.6702728 1.364551 1.0 1.0 1.0 1.4695722 1.2716271
1.0 1.2227209 1.4387355 1.3089854 1.0 1.0 2.767526 1.0
1.0 1.235566 1.0 1.0 1.4854276 1.501612 1.4478986 1.3649894
2.856174 1.5165778 1.0 1.0 1.0 1.0 1.0 1.0
1.0 1.0 2.850098 0.8818726 1.4098735 1.0 1.2898111 1.0
1.5221332 1.5271429 1.5319335 1.0 1.2224851 1.411068 1.0 1.0
1.0 1.0 1.024062 2.7373827 1.0 2.6008203 1.0 1.2170292
1.0 2.7489083 1.0 1.3119243 1.0 0.94694394 1.4860712 1.0
1.300333 1.0 2.6409492 1.0 1.0 1.4810704 1.4020033 1.0049679
1.0 1.0 1.0 1.0 1.385512 2.4734547 1.0 0.5020384
1.0 1.0 1.0 1.0 1.0 1.0 1.5185454 1.0
1.0 1.4997636 1.448387 1.5482371 1.0 1.2170054 1.0 1.525769
1.5457659 2.8945642 1.0 1.523405 2.5547767 1.0 1.0 1.0
1.492126 1.0 1.0 1.0 1.1589764 2.7205963 1.0 1.4277999
0.96570754 1.0 1.4001961 1.4634813 1.0 1.0 1.1575396 1.4970808
00000000: 0000 803f 6210 b63f 0000 803f 0000 803f
00000010: 1253 2540 2a60 c03f 235f b33f 726d 1c40
00000020: 0bb0 c63f 7ba2 933f 3c7a a73f 0000 803f
00000030: e1aa ba3f 1770 2f40 e325 bd3f 0000 803f
00000040: c659 2540 8bcd ac3f c38f 3240 0000 803f
00000050: 0000 803f fc0c bc3f dc66 af3f 3acf a73f
00000060: 1a29 a23f 0000 803f 0000 803f b8fb ba3f
00000070: 0c60 bc3f a3ab bf3f 17a1 c33f 0000 803f
00000080: 1cd2 9c3f 9764 b03f 0000 803f 8b54 b73f
00000090: 8ed0 c53f 841e b53f 0000 803f 0000 803f
000000a0: 2137 b93f 320a c53f 7299 ae3f 6171 123f
000000b0: 5097 ba3f 585c b63f 0000 803f 0000 803f
000000c0: 0000 803f bee8 3040 0000 803f 0000 803f
000000d0: 7d70 bb3f 0b7d be3f 0000 803f 0000 803f
000000e0: 0000 803f 5b97 bd3f 0000 803f 98e6 ba3f
000000f0: 0000 803f 9fbc bf3f 0000 803f 55f6 c23f
00000100: f632 b23f 5620 873f 4069 ae3f 3e8c 783f
00000110: 6fb4 c23f 0000 803f 344f 9d3f 0000 803f
00000120: 0000 803f cabe bf3f 0000 803f 0000 803f
00000130: 0000 803f 43f9 a83f 0000 803f 284f 943f
00000140: 0000 803f c0e5 2a40 9ba9 ae3f 0000 803f
00000150: 0000 803f 0000 803f f11a bc3f adc4 a23f
00000160: 0000 803f 1e82 9c3f 7c28 b83f d58c a73f
00000170: 0000 803f 0000 803f 251f 3140 0000 803f
00000180: 0000 803f 0727 9e3f 0000 803f 0000 803f
00000190: 7e22 be3f d234 c03f be54 b93f f9b7 ae3f
000001a0: 8ecb 3640 391f c23f 0000 803f 0000 803f
000001b0: 0000 803f 0000 803f 0000 803f 0000 803f
000001c0: 0000 803f 0000 803f 0168 3640 67c2 613f
000001d0: bc76 b43f 0000 803f 8818 a53f 0000 803f
000001e0: 43d5 c23f 6b79 c33f 6616 c43f 0000 803f
000001f0: 647a 9c3f e09d b43f 0000 803f 0000 803f
00000200: 0000 803f 0000 803f 7714 833f 4731 2f40
00000210: 0000 803f d773 2640 0000 803f 9dc7 9b3f
00000220: 0000 803f 1dee 2f40 0000 803f 23ed a73f
00000230: 0000 803f eb6a 723f 9537 be3f 0000 803f
00000240: 5071 a63f 0000 803f 5005 2940 0000 803f
00000250: 0000 803f b793 bd3f d874 b33f caa2 803f
00000260: 0000 803f 0000 803f 0000 803f 0000 803f
00000270: 7558 b13f 154d 1e40 0000 803f 9785 003f
00000280: 0000 803f 0000 803f 0000 803f 0000 803f
00000290: 0000 803f 0000 803f b25f c23f 0000 803f
000002a0: 0000 803f 41f8 bf3f bf64 b93f a22c c63f
000002b0: 0000 803f d5c6 9b3f 0000 803f 664c c33f
000002c0: a8db c53f 8a40 3940 0000 803f effe c23f
000002d0: 7681 2340 0000 803f 0000 803f 0000 803f
000002e0: fcfd be3f 0000 803f 0000 803f 0000 803f
000002f0: 5759 943f 401e 2e40 0000 803f 26c2 b63f
00000300: 9c38 773f 0000 803f a039 b33f 5b53 bb3f
00000310: 0000 803f 0000 803f 422a 943f 58a0 bf3f

bn1.bias f4 [200]
-0.55297035 -0.5201243 0.56032294 0.5595337 0.11167911 -0.55124986 -0.55161893 0.071912564
-0.5509706 -0.42972177 -0.51476395 -0.54760724 -0.4771927 0.036444556 -0.535401 -0.5339399
-0.1774043 -0.47224003 -0.069956906 -0.5659515 -0.57445526 -0.432325 -0.45243606 -0.52272207
-0.555274 0.55805475 -0.5711432 -0.5634798 -0.4632807 -0.54657686 -0.51495576 -0.5631029
-0.49846247 -0.49380365 0.5595733 -0.52072424 -0.56434935 -0.484169 -0.55342835 -0.4985882
-0.50902236 -0.5485227 -0.48914105 0.5585869 -0.53183365 -0.452002 0.55376333 0.5680365
-0.49805307 -0.50820726 -0.5791804 -0.54077417 -0.4707239 -0.5528012 0.5477083 0.56708306
-0.5692621 -0.5757125 -0.57767576 -0.51728076 -0.5659865 -0.56842184 -0.5704704 -0.54872364
-0.5398242 -0.31834668 -0.5367793 -0.38315514 -0.5367569 0.5698173 -0.43656978 0.5197658
0.5687682 -0.5395614 -0.56010795 0.57783854 0.47245628 -0.46515167 0.54157406 -0.3668293
0.56445473 -0.3536934 -0.5441379 0.5520956 -0.5211546 0.5590609 -0.49426523 -0.39357105
0.5152866 -0.44199675 -0.5228024 -0.45640096 0.52386343 -0.5361769 0.09847201 -0.5302205
-0.5364268 -0.4273207 0.53874415 -0.5566293 -0.4606179 -0.5492479 -0.49232218 -0.46875727
-0.40802526 -0.5608896 0.5479293 0.52611744 -0.57706815 0.56100786 -0.5142241 0.5063184
-0.56126785 -0.5301266 -0.44925132 -0.23067823 -0.4796305 0.556244 -0.53057295 0.55874556
-0.55695677 -0.52305555 -0.5343129 -0.5684841 -0.50241905 -0.46837255 0.5241552 0.50365335
0.52682173 -0.5413432 -0.37083203 0.00366003 -0.5525566 -0.30947638 0.566242 -0.52371204
-0.5655779 -0.2910917 -0.54950744 -0.4611825 -0.5587755 -0.29841024 -0.47915563 0.54624516
-0.43855712 -0.57311827 -0.6339201 -0.5512951 -0.5522607 -0.48786634 -0.5365652 -0.29431236
-0.5713808 0.5184872 0.5531237 -0.57014227 -0.4889883 -0.2948776 -0.54983157 0.54915416
0.49671778 0.5367121 -0.57408124 0.56522673 -0.537422 0.55831015 -0.5358806 0.52639174
0.5365414 -0.50902647 -0.49177492 -0.5652319 -0.49695367 -0.41957065 0.5403571 -0.53280264
-0.5311544 -0.39904222 -0.56877613 -0.5487162 -0.1748201 -0.55197406 0.57400763 0.5521631
-0.47892368 -0.56466204 0.545631 -0.5506597 -0.4803124 -0.67910093 0.5246115 -0.52286667
-0.31077915 0.57968646 -0.49635667 -0.48797038 0.55343246 -0.49205148 -0.529711 -0.5566802
00000000: 778f 0dbf de26 05bf 5371 0f3f 9a3d 0f3f
00000010: 04b8 e43d b61e 0dbf e636 0dbf e546 933d
00000020: 690c 0dbf 7e04 dcbe 92c7 03bf fd2f 0cbf
00000030: 9a52 f4be e346 153d 0a10 09bf 49b0 08bf
00000040: 79a9 35be 72c9 f1be 9145 8fbd 33e2 10bf
00000050: 800f 13bf b459 ddbe b3a5 e7be 1dd1 05bf
00000060: 7026 0ebf addc 0e3f 7136 12bf 3640 10bf
00000070: 2133 edbe 76ec 0bbf 24d4 03bf 8327 10bf
00000080: 7936 ffbe d5d3 fcbe 3240 0f3f 2f4e 05bf
00000090: 3379 10bf 00e5 f7be 7bad 0dbf f446 ffbe
000000a0: 4a4f 02bf fc6b 0cbf b270 fabe 8dff 0e3f
000000b0: 4026 08bf ce6c e7be 6fc3 0d3f d76a 113f
000000c0: d000 ffbe df19 02bf 2b45 14bf 2d70 0abf
000000d0: b902 f1be 6184 0dbf 9c36 0c3f 5b2c 113f
000000e0: 29bb 11bf e561 13bf 8fe2 13bf 836c 04bf
000000f0: 7ee4 10bf 1884 11bf 590a 12bf 2779 0cbf
00000100: eb31 0abf 56fe a2be 5e6a 09bf e92c c4be
00000110: e668 09bf 8cdf 113f 1386 dfbe 5f0f 053f
00000120: cb9a 113f b220 0abf 3c63 0fbf 3aed 133f
00000130: cae5 f13e 5c28 eebe 99a4 0a3f 0dd1 bbbe
00000140: 1b80 103f 4d17 b5be 9f4c 0bbf 2356 0d3f
00000150: 636a 05bf 9d1e 0f3f 5510 fdbe 2582 c9be
00000160: d3e9 033f 664d e2be 61d6 05bf 63ad e9be
00000170: ea1b 063f e442 09bf b1ab c93d 88bc 07bf
00000180: 4453 09bf c7c9 dabe 23eb 093f 427f 0ebf
00000190: 1cd6 ebbe 839b 0cbf a711 fcbe f400 f0be
000001a0: b0e8 d0be 7696 0fbf 1845 0c3f a2af 063f
000001b0: bdba 13bf 369e 0f3f 31a4 03bf 159e 013f
000001c0: 40af 0fbf 60b6 07bf 4504 e6be ea36 6cbe
000001d0: 2192 f5be 0266 0e3f a1d3 07bf f309 0f3f
000001e0: b894 0ebf f8e6 05bf bbc8 08bf 2d88 11bf
000001f0: 899e 00bf 87ce efbe 092f 063f 6def 003f
00000200: cadd 063f 7895 0abf b2dd bdbe 1ddd 6f3b
00000210: 5974 0dbf b073 9ebe 3cf5 103f fe11 06bf
00000220: b7c9 10bf f909 95be 85ac 0cbf 1d20 ecbe
00000230: e90b 0fbf 3ac9 98be e353 f5be b9d6 0b3f
00000240: 8f8a e0be e1b7 12bf 9648 22bf ad21 0dbf
00000250: f560 0dbf 9ec9 f9be 565c 09bf 1cb0 96be
00000260: 0346 12bf 94bb 043f 8499 0d3f d8f4 11bf
00000270: ad5c fabe 32fa 96be c3c1 0cbf 5e95 0c3f
00000280: cb51 fe3e f765 093f fdf6 12bf b3b2 103f
00000290: 7d94 09bf 6aed 0e3f 792f 09bf 9cc1 063f
000002a0: c75a 093f 8f4f 02bf ecc9 fbbe 0ab3 10bf
000002b0: b670 febe f7d1 d6be d854 0a3f c165 08bf
000002c0: bcf9 07bf 434f ccbe 509b 11bf aa78 0cbf
000002d0: 0a04 33be 2c4e 0dbf 2af2 123f 905a 0d3f
000002e0: 7c35 f5be b18d 10bf 79ae 0b3f 09f8 0cbf
000002f0: 82eb f5be 8fd9 2dbf f04c 063f 97da 05bf
00000300: 721e 9fbe 5566 143f 7622 febe 41d7 f9be
00000310: c0ad 0d3f 2cee fbbe 249b 07bf 9882 0ebf

bn1.running_mean f4 [200]
0.0 188.90958 0.0 0.0 667.0442 152.05293 752.4774 1379.7655
175.51024 20689.908 17448.65 0.0 2431.232 12441.345 8853.682 0.0
21725.158 13252.83 10882.625 0.0 0.0 3557.4854 15652.04 19056.855
14413.953 0.0 0.0 8402.157 6887.9453 5320.7266 5082.6265 0.0
22445.207 15370.1 0.0 7569.024 117.64421 14991.904 0.0 0.0
5278.8486 5382.8535 15744.277 0.12674782 13167.482 1.8337636 0.0 0.0
0.0 31203.787 0.0 0.0 13752.645 687.1637 0.0 0.0
0.0 8108.7104 0.0 3420.6597 0.0 6737.7197 0.0 5026.662
17036.43 19039.19 15037.64 26317.568 3986.6528 0.0 17609.408 0.0
0.0 4022.9673 0.0 0.0 0.0 3251.278 0.0 16422.258
0.0 36041.0 19773.295 0.0 0.0 0.0 11159.237 9211.294
0.0 15779.93 5358.2524 18315.43 0.0 0.0 8895.202 0.0
0.0 14990.504 0.0 0.0 3555.9565 11756.442 11294.15 2338.6086
28122.889 5173.6626 0.0 0.0 0.0 0.0 0.0 0.0
0.0 0.0 33214.777 28594.037 10053.751 0.0 16450.277 0.0
6555.0454 5389.256 1421.918 0.0 22071.281 11106.009 0.0 0.0
0.0 0.0 22657.496 13529.459 0.0 33844.586 0.0 22075.225
0.0 35116.75 0.0 0.016089138 0.0 24508.34 9852.045 0.0
18057.043 0.0 28150.549 0.0 0.0 6.2722254 1599.8059 23746.322
0.0 0.0 0.0 0.0 795.8558 31617.133 0.0 1.7708662
0.0 0.0 0.0 0.0 0.0 0.0 11161.413 0.0
0.0 6910.894 5244.616 996.40546 0.0 20397.977 0.0 11020.262
3965.6533 28239.97 0.0 13096.2705 39974.2 0.0 0.0 0.0
893.4842 0.0 0.0 0.0 20298.445 32565.098 0.0 14329.301
24782.814 0.0 8196.709 9476.036 0.0 0.0 18660.41 2934.3389
00000000: 0000 0000 dae8 3c43 0000 0000 0000 0000
00000010: d4c2 2644 8d0d 1843 8e1e 3c44 7f78 ac44
00000020: 9f82 2f43 d1a3 a146 4d51 8846 0000 0000
00000030: b6f3 1745 6165 4246 ba56 0a46 0000 0000
00000040: 51ba a946 5213 4f46 800a 2a46 0000 0000
00000050: 0000 0000 c457 5e45 2990 7446 b6e1 9446
00000060: d037 6146 0000 0000 0000 0000 a148 0346
00000070: 903f d745 d045 a645 03d5 9e45 0000 0000
00000080: 6a5a af46 6628 7046 0000 0000 3188 ec45
00000090: d649 eb42 9e3f 6a46 0000 0000 0000 0000
000000a0: caf6 a445 d436 a845 1c01 7646 2eca 013e
000000b0: eebd 4d46 c4b8 ea3f 0000 0000 0000 0000
000000c0: 0000 0000 93c7 f346 0000 0000 0000 0000
000000d0: 94e2 5646 7aca 2b44 0000 0000 0000 0000
000000e0: 0000 0000 af65 fd45 0000 0000 8eca 5545
000000f0: 0000 0000 c28d d245 0000 0000 4c15 9d45
00000100: dc18 8546 61be 9446 8ff6 6a46 239b cd46
00000110: 722a 7945 0000 0000 d192 8946 0000 0000
00000120: 0000 0000 7a6f 7b45 0000 0000 0000 0000
00000130: 0000 0000 7334 4b45 0000 0000 844c 8046
00000140: 0000 0000 00c9 0c47 977a 9a46 0000 0000
00000150: 0000 0000 0000 0000 f35c 2e46 2ded 0f46
00000160: 0000 0000 b88f 7646 0572 a745 dc16 8f46
00000170: 0000 0000 0000 0000 cffc 0a46 0000 0000
00000180: 0000 0000 043a 6a46 0000 0000 0000 0000
00000190: 4e3f 5e45 c5b1 3746 9a78 3046 bd29 1245
000001a0: c7b5 db46 4dad a145 0000 0000 0000 0000
000001b0: 0000 0000 0000 0000 0000 0000 0000 0000
000001c0: 0000 0000 0000 0000 c7be 0147 1364 df46
000001d0: 0117 1d46 0000 0000 8e84 8046 0000 0000
000001e0: 5dd8 cc45 0c6a a845 60bd b144 0000 0000
000001f0: 906e ac46 0988 2d46 0000 0000 0000 0000
00000200: 0000 0000 0000 0000 fe02 b146 d665 5346
00000210: 0000 0000 9634 0447 0000 0000 7376 ac46
00000220: 0000 0000 c02c 0947 0000 0000 5ecd 833c
00000230: 0000 0000 ae78 bf46 2ef0 1946 0000 0000
00000240: 1612 8d46 0000 0000 19ed db46 0000 0000
00000250: 0000 0000 12b6 c840 caf9 c744 a584 b946
00000260: 0000 0000 0000 0000 0000 0000 0000 0000
00000270: c5f6 4644 4402 f746 0000 0000 beab e23f
00000280: 0000 0000 0000 0000 0000 0000 0000 0000
00000290: 0000 0000 0000 0000 a765 2e46 0000 0000
000002a0: 0000 0000 27f7 d745 eee4 a345 f319 7944
000002b0: 0000 0000 f45b 9f46 0000 0000 0c31 2c46
000002c0: 74da 7745 f19f dc46 0000 0000 15a1 4c46
000002d0: 3326 1c47 0000 0000 0000 0000 0000 0000
000002e0: fd5e 5f44 0000 0000 0000 0000 0000 0000
000002f0: e494 9e46 326a fe46 0000 0000 34e5 5f46
00000300: a19d c146 0000 0000 d612 0046 2510 1446
00000310: 0000 0000 0000 0000 d2c8 9146 6c65 3745

bn1.running_var f4 [200]
0.6561 369639.72 0.6561 0.6561 2.3992502e+06 256510.23 2.475738e+06 8.276964e+06
599419.9 1.3277029e+09 9.1607814e+08 0.6561 1.8739634e+07 4.741004e+08 2.5173154e+08 0.6561
1.478085e+09 5.49511e+08 3.834364e+08 0.6561 0.6561 4.043598e+07 7.373562e+08 1.1429605e+09
6.303284e+08 0.6561 0.6561 2.2096243e+08 1.3921024e+08 9.360657e+07 9.048662e+07 0.6561
1.5540652e+09 7.38542e+08 0.6561 1.795595e+08 309265.72 7.078436e+08 0.6561 0.6561
9.5419224e+07 8.410541e+07 7.459386e+08 57.07088 5.3441792e+08 611.9695 0.6561 0.6561
0.6561 3.0443412e+09 0.6561 0.6561 5.700947e+08 4.6488895e+06 0.6561 0.6561
0.6561 2.101195e+08 0.6561 3.4828044e+07 0.6561 1.4641069e+08 0.6561 7.742892e+07
8.8242675e+08 1.1217537e+09 7.046768e+08 2.1265901e+09 5.5188976e+07 0.6561 9.793921e+08 0.6561
0.6561 5.4198828e+07 0.6561 0.6561 0.6561 4.1532156e+07 0.6561 8.424358e+08
0.6561 3.98769e+09 1.2164735e+09 0.6561 0.6561 0.6561 4.009935e+08 2.7605507e+08
0.6561 7.5310234e+08 9.571156e+07 1.04407405e+09 0.6561 0.6561 2.5852573e+08 0.6561
0.6561 6.9159014e+08 0.6561 0.6561 3.6841536e+07 4.4204752e+08 4.014775e+08 1.9997956e+07
2.446696e+09 9.260704e+07 0.6561 0.6561 0.6561 0.6561 0.6561 0.6561
0.6561 0.6561 3.4403912e+09 2.5600494e+09 3.1324374e+08 0.6561 8.42335e+08 0.6561
1.4658718e+08 8.701672e+07 9.274943e+06 0.6561 1.5355635e+09 3.7591635e+08 0.6561 0.6561
0.6561 0.6561 1.5736764e+09 5.500145e+08 0.6561 3.533667e+09 0.6561 1.4809012e+09
0.6561 3.83378e+09 0.6561 1.1088322 0.6561 1.8507043e+09 3.064979e+08 0.6561
1.0035329e+09 0.6561 2.459171e+09 0.6561 0.6561 4517.1235 1.0012372e+07 1.707258e+09
0.6561 0.6561 0.6561 0.6561 2.4289852e+06 3.046901e+09 0.6561 1665.6189
0.6561 0.6561 0.6561 0.6561 0.6561 0.6561 3.8984195e+08 0.6561
0.6561 1.5207502e+08 9.497917e+07 7.1194045e+06 0.6561 1.3048726e+09 0.6561 3.7588682e+08
5.1356644e+07 2.4647672e+09 0.6561 5.2271075e+08 4.93107e+09 0.6561 0.6561 0.6561
7.199011e+06 0.6561 0.6561 0.6561 1.2747688e+09 3.2691581e+09 0.6561 6.368487e+08
1.9171638e+09 0.6561 2.2204915e+08 2.709996e+08 0.6561 0.6561 1.0648318e+09 3.0570664e+07
00000000: 2bf6 273f f77c b448 2bf6 273f 2bf6 273f
00000010: 4970 124a 8f7f 7a48 681b 174a c897 fc4a
00000020: be57 1249 4746 9e4e f968 5a4e 2bf6 273f
00000030: d9f8 8e4b 9611 e24d e511 704d 2bf6 273f
00000040: 9333 b04e 7d03 034e 34d6 b64d 2bf6 273f
00000050: 2bf6 273f 4340 1a4c a7cc 2f4e 6340 884e
00000060: 3148 164e 2bf6 273f 2bf6 273f e8b9 524d
00000070: e0c2 044d 558a b24c ec96 ac4c 2bf6 273f
00000080: 4e42 b94e 0715 304e 2bf6 273f c53d 2b4d
00000090: 3702 9748 58c3 284e 2bf6 273f 2bf6 273f
000000a0: 6bff b54c 186b a04c 7bd8 314e 9548 6442
000000b0: 90d4 fe4d 0cfe 1844 2bf6 273f 2bf6 273f
000000c0: 2bf6 273f f674 354f 2bf6 273f 2bf6 273f
000000d0: d2eb 074e 73df 8d4a 2bf6 273f 2bf6 273f
000000e0: 2bf6 273f b562 484d 2bf6 273f c3db 044c
000000f0: 2bf6 273f cca0 0b4d 2bf6 273f 17af 934c
00000100: 0e63 524e 35b9 854e 0f02 284e 6182 fd4e
00000110: 7c87 524c 2bf6 273f 5a81 694e 2bf6 273f
00000120: 2bf6 273f 8bc0 4e4c 2bf6 273f 2bf6 273f
00000130: 2bf6 273f bf6e 1e4c 2bf6 273f 33da 484e
00000140: 2bf6 273f 52af 6d4f d303 914e 2bf6 273f
00000150: 2bf6 273f 2bf6 273f 6735 bf4d 21a2 834d
00000160: 2bf6 273f b88d 334e 298e b64c 39ed 784e
00000170: 2bf6 273f 2bf6 273f a28c 764d 2bf6 273f
00000180: 2bf6 273f 50e3 244e 2bf6 273f 2bf6 273f
00000190: 108a 0c4c e1c8 d24d 7c70 bf4d 8292 984b
000001a0: 9ed5 114f 48a2 b04c 2bf6 273f 2bf6 273f
000001b0: 2bf6 273f 2bf6 273f 2bf6 273f 2bf6 273f
000001c0: 2bf6 273f 2bf6 273f 3410 4d4f 4197 184f
000001d0: c35d 954d 2bf6 273f 0cd4 484e 2bf6 273f
000001e0: e3cb 0b4d a2f8 a54c 3f86 0d4b 2bf6 273f
000001f0: ae0d b74e 3a40 b34d 2bf6 273f 2bf6 273f
00000200: 2bf6 273f 2bf6 273f cb98 bb4e 3922 034e
00000210: 2bf6 273f 7b9f 524f 2bf6 273f 8589 b04e
00000220: 2bf6 273f d782 644f 2bf6 273f 37ee 8d3f
00000230: 2bf6 273f 039f dc4e 4b26 924d 2bf6 273f
00000240: ca42 6f4e 2bf6 273f f993 124f 2bf6 273f
00000250: 2bf6 273f fd28 8d45 d4c6 184b 6185 cb4e
00000260: 2bf6 273f 2bf6 273f 2bf6 273f 2bf6 273f
00000270: e540 144a 059c 354f 2bf6 273f ce33 d044
00000280: 2bf6 273f 2bf6 273f 2bf6 273f 2bf6 273f
00000290: 2bf6 273f 2bf6 273f 21e4 b94d 2bf6 273f
000002a0: 2bf6 273f b107 114d 8c28 b54c 5944 d94a
000002b0: 2bf6 273f 8d8d 9b4e 2bf6 273f 9f3c b34d
000002c0: f9e8 434c 5de9 124f 2bf6 273f 773f f94d
000002d0: 14f5 924f 2bf6 273f 2bf6 273f 2bf6 273f
000002e0: 46b2 db4a 2bf6 273f 2bf6 273f 2bf6 273f
000002f0: dbf6 974e 65db 424f 2bf6 273f 29d6 174e
00000300: 328b e44e 2bf6 273f 38c3 534d 0239 814d
00000310: 2bf6 273f 2bf6 273f 2de0 7d4e 543c e94b

bn2.weight f4 [20]
2.6453772 2.4440389 2.64786 1.8509558 2.647285 1.7496464 2.5949643 2.6451774
2.6492422 1.0652686 1.8583354 2.480582 2.5975633 1.8502245 2.609321 2.6015267
1.8578268 1.7898562 1.8493701 0.92874056
00000000: dc4d 2940 226b 1c40 8a76 2940 1fec ec3f
00000010: 1e6d 2940 6af4 df3f e513 2640 964a 2940
00000020: 2f8d 2940 b95a 883f efdd ed3f dbc1 1e40
00000030: 7a3e 2640 28d4 ec3f 1eff 2640 6a7f 2640
00000040: 45cd ed3f 021a e53f 29b8 ec3f f1c1 6d3f

bn2.bias f4 [20]
0.75113183 0.7195673 0.75815904 -0.8680818 0.7479638 -0.8717556 0.7427333 0.75410044
0.75359267 -0.75178146 -0.8727952 0.7323623 0.74294525 -0.86874855 0.7482304 0.74923503
-0.87117547 -0.8763291 -0.8696186 -0.62590784
00000000: 2d4a 403f 9035 383f b616 423f 9c3a 5ebf
00000010: 8e7a 3f3f 602b 5fbf c523 3e3f ba0c 413f
00000020: 73eb 403f c074 40bf 826f 5fbf 187c 3b3f
00000030: a931 3e3f 4e66 5ebf 078c 3f3f decd 3f3f
00000040: 5b05 5fbf 1b57 60bf 539f 5ebf 7f3b 20bf

bn2.running_mean f4 [20]
0.19408058 0.04356504 0.16915691 0.19921277 0.291579 0.16901517 0.07072259 0.2543134
0.19816887 0.15744862 0.17392634 0.12007205 0.17051412 0.23325843 0.1355794 0.15759234
0.21382456 0.070178665 0.18076612 0.15897542
00000000: 0fbd 463e 4171 323d 7837 2d3e 6ffe 4b3e
00000010: d849 953e 5012 2d3e 01d7 903d 5e35 823e
00000020: c8ec 4a3e 363a 213e bf19 323e 56e8 f53d
00000030: 419b 2e3e 4cdb 6e3e 54d5 0a3e e35f 213e
00000040: d3f4 5a3e d5b9 8f3d c11a 393e 74ca 223e

bn2.running_var f4 [20]
0.74908197 0.67962164 0.73110676 1.196218 0.8714067 1.0961465 0.6730136 0.81867903
0.7612797 1.0229001 1.1119125 0.85359716 0.74638486 1.4289926 0.706655 0.7389079
1.3169482 0.70147 1.1904001 1.0896018
00000000: d6c3 3f3f affb 2d3f d029 3b3f ac1d 993f
00000010: 8214 5f3f 874e 8c3f 9f4a 2c3f f394 513f
00000020: 3ae3 423f 64ee 823f 2653 8e3f 5885 5a3f
00000030: 1413 3f3f 3be9 b63f 58e7 343f 1129 3d3f
00000040: c291 a83f 8a93 333f 085f 983f 1278 8b3f
