Results/NN_MLP_MLs/MLP_Ensemble/Model_Results/MGTwRD/3layer-test1/best_model_0.pt (torch, 88157 bytes, 20 tensors)

country_embedding.weight f4 [8, 2]
00000000: b6d8 32c1 9ed8 32c1 4059 4dc1 a358 4dc1
00000010: e07c 8341 df7c 8341 278a b0c0 a98c b0c0
00000020: 5256 f2c0 5556 f2c0 b19e 55c1 cd9e 55c1
00000030: ad87 06c1 e988 06c1 7a96 7b3e 2381 7b3e
-11.177908 -11.177885 -12.83429 -12.83414 16.435974 16.435972 -5.5168643 -5.5171704
-7.573037 -7.5730386 -13.351243 -13.35127 -8.408124 -8.408425 0.24569121 0.2456098

fc1.weight f4 [200, 74]
00000000: f183 cf3e a3e7 4bc2 44c7 0f41 7782 94c1
00000010: 37d8 24c1 bc43 67c1 386f c83f 75ef 2cc1
00000020: c0a5 b8c1 50ce 50c1 1f23 52c1 e861 0ac1
00000030: e039 37c1 5fd8 e3c0 0288 2fc1 d6a9 a8c0
00000040: c5aa e7bf 62b2 57c1 43dc 9340 cf04 d040
00000050: 93f7 0c3d d87a 2f40 ace2 0640 3eec 3340
00000060: 6f01 d43f 412e ec3f 0053 5640 0403 1d41
00000070: e5dc 3a3f 0914 3041 45a7 de40 0fa5 193f
00000080: f9bf fcbe aa72 de3f 2fed 6b3f 3cc2 7236
00000090: eb5c 5140 959c 5e40 fdb1 733f 3178 9e3f
000000a0: 5965 2ec0 3c91 ca3d a0fc 1440 c622 993f
000000b0: 19a4 a03f 271b c940 e2d7 6ebf 8c7c 0441
000000c0: 3165 7840 1c26 25c0 a50f 8bc0 aee0 0341
000000d0: bf43 d43d f778 6a36 de71 f03f 7373 9340
000000e0: fdee ad3f b62d 553f a4f3 00c0 d43f de3f
000000f0: ef76 e83f 0abd 983f 6fbc 4d3f 45b4 fc40
00000100: e9ee 9cbf cd71 a340 ced3 8e40 50ed a1bf
00000110: 78d4 b8c0 dc70 1141 66d3 eb3d f68f dfb5
00000120: 01f3 3942 5ff3 3942 7509 b335 29fb f635
00000130: 43cf 2e36 069d b635 c6af 71b6 0a68 1eb6
00000140: cedb f335 9d70 4c35 777d 3eb6 709c 0cb6
00000150: b1b9 6536 a28a 2436 9ef2 d4b5 3bd6 75b5
00000160: 459e 68b6 2974 8cb3 58e4 37b6 315c 3cb6
00000170: 1447 57b4 62a8 1235 6902 c8b5 12e6 1036
00000180: 9699 14b6 5c92 5d36 8958 2736 8aec 4db6
00000190: 8a1a 73b5 4e4c 3034 2c83 0e35 59aa 6735
000001a0: dea7 bf35 bd08 6a34 244c eeb5 0d19 e735
000001b0: 8c3d 6ab6 1bbc 10b6 7283 74b5 1be6 edb5
000001c0: 94da aab5 7e25 48b6 51c6 4fb5 33ca 5035
000001d0: 5815 1fb6 8282 48b4 41ce 2e36 c6d2 c8b4
000001e0: 592c d933 d787 a8b4 6bae 4535 7e44 1b36
000001f0: 2b4f 6736 8913 1b36 c3d6 6736 8d48 8db4
00000200: f25c 5bb6 8988 e7b5 cd45 2636 a59e cab2
00000210: 58c0 f2b5 bb20 3bb6 e586 64b6 e719 4eb6
00000220: 0f20 46b5 b8ea 0536 6d05 0436 d981 6bb6
00000230: cb52 1836 0615 3fb6 0e80 4eb5 e206 c6b5
00000240: 1c24 3cb5 3ec8 3fb5 fc1f 5bb6 38d8 52b6
00000250: 3fd8 18b5 d11b 4a33 21dc ddb5 48f9 b735
00000260: c2c9 5bb6 ded6 83b4 c1bf 5636 ad35 c7b5
00000270: ab81 5c36 0fdf b035 cd5f 5cb6 3080 1a36
00000280: 916d e1b4 e904 dab5 1745 4336 d054 45b6
00000290: d39f d134 8f81 4cb5 9761 2e36 a054 8835
000002a0: 48ac ea35 5f7a ac35 8ae3 6ab5 d46b 4db5
000002b0: 2a3c 49b6 9450 0436 4ee2 4136 e914 2736
000002c0: a03f 2cb6 9b41 2e34 ca23 2cb6 ae6c 06b6
000002d0: fa4a 0eb6 69e7 a635 a084 11b6 c07b aab3
000002e0: e05c 2434 5669 1d36 3d97 38b6 46a4 27b6
000002f0: 31cb 0db6 f4ea 2a36 e58e afb5 78f9 4d36
00000300: 6c9a b035 4f5e f734 bfac e8b2 0f17 41b5
00000310: 7a1a f534 000a 5fb5 b39f dbb2 5742 f934
00000320: f701 3fb6 70fa ffb5 142f 4536 cf2c 46b6
00000330: f146 8cb4 ca90 7136 296c b035 323e dd33
00000340: b09e 53b6 15ef f135 17ef 2db6 64a2 8ab5
00000350: a3dc a3b5 cca5 10b5 acf2 2a33 c669 4936
00000360: 63e0 f334 cfb8 5a36 f65f 1536 e761 1ab6
00000370: 430b db35 3b9e 2cb6 9dfd ceb5 03a5 8f35
00000380: e342 a135 6033 3736 4338 9db5 9826 c831
00000390: 516e fb35 4928 6cb6 cf8b 3036 8ced 49b6
000003a0: dc65 5733 fe10 26b5 199c 00b6 e519 0135
000003b0: 6bed 4936 ccc3 8eb5 a4f9 10b6 be9f b4b5
000003c0: a607 72b6 6374 dc35 048e eab5 e4f5 22b6
000003d0: 20ae 0cb6 7766 0c36 7a51 0136 616c 3b36
000003e0: e725 b135 be19 a3b5 ad7a 88b5 cf48 9035
000003f0: 2ebc 4836 d2c9 8435 7713 e7b5 ec93 e5b5
0.4053035 -50.976208 8.986149 -18.563704 -10.302787 -14.454037 1.5658941 -10.808461
-23.080933 -13.050369 -13.1335745 -8.648903 -11.45163 -7.1201625 -10.970705 -5.270732
-1.809899 -13.4810505 4.6206374 6.500587 0.034415793 2.7418728 2.107585 2.811294
1.6562937 1.8451616 3.348816 9.813236 0.7299331 11.004891 6.9579186 0.60017484
-0.49365214 1.7378743 0.9215879 3.617387e-06 3.2712963 3.478307 0.95193464 1.238043
-2.7249358 0.098909825 2.327919 1.1963737 1.2550079 6.2845645 -0.9329816 8.280407
3.8811762 -2.580451 -4.3456597 8.242353 0.10364484 3.4939128e-06 1.878475 4.607843
1.3588558 0.83272874 -2.0148706 1.7363229 1.8161296 1.193269 0.8036565 7.8970056
-1.226041 5.1076417 4.463355 -1.2650547 -5.775936 9.090054 0.115149304 -1.6656693e-06
46.48731 46.487667 1.3339292e-06 1.8401525e-06 2.6048663e-06 1.3605757e-06 -3.6014112e-06 -2.3604393e-06
1.8168882e-06 7.6159796e-07 -2.8385236e-06 -2.0952684e-06 3.4231746e-06 2.45186e-06 -1.5865842e-06 -9.158136e-07
-3.466282e-06 -6.5403874e-08 -2.7402039e-06 -2.8067846e-06 -2.0049293e-07 5.463427e-07 -1.4901863e-06 2.159159e-06
-2.2143117e-06 3.3016759e-06 2.4936473e-06 -3.0685064e-06 -9.0563174e-07 1.6419037e-07 5.309e-07 8.6302094e-07
1.4279465e-06 2.1796127e-07 -1.7754542e-06 1.7218132e-06 -3.4904542e-06 -2.1567164e-06 -9.108836e-07 -1.7724846e-06
-1.2729602e-06 -2.9824146e-06 -7.74021e-07 7.7780277e-07 -2.370527e-06 -1.867393e-07 2.6048076e-06 -3.740626e-07
1.0112917e-07 -3.1391275e-07 7.364203e-07 2.3136668e-06 3.4467764e-06 2.310817e-06 3.454669e-06 -2.6316084e-07
-3.2687644e-06 -1.7250578e-06 2.4776557e-06 -2.3588038e-08 -1.8086384e-06 -2.7884223e-06 -3.4053166e-06 -3.071147e-06
-7.38074e-07 1.9955169e-06 1.967269e-06 -3.509331e-06 2.2697957e-06 -2.8473455e-06 -7.6927324e-07 -1.4754153e-06
-7.0088004e-07 -7.1444435e-07 -3.265216e-06 -3.1418294e-06 -5.693909e-07 4.705709e-08 -1.6529849e-06 1.3707113e-06
-3.2750982e-06 -2.4556988e-07 3.20001e-06 -1.4842277e-06 3.2858031e-06 1.317794e-06 -3.2838318e-06 2.3022403e-06
-4.1989236e-07 -1.6243695e-06 2.909748e-06 -2.9404655e-06 3.904557e-07 -7.6184455e-07 2.5984825e-06 1.0157419e-06
1.7484499e-06 1.2850613e-06 -8.7502906e-07 -7.652536e-07 -2.9986354e-06 1.9716435e-06 2.8890968e-06 2.489711e-06
-2.5667032e-06 1.622888e-07 -2.565083e-06 -2.0030816e-06 -2.120329e-06 1.2435313e-06 -2.1683882e-06 -7.938752e-08
1.5307478e-07 2.3456137e-06 -2.7506169e-06 -2.498056e-06 -2.112891e-06 2.5468735e-06 -1.3080104e-06 3.069259e-06
1.3157965e-06 4.6075954e-07 -2.708691e-08 -7.193166e-07 4.565407e-07 -8.3088526e-07 -2.5567578e-08 4.6428133e-07
-2.8462362e-06 -1.9071867e-06 2.938269e-06 -2.9530381e-06 -2.612865e-07 3.5996077e-06 1.3144501e-06 1.0302428e-07
-3.1533818e-06 1.8025481e-06 -2.5918177e-06 -1.0329063e-06 -1.220866e-06 -5.3885447e-07 3.9801918e-08 3.0012902e-06
4.542554e-07 3.2592104e-06 2.2258587e-06 -2.3004775e-06 1.6320049e-06 -2.57221e-06 -1.5422007e-06 1.0702355e-06
1.2014901e-06 2.729903e-06 -1.1713786e-06 5.8251537e-09 1.8733064e-06 -3.519019e-06 2.6307423e-06 -3.0089604e-06
5.015123e-08 -6.1864546e-07 -1.9164347e-06 4.8093926e-07 3.008953e-06 -1.0636809e-06 -2.1602982e-06 -1.3457536e-06
-3.6065262e-06 1.642515e-06 -1.7475691e-06 -2.4283008e-06 -2.096298e-06 2.0921268e-06 1.9269924e-06 2.7928256e-06
1.3198559e-06 -1.2151938e-06 -1.0168493e-06 1.0750026e-06 2.9911857e-06 9.893504e-07 -1.7216506e-06 -1.710488e-06

fc1.bias f4 [200]
00000000: 6623 d03e 0cef 3cb6 5758 5d36 4f84 4736
00000010: a947 d03e 09fc cf3e 2648 d03e 421f d03e
00000020: 851f d03e 0dee 2e36 0afa cf3e 4125 d03e
00000030: b0f8 cf3e 5bff cf3e 85d1 e335 bf41 6db6
00000040: 8320 d03e 86dd ce34 058a 4736 19ec 0336
00000050: f9a3 c735 abf9 cf3e 256d 4eb6 44b3 4e34
00000060: 87fb cf3e 7134 d03e ebf8 cf3e 9b79 dbb5
00000070: 8e75 d335 2e21 d03e 2dfb cf3e eb43 d03e
00000080: 5c23 d03e 33f9 cf3e 5fb2 8535 b401 d03e
00000090: 2ffc cf3e 1e21 d03e d49b 2ab6 5823 d03e
000000a0: 4744 d03e 8202 d03e fb50 71b6 26fb cf3e
000000b0: 363b de35 b420 d03e 092b 1135 0bfc cf3e
000000c0: 833d 9433 c7fa cf3e 992d d03e 03fc cf3e
000000d0: 36d2 40b6 cefb cf3e 00f9 cf3e 3d07 d03e
000000e0: dd20 b7b5 9e10 d03e b021 d03e ad47 d03e
000000f0: f111 d03e af99 bc35 8316 84b5 c6e2 a034
00000100: 21aa 0535 991f 0236 3a22 d03e 1623 d03e
00000110: 821f d03e 6b21 d03e 2080 89b5 7cf9 cf3e
00000120: ab17 d03e 0c22 d03e ab3f d03e 644e 4636
00000130: c59e 1bb6 3a20 d03e ec01 d03e bdfc cf3e
00000140: 3f8b d03e cf47 d03e be54 1535 0420 d03e
00000150: 0ff9 cf3e ee4f a734 80d1 4636 6bcb abb5
00000160: 3f1a d03e 9fbd 6036 b8ec cf3e f6f9 cf3e
00000170: 03f9 cf3e 3b73 9735 9b19 d03e 1a23 d03e
00000180: 21fb cf3e d710 d03e 952f 9db5 6c01 d03e
00000190: 9ffb cf3e 1821 d03e e0a2 abb5 d33a dd35
000001a0: 812d 57b6 efb3 1fb6 f9f9 cf3e 9037 22b3
000001b0: 699c 1c36 e6f9 cf3e 9f23 d03e 415d c335
000001c0: 33fc cf3e 6321 d03e a81e 0ab6 9c57 35b6
000001d0: c5b8 dd35 caec 4ab6 bf8f 56b6 fc4d d03e
000001e0: e348 d03e 7bf9 cf3e c093 c435 7a6f 3cb6
000001f0: 72d8 7c35 f5d6 cf35 61b8 34b6 c45b e3b4
00000200: 9abf 27b6 bde0 cf3e 6ede 5bb5 27fa cf3e
00000210: df6e 40b5 6511 b635 3cbc 35b6 29b2 3536
00000220: 5235 1d35 8164 49b6 d3dd 2236 dbd9 9a35
00000230: 448e 0136 594a d03e 215e a5b4 b228 4fb6
00000240: 90be b135 44f8 cf3e 3047 d03e 4d87 d03e
00000250: 31e6 b736 1e2e d03e 052f 19b6 a946 d03e
00000260: 31de cf3e 1a21 d03e 3cfb 3235 afc2 14b6
00000270: 4d1f d03e d3d2 ce35 a549 81b5 e56c e435
00000280: 62a0 f133 c0e5 cf3e dc39 56b6 8c1d d03e
00000290: 3821 d03e e8c1 04b6 6150 d03e 4823 3db5
000002a0: 7a01 0d35 f35f 6db6 0e45 7d35 72cb 41b6
000002b0: 3f6a 5e36 1857 d03e 0eb2 33b6 92b0 a6b5
000002c0: 0011 a9b5 0c06 d03e e2fc cf3e 6149 d03e
000002d0: 4c22 d03e 81bb f335 7c21 d03e 852a 6135
000002e0: 48a7 d2b5 a386 48b5 b600 d03e 3789 a9b5
000002f0: 035a d03e 10f2 60b6 b96e d03e d021 d03e
00000300: f5fb cf3e 360a 48b5 3060 73b6 19cf 9bb5
00000310: 4e5c b1b5 df80 62b6 3ef9 cf3e f693 7e35
0.40652007 -2.8153327e-06 3.2982987e-06 2.9730325e-06 0.40679672 0.40621975 0.40680045 0.40648848
0.40649047 2.6066584e-06 0.40620452 0.40653422 0.4061942 0.40624508 1.6973796e-06 -3.5354021e-06
0.40649804 3.853167e-07 2.9733649e-06 1.9657948e-06 1.4874378e-06 0.4062017 -3.0759923e-06 1.9250461e-07
0.40621588 0.4066501 0.40619597 -1.6352163e-06 1.5754938e-06 0.40650314 0.4062132 0.40676817
0.40651977 0.4061981 9.961185e-07 0.406263 0.40622088 0.40650266 -2.5422678e-06 0.40651965
0.4067709 0.40626913 -3.5958935e-06 0.406213 1.6557522e-06 0.4064995 5.4079334e-07 0.4062198
6.902976e-08 0.40621015 0.40659788 0.40621957 -2.8732588e-06 0.406218 0.4061966 0.40630522
-1.3644127e-06 0.40637678 0.40650702 0.40679684 0.40638688 1.4051819e-06 -9.841318e-07 2.9967322e-07
4.979393e-07 1.9389902e-06 0.40651113 0.40651768 0.4064904 0.40650496 -1.0244585e-06 0.4062003
0.40643057 0.40650976 0.40673575 2.9549929e-06 -2.3189216e-06 0.40649587 0.40626466 0.40622512
0.40731236 0.40679786 5.563014e-07 0.40649426 0.40619704 3.116433e-07 2.9626244e-06 -1.2799695e-06
0.40645024 3.3488975e-06 0.4061029 0.40620393 0.40619668 1.1283913e-06 0.40644535 0.4065178
0.40621284 0.40637848 -1.171126e-06 0.40626085 0.4062166 0.4065025 -1.2787896e-06 1.6482903e-06
-3.2063983e-06 -2.3797581e-06 0.40620402 -3.7769098e-08 2.3336854e-06 0.40620345 0.40652177 1.4555773e-06
0.406221 0.40650472 -2.0581447e-06 -2.7022097e-06 1.6519558e-06 -3.0238175e-06 -3.1972156e-06 0.40684497
0.40680608 0.40620026 1.4646139e-06 -2.807907e-06 9.4192285e-07 1.5485263e-06 -2.6929413e-06 -4.2348813e-07
-2.4996466e-06 0.4060115 -8.1907535e-07 0.4062054 -7.168691e-07 1.3565119e-06 -2.7080669e-06 2.7074805e-06
5.856465e-07 -3.0009835e-06 2.4269e-06 1.1537298e-06 1.9305307e-06 0.40681723 -3.0802133e-07 -3.0869091e-06
1.3242989e-06 0.406191 0.40679312 0.40728226 5.480623e-06 0.40660185 -2.2826146e-06 0.4067891
0.40599206 0.40650254 6.667576e-07 -2.216704e-06 0.4064888 1.5409554e-06 -9.632682e-07 1.7019016e-06
1.12516105e-07 0.40604973 -3.1922164e-06 0.40647542 0.40650344 -1.97824e-06 0.40686324 -7.045933e-07
5.252874e-07 -3.5371602e-06 9.435033e-07 -2.8877662e-06 3.3142421e-06 0.40691447 -2.677672e-06 -1.2419353e-06
-1.2596429e-06 0.40629613 0.40622622 0.40680984 0.40651166 1.8159482e-06 0.40650547 8.3880906e-07
-1.5694905e-06 -7.470173e-07 0.40625542 -1.2631416e-06 0.40693673 -3.35195e-06 0.40709475 0.40650797
0.40621915 -7.4520665e-07 -3.626581e-06 -1.1608673e-06 -1.3214392e-06 -3.3751637e-06 0.40619844 9.4837685e-07

fc2.weight f4 [20, 200]
00000000: 03c9 623f bddb c7be abdb c73e a2db c7be
00000010: 03c6 623f 4ccf 623f ffb9 623f 83ba 623f
00000020: 04c9 623f 7bdd c7be 69c5 623f 1ac6 623f
00000030: 76c9 623f 85ba 623f b8db c73e 89db c7be
00000040: 49c9 623f ccdb c73e b9db c73e 40dc c73e
00000050: 71dc c7be 18b7 623f afdb c7be c1db c7be
00000060: ffcc 623f fac5 623f eab9 623f 30dc c73e
00000070: b4db c73e e7c8 623f f9c5 623f 4ec7 623f
00000080: c9c4 623f b8cb 623f bbdb c73e 52c9 623f
00000090: cda9 623f dbb9 623f b8dc c7be ccc5 623f
000000a0: e7c8 623f 31c9 623f b1db c73e 27ce 623f
000000b0: c0db c73e 23c9 623f bedc c73e efc8 623f
000000c0: b2db c7be 00ba 623f f0c5 623f f3c8 623f
000000d0: aadb c7be ceb9 623f 24bc 623f 11c6 623f
000000e0: b4db c73e 1dc7 623f 66c9 623f 3ac6 623f
000000f0: 33c9 623f a2db c73e afdb c73e bddb c7be
00000100: bbdd c7be 8adc c7be ebc4 623f 16c9 623f
00000110: 05c9 623f 6bc9 623f a5db c73e 6ebe 623f
00000120: 9dc5 623f d6b9 623f 00c6 623f b4db c7be
00000130: b2db c7be 0ac9 623f e6c5 623f 21bb 623f
00000140: ecb9 623f d8c2 623f b6db c7be edc8 623f
00000150: 4bc9 623f 7adb c7be b2db c73e b6db c7be
00000160: 69c0 623f a0db c7be 44c9 623f 2bcf 623f
00000170: 23c9 623f b5db c7be 28cf 623f 32c9 623f
00000180: 61cd 623f 8ebf 623f b7db c7be 8ccc 623f
00000190: 0fba 623f 1ec9 623f b4db c7be b4db c73e
000001a0: 8edb c7be b6db c73e e3ba 623f b0db c7be
000001b0: b7db c7be e1b9 623f d8c4 623f d1db c7be
000001c0: 79c9 623f f9c5 623f b8db c73e a6db c73e
000001d0: c9db c7be c1db c73e a8db c73e e2c5 623f
000001e0: 30c2 623f c0be 623f 8adb c73e b2db c73e
000001f0: c6db c73e 0ddd c7be 97dc c73e b5db c73e
00000200: a1db c7be 9dd0 623f b4db c73e 60c5 623f
00000210: a8db c7be 75dc c7be c4db c7be bbdb c7be
00000220: 87dc c7be 98db c7be b2db c73e 12dc c73e
00000230: 9adb c73e cdc5 623f 2be0 c7be aadb c7be
00000240: badb c73e 78c3 623f 62bf 623f ccb9 623f
00000250: f9db c7be 03c9 623f b3db c73e f1c5 623f
00000260: cec9 623f f3c5 623f d2bf c7be b3db c73e
00000270: edb9 623f 43d5 c7be 89dc c73e c1db c7be
00000280: 91dc c7be 7dbc 623f bbdb c73e c8c8 623f
00000290: fdb9 623f 56dc c7be cec5 623f c3db c7be
000002a0: a1bf c7be badb c7be b2db c73e c5db c73e
000002b0: 68c2 c7be d5c5 623f b8db c7be 9edb c7be
000002c0: bedb c73e 1fcf 623f 35cf 623f ebc5 623f
000002d0: fcc8 623f b4db c7be d8c5 623f 7cdc c7be
000002e0: 9adb c7be acdb c7be 25cf 623f b6db c7be
000002f0: c7b9 623f fadb c73e deb9 623f e9c8 623f
00000300: 31c9 623f b4db c7be 9ddb c7be bcdb c73e
00000310: a8db c73e d8db c7be f1ce 623f a5db c7be
00000320: 03c9 623f 16dc c7be f0db c73e 18dc c7be
00000330: 01c6 623f 45cf 623f ffb9 623f 88ba 623f
00000340: 04c9 623f 16df c7be 0fc5 623f 0ac6 623f
00000350: 7ac9 623f 8eba 623f 71dc c73e 06dc c7be
00000360: 48c9 623f 08dc c73e 1cdc c73e 75dc c73e
00000370: addd c7be 16b7 623f 13dc c7be 24dc c7be
00000380: d3cc 623f f7c5 623f a3b9 623f 85dc c73e
00000390: 25dc c73e e5c8 623f f8c5 623f ebc6 623f
000003a0: 7ac4 623f 00cc 623f 10dc c73e 51c9 623f
000003b0: 62a8 623f dbb9 623f fddc c7be d7c5 623f
000003c0: e5c8 623f 3ac9 623f 08dc c73e 3dce 623f
000003d0: 1ddc c73e 20c9 623f 7fdc c73e f0c8 623f
000003e0: 1adc c7be 03ba 623f f3c5 623f f3c8 623f
000003f0: f4db c7be d4b9 623f 23bc 623f 02c6 623f
0.8858797 -0.39034835 0.3903478 -0.39034754 0.8858339 0.8859756 0.8856506 0.88565844
0.88587976 -0.39036164 0.88582474 0.8858353 0.88588655 0.88565856 0.3903482 -0.3903468
0.88588387 0.3903488 0.39034823 0.39035225 -0.3903537 0.8856063 -0.39034793 -0.39034846
0.8859405 0.8858334 0.8856493 0.39035177 0.39034808 0.885878 0.8858333 0.88585365
0.8858152 0.885921 0.3903483 0.8858844 0.88540345 0.8856484 -0.39035583 0.88583064
0.885878 0.88588244 0.390348 0.88595814 0.39034843 0.8858816 0.390356 0.8858785
-0.39034802 0.88565063 0.8858328 0.88587874 -0.39034778 0.88564765 0.8856833 0.88583475
0.39034808 0.8858507 0.8858856 0.8858372 0.88588256 0.39034754 0.39034793 -0.39034835
-0.39036354 -0.39035445 0.8858172 0.8858808 0.8858798 0.8858859 0.39034763 0.8857182
0.88582784 0.88564813 0.88583374 -0.39034808 -0.39034802 0.8858801 0.8858322 0.88566786
0.88564944 0.8857856 -0.39034814 0.8858784 0.885884 -0.39034635 0.39034802 -0.39034814
0.88574845 -0.39034748 0.88588357 0.88597363 0.8858816 -0.3903481 0.88597345 0.8858825
0.88594633 0.8857354 -0.39034817 0.88593364 0.8856515 0.8858813 -0.39034808 0.39034808
-0.39034694 0.39034814 0.88566417 -0.39034796 -0.39034817 0.8856488 0.8858161 -0.39034894
0.8858867 0.8858333 0.3903482 0.39034766 -0.3903487 0.39034846 0.39034772 0.88583195
0.88577557 0.8857231 0.39034683 0.39034802 0.3903486 -0.39035836 0.39035484 0.3903481
-0.3903475 0.8859957 0.39034808 0.8858242 -0.39034772 -0.39035383 -0.39034855 -0.3903483
-0.39035437 -0.39034724 0.39034802 0.39035088 0.3903473 0.8858307 -0.39038214 -0.39034778
0.39034826 0.8857951 0.88573277 0.88564754 -0.39035013 0.8858797 0.39034805 0.88583285
0.8858918 0.88583297 -0.39013535 0.39034805 0.8856495 -0.39029893 0.39035442 -0.39034846
-0.39035466 0.8856886 0.3903483 0.8858762 0.88565046 -0.3903529 0.88583076 -0.39034852
-0.3901339 -0.39034826 0.39034802 0.39034858 -0.39015508 0.8858312 -0.3903482 -0.39034742
0.39034837 0.8859729 0.8859742 0.8858325 0.8858793 -0.39034808 0.88583136 -0.39035404
-0.3903473 -0.39034784 0.8859733 -0.39034814 0.88564724 0.39035016 0.8856486 0.88587815
0.88588244 -0.39034808 -0.3903474 0.39034832 0.39034772 -0.39034915 0.8859702 -0.39034763
0.8858797 -0.390351 0.39034986 -0.39035106 0.8858338 0.8859752 0.8856506 0.88565874
0.88587976 -0.3903739 0.8858194 0.88583434 0.8858868 0.8856591 0.3903537 -0.39035052
0.8858838 0.39035058 0.39035118 0.39035383 -0.39036313 0.88560617 -0.3903509 -0.3903514
0.88593787 0.8858332 0.8856451 0.3903543 0.39035144 0.8858779 0.88583326 0.88584775
0.8858105 0.8859253 0.39035082 0.88588434 0.8853818 0.8856484 -0.39035788 0.8858313
0.8858779 0.885883 0.39035058 0.88595945 0.3903512 0.8858814 0.39035413 0.88587856
-0.39035112 0.8856508 0.88583297 0.88587874 -0.39034998 0.885648 0.88568324 0.88583386

fc2.bias f4 [20]
00000000: 2564 053f 2664 053f 2764 053f 36ff d6b5
00000010: 2964 053f 50e7 8f36 297d 0335 a0b4 f4b5
00000020: 5d42 2134 2764 053f 3720 9ab5 2464 053f
00000030: 1b6d 7134 2064 053f 2864 053f 2364 053f
00000040: 587f 6cb5 2964 053f 6c35 be35 2764 053f
0.52105933 0.5210594 0.52105945 -1.6018519e-06 0.5210596 4.2886604e-06 4.8983435e-07 -1.8231985e-06
1.5018436e-07 0.52105945 -1.148327e-06 0.5210593 2.2484566e-07 0.52105904 0.5210595 0.5210592
-8.810216e-07 0.5210596 1.4171651e-06 0.52105945

fc3.weight f4 [20, 20]
00000000: 5369 623f b36b 623f 7c6b 623f f5bb 0abf
00000010: 3b6b 623f f4bb 0abf fbbb 0abf febb 0abf
00000020: fbbb 0abf cb6a 623f 01bc 0abf 2469 623f
00000030: f8bb 0abf 566b 623f bc69 623f 5468 623f
00000040: fdbb 0abf a66b 623f fabb 0abf 326a 623f
00000050: 937b d9b6 9662 8035 3420 1db7 a05a f036
00000060: 79d2 9ab5 9682 cc36 f29f b0b6 be21 1db6
00000070: 844b 38b6 497f 77b5 ca84 bdb5 1e1a 9035
00000080: bed5 0d37 2279 eeb5 a1bd 00b7 12eb e8b6
00000090: 7aa0 3436 c609 8836 397a a4b6 0e5e b5b6
000000a0: f367 623f b46b 623f 4869 623f ffbb 0abf
000000b0: e669 623f 04bc 0abf ffbb 0abf f6bb 0abf
000000c0: fabb 0abf b26b 623f fdbb 0abf 776b 623f
000000d0: f2bb 0abf c267 623f b069 623f b46b 623f
000000e0: fdbb 0abf 786b 623f fabb 0abf 9c6b 623f
000000f0: a56c 8934 0d9f 23b7 24b6 0bb7 f906 61b6
00000100: 3ac3 b4b5 81ea 5a36 4765 5936 a996 8db6
00000110: 6bcc 8936 96b0 efb6 2435 98b6 eec5 e9b5
00000120: 3632 c335 a498 0bb7 2c2e 48b6 cb74 17b3
00000130: 87ff 93b6 12de 6eb6 6b6b e736 6bd5 3c36
00000140: c256 85b6 c94a c4b6 6c93 e7b6 3878 e8b6
00000150: db89 deb6 02b6 7f35 b5fd 9635 fa22 c4b6
00000160: 75f2 3eb6 4ca3 f6b6 edc7 9db6 28c1 0736
00000170: e1e7 ef35 a89a 95b6 600b 17b7 86c7 6fb6
00000180: dc0d f1b6 81b0 f9b5 62f9 3336 4124 0fb4
00000190: d145 3bb6 757f 8cb6 4d4a 66b6 817f 9236
000001a0: f6d5 5bb6 1e12 65b6 23a7 b936 ace7 57b6
000001b0: 4670 c836 3205 78b6 ab1f 1f36 8097 2436
000001c0: 1c34 d9b4 e92b 4bb6 a1eb beb6 e577 07b7
000001d0: f578 6736 0a6a 8836 0190 c836 5cd9 be36
000001e0: f76a 623f b06b 623f c269 623f febb 0abf
000001f0: ff6a 623f 0cbc 0abf 01bc 0abf 04bc 0abf
00000200: 05bc 0abf e968 623f 05bc 0abf 2369 623f
00000210: fcbb 0abf c86a 623f 046b 623f e868 623f
00000220: febb 0abf 126b 623f febb 0abf 216a 623f
00000230: 2df4 f2b6 c1c9 edb5 52c3 bd35 b015 6d36
00000240: e09e 0eb6 7f88 1337 75da 1034 343f cfb5
00000250: 8d78 9f36 a126 0eb7 d6dc bd36 a1d4 3a36
00000260: aedb 3c36 fc41 29b7 0698 9eb2 fc15 9935
00000270: b2c9 68b5 87fe 3636 3543 c036 31f8 2db4
00000280: b56b 623f 0969 623f 796b 623f 01bc 0abf
00000290: b16b 623f ffbb 0abf febb 0abf fcbb 0abf
000002a0: f9bb 0abf a76b 623f ffbb 0abf 0f69 623f
000002b0: 03bc 0abf f468 623f ab6b 623f b96b 623f
000002c0: fdbb 0abf ae69 623f fdbb 0abf b769 623f
000002d0: 3e6a 623f 906b 623f e769 623f 01bc 0abf
000002e0: 6269 623f 04bc 0abf 05bc 0abf 03bc 0abf
000002f0: 02bc 0abf 916b 623f 08bc 0abf 826b 623f
00000300: 03bc 0abf 6368 623f c26a 623f 916b 623f
00000310: 05bc 0abf f16a 623f 05bc 0abf 0668 623f
00000320: 050d dbb6 3838 09b7 d614 0db7 bd79 0237
00000330: 43dd 1cb7 dbd8 2634 473e 82b6 399d 1eb3
00000340: 54a0 2c36 9ae7 98b5 f58c 79b5 d281 8e34
00000350: b332 ea36 920c 1836 93cc a6b6 c02b 09b7
00000360: 4bb3 e936 dd33 88b6 e985 56b6 2570 81b6
00000370: 2771 1934 52e5 0db5 e7e8 5936 1c5f d536
00000380: 128d adb6 272b ff36 ee51 4235 31f4 2b32
00000390: bf11 eab6 97c4 5bb6 bb4c 5636 b8cf e0b4
000003a0: 93e9 a236 6523 a135 7e10 eab6 8f32 7236
000003b0: 5ad6 97b5 5543 7e35 5bfc bb35 2511 9335
000003c0: 46d3 22b6 7eb3 b4b6 4e2b 11b6 b641 3635
000003d0: 121a 2c36 5e62 ae33 9e6e 9fb6 51df 1137
000003e0: eb4e bf36 89b4 08b7 26c6 0537 03a6 05b7
000003f0: 886e 85b5 36ca e3b6 1227 09b6 f2e3 aeb5
0.8844196 0.88445586 0.8844526 -0.5419305 0.8844487 -0.54193044 -0.54193085 -0.54193103
-0.54193085 0.88444203 -0.5419312 0.8844168 -0.5419307 0.8844503 0.8844259 0.8844044
-0.541931 0.8844551 -0.5419308 0.8844329 -6.48149e-06 9.565435e-07 -9.365427e-06 7.1631075e-06
-1.153515e-06 6.094876e-06 -5.263829e-06 -2.3414464e-06 -2.7462092e-06 -9.2199895e-07 -1.4120244e-06 1.0736437e-06
8.454021e-06 -1.7767636e-06 -7.673546e-06 -6.9415046e-06 2.69155e-06 4.0542536e-06 -4.9018095e-06 -5.4051698e-06
0.88439864 0.8844559 0.88441896 -0.5419311 0.8844284 -0.5419314 -0.5419311 -0.54193056
-0.5419308 0.8844558 -0.541931 0.8844523 -0.5419303 0.8843957 0.88442516 0.8844559
-0.541931 0.88445234 -0.5419308 0.8844545 2.5597288e-07 -9.752589e-06 -8.3274535e-06 -3.3531671e-06
-1.3467863e-06 3.262103e-06 3.239447e-06 -4.2196666e-06 4.1067156e-06 -7.1433124e-06 -4.5361394e-06 -1.7417458e-06
1.4543245e-06 -8.320585e-06 -2.9829198e-06 -3.526365e-08 -4.4106887e-06 -3.5594026e-06 6.8968416e-06 2.8138409e-06
-3.973809e-06 -5.8499613e-06 -6.9014986e-06 -6.928134e-06 -6.632164e-06 9.525976e-07 1.1249709e-06 -5.845327e-06
-2.8453335e-06 -7.3503816e-06 -4.702239e-06 2.0229e-06 1.7874373e-06 -4.4585504e-06 -9.00295e-06 -3.5729913e-06
-7.183973e-06 -1.8603315e-06 2.6818238e-06 -1.3331102e-07 -2.790581e-06 -4.187163e-06 -3.431592e-06 4.3659825e-06
-3.2758085e-06 -3.4134205e-06 5.532887e-06 -3.2172347e-06 5.973535e-06 -3.6957904e-06 2.371128e-06 2.452609e-06
-4.0457314e-07 -3.0274916e-06 -5.689872e-06 -8.074542e-06 3.4492089e-06 4.0654604e-06 5.9772287e-06 5.687745e-06
0.88444465 0.8844557 0.88442624 -0.54193103 0.88444513 -0.54193187 -0.5419312 -0.5419314
-0.54193145 0.8844133 -0.54193145 0.88441676 -0.5419309 0.88444185 0.8844454 0.88441324
-0.54193103 0.88444626 -0.54193103 0.8844319 -7.240588e-06 -1.7716594e-06 1.4138443e-06 3.5328376e-06
-2.1252126e-06 8.793663e-06 1.3490519e-07 -1.5441096e-06 4.752603e-06 -8.472854e-06 5.6583476e-06 2.7839926e-06
2.8142053e-06 -1.0088548e-05 -1.8462753e-08 1.1405787e-06 -8.672024e-07 2.7268268e-06 5.72987e-06 -1.6202172e-07
0.884456 0.8844152 0.8844524 -0.5419312 0.88445574 -0.5419311 -0.54193103 -0.5419309
-0.54193074 0.88445514 -0.5419311 0.88441557 -0.54193133 0.88441396 0.8844554 0.8844562
-0.541931 0.88442504 -0.541931 0.8844256 0.8844336 0.8844538 0.88442844 -0.5419312
0.8844205 -0.5419314 -0.54193145 -0.54193133 -0.5419313 0.88445383 -0.5419316 0.88445294
-0.54193133 0.8844053 0.8844415 0.88445383 -0.54193145 0.8844443 -0.54193145 0.8843998
-6.5282243e-06 -8.178926e-06 -8.409106e-06 7.776948e-06 -9.349841e-06 1.5538846e-07 -3.881552e-06 -3.6930235e-08
2.572332e-06 -1.1392287e-06 -9.296485e-07 2.6544018e-07 6.9796456e-06 2.2657082e-06 -4.971001e-06 -8.176023e-06
6.9648136e-06 -4.0591535e-06 -3.196643e-06 -3.857555e-06 1.42904e-07 -5.28603e-07 3.2471087e-06 6.358967e-06
-5.1722245e-06 7.604616e-06 7.2389855e-07 1.0009033e-08 -6.9758094e-06 -3.2747973e-06 3.1933148e-06 -4.1874387e-07
4.855168e-06 1.2005736e-06 -6.9756634e-06 3.609024e-06 -1.1312761e-06 9.4720355e-07 1.4006031e-06 1.0957343e-06
-2.4262858e-06 -5.3853137e-06 -2.163189e-06 6.7895905e-07 2.5645172e-06 8.120399e-08 -4.751447e-06 8.694668e-06
5.701431e-06 -8.148266e-06 7.973553e-06 -7.96607e-06 -9.941441e-07 -6.7886676e-06 -2.0437333e-06 -1.3030351e-06

fc3.bias f4 [20]
00000000: 52d8 223f 0f2a acb5 4ed8 223f b1af 1db6
00000010: 456a 3736 38a6 04b6 56d8 223f 41a2 c633
00000020: 53d8 223f 59d8 223f e989 1237 c47c 8435
00000030: 29e9 5b36 5d9d bb36 9f71 eeb6 153f ccb6
00000040: 56d8 223f e4a7 d636 59d8 223f 015b 4a35
0.6361133 -1.2827239e-06 0.63611305 -2.349709e-06 2.7330982e-06 -1.9766285e-06 0.6361135 9.249607e-08
0.63611335 0.6361137 8.734388e-06 9.871078e-07 3.276926e-06 5.591354e-06 -7.10618e-06 -6.0870175e-06
0.6361135 6.397242e-06 0.6361137 7.538329e-07

fc4.weight f4 [1, 20]
00000000: fc65 623f af01 2dbf be66 623f d201 2dbf
00000010: d701 2dbf 6b01 2dbf cc68 623f 4401 2dbf
00000020: 4e66 623f e568 623f b101 2dbf a701 2dbf
00000030: 9601 2dbf 7901 2dbf 4401 2d3f 06fa 2cbf
00000040: cc68 623f 6101 2dbf d768 623f 9901 2dbf
0.88436866 -0.67580694 0.8843802 -0.675809 -0.6758093 -0.6758029 0.8844116 -0.67580056
0.88437355 0.88441306 -0.67580706 -0.67580646 -0.67580545 -0.6758037 0.67580056 -0.67569005
0.8844116 -0.6758023 0.8844122 -0.6758056

bn1.weight f4 [200]
00000000: 7910 653f 274a 0338 274a 0338 274a 0338
00000010: 77d2 653f dad3 633f 8bed 653f 6576 643f
00000020: 3e73 643f 51e0 c73e 2d8c 633f a036 653f
00000030: db51 633f 1319 643f 274a 0338 274a 0338
00000040: 449a 643f 274a 0338 274a 0338 274a 0338
00000050: e1df c73e 0e89 633f 51de c73e 274a 0338
00000060: cbbe 633f ca60 653f 2067 633f 274a 0338
00000070: 274a 0338 42b5 643f b0b8 633f 98ab 653f
00000080: a812 653f ee61 633f 274a 0338 4a28 643f
00000090: 0300 643f 63c5 643f bcdf c73e 5e0f 653f
000000a0: b384 653f 3e40 643f 274a 0338 efb0 633f
000000b0: 274a 0338 d4a3 643f 274a 0338 2eda 633f
000000c0: 274a 0338 12b3 633f 7e54 653f 0eda 633f
000000d0: 274a 0338 aadc 633f 626b 633f bd2e 643f
000000e0: 274a 0338 0972 643f adca 643f 87d2 653f
000000f0: 7851 643f 274a 0338 274a 0338 274a 0338
00000100: 4ae0 c73e 274a 0338 dfe1 643f 7a03 653f
00000110: 9a72 643f 1ec1 643f 274a 0338 4a7a 633f
00000120: f34b 643f 49e8 643f 7f78 653f 274a 0338
00000130: 274a 0338 5d8e 643f 5635 643f 2c02 643f
00000140: c5d5 673f aed8 653f 274a 0338 f286 643f
00000150: b061 633f 274a 0338 274a 0338 274a 0338
00000160: a24f 643f 274a 0338 4544 633f d47c 633f
00000170: a55f 633f 274a 0338 983d 643f 8503 653f
00000180: d9af 633f 3c40 643f 274a 0338 2219 643f
00000190: 2cd7 633f beb7 643f 274a 0338 274a 0338
000001a0: 274a 0338 274a 0338 6492 633f 274a 0338
000001b0: 274a 0338 898d 633f 301b 653f 5bdf c73e
000001c0: 49e0 633f b0c1 643f 274a 0338 274a 0338
000001d0: bbde c73e 274a 0338 274a 0338 4a6f 663f
000001e0: 9b04 663f ff77 633f 274a 0338 274a 0338
000001f0: 274a 0338 274a 0338 274a 0338 274a 0338
00000200: 274a 0338 cfe6 623f 274a 0338 5992 633f
00000210: 274a 0338 274a 0338 274a 0338 274a 0338
00000220: 274a 0338 274a 0338 274a 0338 274a 0338
00000230: 274a 0338 313b 663f f6e0 c73e 55de c73e
00000240: 274a 0338 a344 633f 85c0 653f f40b 683f
00000250: 09df c73e 125d 653f 274a 0338 7ea6 653f
00000260: deec 623f 48b5 643f f2cc c73e 274a 0338
00000270: 9073 643f 61dc c73e 274a 0338 274a 0338
00000280: 9fdf c73e fe3a 633f 274a 0338 c655 643f
00000290: 9cc4 643f aade c73e 3f99 663f 274a 0338
000002a0: 0ec8 c73e 274a 0338 274a 0338 274a 0338
000002b0: 0fd7 c73e d1bc 663f 274a 0338 274a 0338
000002c0: 274a 0338 194c 643f 34f5 633f f518 663f
000002d0: 28e5 643f 274a 0338 c3c4 643f 85df c73e
000002e0: 274a 0338 274a 0338 6401 643f 274a 0338
000002f0: b8c6 663f 274a 0338 9c0e 673f efd0 643f
00000300: bbd6 633f 274a 0338 274a 0338 274a 0338
00000310: 274a 0338 274a 0338 1062 633f 274a 0338
0.8947826 3.1301894e-05 3.1301894e-05 3.1301894e-05 0.8977427 0.88995135 0.89815587 0.89243156
0.89238346 0.39038327 0.88885766 0.89536476 0.88796777 0.8910076 3.1301894e-05 3.1301894e-05
0.8929789 3.1301894e-05 3.1301894e-05 3.1301894e-05 0.39037994 0.88881004 0.390368 3.1301894e-05
0.88963 0.89600813 0.8882923 3.1301894e-05 3.1301894e-05 0.8933908 0.88953686 0.89714956
0.8948159 0.88821304 3.1301894e-05 0.89123976 0.8906252 0.8936369 0.39037883 0.89476573
0.8965561 0.89160526 3.1301894e-05 0.88941854 3.1301894e-05 0.8931248 3.1301894e-05 0.8900479
3.1301894e-05 0.88945115 0.8958205 0.890046 3.1301894e-05 0.8900858 0.8883573 0.89133817
3.1301894e-05 0.89236504 0.8937176 0.89774364 0.8918681 3.1301894e-05 3.1301894e-05 3.1301894e-05
0.39038306 3.1301894e-05 0.8940715 0.8945843 0.8923737 0.89357173 3.1301894e-05 0.88858473
0.8917839 0.8941694 0.8963699 3.1301894e-05 3.1301894e-05 0.8927973 0.89143884 0.89065814
0.9056056 0.8978375 3.1301894e-05 0.8926841 0.88820934 3.1301894e-05 3.1301894e-05 3.1301894e-05
0.8918401 3.1301894e-05 0.88776046 0.8886235 0.88817817 3.1301894e-05 0.89156485 0.89458495
0.889402 0.89160514 3.1301894e-05 0.8910085 0.890002 0.8934287 3.1301894e-05 3.1301894e-05
3.1301894e-05 3.1301894e-05 0.8889525 3.1301894e-05 3.1301894e-05 0.8888784 0.8949461 0.39037594
0.89014107 0.89358044 3.1301894e-05 3.1301894e-05 0.39037117 3.1301894e-05 3.1301894e-05 0.90013564
0.8985078 0.88854975 3.1301894e-05 3.1301894e-05 3.1301894e-05 3.1301894e-05 3.1301894e-05 3.1301894e-05
3.1301894e-05 0.88633436 3.1301894e-05 0.88895184 3.1301894e-05 3.1301894e-05 3.1301894e-05 3.1301894e-05
3.1301894e-05 3.1301894e-05 3.1301894e-05 3.1301894e-05 3.1301894e-05 0.8993407 0.3903882 0.39036813
3.1301894e-05 0.88776606 0.89746886 0.9064324 0.3903735 0.8959514 3.1301894e-05 0.8970717
0.8864268 0.89339113 0.39023548 3.1301894e-05 0.89238834 0.39035323 3.1301894e-05 3.1301894e-05
0.39037797 0.8876189 3.1301894e-05 0.8919338 0.893625 0.39037067 0.90077585 3.1301894e-05
0.39019817 3.1301894e-05 3.1301894e-05 3.1301894e-05 0.39031264 0.9013186 3.1301894e-05 3.1301894e-05
3.1301894e-05 0.89178616 0.89046025 0.8988183 0.89412165 3.1301894e-05 0.89362735 0.3903772
3.1301894e-05 3.1301894e-05 0.8906462 3.1301894e-05 0.9014697 3.1301894e-05 0.9025667 0.8938131
0.8899953 3.1301894e-05 3.1301894e-05 3.1301894e-05 3.1301894e-05 3.1301894e-05 0.88821507 3.1301894e-05

bn1.bias f4 [200]
00000000: cd46 ed3e dfdb c7be cadb c73e cedb c7be
00000010: c846 ed3e f846 ed3e 6f46 ed3e 7646 ed3e
00000020: c846 ed3e 26de c7be c546 ed3e ba46 ed3e
00000030: dd46 ed3e 6d46 ed3e e6db c73e cfdb c7be
00000040: d246 ed3e d9db c73e e2db c73e 61dc c73e
00000050: 9bdc c7be 7846 ed3e 86db c7be dadb c7be
00000060: 0447 ed3e bf46 ed3e 8a46 ed3e f0db c73e
00000070: dddb c73e d446 ed3e db46 ed3e cb46 ed3e
00000080: da46 ed3e f946 ed3e d2db c73e d346 ed3e
00000090: 0146 ed3e 6a46 ed3e 8adc c7be ce46 ed3e
000000a0: d546 ed3e d046 ed3e d8db c73e 0b47 ed3e
000000b0: efdb c73e c846 ed3e dcdc c73e d446 ed3e
000000c0: dfdb c7be 6c46 ed3e c346 ed3e c546 ed3e
000000d0: dbdb c7be 7246 ed3e 9446 ed3e b846 ed3e
000000e0: d7db c73e d246 ed3e e246 ed3e c746 ed3e
000000f0: d346 ed3e e4db c73e e2db c73e dfdb c7be
00000100: fbdd c7be 6edc c7be cf46 ed3e ca46 ed3e
00000110: ca46 ed3e df46 ed3e d0db c73e a046 ed3e
00000120: cb46 ed3e 6b46 ed3e c046 ed3e d5db c7be
00000130: e7db c7be ca46 ed3e bb46 ed3e 8046 ed3e
00000140: 7346 ed3e c146 ed3e e2db c7be d546 ed3e
00000150: d046 ed3e c9db c7be d7db c73e e2db c7be
00000160: bb46 ed3e dddb c7be d546 ed3e 1847 ed3e
00000170: c446 ed3e dedb c7be 0d47 ed3e d246 ed3e
00000180: 0947 ed3e b946 ed3e d8db c7be 0347 ed3e
00000190: 6046 ed3e cf46 ed3e cfdb c7be d4db c73e
000001a0: c5db c7be d5db c73e 7746 ed3e d7db c7be
000001b0: d7db c7be 9246 ed3e d846 ed3e c9db c7be
000001c0: d146 ed3e c546 ed3e dfdb c73e e3db c73e
000001d0: eadb c7be d4db c73e d4db c73e c946 ed3e
000001e0: cb46 ed3e b346 ed3e c6db c73e e8db c73e
000001f0: dbdb c73e 10dd c7be c8dc c73e e1db c73e
00000200: d8db c7be 1547 ed3e d4db c73e d746 ed3e
00000210: dadb c7be d3dc c7be d7db c7be e3db c7be
00000220: c4dc c7be cfdb c7be e2db c73e 6edc c73e
00000230: d6db c73e c546 ed3e e9df c7be 07da c7be
00000240: dddb c73e be46 ed3e b746 ed3e 7146 ed3e
00000250: e4db c7be cc46 ed3e e1db c73e c546 ed3e
00000260: c946 ed3e c146 ed3e c7bf c7be d2db c73e
00000270: 9f46 ed3e 94cc c7be 6cdc c73e d6db c7be
00000280: 4adc c7be 8f46 ed3e e8db c73e e946 ed3e
00000290: 8a46 ed3e 53dc c7be ba46 ed3e e6db c7be
000002a0: a4bf c7be d7db c7be cbdb c73e dcdb c73e
000002b0: a4c3 c7be c146 ed3e dedb c7be bedb c7be
000002c0: e1db c73e ef46 ed3e f946 ed3e c746 ed3e
000002d0: c746 ed3e d7db c7be d446 ed3e 66dc c7be
000002e0: d0db c7be cbdb c7be 1247 ed3e e5db c7be
000002f0: 7746 ed3e dedb c73e 7046 ed3e cd46 ed3e
00000300: d046 ed3e dedb c7be d0db c7be dedb c73e
00000310: e3db c73e 4adc c7be 0a47 ed3e d4db c7be
0.4634308 -0.39034936 0.39034873 -0.39034885 0.46343064 0.46343207 0.463428 0.4634282
0.46343064 -0.39036673 0.46343055 0.46343023 0.46343127 0.46342793 0.39034957 -0.39034888
0.46343094 0.39034918 0.39034945 0.39035323 -0.39035496 0.46342826 -0.3903467 -0.3903492
0.46343243 0.46343037 0.4634288 0.39034986 0.3903493 0.463431 0.4634312 0.46343073
0.46343118 0.4634321 0.39034897 0.46343097 0.4634247 0.46342784 -0.39035445 0.46343082
0.46343103 0.46343088 0.39034915 0.46343264 0.39034984 0.46343064 0.3903569 0.463431
-0.39034936 0.4634279 0.4634305 0.46343055 -0.39034924 0.46342808 0.4634291 0.46343017
0.39034912 0.46343094 0.46343142 0.4634306 0.46343097 0.3903495 0.39034945 -0.39034936
-0.39036545 -0.39035362 0.46343085 0.4634307 0.4634307 0.46343133 0.3903489 0.46342945
0.46343073 0.46342787 0.4634304 -0.39034906 -0.3903496 0.4634307 0.46343026 0.4634285
0.4634281 0.46343043 -0.39034945 0.46343103 0.46343088 -0.3903487 0.39034912 -0.39034945
0.46343026 -0.3903493 0.46343103 0.46343303 0.46343052 -0.39034933 0.4634327 0.46343094
0.46343258 0.4634302 -0.39034915 0.4634324 0.46342754 0.46343085 -0.39034888 0.39034903
-0.39034858 0.39034906 0.46342823 -0.39034912 -0.39034912 0.46342903 0.46343112 -0.3903487
0.4634309 0.46343055 0.39034936 0.39034948 -0.3903497 0.39034903 0.39034903 0.46343067
0.46343073 0.46343002 0.3903486 0.39034963 0.39034924 -0.39035845 0.3903563 0.39034942
-0.39034915 0.46343294 0.39034903 0.4634311 -0.3903492 -0.39035663 -0.39034912 -0.39034948
-0.39035618 -0.39034888 0.39034945 0.39035362 0.3903491 0.46343055 -0.39038017 -0.3903353
0.3903493 0.46343035 0.46343014 0.46342805 -0.3903495 0.46343076 0.39034942 0.46343055
0.46343067 0.46343043 -0.39013502 0.39034897 0.46342942 -0.39023268 0.39035356 -0.3903491
-0.39035255 0.46342894 0.39034963 0.46343163 0.4634288 -0.39035282 0.46343023 -0.39034957
-0.39013398 -0.39034912 0.39034876 0.39034927 -0.3901645 0.46343043 -0.39034933 -0.39034837
0.39034942 0.4634318 0.4634321 0.4634306 0.4634306 -0.39034912 0.463431 -0.39035338
-0.3903489 -0.39034876 0.46343285 -0.39034954 0.46342823 0.39034933 0.46342802 0.4634308
0.46343088 -0.39034933 -0.3903489 0.39034933 0.39034948 -0.39035255 0.4634326 -0.39034903

bn1.running_mean f4 [200]
00000000: a0f7 e745 0000 0000 0000 0000 0000 0000
00000010: 8483 1946 9bde 4745 fe87 1f46 ac4f a845
00000020: 6a10 a645 64f1 e542 5892 1045 6669 f645
00000030: f218 bd44 4d96 8045 0000 0000 0000 0000
00000040: b833 b645 0000 0000 0000 0000 0000 0000
00000050: 6e56 2243 0d29 0c45 db92 553d 0000 0000
00000060: 7194 3b45 c145 0446 bb34 e844 0000 0000
00000070: 0000 0000 1097 c045 d661 3845 c565 1246
00000080: 4ef0 e745 6a86 d844 0000 0000 48e4 8845
00000090: 3c4e 7045 7a30 ca45 0366 d942 143e e545
000000a0: 0407 0b46 052a 9245 0000 0000 5a5d 2f45
000000b0: 0000 0000 bfb7 bc45 0000 0000 3841 5045
000000c0: 0000 0000 6e04 3145 871d 0146 723a 5045
000000d0: 0000 0000 5df8 5445 bc90 f344 0644 8d45
000000e0: 0000 0000 5020 a445 7069 cc45 dee3 1946
000000f0: 5236 9b45 0000 0000 0000 0000 0000 0000
00000100: d726 1c43 0000 0000 7a28 d345 ded5 e045
00000110: e13b a445 16e2 c445 0000 0000 2338 fd44
00000120: 845a 9445 4d50 d545 a0e8 0746 0000 0000
00000130: 0000 0000 fd83 b145 40fc 8d45 d3a4 7545
00000140: 9b5d 8046 bb1b 1d46 0000 0000 acf3 ae45
00000150: b0f4 d344 0000 0000 0000 0000 0000 0000
00000160: 4646 9a45 0000 0000 5479 b244 9e40 0245
00000170: 9f30 cc44 0000 0000 b46f 9045 3995 e145
00000180: 6532 2b45 c89d 9145 0000 0000 98d0 8145
00000190: 57f7 4d45 6dc4 c245 0000 0000 0000 0000
000001a0: 0000 0000 0000 0000 f823 1a45 0000 0000
000001b0: 0000 0000 588f 1445 aa4d ed45 b0e2 5d3d
000001c0: 0931 5945 fa5a c745 0000 0000 0000 0000
000001d0: d9ef 983c 0000 0000 0000 0000 3af5 3946
000001e0: 6087 2546 67da fa44 0000 0000 0000 0000
000001f0: 0000 0000 0000 0000 0000 0000 0000 0000
00000200: 0000 0000 acbe 6d42 0000 0000 4978 1845
00000210: 0000 0000 0000 0000 0000 0000 0000 0000
00000220: 0000 0000 0000 0000 0000 0000 0000 0000
00000230: 0000 0000 abd4 2e46 1d31 e642 9e16 e143
00000240: 0000 0000 edf7 b144 65fd 1646 51f3 8446
00000250: 54f2 1d40 d212 0246 0000 0000 b32e 1146
00000260: 555c 3743 16a1 c045 b74f 1e42 0000 0000
00000270: 9631 a745 8616 9543 0000 0000 0000 0000
00000280: d2c2 3d43 84b4 9744 0000 0000 d7f1 9d45
00000290: 66db c845 0f0b b643 ffa5 4246 0000 0000
000002a0: e2bd 0b3f 0000 0000 0000 0000 0000 0000
000002b0: c0ed 8c43 9225 4846 0000 0000 0000 0000
000002c0: 0000 0000 0cdb 9545 ce3e 6545 343f 2846
000002d0: fd78 d345 0000 0000 f71c ca45 3570 1843
000002e0: 0000 0000 0000 0000 29ff 7245 0000 0000
000002f0: d31a 4c46 0000 0000 72f0 5946 122d ce45
00000300: 44e8 4845 0000 0000 0000 0000 0000 0000
00000310: 0000 0000 0000 0000 a2a1 da44 0000 0000
7422.953 0.0 0.0 0.0 9824.879 3197.9128 10209.998 5385.959
5314.052 114.971466 2313.1465 7885.175 1512.7795 4114.7876 0.0 0.0
5830.465 0.0 0.0 0.0 162.33762 2242.5657 0.052142005 0.0
3001.2776 8465.438 1857.6478 0.0 0.0 6162.883 2950.1147 9369.442
7422.038 1732.2004 0.0 4380.535 3844.8896 6470.0596 108.69924 7335.76
8897.754 4677.2524 0.0 2805.8345 0.0 6038.9683 0.0 3332.0762
0.0 2832.2769 8263.382 3331.6528 0.0 3407.5227 1948.523 4520.503
0.0 5252.039 6541.1797 9848.967 4966.79 0.0 0.0 0.0
156.15172 0.0 6757.0596 7194.7334 5255.485 6300.2607 0.0 2025.7543
4747.3145 6826.0376 8698.156 0.0 0.0 5680.4985 4543.5312 3930.3015
16430.803 10054.933 0.0 5598.459 1695.6465 0.0 0.0 0.0
4936.784 0.0 1427.7915 2084.0386 1633.5194 0.0 4621.963 7218.653
2739.1497 4659.7227 0.0 4154.074 3295.4587 6232.553 0.0 0.0
0.0 0.0 2466.248 0.0 0.0 2376.959 7593.708 0.054171264
3475.0647 6379.372 0.0 0.0 0.018669056 0.0 0.0 11901.307
10593.844 2006.8251 0.0 0.0 0.0 0.0 0.0 0.0
0.0 59.436203 0.0 2439.5178 0.0 0.0 0.0 0.0
0.0 0.0 0.0 0.0 0.0 11189.167 115.095924 450.1767
0.0 1423.7477 9663.349 17017.658 2.4679155 8324.705 0.0 9291.675
183.36067 6164.1357 39.577847 0.0 5350.198 298.17596 0.0 0.0
189.76102 1213.6411 0.0 5054.23 6427.425 364.0864 12457.499 0.0
0.54586613 0.0 0.0 0.0 281.85742 12809.393 0.0 0.0
0.0 4795.381 3667.9253 10767.801 6767.1235 0.0 6467.6206 152.43831
0.0 0.0 3887.9475 0.0 13062.706 0.0 13948.111 6597.634
3214.5166 0.0 0.0 0.0 0.0 0.0 1749.051 0.0

bn1.running_var f4 [200]
00000000: 112c 214d 2bf6 273f 2bf6 273f 2bf6 273f
00000010: c0be 8d4d 7691 ed4b 8614 9c4d 8779 b84c
00000020: 09d2 a94c b016 5648 4fcd 994b 9198 374d
00000030: 47d1 f74a 979d 624c 2bf6 273f 2bf6 273f
00000040: 5c12 c84c 2bf6 273f 2bf6 273f 2bf6 273f
00000050: 46a5 d948 2db4 a14b 1b5e 2440 2bf6 273f
00000060: b3b5 d74b be1b 534d d5f5 694b 2bf6 273f
00000070: 2bf6 273f fcfd e24c 546a e64b 304e 804d
00000080: c34c 274d f220 184b 2bf6 273f 205b 654c
00000090: 6b1e 554c 4cbe 034d d821 3a48 f54a 214d
000000a0: f178 664d 51d0 824c 2bf6 273f 00fe bb4b
000000b0: 2bf6 273f b712 d74c 2bf6 273f b7dc 0d4c
000000c0: 2bf6 273f 0296 e74b 0903 4a4d 8c0d 0d4c
000000d0: 2bf6 273f 1675 244c 67f6 6d4b 2a5c 7c4c
000000e0: 2bf6 273f c645 a84c 3673 f84c 45c0 8d4d
000000f0: 316d 924c 2bf6 273f 2bf6 273f 2bf6 273f
00000100: a92b a748 2bf6 273f 9b27 0a4d f9de 174d
00000110: 49f7 a64c 740d e74c 2bf6 273f a4b7 7d4b
00000120: 9447 8e4c 8492 124d 1ce8 5e4d 2bf6 273f
00000130: 2bf6 273f a7f3 c04c 8be1 804c c594 4e4c
00000140: 754b 474e dbf2 944d 2bf6 273f bcf6 bb4c
00000150: 796e 1c4b 2bf6 273f 2bf6 273f 2bf6 273f
00000160: 50bb 994c 2bf6 273f 7daf e34a c4b3 504b
00000170: da6c 194b 2bf6 273f c160 754c f5c0 174d
00000180: 7612 b54b 446b 8a4c 2bf6 273f 433d 494c
00000190: 35a3 174c f473 e44c 2bf6 273f 2bf6 273f
000001a0: 2bf6 273f 2bf6 273f ebe4 b24b 2bf6 273f
000001b0: 2bf6 273f 54fd af4b 3f18 2d4d dc60 2f41
000001c0: bb59 104c efa1 f54c 2bf6 273f 2bf6 273f
000001d0: 4efa e03f 2bf6 273f 2bf6 273f 2838 cf4d
000001e0: b8f4 a54d 079b 774b 2bf6 273f 2bf6 273f
000001f0: 2bf6 273f 2bf6 273f 2bf6 273f 2bf6 273f
00000200: 2bf6 273f c73f a846 2bf6 273f 16bc a94b
00000210: 2bf6 273f 2bf6 273f 2bf6 273f 2bf6 273f
00000220: 2bf6 273f 2bf6 273f 2bf6 273f 2bf6 273f
00000230: 2bf6 273f 02ae b74d 25dd 2e48 764f 9a49
00000240: 2bf6 273f b696 074b 6dea 8a4d 1c0a 564e
00000250: db72 f244 ecc0 494d 2bf6 273f 1754 7e4d
00000260: e68e ae48 ba4a e74c 9746 0447 2bf6 273f
00000270: 83b7 b84c 63fd a049 2bf6 273f 2bf6 273f
00000280: 9ca5 f548 afc1 e34a 2bf6 273f eb93 994c
00000290: 7368 014d aa34 dc49 9cbf e24d 2bf6 273f
000002a0: bc7c 6a43 2bf6 273f 2bf6 273f 2bf6 273f
000002b0: 992b 9349 d53d f04d 2bf6 273f 2bf6 273f
000002c0: 2bf6 273f e153 844c 8e00 1c4c 16d3 a94d
000002d0: 3dab 074d 2bf6 273f b3a5 fc4c f3a0 b548
000002e0: 2bf6 273f 2bf6 273f 9624 2f4c 2bf6 273f
000002f0: c2d7 fd4d 2bf6 273f 9e59 104e 73ca 004d
00000300: 08b3 004c 2bf6 273f 2bf6 273f 2bf6 273f
00000310: 2bf6 273f 2bf6 273f b21d 184b 2bf6 273f
1.6900123e+08 0.6561 0.6561 0.6561 2.9726106e+08 3.113854e+07 3.2732384e+08 9.671788e+07
8.9034824e+07 219226.75 2.0159134e+07 1.9251432e+08 8.1204835e+06 5.9405916e+07 0.6561 0.6561
1.048952e+08 0.6561 0.6561 0.6561 445738.2 2.1194842e+07 2.5682437 0.6561
2.827351e+07 2.2136317e+08 1.5332821e+07 0.6561 0.6561 1.1900925e+08 3.0201e+07 2.6907597e+08
1.7542661e+08 9.969906e+06 0.6561 6.012429e+07 5.586782e+07 1.3814291e+08 190599.38 1.6912776e+08
2.4166786e+08 6.858407e+07 0.6561 2.4640512e+07 0.6561 1.1276025e+08 0.6561 3.7188316e+07
0.6561 3.0354436e+07 2.1182478e+08 3.6976176e+07 0.6561 4.311151e+07 1.5595111e+07 6.6154664e+07
0.6561 8.822328e+07 1.3025938e+08 2.972735e+08 7.676967e+07 0.6561 0.6561 0.6561
342365.28 0.6561 1.4486571e+08 1.5924827e+08 8.753825e+07 1.2113808e+08 0.6561 1.662762e+07
7.459549e+07 1.5369222e+08 2.337346e+08 0.6561 0.6561 1.01162296e+08 6.7570776e+07 5.4154004e+07
8.359028e+08 3.1236797e+08 0.6561 9.854717e+07 1.0251897e+07 0.6561 0.6561 0.6561
8.059968e+07 0.6561 7.4607985e+06 1.3677508e+07 1.0054874e+07 0.6561 6.4324356e+07 1.5912533e+08
2.3733484e+07 7.257142e+07 0.6561 5.2753676e+07 3.9750868e+07 1.1977514e+08 0.6561 0.6561
0.6561 0.6561 2.3448022e+07 0.6561 0.6561 2.3067304e+07 1.8150296e+08 10.961147
3.784062e+07 1.287822e+08 0.6561 0.6561 1.7576387 0.6561 0.6561 4.345705e+08
3.480348e+08 1.6227079e+07 0.6561 0.6561 0.6561 0.6561 0.6561 0.6561
0.6561 21535.889 0.6561 2.2247468e+07 0.6561 0.6561 0.6561 0.6561
0.6561 0.6561 0.6561 0.6561 0.6561 3.852043e+08 179060.58 1.2641108e+06
0.6561 8.885942e+06 2.913274e+08 8.977467e+08 1939.5892 2.1155398e+08 0.6561 2.6668274e+08
357495.2 1.2126357e+08 33862.59 0.6561 9.6844824e+07 1.3188284e+06 0.6561 0.6561
503084.88 7.4631275e+06 0.6561 8.0519e+07 1.3569413e+08 1.8039252e+06 4.75526e+08 0.6561
234.48724 0.6561 0.6561 0.6561 1.2056191e+06 5.03823e+08 0.6561 0.6561
0.6561 6.93778e+07 4.089503e+07 3.561479e+08 1.4225915e+08 0.6561 1.3245993e+08 371975.6
0.6561 0.6561 4.5912664e+07 0.6561 5.3234694e+08 0.6561 6.0544806e+08 1.3504696e+08
3.373776e+07 0.6561 0.6561 0.6561 0.6561 0.6561 9.969074e+06 0.6561

bn2.weight f4 [20]
00000000: 1675 623f 7d75 623f 0275 623f 02bc 0a3f
00000010: 1775 623f fbbb 0a3f 05bc 0a3f 02bc 0a3f
00000020: 01bc 0a3f 4a75 623f 01bc 0a3f f674 623f
00000030: 01bc 0a3f 1275 623f 1f75 623f fb74 623f
00000040: 03bc 0a3f 4b75 623f 01bc 0a3f cb74 623f
0.8845991 0.8846052 0.8845979 0.5419313 0.88459915 0.54193085 0.54193145 0.5419313
0.5419312 0.8846022 0.5419312 0.8845972 0.5419312 0.88459885 0.8845996 0.8845975
0.54193133 0.88460225 0.5419312 0.8845946

bn2.bias f4 [20]
00000000: af17 143f 3b17 143f f517 143f 01bc 0abf
00000010: 6718 143f 02bc 0abf 01bc 0abf 03bc 0abf
00000020: 01bc 0abf 5317 143f 01bc 0abf c417 143f
00000030: 01bc 0abf bd18 143f 2617 143f c819 143f
00000040: 02bc 0abf 7517 143f 03bc 0abf a718 143f
0.5784864 0.57847947 0.57849056 -0.5419312 0.57849735 -0.5419313 -0.5419312 -0.54193133
-0.5419312 0.5784809 -0.5419312 0.57848763 -0.5419312 0.5785025 0.5784782 0.5785184
-0.5419313 0.5784829 -0.54193133 0.57850116

bn2.running_mean f4 [20]
00000000: 49e0 233e 5908 5a3e 3c7c 233e 4c8d 653e
00000010: 62c0 303e ee70 863e c535 0d3e 88fa 123e
00000020: 8bf8 183e 4f48 613e 5f25 353e c275 233e
00000030: 892e 893e 237a 5f3e 2d76 493e 4c6c 383e
00000040: d609 1b3e dd19 363e 384a 673e 6c6e 0a3e
0.16003527 0.21292247 0.1596536 0.22417182 0.17260888 0.26258034 0.13790043 0.14353383
0.14938562 0.2200024 0.17690037 0.1596289 0.26793316 0.21823935 0.19673987 0.18010062
0.15140471 0.17783304 0.22586906 0.13518685

bn2.running_var f4 [20]
00000000: 6427 863f 9189 a43f 6c33 803f 08fb 493f
00000010: a3ba 913f 66be 543f 4aab 373f e7bd 383f
00000020: bba2 3a3f b821 a83f 8bf3 3f3f b0d5 853f
00000030: 8cd7 553f f357 a93f 4e87 9d3f a435 943f
00000040: ad44 3a3f 3e6b 953f 8066 4d3f 9c2e 703f
1.0480771 1.2854482 1.0015693 0.7889867 1.1385082 0.83103025 0.7174574 0.7216477
0.72904557 1.313529 0.7498099 1.0455837 0.83532023 1.3229965 1.2306917 1.157887
0.7276104 1.1673353 0.8023453 0.9382112

bn3.weight f4 [20]
00000000: 3a6d 623f e60d 2d3f 196d 623f e00d 2d3f
00000010: e40d 2d3f 5f02 2d3f 136d 623f 0802 2d3f
00000020: 476d 623f c66c 623f e40d 2d3f cb07 2d3f
00000030: b903 2d3f e50d 2d3f 84fb 2cbf a2fb 2c3f
00000040: 746d 623f 0103 2d3f de6c 623f e40d 2d3f
0.88447917 0.6759933 0.8844772 0.67599297 0.6759932 0.67581743 0.88447684 0.67581224
0.88447994 0.88447225 0.6759932 0.67590016 0.67583805 0.67599326 -0.6757128 0.6757146
0.8844826 0.6758271 0.8844737 0.6759932

bn3.bias f4 [20]
00000000: 22a3 313f e701 2dbf 20a3 313f b901 2dbf
00000010: 0302 2dbf 7502 2dbf 28a3 313f a001 2dbf
00000020: 1fa3 313f 28a3 313f e701 2dbf f701 2dbf
00000030: d101 2dbf f501 2dbf cd01 2d3f 0efb 2cbf
00000040: 27a3 313f bc01 2dbf 28a3 313f 0102 2dbf
0.69389546 -0.6758103 0.69389534 -0.67580754 -0.67581195 -0.67581874 0.6938958 -0.67580605
0.6938953 0.6938958 -0.6758103 -0.67581123 -0.67580897 -0.6758111 0.6758087 -0.6757058
0.69389576 -0.6758077 0.6938958 -0.6758118

bn3.running_mean f4 [20]
00000000: 22a7 823d 4530 803d 3f85 463d 1eae 973d
00000010: 5bea df3d e766 ea3c a835 503d a25d 973d
00000020: 4ae8 d33d 4ff5 693d 691b 093e b6d7 683d
00000030: 3c83 513d 0ff1 b63d d974 6b3d 722b 8a3d
00000040: 9218 e33d 7a13 c93d ec59 2e3d 3891 2a3e
0.06379534 0.06259207 0.048466917 0.07406257 0.10933372 0.02861352 0.05083242 0.07390906
0.1034704 0.05711871 0.13389362 0.056846343 0.051150545 0.08932697 0.05748448 0.06746568
0.11088671 0.09818168 0.042566225 0.16656959

bn3.running_var f4 [20]
00000000: 3d2f 343f 7329 2e3f 01fa 313f 54c1 2e3f
00000010: d356 2f3f dc5e 293f f6d9 333f 3d0a 303f
00000020: 9af4 513f 11fc 363f 1cc3 2e3f 0b3c 2c3f
00000030: d648 2b3f af60 2a3f 0749 2b3f bd18 3b3f
00000040: 5597 583f 4aa2 2d3f 9e3d 2e3f b513 453f
0.7038458 0.68031996 0.695221 0.68263745 0.6849186 0.6616037 0.70254457 0.6876562
0.8201386 0.7147837 0.68266463 0.6727912 0.66908014 0.6655378 0.66908306 0.7308462
0.84605914 0.6782576 0.6806277 0.76983196
