Results/NN_MLP_MLs/MLP_Ensemble/Model_Results/MGTwRD/3layer-test1/best_model_1.pt (torch, 88157 bytes, 20 tensors)

country_embedding.weight f4 [8, 2]
0	0x4149cc3b	12.612361
1	0xc149d719	-12.615014
2	0x41657f5a	14.343592
3	0xc1658914	-14.345966
4	0xc190d383	-18.103277
5	0x4190d574	18.104225
6	0x40d19feb	6.550771
7	0xc0d1b7b9	-6.553677
8	0x4102fffc	8.187496
9	0xc103115e	-8.19174
10	0x41765674	15.396107
11	0xc1766295	-15.399068
12	0x4119d38e	9.614149
13	0xc119c711	-9.6111
14	0xbeb53485	-0.35391632
15	0x3eb4c8f2	0.3530956

fc1.weight f4 [200, 74]
0	0x36ad616b	5.1671427e-06
1	0xb418ea28	-1.4241289e-07
2	0x3802b5b0	3.1163625e-05
3	0x373a1f2a	1.109372e-05
4	0xb75ebc70	-1.3276105e-05
5	0xb7b49d40	-2.1530897e-05
6	0xb6c88028	-5.975384e-06
7	0xb780fdf3	-1.5377043e-05
8	0xb73fa889	-1.1423727e-05
9	0x35e51a71	1.7069525e-06
10	0x37b2452f	2.125147e-05
11	0x37a28b73	1.9376841e-05
12	0xb8122ad2	-3.4848992e-05
13	0x37b96331	2.2099908e-05
14	0x37271680	9.959214e-06
15	0x380dd4fb	3.3815373e-05
16	0x37c563f6	2.3530778e-05
17	0xb8083ccc	-3.248155e-05
18	0xb80e2b6d	-3.389588e-05
19	0xb7903ddf	-1.7194949e-05
20	0x38034cb4	3.130427e-05
21	0xb6c74013	-5.9381214e-06
22	0x377ff63e	1.5256517e-05
23	0xb78af8de	-1.656677e-05
24	0x3812b76c	3.4979937e-05
25	0xb77d0e48	-1.50833e-05
26	0x37e043f6	2.6734528e-05
27	0x34e2a33a	4.2214543e-07
28	0xb79d8b87	-1.8780831e-05
29	0x3799b759	1.83244e-05
30	0xb79ebd83	-1.8923316e-05
31	0x372fe771	1.04846995e-05
32	0xb72cb471	-1.0294011e-05
33	0xb6832501	-3.908412e-06
34	0xb80fc06f	-3.4273075e-05
35	0xb78e94c8	-1.6997e-05
36	0x37a245e1	1.9344445e-05
37	0xb711627a	-8.665602e-06
38	0x3814ef2f	3.5508707e-05
39	0x37efb6e3	2.8576183e-05
40	0xb5e00aa6	-1.66924e-06
41	0xb7c79c52	-2.3795441e-05
42	0x37b61bc3	2.1709018e-05
43	0x37399f99	1.10640185e-05
44	0xb7c14fbc	-2.3044522e-05
45	0x37c23e93	2.315574e-05
46	0x37b58db9	2.1642876e-05
47	0x38049cb6	3.16172e-05
48	0xb7a7a23f	-1.9983503e-05
49	0xb6c4e6cd	-5.868124e-06
50	0xb5396121	-6.905921e-07
51	0x36aeb6a1	5.206865e-06
52	0xb7e2f3f7	-2.7054904e-05
53	0xb7d4364b	-2.5297652e-05
54	0x37a2af4b	1.9393532e-05
55	0xb70c3ff9	-8.359545e-06
56	0x379213f8	1.7413855e-05
57	0x36086409	2.0323807e-06
58	0x37446205	1.1705332e-05
59	0x370383d6	7.838904e-06
60	0x37597787	1.29620375e-05
61	0x37943df2	1.767182e-05
62	0xb80a79fa	-3.3015363e-05
63	0x3796870e	1.7944283e-05
64	0xb7d244bf	-2.5065963e-05
65	0xb7e1a2d6	-2.6897917e-05
66	0x36117e00	2.1680025e-06
67	0xb6cbd6cd	-6.0748775e-06
68	0x37afa3c2	2.0937881e-05
69	0xb7ad3085	-2.06458e-05
70	0xb804ecc8	-3.1691772e-05
71	0x37d9a350	2.5944464e-05
72	0xb6b15fd6	-5.286168e-06
73	0x37a833f2	2.005135e-05
74	0x374047bf	1.14607965e-05
75	0xb7e03f94	-2.6732487e-05
76	0x36f05079	7.1619256e-06
77	0x370fa901	8.5628135e-06
78	0xb7c83b30	-2.386942e-05
79	0xb78de3b8	-1.691455e-05
80	0x374beff0	1.2155608e-05
81	0x36d6443e	6.3856414e-06
82	0xb77e6a0e	-1.5164273e-05
83	0xb7350db7	-1.0791634e-05
84	0x3808f272	3.265072e-05
85	0xb6dd52a1	-6.5959325e-06
86	0x37a899fe	2.0098869e-05
87	0x37817d54	1.5436359e-05
88	0xb7c14ed1	-2.3044095e-05
89	0xb7fe51f9	-3.0317331e-05
90	0x380f8707	3.421961e-05
91	0x35f9d8e4	1.8615069e-06
92	0x37ccfc03	2.4436047e-05
93	0x36f7e378	7.3876545e-06
94	0x37405cb6	1.1465678e-05
95	0x37df607c	2.66286e-05
96	0x380dc831	3.3803462e-05
97	0xb7c67199	-2.3656337e-05
98	0x36958f61	4.4572375e-06
99	0x37df2b2c	2.6603775e-05
100	0x37d8a3e8	2.5825531e-05
101	0x37b9c7ee	2.2146818e-05
102	0xb7d86d57	-2.5800122e-05
103	0xb7d75859	-2.5671137e-05
104	0xb7b4dafc	-2.1559645e-05
105	0x3696467e	4.4785547e-06
106	0x381506a3	3.553055e-05
107	0xb7bce6da	-2.2518845e-05
108	0x379f5bbb	1.8996992e-05
109	0xb7a584d4	-1.9731386e-05
110	0xb80c95f0	-3.351824e-05
111	0xb6fe3cda	-7.576874e-06
112	0x37ac4dc4	2.054021e-05
113	0x380ad080	3.3095945e-05
114	0xb7b9b8b7	-2.2139733e-05
115	0x3701cb3a	7.736317e-06
116	0x380104f9	3.0760628e-05
117	0x37c62a8f	2.3623257e-05
118	0x37ba5fe1	2.2217575e-05
119	0x37d483d1	2.5333751e-05
120	0x37bd275b	2.2548882e-05
121	0x371a7cb8	9.208154e-06
122	0xb7cc7ef2	-2.4377809e-05
123	0xb7fb20d7	-2.9936824e-05
124	0xb78907d6	-1.6335322e-05
125	0xb68b4afc	-4.151252e-06
126	0xb7b74db7	-2.1851489e-05
127	0x375ad0eb	1.3042455e-05
128	0x37391a58	1.1032993e-05
129	0xb7076e2c	-8.072278e-06
130	0x3765dfec	1.37015995e-05
131	0x37414b80	1.1521275e-05
132	0x37b694ba	2.1765347e-05
133	0x37c964d2	2.4008015e-05
134	0xb74a8c40	-1.2072793e-05
135	0x381216ed	3.4830464e-05
136	0xb68a49e4	-4.1213225e-06
137	0xb5a46308	-1.2247774e-06
138	0xb80d221a	-3.364878e-05
139	0xb7c07933	-2.2944621e-05
140	0xb7aeb453	-2.0826386e-05
141	0xb77fd1ae	-1.5248004e-05
142	0x37d49d81	2.5345713e-05
143	0xb74372b1	-1.1649609e-05
144	0xb7df7964	-2.6640198e-05
145	0x37661e73	1.3716158e-05
146	0x373f7e55	1.1413901e-05
147	0x37c1b103	2.308982e-05
148	0x3ede3edb	0.4340733
149	0xc260314b	-56.048138
150	0x411c1cc5	9.757024
151	0xc1aae43f	-21.361448
152	0xc13e6893	-11.900531
153	0xc1837177	-16.430403
154	0x3fbc6ef9	1.4721366
155	0xc147529e	-12.45767
156	0xc1dc2758	-27.51921
157	0xc16d9bde	-14.8505535
158	0xc173e2b7	-15.24285
159	0xc1248f50	-10.284988
160	0xc150c4c7	-13.048041
161	0xc111959f	-9.099029
162	0xc14a459f	-12.641997
163	0xc0ca4098	-6.320385
164	0xbfecf6a4	-1.8512769
165	0xc1731e69	-15.194924
166	0x409ca51c	4.895155
167	0x40e81023	7.25197
168	0x3dbd7c16	0.09252183
169	0x404b844e	3.1799502
170	0x40083041	2.1279452
171	0x404b413f	3.1758573
172	0x3fdc8fa2	1.7231333
173	0x400c841d	2.1955636
174	0x4070afa7	3.760721
175	0x412d373c	10.825985
176	0x3f664e26	0.89962995
177	0x4140069e	12.001616
178	0x40f46bea	7.638173
179	0x3f2367a3	0.6383001
180	0xbf4bd323	-0.79619044
181	0x402e7a1c	2.726203
182	0x3f85c4be	1.0450666
183	0xb7d15009	-2.495201e-05
184	0x4061157b	3.516936
185	0x4080508d	4.009833
186	0x3f83fd2a	1.0311635
187	0x3fcc813a	1.5976937
188	0xc0334a72	-2.8014188
189	0x3e8a17ea	0.2697137
190	0x40157801	2.3354495
191	0x3fba3f38	1.4550543
192	0x3fbf9bb7	1.4969395
193	0x40e5ab7d	7.1771836
194	0xbf597d93	-0.84957236
195	0x4114e47f	9.305785
196	0x408e093d	4.4386277
197	0xc037942b	-2.8684185
198	0xc09b101c	-4.8457165
199	0x411899a4	9.53751
200	0x3df63fd2	0.120238915
201	0xb7d7cde4	-2.5725873e-05
202	0x40006740	2.0063019
203	0x40a4322b	5.131124
204	0x3fc39e34	1.5282655
205	0x3f94e29c	1.1631656
206	0xc00885f2	-2.1331754
207	0x3fffcb9b	1.998401
208	0x3ffcdf92	1.9755728
209	0x3fb471d0	1.4097233
210	0x3f810ef6	1.0082691
211	0x410bf6a9	8.74772
212	0xbf92be13	-1.1464256
213	0x40c259c3	6.0734572
214	0x40a1c129	5.054829
215	0xbfbaec7a	-1.4603417
216	0xc0ca1269	-6.3147473
217	0x4128b5f2	10.54442
218	0x3e0264a3	0.12733702
219	0x3711cd0a	8.690413e-06
220	0xc239ab94	-46.417557
221	0x4239a119	46.407322
222	0x3ede1418	0.43374705
223	0xc260314b	-56.048138
224	0x411c1c41	9.756898
225	0xc1aae543	-21.361944
226	0xc13e6ad4	-11.901081
227	0xc183739c	-16.43145
228	0x3fbc695c	1.4719653
229	0xc1475335	-12.457814
230	0xc1dc28f8	-27.520004
231	0xc16d9ca3	-14.850741
232	0xc173e50b	-15.243419
233	0xc1249041	-10.285218
234	0xc150c5c9	-13.048287
235	0xc111967b	-9.099238
236	0xc14a48e6	-12.642797
237	0xc0ca439c	-6.320753
238	0xbfed0126	-1.8515975
239	0xc1732036	-15.195364
240	0x409ca2b6	4.894862
241	0x40e80dd7	7.2516894
242	0x3dbcd947	0.0922113
243	0x404b7fea	3.1796823
244	0x40082c3e	2.1277003
245	0x404b3d42	3.1756139
246	0x3fdc82e1	1.7227441
247	0x400c814e	2.1953921
248	0x4070ab8e	3.7604709
249	0x412d36f3	10.825915
250	0x3f663b45	0.8993419
251	0x4140079c	12.001858
252	0x40f46a53	7.637979
253	0x3f234f5e	0.6379298
254	0xbf4bea7f	-0.7965469
255	0x402e7425	2.725839

fc1.bias f4 [200]
0	0xb80b7d13	-3.3256667e-05
1	0xb7ea31f8	-2.7918242e-05
2	0x3edf2270	0.4358096
3	0x3edef2c6	0.43544596
4	0x3edef6c2	0.43547636
5	0x37de9fb3	2.6538828e-05
6	0x37c92b86	2.3981334e-05
7	0x36f34ac9	7.2506705e-06
8	0x3edeef14	0.43541777
9	0x3edef813	0.4354864
10	0x37838d54	1.5682228e-05
11	0x37e0e047	2.6807318e-05
12	0x3edf0245	0.4355642
13	0x3edf10dd	0.43567553
14	0xb79b1ea3	-1.8491706e-05
15	0xb7bb88c4	-2.2355824e-05
16	0x3edf2044	0.43579304
17	0x37d24789	2.5067262e-05
18	0x3edef961	0.43549636
19	0x3edf258d	0.43583336
20	0x3edf1a66	0.43574828
21	0x3edf1145	0.43567863
22	0xb706bac5	-8.030508e-06
23	0x3edf588b	0.4362224
24	0xb804700a	-3.1575597e-05
25	0x3edf4013	0.43603572
26	0x3edf261a	0.43583757
27	0x3edef18c	0.4354366
28	0x3edf3347	0.4359381
29	0x3edf12ad	0.43568936
30	0x3edf19d5	0.43574396
31	0x3edf0bfb	0.43563828
32	0xb69ef564	-4.737334e-06
33	0x37fd560f	3.0200024e-05
34	0x3edf0a9a	0.43562776
35	0x3edf3807	0.43597433
36	0x3edf0c2a	0.43563968
37	0x3edf43a1	0.43606284
38	0x3edf13db	0.43569836
39	0xb735458a	-1.08046315e-05
40	0xb7e1f976	-2.6938254e-05
41	0xb78d9e43	-1.6882206e-05
42	0xb8040033	-3.1471438e-05
43	0x3edf0bd4	0.43563712
44	0x37d04c93	2.483119e-05
45	0xb7cfadb3	-2.4757208e-05
46	0xb7c8cd14	-2.3937355e-05
47	0xb6f7cf6f	-7.385322e-06
48	0xb84e1404	-4.913287e-05
49	0x3edf15d4	0.4357134
50	0x3edeff68	0.43554235
51	0x3edef564	0.43546593
52	0x3edef035	0.43542638
53	0x36766568	3.6715883e-06
54	0x37971987	1.801249e-05
55	0xb824db24	-3.9304738e-05
56	0x3edeef19	0.43541792
57	0x384cac5e	4.879792e-05
58	0xb80406cf	-3.1477593e-05
59	0x3edf0f0a	0.4356616
60	0x3edf0e45	0.43565574
61	0xb7dde9b4	-2.645408e-05
62	0x3edefcb4	0.43552172
63	0x378d211c	1.6823928e-05
64	0x37b8893e	2.1998418e-05
65	0x3edf0e78	0.43565726
66	0x367b20cd	3.7421007e-06
67	0x37d21be4	2.5046938e-05
68	0x3edee9f0	0.43537855
69	0x3edf1699	0.43571928
70	0xb6bbfb59	-5.602295e-06
71	0xb75b9a47	-1.3089338e-05
72	0x3edf1030	0.43567038
73	0xb7b26275	-2.1265101e-05
74	0x37390f04	1.1030355e-05
75	0x38062862	3.19857e-05
76	0x3edf3b17	0.4359977
77	0xb629cb38	-2.5301251e-06
78	0x37e3237e	2.7077036e-05
79	0xb6530809	-3.1446127e-06
80	0xb809a52c	-3.2817174e-05
81	0x3edf2508	0.4358294
82	0x3edf3b90	0.4360013
83	0x3785047e	1.5856927e-05
84	0x379cedef	1.8707446e-05
85	0x3741cb7b	1.1551073e-05
86	0xb7a3c184	-1.9521227e-05
87	0x3edee090	0.43530703
88	0x3edf4d92	0.4361387
89	0xb62eae94	-2.6029638e-06
90	0x3edf0758	0.4356029
91	0xb7430260	-1.1623459e-05
92	0x36966924	4.4825883e-06
93	0x37ddd5b9	2.6444775e-05
94	0x3edef990	0.43549776
95	0x344c0942	1.9002348e-07
96	0x3edeea4f	0.43538138
97	0x3edf538f	0.43618438
98	0xb721defc	-9.648265e-06
99	0x3edef941	0.4354954
100	0xb708b92e	-8.149347e-06
101	0x3edef61c	0.43547142
102	0x37d52ac8	2.54115e-05
103	0x378cb202	1.6772192e-05
104	0x3edf3b57	0.4359996
105	0x3edf0215	0.43556276
106	0xb3863360	-6.249206e-08
107	0x36af8475	5.2308264e-06
108	0xb7708d41	-1.4338003e-05
109	0x374c5c70	1.218087e-05
110	0x37be71e9	2.2702809e-05
111	0x3608a2a3	2.0360246e-06
112	0x3edeeae3	0.4353858
113	0xb7b9647f	-2.2100516e-05
114	0x3edef556	0.4354655
115	0xb7afb618	-2.094642e-05
116	0x3edf0f7e	0.43566507
117	0x384ef0ce	4.9338494e-05
118	0xb6938d06	-4.3973587e-06
119	0x3edeeff0	0.43542433
120	0x37ff7c75	3.0456324e-05
121	0xb7e1de4f	-2.692561e-05
122	0x37af2eee	2.0883479e-05
123	0x36b45911	5.3747867e-06
124	0x3edf1169	0.4356797
125	0x378b92cf	1.6638454e-05
126	0x3edf1541	0.43570903
127	0xb7b6ad53	-2.1776801e-05
128	0x3edf3595	0.43595567
129	0x3edf2715	0.43584505
130	0xb7dcf1b3	-2.6338594e-05
131	0x3edf1c24	0.43576157
132	0x3edeea9c	0.43538368
133	0x380be586	3.3353943e-05
134	0x3edee60a	0.4353488
135	0x36f4353e	7.277965e-06
136	0x36148b9b	2.213498e-06
137	0x3edf0011	0.43554738
138	0xb709ea0a	-8.220328e-06
139	0x3edf1d4c	0.4357704
140	0x3edf1665	0.43571773
141	0x379ea6ba	1.8912706e-05
142	0x3edee547	0.435343
143	0x3edefa69	0.43550423
144	0xb7a52863	-1.968834e-05
145	0x38065058	3.2022916e-05
146	0x3edeef4a	0.43541938
147	0x3edf0e0f	0.43565413
148	0x3edf1d3f	0.43577
149	0x380d4cf8	3.3688702e-05
150	0x3766a2b6	1.3746952e-05
151	0x3edf4b0c	0.43611944
152	0x374b27d1	1.2109013e-05
153	0xb7f551a9	-2.9244302e-05
154	0xb8014af5	-3.0825806e-05
155	0xb351c48a	-4.8840356e-08
156	0x36091daa	2.0431858e-06
157	0x355aeb78	8.155398e-07
158	0xb757c510	-1.2860881e-05
159	0x379bdffc	1.858174e-05
160	0x379257b2	1.7445393e-05
161	0x3edef636	0.4354722
162	0x3edef281	0.4354439
163	0x372ef16e	1.042742e-05
164	0x3edf2d09	0.43589047
165	0x3813cd59	3.5238776e-05
166	0x3810ec2c	3.4552228e-05
167	0x3edefe8d	0.43553582
168	0x376c101a	1.4070445e-05
169	0x3edf0cdd	0.435645
170	0x371e09d0	9.4198185e-06
171	0xb73cb00e	-1.1246664e-05
172	0x3edee795	0.43536058
173	0x3edf05ec	0.43559206
174	0x36c135c9	5.7581096e-06
175	0xb80d0522	-3.36218e-05
176	0x37895a22	1.6373644e-05
177	0xb6a949f4	-5.0452018e-06
178	0x37607436	1.3378498e-05
179	0x3edf1d2e	0.4357695
180	0xb7e9f2c2	-2.7888807e-05
181	0xb655c57e	-3.185443e-06
182	0x3edef8d7	0.43549225
183	0xb7decd1a	-2.655997e-05
184	0xb77e9816	-1.517499e-05
185	0xb79dd001	-1.8812718e-05
186	0x3edf231c	0.43581474
187	0x37dbb847	2.6192645e-05
188	0x3742baba	1.1606777e-05
189	0xb61fd2d8	-2.3815574e-06
190	0x3edeedb1	0.4354072
191	0x3edef6c0	0.4354763
192	0x3edef723	0.43547925
193	0x3edf3538	0.4359529
194	0xb7840a96	-1.5740556e-05
195	0xb7405810	-1.1464595e-05
196	0xb77f6bac	-1.5224254e-05
197	0x37c11eba	2.3021701e-05
198	0x35c466ca	1.4633054e-06
199	0x3edf3994	0.43598616

fc2.weight f4 [20, 200]
0	0x3ed21813	0.41033992
1	0xbed217d1	-0.41033795
2	0x3f837052	1.0268652
3	0x3f836358	1.0264692
4	0x3f83592b	1.0261587
5	0x3ed21a1e	0.4103555
6	0xbed20674	-0.41020548
7	0x3ed217a8	0.41033673
8	0x3f8351c6	1.025933
9	0x3f8359b0	1.0261745
10	0x3ed20d62	0.41025835
11	0xbed20dd9	-0.4102619
12	0x3f836a40	1.02668
13	0x3f83661d	1.0265538
14	0xbed21630	-0.41032553
15	0x3ed21828	0.41034055
16	0x3f837188	1.0269022
17	0xbed20abb	-0.41023812
18	0x3f835b14	1.026217
19	0x3f837260	1.026928
20	0x3f836eec	1.0268226
21	0x3f8363b5	1.0264803
22	0x3ed2058e	0.41019863
23	0x3f838bca	1.0277035
24	0x3ed21433	0.41031036
25	0x3f83806b	1.0273565
26	0x3f8371e9	1.0269138
27	0x3f835027	1.0258836
28	0x3f837cf6	1.027251
29	0x3f8364ba	1.0265114
30	0x3f836e78	1.0268087
31	0x3f836410	1.0264912
32	0x3ed2117e	0.4102897
33	0xbed215ae	-0.41032165
34	0x3f83672f	1.0265864
35	0x3f837fde	1.0273397
36	0x3f836a96	1.0266902
37	0x3f838233	1.0274109
38	0x3f836bc1	1.0267259
39	0x3ed206af	0.41020724
40	0x3ed211d5	0.4102923
41	0x3ed20963	0.41022786
42	0xbed20c26	-0.41024894
43	0x3f836bd0	1.0267277
44	0x3ed20ecf	0.41026923
45	0xbed214c9	-0.41031483
46	0x3ed2165a	0.41032678
47	0x3ed2178d	0.41033593
48	0xbed21b21	-0.41036323
49	0x3f836b5f	1.0267142
50	0x3f835ca4	1.0262647
51	0x3f835960	1.026165
52	0x3f834fb0	1.0258694
53	0xbed20b8a	-0.4102443
54	0xbed2103e	-0.41028017
55	0x3ed1fbc1	0.41012385
56	0x3f834f0b	1.0258497
57	0xbed21308	-0.41030145
58	0xbed2140b	-0.41030917
59	0x3f836c10	1.0267353
60	0x3f83670e	1.0265825
61	0x3ed218cd	0.41034546
62	0x3f835eae	1.0263269
63	0xbed2169e	-0.4103288
64	0x3ed20ac6	0.41023844
65	0x3f836573	1.0265335
66	0xbed214af	-0.41031405
67	0x3ed215c6	0.41032237
68	0x3f835469	1.0260135
69	0x3f836bc7	1.0267266
70	0xbed20c25	-0.4102489
71	0xbed2175d	-0.4103345
72	0x3f836f03	1.0268253
73	0x3ed21468	0.41031194
74	0xbed220fb	-0.41040787
75	0x3ed1f82c	0.41009653
76	0x3f8373a8	1.026967
77	0xbed21a4e	-0.41035694
78	0xbed20ecc	-0.41026914
79	0xbed211ab	-0.41029105
80	0xbed21634	-0.41032565
81	0x3f837212	1.0269186
82	0x3f83806f	1.027357
83	0xbed20b9c	-0.41024482
84	0x3ed20f8d	0.4102749
85	0xbed2172e	-0.4103331
86	0xbed21776	-0.41033524
87	0x3f835735	1.0260988
88	0x3f83893d	1.0276257
89	0xbed216b9	-0.4103296
90	0x3f836307	1.0264596
91	0xbed2072b	-0.41021094
92	0x3ed205eb	0.4102014
93	0xbed215cd	-0.41032258
94	0x3f835f16	1.0263393
95	0x3ed20dbd	0.41026106
96	0x3f835a8f	1.0262011
97	0x3f83858d	1.0275131
98	0x3ed20f65	0.4102737
99	0x3f836140	1.0264053
100	0xbed230c5	-0.41052833
101	0x3f8356d6	1.0260875
102	0xbed20ad8	-0.41023898
103	0x3ed20f54	0.4102732
104	0x3f837ac6	1.0271842
105	0x3f836366	1.0264709
106	0x3ed21458	0.41031146
107	0x3ed20b26	0.4102413
108	0xbed20c51	-0.41025022
109	0x3ed2151c	0.4103173
110	0xbed20d74	-0.4102589
111	0xbed209fc	-0.41023242
112	0x3f835dd2	1.0263007
113	0x3ed217c5	0.4103376
114	0x3f8357fd	1.0261227
115	0x3ed217cb	0.41033778
116	0x3f836fff	1.0268553
117	0xbed21652	-0.41032654
118	0x3ed208d3	0.41022357
119	0x3f835cdd	1.0262715
120	0xbed215eb	-0.41032347
121	0xbed211d5	-0.4102923
122	0x3ed21545	0.41031852
123	0x3ed206d8	0.41020846
124	0x3f8368a9	1.0266315
125	0x3ed20bf7	0.41024753
126	0x3f836b9c	1.0267215
127	0xbed206a0	-0.4102068
128	0x3f837424	1.0269818
129	0x3f837048	1.026864
130	0xbed2066e	-0.4102053
131	0x3f8371c1	1.026909
132	0x3f835415	1.0260035
133	0xbed20d5d	-0.4102582
134	0x3f834ae4	1.025723
135	0xbed218a5	-0.41034427
136	0x3ed20c49	0.41024998
137	0x3f836218	1.0264311
138	0xbed21c33	-0.4103714
139	0x3f8370a8	1.0268755
140	0x3f8366a4	1.0265698
141	0xbed21354	-0.4103037
142	0x3f8354c8	1.0260248
143	0x3f836088	1.0263834
144	0x3ed20e0f	0.4102635
145	0xbed21808	-0.4103396
146	0x3f835647	1.0260705
147	0x3f8364ef	1.0265177
148	0x3f8370e3	1.0268825
149	0x3ed209a9	0.41022995
150	0xbed20aa0	-0.4102373
151	0x3f838848	1.0275965
152	0xbed2052d	-0.41019574
153	0xbed215f0	-0.41032362
154	0x3ed20ca0	0.41025257
155	0xbed2053a	-0.41019613
156	0xbed2183a	-0.41034108
157	0x3ed20597	0.4101989
158	0x3ed2076d	0.4102129
159	0xbed20878	-0.41022086
160	0xbed2075d	-0.41021243
161	0x3f83559a	1.0260499
162	0x3f8354f4	1.0260301
163	0xbed216c8	-0.41033006
164	0x3f83752b	1.0270132
165	0x3ed21511	0.41031697
166	0xbed21458	-0.41031146
167	0x3f836083	1.0263828
168	0xbed217f3	-0.41033897
169	0x3f83648f	1.0265063
170	0xbed21d5d	-0.41038027
171	0xbed206d0	-0.41020823
172	0x3f83598c	1.0261703
173	0x3f835ef7	1.0263356
174	0x3ed1fd98	0.4101379
175	0xbed2172d	-0.41033307
176	0xbed20306	-0.41017932
177	0xbed206b2	-0.41020733
178	0xbed218cf	-0.41034552
179	0x3f836fe1	1.0268518
180	0xbed213a0	-0.41030598
181	0xbed208d5	-0.41022363
182	0x3f83641a	1.0264924
183	0xbed20516	-0.41019505
184	0xbed213ff	-0.4103088
185	0x3ed20887	0.4102213
186	0x3f8371d3	1.0269111
187	0xbed20c2f	-0.4102492
188	0xbed21688	-0.41032815
189	0xbed21620	-0.41032505
190	0x3f835271	1.0259534
191	0x3f836171	1.0264112
192	0x3f835c37	1.0262517
193	0x3f837aa1	1.0271798
194	0xbed20664	-0.410205
195	0x3ed215a8	0.41032147
196	0x3ed2133f	0.4103031
197	0x3ed20ebc	0.41026866
198	0x3ed2180f	0.4103398
199	0x3f838064	1.0273557
200	0x35c8174a	1.4907939e-06
201	0xb722913c	-9.6897675e-06
202	0xb7a84154	-2.0057581e-05
203	0xb7aae6e3	-2.0373094e-05
204	0xb6a04ae3	-4.7770895e-06
205	0x367be7a4	3.7536747e-06
206	0x37a1da3f	1.9294324e-05
207	0xb6a5450d	-4.9254218e-06
208	0xb423ac73	-1.5243295e-07
209	0xb7dd8d41	-2.641103e-05
210	0xb7b55a68	-2.161898e-05
211	0x376d4543	1.4142427e-05
212	0xb814ddba	-3.549245e-05
213	0xb7f443b2	-2.911859e-05
214	0xb6de73cc	-6.629596e-06
215	0x372c205d	1.0259534e-05
216	0xb7e26c97	-2.6991866e-05
217	0x3605580f	1.9869801e-06
218	0xb759b463	-1.29762075e-05
219	0x364ea8c6	3.079463e-06
220	0xb598639c	-1.1353873e-06
221	0xb7c8b162	-2.3924458e-05
222	0xb759971e	-1.2969393e-05
223	0xb78a50dc	-1.6488535e-05
224	0xb6ff566d	-7.6096535e-06
225	0xb7c8bbf9	-2.392939e-05
226	0x32fbf18e	2.9330092e-08
227	0xb6f08212	-7.1676996e-06
228	0xb75829ae	-1.2884308e-05
229	0xb79d67be	-1.8764167e-05
230	0xb6c697cc	-5.9185313e-06
231	0xb81f2fdb	-3.7953123e-05
232	0xb7b23e18	-2.1248168e-05
233	0x377986c0	1.48729305e-05
234	0xb7a3b274	-1.9514213e-05
235	0xb7a7e613	-2.0015088e-05
236	0xb8208677	-3.8272203e-05
237	0xb81772ea	-3.6108228e-05
238	0xb794037a	-1.7644594e-05
239	0xb466e68d	-2.1504293e-07
240	0x373981db	1.1057094e-05
241	0xb78a2006	-1.6465794e-05
242	0x368e5dcc	4.242849e-06
243	0xb6bd2283	-5.6366566e-06
244	0xb6f3dac7	-7.2674334e-06
245	0xb7763bd8	-1.4676676e-05
246	0xb691e02c	-4.347434e-06
247	0xb77410b7	-1.4547425e-05
248	0xb81df861	-3.7663038e-05
249	0xb708a84b	-8.145415e-06
250	0xb8050245	-3.1711785e-05
251	0x35589b59	8.069233e-07
252	0xb3479403	-4.6467914e-08
253	0x370d744f	8.431335e-06
254	0x37bd0d28	2.2536682e-05
255	0x3658eaa5	3.232309e-06

fc2.bias f4 [20]
0	0x3f08c21e	0.534212
1	0x370c4779	8.361291e-06
2	0x3f08c22e	0.53421295
3	0x360a67a9	2.062394e-06
4	0x3f08c222	0.53421223
5	0x3f08c230	0.53421307
6	0x3f08c20a	0.5342108
7	0xb800e4c1	-3.073062e-05
8	0xb807e443	-3.2399093e-05
9	0xb7adc13c	-2.0713189e-05
10	0xb80cf144	-3.3603297e-05
11	0xb7a58335	-1.973063e-05
12	0xb8408513	-4.5900302e-05
13	0xb5c50fd1	-1.4682247e-06
14	0x371c1836	9.303962e-06
15	0xb75c1955	-1.311892e-05
16	0xb7c74c90	-2.37583e-05
17	0x3f08c8f0	0.53431606
18	0x3f08c205	0.5342105
19	0xb7ec78a0	-2.8189563e-05

fc3.weight f4 [20, 20]
0	0xb8a35c8d	-7.7896846e-05
1	0xb866e960	-5.505362e-05
2	0xb7c8ac16	-2.3921992e-05
3	0x38119934	3.4713375e-05
4	0xb8b52ff0	-8.6396816e-05
5	0xb8253243	-3.9385875e-05
6	0x384c2984	4.8676055e-05
7	0xb7ebfaf1	-2.8131037e-05
8	0x382745d7	3.9880946e-05
9	0x38457239	4.707484e-05
10	0xb891b97b	-6.948687e-05
11	0xb8954ad2	-7.11881e-05
12	0x37afc044	2.0951156e-05
13	0x384fd546	4.9551272e-05
14	0x387a2d99	5.964711e-05
15	0xb7858b9d	-1.5919848e-05
16	0x370a1e61	8.232514e-06
17	0xb7e413ad	-2.718888e-05
18	0x384863b6	4.777658e-05
19	0x378b0014	1.6570128e-05
20	0xb86e1100	-5.6759454e-05
21	0x383fb918	4.571033e-05
22	0xb7fef98b	-3.0395362e-05
23	0x36366143	2.7176727e-06
24	0xb8a41f32	-7.82594e-05
25	0xb6e806ac	-6.9149155e-06
26	0x37ab3eb8	2.0413994e-05
27	0xb78ceb31	-1.679882e-05
28	0xb830bd9d	-4.213826e-05
29	0xb7c3a0f7	-2.3320767e-05
30	0x381ee034	3.787894e-05
31	0xb8a31d4e	-7.777904e-05
32	0xb7a50fcd	-1.967689e-05
33	0x38215f7d	3.847432e-05
34	0x375195de	1.2492264e-05
35	0xb782a14c	-1.5572317e-05
36	0x36a657f3	4.957424e-06
37	0xb8994636	-7.308686e-05
38	0xb84126d3	-4.6050944e-05
39	0x3777cc57	1.4769924e-05
40	0x37ca5a83	2.4122424e-05
41	0x38b522ae	8.637212e-05
42	0xb8adafc5	-8.2820225e-05
43	0xb6dada80	-6.522343e-06
44	0xb8036252	-3.13244e-05
45	0xb8363ba8	-4.344774e-05
46	0xb807577d	-3.2267988e-05
47	0xb8011863	-3.077871e-05
48	0xb78830b9	-1.6235152e-05
49	0x388248fe	6.212479e-05
50	0x37a0ed45	1.9183974e-05
51	0x3796295c	1.7900653e-05
52	0xb7a2d3d7	-1.941055e-05
53	0x3841870a	4.614055e-05
54	0x38bc64e6	8.9833324e-05
55	0x3706a2b5	8.024906e-06
56	0x3833acd0	4.283787e-05
57	0xb8371313	-4.3648364e-05
58	0xb7b67c3f	-2.1753947e-05
59	0x389ba9e8	7.4226235e-05
60	0xb8ab02f2	-8.154464e-05
61	0x389ab189	7.376361e-05
62	0x3685a6a7	3.9831098e-06
63	0x378d73c1	1.6862412e-05
64	0xb8d5d165	-0.00010195634
65	0xb84ab145	-4.8325648e-05
66	0xb863a122	-5.4271084e-05
67	0xb83550fc	-4.3229185e-05
68	0x38b75c89	8.743356e-05
69	0xb7818d91	-1.544392e-05
70	0xb892c81d	-6.9990965e-05
71	0xb891a00b	-6.943949e-05
72	0xb81b4bb4	-3.7025384e-05
73	0x37d0824b	2.4856205e-05
74	0xb7557741	-1.2723555e-05
75	0xb83182d5	-4.2321935e-05
76	0x382572a6	3.944584e-05
77	0xb88a6e73	-6.6009256e-05
78	0xb81b903d	-3.7089212e-05
79	0xb78ea04d	-1.7002365e-05
80	0xb897541c	-7.215908e-05
81	0x38b2b27b	8.520946e-05
82	0x3800eb63	3.07368e-05
83	0x38961e12	7.1581584e-05
84	0xb8bed8b1	-9.100268e-05
85	0xb8854a16	-6.355734e-05
86	0x375887ef	1.2906253e-05
87	0xb80d9f33	-3.3765285e-05
88	0x38644f9e	5.4433585e-05
89	0xb8062f84	-3.1992342e-05
90	0xb88aa0cf	-6.610306e-05
91	0xb7eda3cf	-2.8328881e-05
92	0xb6de9df0	-6.634502e-06
93	0x38b6e914	8.7218505e-05
94	0xb80f0fee	-3.4108692e-05
95	0xb7e5b837	-2.7384709e-05
96	0x38138836	3.5174387e-05
97	0x35277fbf	6.2398243e-07
98	0xb8a51610	-7.8719226e-05
99	0xb80b6f17	-3.3243643e-05
100	0xb4f774c3	-4.609229e-07
101	0xb726d4c0	-9.943906e-06
102	0xb80466bf	-3.1566942e-05
103	0x37bdb38b	2.2614162e-05
104	0xb83fae07	-4.5700024e-05
105	0xb8263df6	-3.963519e-05
106	0xb7bd6e51	-2.2581926e-05
107	0x3809fa9c	3.2896744e-05
108	0x38158ee0	3.565743e-05
109	0xb78b572a	-1.661068e-05
110	0xb7ea5fb6	-2.7939543e-05
111	0xb8887ff4	-6.5088185e-05
112	0x3689f15a	4.111015e-06
113	0xb81e7a8d	-3.778427e-05
114	0x38c703d0	9.4897696e-05
115	0x385b6d85	5.2315667e-05
116	0x37d57908	2.5447938e-05
117	0xb82453d4	-3.9178718e-05
118	0xb73e805f	-1.1354771e-05
119	0x36b15154	5.284479e-06
120	0x3f8312d9	1.0240127
121	0xbf09f7b4	-0.5389359
122	0x3f830fd6	1.0239208
123	0xbf09f86a	-0.53894675
124	0x3f830f60	1.0239067
125	0x3f830dde	1.0238607
126	0x3f831057	1.0239362
127	0xbf09f311	-0.53886515
128	0xbf09f348	-0.5388684
129	0xbf09fbb7	-0.5389971
130	0x3f09e49e	0.5386447
131	0xb8118110	-3.4690893e-05
132	0x3f09f194	0.53884244
133	0xbf09f504	-0.5388949
134	0xbf09f85e	-0.53894603
135	0xbf09f8a4	-0.5389502
136	0xbf09f828	-0.5389428
137	0x3f831066	1.023938
138	0x3f830ded	1.0238625
139	0xbf09f8b6	-0.5389513
140	0x3f8310cc	1.0239501
141	0xbf09f850	-0.5389452
142	0x3f8312b8	1.0240088
143	0xbf09f614	-0.5389111
144	0x3f8311a5	1.023976
145	0x3f831308	1.0240183
146	0x3f8310a2	1.0239451
147	0xbf09f867	-0.53894657
148	0xbf09f591	-0.5389033
149	0xbf09f8b6	-0.5389513
150	0x3f09e3b9	0.538631
151	0xb763c147	-1.3575255e-05
152	0x3f09f1fc	0.53884864
153	0xbf09f8b6	-0.5389513
154	0xbf09f741	-0.53892905
155	0xbf09f857	-0.5389456
156	0xbf09f89c	-0.5389497
157	0x3f830fd8	1.023921
158	0x3f831244	1.0239949
159	0xbf09f52c	-0.5388973
160	0xb894104f	-7.060228e-05
161	0x37f3df83	2.9071938e-05
162	0xb8bda055	-9.0420865e-05
163	0x36e4d605	6.8198447e-06
164	0xb84ea64c	-4.9269103e-05
165	0xb70626d4	-7.996063e-06
166	0xb88d1cfa	-6.728801e-05
167	0x3854547b	5.0623417e-05
168	0xb7ba99a7	-2.2244478e-05
169	0xb7cba7ae	-2.4277568e-05
170	0x3523d66b	6.103425e-07
171	0xb7ade6a6	-2.0730611e-05
172	0x36c4b0cb	5.8618366e-06
173	0xb7df8a05	-2.6647942e-05
174	0x389da9d9	7.51798e-05
175	0xb84bed7f	-4.8620157e-05
176	0xb8063857	-3.200056e-05
177	0xb7c6191b	-2.361513e-05
178	0x37656487	1.36728695e-05
179	0xb7e379c7	-2.7117216e-05
180	0xb87f9c7e	-6.0942482e-05
181	0x37cbcaa9	2.4293857e-05
182	0xb89611c1	-7.155864e-05
183	0xb89b919c	-7.418098e-05
184	0xb7e491e4	-2.7247654e-05
185	0x34043cfd	1.2315645e-07
186	0xb770d282	-1.4354127e-05
187	0xb793e908	-1.763228e-05
188	0x3821a58c	3.853957e-05
189	0xb82a508b	-4.060617e-05
190	0xb751f806	-1.2515118e-05
191	0xb8a6a169	-7.945562e-05
192	0x37a9844c	2.0207975e-05
193	0xb825054a	-3.934399e-05
194	0xb69ccc38	-4.6729365e-06
195	0x37a212af	1.9320605e-05
196	0xb8495925	-4.8005157e-05
197	0xb8251c36	-3.936534e-05
198	0xb7df55d2	-2.6623635e-05
199	0x37a92ee2	2.0168201e-05
200	0x3f83132b	1.0240225
201	0xbf09f941	-0.53895956
202	0x3f8311f3	1.0239853
203	0xbf09f511	-0.53889567
204	0x3f83126b	1.0239996
205	0x3f830f99	1.0239135
206	0x3f831220	1.0239906
207	0xbf09f86f	-0.53894705
208	0xbf09f7e2	-0.53893864
209	0xbf09f7d1	-0.5389376
210	0x3f09db13	0.53849906
211	0xb7e66803	-2.746657e-05
212	0x3f09f0d3	0.53883094
213	0xbf09f87f	-0.538948
214	0xbf09f7a0	-0.5389347
215	0xbf09f456	-0.5388845
216	0xbf09f632	-0.5389129
217	0x3f8312f3	1.0240158
218	0x3f8312f3	1.0240158
219	0xbf09f856	-0.53894556
220	0xb83c879f	-4.4949e-05
221	0x378056ff	1.52993e-05
222	0xb8467c8e	-4.732288e-05
223	0xb6459939	-2.9444475e-06
224	0x37da23aa	2.6004232e-05
225	0xb8a14afd	-7.691046e-05
226	0xb82b7955	-4.0882576e-05
227	0x3752b4f8	1.25591105e-05
228	0x37b7bee1	2.1904185e-05
229	0x385b9677	5.23538e-05
230	0xb8573287	-5.130705e-05
231	0xb74fba57	-1.2381547e-05
232	0x3836eeb4	4.361449e-05
233	0xb7a53ab9	-1.9696878e-05
234	0x376d607b	1.4148764e-05
235	0xb753ab06	-1.26163995e-05
236	0x3817eb3c	3.6220285e-05
237	0xb825599e	-3.9422528e-05
238	0xb85377dd	-5.041795e-05
239	0x37d06f03	2.4847226e-05
240	0xb8d51fde	-0.00010162567
241	0x38c93397	9.594036e-05
242	0x364e409a	3.0733995e-06
243	0x38a551ec	7.883072e-05
244	0xb86fe731	-5.7197354e-05
245	0x37c20623	2.312946e-05
246	0xb8860298	-6.390101e-05
247	0x38a2f05a	7.769531e-05
248	0xb866cfb9	-5.502973e-05
249	0x381ba606	3.71095e-05
250	0xb887b7d9	-6.471546e-05
251	0xb7c33e88	-2.327493e-05
252	0x38b0c272	8.428552e-05
253	0xb7b3d357	-2.1436876e-05
254	0x385fa9cd	5.3325482e-05
255	0x382c1e09	4.1035968e-05

fc3.bias f4 [20]
0	0x38942bdf	7.0653616e-05
1	0x384b9c95	4.85448e-05
2	0x377f62a2	1.5222149e-05
3	0x38a6b4db	7.949184e-05
4	0xb8195714	-3.655914e-05
5	0x389856f0	7.264118e-05
6	0x3f2224f0	0.6333761
7	0x3f222c4a	0.6334883
8	0x378990ab	1.6399039e-05
9	0x38844d4e	6.3086496e-05
10	0x3f222b68	0.6334748
11	0xb6b5515b	-5.4036914e-06
12	0x36de52d3	6.6257576e-06
13	0xb5e089e4	-1.6729432e-06
14	0x3f2225c3	0.6333887
15	0x3f222a56	0.6334585
16	0x37d99134	2.5936031e-05
17	0xb7f21975	-2.8860502e-05
18	0x3f222f24	0.6335318
19	0x382e51e8	4.1561114e-05

fc4.weight f4 [1, 20]
0	0xbf27a61a	-0.65487826
1	0xbf27a12e	-0.65480316
2	0xbf27a27d	-0.6548231
3	0xbf27a7f6	-0.65490663
4	0xbf27a695	-0.6548856
5	0xbf27a273	-0.6548225
6	0x3f831302	1.0240176
7	0x3f831073	1.0239395
8	0xbf27a0ff	-0.65480036
9	0xbf27a277	-0.65482277
10	0x3f8310d5	1.0239512
11	0xbf27a3a1	-0.6548405
12	0x3f278fea	0.6545397
13	0xbf27a0e1	-0.65479857
14	0x3f8311cb	1.0239805
15	0x3f83104a	1.0239346
16	0xbf27a336	-0.65483415
17	0xbf27a1f1	-0.6548148
18	0x3f831054	1.0239358
19	0xbf27a0fc	-0.6548002

bn1.weight f4 [200]
0	0x39a0c881	0.00030666965
1	0x39a0c881	0.00030666965
2	0x3f84b314	1.036715
3	0x3f83ce28	1.0297289
4	0x3f83e382	1.0303805
5	0x39a0c881	0.00030666965
6	0x39a0c881	0.00030666965
7	0x39a0c881	0.00030666965
8	0x3f83a7e6	1.0285614
9	0x3f83f380	1.0308685
10	0x39a0c881	0.00030666965
11	0x39a0c881	0.00030666965
12	0x3f842243	1.0322956
13	0x3f845140	1.0337296
14	0x39a0c881	0.00030666965
15	0x39a0c881	0.00030666965
16	0x3f84a771	1.0363599
17	0x39a0c881	0.00030666965
18	0x3f83f4e2	1.0309107
19	0x3f84b7d8	1.0368605
20	0x3f8478f1	1.0349408
21	0x3f8460bd	1.0342022
22	0x39a0c881	0.00030666965
23	0x3f85af80	1.0444183
24	0x39a0c881	0.00030666965
25	0x3f853cac	1.040914
26	0x3f84cb49	1.0374538
27	0x3f83bcbd	1.0291973
28	0x3f850e4b	1.0394987
29	0x3f8457cf	1.0339297
30	0x3f84723e	1.0347364
31	0x3f8455d0	1.0338688
32	0x39a0c881	0.00030666965
33	0x39a0c881	0.00030666965
34	0x3f845190	1.0337391
35	0x3f852ea3	1.0404857
36	0x3f8428e6	1.0324981
37	0x3f8542b8	1.0410986
38	0x3f848e1d	1.035587
39	0x39a0c881	0.00030666965
40	0x39a0c881	0.00030666965
41	0x39a0c881	0.00030666965
42	0x39a0c881	0.00030666965
43	0x3f843d5b	1.0331224
44	0x39a0c881	0.00030666965
45	0x3ed234a4	0.41055787
46	0x39a0c881	0.00030666965
47	0x39a0c881	0.00030666965
48	0x3ed23d30	0.41062307
49	0x3f8475f1	1.0348493
50	0x3f84138f	1.0318469
51	0x3f83e3cb	1.0303892
52	0x3f83bab6	1.0291355
53	0x39a0c881	0.00030666965
54	0x39a0c881	0.00030666965
55	0xbed1bdf6	-0.4096524
56	0x3f83bc39	1.0291816
57	0x3ed22eb0	0.41051245
58	0x39a0c881	0.00030666965
59	0x3f844a5f	1.0335196
60	0x3f8432b0	1.0327969
61	0x39a0c881	0.00030666965
62	0x3f840b01	1.0315858
63	0x39a0c881	0.00030666965
64	0x39a0c881	0.00030666965
65	0x3f84685f	1.0344352
66	0x39a0c881	0.00030666965
67	0x39a0c881	0.00030666965
68	0x3f83a70a	1.0285351
69	0x3f8470f1	1.0346967
70	0x39a0c881	0.00030666965
71	0x39a0c881	0.00030666965
72	0x3f844a74	1.0335221
73	0x39a0c881	0.00030666965
74	0x3ed24015	0.41064516
75	0x39a0c881	0.00030666965
76	0x3f852308	1.0401316
77	0x3ed23f50	0.4106393
78	0x39a0c881	0.00030666965
79	0x39a0c881	0.00030666965
80	0x39a0c881	0.00030666965
81	0x3f84cadc	1.0374408
82	0x3f851b70	1.0398998
83	0x39a0c881	0.00030666965
84	0x39a0c881	0.00030666965
85	0x39a0c881	0.00030666965
86	0x39a0c881	0.00030666965
87	0x3f838c82	1.0277255
88	0x3f858ab1	1.043295
89	0x39a0c881	0.00030666965
90	0x3f8439c6	1.0330131
91	0x39a0c881	0.00030666965
92	0x39a0c881	0.00030666965
93	0x39a0c881	0.00030666965
94	0x3f83f404	1.0308843
95	0x39a0c881	0.00030666965
96	0x3f8398c0	1.0280991
97	0x3f858a95	1.0432917
98	0x39a0c881	0.00030666965
99	0x3f83e6e0	1.0304832
100	0x3ed24df9	0.41075113
101	0x3f83ee48	1.0307093
102	0x39a0c881	0.00030666965
103	0x39a0c881	0.00030666965
104	0x3f851a7c	1.0398707
105	0x3f8422ae	1.0323083
106	0x39a0c881	0.00030666965
107	0x39a0c881	0.00030666965
108	0x39a0c881	0.00030666965
109	0x39a0c881	0.00030666965
110	0x39a0c881	0.00030666965
111	0x39a0c881	0.00030666965
112	0x3f83baff	1.0291442
113	0x39a0c881	0.00030666965
114	0x3f83dd49	1.0301906
115	0x39a0c881	0.00030666965
116	0x3f8469a7	1.0344743
117	0x3ed235f5	0.4105679
118	0x39a0c881	0.00030666965
119	0x3f83b991	1.0291005
120	0x39a0c881	0.00030666965
121	0x39a0c881	0.00030666965
122	0x39a0c881	0.00030666965
123	0x39a0c881	0.00030666965
124	0x3f844aca	1.0335324
125	0x39a0c881	0.00030666965
126	0x3f849ca9	1.0360309
127	0x39a0c881	0.00030666965
128	0x3f84eea9	1.0385333
129	0x3f84c2e7	1.037198
130	0x39a0c881	0.00030666965
131	0x3f8490d1	1.0356694
132	0x3f83cdb2	1.0297148
133	0x39a0c881	0.00030666965
134	0x3f8394fc	1.0279841
135	0x39a0c881	0.00030666965
136	0x39a0c881	0.00030666965
137	0x3f83fe29	1.0311939
138	0x3ed24112	0.4106527
139	0x3f848dd0	1.0355778
140	0x3f8462a3	1.0342602
141	0x39a0c881	0.00030666965
142	0x3f8399e7	1.0281342
143	0x3f83f37f	1.0308684
144	0x39a0c881	0.00030666965
145	0x39a0c881	0.00030666965
146	0x3f83ca7d	1.029617
147	0x3f84666e	1.0343759
148	0x3f848ff2	1.0356429
149	0x39a0c881	0.00030666965
150	0x39a0c881	0.00030666965
151	0x3f856880	1.0422516
152	0x39a0c881	0.00030666965
153	0x39a0c881	0.00030666965
154	0x39a0c881	0.00030666965
155	0x3ed2284e	0.41046375
156	0x39a0c881	0.00030666965
157	0x39a0c881	0.00030666965
158	0x39a0c881	0.00030666965
159	0x39a0c881	0.00030666965
160	0x3ed2289e	0.41046613
161	0x3f83dc78	1.0301657
162	0x3f83c19e	1.0293462
163	0x39a0c881	0.00030666965
164	0x3f84f301	1.0386659
165	0x39a0c881	0.00030666965
166	0x39a0c881	0.00030666965
167	0x3f840d68	1.0316591
168	0x39a0c881	0.00030666965
169	0x3f8438f0	1.0329876
170	0x3ed23a94	0.41060317
171	0x3ed22b0e	0.41048473
172	0x3f838c22	1.027714
173	0x3f8423d6	1.0323436
174	0xbed1d6a4	-0.4098407
175	0x39a0c881	0.00030666965
176	0x3ed22042	0.41040236
177	0x39a0c881	0.00030666965
178	0x39a0c881	0.00030666965
179	0x3f848e8e	1.0356004
180	0x39a0c881	0.00030666965
181	0x39a0c881	0.00030666965
182	0x3f83e696	1.0304744
183	0x39a0c881	0.00030666965
184	0x39a0c881	0.00030666965
185	0x39a0c881	0.00030666965
186	0x3f84ce52	1.0375464
187	0x39a0c881	0.00030666965
188	0x3ed2316d	0.41053334
189	0x3ed232bf	0.4105434
190	0x3f839a23	1.0281414
191	0x3f83d285	1.029862
192	0x3f83ebbb	1.0306314
193	0x3f851c94	1.0399346
194	0x39a0c881	0.00030666965
195	0x39a0c881	0.00030666965
196	0x39a0c881	0.00030666965
197	0x39a0c881	0.00030666965
198	0x39a0c881	0.00030666965
199	0x3f8522a7	1.04012

bn1.bias f4 [200]
0	0x3ed218e9	0.4103463
1	0xbed21772	-0.41033512
2	0x3ef83d0e	0.4848408
3	0x3ef83bc1	0.4848309
4	0x3ef83a2e	0.48481888
5	0x3ed21b0f	0.4103627
6	0xbed2083c	-0.41021907
7	0x3ed218ce	0.4103455
8	0x3ef8398e	0.4848141
9	0x3ef83a1d	0.48481837
10	0x3ed211c9	0.41029194
11	0xbed214b0	-0.41031408
12	0x3ef83b21	0.48482612
13	0x3ef83ba2	0.48482996
14	0xbed21770	-0.41033506
15	0x3ed21841	0.4103413
16	0x3ef83ce5	0.4848396
17	0xbed2107f	-0.4102821
18	0x3ef83b31	0.4848266
19	0x3ef84023	0.48486432
20	0x3ef83fa0	0.48486042
21	0x3ef83cc5	0.48483863
22	0x3ed206c2	0.4102078
23	0x3ef84321	0.48488715
24	0x3ed215ae	0.41032165
25	0x3ef84252	0.48488098
26	0x3ef83fd7	0.48486206
27	0x3ef833a9	0.48476914
28	0x3ef83da4	0.48484528
29	0x3ef83e7c	0.48485172
30	0x3ef83ef1	0.4848552
31	0x3ef8369e	0.4847917
32	0x3ed215ad	0.41032162
33	0xbed21649	-0.41032627
34	0x3ef83d26	0.48484153
35	0x3ef83c3d	0.48483458
36	0x3ef838ba	0.4848078
37	0x3ef84334	0.48488772
38	0x3ef837ff	0.48480222
39	0x3ed20802	0.41021734
40	0x3ed21409	0.4103091
41	0x3ed20bb7	0.41024563
42	0xbed20bd1	-0.4102464
43	0x3ef83fdd	0.48486224
44	0x3ed2149a	0.41031343
45	0xbed21028	-0.4102795
46	0x3ed218b9	0.41034487
47	0x3ed2195f	0.41034982
48	0xbed21808	-0.4103396
49	0x3ef83e36	0.48484963
50	0x3ef83d2d	0.48484173
51	0x3ef839a0	0.48481464
52	0x3ef83424	0.4847728
53	0xbed213d2	-0.41030747
54	0xbed21577	-0.41032
55	0x3ed202b9	0.41017702
56	0x3ef83328	0.4847653
57	0xbed2087d	-0.410221
58	0xbed21783	-0.41033563
59	0x3ef83866	0.4848053
60	0x3ef83c9b	0.48483738
61	0x3ed21a54	0.41035712
62	0x3ef83afa	0.48482496
63	0xbed21947	-0.4103491
64	0x3ed2093b	0.41022667
65	0x3ef83773	0.48479804
66	0xbed21439	-0.41031054
67	0x3ed21765	0.41033474
68	0x3ef83b2a	0.4848264
69	0x3ef83cdd	0.48483935
70	0xbed212f7	-0.41030094
71	0xbed217ca	-0.41033775
72	0x3ef83fe1	0.48486236
73	0x3ed2180a	0.41033965
74	0xbed21cf8	-0.41037726
75	0x3ed1f7cd	0.4100937
76	0x3ef84116	0.48487157
77	0xbed21abe	-0.41036028
78	0xbed2082e	-0.41021866
79	0xbed2157d	-0.4103202
80	0xbed215d8	-0.4103229
81	0x3ef84113	0.48487148
82	0x3ef83f89	0.48485973
83	0xbed20ca0	-0.41025257
84	0x3ed21286	0.41029757
85	0xbed217b2	-0.41033703
86	0xbed2180f	-0.4103398
87	0x3ef83422	0.48477274
88	0x3ef84246	0.48488063
89	0xbed21667	-0.41032717
90	0x3ef836b7	0.48479244
91	0xbed20632	-0.41020352
92	0x3ed204c0	0.4101925
93	0xbed215bb	-0.41032204
94	0x3ef83b64	0.4848281
95	0x3ed214ae	0.41031402
96	0x3ef83b50	0.48482752
97	0x3ef83f1a	0.48485643
98	0x3ed212b5	0.41029897
99	0x3ef83896	0.48480672
100	0xbed22602	-0.41044623
101	0x3ef83970	0.4848132
102	0xbed21205	-0.41029373
103	0x3ed212e7	0.41030046
104	0x3ef840a4	0.48486817
105	0x3ef838bc	0.48480785
106	0x3ed2150c	0.41031682
107	0x3ed20d0f	0.41025588
108	0xbed20bf4	-0.41024745
109	0x3ed21639	0.4103258
110	0xbed21221	-0.41029456
111	0xbed20f31	-0.41027215
112	0x3ef835e9	0.4847863
113	0x3ed2174b	0.41033396
114	0x3ef8336e	0.48476738
115	0x3ed218bf	0.41034505
116	0x3ef83dfb	0.48484787
117	0xbed212a0	-0.41029835
118	0x3ed20cbc	0.4102534
119	0x3ef83a92	0.48482186
120	0xbed217a4	-0.4103366
121	0xbed2109b	-0.41028294
122	0x3ed2163b	0.41032586
123	0x3ed20651	0.41020444
124	0x3ef83e90	0.4848523
125	0x3ed20da5	0.41026035
126	0x3ef83c7b	0.48483643
127	0xbed20862	-0.4102202
128	0x3ef83c8d	0.48483697
129	0x3ef83f7d	0.48485938
130	0xbed20831	-0.41021875
131	0x3ef839b2	0.48481518
132	0x3ef833e3	0.48477086
133	0xbed2113f	-0.41028783
134	0x3ef832c6	0.48476237
135	0xbed21950	-0.41034937
136	0x3ed20cbc	0.4102534
137	0x3ef83f41	0.4848576
138	0xbed218b8	-0.41034484
139	0x3ef83a75	0.484821
140	0x3ef83dbd	0.48484603
141	0xbed214af	-0.41031405
142	0x3ef83a33	0.48481902
143	0x3ef83deb	0.4848474
144	0x3ed215cc	0.41032255
145	0xbed2180c	-0.4103397
146	0x3ef837db	0.48480114
147	0x3ef83946	0.48481196
148	0x3ef83a21	0.4848185
149	0x3ed20924	0.410226
150	0xbed210fb	-0.4102858
151	0x3ef84458	0.48489642
152	0xbed2064d	-0.41020432
153	0xbed21982	-0.41035086
154	0x3ed20fa5	0.4102756
155	0xbed1fabc	-0.41011608
156	0xbed2188d	-0.41034356
157	0x3ed204c3	0.41019258
158	0x3ed209e5	0.41023174
159	0xbed208a7	-0.41022226
160	0xbed1fc8b	-0.41012987
161	0x3ef838a5	0.48480716
162	0x3ef837a3	0.48479947
163	0xbed21877	-0.4103429
164	0x3ef838bb	0.48480782
165	0x3ed21369	0.41030434
166	0xbed21492	-0.4103132
167	0x3ef83659	0.48478964
168	0xbed21882	-0.41034323
169	0x3ef836ae	0.48479217
170	0xbed21990	-0.41035128
171	0xbed201fa	-0.41017133
172	0x3ef83919	0.48481062
173	0x3ef835e6	0.4847862
174	0x3ed203a9	0.41018417
175	0xbed2194b	-0.41034922
176	0xbed1f713	-0.41008815
177	0xbed20858	-0.4102199
178	0xbed218bf	-0.41034505
179	0x3ef8400a	0.48486358
180	0xbed2139b	-0.41030583
181	0xbed20da9	-0.41026047
182	0x3ef8384b	0.48480448
183	0xbed205fe	-0.41020197
184	0xbed218a3	-0.4103442
185	0x3ed208a8	0.4102223
186	0x3ef83f7a	0.4848593
187	0xbed20db2	-0.41026074
188	0xbed20b59	-0.41024283
189	0xbed20df6	-0.41026276
190	0x3ef833fe	0.48477167
191	0x3ef83678	0.48479056
192	0x3ef83b8e	0.48482937
193	0x3ef83d3c	0.48484218
194	0xbed2071d	-0.41021052
195	0x3ed21607	0.4103243
196	0x3ed217bf	0.41033742
197	0x3ed214c3	0.41031465
198	0x3ed2187d	0.41034308
199	0x3ef84267	0.4848816

bn1.running_mean f4 [200]
0	0x00000000	0.0
1	0x00000000	0.0
2	0x45ea32c6	7494.3467
3	0x450dd1a9	2269.1038
4	0x452e56bd	2789.4211
5	0x00000000	0.0
6	0x00000000	0.0
7	0x00000000	0.0
8	0x44af660c	1403.189
9	0x453fc069	3068.0256
10	0x00000000	0.0
11	0x00000000	0.0
12	0x45836117	4204.136
13	0x45a6750d	5326.6313
14	0x00000000	0.0
15	0x00000000	0.0
16	0x45e4aaa9	7317.3325
17	0x00000000	0.0
18	0x4544bb04	3147.6885
19	0x45ed641d	7596.514
20	0x45c2bcd2	6231.6025
21	0x45b00b4f	5633.4136
22	0x00000000	0.0
23	0x464da39e	13160.904
24	0x00000000	0.0
25	0x46261914	10630.27
26	0x45fc94a9	8082.5825
27	0x44ee3123	1905.5355
28	0x461586b2	9569.674
29	0x45abff3f	5503.906
30	0x45bd8232	6064.2744
31	0x45aae8c8	5469.0977
32	0x00000000	0.0
33	0x00000000	0.0
34	0x45a5a860	5301.047
35	0x462024d4	10249.207
36	0x458902fc	4384.373
37	0x46284ad2	10770.705
38	0x45cd2cfe	6565.624
39	0x00000000	0.0
40	0x00000000	0.0
41	0x00000000	0.0
42	0x00000000	0.0
43	0x459670d7	4814.105
44	0x00000000	0.0
45	0x43702fb6	240.18637
46	0x00000000	0.0
47	0x00000000	0.0
48	0x440bbd65	558.9593
49	0x45bfa411	6132.5083
50	0x45708a52	3848.645
51	0x452ec75f	2796.4607
52	0x44eebdb7	1909.9286
53	0x00000000	0.0
54	0x00000000	0.0
55	0x398914ae	0.00026146084
56	0x44efbec4	1917.9614
57	0x43443205	196.19539
58	0x00000000	0.0
59	0x45a070a3	5134.0796
60	0x459141ac	4648.209
61	0x00000000	0.0
62	0x45697fe9	3735.9944
63	0x00000000	0.0
64	0x00000000	0.0
65	0x45b3959f	5746.7026
66	0x00000000	0.0
67	0x00000000	0.0
68	0x44ad6bb7	1387.3661
69	0x45ba9a3e	5971.2803
70	0x00000000	0.0
71	0x00000000	0.0
72	0x45a040c0	5128.0938
73	0x00000000	0.0
74	0x425f7894	55.867752
75	0x00000000	0.0
76	0x461cd719	10037.774
77	0x3de7106a	0.112824276
78	0x00000000	0.0
79	0x00000000	0.0
80	0x00000000	0.0
81	0x45fd5fbb	8107.9663
82	0x461ab601	9901.501
83	0x00000000	0.0
84	0x00000000	0.0
85	0x00000000	0.0
86	0x00000000	0.0
87	0x44473582	796.83606
88	0x46416056	12376.084
89	0x00000000	0.0
90	0x45934007	4712.0034
91	0x00000000	0.0
92	0x00000000	0.0
93	0x00000000	0.0
94	0x4540aaf8	3082.6855
95	0x00000000	0.0
96	0x4482deb0	1046.959
97	0x46413fe5	12367.974
98	0x00000000	0.0
99	0x4532f70f	2863.4412
100	0x4549b600	3227.375
101	0x453afe4a	2991.893
102	0x00000000	0.0
103	0x00000000	0.0
104	0x461a4057	9872.085
105	0x4582e89b	4189.0757
106	0x00000000	0.0
107	0x00000000	0.0
108	0x00000000	0.0
109	0x00000000	0.0
110	0x00000000	0.0
111	0x00000000	0.0
112	0x44ec0b40	1888.3516
113	0x00000000	0.0
114	0x45277252	2679.145
115	0x00000000	0.0
116	0x45b55d2d	5803.647
117	0x3fd5e279	1.6709739
118	0x00000000	0.0
119	0x44e91f50	1864.9785
120	0x00000000	0.0
121	0x00000000	0.0
122	0x00000000	0.0
123	0x00000000	0.0
124	0x45a09b65	5139.4243
125	0x00000000	0.0
126	0x45db70ce	7022.1006
127	0x00000000	0.0
128	0x460baf21	8939.782
129	0x45f735db	7910.732
130	0x00000000	0.0
131	0x45d1f3bb	6718.4663
132	0x450b1202	2225.1255
133	0x00000000	0.0
134	0x447993b8	998.3081
135	0x00000000	0.0
136	0x00000000	0.0
137	0x45577f7f	3447.9685
138	0x42a8f3b2	84.47597
139	0x45cf02e4	6624.3613
140	0x45b0f79c	5662.951
141	0x00000000	0.0
142	0x4486dd49	1078.9152
143	0x45416db0	3094.8555
144	0x00000000	0.0
145	0x00000000	0.0
146	0x45045262	2117.149
147	0x45b2e33d	5724.405
148	0x45d1cab6	6713.339
149	0x00000000	0.0
150	0x00000000	0.0
151	0x46356a87	11610.632
152	0x00000000	0.0
153	0x00000000	0.0
154	0x00000000	0.0
155	0x4444c714	787.1106
156	0x00000000	0.0
157	0x00000000	0.0
158	0x00000000	0.0
159	0x00000000	0.0
160	0x43842811	264.31302
161	0x4525884a	2648.518
162	0x44fda413	2029.1273
163	0x00000000	0.0
164	0x460cf06f	9020.108
165	0x00000000	0.0
166	0x00000000	0.0
167	0x456d7bfa	3799.7485
168	0x00000000	0.0
169	0x4593cef7	4729.8706
170	0x44c3d443	1566.6332
171	0x421db99e	39.431267
172	0x4435e9cc	727.6531
173	0x458740f4	4328.119
174	0x3fd53e20	1.6659584
175	0x00000000	0.0
176	0x4333502a	179.31314
177	0x00000000	0.0
178	0x00000000	0.0
179	0x45cf7fbf	6639.9683
180	0x00000000	0.0
181	0x00000000	0.0
182	0x45327f5b	2855.9597
183	0x00000000	0.0
184	0x00000000	0.0
185	0x00000000	0.0
186	0x45ff71ae	8174.21
187	0x00000000	0.0
188	0x43054fa3	133.31108
189	0x4352fa6d	210.97823
190	0x44887d06	1091.907
191	0x4511c71b	2332.444
192	0x4537fffe	2943.9995
193	0x461b66ad	9945.669
194	0x00000000	0.0
195	0x00000000	0.0
196	0x00000000	0.0
197	0x00000000	0.0
198	0x00000000	0.0
199	0x461c7c55	10015.083

bn1.running_var f4 [200]
0	0x3f27f62b	0.6561
1	0x3f27f62b	0.6561
2	0x4d27912a	1.7570678e+08
3	0x4b699de7	1.5310311e+07
4	0x4bdefbe7	2.9226958e+07
5	0x3f27f62b	0.6561
6	0x3f27f62b	0.6561
7	0x3f27f62b	0.6561
8	0x4b02f255	8.581717e+06
9	0x4c0526c8	3.4904864e+07
10	0x3f27f62b	0.6561
11	0x3f27f62b	0.6561
12	0x4c4ac1ea	5.3151656e+07
13	0x4cae3d1a	9.135125e+07
14	0x3f27f62b	0.6561
15	0x3f27f62b	0.6561
16	0x4d1d5505	1.6497467e+08
17	0x3f27f62b	0.6561
18	0x4c087abf	3.5777276e+07
19	0x4d29d1f0	1.7806925e+08
20	0x4ce622a4	1.2065718e+08
21	0x4ccb9d4a	1.0675259e+08
22	0x3f27f62b	0.6561
23	0x4dfe82de	5.3374867e+08
24	0x3f27f62b	0.6561
25	0x4da70033	3.5022602e+08
26	0x4d43711a	2.0493558e+08
27	0x4b705bb8	1.575212e+07
28	0x4d864804	2.8160832e+08
29	0x4cc04ddc	1.0082275e+08
30	0x4cd8e549	1.13715784e+08
31	0x4cbc92c7	9.8866744e+07
32	0x3f27f62b	0.6561
33	0x3f27f62b	0.6561
34	0x4cb01a3d	9.2328424e+07
35	0x4d9bb14e	3.2651104e+08
36	0x4c5ea3ee	5.836383e+07
37	0x4daa8208	3.5758106e+08
38	0x4d04cf5f	1.3926142e+08
39	0x3f27f62b	0.6561
40	0x3f27f62b	0.6561
41	0x3f27f62b	0.6561
42	0x3f27f62b	0.6561
43	0x4c84eaac	6.968662e+07
44	0x3f27f62b	0.6561
45	0x4942f074	798471.25
46	0x3f27f62b	0.6561
47	0x3f27f62b	0.6561
48	0x4a3954d0	3.036468e+06
49	0x4ce3cbc1	1.19430664e+08
50	0x4c46279f	5.1945084e+07
51	0x4be1b734	2.9585e+07
52	0x4b6f477c	1.5681404e+07
53	0x3f27f62b	0.6561
54	0x3f27f62b	0.6561
55	0x3f27fe25	0.6562217
56	0x4b7754f8	1.6209144e+07
57	0x491c5d90	640473.0
58	0x3f27f62b	0.6561
59	0x4c9a7275	8.097476e+07
60	0x4c831199	6.871777e+07
61	0x3f27f62b	0.6561
62	0x4c363a96	4.77702e+07
63	0x3f27f62b	0.6561
64	0x3f27f62b	0.6561
65	0x4cd0cfb7	1.09477304e+08
66	0x3f27f62b	0.6561
67	0x3f27f62b	0.6561
68	0x4aef51fb	7.8420455e+06
69	0x4cd68f39	1.1249095e+08
70	0x3f27f62b	0.6561
71	0x3f27f62b	0.6561
72	0x4c95a625	7.8459176e+07
73	0x3f27f62b	0.6561
74	0x46fd6f8f	32439.78
75	0x3f27f62b	0.6561
76	0x4d991cc9	3.2110006e+08
77	0x42356dab	45.357098
78	0x3f27f62b	0.6561
79	0x3f27f62b	0.6561
80	0x3f27f62b	0.6561
81	0x4d42e298	2.0435187e+08
82	0x4d8e4049	2.983222e+08
83	0x3f27f62b	0.6561
84	0x3f27f62b	0.6561
85	0x3f27f62b	0.6561
86	0x3f27f62b	0.6561
87	0x4a196254	2.513045e+06
88	0x4de15131	4.7252432e+08
89	0x3f27f62b	0.6561
90	0x4c8f4304	7.511043e+07
91	0x3f27f62b	0.6561
92	0x3f27f62b	0.6561
93	0x3f27f62b	0.6561
94	0x4bfa6bc5	3.2823178e+07
95	0x3f27f62b	0.6561
96	0x4a78658a	4.0697305e+06
97	0x4de44208	4.786916e+08
98	0x3f27f62b	0.6561
99	0x4bca39f8	2.6506224e+07
100	0x4c13cf5c	3.8747504e+07
101	0x4bfe053d	3.329497e+07
102	0x3f27f62b	0.6561
103	0x3f27f62b	0.6561
104	0x4d922e47	3.065633e+08
105	0x4c5ecf8e	5.8408504e+07
106	0x3f27f62b	0.6561
107	0x3f27f62b	0.6561
108	0x3f27f62b	0.6561
109	0x3f27f62b	0.6561
110	0x3f27f62b	0.6561
111	0x3f27f62b	0.6561
112	0x4b371a93	1.1999891e+07
113	0x3f27f62b	0.6561
114	0x4bd44ddc	2.7827128e+07
115	0x3f27f62b	0.6561
116	0x4cc1f7b9	1.0169492e+08
117	0x450ec960	2284.586
118	0x3f27f62b	0.6561
119	0x4b34e07b	1.1853947e+07
120	0x3f27f62b	0.6561
121	0x3f27f62b	0.6561
122	0x3f27f62b	0.6561
123	0x3f27f62b	0.6561
124	0x4ca11339	8.4449736e+07
125	0x3f27f62b	0.6561
126	0x4d17a1de	1.5899798e+08
127	0x3f27f62b	0.6561
128	0x4d6d59c9	2.4888027e+08
129	0x4d3c1002	1.9719786e+08
130	0x3f27f62b	0.6561
131	0x4d034b68	1.3767232e+08
132	0x4b98953f	1.9999358e+07
133	0x3f27f62b	0.6561
134	0x4ab27e77	5.8488915e+06
135	0x3f27f62b	0.6561
136	0x3f27f62b	0.6561
137	0x4c0df060	3.720845e+07
138	0x479c61c2	80067.516
139	0x4d00796f	1.3471512e+08
140	0x4cc93fb8	1.0551238e+08
141	0x3f27f62b	0.6561
142	0x4a954176	4.890811e+06
143	0x4bf3a2f9	3.1933938e+07
144	0x3f27f62b	0.6561
145	0x3f27f62b	0.6561
146	0x4b88ff22	1.795642e+07
147	0x4ccf8f3c	1.0882096e+08
148	0x4d02ef61	1.3729538e+08
149	0x3f27f62b	0.6561
150	0x3f27f62b	0.6561
151	0x4dc4b351	4.1251075e+08
152	0x3f27f62b	0.6561
153	0x3f27f62b	0.6561
154	0x3f27f62b	0.6561
155	0x4a8df0df	4.6511195e+06
156	0x3f27f62b	0.6561
157	0x3f27f62b	0.6561
158	0x3f27f62b	0.6561
159	0x3f27f62b	0.6561
160	0x49912e45	1.1893206e+06
161	0x4bca48e3	2.6513862e+07
162	0x4b77b75c	1.6234332e+07
163	0x3f27f62b	0.6561
164	0x4d73438c	2.5508064e+08
165	0x3f27f62b	0.6561
166	0x3f27f62b	0.6561
167	0x4c3b85ae	4.9157816e+07
168	0x3f27f62b	0.6561
169	0x4c8c4ec6	7.356165e+07
170	0x4b4b47e9	1.3322217e+07
171	0x47069d2f	34461.184
172	0x4a07cda8	2.225002e+06
173	0x4c7231bc	6.3489776e+07
174	0x44d2d605	1686.6881
175	0x3f27f62b	0.6561
176	0x4905b303	547632.2
177	0x3f27f62b	0.6561
178	0x3f27f62b	0.6561
179	0x4d022fac	1.3651014e+08
180	0x3f27f62b	0.6561
181	0x3f27f62b	0.6561
182	0x4bc4eb28	2.5810512e+07
183	0x3f27f62b	0.6561
184	0x3f27f62b	0.6561
185	0x3f27f62b	0.6561
186	0x4d47b0e1	2.0939112e+08
187	0x3f27f62b	0.6561
188	0x4857bd5a	220917.4
189	0x49168cab	616650.7
190	0x4aa01587	5.2456355e+06
191	0x4b858cc4	1.7504648e+07
192	0x4be62a4b	3.0168214e+07
193	0x4d927d14	3.0720883e+08
194	0x3f27f62b	0.6561
195	0x3f27f62b	0.6561
196	0x3f27f62b	0.6561
197	0x3f27f62b	0.6561
198	0x3f27f62b	0.6561
199	0x4d925b3f	3.0693168e+08

bn2.weight f4 [20]
0	0x3f8322b4	1.0244966
1	0x3f0a0a6d	0.5392216
2	0x3f8323f8	1.0245352
3	0x3f0a07cc	0.5391815
4	0x3f832333	1.0245117
5	0x3f8323f1	1.0245343
6	0x3f832215	1.0244776
7	0x3f0a082f	0.5391874
8	0x3f0a05af	0.5391492
9	0x3f0a0c24	0.53924775
10	0xbf09ce2c	-0.5383022
11	0x39861368	0.0002557293
12	0xbf09dad0	-0.53849506
13	0x3f0a084f	0.5391893
14	0x3f0a08dd	0.53919774
15	0x3f0a0870	0.53919125
16	0x3f0a0a53	0.53922004
17	0x3f832366	1.0245178
18	0x3f8321b0	1.0244656
19	0x3f0a0986	0.5392078

bn2.bias f4 [20]
0	0x3f157ae6	0.58390653
1	0xbf09f7e0	-0.5389385
2	0x3f157d99	0.5839477
3	0xbf09f686	-0.5389179
4	0x3f157da3	0.5839483
5	0x3f157d94	0.5839474
6	0x3f157d98	0.58394766
7	0xbf09f81f	-0.5389423
8	0xbf09f4f0	-0.5388937
9	0xbf09f897	-0.53894943
10	0x3f09e90e	0.5387124
11	0x3837a34d	4.3782686e-05
12	0x3f09f437	0.5388827
13	0xbf09f712	-0.53892624
14	0xbf09f3ac	-0.5388744
15	0xbf09f747	-0.5389294
16	0xbf09f830	-0.5389433
17	0x3f157d70	0.5839453
18	0x3f157e91	0.5839625
19	0xbf09f639	-0.5389133

bn2.running_mean f4 [20]
0	0x3e697613	0.22798948
1	0x3e2bc57f	0.16774558
2	0x3e24afd3	0.16082697
3	0x3e19d77c	0.15023607
4	0x3e191781	0.14950372
5	0x3e24c3f5	0.16090377
6	0x3ddd09d3	0.107928894
7	0x3de5b488	0.11216074
8	0x3dd37677	0.1032533
9	0x3e681271	0.22663285
10	0x3e3d12dc	0.18464226
11	0x3e3cbd95	0.18431695
12	0x3df27311	0.118383534
13	0x3e30ca78	0.17264736
14	0x3e450998	0.19241941
15	0x3e1986b9	0.14992799
16	0x3e2a4f23	0.16631751
17	0x3e39469f	0.18093346
18	0x3e3aba66	0.18235168
19	0x3e549ed2	0.2076371

bn2.running_var f4 [20]
0	0x3fae7f99	1.363269
1	0x3f3b2f9a	0.7311951
2	0x3f8900e3	1.0703396
3	0x3f3916f4	0.7230065
4	0x3f7e517e	0.993431
5	0x3f863065	1.0483519
6	0x3f50ef1e	0.81614864
7	0x3f32f235	0.6990083
8	0x3f310791	0.6915217
9	0x3f4b6991	0.79457957
10	0x3f8fea70	1.124342
11	0x3f945a11	1.1589986
12	0x3f3389a2	0.70131886
13	0x3f3bc7fa	0.73352015
14	0x3f41c7d1	0.7569552
15	0x3f397a36	0.72452104
16	0x3f3e3f4c	0.74315333
17	0x3f9352c2	1.1509631
18	0x3f945386	1.1587989
19	0x3f455b03	0.77092
