Results/NN_MLP_MLs/MLP_Ensemble/Model_Results/MGT/test10_ensemblesize10/best_model_4.pt (torch, 83357 bytes, 20 tensors)

country_embedding.weight f4 [8, 2]
00000000: b83d b141 402f d541 ba17 0842 9773 9841
00000010: 6d37 2640 f8a0 1f3f 070c d840 4584 6941
00000020: 71d6 6941 bab1 9841 e3bb d4c0 816d 7540
00000030: b10f 2041 68a5 7b41 76d4 a0c0 1507 02c1
22.155136 26.648071 34.02317 19.05644 2.597133 0.62354994 6.751468 14.594792
14.614854 19.08678 -6.6479354 3.8348086 10.003831 15.727882 -5.025935 -8.126729

fc1.weight f4 [200, 68]
00000000: 3ad3 3b3d 42c1 9dbd 3071 9bbd 3fa5 bbbd
00000010: 76ec f83d 14a8 073e ac9c 71bc 6082 babd
00000020: 9f61 b7bd c9a5 36bd fc58 123d 172b 25bd
00000030: 62c9 4f3d 51de 75bc a74a 44bd f668 843d
00000040: 7cbd a73d a8a7 babc 45c2 1ebe c5de 75bd
00000050: 5f4a 123e 5eb2 283e 804a 943c 0796 9dbd
00000060: e51e 543b feb9 b8bc 5d8c 703d b89c 5a3a
00000070: 48d6 8d3d 8128 9d3c c13d f1bc 90f2 1f3e
00000080: f17e 2b3e 36a3 ab3c 999f dfbd eeb0 45bc
00000090: 3d31 103e 09d7 273e 760f 283c af3b 89bd
000000a0: c796 1d3d 490d e4bb 27bd 823d 766c 1bbc
000000b0: 3e86 993d abaa ac3d 0496 bbbc 04f0 273e
000000c0: ceec 0d3e f21f 293d c9cd 01be b049 a13d
000000d0: f5db cb3d 63f2 2a3e 90f8 8d3c d414 8cbd
000000e0: a61d e33c 72b6 d6bb d591 843d 098d 1dbc
000000f0: a9d9 8c3d 3def 993d 2c69 dcbc b962 273e
00000100: 4e6e 013e 1b93 103d 221b a7bd b436 b9be
00000110: 55a4 48b8 e78a 43b8 352d 5e38 4e7b 34b8
00000120: 0e54 2938 6af2 1f38 c46e 39b8 4966 5838
00000130: 55fb b436 11fe 29b8 1b03 6838 13ae 3438
00000140: 4bc7 1e38 b375 5838 f218 1fb8 0a6a 2838
00000150: ee49 3138 83ea 6638 7ef3 6338 bfea 48b8
00000160: 7ba1 2e38 4460 4c38 efc6 6bb8 7a90 3538
00000170: 3257 a3b5 9f8b 4eb8 9f65 5538 a4fa 4538
00000180: 4311 2638 5546 4138 e27a 41b8 26ca 5d38
00000190: ab5d 4738 d963 3738 9a81 5438 11f8 32b8
000001a0: aba1 4c38 e9f6 2f38 a979 3ab8 6bc8 4a38
000001b0: ec21 b136 09ec 4fb8 1e95 4238 04ba 5938
000001c0: 8be7 3f38 9eba 5938 647b 4bb8 5cc9 6738
000001d0: 98d7 4438 e5d2 3c38 35d2 5238 4e24 47b8
000001e0: 2eb8 6438 1f9c 3f38 35a0 2ab8 f4f1 3a38
000001f0: d0c2 5d35 435a 38b8 0520 2038 a6bc 4c38
00000200: f497 5a38 60b7 5438 842d 44b8 0212 4138
00000210: f58e 5138 0316 5138 8b25 58b8 b5bf 35b8
00000220: e21c 07b7 6a73 c634 c4fc 58b6 a307 84b6
00000230: e2ea ffb6 670b f836 fe89 6835 a99b 2d35
00000240: 7afc bdb5 47dc 82b6 35f5 f3b6 ee6e f035
00000250: d129 f6b6 6609 87b6 b79f 9e36 9103 0437
00000260: 82b5 49b6 d06c 1bb7 ec4c 1a37 ead1 aa36
00000270: cfb8 e336 2036 e6b5 8e0a 02b6 4bd8 7635
00000280: 7874 1a36 2f80 8234 d5c5 a3b6 2aee 0c37
00000290: 055e 9336 6212 64b5 ce66 06b7 2e69 9bb6
000002a0: 9e1c 5cb6 0186 d2b5 7ea9 2e36 40ee d2b5
000002b0: c860 5a36 b2f5 ccb6 e717 0ab6 8d9e 8e36
000002c0: cdf3 1a37 3949 05b7 c037 8335 1ba5 a636
000002d0: 382a 88b5 8308 1336 ac02 c536 46c5 1cb7
000002e0: 04da ba36 270c 0db7 5d7b ea35 d2ff be36
000002f0: 9070 8fb6 974c b633 0477 17b7 827b 1bb5
00000300: 1ed2 b136 5846 9d36 83a8 2836 4f25 4fb5
00000310: 524a 81b6 ee3f 0037 e863 3a36 958d 6036
00000320: 26a6 9936 2262 32b6 3596 40b5 2fe0 1437
00000330: a960 8bbc e810 663f 18d9 0bc0 36b1 1a3f
00000340: 4933 e03e 80eb e73e 5989 1e3f b621 04c0
00000350: 9672 b5c0 a484 82c0 9383 2dbf 7c3b 4cbf
00000360: d852 05c0 0562 09bf ec38 35c0 be6b 0e40
00000370: e9a1 113f 533c 07c0 b8e2 a8bf c33b 7f3f
00000380: aef1 0340 4181 ff3f f377 e93f e3dd f0bf
00000390: 4b49 48c0 8bd9 7fc0 ae49 cc3e d310 ba3f
000003a0: 663d 8dbf aa89 5940 2abf 12c0 1b3b 6440
000003b0: cb4c 4040 bd17 05bf c8d9 75bf 6c2e 8d3f
000003c0: 7c8b 0440 b72e 0b40 241d b03f 2715 92bf
000003d0: 0422 dbbf 0562 25c0 a4bb 9a3e c946 b23f
000003e0: c5db 7fbf c2e4 5b40 a147 02c0 88ee 7d40
000003f0: ece6 2240 51d6 6a3f 14b1 3dbe ab43 983f
0.04585574 -0.077028766 -0.07589948 -0.091623776 0.12154476 0.1324771 -0.014746826 -0.09106898
-0.089541666 -0.0445917 0.035729393 -0.040324297 0.050729163 -0.015006618 -0.047922757 0.06465332
0.08190438 -0.022785023 -0.15503795 -0.060026903 0.14286183 0.16474292 0.01810193 -0.07694631
0.0032367047 -0.022549625 0.05872761 0.0008339393 0.069256365 0.019184353 -0.029448392 0.15619874
0.16747643 0.020951848 -0.10919113 -0.012066109 0.14081283 0.16390623 0.010257592 -0.06700837
0.03847387 -0.0069595915 0.06383734 -0.009486308 0.07496308 0.0843099 -0.022898681 0.16400152
0.13859865 0.04129023 -0.12676157 0.07875383 0.09954063 0.16694026 0.017330438 -0.0683991
0.027724098 -0.006552511 0.06473128 -0.009616145 0.06877453 0.07516334 -0.026905619 0.16346253
0.12639734 0.03529654 -0.08159472 -0.36174548 -4.7836762e-05 -4.6620986e-05 5.2971027e-05 -4.303018e-05
4.0371022e-05 3.813432e-05 -4.4210596e-05 5.1593674e-05 5.393677e-06 -4.0529358e-05 5.5316003e-05 4.3077463e-05
3.785574e-05 5.160803e-05 -3.7931786e-05 4.0153078e-05 4.226894e-05 5.505468e-05 5.4347787e-05 -4.790234e-05
4.1635223e-05 4.8727044e-05 -5.6213637e-05 4.3288317e-05 -1.2169824e-06 -4.924426e-05 5.08778e-05 4.7201887e-05
3.959356e-05 4.6080288e-05 -4.612923e-05 5.287877e-05 4.7532532e-05 4.372359e-05 5.066544e-05 -4.2669537e-05
4.8787955e-05 4.1953204e-05 -4.445916e-05 4.8347207e-05 5.27896e-06 -4.957247e-05 4.639208e-05 5.1910072e-05
4.575359e-05 5.1910632e-05 -4.8513888e-05 5.5262222e-05 4.693083e-05 4.5019104e-05 5.0263672e-05 -4.747911e-05
5.4530967e-05 4.5683348e-05 -4.0680363e-05 4.4571192e-05 8.2612405e-07 -4.395308e-05 3.8176793e-05 4.8813083e-05
5.2116768e-05 5.071552e-05 -4.677243e-05 4.6031557e-05 4.9962622e-05 4.9849983e-05 -5.1533378e-05 -4.3332304e-05
-8.053352e-06 3.696435e-07 -3.2333637e-06 -3.9347956e-06 -7.626936e-06 7.3923034e-06 8.662754e-07 6.467404e-07
-1.4155078e-06 -3.8999456e-06 -7.27051e-06 1.7913678e-06 -7.3362394e-06 -4.0244076e-06 4.72736e-06 7.8686435e-06
-3.0056985e-06 -9.264055e-06 9.197025e-06 5.090832e-06 6.7866417e-06 -1.7152088e-06 -1.9377653e-06 9.195689e-07
2.3015582e-06 2.4307653e-07 -4.8808092e-06 8.400102e-06 4.3918867e-06 -8.496337e-07 -8.0109585e-06 -4.6316045e-06
-3.2799212e-06 -1.568522e-06 2.6026678e-06 -1.5715559e-06 3.2540866e-06 -6.1082765e-06 -2.0577515e-06 4.2503875e-06
9.23588e-06 -7.944466e-06 9.776486e-07 4.9664063e-06 -1.0145077e-06 2.1909661e-06 5.8713686e-06 -9.344256e-06
5.5686123e-06 -8.407084e-06 1.7470262e-06 5.6922227e-06 -4.274836e-06 8.488967e-08 -9.028012e-06 -5.7921727e-07
5.299472e-06 4.6871537e-06 2.5132038e-06 -7.71678e-07 -3.8531516e-06 7.644279e-06 2.7774313e-06 3.3461013e-06
4.5790975e-06 -2.6581188e-06 -7.1744154e-07 8.873684e-06 -0.017013865 0.89869547 -2.1851254 0.6042665
0.43789127 0.4529686 0.61928326 -2.0645576 -5.6702375 -4.0786915 -0.6777889 -0.79778266
-2.0831814 -0.5366519 -2.8315992 2.225326 0.5688768 -2.113057 -1.3194189 0.99700564
2.061626 1.996132 1.8239731 -1.8817714 -3.1294734 -3.9976528 0.39899963 1.4536384
-1.1034362 3.3990273 -2.2929177 3.5661075 3.004687 -0.51989347 -0.9603543 1.1029792
2.0710135 2.1747262 1.3758893 -1.1412705 -1.7119756 -2.5841076 0.30221283 1.3927852
-0.99944717 3.4358373 -2.035622 3.9676838 2.5453444 0.9173327 -0.18524581 1.1895651

fc1.bias f4 [200]
00000000: 1f4a 353d 891c 34b8 1fb6 cab6 db7a 51bd
00000010: b795 eeb4 1a5e b73e 532f 2138 e67e 42b8
00000020: bb70 01b6 26cd 87be 02d9 5338 56f6 b2b8
00000030: 9395 9136 9e33 b2b8 cf4d 32be 11a7 c4b6
00000040: 5b93 2cbe f735 b7b6 8b46 d9bd 2138 0037
00000050: 98a3 2638 08a1 29b8 334a bdbd 29b8 4335
00000060: e8cc 98bc 4e8b 1ab7 8ca5 37b8 737d 373e
00000070: 7c01 ceba 415b 57b8 0f0a f1b6 b83b 6038
00000080: 061c 46b8 5ac1 86be 85d4 153d ff76 86ba
00000090: c6eb c5b5 1d7e 8d3d 1159 bfbe 67a5 61b8
000000a0: 8e21 5738 6cd8 83b8 e008 8335 82b9 60b8
000000b0: a9e3 58b8 1893 4838 75f5 48b8 3719 02b7
000000c0: c9d9 1a37 7877 6f3d 7e9c 533e 4cdf c0bd
000000d0: e862 37b8 d5a8 483d 27ea 52b8 1ff1 5db6
000000e0: 08ce 3cb8 6d31 59bd d664 2b38 cf00 0d3d
000000f0: 88c0 ac36 e558 1c37 1a7b c436 8396 b2be
00000100: b349 af3c 2ca7 4738 b3e6 2aba 2ada 7bb8
00000110: 8eee 5d38 1679 52b8 bbbd 5eb8 f9dc b4be
00000120: d774 1a3d 6092 27b8 24f1 32b8 20d1 6e36
00000130: a3f9 64b8 fc3b bcb5 95b2 3238 0ec2 4436
00000140: dfa8 3e35 82ba 5238 fc06 83b8 af9f 0f37
00000150: 52f3 3838 1057 b9b5 84f2 3a36 d932 18b4
00000160: 3058 7bbd 094c a9bd 7d22 1a37 d3e5 bdbd
00000170: 55f3 a532 5c79 acbd f224 41b8 ac63 26b8
00000180: 7186 fdb6 90d6 c834 e4a1 0fb8 2078 3cb8
00000190: 7852 e03e 9dfc 25b8 e2e9 dcb8 2832 df36
000001a0: 2bed 12b7 67ca b23c fd62 9536 e5b7 5438
000001b0: 2482 07b8 2618 61b8 c0a4 6e36 f446 0bb7
000001c0: a3db 3c36 556e c836 ee82 d8b6 d55f f935
000001d0: 96a8 e636 ca74 233d 9239 9b3c f712 32be
000001e0: 3672 0fb7 0aa5 1237 4441 0cb8 e783 1937
000001f0: 0056 7eb6 3581 b5be 9f24 18b7 026a 69b8
00000200: a62d fe36 eabf c0bd 6667 51bc e629 1ab8
00000210: 8633 53b8 8cd3 5bb8 8c64 92b5 6acb 43bf
00000220: ea48 9836 55b7 4fb8 9b43 25b9 785b b6b6
00000230: 7b51 8bb6 058d 813d 9a41 3fb6 6237 633d
00000240: 1764 3bb8 8b3b 2338 f81c 83ba 0c53 8b3e
00000250: e648 4c38 94c4 4838 51e6 1fb8 1860 f736
00000260: be25 5ab8 2f1e 6d36 b34d 02b7 f7aa cbb6
00000270: 8645 95b6 c88f 2236 dec8 2db8 4186 9db6
00000280: 1c32 ce36 b217 743b 2bde 6638 a937 50b8
00000290: 5dcf 4538 9222 93b5 ca4a 87b9 1824 3ab8
000002a0: f28f c336 cc17 fbbd ba62 24b5 89e5 61b6
000002b0: 0ef3 d9b6 a79d d136 f016 e935 d9c6 65b6
000002c0: 384c 94b6 46a6 633d d5af 5f38 dd34 61be
000002d0: 8594 a936 30ca 32b8 86df 0737 d13c 79b8
000002e0: baaf 62b8 f002 0bb7 2579 36b8 e537 d7bf
000002f0: aee6 eeb7 8f3c 32b8 76b8 af3c b6c8 69b8
00000300: adef 0637 20f8 b5b8 c31c cfb6 df6c c2b6
00000310: 2ca4 c0b6 d2bd 1f38 b801 8f36 8ae6 87b6
0.04426014 -4.294192e-05 -6.041271e-06 -0.051142555 -4.4439886e-07 0.3581398 3.8429465e-05 -4.6371388e-05
-1.9288116e-06 -0.26523703 5.0508424e-05 -8.533585e-05 4.3387495e-06 -8.497316e-05 -0.17412494 -5.8607043e-06
-0.16853087 -5.4601073e-06 -0.10609158 7.642463e-06 3.9729843e-05 -4.0442712e-05 -0.09242668 7.291115e-07
-0.018652394 -9.21155e-06 -4.3784778e-05 0.17918949 -0.0015716995 -5.134498e-05 -7.1835307e-06 5.346138e-05
-4.7232978e-05 -0.2631939 0.036579628 -0.0010258852 -1.4746263e-06 0.0690882 -0.3737264 -5.3798223e-05
5.1291245e-05 -6.2868785e-05 9.762844e-07 -5.357853e-05 -5.1710438e-05 4.7820708e-05 -4.7912315e-05 -7.754475e-06
9.229822e-06 0.058463544 0.20665166 -0.094175905 -4.3722714e-05 0.048989136 -5.0285973e-05 -3.3071917e-06
-4.5014574e-05 -0.05302565 4.0863488e-05 0.0344246 5.148413e-06 9.319022e-06 5.855586e-06 -0.34880456
0.021397447 4.760099e-05 -0.0006519362 -6.0046244e-05 5.2912677e-05 -5.018067e-05 -5.3105625e-05 -0.3532484
0.037709083 -3.9952225e-05 -4.2663087e-05 3.558649e-06 -5.459193e-05 -1.4024549e-06 4.2604825e-05 2.931923e-06
7.1026255e-07 5.02416e-05 -6.247868e-05 8.560643e-06 4.409563e-05 -1.3808913e-06 2.7857322e-06 -1.4174601e-07
-0.0613634 -0.08266456 9.187145e-06 -0.09272351 1.9319183e-08 -0.08421585 -4.6049194e-05 -3.967031e-05
-7.5556386e-06 3.7409018e-07 -3.424463e-05 -4.4934568e-05 0.4381292 -3.957433e-05 -0.000105339815 6.651757e-06
-8.757498e-06 0.021825029 4.45207e-06 5.0716004e-05 -3.230771e-05 -5.366667e-05 3.556066e-06 -8.301566e-06
2.8142028e-06 5.973309e-06 -6.452544e-06 1.8579836e-06 6.87416e-06 0.0399063 0.01894835 -0.17390047
-8.550056e-06 8.740704e-06 -3.3439384e-05 9.150222e-06 -3.7899008e-06 -0.3545014 -9.0684325e-06 -5.5650256e-05
7.575104e-06 -0.09411605 -0.012781 -3.6755482e-05 -5.0354305e-05 -5.2410687e-05 -1.0907111e-06 -0.7648226
4.5384413e-06 -4.9523387e-05 -0.00015760811 -5.434671e-06 -4.1520084e-06 0.063257255 -2.8499403e-06 0.05547274
-4.467749e-05 3.8917682e-05 -0.001000314 0.27211797 4.8705282e-05 4.7866793e-05 -3.8123053e-05 7.3723604e-06
-5.20104e-05 3.5333321e-06 -7.766695e-06 -6.0697744e-06 -4.4486396e-06 2.4223573e-06 -4.1433486e-05 -4.694594e-06
6.145112e-06 0.0037245569 5.5043183e-05 -4.9642902e-05 4.7161582e-05 -1.0962415e-06 -0.0002580493 -4.437947e-05
5.8282103e-06 -0.12260398 -6.1238427e-07 -3.366122e-06 -6.4953992e-06 6.2470385e-06 1.7366528e-06 -3.4239404e-06
-4.4196167e-06 0.055578493 5.33311e-05 -0.21992822 5.0538824e-06 -4.262681e-05 8.09867e-06 -5.9422866e-05
-5.4046257e-05 -8.28573e-06 -4.3505006e-05 -1.6813933 -2.847923e-05 -4.2494907e-05 0.021450263 -5.5738456e-05
8.042826e-06 -8.6769694e-05 -6.172429e-06 -5.794325e-06 -5.741158e-06 3.8085338e-05 4.261932e-06 -4.050152e-06

fc2.weight f4 [20, 200]
00000000: 68e1 abbd d29c 3dbd 84bb 12be 2a65 9fbf
00000010: aa49 123e 3ae1 613f ae51 0ebe 99e8 273e
00000020: 0a09 173e a8f9 8fbe 05db 0ebe 3e03 aebd
00000030: d12d 133e 60c7 30be 087b f73c feb2 123e
00000040: 3cd1 0b3d 67e1 123e fbee 8abe d3ec 203e
00000050: 89f4 0fbe 3552 10be ef93 d4c0 0395 13be
00000060: 07cb 1abe f5ba a0be 862e 963e 16e6 dd3e
00000070: aec9 09be 0379 13be 236d 12be 7a7f 0ebe
00000080: e4ac 0ebe cbd2 27bf 899c 9f3c 0bf7 eebf
00000090: 12b9 13be 6424 44bc 73ca 443e 9343 13be
000000a0: 1028 ec3d b709 1fbe 5568 13be bd58 1bbe
000000b0: b03d 06bf 6972 4f3d 1d78 0cbe f78f 0b3d
000000c0: 5484 113e 78f9 49bc 32c1 123f 195d f3bf
000000d0: 1180 0fbe bf30 033f ecff 0dbe e6f3 193e
000000e0: 485f 0fbe 6f2a ce3f fd82 0fbe aab3 8f3d
000000f0: 37d9 12be 6ea8 143e ba7a 143e 0ee4 d83e
00000100: b974 25be e343 103d 21ad 953e 840e 12be
00000110: 6481 0fbe 8572 0fbe 9153 e6bd 5f70 6ebb
00000120: e883 8dbf 9eeb 07be d73a 10be 3dcc 133e
00000130: e6a1 0cbe 4503 133e a15d 7a3d 8631 14be
00000140: 0fdf 12be 604b 063f 532e 113e d943 133e
00000150: c63b 0fbe 7ac6 19be e3a0 12be 40bd 123e
00000160: ded3 10c0 efa2 64be 4241 13be d6fc a4bc
00000170: 8f72 12be 493d 5bc0 ab15 f9bd 0a10 dabc
00000180: bff5 123e afbd 8bbe 1319 b63c 9dd4 0fbe
00000190: 9f1b 863f 1152 0ebe bc3b 3e3e 7aae 133e
000001a0: e569 1cbe 8fb4 ebbb d895 12be 9944 17be
000001b0: 41a2 1ebe 3184 34be 9107 14be 3093 013e
000001c0: ca94 12be b405 123e 1ed1 123e 3df2 1c3e
000001d0: 9ab4 48be 9183 36be f1c4 bbbe 6b86 c0be
000001e0: 4dff 16be 62fd 12be 4da2 0ebe fc73 8ebd
000001f0: 6f1b 14be c627 413e ff62 123e 0541 0dbe
00000200: 7f8b 12be 4968 a440 af45 aabf 3024 0ebe
00000210: 952e 1a3d 1159 043e a162 12be f978 0fbf
00000220: 805c 883d c512 babd 915d aebe 678a b13c
00000230: bf74 133e ca86 07bf e2d7 123e bec3 bebf
00000240: d1e4 0dbf 9be4 0cbe 14d9 1ebe 30b1 f73f
00000250: 0609 0ebe 85e8 0fbe a90c 1fbe 926f 12be
00000260: 2f24 98bd eed0 18be 45ce 12be 81f0 123e
00000270: d57d 17be e2eb 12be bbb3 0ebe 0bde 1d3e
00000280: 0091 133e 8c5b 46be 8d62 0abd 3bd1 10be
00000290: 33e8 1abe db1f 12be 2369 b2bd 7ba1 15be
000002a0: cb1f 18be 5ec6 2d3d 2dcc 123e e4c6 1ebe
000002b0: e1c9 14be 623a 193e f344 13be df6a 123e
000002c0: e2ed 12be e16d fcbd a343 c3bd f0ba c6be
000002d0: 2cbf 133e d350 0fbe f843 12be f9a4 0dbe
000002e0: 39f2 4a3d 880a 13be 4c98 19be 9663 443f
000002f0: 97cd 34be 42d3 0fbe d320 d2ba 3d78 0dbe
00000300: abdb 12be 6f4d 38bd e889 0e3d 6688 123e
00000310: ffbc 13be 11f8 13be d9cd 133e b27b 12be
00000320: d975 8ebd ba71 e63c 19e1 973d e6dd 4ebd
00000330: e8f5 97bd db1b a3bd 8bf4 983d 1870 ca3b
00000340: 5715 97bd bbf1 473c 19d4 983d 4fa9 fc3b
00000350: 68c9 97bd 83ff 74bb 1185 f03c 14e4 97bd
00000360: 6466 ab3b 77d6 97bd 1fee 9abd e5fd 96bd
00000370: 26dd 983d 81b9 983d efbe c0bb d2b7 973d
00000380: aadb 90bd fe18 13bc 4c49 84bc d8a7 9abd
00000390: 4634 90bd 451a 983d 70ef 973d bf01 993d
000003a0: 170d 993d 2d6e 5d3c fcfe 93bd bf83 023d
000003b0: afac 973d 6202 73bd 92bc b1bd f7eb ca3c
000003c0: 83d3 4a3c 6577 963d 0fbf 973d 69fe 9ebd
000003d0: 87ed c63c cf7c 18bc 2a98 993d 0f05 a6bc
000003e0: 3329 98bd ec00 82bd 5c20 b5bd edfb 58bd
000003f0: 2c5d 983d 441e bdbd cb13 993d 1eb8 96bd
-0.08392602 -0.046292134 -0.14329344 -1.2452748 0.14285913 0.88234293 -0.13898346 0.16397323
0.14749542 -0.2812016 -0.13950737 -0.08496712 0.14372946 -0.17263556 0.030210033 0.14326093
0.03413509 0.14343797 -0.27135453 0.15715341 -0.14058127 -0.1409386 -6.6430583 -0.14412312
-0.15116511 -0.31392637 0.2933237 0.43339604 -0.13455841 -0.14401631 -0.14299445 -0.13915816
-0.1393314 -0.6555602 0.019483821 -1.8669142 -0.14426067 -0.011971567 0.19217853 -0.14381246
0.11531079 -0.1553105 -0.14395268 -0.1517057 -0.5243788 0.05064622 -0.13717695 0.034072842
0.14210635 -0.012327544 0.5732604 -1.9012786 -0.14013697 0.51246256 -0.13867158 0.15034446
-0.1400119 1.61067 -0.14014812 0.0701669 -0.14340673 0.14517376 0.14499941 0.42361492
-0.16157807 0.03522099 0.2923365 -0.1426335 -0.14014202 -0.1400853 -0.11246408 -0.0036382896
-1.105588 -0.13273475 -0.14084946 0.1443338 -0.13733634 0.14356716 0.061124448 -0.14472017
-0.14342903 0.52458763 0.14177828 0.1438135 -0.13987646 -0.15017119 -0.14319186 0.14330006
-2.2629313 -0.22327779 -0.14380363 -0.020140093 -0.14301513 -3.4256155 -0.12162336 -0.026618976
0.14351557 -0.27293155 0.022228753 -0.1404595 1.0477179 -0.13898493 0.18577474 0.14422026
-0.1527477 -0.007193155 -0.14314973 -0.14772262 -0.15491582 -0.17628552 -0.14456011 0.12653804
-0.14314571 0.14259988 0.14337584 0.15326782 -0.19600144 -0.17823626 -0.36673692 -0.37602553
-0.14745827 -0.1435447 -0.139291 -0.06955716 -0.1446359 0.18862829 0.14295577 -0.13794334
-0.14311026 5.13773 -1.3302516 -0.13880992 0.03764208 0.12924601 -0.14295436 -0.56043965
0.06658268 -0.09085611 -0.3405576 0.02167244 0.14400004 -0.52940047 0.14340165 -1.4903486
-0.5542727 -0.13759081 -0.15512496 1.9350948 -0.1387063 -0.14053543 -0.15532173 -0.14300373
-0.074287765 -0.1492345 -0.14336498 0.14349557 -0.14794095 -0.14347795 -0.13935749 0.15416734
0.14410782 -0.1937086 -0.03378539 -0.14142315 -0.1512764 -0.14269964 -0.087114595 -0.14612381
-0.14855878 0.042425506 0.143357 -0.15505558 -0.14530136 0.14963678 -0.14381771 0.1429858
-0.14348558 -0.12325645 -0.09534385 -0.38814497 0.14428395 -0.13995676 -0.1428374 -0.13832463
0.049547408 -0.14359486 -0.14999503 0.76714456 -0.17656551 -0.14045432 -0.0016031511 -0.13815399
-0.14341609 -0.04499572 0.034799486 0.14309844 -0.14427565 -0.14450099 0.14433993 -0.14304999
-0.069560714 0.0281304 0.07415981 -0.050504588 -0.0741995 -0.079642974 0.07468518 0.0061779134
-0.07377117 0.012203629 0.074623294 0.007710613 -0.07411462 -0.0037383742 0.029360326 -0.07416549
0.005230712 -0.07413953 -0.07564949 -0.07372645 0.07464056 0.07457257 -0.005882136 0.07408108
-0.070731476 -0.008978127 -0.016148232 -0.07551545 -0.0704122 0.074268855 0.07418716 0.07471036
0.074732 0.0135150375 -0.07226369 0.031863924 0.07405984 -0.059328444 -0.08678545 0.02477072
0.01237953 0.073469914 0.074094884 -0.07763369 0.024283184 -0.0093071 0.07499726 -0.020266084
-0.07429733 -0.06347832 -0.08844063 -0.05297463 0.07439646 -0.09234288 0.07474478 -0.07359336

fc2.bias f4 [20]
00000000: 97b5 483f 03bc 9dbd 9024 01b7 72ee c53f
00000010: 8767 9a37 f462 c6ba 0c85 a43f 925d d43f
00000020: 6afe 3dbf 5b3b d23f 0b79 d7bf 57ae 55be
00000030: 184d 07c0 f708 02c0 92e7 c23f 5274 ddb8
00000040: 03d3 42bc a290 f03f fca3 cbb8 b9cd d43f
0.78402084 -0.07701876 -7.697512e-06 1.5463393 1.840644e-05 -0.0015135692 1.2853103 1.6591055
-0.7421633 1.6424364 -1.6833814 -0.20867287 -2.1140804 -2.0317972 1.522692 -0.000105597675
-0.011891129 1.8794138 -9.710339e-05 1.6625282

fc3.weight f4 [20, 20]
00000000: adba 3ac0 ca66 3a40 57aa 3a40 a8b9 3ac0
00000010: 12ae 3a40 62a3 3ac0 8e93 3ac0 36bb 3ac0
00000020: 60a2 3a40 d4ba 3ac0 49a9 3a40 b5af 3a40
00000030: 587f 3a40 d6b8 3ac0 8ab9 3ac0 67ae 3a40
00000040: aa9d 3a40 e7ad 3ac0 19b5 3a40 8aba 3ac0
00000050: 9a96 40b8 0ac3 bcb5 92d0 83b7 3b4b 33b8
00000060: 7b87 4b38 8a75 6838 ef2d a6b7 4435 65b8
00000070: 3f44 3ab6 f35b a7b8 0be7 fe37 83de 1c38
00000080: ee46 8237 b13f 6438 0b04 d5b7 c5bf b5b7
00000090: c19e 0338 cb01 f8b7 7b1b 5eb8 542c a5b8
000000a0: 8332 ec3f d186 eabe 63ca ffbf bf73 8e3f
000000b0: e749 ffbf 6c55 ca3f 344e e73f 969e 9c3f
000000c0: 7a2b c9bf 3493 963f e876 f7bf 8198 e9bf
000000d0: a0c7 66c0 ff03 183f d379 ec3f c3b6 fdbf
000000e0: d8cb 00c0 26b0 a83f b728 ffbf ba6f 9a3f
000000f0: 73e9 ec3f 045a ecbe fba3 ffbf 2e0d 913f
00000100: cf4c ffbf f6e6 d73f f22c ea3f 4e5a 9e3f
00000110: 1f92 ccbf e373 983f 0ea8 f7bf 9da5 e3bf
00000120: 902d 59c0 ac94 0c3f 4fdb eb3f 0383 fdbf
00000130: bd2d 00c0 e290 aa3f b424 ffbf b33c 9c3f
00000140: dfc2 47b9 4b03 df38 3eb9 1938 b5d0 41b8
00000150: 598f 3638 b3bb 9a38 bdf6 0bb8 933a 7ab8
00000160: e41a 8138 611d c5b8 c82c 3b39 f059 8737
00000170: 69eb 9438 f08e ab38 54ce 3cb8 882d 2638
00000180: b526 9b38 b96c 51b9 4b1d 0738 1d48 e5b8
00000190: 685c 27b9 a786 5c37 7916 6d35 1739 95b8
000001a0: 066c 9838 5e18 d837 ce70 4db8 56c1 b0b8
000001b0: b484 9138 c25f cbb8 4dd4 0b39 23b9 39b8
000001c0: 059a a6b7 ea1a d438 0a60 7cb7 3ff1 3338
000001d0: d430 7d38 f209 f3b8 c9eb 3a38 770a c3b8
000001e0: 5858 ed3f 4d3f efbe e13a 00c0 e93c 903f
000001f0: 2604 00c0 d4d3 cf3f df71 e93f 1ad6 9d3f
00000200: 40ce cbbf e6ce 973f df3c f8bf e821 e5bf
00000210: 04b8 5fc0 1e5d 113f c2d3 ec3f 7767 febf
00000220: 4be9 00c0 432c aa3f e5e2 ffbf f4a7 9b3f
00000230: b87f ec3f f3e3 ebbe e56d ffbf 6a62 903f
00000240: 680d ffbf 7fd5 d23f 4355 e93f 6ac8 9d3f
00000250: 3c62 cbbf 2fcd 973f f160 f7bf 3c15 ebbf
00000260: 8945 5bc0 28e4 0e3f 86b5 eb3f e74f fdbf
00000270: cc3d 00c0 db02 aa3f 29e6 febf 019d 9b3f
00000280: 175a ec3f e069 ebbe 266b febf f22c 923f
00000290: f232 febf cff6 e13f 4521 eb3f ead4 9e3f
000002a0: 6c7e cebf 730e 993f 59c8 f6bf 19e2 dfbf
000002b0: e6be 4ec0 83a9 033f b341 ea3f 1a37 fcbf
000002c0: c05c febf 9417 ab3f 7509 febf 54c5 9c3f
000002d0: fb98 85ba 334d 4a3a 67b5 8a3a f513 4fba
000002e0: a6c5 933a 3da5 803a 06fa 4fba 0df9 5dba
000002f0: 9046 03ba 7e26 60ba 7bfc 8a3a 5fe9 823a
00000300: 07ec 11b8 586c 8e3a 1fef 3fba 784a 7b3a
00000310: d29f a0b7 bc8e 43ba 300c 523a 32ee 5cba
00000320: eb9b ec3f b1df eabe 15fb ffbf 824c 8f3f
00000330: e583 ffbf 418b cf3f 2455 e83f 7d4a 9d3f
00000340: e74d cabf ca50 973f 0fbb f7bf e8ce e9bf
00000350: 6990 63c0 f327 153f 1590 ec3f 54e0 fdbf
00000360: 1db2 00c0 f05a a93f a061 ffbf e125 9b3f
00000370: 3916 ed3f f641 eebe 281a 00c0 4625 903f
00000380: fcc8 ffbf aae2 cf3f cd44 e93f 80bc 9d3f
00000390: 4380 cbbf 54b6 973f 0403 f8bf e62b e4bf
000003a0: 8048 5fc0 a459 113f 3b94 ec3f d022 febf
000003b0: 68c6 00c0 0709 aa3f e0a4 ffbf 948e 9b3f
000003c0: db66 ed3f 99dc eebe 5a35 00c0 bc84 903f
000003d0: 7f01 00c0 2843 d23f e3c2 e93f a411 9e3f
000003e0: 872c ccbf a215 983f 843e f8bf fadd e5bf
000003f0: eb69 5ec0 fe44 103f 8ec3 ec3f 4c59 febf
-2.9176438 2.9125237 2.9166467 -2.9175816 2.9168744 -2.916222 -2.915256 -2.9176764
2.9161606 -2.917653 2.9165823 2.9169743 2.9140224 -2.9175315 -2.9175744 2.9168947
2.915873 -2.9168642 2.9173033 -2.9176354 -4.5916626e-05 -1.4063855e-06 -1.571354e-05 -4.274699e-05
4.8525148e-05 5.5422577e-05 -1.9810132e-05 -5.4647462e-05 -2.7755884e-06 -7.9803074e-05 3.0386747e-05 3.740053e-05
1.5530237e-05 5.4418753e-05 -2.5393461e-05 -2.1666181e-05 3.1380685e-05 -2.9564739e-05 -5.2954518e-05 -7.87607e-05
1.8452915 -0.45805982 -1.9983639 1.1129073 -1.9944428 1.5807319 1.8070741 1.2235897
-1.5716393 1.1763673 -1.9333162 -1.8249665 -3.6059341 0.593811 1.8474678 -1.98214
-2.0124416 1.3178756 -1.99343 1.2065346 1.8508743 -0.46162426 -1.9971918 1.1332147
-1.9945315 1.6867359 1.8294966 1.2371309 -1.5982093 1.1910366 -1.9348161 -1.7784916
-3.393406 0.54914355 1.8426303 -1.9805607 -2.0027916 1.3325465 -1.9933076 1.2206024
-0.00019050714 0.00010634082 3.6650563e-05 -4.620916e-05 4.3525684e-05 7.378254e-05 -3.3369975e-05 -5.9659196e-05
6.156208e-05 -9.399164e-05 0.00017850392 1.6135135e-05 7.1010385e-05 8.1805396e-05 -4.501485e-05 3.961989e-05
7.398186e-05 -0.00019972296 3.221379e-05 -0.00010933003 -0.00015960785 1.3144373e-05 8.832208e-07 -7.1155075e-05
7.268046e-05 2.5760553e-05 -4.8980866e-05 -8.4283456e-05 6.938857e-05 -9.6976306e-05 0.00013335161 -4.427986e-05
-1.9860463e-05 0.00010113961 -1.5042731e-05 4.2901604e-05 6.0365375e-05 -0.000115889954 4.4565448e-05 -9.300274e-05
1.8542585 -0.46727982 -2.0035937 1.1268588 -2.0002532 1.623652 1.8237876 1.2330964
-1.5922318 1.1860015 -1.9393576 -1.7900972 -3.4956064 0.5678271 1.8502123 -1.9875325
-2.014239 1.3294758 -1.9991118 1.216063 1.8476477 -0.4607235 -1.9955412 1.1280034
-1.9925966 1.6471404 1.8229145 1.2326787 -1.5889354 1.1859492 -1.9326459 -1.8365855
-3.426119 0.5581689 1.8414772 -1.9790009 -2.0037718 1.3282121 -1.9913989 1.2157289
1.8464993 -0.45979214 -1.9876449 1.1419966 -1.9859297 1.7653445 1.8369528 1.2408726
-1.6132331 1.1957535 -1.9279891 -1.7490875 -3.2304015 0.5143053 1.83013 -1.9704316
-1.9872055 1.336657 -1.9846636 1.224772 -0.0010192686 0.0007717192 0.0010582627 -0.0007899397
0.0011274114 0.000981487 -0.000793368 -0.00084675924 -0.0005007768 -0.00085506577 0.001060381 0.0009987763
-3.479051e-05 0.0010866029 -0.00073217036 0.0009585987 -1.9147908e-05 -0.0007459929 0.00080126803 -0.0008427828
1.8485082 -0.45873788 -1.9998499 1.1195223 -1.9962126 1.6214372 1.8150983 1.2288357
-1.5805024 1.182153 -1.9353961 -1.8266268 -3.555689 0.5826408 1.848147 -1.9834085
-2.0108712 1.3230877 -1.9951668 1.2120935 1.8522407 -0.465347 -2.0015965 1.1261375
-1.998321 1.6241047 1.8224121 1.2323151 -1.5898517 1.1852517 -1.937592 -1.7825897
-3.4888 0.56777406 1.8482736 -1.9854374 -2.0121098 1.3284005 -1.9972191 1.2152886
1.8547014 -0.46652678 -2.0032563 1.1290507 -2.0000913 1.6426744 1.82626 1.2349133
-1.5951089 1.1881602 -1.9394078 -1.7958367 -3.4752147 0.56355274 1.8497179 -1.9871001

fc3.bias f4 [20]
00000000: cca8 3ac0 ae64 8137 9f2f 1c40 868b 1b40
00000010: 4de5 8936 6e8e ae36 a050 1c40 7a80 1b40
00000020: b546 1a40 e24f 83ba 772f 1c40 6124 1c40
00000030: b13e 1c40 89e1 1940 0500 1c40 02a3 3ac0
00000040: ef9a 1c40 0bce 3ac0 2818 f4b7 1363 3d38
-2.9165525 1.5424881e-05 2.4404066 2.4303908 4.1096123e-06 5.202185e-06 2.442421 2.4297166
2.4105656 -0.0010018314 2.440397 2.4397204 2.4413264 2.4043906 2.4375012 -2.9161992
2.4469564 -2.9188259 -2.9098315e-05 4.515338e-05

fc4.weight f4 [1, 20]
00000000: fdf3 32c0 92e8 32c0 ac60 da3f df47 dd3f
00000010: b286 32c0 e5dc 32c0 c05e dc3f 838f dd3f
00000020: 23d2 de3f 86c6 8e3f 8ab2 da3f b38b dc3f
00000030: 5b51 dc3f e328 df3f c012 db3f caeb 32c0
00000040: 3fc4 db3f ad31 33c0 6be2 32c0 c4f7 32c0
-2.7961419 -2.795445 1.7060752 1.7287558 -2.7894711 -2.7947323 1.7216415 1.7309421
1.7407879 1.1154335 1.7085736 1.7230133 1.7212328 1.7434353 1.7115097 -2.7956414
1.7169265 -2.799907 -2.7950695 -2.7963724

bn1.weight f4 [200]
00000000: 59de 013d 4631 40b9 6ba1 a238 4eb0 2d40
00000010: 6ba1 a238 0bea b03f 953d 333f 392e 04bb
00000020: 6ba1 a238 1a12 03bc 3f97 333f fbad fd3a
00000030: 6ba1 a238 8273 0d3b 1dcb 93bc 6ba1 a238
00000040: 8d29 bf3f 6ba1 a238 49c7 49bd 6ba1 a238
00000050: e255 333f b757 333f 4e7c be3f 6ba1 a238
00000060: 31fa b73d 6ba1 a238 0202 0fba 2f2b 883f
00000070: 4b2c 9f3d 328d 343f 6ba1 a238 f922 333f
00000080: cc78 333f ef3d 383c 5ee5 e7bc 33a5 903f
00000090: 6ba1 a238 e89f dabb 367e aebe eff0 263a
000000a0: a1af e13b 0323 3a3f 6ba1 a238 a6ef 913b
000000b0: de90 ae3c 6c27 d83b 22ed 323f 6ba1 a238
000000c0: 6ba1 a238 d059 173b a72c a93f 5a53 8f40
000000d0: 5b6e 333f a763 cc3e 8288 333f 6ba1 a238
000000e0: abe7 333f d704 9140 844f 333f 1dc3 8e3d
000000f0: 6ba1 a238 6ba1 a238 6ba1 a238 8204 a83e
00000100: 2310 873d 481a eebb 869c d33d 2738 343f
00000110: 7681 333f 0166 333f d465 fc38 718a 79bc
00000120: 57b9 c23e 7031 903b ddb0 333f 6ba1 a238
00000130: 3b0b 333f 6ba1 a238 23b3 5abc 6ba1 a238
00000140: 6ba1 a238 1f3f 9abc 1fd9 33bf 6ba1 a238
00000150: be98 333f 6ba1 a238 6ba1 a238 6ba1 a238
00000160: 7146 4f3f 29ee f3bc 6ba1 a238 e6b2 01bd
00000170: 6ba1 a238 0964 b03f 2274 75bb 565c 813b
00000180: 6ba1 a238 6ba1 a238 226e 13bb f975 333f
00000190: e89b bf3f b9ef 323f 33af f9bb 6ba1 a238
000001a0: 6ba1 a238 831a 3b3d 6ba1 a238 22be 353f
000001b0: 4310 3a3f 4bc9 d73b 6ba1 a238 6ba1 a238
000001c0: 6ba1 a238 6ba1 a238 6ba1 a238 6ba1 a238
000001d0: 6ba1 a238 b01b 963d 93bf 363f d32c 03be
000001e0: 6ba1 a238 6ba1 a238 d64f 333f 6ba1 a238
000001f0: 6ba1 a238 8401 6e3e 6ba1 a238 e81b 333f
00000200: 6ba1 a238 d78c f840 25e0 3a3f c463 333f
00000210: 4b8c 163c 5a00 2bba 6ba1 a238 65cd 5340
00000220: 6ba1 a238 0ee5 f7ba 9efe c13c 6ba1 a238
00000230: 6ba1 a238 5c96 1b40 6ba1 a238 40ad 903f
00000240: a62b a13c 0f17 333f 0022 3c3f 9e8f 3240
00000250: 6520 333f ad53 333f cc1f 3a3f 6ba1 a238
00000260: e6a0 2fbc 6ba1 a238 6ba1 a238 6ba1 a238
00000270: 6ba1 a238 6ba1 a238 f85f 333f 6ba1 a238
00000280: 6ba1 a238 06c9 dd3d 421e f63b 2eda 333f
00000290: 1b83 373f 6ba1 a238 a40f 3f3a ea00 353f
000002a0: 6ba1 a238 a09f 08be 6ba1 a238 6ba1 a238
000002b0: 6ba1 a238 6ba1 a238 6ba1 a238 6ba1 a238
000002c0: 6ba1 a238 45ab 413d 6f35 363f 2db6 563d
000002d0: 6ba1 a238 35b2 333f 6ba1 a238 7c73 333f
000002e0: 8bb1 4fbb 6ba1 a238 daad 363f e596 913f
000002f0: 4203 a63c 328f 333f 1634 493d abdb d939
00000300: 6ba1 a238 266c 12bb 6ba1 a238 6ba1 a238
00000310: 6ba1 a238 148d 343f 6ba1 a238 6ba1 a238
0.031706188 -0.00018328903 7.7548284e-05 2.7138858 7.7548284e-05 1.3821424 0.7001584 -0.0020169152
7.7548284e-05 -0.007999921 0.7015266 0.0019354218 7.7548284e-05 0.002158374 -0.018041188 7.7548284e-05
1.4934555 7.7548284e-05 -0.04926232 7.7548284e-05 0.7005292 0.7005572 1.4881685 7.7548284e-05
0.08983267 7.7548284e-05 -0.0005455316 1.0638179 0.0777212 0.70527947 7.7548284e-05 0.6997524
0.70106196 0.011245235 -0.028307613 1.1300415 7.7548284e-05 -0.0066718943 -0.34080666 0.00063682994
0.0068873917 0.72709674 7.7548284e-05 0.004453617 0.021309312 0.0065964963 0.69893086 7.7548284e-05
7.7548284e-05 0.0023094304 1.3216752 4.4789248 0.70090264 0.3991978 0.7013017 7.7548284e-05
0.7027537 4.531841 0.70043206 0.06970809 7.7548284e-05 7.7548284e-05 7.7548284e-05 0.3281594
0.06594875 -0.0072663166 0.10332589 0.7039818 0.70119417 0.7007752 0.00012035263 -0.015230761
0.38032028 0.0044004247 0.70191747 7.7548284e-05 0.6993901 7.7548284e-05 -0.013348374 7.7548284e-05
7.7548284e-05 -0.018828927 -0.70253175 7.7548284e-05 0.7015494 7.7548284e-05 7.7548284e-05 7.7548284e-05
0.8096686 -0.02977665 7.7548284e-05 -0.03166475 7.7548284e-05 1.3780528 -0.0037453254 0.003947775
7.7548284e-05 7.7548284e-05 -0.0022496064 0.70101887 1.4969454 0.6989704 -0.0076197623 7.7548284e-05
7.7548284e-05 0.04567958 7.7548284e-05 0.70993245 0.72681063 0.0065852753 7.7548284e-05 7.7548284e-05
7.7548284e-05 7.7548284e-05 7.7548284e-05 7.7548284e-05 7.7548284e-05 0.073295 0.7138607 -0.12810068
7.7548284e-05 7.7548284e-05 0.70043695 7.7548284e-05 7.7548284e-05 0.23242766 7.7548284e-05 0.69964457
7.7548284e-05 7.7671924 0.7299827 0.70074105 0.009188722 -0.0006523185 7.7548284e-05 3.3094113
7.7548284e-05 -0.0018912868 0.023680981 7.7548284e-05 7.7548284e-05 2.4310522 7.7548284e-05 1.1302872
0.019674134 0.6995706 0.7348938 2.7900157 0.69971305 0.70049554 0.7270477 7.7548284e-05
-0.0107195135 7.7548284e-05 7.7548284e-05 7.7548284e-05 7.7548284e-05 7.7548284e-05 0.7006831 7.7548284e-05
7.7548284e-05 0.10829358 0.007510931 0.7025479 0.71684426 7.7548284e-05 0.00072884024 0.7070452
7.7548284e-05 -0.13342142 7.7548284e-05 7.7548284e-05 7.7548284e-05 7.7548284e-05 7.7548284e-05 7.7548284e-05
7.7548284e-05 0.047282476 0.71175283 0.05241983 7.7548284e-05 0.701938 7.7548284e-05 0.7009809
-0.0031691517 7.7548284e-05 0.71359026 1.1374174 0.020265225 0.70140374 0.04912194 0.0004155313
7.7548284e-05 -0.0022342294 7.7548284e-05 7.7548284e-05 7.7548284e-05 0.7052777 7.7548284e-05 7.7548284e-05

bn1.bias f4 [200]
00000000: 3937 24bc 9cbb 7439 db33 34bf 14cc c33f
00000010: 3213 343f 5cf8 5c3f 4a3a 33bf 62de 0b3b
00000020: 3ca0 353f f25f a03d 8892 33bf 4730 f8ba
00000030: 3d56 343f beda 08bb b895 8ebd 8e32 343f
00000040: 7f11 693f ae3e 343f 2a5c 14be 86d3 3d3f
00000050: 4a52 33bf c052 33bf 7a16 91be 6f73 34bf
00000060: b897 303e 7ded 88bc 0fa0 163a 9c8a 423f
00000070: ccef 2b3e a68b 34bf c61e 34bf e51a 33bf
00000080: 4e72 33bf f6b4 afba 14c6 973c 4cf0 923e
00000090: 8a7e 34bf 201d 823c 6ebf 21bf b149 17ba
000000a0: 689c dfbb a71f 3abf d462 34bf 878a 90bb
000000b0: b70b aebc 15c0 d5bb c8e7 32bf abfa 373c
000000c0: 4afa 333f 1245 aa3c d7c1 4a3f 400c de3f
000000d0: b967 33bf 987f 063f 1083 33bf 7ed6 363f
000000e0: bbe2 33bf 85dd c0bf f14a 33bf 832d b5bd
000000f0: db3b 34bf 9bc8 343f a6a6 343f 8114 cf3f
00000100: c368 d83d 641e ef3b cd4c 10be fd34 34bf
00000110: 8d79 33bf a162 33bf 0ce6 c1b8 1472 d5bd
00000120: 8f8e 123f 09ef 8bbb b1ab 33bf 7a81 343f
00000130: 3504 33bf bc49 343f 8e9c 5b3c 28a5 34bf
00000140: 583f 34bf ef05 9b3c ffd8 333f 885b 343f
00000150: b792 33bf 3ccf 36bf 0d2d 34bf e335 343f
00000160: af22 4c3e 0b24 32be c159 34bf 5119 17be
00000170: 701f 34bf a882 91be ca02 793b fe17 81bb
00000180: e146 343f b494 adbc a6c7 163b 016f 33bf
00000190: 890e 6b3f 98e8 32bf 6cc6 f83b d97b 343f
000001a0: 842c 38bf 44d5 bd3a b929 34bf bbb8 35bf
000001b0: 7f0f 3abf 4cd0 d3bb 7995 34bf 4dc1 b83c
000001c0: f129 34bf 2503 343f 7437 343f c486 3f3f
000001d0: 8ecc dabb c395 f93d 05ee 063f 25a2 dabe
000001e0: 748b 35bf 0d48 34bf bb4d 33bf fc8a 06bc
000001f0: a09d 34bf f959 f63f 3818 343f d114 33bf
00000200: d523 34bf f6d6 913f 64ac 433f b65e 33bf
00000210: bd77 14bc 75e3 3a3a fe1b 34bf 323e bdbf
00000220: 0c8c dc3b 8eed fc3a 4be4 ccbc bd2a 4abc
00000230: ed6a 343f c65d 6d3f ad3b 343f 4805 633f
00000240: 92aa a0bc 3310 33bf fb27 3cbf e1b6 483f
00000250: ae19 33bf 204e 33bf e51b 3abf b41c 34bf
00000260: fb7c 303c b24f 36bf be3a 34bf 3644 343f
00000270: 2bc0 35bf b943 34bf 145c 33bf e81b 393f
00000280: 1971 343f 70bc 563e 2414 f3bb b7d3 33bf
00000290: 157e 37bf 2208 34bf 9ae4 933a dafc 34bf
000002a0: e20a 103c c844 babe de3a 343f 2cb2 82ba
000002b0: fdd4 34bf 237d 363f cd5b 34bf 251e 343f
000002c0: 9a43 34bf fd2c c33b 3330 36bf 9261 713e
000002d0: 0d81 343f 1fad 33bf 5810 34bf 1f6d 33bf
000002e0: 482b 563b 664c 34bf 93a9 36bf 2d76 5d40
000002f0: 5090 a5bc e18a 33bf 8170 223e 86f8 e9b9
00000300: 353f 34bf 15a5 143b 75f3 6dba a322 343f
00000310: 0681 34bf 7c86 34bf e382 343f 9c1e 34bf
-0.010022932 0.00023339543 -0.70391625 1.5296655 0.7034179 0.86316466 -0.7001082 0.0021342267
0.70947623 0.078308 -0.70145464 -0.0018935286 0.7044409 -0.0020882334 -0.0696215 0.7038964
0.9104232 0.7040814 -0.14488283 0.74150884 -0.7004744 -0.7004814 -0.2833746 -0.7048864
0.17245376 -0.016714806 0.00057458965 0.7599275 0.16790694 -0.70525587 -0.70359457 -0.6996291
-0.7009629 -0.0013405371 0.018527068 0.28698957 -0.70505583 0.015883029 -0.63182724 -0.0005771174
-0.006824065 -0.7270455 -0.704633 -0.004411045 -0.02124582 -0.006523142 -0.6988492 0.0112291975
0.70303786 0.020784888 0.79202026 1.7347488 -0.70080143 0.5253844 -0.7012186 0.7142104
-0.7026784 -1.5067602 -0.70036227 -0.08846571 -0.7040383 0.706186 0.70566785 1.6178132
0.10566857 0.007297324 -0.14091797 -0.70393354 -0.70107347 -0.7007237 -9.245807e-05 -0.10422149
0.5724878 -0.0042704386 -0.70183855 0.70510066 -0.69928294 0.7042501 0.013404025 -0.7056451
-0.70409155 0.018923728 0.70252985 0.70452166 -0.70145744 -0.71409965 -0.7038124 0.70394725
0.19935106 -0.17396562 -0.70449454 -0.14755751 -0.7036047 -0.28419995 0.0037996047 -0.0039396277
0.7042065 -0.021189071 0.0023007183 -0.70091254 0.91819054 -0.6988616 0.007592013 0.70501477
-0.71942925 0.0014483114 -0.70376164 -0.70985 -0.72679895 -0.00646404 -0.7054058 0.02255311
-0.703765 0.703173 0.70397115 0.7481501 -0.006677217 0.12186768 0.5270694 -0.4270183
-0.70915914 -0.7042244 -0.7004048 -0.008211847 -0.70553017 1.9246207 0.70349455 -0.6995364
-0.70367175 1.1393726 0.7643492 -0.7006639 -0.009061751 0.00071292307 -0.7035521 -1.4784606
0.006730562 0.0019296871 -0.025011202 -0.012339291 0.70475656 0.9272121 0.7040356 0.88679934
-0.019612584 -0.69946593 -0.73498505 0.7840405 -0.6996106 -0.70041084 -0.72698814 -0.703563
0.010771985 -0.71215355 -0.70402133 0.7041658 -0.7099635 -0.70415837 -0.70062375 0.72308207
0.70485073 0.2097032 -0.0074181724 -0.70244926 -0.7167676 -0.7032491 0.0011283339 -0.7069832
0.008791657 -0.363806 0.70402324 -0.0009971312 -0.70637494 0.71284693 -0.70452577 0.70358497
-0.7041565 0.0059562908 -0.71167296 0.23572376 0.70509416 -0.70186037 -0.7033744 -0.7008838
0.0032679606 -0.70429075 -0.713525 3.4603379 -0.020210415 -0.7013379 0.1586323 -0.00044626388
-0.70408946 0.0022681404 -0.00090771104 0.7036535 -0.70509374 -0.70517707 0.7051222 -0.70359206

bn1.running_mean f4 [200]
00000000: 2d69 0f43 1480 173c 0000 0000 a1bb 1a43
00000010: 0000 0000 bf00 2643 5c38 2441 5253 893d
00000020: 0000 0000 ce29 7c42 3848 3741 2d7d 9842
00000030: 0000 0000 d6b4 9441 5ea9 1243 0000 0000
00000040: c7e8 2c42 0000 0000 f983 4642 0000 0000
00000050: 301c e240 61c1 b140 db0a a041 0000 0000
00000060: ae79 b842 0000 0000 d9c4 383f 7577 f142
00000070: 0f39 b542 1170 de42 0000 0000 6926 0741
00000080: c83b f740 432e c942 c8d1 4b42 46f2 1a43
00000090: 0000 0000 5194 2043 d1c5 a142 c606 7540
000000a0: 0548 4b41 03e7 483e 0000 0000 43df b13d
000000b0: 6924 2d41 f59e 0740 f2b3 0b41 0000 0000
000000c0: 0000 0000 8fcc 0143 a174 1f43 6bc5 a642
000000d0: b485 3e41 5876 2042 8b4d 5241 0000 0000
000000e0: df0f 0e41 08dc 9d42 4e10 9a40 8548 a342
000000f0: 0000 0000 0000 0000 0000 0000 f0fa 3043
00000100: 6292 0343 aa44 bf40 cc9c b741 2974 9242
00000110: fb7b e440 11a1 7540 23de 1e41 200e 0343
00000120: d228 ff42 dd0b ce3f 3463 4340 0000 0000
00000130: a0e7 3841 0000 0000 831f 2e41 0000 0000
00000140: 0000 0000 38b8 a540 b36c 0e43 0000 0000
00000150: 6c4d 0841 0000 0000 0000 0000 0000 0000
00000160: d41e 6242 0496 f242 0000 0000 e54d 3243
00000170: 0000 0000 ce04 7e41 74a9 233e ce9c a43a
00000180: 0000 0000 0000 0000 30b8 8741 12e3 0041
00000190: a66c 3343 c568 f13f 7d2a 0743 0000 0000
000001a0: 0000 0000 3f81 b142 0000 0000 240b b640
000001b0: 8963 8d42 4261 e13c 0000 0000 0000 0000
000001c0: 0000 0000 0000 0000 0000 0000 0000 0000
000001d0: 0000 0000 1e0c 3a43 d806 f042 bfdd 6c42
000001e0: 0000 0000 0000 0000 038c 5341 0000 0000
000001f0: 0000 0000 ba76 0a43 0000 0000 c54d 5141
00000200: 0000 0000 773b 9542 0522 a742 f943 2a41
00000210: 8f5d 163f cad4 f840 0000 0000 d87b 1443
00000220: 0000 0000 4e1f 6c41 39b1 b842 0000 0000
00000230: 0000 0000 45df 2243 0000 0000 ef56 1543
00000240: 4ba5 0641 911d 0b41 ffb4 0043 dd52 9f42
00000250: 1b59 fc40 589e 2d40 49f4 373a 0000 0000
00000260: 294d 8e41 0000 0000 0000 0000 0000 0000
00000270: 0000 0000 0000 0000 17da 4941 0000 0000
00000280: 0000 0000 9f98 0943 c756 1240 fad4 aa40
00000290: 27f5 ac40 0000 0000 fa1f a642 f39c 0e40
000002a0: 0000 0000 a312 d342 0000 0000 0000 0000
000002b0: 0000 0000 0000 0000 0000 0000 0000 0000
000002c0: 0000 0000 7af7 4843 ca22 8440 78c4 0543
000002d0: 0000 0000 783c 1f41 0000 0000 a035 8041
000002e0: bb27 c13e 0000 0000 2aed 6541 a68e 0d43
000002f0: 31cb c540 d35c 7040 cc08 4343 ed34 eb42
00000300: 0000 0000 86e3 e042 0000 0000 0000 0000
00000310: 0000 0000 5c6c 2041 0000 0000 0000 0000
143.41084 0.009246845 0.0 154.73293 0.0 166.00291 10.26376 0.06705345
0.0 63.040825 11.455132 76.244484 0.0 18.588299 146.66159 0.0
43.22732 0.0 49.62888 0.0 7.065941 5.554856 20.0053 0.0
92.237656 0.0 0.72175366 120.733315 90.61144 111.21888 0.0 8.4468775
7.7260475 100.590355 50.954865 154.94638 0.0 160.57936 80.88636 3.8285384
12.705083 0.19619374 0.0 0.08685162 10.821389 2.119077 8.731432 0.0
0.0 129.79906 159.45558 83.38558 11.907642 40.11557 13.143931 0.0
8.878875 78.92975 4.8144903 81.64164 0.0 0.0 0.0 176.98022
131.57181 5.977132 22.951561 73.226875 7.1401343 3.8379557 9.929233 131.05518
127.57973 1.609737 3.0529299 0.0 11.556549 0.0 10.882693 0.0
0.0 5.1787376 142.4246 0.0 8.518902 0.0 0.0 0.0
56.530106 121.293 0.0 178.30428 0.0 15.876173 0.1598261 0.0012558938
0.0 0.0 16.964935 8.055437 179.42441 1.8860098 135.16597 0.0
0.0 88.75243 0.0 5.68886 70.694405 0.027512196 0.0 0.0
0.0 0.0 0.0 0.0 0.0 186.04733 120.01337 59.21655
0.0 0.0 13.221683 0.0 0.0 138.46378 0.0 13.081487
0.0 74.61614 83.566444 10.641595 0.5873651 7.775975 0.0 148.48376
0.0 14.757643 92.34614 0.0 0.0 162.87215 0.0 149.33958
8.415355 8.694718 128.70702 79.66184 7.885877 2.7127895 0.00070172973 0.0
17.787676 0.0 0.0 0.0 0.0 0.0 12.615745 0.0
0.0 137.59618 2.2865465 5.338498 5.404926 0.0 83.062454 2.2283294
0.0 105.5364 0.0 0.0 0.0 0.0 0.0 0.0
0.0 200.9667 4.1292467 133.76746 0.0 9.952263 0.0 16.026184
0.37725624 0.0 14.370401 141.55722 6.1810536 3.7556655 195.03436 117.60337
0.0 112.44438 0.0 0.0 0.0 10.026455 0.0 0.0

bn1.running_var f4 [200]
00000000: 347e ff43 ccdc 363f 2bf6 273f ad20 c444
00000010: 2bf6 273f 084c 0845 63ec f740 1ec1 b33f
00000020: 2bf6 273f 2d02 0644 b665 8540 79d3 ae44
00000030: 2bf6 273f 4364 9d43 e49b a044 2bf6 273f
00000040: 99df c343 2bf6 273f c851 4344 2bf6 273f
00000050: d608 1a40 4b69 2641 f53d 0c43 2bf6 273f
00000060: 0b37 3a44 2bf6 273f bcc7 4140 8da2 1e45
00000070: e666 fa43 db1f a343 2bf6 273f 8b0b cc3f
00000080: be03 4840 5c30 1f44 2af6 3744 b48c 9344
00000090: 2bf6 273f 483e 7044 3e86 2a44 8418 bb40
000000a0: 9aff 6a40 542d 5a40 2bf6 273f 04db eb3f
000000b0: 0b97 8941 44cf 3940 c5be 8940 2bf6 273f
000000c0: 2bf6 273f 7695 3e44 f350 9244 10f0 9c44
000000d0: 44a9 0c41 7668 8d44 dc5b 6e40 2bf6 273f
000000e0: 279f 7440 d9a3 9044 9167 9840 4b10 0b44
000000f0: 2bf6 273f 2bf6 273f 2bf6 273f 3b81 be44
00000100: 3d2b 1844 7111 4a40 f23d d143 97c1 2544
00000110: 549c 0541 007b d740 f19f ba40 c189 cf43
00000120: 46bb 9b44 6176 0941 df3c e640 2bf6 273f
00000130: 563e c240 2bf6 273f dadc 1040 2bf6 273f
00000140: 2bf6 273f 127d c240 b1f9 8544 2bf6 273f
00000150: d709 9d40 2bf6 273f 2bf6 273f 2bf6 273f
00000160: e883 ba43 085c 1744 2bf6 273f 34ad 2744
00000170: 2bf6 273f 645e 9943 a0d4 c23f 2961 293f
00000180: 2bf6 273f 2bf6 273f 81ea f042 1810 fd40
00000190: 8b3a 8144 a5fa 9c40 d78a 0345 2bf6 273f
000001a0: 2bf6 273f a946 2a44 2bf6 273f 2382 b040
000001b0: 6ce5 b143 2bcd 763f 2bf6 273f 2bf6 273f
000001c0: 2bf6 273f 2bf6 273f 2bf6 273f 2bf6 273f
000001d0: 2bf6 273f 95aa 7744 2ea5 8844 8070 f743
000001e0: 2bf6 273f 2bf6 273f 950d 8e41 2bf6 273f
000001f0: 2bf6 273f d5f4 9e43 2bf6 273f 0e9d 3340
00000200: 2bf6 273f f123 4044 81f2 1e44 d2f5 9e40
00000210: 6fed 2040 df0a 3241 2bf6 273f 6cdd 5244
00000220: 2bf6 273f fb80 4242 f43e e343 2bf6 273f
00000230: 2bf6 273f d09a f443 2bf6 273f f7c8 3944
00000240: 87ec 4a41 3d92 ac40 de2a 1444 4839 3d44
00000250: 861c 3440 038f 4440 3822 283f 2bf6 273f
00000260: 5057 7843 2bf6 273f 2bf6 273f 2bf6 273f
00000270: 2bf6 273f 2bf6 273f e46f 6641 2bf6 273f
00000280: 2bf6 273f 88be a944 c166 e440 bf61 8040
00000290: b482 a140 2bf6 273f 96ca 9644 c1f0 a740
000002a0: 2bf6 273f 53af a944 2bf6 273f 2bf6 273f
000002b0: 2bf6 273f 2bf6 273f 2bf6 273f 2bf6 273f
000002c0: 2bf6 273f a4b9 2845 a007 4941 487b e944
000002d0: 2bf6 273f efa8 8f40 2bf6 273f d6f4 4841
000002e0: 4031 1d40 2bf6 273f b0f1 0c41 d692 4144
000002f0: b5e8 0441 cbab 0141 c771 db44 951b 2244
00000300: 2bf6 273f bf7b 9744 2bf6 273f 2bf6 273f
00000310: 2bf6 273f 5c61 2b40 2bf6 273f 2bf6 273f
510.98596 0.7143066 0.6561 1569.0211 0.6561 2180.752 7.747606 1.404331
0.6561 536.034 4.168666 1398.6085 0.6561 314.7833 1284.8716 0.6561
391.74686 0.6561 781.27783 0.6561 2.4067893 10.400706 140.24202 0.6561
744.86005 0.6561 3.0278158 2538.1594 500.8039 326.24887 0.6561 1.5941023
3.1252284 636.7556 735.8463 1180.397 0.6561 960.97314 682.09753 5.8467426
3.6718507 3.4090166 0.6561 1.8426213 17.198751 2.9032755 4.3045373 0.6561
0.6561 762.3353 1170.5297 1255.502 8.791325 1131.2644 3.7243567 0.6561
3.822214 1157.1202 4.7626424 556.2546 0.6561 0.6561 0.6561 1524.0385
608.6756 3.1573145 418.48395 663.02484 8.350666 6.7337646 5.832024 415.0762
1245.8523 8.591401 7.1949306 0.6561 6.0701094 0.6561 2.2634797 0.6561
0.6561 6.0777674 1071.8029 0.6561 4.907451 0.6561 0.6561 0.6561
373.03052 605.438 0.6561 670.7063 0.6561 306.73743 1.5221138 0.6616388
0.6561 0.6561 120.458015 7.9082146 1033.8295 4.9055963 2104.6775 0.6561
0.6561 681.10406 0.6561 5.515886 355.79236 0.9640681 0.6561 0.6561
0.6561 0.6561 0.6561 0.6561 0.6561 990.66534 1093.1619 494.8789
0.6561 0.6561 17.756632 0.6561 0.6561 317.91275 0.6561 2.8064609
0.6561 768.5616 635.7891 4.9675074 2.5144918 11.127654 0.6561 843.4597
0.6561 48.625957 454.49182 0.6561 0.6561 489.20947 0.6561 743.1401
12.682746 5.3928514 592.6698 756.895 2.814241 3.0712287 0.65677214 0.6561
248.34106 0.6561 0.6561 0.6561 0.6561 0.6561 14.402317 0.6561
0.6561 1357.9541 7.137543 4.011932 5.047205 0.6561 1206.3308 5.248139
0.6561 1357.4789 0.6561 0.6561 0.6561 0.6561 0.6561 0.6561
0.6561 2699.6025 12.564362 1867.8525 0.6561 4.489372 0.6561 12.559774
2.456131 0.6561 8.809006 774.2943 8.306813 8.104442 1755.5555 648.43097
0.6561 1211.8671 0.6561 0.6561 0.6561 2.6778173 0.6561 0.6561

bn2.weight f4 [20]
00000000: e8cf ec3f 2cf9 fe3c 247d ff3f cfc1 913f
00000010: 583c ff3f eb18 0fbe 29c7 ea3f 92e0 9f3f
00000020: 1161 c73f 4626 9a3f f4fd eb3f 92a1 e03e
00000030: 26c0 5240 e013 7bbf 9006 ef3f f6a3 fe3f
00000040: 2297 db3f 7cdf ab3f 7d86 ff3f f41c 9e3f
1.8500948 0.031124674 1.9960065 1.1387271 1.994029 -0.13974349 1.8342029 1.2490408
1.5576497 1.204293 1.8436875 0.43873268 3.2929778 -0.980772 1.8673878 1.9893787
1.7155497 1.3427577 1.9962918 1.2352586

bn2.bias f4 [20]
00000000: 5ab4 0d40 89f6 9bbf 3879 ffbf a00b f73f
00000010: 4339 ffbf 9ed6 1940 d0ff 0c40 dff8 0040
00000020: 256b f5bf 2ea1 0040 5cd8 fdbf f278 17c0
00000030: 6ed2 bbbf 12f6 f3bf 06a7 0d40 2280 ffbf
00000040: f64b fcbf 34f2 0040 c285 ffbf 6927 0140
2.2141328 -1.2184612 -1.9958868 1.9300423 -1.993935 2.4037242 2.2031136 2.01519
-1.9173323 2.0098376 -1.9831653 -2.366757 -1.4673593 -1.905947 2.2133193 -1.9960978
-1.9710681 2.014783 -1.9962695 2.0180304

bn2.running_mean f4 [20]
00000000: 4643 ae3d dc52 d13d eb77 623f f88c e53e
00000010: ce80 143f 0bb4 673d 68cf 323e 56f6 cf3e
00000020: 0346 0c3f c984 713e db48 0d3f 8f20 2c3e
00000030: a741 383d 433b b63e 2f9b 963e 890d 0c3f
00000040: 068b e23d 9cac ed3d 35f5 1c3e 91c6 5b3e
0.08508925 0.10220882 0.8846423 0.44834113 0.5800904 0.056568187 0.17461932 0.40617627
0.5479433 0.2358581 0.55189294 0.16809295 0.044984486 0.35592088 0.2941527 0.54708153
0.11061673 0.11605188 0.15327914 0.21462466

bn2.running_var f4 [20]
00000000: 8fde 333f 93b1 433f b562 0d40 d60d 2340
00000010: c7bd 963f b362 2f3f ea52 943f 269c 4740
00000020: 1e24 b13f 383c ec3f 1288 823f e96b ad3f
00000030: 0688 2c3f 0b96 863f 4d40 1640 63a6 823f
00000040: ca89 4b3f 89ee 8b3f 0b7c d63f 8fa7 fc3f
0.7026147 0.7644283 2.2091496 2.5477195 1.1776665 0.6850998 1.1587803 3.1189055
1.3839147 1.8455877 1.0197775 1.3548557 0.67395055 1.051454 2.3476746 1.0207027
0.79507124 1.093217 1.6756605 1.9738635

bn3.weight f4 [20]
00000000: 7c16 3340 3233 3340 53b5 dc3f 5ced df3f
00000010: e968 3240 ae37 3340 9338 df3f a7f2 df3f
00000020: 13af e13f e1a9 d1bb ea4f dd3f 433d df3f
00000030: 8e57 df3f 6432 e23f 87a4 dd3f a030 3340
00000040: b428 de3f edac 3240 de25 3340 cb16 3340
2.7982473 2.7999997 1.7242836 1.7494311 2.7876532 2.8002734 1.743914 1.7495927
1.7631553 -0.006398425 1.7290013 1.744057 1.7448595 1.7671628 1.7315835 2.7998428
1.7356172 2.7918046 2.7991862 2.7982662

bn3.bias f4 [20]
00000000: e916 33c0 cd32 33c0 3246 3240 9dcd 3140
00000010: 2d97 32c0 5437 33c0 d762 3240 3cb5 3140
00000020: c62c 3140 4c2f 6140 cf4a 3240 3b3a 3240
00000030: 7f61 3240 a20a 3140 4e23 3240 e533 33c0
00000040: b078 3240 5394 33c0 9826 33c0 1117 33c0
-2.7982733 -2.7999756 2.7855344 2.7781746 -2.790477 -2.800252 2.7872827 2.7766867
2.7683578 3.5185118 2.785816 2.784804 2.7872007 2.766274 2.7834048 -2.8000424
2.7886162 -2.805928 -2.7992306 -2.7982829

bn3.running_mean f4 [20]
00000000: 9e97 8b3e 0a6c 833e 30e9 6a3d 1677 f83d
00000010: bad1 6a3e 6139 983e 79ae 0a3e d5cd 133e
00000020: 46a6 e43d f182 9e3d e01c ef3d 4618 153e
00000030: 5adb 143e 3066 093e cc60 263e 1768 213e
00000040: 25aa a53d 6526 053d af31 833e 4558 743e
0.27264112 0.25668365 0.05735129 0.12132089 0.22931567 0.29731277 0.13543119 0.14433987
0.11164527 0.07739819 0.11675429 0.14560041 0.14536801 0.13417888 0.16247863 0.15762363
0.08089093 0.03250732 0.25623843 0.23861797

bn3.running_var f4 [20]
00000000: 925d 4b3f 9327 493f 2e63 363f d111 5b3f
00000010: 39c6 3c3f b542 503f 69b4 683f 1281 5e3f
00000020: f0e3 813f d1d5 3c3f beb3 623f 82f5 613f
00000030: 46bf 7e3f 36a4 833f 36c0 503f 8912 333f
00000040: a74d 483f 4a23 333f 5ba7 413f cf63 4d3f
0.7943965 0.7857601 0.71245086 0.8557406 0.73739964 0.81351787 0.90900284 0.86915696
1.0147686 0.7376376 0.88555515 0.8826524 0.9951061 1.0284488 0.8154329 0.6995016
0.7824349 0.6997572 0.7564599 0.8023042
