Results/NN_MLP_MLs/MLP_Ensemble/Model_Results/AllVar/test3/best_model_1.pt (torch, 131122 bytes, 14 tensors)

country_embedding.weight f4 [8, 10]
-0.60465 -0.49661803 -1.3112205 -1.9988514 0.54115665 -0.73892367 -1.7927169 -2.4629
0.13450854 -0.6410355 -0.2609154 0.74089354 0.38841537 0.25573874 0.43537167 0.5463141
-1.1253858 -1.7623099 1.1137041 -0.2414807 2.404047 -0.5775593 -2.368956 2.1479135
2.2094488 0.3874739 -3.9688084 -3.2075512 1.6672189 -2.1186898 0.4268011 1.6185268
0.6001973 -1.8572855 -2.063817 -2.7837539 -1.279587 -1.4188092 1.5926859 -1.8718768
0.8287392 1.0444145 -0.82872003 -0.78358924 1.8652636 -1.6752911 0.80158865 -1.4569091
-0.034185603 -0.4751888 1.7403594 -1.9398133 -0.70806193 1.9622939 2.6917546 3.5431151
-1.3029324 -0.4910422 1.5060909 -2.387135 2.3072414 -1.4320024 -4.5982895 -0.09711274
0.36853984 -0.5752915 -1.4010663 -2.0195081 0.5800756 -0.72739345 3.0511122 1.0644299
-1.9278548 -1.1197553 -1.8898863 -1.7766811 -1.7756262 -1.841028 1.74824 -2.3480265
00000000: 58ca 1abf b844 febe 13d6 a7bf 5dda ffbf
00000010: 3e89 0a3f 1a2a 3dbf bf77 e5bf 27a0 1dc0
00000020: 9bbc 093e e71a 24bf b496 85be 33ab 3d3f
00000030: 61de c63e 30f0 823e 09e9 de3e 3edb 0b3f
00000040: a40c 90bf 5f93 e1bf db8d 8e3f b746 77be
00000050: e8db 1940 edda 13bf fa9c 17c0 6a77 0940
00000060: 9c67 0d40 fb62 c63e f500 7ec0 8548 4dc0
00000070: 6e67 d53f 9d98 07c0 ac85 da3e e32b cf3f
00000080: 88a6 193f 88bb edbf 9415 04c0 0629 32c0
00000090: 82c9 a3bf 8a9b b5bf 22dd cb3f a999 efbf
000000a0: 4128 543f 60af 853f ff26 54bf 4e99 48bf
000000b0: f5c0 ee3f f06f d6bf ea34 4d3f ff7b babf
000000c0: 3406 0cbd f24b f3be 19c4 de3f cd4b f8bf
000000d0: 8c43 35bf 722c fb3f b545 2c40 66c2 6240
000000e0: 7dc6 a6bf e269 fbbe 96c7 c03f d2c6 18c0
000000f0: d8a9 1340 db4b b7bf 3025 93c0 0be3 c6bd
00000100: 41b1 bc3e 4e46 13bf 2456 b3bf 9f3f 01c0
00000110: d67f 143f 7536 3abf 6c45 4340 3d3f 883f
00000120: f2c3 f6bf 2454 8fbf cbe7 f1bf 496a e3bf
00000130: b847 e3bf cea6 ebbf 54c6 df3f 1146 16c0

fc1.weight f4 [200, 132]
1.7410914 -1.2373914 0.30813277 0.80465174 0.41017088 0.45171106 0.630945 0.17058095
0.59116405 0.5746431 0.5093215 0.46508947 0.36648658 0.48227027 0.48156732 0.6485224
0.62310773 0.05713689 -0.036773924 0.06589156 0.26918167 0.2759707 0.1301102 0.17672943
0.25291988 0.12126328 0.5022724 0.22514234 0.4272671 0.28143203 0.39342844 0.44430286
0.47596306 0.054901946 1.720755 0.064953364 0.90936375 0.22051874 1.0652643 0.8321205
0.15895179 0.22992656 0.30582112 0.66944927 0.37079704 0.3919932 0.64918876 0.10418579
0.68479323 0.57927525 0.42805618 0.4285266 0.6134214 0.49629426 0.61318564 0.38214222
0.6277214 0.2999236 -0.059268896 0.019148352 0.14957917 0.28193963 0.027687438 0.17088489
0.3361181 0.1755749 0.45217672 0.24872805 0.4207463 0.32201058 0.33595878 0.46432716
0.38336843 0.109669246 1.4111493 -0.0560196 0.45984346 0.23464741 1.1589625 0.6788195
-0.13278206 0.007626989 0.26916575 0.73345166 0.29000717 0.50298774 0.33140513 0.09764838
0.42585486 0.36984485 0.3960756 0.48248652 0.55524105 0.49361444 0.5997752 0.47377822
0.56355697 0.17703784 -0.059962694 0.16026066 0.16769826 0.28503817 0.0060542137 0.12184912
0.2530432 0.27526298 0.34347692 0.15275209 0.36465034 0.21633098 0.3965783 0.34578478
0.35255057 0.117588975 1.518 -0.06122518 0.31897384 0.3681796 1.1661171 0.50896895
0.025968254 -0.20749804 1.1548395 1.3046714 -1.0072371 -1.1317817 -0.6994695 -1.3180511
-1.2854122 -1.4997113 1.2482193 -1.2365217 -0.7405379 -0.6610407 -0.040715095 0.38399947
0.82775885 0.6223405 -0.61217386 0.40268087 0.5319686 0.034618977 0.39207724 0.48728392
1.0462141 0.60145277 0.50351566 0.19717285 0.3411834 0.44509616 -0.07711883 0.31284028
0.58822787 0.52364194 -0.43455577 0.2783635 0.47769237 0.11307233 0.50513875 0.17078269
0.3287883 0.40644535 0.30331168 0.4914549 0.38756418 0.18569537 -1.2865012 -0.06151565
-1.1693023 0.2514398 1.486729 -0.40297955 -0.14250529 -0.32888037 -0.008636797 0.48501322
0.7990544 0.79407376 -0.620758 0.32444277 0.6167685 0.20101877 0.5759738 0.8246641
0.8835467 0.7343961 0.5880695 0.5194626 0.36999083 0.08705429 -0.034840517 0.4069975
0.5232315 0.61437523 -0.4348964 0.22040017 0.46313375 0.052291628 0.4093537 0.2433351
0.38243723 0.4429495 0.34204748 0.5196599 0.40366095 0.14099579 -1.1316265 0.07323855
-0.9626086 0.2629955 1.4646719 -0.36987618 -0.280756 -0.57248354 0.043839753 0.5067304
0.77600396 0.7615778 -0.32140425 0.35839775 0.6093932 0.20534179 0.7576979 0.58012986
0.7881106 0.7034304 0.5069109 0.5805378 0.32793897 0.36343217 -0.073484406 0.35861856
0.42070237 0.50914276 -0.34166682 0.17189611 0.5081195 0.10889254 0.50075233 0.27198538
0.38305113 0.40747926 0.25022402 0.46188974 0.46802068 0.15405954 -1.0058664 0.019745665
-0.88055354 0.18331909 1.533864 -0.22724289 -0.19912884 -0.45679834 -0.124671735 -0.33281025
00000000: 15dc de3f d762 9ebf 94c3 9d3e a8fd 4d3f
00000010: eb01 d23e ac46 e73e 9d85 213f c6ac 2e3e
00000020: 8756 173f cf1b 133f e562 023f 3520 ee3e
00000030: 21a4 bb3e 21ec f63e fe8f f63e 9005 263f
00000040: fd83 1f3f 5f08 6a3d 41a0 16bd 27f2 863d
00000050: 2ed2 893e 084c 8d3e 9c3b 053e 8ff8 343e
00000060: b77e 813e e258 f83d ed94 003f b78b 663e
00000070: c1c2 da3e dc17 903e 746f c93e aa7b e33e
00000080: 6eb1 f33e dde0 603d b341 dc3f 4506 853d
00000090: 10cc 683f aacf 613e 955a 883f d905 553f
000000a0: 42c4 223e de71 6b3e 9694 9c3e 0761 2b3f
000000b0: 1cd9 bd3e 55b3 c83e 3c31 263f 5c5f d53d
000000c0: 9c4e 2f3f 624b 143f 2e2a db3e d767 db3e
000000d0: 2f09 1d3f 481a fe3e bcf9 1c3f 25a8 c33e
000000e0: 5ab2 203f 968f 993e f1c3 72bd 01dd 9c3c
000000f0: 482b 193e 645a 903e c4d0 e23c 73fc 2e3e
00000100: ac17 ac3e e8c9 333e b583 e73e 91b2 7e3e
00000110: 0f6c d73e 92de a43e ca02 ac3e 4abc ed3e
00000120: de48 c43e 459a e03d 8aa0 b43f cf74 65bd
00000130: 9a70 eb3e 6947 703e e258 943f 1dc7 2d3f
00000140: 05f8 07be d2eb f93b 18d0 893e 7dc3 3b3f
00000150: d27b 943e cec3 003f efad a93e e0fb c73d
00000160: a609 da3e 4e5c bd3e 6cca ca3e 7908 f73e
00000170: 4724 0e3f 08bb fc3e de8a 193f 0f93 f23e
00000180: 4545 103f 6849 353e 719b 75bd 5f1b 243e
00000190: 18b9 2b3e 86f0 913e 6d62 c63b 088c f93d
000001a0: e18e 813e 45ef 8c3e 35dc af3e 0b6b 1c3e
000001b0: 73b3 ba3e de85 5d3e 500c cb3e b40a b13e
000001c0: 8281 b43e 7dd2 f03d d34d c23f 41c7 7abd
000001d0: 8a50 a33e 0982 bc3e 5343 953f ca4b 023f
000001e0: 60bb d43c 5e7a 54be c8d1 933f 79ff a63f
000001f0: 25ed 80bf 39de 90bf 6f10 33bf e6b5 a8bf
00000200: 6388 a4bf 8af6 bfbf a6c5 9f3f 5846 9ebf
00000210: e493 3dbf f739 29bf dfc4 26bd 949b c43e
00000220: 01e8 533f b551 1f3f 6db7 1cbf 302c ce3e
00000230: 182f 083f a1cc 0d3d 59be c83e 477d f93e
00000240: 58ea 853f cff8 193f 67e6 003f aee7 493e
00000250: 97af ae3e a5e3 e33e 7af0 9dbd 9a2c a03e
00000260: 1a96 163f 660d 063f 187e debe a985 8e3e
00000270: 1894 f43e 7792 e73d c650 013f a8e1 2e3e
00000280: f156 a83e 9b19 d03e ab4b 9b3e fa9f fb3e
00000290: d06e c63e ed26 3e3e 12ac a4bf d6f7 7bbd
000002a0: b3ab 95bf b8bc 803e 234d be3f 5653 cebe
000002b0: e8ec 11be 0263 a8be 5a81 0dbc a753 f83e
000002c0: d48e 4c3f 6b48 4b3f ffe9 1ebf 5d1d a63e
000002d0: 8ae4 1d3f ddd7 4d3e 0573 133f 301d 533f
000002e0: 1e30 623f 6201 3c3f b98b 163f 80fb 043f
000002f0: 706f bd3e 8549 b23d eeb4 0ebd fa61 d03e
00000300: 80f2 053f b247 1d3f beaa debe 95b0 613e
00000310: de1f ed3e bf2f 563d cf96 d13e d62c 793e
00000320: d0ce c33e 47ca e23e d920 af3e 6e08 053f
00000330: a6ac ce3e 3361 103e 23d9 90bf 18fe 953d
00000340: 846d 76bf 59a7 863e 5e7a bb3f 6960 bdbe
00000350: 40bf 8fbe 488e 12bf 5091 333d 15b9 013f
00000360: 32a8 463f c3f6 423f 198f a4be e97f b73e
00000370: 3101 1c3f 1e45 523e 7df8 413f 6483 143f
00000380: 9ec1 493f 0414 343f eac4 013f 209e 143f
00000390: 9ee7 a73e c813 ba3e fe7e 96bd da9c b73e
000003a0: 4d66 d73e 2e57 023f f4ee aebe 8905 303e
000003b0: 1f14 023f 0d03 df3d 4e31 003f ab41 8b3e
000003c0: 471f c43e 1fa1 d03e 5d1d 803e d07c ec3e
000003d0: 68a0 ef3e c9c1 1d3e 3bc0 80bf a9c1 a13c
000003e0: f56b 61bf 00b8 3b3e a855 c43f 5cb2 68be
000003f0: 6ee8 4bbe 79e1 e9be e553 ffbd 1b66 aabe

fc1.bias f4 [200]
1.3607492 -0.5894705 1.0645387 1.369066 1.3542018 -0.45906958 1.1687056 -0.38876012
1.166772 -0.58378875 -0.51190424 1.2248329 1.1495159 -0.37820244 -0.37222284 1.3487258
1.3573856 1.3325418 1.4491804 1.3754574 -0.40679446 1.4463035 -0.55910206 1.1461831
-0.51454484 -0.38644 1.5418172 1.3492802 -0.34703612 -0.7395237 -0.8590277 1.236507
1.4902574 1.2734753 1.2726687 1.4065096 1.5003479 1.2089323 1.575436 1.3135253
1.3191 1.4841812 1.3679339 1.403426 -0.14770773 -0.55103457 1.2119532 1.3612769
1.4538709 -0.5558003 -0.7813271 1.2444113 1.3813694 1.2716886 -0.44727266 1.3006655
1.0917819 -0.5241984 1.2344666 -0.49341768 -0.6655993 1.204604 1.4317766 1.1789922
1.3809133 1.4420197 -0.57650024 1.320674 -0.44518214 1.0459425 1.1153167 1.3218036
1.163591 -0.44846314 1.3893685 1.3031411 -0.49853906 1.1989211 1.16867 1.2569649
-0.508857 -0.62819815 -0.56340575 -0.49515516 -0.122940265 1.2004724 1.1608659 1.414299
1.376221 -0.7997778 1.472209 -0.23333295 1.3261958 -0.8339369 1.3836513 1.2900894
1.3385351 1.3751912 -0.69620377 1.1290977 1.2291982 -0.4605672 1.1101234 -0.7525721
-0.3795709 -0.6707138 1.2964898 1.627887 -0.2821405 1.3374587 -0.5419321 -0.45467523
1.3304023 1.2565042 -0.9256859 1.1931565 -1.0025383 1.3381426 1.3230366 1.341148
-0.16182482 1.1350166 -0.79303163 -0.9084162 1.232473 1.1828002 -0.54703027 1.3158557
1.2782553 -0.5034128 1.4193382 1.556508 1.0385752 1.3601172 -0.70586205 1.2737852
1.2592797 -0.49762574 1.2874323 1.3825376 -0.9376533 1.3026272 -0.78460294 1.2688409
1.4866174 1.2382677 1.1657056 1.2900157 -0.3987699 1.3318903 -0.3605945 -0.7885379
-0.41299003 1.4515957 1.1291007 -0.35601828 -0.53484917 1.4097348 1.3586353 -0.7413216
-0.13466763 -0.4458359 1.2539493 -0.73966885 -0.8630607 1.3566447 1.4321204 -0.5563677
1.5749898 1.3546772 -0.5597385 1.106486 -0.70046574 1.6036267 1.5458133 -0.7240008
1.4777169 1.3530995 1.2932103 1.4041537 -0.5619546 1.3048424 1.3655064 1.5078338
-0.37613493 1.478337 1.2130569 1.2274933 1.5863146 -0.38774908 1.3852385 1.2563869
1.3503504 -0.73342127 1.4069389 1.3253008 1.4042451 1.0382948 1.2739762 1.3114805
00000000: 082d ae3f 8ae7 16bf ce42 883f 8e3d af3f
00000010: 7c56 ad3f 2b0b ebbe 2598 953f 910b c7be
00000020: c958 953f 2e73 15bf 280c 03bf 53c7 9c3f
00000030: 5623 933f c0a3 c1be fe93 bebe 0ca3 ac3f
00000040: d0be ad3f bb90 aa3f be7e b93f fd0e b03f
00000050: 5d47 d0be 7920 b93f 5021 0fbf 21b6 923f
00000060: 36b9 03bf 77db c5be 445a c53f 37b5 ac3f
00000070: b8ae b1be 6d51 3dbf 3de9 5bbf dd45 9e3f
00000080: c1c0 be3f 3d01 a33f cfe6 a23f 8208 b43f
00000090: 660b c03f 4bbe 9a3f e3a7 c93f 9921 a83f
000000a0: 45d8 a83f a6f9 bd3f 7518 af3f 77a3 b33f
000000b0: b240 17be 9a10 0dbf 4821 9b3f 523e ae3f
000000c0: 7118 ba3f ee48 0ebf 0e05 48bf df48 9f3f
000000d0: b6d0 b03f b1c6 a23f ec00 e5be 357c a63f
000000e0: 82bf 8b3f de31 06bf 0003 9e3f 3ea1 fcbe
000000f0: b764 2abf 7730 9a3f 7544 b73f 37e9 963f
00000100: c4c1 b03f 1a94 b83f 8595 13bf d80b a93f
00000110: eaee e3be 72e1 853f b3c2 8e3f dc30 a93f
00000120: 8df0 943f f69c e5be d4d6 b13f 54cd a63f
00000130: 8340 ffbe 3f76 993f fb96 953f 3ae4 a03f
00000140: 7444 02bf 98d1 20bf 5c3b 10bf fa84 fdbe
00000150: 1bc8 fbbd 14a9 993f 4197 943f c007 b53f
00000160: 0228 b03f 3dbe 4cbf 5871 bc3f d5ee 6ebe
00000170: c9c0 a93f e47c 55bf 7c1b b13f a621 a53f
00000180: 1e55 ab3f 4406 b03f 693a 32bf 4686 903f
00000190: 5e56 9d3f 77cf ebbe 8618 8e3f 91a8 40bf
000001a0: 1e57 c2be e6b3 2bbf 61f3 a53f 9a5e d03f
000001b0: b874 90be d931 ab3f 10bc 0abf 31cb e8be
000001c0: 9f4a aa3f 21d5 a03f c0f9 6cbf 5ab9 983f
000001d0: 2d53 80bf 4248 ab3f 4359 a93f bdaa ab3f
000001e0: 68b5 25be 3948 913f 1f04 4bbf f78d 68bf
000001f0: adc1 9d3f ff65 973f 2d0a 0cbf f66d a83f
00000200: df9d a33f a9df 00bf e0ac b53f a73b c73f
00000210: 08f0 843f 5218 ae3f 60b3 34bf 650b a33f
00000220: 1430 a13f cdc8 febe 95ca a43f fef6 b03f
00000230: 0c0a 70bf 7dbc a63f bddb 48bf 6169 a23f
00000240: 7b49 be3f 8e7f 9e3f d735 953f 3c1f a53f
00000250: 912b ccbe 627b aa3f d89f b8be 9fdd 49bf
00000260: 6e73 d3be e3cd b93f 5f86 903f 0748 b6be
00000270: e0eb 08bf 3172 b43f c3e7 ad3f 41c7 3dbf
00000280: 50e6 09be 9a44 e4be 6981 a03f f05a 3dbf
00000290: 8cf1 5cbf 89a6 ad3f b94f b73f 1d6e 0ebf
000002a0: 4499 c93f 1066 ad3f 064b 0fbf 55a1 8d3f
000002b0: b951 33bf a443 cd3f 36dd c53f 1e58 39bf
000002c0: d425 bd3f 5d32 ad3f ea87 a53f 4fbb b33f
000002d0: 42dc 0fbf 1305 a73f eac8 ae3f b300 c13f
000002e0: c294 c0be 263a bd3f 7345 9b3f 801e 9d3f
000002f0: 5b0c cb3f 0c87 c6be 7f4f b13f 49d1 a03f
00000300: 48d8 ac3f 7fc1 3bbf 9316 b43f 75a3 a93f
00000310: 4ebe b33f d8e6 843f a711 a33f 98de a73f

fc2.weight f4 [20, 200]
0.6371134 -1.8342133 0.7684087 1.422502 0.73087573 -1.7525328 0.67921466 -1.7909361
0.8409104 -1.9073168 -1.6134111 0.7425225 0.72374135 -1.6828027 -1.674519 0.7513566
0.822795 0.7174713 1.3928298 1.0330511 -1.6664171 0.7281237 -1.7304485 0.79200685
-1.66904 -1.6446816 1.4906056 0.7169296 -1.6794648 -1.9254026 -1.9486643 0.73825336
1.4098642 0.804021 0.69870204 0.62474537 0.7479253 0.6900908 1.4660268 0.8052747
0.73733187 0.8132605 0.6943547 0.7392945 -2.824575 -1.8660779 0.79702365 0.6497016
1.4431984 -1.6871171 -2.1342275 1.0062484 0.7341398 0.91794074 -2.4053972 0.72762495
0.8187095 -1.692058 0.7542988 -1.7347753 -2.2819445 0.77190167 0.72539276 0.72921956
0.78198284 1.4290736 -1.7426939 0.7699127 -1.7156315 0.69246334 0.9190644 0.79357255
0.73891026 -1.7547388 0.77616704 0.6927718 -1.7304953 0.9821263 0.8019406 0.68731207
-1.730095 -1.8724833 -1.8686485 -1.7476275 -1.4115826 0.9433605 0.8174316 0.74560654
0.7228452 -2.092518 0.7712146 -1.8934062 0.79380554 -2.103993 0.6418016 0.7606643
0.72851914 0.80186903 -1.8019885 0.6840102 0.68329376 -1.7859411 0.76096857 -2.115358
-1.695869 -2.0773652 0.7949224 0.70685613 -1.6746749 0.887519 -1.7008909 -1.6429104
0.7531267 0.67113924 -1.9678628 0.78914994 -1.957879 1.3971024 0.67912334 0.63671255
-2.5810037 0.7544322 -2.230765 -3.158541 0.6905697 0.769448 -1.7998956 0.68893707
0.75469935 -1.7533866 0.6599641 1.3812762 0.7710319 0.7396275 -1.9169389 0.7367776
0.6439615 -1.8040468 0.7368825 0.6883918 -2.2848349 0.70360965 -2.035125 0.6855135
1.4635205 0.80749804 0.7652101 0.6777224 -1.6445858 0.8339068 -1.7760506 -2.105717
-1.6892188 0.64589775 0.9145612 -1.783305 -1.732116 1.4706373 0.7630284 -2.9396737
-2.8157213 -1.7252053 0.80199075 -2.1400905 -4.022356 0.7211445 0.7208553 -1.810211
1.4669755 0.6828648 -1.808837 0.680793 -2.126478 0.7721749 1.3723682 -1.7769393
0.73507166 0.9177084 0.83928597 0.7370709 -1.8547813 0.77381665 0.6872591 0.6787504
-1.6141483 0.66075265 0.7781835 0.76866186 1.433229 -1.7181952 0.6299796 0.6863989
0.76644653 -1.9604473 1.4399471 0.70811033 1.2385933 0.7201262 0.7597337 0.7283266
-0.0050589903 0.022410378 -0.019988386 -0.11137509 -0.048920963 -0.06972967 -0.09022168 -0.075691156
0.028176986 0.0077613173 -0.040852435 -0.051560443 -0.002906105 0.000116547984 -0.048669513 -0.068844564
0.04263493 -0.09516665 -0.067158416 0.0077593694 -0.07256591 -0.046389703 0.015673399 -0.07894425
-0.0049879607 0.05247752 -0.07704789 0.027696548 -0.052081943 -0.032620613 -0.038091183 -0.06330847
-0.081584096 -0.06207388 -0.019284885 -0.031037373 -0.053016692 -0.08518491 -0.087501645 -0.0065910034
0.006045807 -0.039776895 -0.053890057 -0.008550846 0.030339748 -0.013419721 -0.10174537 -0.024788706
-0.08983589 -0.05570717 0.097753584 0.019909509 -0.024755651 0.035901446 0.015002711 -0.018533187
00000000: dd19 233f 80c7 eabf 6fb6 443f 8c14 b63f
00000010: ac1a 3b3f ff52 e0bf 03e1 2d3f 653d e5bf
00000020: e745 573f f522 f4bf 4184 cebf f415 3e3f
00000030: 1d47 393f 1466 d7bf a356 d6bf e858 403f
00000040: b1a2 523f 33ac 373f 3f48 b23f 053b 843f
00000050: 284d d5bf 5166 3a3f 567f ddbf f6c0 4a3f
00000060: 1aa3 d5bf ed84 d2bf 2acc be3f b388 373f
00000070: b4f8 d6bf 9873 f6bf d56d f9bf 2cfe 3c3f
00000080: 6e76 b43f 52d4 4d3f 23de 323f 50ef 1f3f
00000090: 0878 3f3f caa9 303f c4a6 bb3f 7c26 4e3f
000000a0: c8c1 3c3f d731 503f 3bc1 313f 6842 3d3f
000000b0: d6c5 34c0 a4db eebf be09 4c3f d852 263f
000000c0: baba b83f 74f3 d7bf 2f97 08c0 bfcc 803f
000000d0: 96f0 3b3f 2afe 6a3f 07f2 19c0 a145 3a3f
000000e0: f296 513f 5b95 d8bf ba19 413f 1e0d debf
000000f0: 610b 12c0 599b 453f 57b3 393f 22ae 3a3f
00000100: 0730 483f e2eb b63f 9810 dfbf 0019 453f
00000110: d099 dbbf 4745 313f ce47 6b3f 9227 4b3f
00000120: 3929 3d3f 489b e0bf e2b2 463f 7e59 313f
00000130: df80 ddbf a16c 7b3f fb4b 4d3f aff3 2f3f
00000140: c173 ddbf 88ad efbf e02f efbf 42b2 dfbf
00000150: bdae b4bf 1380 713f 3343 513f 12e0 3e3f
00000160: 620c 393f d1eb 05c0 526e 453f 225b f2bf
00000170: d736 4b3f d2a7 06c0 1c4d 243f e5ba 423f
00000180: 3b80 3a3f 4a47 4d3f 8fa7 e6bf 4b1b 2f3f
00000190: 57ec 2e3f b899 e4bf d6ce 423f 0762 07c0
000001a0: 3c12 d9bf 8df3 04c0 0980 4b3f 86f4 343f
000001b0: bf5b d6bf 7234 633f cbb6 d9bf e34a d2bf
000001c0: e9cc 403f c8cf 2b3f eee2 fbbf bb05 4a3f
000001d0: c79b fabf 40d4 b23f 07db 2d3f 98ff 223f
000001e0: 2a2f 25c0 7822 413f dbc4 0ec0 8925 4ac0
000001f0: 2dc9 303f 8bfa 443f fb62 e6bf 2e5e 303f
00000200: fa33 413f f96e e0bf 68f3 283f a9cd b03f
00000210: 5962 453f 3a58 3d3f 415e f5bf 759d 3c3f
00000220: a9da 243f 01eb e6bf 55a4 3c3f 723a 303f
00000230: bc3a 12c0 c31f 343f 7d3f 02c0 d07d 2f3f
00000240: a454 bb3f 31b8 4e3f cfe4 433f 377f 2d3f
00000250: ca81 d2bf eb7a 553f a055 e3bf 11c4 06c0
00000260: 5238 d8bf 8e59 253f af20 6a3f 5743 e4bf
00000270: fab5 ddbf d83d bc3f d455 433f 9d23 3cc0
00000280: c734 34c0 87d3 dcbf 444f 4d3f 3ef7 08c0
00000290: 24b7 80c0 ed9c 383f f989 383f feb4 e7bf
000002a0: dac5 bb3f 3ad0 2e3f f987 e7bf 7348 2e3f
000002b0: 3718 08c0 41ad 453f c3a9 af3f bf72 e3bf
000002c0: a82d 3c3f f0ee 6a3f 72db 563f aeb0 3c3f
000002d0: 7969 edbf d918 463f 36f0 2f3f 96c2 2d3f
000002e0: 699c cebf 1627 293f 0937 473f 06c7 443f
000002f0: 0c74 b73f d2ed dbbf 5846 213f d7b7 2f3f
00000300: d735 443f f0ef fabf 3050 b83f b846 353f
00000310: 3a8a 9e3f 315a 383f e87d 423f 9d73 3a3f
00000320: e3c5 a5bb f895 b73c afbe a3bc a018 e4bd
00000330: 5961 48bd 6ece 8ebd 25c6 b8bd f703 9bbd
00000340: 6cd3 e63c a652 fe3b e254 27bd 0b31 53bd
00000350: 5a74 3ebb 396b f438 af59 47bd 61fe 8cbd
00000360: f7a1 2e3d bce6 c2bd 5a8a 89bd 4f42 fe3b
00000370: 709d 94bd 2103 3ebd 8065 803c 86ad a1bd
00000380: 0c72 a3bb abf2 563d 49cb 9dbd dfe3 e23c
00000390: e053 55bd 319d 05bd 8005 1cbd dfa7 81bd
000003a0: 9015 a7bd 2e41 7ebd 56fb 9dbc 1742 febc
000003b0: 0828 59bd 6d75 aebd 1034 b3bd 58f9 d7bb
000003c0: e81b c63b 19ed 22bd d2bb 5cbd d918 0cbc
000003d0: 108b f83c 64de 5bbc e05f d0bd af11 cbbc
000003e0: e1fb b7bd 342d 64bd 0833 c83d 4419 a33c
000003f0: 5dcc cabc 650d 133d eecd 753c e9d2 97bc

fc2.bias f4 [20]
1.0952802 -0.029082369 1.0778122 1.244165 1.0195651 0.005748075 0.037225507 1.1020806
1.1586628 0.029960603 -0.029564768 1.1555879 -0.09375125 0.00067624485 0.038091063 1.2160441
-0.018914409 -0.03000451 -0.0373581 1.0385189
00000000: 2432 8c3f 263e eebc c0f5 893f cc40 9f3f
00000010: 1c81 823f 595a bc3b c679 183d fa10 8d3f
00000020: 104f 943f f06f f53c d031 f2bc 4eea 933f
00000030: a800 c0bd 0646 313a 6005 1c3d 55a7 9b3f
00000040: 64f2 9abc 05cc f5bc cf04 19bd 30ee 843f

fc3.weight f4 [1, 20]
1.2965478 -1.0512514 1.2012694 1.2604029 1.2751073 -1.0657517 -1.0952528 1.3810982
1.2858543 -1.2013339 -1.0796534 1.1096767 -1.0393748 -1.0423912 -1.1396215 1.2353206
-1.0891752 -1.1518439 -1.1541623 1.2190126
00000000: 47f5 a53f 688f 86bf 32c3 993f e254 a13f
00000010: b736 a33f 8d6a 88bf 3e31 8cbf d3c7 b03f
00000020: e096 a43f 4fc5 99bf 1532 8abf e309 8e3f
00000030: 3c0a 85bf 136d 85bf 1edf 91bf fc1e 9e3f
00000040: 186a 8bbf 9f6f 93bf 97bb 93bf 9b08 9c3f

bn1.weight f4 [200]
1.7297406 2.923697 1.8396605 2.576745 1.737782 2.8235793 1.7908226 2.8769314
1.8344861 3.0806875 2.9741433 1.7565525 1.7849276 2.8625379 3.015814 1.7498395
1.8298857 1.8057626 2.5668118 2.0578387 2.9892037 1.7349908 2.8086002 1.8464216
2.9440935 2.9709241 2.5323327 1.808128 2.824892 3.0938206 3.1117487 1.8402816
2.5549269 1.8185786 1.7638074 1.7159809 1.7432356 1.7627366 2.5606413 1.8541971
1.7658281 1.7685833 1.7553958 1.7850901 4.7249265 3.0729759 1.8188407 1.736422
2.559352 2.8458562 3.2476232 2.0149784 1.7765571 1.9517378 4.186202 1.8564845
1.8068795 2.919231 1.774199 2.9877093 3.4079514 1.7489854 1.7233618 1.7652378
1.8054757 2.5538495 3.0138757 1.8013242 2.9955764 1.7770294 1.9863659 1.814362
1.7954738 2.9727569 1.789662 1.7820594 3.0060165 1.9912202 1.8016329 1.7862898
2.9615653 2.9706163 3.029642 2.9450872 2.5473201 1.9667681 1.807463 1.779658
1.8124802 3.3043067 1.8485756 3.1882432 1.7855247 3.25974 1.7533184 1.8206456
1.7348449 1.7962638 2.9063027 1.7619255 1.7551606 2.9794385 1.7863542 3.2418737
3.1010613 3.195535 1.7835 1.7421337 2.7861083 1.9342364 2.9571111 2.9514008
1.8162817 1.7492244 3.0925114 1.8320947 3.0954342 2.5809073 1.799936 1.7268751
4.1191044 1.8116595 3.3105192 4.4051943 1.7976989 1.8353364 3.04352 1.7358025
1.7494524 3.0276587 1.7485181 2.5281465 1.7930089 1.7805889 2.9767392 1.8062435
1.7301792 2.9948509 1.7766385 1.7758137 3.4496372 1.761577 3.165942 1.7538075
2.5372777 1.8053174 1.8169293 1.7496693 3.003892 1.8119506 2.846121 3.2457867
3.0010471 1.7250783 1.9503214 2.8183618 2.8569834 2.5686939 1.7683026 4.1049175
4.4882035 2.9654284 1.7887837 3.278326 5.4743347 1.7506887 1.7503483 2.8376422
2.55883 1.738628 3.0468297 1.7766261 3.2376926 1.7464023 2.527599 2.9454858
1.731689 1.965326 1.8388504 1.7380459 3.0194643 1.8071808 1.7663095 1.7487686
2.9838667 1.7201613 1.836386 1.7637254 2.5548325 3.0015583 1.7421831 1.7594361
1.8022306 3.204194 2.5657346 1.7844602 2.3010442 1.7954258 1.7643725 1.7605125
00000000: 2468 dd3f da1d 3b40 ff79 eb3f 64e9 2440
00000010: a46f de3f 86b5 3440 ad39 e53f a51f 3840
00000020: 71d0 ea3f fc29 4540 5d58 3e40 b6d6 e03f
00000030: 8278 e43f d233 3740 1903 4140 befa df3f
00000040: b239 ea3f 3b23 e73f a546 2440 a1b3 0340
00000050: 1d4f 3f40 2e14 de3f 1bc0 3340 8b57 ec3f
00000060: 076c 3c40 9f23 3e40 bd11 2240 bd70 e73f
00000070: 08cb 3440 2801 4640 e426 4740 598e eb3f
00000080: ec83 2340 2fc7 e83f 71c4 e13f 43a5 db3f
00000090: 5822 df3f 5aa1 e13f 8ce1 2340 5556 ed3f
000000a0: a806 e23f f060 e23f cfb0 e03f d57d e43f
000000b0: 9932 9740 a3ab 4440 c6cf e83f 1343 de3f
000000c0: 6ccc 2340 8222 3640 0fd9 4f40 68f5 0040
000000d0: 3966 e33f 8bd2 f93f 5ef5 8540 49a1 ed3f
000000e0: d447 e73f aed4 3a40 f418 e33f a136 3f40
000000f0: e01b 5a40 c1de df3f 1f97 dc3f 50f3 e13f
00000100: d419 e73f 4572 2340 57e3 4040 cb91 e63f
00000110: 86b7 3f40 b375 e33f 3d41 fe3f 043d e83f
00000120: 16d2 e53f a641 3e40 a513 e53f 861a e43f
00000130: 9362 4040 4ee0 fe3f e89b e63f 25a5 e43f
00000140: 498a 3d40 941e 3e40 a8e5 4140 4f7c 3c40
00000150: 4b07 2340 0fbf fb3f f35a e73f d5cb e33f
00000160: 5aff e73f c379 5340 209e ec3f 2d0c 4c40
00000170: 138c e43f 959f 5040 bd6c e03f ea0a e93f
00000180: 660f de3f f9eb e53f dd00 3a40 c686 e13f
00000190: 1aa9 e03f 1faf 3e40 41a7 e43f dc7a 4f40
000001a0: ca77 4640 a583 4c40 ba49 e43f 3dfe de3f
000001b0: 994f 3240 0f95 f73f 4f41 3d40 c0e3 3c40
000001c0: eb7b e83f 96e6 df3f b5eb 4540 1482 ea3f
000001d0: 981b 4640 962d 2540 4e64 e63f 3e0a dd3f
000001e0: b4cf 8340 75e4 e73f 8cdf 5340 5af7 8c40
000001f0: ff1a e63f 4eec ea3f 08c9 4240 c72e de3f
00000200: 0eee df3f 29c5 4140 71cf df3f 27cd 2140
00000210: 5181 e53f 56ea e33f e582 3e40 fd32 e73f
00000220: 8376 dd3f a3ab 3f40 e468 e33f dd4d e33f
00000230: dbc6 5c40 5b7b e13f cb9e 4a40 c47c e03f
00000240: c262 2240 a414 e73f 2491 e83f 2af5 df3f
00000250: c43f 4040 ffed e73f d926 3640 f8ba 4f40
00000260: 2811 4040 5ecf dc3f 22a4 f93f 0a60 3440
00000270: d1d8 3640 7b65 2440 bd57 e23f 7c5b 8340
00000280: 5d9f 8f40 94c9 3d40 ddf6 e43f 18d0 5140
00000290: c02d af40 9116 e03f 6a0b e03f ee9b 3540
000002a0: dfc3 2340 5d8b de3f 42ff 4240 7c68 e33f
000002b0: 5b36 4f40 1c8a df3f 2fc4 2140 d782 3c40
000002c0: fca7 dd3f cd8f fb3f 735f eb3f 4a78 de3f
000002d0: e73e 4140 b351 e73f 6e16 e23f a6d7 df3f
000002e0: acf7 3e40 3f2e dc3f b20e eb3f c1c1 e13f
000002f0: 6082 2340 8819 4040 dbff de3f 3435 e13f
00000300: 7eaf e63f 8411 4d40 ff34 2440 3169 e43f
00000310: 4f44 1340 83d0 e53f f5d6 e13f 7958 e13f

bn1.bias f4 [200]
1.3837785 -1.6053239 1.3594574 1.5320129 1.3600391 -1.5941324 1.3627635 -1.5840814
1.3703222 -1.675567 -1.6305681 1.3972529 1.3621134 -1.5942566 -1.6421621 1.3780899
1.3626018 1.3855749 1.586221 1.4497255 -1.6772752 1.3625134 -1.6191688 1.3816282
-1.6513104 -1.6546873 1.6136516 1.3765363 -1.6058711 -1.6754171 -1.6416547 1.366137
1.6177188 1.3569807 1.392646 1.3894054 1.3980267 1.3567042 1.624229 1.4012916
1.357324 1.4070156 1.3965915 1.361415 -1.6366247 -1.7048442 1.3684353 1.3958874
1.6274008 -1.6439877 -1.648382 1.4245886 1.394572 1.3863583 -1.6563213 1.3665086
1.3573935 -1.6411566 1.3973129 -1.6373931 -1.6797636 1.368063 1.3967382 1.353488
1.3625776 1.6358169 -1.6933436 1.3856595 -1.7102946 1.3699721 1.3951494 1.3811169
1.3592838 -1.642159 1.3825815 1.3936673 -1.7102902 1.4140604 1.3933847 1.3819952
-1.6623105 -1.618898 -1.6608785 -1.640365 -1.5395695 1.3858625 1.3686653 1.3472959
1.364925 -1.6701311 1.3715618 -1.6274042 1.3909305 -1.6944132 1.3711363 1.3559179
1.3434322 1.3730665 -1.6293156 1.4043925 1.4006578 -1.6523068 1.3711495 -1.7179588
-1.6651976 -1.6384733 1.3649468 1.3695495 -1.5596399 1.3729422 -1.6867927 -1.6480315
1.3756742 1.3710682 -1.6567081 1.3784506 -1.6391512 1.6110541 1.3744601 1.3844111
-1.6825541 1.3468826 -1.7040057 -1.7372595 1.3657793 1.3965163 -1.6615798 1.385088
1.3770156 -1.6720259 1.3726821 1.5799887 1.3997241 1.3716403 -1.6283005 1.363796
1.4021678 -1.6473821 1.3578212 1.3663425 -1.7072586 1.3536091 -1.6950393 1.355482
1.6307726 1.3575702 1.3669863 1.3981621 -1.6809819 1.3950629 -1.5978583 -1.6687394
-1.6481899 1.3752446 1.4067938 -1.5645012 -1.6764399 1.5902562 1.3519278 -1.6740755
-1.6724267 -1.7037437 1.3698553 -1.6760906 -1.681322 1.3875022 1.3659477 -1.6081935
1.621261 1.3663125 -1.713402 1.400708 -1.6600364 1.3969228 1.6287262 -1.6115193
1.4017158 1.380419 1.3653877 1.3586413 -1.6369443 1.3633842 1.366634 1.3929112
-1.6549302 1.4022032 1.3796382 1.3906373 1.6209112 -1.6463794 1.3783218 1.3517451
1.4079355 -1.6560949 1.5904206 1.3996934 1.4617352 1.3681432 1.3774246 1.3537035
00000000: a71f b13f 417b cdbf b302 ae3f 0019 c43f
00000010: c315 ae3f 880c ccbf 096f ae3f 2ec3 cabf
00000020: b866 af3f fb78 d6bf 75b6 d0bf 2fd9 b23f
00000030: bb59 ae3f 9a10 ccbf 5e32 d2bf 4065 b03f
00000040: bc69 ae3f 855a b13f 4a09 cb3f 9b90 b93f
00000050: f4b0 d6bf d766 ae3f ec40 cfbf 31d9 b03f
00000060: 245e d3bf cbcc d3bf 238c ce3f 5732 b03f
00000070: 2f8d cdbf 1174 d6bf be21 d2bf 94dd ae3f
00000080: 6911 cf3f 8bb1 ad3f 3942 b23f 09d8 b13f
00000090: 8af2 b23f 7ca8 ad3f bce6 cf3f 865d b33f
000000a0: cbbc ad3f 1619 b43f 83c3 b23f d942 ae3f
000000b0: eb7c d1bf 5638 dabf e328 af3f 70ac b23f
000000c0: ab4e d03f 306e d2bf 2efe d2bf eb58 b63f
000000d0: 5681 b23f 3074 b13f 5602 d4bf c1e9 ae3f
000000e0: 12bf ad3f 6b11 d2bf 26db b23f 1996 d1bf
000000f0: 7e02 d7bf b01c af3f 51c8 b23f 183f ad3f
00000100: f168 ae3f 7362 d13f 7cbf d8bf 4a5d b13f
00000110: efea dabf 3f5b af3f 4194 b23f 70c8 b03f
00000120: 03fd ad3f 4432 d2bf 6ef8 b03f b163 b23f
00000130: caea dabf eeff b43f 6e5a b23f 38e5 b03f
00000140: 97c6 d4bf 0d38 cfbf ab97 d4bf 7bf7 d1bf
00000150: 9d10 c5bf f163 b13f 6d30 af3f 3174 ac3f
00000160: ddb5 ae3f dbc6 d5bf 568f af3f c84e d0bf
00000170: 030a b23f 88e2 d8bf 6581 af3f b88e ad3f
00000180: 96f5 ab3f a5c0 af3f 6a8d d0bf 22c3 b33f
00000190: c148 b33f ca7e d3bf d481 af3f 13e6 dbbf
000001a0: 3225 d5bf 7eb9 d1bf 94b6 ae3f 664d af3f
000001b0: 48a2 c7bf 92bc af3f d3e8 d7bf b2f2 d2bf
000001c0: 1816 b03f 2a7f af3f 030f d4bf 1271 b03f
000001d0: b5cf d1bf 0537 ce3f 4fee af3f 6234 b13f
000001e0: ef5d d7bf a666 ac3f dc1c dabf 855e debf
000001f0: dbd1 ae3f 0cc1 b23f a6ae d4bf 904a b13f
00000200: 0c42 b03f f204 d6bf 0cb4 af3f 123d ca3f
00000210: 292a b33f e991 af3f 276c d0bf de90 ae3f
00000220: 3c7a b33f 6bdd d2bf 16cd ad3f 50e4 ae3f
00000230: 7387 dabf 1043 ad3f 0cf7 d8bf 6f80 ad3f
00000240: 28bd d03f dcc4 ad3f 68f9 ae3f faf6 b23f
00000250: 6a2a d7bf 6c91 b23f 9f86 ccbf 4199 d5bf
00000260: e3f7 d2bf 0408 b03f d211 b43f 9341 c8bf
00000270: 9595 d6bf 848d cb3f f80b ad3f 1b48 d6bf
00000280: 1412 d6bf 4614 dabf 6b57 af3f 238a d6bf
00000290: 8f35 d7bf ac99 b13f 60d7 ae3f 49d9 cdbf
000002a0: 7b85 cf3f 54e3 ae3f c250 dbbf 664a b33f
000002b0: 137c d4bf 5ece b23f 1a7a d03f 4446 cebf
000002c0: 6c6b b33f 92b1 b03f 06c5 ae3f f5e7 ad3f
000002d0: 6487 d1bf 6083 ae3f dded ae3f ea4a b23f
000002e0: c1d4 d3bf 657b b33f fc97 b03f 6700 b23f
000002f0: 057a cf3f 8fbc d2bf d96c b03f fc05 ad3f
00000300: 3b37 b43f ebfa d3bf e792 cb3f 2729 b33f
00000310: 241a bb3f 511f af3f 734f b03f 2846 ad3f

bn1.running_mean f4 [200]
0.124487154 0.33483824 0.1919355 0.15611257 0.17307779 0.20778939 0.21469738 0.23381764
0.15915036 0.08834272 0.20902595 0.13161041 0.15553318 0.30969518 0.25829914 0.1747738
0.18200323 0.18255734 0.2996653 0.21731651 0.1910619 0.20337641 0.105139285 0.1886009
0.32036087 0.24646416 0.32773983 0.1683861 0.14994064 0.06137357 0.19075215 0.19851133
0.29598203 0.17062086 0.19118558 0.2193558 0.21156867 0.16258089 0.14465709 0.22837658
0.22351512 0.14956923 0.11697412 0.26331913 0.19028369 0.11223485 0.127567 0.18387686
0.22186042 0.109503835 0.16983631 0.15244448 0.2147486 0.21890166 0.1421781 0.19173104
0.19004731 0.28490004 0.1284529 0.28260982 0.21585183 0.09443083 0.16777574 0.1263699
0.16905148 0.15800026 0.13212106 0.23720238 0.14736973 0.14690241 0.113708295 0.27234492
0.17197277 0.20287657 0.2267756 0.12628117 0.13264811 0.20495147 0.1481305 0.15873094
0.27080393 0.11382416 0.16228521 0.30316353 0.2831082 0.06795579 0.11043799 0.20050366
0.15563768 0.104960956 0.23095152 0.26176077 0.16575195 0.14233543 0.26455978 0.20009029
0.18079741 0.18265562 0.18560265 0.13783346 0.15391482 0.21805364 0.10614856 0.096071765
0.14616314 0.2505023 0.23856331 0.22306503 0.0952012 0.24745654 0.24327771 0.18896955
0.19450264 0.08814083 0.21301062 0.15028733 0.15278754 0.10521369 0.2618166 0.14443114
0.117071055 0.2171655 0.0647155 0.14234361 0.1580126 0.16565512 0.122535005 0.16677228
0.17959899 0.12492683 0.13919048 0.23139228 0.1616397 0.19011497 0.21260564 0.19618717
0.09250269 0.20536534 0.0945115 0.15216069 0.19187814 0.22983027 0.22113656 0.12755862
0.37535623 0.18291903 0.11522632 0.09190712 0.13478997 0.14795753 0.22972728 0.14995097
0.13702266 0.33098772 0.12427321 0.1965574 0.14212433 0.1727403 0.21900888 0.2940248
0.11605423 0.20718838 0.1888961 0.13036937 0.17772609 0.10394791 0.24089189 0.1259769
0.22336282 0.13994133 0.11912699 0.22378047 0.17768468 0.17541921 0.37950128 0.20381638
0.13736093 0.25352427 0.13722445 0.24250887 0.16214742 0.18403755 0.19054395 0.25609934
0.29479468 0.27910233 0.12435618 0.12438696 0.34979862 0.24063557 0.116187975 0.15544961
0.14725432 0.25755915 0.18247128 0.279573 0.25177062 0.17703913 0.16980766 0.24478535
00000000: 1ff3 fe3d eb6f ab3e bd8a 443e f9db 1f3e
00000010: 4e3b 313e bec6 543e a1d9 5b3e e46d 6f3e
00000020: 50f8 223e 07ed b43d e60a 563e e1c4 063e
00000030: 1744 1f3e 5e90 9e3e c93f 843e e7f7 323e
00000040: 0e5f 3a3e 50f0 3a3e bb6d 993e 3888 5e3e
00000050: bba5 433e e841 503e 4453 d73d 9820 413e
00000060: 5706 a43e 1a61 7c3e 84cd a73e 686d 2c3e
00000070: 0a8a 193e da62 7b3d 8854 433e 8e46 4b3e
00000080: f58a 973e 3cb7 2e3e 27c6 433e cf9e 603e
00000090: 75a5 583e 9b7b 263e fd20 143e 8ddb 693e
000000a0: 26e1 643e ad28 193e 2190 ef3d c4d1 863e
000000b0: bad9 423e 63db e53d eca0 023e 374a 3c3e
000000c0: 612f 633e 8c43 e03d 92e9 2d3e 681a 1c3e
000000d0: 0fe7 5b3e c227 603e 2397 113e 2455 443e
000000e0: c39b 423e 6bde 913e 2889 033e 3cb2 903e
000000f0: 4308 5d3e f364 c13d 67cd 2b3e 1c67 013e
00000100: d51b 2d3e d2ca 213e be4a 073e 2ee5 723e
00000110: 17e8 163e 966d 163e e5df e83d cb70 8b3e
00000120: a119 303e e0be 4f3e dd37 683e da4f 013e
00000130: e8d4 073e ccde 513e 86af 173e 5d8a 223e
00000140: d0a6 8a3e a41c e93d 182e 263e 4038 9b3e
00000150: 8ff3 903e 682c 8b3d 502d e23d d550 4d3e
00000160: 7c5f 1f3e c5f5 d63d 8e7e 6c3e 8205 863e
00000170: e1ba 293e 61c0 113e 6174 873e 78e4 4c3e
00000180: f522 393e 130a 3b3e 9f0e 3e3e 3724 0d3e
00000190: d99b 1d3e 7449 5f3e 6b64 d93d 46c1 c43d
000001a0: caab 153e d641 803e f149 743e 296b 643e
000001b0: d9f8 c23d 3f65 7d3e cb1d 793e 3c81 413e
000001c0: b32b 473e 2e83 b43d 751f 5a3e ece4 193e
000001d0: 5674 1c3e 467a d73d d30c 863e c2e5 133e
000001e0: f3c2 ef3d a260 5e3e 8f89 843d 86c2 113e
000001f0: 0ece 213e 7fa1 293e a2f3 fa3d 5ac6 2a3e
00000200: cce8 373e a3d9 ff3d f387 0e3e 19f2 6c3e
00000210: e184 253e 80ad 423e 4bb5 593e 4ae5 483e
00000220: 0d72 bd3d 4b4b 523e 3f8f c13d 03d0 1b3e
00000230: b47b 443e a058 6b3e 9f71 623e ba9e 023e
00000240: b12e c03e 204f 3b3e c7fb eb3d cd39 bc3d
00000250: 6206 0a3e 2e82 173e a13d 6b3e bf8c 193e
00000260: ab4f 0c3e 3977 a93e f482 fe3d 5846 493e
00000270: 0a89 113e d5e2 303e dd43 603e 6b8a 963e
00000280: d7ad ed3d 3129 543e fb6d 413e 8c7f 053e
00000290: d4fd 353e a4e2 d43d 5dac 763e 1700 013e
000002a0: 39b9 643e c84c 0f3e daf8 f33d b526 653e
000002b0: f9f2 353e 18a1 333e fe4d c23e 3eb5 503e
000002c0: 58a8 0c3e efcd 813e 9184 0c3e 3f54 783e
000002d0: f909 263e 5774 3c3e f41d 433e 741f 833e
000002e0: 54ef 963e 80e6 8e3e 74ae fe3d 97be fe3d
000002f0: ce18 b33e 2c69 763e f6f3 ed3d 2f2e 1f3e
00000300: d6c9 163e cbde 833e c0d9 3a3e 3124 8f3e
00000310: 14e8 803e bf49 353e 0fe2 2d3e 03a9 7a3e

bn1.running_var f4 [200]
0.27209938 0.29383257 0.44181514 0.22649969 0.29902756 0.25243336 0.38490355 0.2618494
0.28218022 0.2239548 0.25855842 0.29661208 0.34069562 0.3123686 0.25536036 0.30062222
0.25155213 0.33554024 0.34736001 0.3135776 0.2465493 0.321498 0.21182615 0.27981573
0.29228392 0.25636417 0.30318144 0.29553887 0.23743272 0.19835414 0.37102598 0.274163
0.28193352 0.29982615 0.36828497 0.42446008 0.32293612 0.3348763 0.21960057 0.37238222
0.55395836 0.25780603 0.2716454 0.54938394 0.26031926 0.25780043 0.25074998 0.34269005
0.22993828 0.24579513 0.26028764 0.24203992 0.32954758 0.26586685 0.21964338 0.33158177
0.29913095 0.29690817 0.25712565 0.27409714 0.24397346 0.23668623 0.24876206 0.24639031
0.30352765 0.23228705 0.22412921 0.27161616 0.24521929 0.33644125 0.23884732 0.36740157
0.31724176 0.2427634 0.3537507 0.23793845 0.25301886 0.27462047 0.25127858 0.24015953
0.33234224 0.24682696 0.26650253 0.29234472 0.266357 0.20520258 0.26775154 0.37124252
0.31049508 0.25252149 0.31297514 0.27990407 0.25632983 0.27057767 0.46781194 0.3461581
0.36756477 0.31215334 0.30686215 0.31531787 0.31554598 0.34271565 0.24162087 0.2256689
0.24948844 0.25709763 0.44673002 0.3165225 0.24210453 0.36033604 0.28199816 0.29783893
0.288011 0.24185255 0.37137303 0.2428982 0.2536481 0.22019514 0.38385555 0.3329976
0.21683344 0.49018127 0.20024829 0.2736888 0.35170183 0.28388122 0.25933218 0.33409286
0.3731778 0.27266994 0.30338642 0.37334877 0.35013664 0.3379982 0.2569642 0.33965924
0.22184779 0.28744504 0.23681718 0.23926571 0.37888604 0.56830645 0.24607243 0.33421263
0.36422724 0.33277425 0.28218016 0.24549 0.30479452 0.26997453 0.24238688 0.21795365
0.22633539 0.6044112 0.21763988 0.25993323 0.28891215 0.25665703 0.4820417 0.28466463
0.23035797 0.3550125 0.28619805 0.23235047 0.25081646 0.25515914 0.42181972 0.21677575
0.2561478 0.3093448 0.25447732 0.40215755 0.24843489 0.25389493 0.36991298 0.2562043
0.25248468 0.36342207 0.26952082 0.3964094 0.26146054 0.31457153 0.45017344 0.49367517
0.26454866 0.42500293 0.26563522 0.32350275 0.32086447 0.25277042 0.24749975 0.42541093
0.2553447 0.26309943 0.24002264 0.46090862 0.29187116 0.37337005 0.41708818 0.47762823
00000000: 9c50 8b3e 3971 963e 9835 e23e 89ef 673e
00000010: 241a 993e f23e 813e 1412 c53e 2011 863e
00000020: ed79 903e 6854 653e c561 843e 8add 973e
00000030: a86f ae3e c7ee 9f3e 98be 823e 28eb 993e
00000040: 71cb 803e eecb ab3e 2cd9 b13e 3e8d a03e
00000050: 6b77 7c3e 639b a43e f4e8 583e 0244 8f3e
00000060: 3da6 953e 2a42 833e 993a 9b3e df50 973e
00000070: 9021 733e 591d 4b3e 1ef7 bd3e 185f 8c3e
00000080: 9759 903e d082 993e d98f bc3e d552 d93e
00000090: e257 a53e e874 ab3e f9de 603e e2a8 be3e
000000a0: 37d0 0d3f 27ff 833e 1b15 8b3e 6da4 0c3f
000000b0: 9148 853e 6bfe 833e 4d62 803e 1275 af3e
000000c0: f174 6b3e b8b1 7b3e 6c44 853e 50d9 773e
000000d0: 76ba a83e b31f 883e 32ea 603e 16c5 a93e
000000e0: b127 993e 5904 983e f9a5 833e 7656 8c3e
000000f0: 2ed4 793e e05d 723e 7bbb 7e3e be4d 7c3e
00000100: fa67 9b3e a8dc 6d3e 2182 653e 4611 8b3e
00000110: c41a 7b3e 0742 ac3e 6494 743e 0f1c bc3e
00000120: 836d a23e f896 783e d01e b53e 23a6 733e
00000130: b08b 813e 0e9b 8c3e 96a7 803e 61ec 753e
00000140: c328 aa3e 35c0 7c3e 0573 883e 35ae 953e
00000150: f25f 883e a020 523e bb16 893e 8013 be3e
00000160: 36f9 9e3e 7f4a 813e 473e a03e 964f 8f3e
00000170: aa3d 833e 2889 8a3e 0c85 ef3e a23b b13e
00000180: 7331 bc3e 90d2 9f3e 091d 9d3e 5871 a13e
00000190: 3e8f a13e 6d78 af3e 766b 773e c015 673e
000001a0: e679 7f3e 4da2 833e ccb9 e43e 3d0f a23e
000001b0: 40ea 773e f77d b83e 1062 903e 587e 983e
000001c0: 2e76 933e 32a8 773e 9b24 be3e 4eba 783e
000001d0: 2ade 813e d67a 613e b788 c43e a97e aa3e
000001e0: 9609 5e3e 0af9 fa3e e30d 4d3e f020 8c3e
000001f0: 4312 b43e e158 913e 30c7 843e 380e ab3e
00000200: 2911 bf3e 659b 8b3e 7755 9b3e 9227 bf3e
00000210: 1c45 b33e 1a0e ad3e d090 833e d1e7 ad3e
00000220: 112c 633e ff2b 933e 3480 723e 1202 753e
00000230: 5afd c13e 887c 113f 69fa 7b3e eb1d ab3e
00000240: fe7b ba3e 6361 aa3e eb79 903e bb61 7b3e
00000250: 070e 9c3e 1a3a 8a3e 4434 783e 3e2f 5f3e
00000260: 77c4 673e b1ba 1a3f fddc 5e3e f815 853e
00000270: 4bec 933e 8d68 833e 2bce f63e 90bf 913e
00000280: f6e2 6b3e 33c4 b53e 8d88 923e 48ed 6d3e
00000290: 046b 803e 38a4 823e c1f8 d73e 76fa 5d3e
000002a0: ce25 833e 7162 9e3e da4a 823e 98e7 cd3e
000002b0: b765 7e3e 84fe 813e 3c65 bd3e 362d 833e
000002c0: ac45 813e 7512 ba3e a2fe 893e 2cf6 ca3e
000002d0: 28de 853e 850f a13e 227d e63e fec2 fc3e
000002e0: ec72 873e fc99 d93e 5701 883e 27a2 a53e
000002f0: 5948 a43e 206b 813e 9370 7d3e 76cf d93e
00000300: 8abc 823e f8b4 863e 7fc8 753e 37fc eb3e
00000310: 2370 953e 5c2a bf3e 958c d53e b08b f43e

bn2.weight f4 [20]
2.2611513 2.2597923 2.1340425 2.271936 2.2701175 2.1684213 2.1411781 2.2491262
2.2756777 2.0450146 2.1706893 2.1521506 2.2518423 2.2744396 2.0904243 2.283287
2.1465473 2.0784042 2.0705152 2.286638
00000000: b4b6 1040 70a0 1040 2794 0840 6667 1140
00000010: 9b49 1140 6ac7 0a40 1009 0940 aff1 0f40
00000020: b4a4 1140 85e1 0240 93ec 0a40 d6bc 0940
00000030: 2f1e 1040 6b90 1140 83c9 0540 6021 1240
00000040: 0861 0940 9304 0540 5283 0440 4758 1240

bn2.bias f4 [20]
1.1416987 -1.3004332 1.1078134 1.1704181 1.160379 -1.1772461 -1.1531568 1.091864
1.157273 -1.0529896 -1.1793761 1.1785513 -1.268862 -1.2806696 -1.1027333 1.1955593
-1.1544214 -1.09013 -1.0835053 1.2098916
00000000: 2f23 923f 9874 a6bf d4cc 8d3f 43d0 953f
00000010: 4d87 943f 00b0 96bf a49a 93bf 33c2 8b3f
00000020: 8621 943f 5dc8 86bf ccf5 96bf c5da 963f
00000030: 126a a2bf fbec a3bf 5d26 8dbf 1608 993f
00000040: 15c4 93bf 6189 8bbf 4db0 8abf badd 9a3f

bn2.running_mean f4 [20]
0.26238805 0.23670718 0.20683807 0.3073238 0.33138108 0.38442707 0.3310274 0.30787677
0.22648312 0.3911972 0.32405046 0.24889366 0.34427992 0.25176904 0.33931333 0.3235111
0.38223407 0.3564028 0.3660031 0.20764154
00000000: ba57 863e 5e63 723e 5ccd 533e 8c59 9d3e
00000010: c8aa a93e a0d3 c43e 6c7c a93e 06a2 9d3e
00000020: 31eb 673e 004b c83e f1e9 a53e fbdd 7e3e
00000030: 7545 b03e dfe7 803e 7aba ad3e 3fa3 a53e
00000040: 2fb4 c33e 6e7a b63e c264 bb3e fc9f 543e

bn2.running_var f4 [20]
0.56358385 0.3156442 0.6183041 0.894238 0.7899229 0.31583214 0.30796272 0.69078726
0.45238164 0.3484563 0.30366406 0.54555464 0.337932 0.28776842 0.29640326 0.7688346
0.3457425 0.32058942 0.3034449 0.43925518
00000000: 0847 103f 1e9c a13e 2d49 1e3f c8ec 643f
00000010: 6338 4a3f c0b4 a13e 4aad 9d3e 6fd7 303f
00000020: 919e e73e dd68 b23e db79 9b3e 78a9 0b3f
00000030: 6c05 ad3e 6256 933e 2bc2 973e 58d2 443f
00000040: 2905 b13e 4c24 a43e 215d 9b3e 0ee6 e03e
