Results/NN_MLP_MLs/MLP_Ensemble/Model_Results/MGTwRD/test1/best_model_6.pt (torch, 116722 bytes, 14 tensors)

country_embedding.weight f4 [8, 10]
00000000: 176b 60c1 38a5 5641 467d 3241 e7c6 2a41
00000010: 9175 4dc1 e8be 47c1 95e3 46c1 0a96 4bc1
00000020: cbb8 55c1 4634 6041 3a16 2ac1 9043 5741
00000030: 5193 4741 aa2e 3741 434e 35c1 03eb 69c1
00000040: dec4 69c1 da4e 67c1 6284 4dc1 798e 5a41
00000050: 972b 0641 dcaa 0ec1 6666 11c1 7b26 b8c0
00000060: 7099 d040 22f5 0e41 2f92 1041 98ed f740
00000070: 45c9 0d41 fb44 fec0 73f1 f7c0 e804 0241
00000080: 1832 1841 b8f2 d140 0153 b3c0 b6a5 d5c0
00000090: 7ac6 03c1 c69b 08c1 2211 1ec1 44ca 0241
000000a0: 1c1c 3f40 36e8 6ac0 189e 89c0 c194 d9c0
000000b0: 8a3e b040 4dc2 8b40 b30e 6040 af04 3240
000000c0: 9ece 6740 11bd 5bc0 0f47 40c1 5852 2441
000000d0: 9912 0f41 32fe 2e41 f0a2 31c1 cee8 2ec1
000000e0: ddf6 19c1 9f3e 3ec1 1635 34c1 b679 3d41
000000f0: 54db f0c0 9131 8a40 2b84 b640 1fd3 ad40
00000100: e9ca 9ac0 bf50 b4c0 2dd6 7cc0 5a52 c9c0
00000110: de58 9dc0 73b7 ac40 5d82 9540 44d8 3ac0
00000120: b634 62c0 0280 98c0 107f 8240 4455 8540
00000130: 41e9 3440 2fd3 8440 0bb1 6340 aa51 7ec0
-14.026145 13.415337 11.155584 10.67356 -12.841203 -12.484108 -12.430562 -12.724131
-13.357615 14.012762 -10.630426 13.453995 12.473466 11.448893 -11.331607 -14.619876
-14.610563 -14.456751 -12.84482 13.659783 8.385642 -8.916714 -9.0875 -5.7546973
6.51873 8.934847 9.035689 7.747753 8.861638 -7.9459205 -7.748224 8.126198
9.51223 6.5608788 -5.6038823 -6.6764784 -8.235956 -8.538031 -9.879183 8.174381
2.9860907 -3.670423 -4.3005486 -6.7994084 5.507634 4.3674684 3.5008972 2.7815359
3.621986 -3.4334147 -12.017348 10.270103 8.94204 10.937059 -11.10228 -10.931837
-9.622769 -11.890288 -11.26296 11.842215 -7.5267735 4.3185506 5.703634 5.4320216
-4.8372693 -5.6348567 -3.9505723 -6.2913027 -4.917098 5.3973937 4.6721635 -2.9194498
-3.5344672 -4.765626 4.0780106 4.1666584 2.8267367 4.1507792 3.5576808 -3.9737344

fc1.weight f4 [200, 114]
00000000: 19e2 223f 7abe 24c1 4414 6140 5c25 0d3c
00000010: bf5f 98bf c78b bbbf 453f e23e b154 b3bf
00000020: 6bfa c6bf a3f9 20c0 b932 b3bf ba0f 313f
00000030: 286a 78bf 50c3 5c3f 7aac 623d 95f1 d53f
00000040: de4a 963f 4359 cebf 70c8 b73f 1a7c e1c0
00000050: 7241 d1c0 4e0c e7c0 0a5d cebf faf8 98c0
00000060: c325 05c1 eb69 c4c0 226a d3c0 c95e 93c0
00000070: 4304 a5c0 5498 01c0 4190 b6c0 7e9b 8ac0
00000080: 5374 81c0 dabd 2bc0 7fa8 873f 21fa b8bc
00000090: 994b 6b40 812c 05bf 7633 b3bf c3aa d8bf
000000a0: 92cf 053f 7337 abbf 1581 c1bf 8804 13c0
000000b0: d0c8 d1bf ab2a 403f a4d5 84bf 9ad7 e93e
000000c0: f2f1 633e 3636 9b3f f489 6d3f e867 65bf
000000d0: 43a0 ba3f 154c e1c0 7561 d0c0 8480 e7c0
000000e0: 12db d3bf 7a63 99c0 1fff 03c1 30bf c4c0
000000f0: bf55 d3c0 f0a3 94c0 9ebd a3c0 8507 f6bf
00000100: 07be b6c0 617c 8dc0 fcfc 81c0 6f6e 23c0
00000110: 7e32 373f 3e2f 58bd c168 7840 3074 1abf
00000120: 778f a2bf 7aa2 d4bf a851 cd3e 66bd 8dbf
00000130: bbd9 b3bf 614a 0ec0 554c babf 2c55 7b3f
00000140: 5040 80bf 663c 973d c9b5 c53e 4bb1 993f
00000150: 0c36 2a3f bf22 25bf bb55 c63f d0a0 e0c0
00000160: cb08 d4c0 f482 e9c0 4d76 d5bf fccb 99c0
00000170: 65d4 03c1 608e c3c0 7f36 d6c0 9f12 98c0
00000180: 2ebd a5c0 430e f7bf 6928 b5c0 5036 8fc0
00000190: a953 7cc0 4ace 2ac0 e2a2 073f c432 2fbd
000001a0: 9377 2441 e17e 27c1 1bf2 19c1 b093 07c1
000001b0: 3099 1341 6397 1a41 252e 2241 3b32 2b41
000001c0: 852f 3141 f1fe 2cc1 d253 b33d cf4a 2bbc
000001d0: 3b65 af3d 1272 963c 0a3d 81bd 19af 2cbd
000001e0: 92b3 bcbd 071d 213d bc86 3c3d c0ef b83d
000001f0: ff50 7ebd 8383 6fbc 7935 a4bd fd65 7c3d
00000200: 62de 3bbc 4175 5ebd 46ba 8bbc e5fb 003d
00000210: 9b33 a43d bd50 1bbd 4446 283b e473 87bd
00000220: 57a9 e13c dbae 5f3c ac05 103d ebaa 613d
00000230: ab0a 0f3d efce 503c b537 afbd 6154 32bc
00000240: ca4d 50bd 434c b43b 9bbf 58bd 992d 8eba
00000250: 7789 95bd bdd8 7d3d 9f9c 43bd b9d3 4bbd
00000260: 779c a83d f510 9e3c cf83 92bd 1102 67bd
00000270: 0348 17bb 228c b6bd cf43 6e3d 61ba 623d
00000280: fa75 99bd a484 2b3c e42b 9c3d 9e1a 4abd
00000290: 01af a4bd e726 03bd dd2b 8ebd 6cdd b53c
000002a0: 188d 25bd e46b 9ebd 4ae0 80bd ff68 983d
000002b0: 17a4 6fbd 5f53 123d df2c 2bbd 4048 38bd
000002c0: 4224 7d3d d9f9 6c3c 79b9 b43d 3ae6 e93c
000002d0: ab9e 7a3d 65e4 81bd b881 69bd 7874 043d
000002e0: c8ed 81bd 90b3 8d3c 6baa 87bd 2dbf 993d
000002f0: d6c1 45bb 9adc b23c 2493 8c3c 4928 8a3d
00000300: 0d6c a43d 3680 8d3d 7ff1 9ebd a361 7fbd
00000310: f59a 2bbd cbbb 423d 02d6 9dbd dc08 9fbd
00000320: a476 543d f5f4 78bd 88f5 a13b 83e8 a5bd
00000330: 06ef 96bd ddbb 3c3d 78f7 713d 10d3 413d
00000340: 0fdf e33a 8952 fabc 28b4 1b3c d990 98bb
00000350: ef50 20bd 19c9 8cbd aa71 11bd b8f9 433d
00000360: 2f92 b73d 2b5f 913c 5542 a23a 949a cd3c
00000370: 7a87 b13d 2377 d53c f188 933d cbad ce3b
00000380: 0785 943d 806f 063c c8d0 8bbd 06ee 2c3d
00000390: 01ac 493d a5ce ce3c 52cf 53bd 2b5d 8a3d
000003a0: 7269 57bd 00d1 7d3d 9e1f 86bd df39 353c
000003b0: 95ba 463d 7d9c 8e3c dc75 203c 8ed5 723c
000003c0: fb88 87bd e277 aa3d cfbc 44bc cc2b aa3d
000003d0: 22a0 803c 272a 39bc 89da aabc 9e6a 573d
000003e0: acb6 72bd 87d9 30bd 875b ae3b 9071 9c3d
000003f0: 4106 b13d 2c1d 71bd 0b9c bebd 223b a43d
0.6362625 -10.296503 3.516862 0.008614864 -1.1904219 -1.4652032 0.44188896 -1.4010221
-1.5545171 -2.5152366 -1.3999854 0.6916462 -0.9703698 0.86235523 0.055340268 1.671435
1.1741598 -1.612099 1.4358044 -7.046399 -6.539239 -7.220252 -1.6122143 -4.7803926
-8.321719 -6.1379294 -6.6067057 -4.6053205 -5.15677 -2.0249224 -5.705109 -4.331481
-4.0454497 -2.6834626 1.0598296 -0.022580208 3.676489 -0.5202103 -1.400008 -1.6927112
0.5226985 -1.3376297 -1.5117518 -2.2971516 -1.6389408 0.75065106 -1.0377698 0.45672303
0.22260264 1.2125919 0.92788625 -0.89611673 1.4580158 -7.0405374 -6.5118966 -7.234438
-1.655123 -4.793393 -8.249785 -6.1483383 -6.604217 -4.645012 -5.1168966 -1.9221045
-5.7106967 -4.421433 -4.062132 -2.5536153 0.7156142 -0.05277943 3.8813937 -0.6033354
-1.2700032 -1.6612084 0.4010136 -1.1073425 -1.4050821 -2.2232897 -1.4554545 0.98176837
-1.0019627 0.07384567 0.38615254 1.200723 0.6648872 -0.64506143 1.5494913 -7.0196304
-6.6260734 -7.2972355 -1.6676728 -4.8061504 -8.239354 -6.1111298 -6.6941524 -4.752273
-5.179343 -1.9301227 -5.661183 -4.47538 -3.9426062 -2.668841 0.52982914 -0.042773023
10.279193 -10.468476 -9.621608 -8.4735565 9.224899 9.66196 10.136266 10.699763
11.074101 -10.812242 0.08756222 -0.0104548475 0.0856423 0.01836494 -0.063104704 -0.042159174
-0.09213938 0.039334323 0.04602693 0.09030104 -0.062088963 -0.014618757 -0.080180116 0.0616207
-0.011466594 -0.05431104 -0.017056596 0.031490225 0.080176555 -0.037918795 0.0025676647 -0.06613901
0.027546568 0.013652529 0.03516166 0.05509464 0.034922283 0.012744649 -0.08555547 -0.010884375
-0.050855435 0.005502255 -0.052917104 -0.0010847329 -0.0730161 0.061974276 -0.047756787 -0.04976246
0.08232968 0.019295195 -0.07154047 -0.056398455 -0.0023083694 -0.08913447 0.058170136 0.055353526
-0.07493205 0.010468636 0.07625559 -0.04934179 -0.08041192 -0.032019522 -0.0694196 0.022200309
-0.04041776 -0.07735422 -0.0629278 0.074419014 -0.058506098 0.03572404 -0.04179084 -0.044990778
0.061802156 0.014463865 0.088244386 0.028552163 0.061186474 -0.06342391 -0.057008475 0.032337636
-0.06344181 0.017297536 -0.066243015 0.07507167 -0.003017535 0.021833707 0.017160006 0.06745965
0.080284216 0.0690922 -0.077609055 -0.062348973 -0.041895825 0.047542375 -0.077068344 -0.07765362
0.051870957 -0.060780484 0.0049425997 -0.08100989 -0.07369809 0.046077598 0.059073895 0.047320426
0.0017385202 -0.030556934 0.009503402 -0.004655939 -0.039139684 -0.06874294 -0.03550879 0.047845572
0.08963429 0.017745575 0.0012379388 0.025098123 0.08668418 0.026057785 0.07203854 0.006307339
0.072519355 0.008205295 -0.06826931 0.042219184 0.0492363 0.02524502 -0.051711388 0.06756052
-0.052590795 0.061966896 -0.06548999 0.011061161 0.048517782 0.017408604 0.009793725 0.014821423
-0.06617924 0.08323647 -0.012007906 0.08309135 0.015701357 -0.011301554 -0.020856159 0.052591912
-0.05925624 -0.0431762 0.0053209695 0.07638848 0.08643771 -0.05886571 -0.093071066 0.08019091

fc1.bias f4 [200]
00000000: ea28 543f cfa9 86bd dc02 8f3b e720 7e3d
00000010: 749e 493f 88f6 d83c 0c82 243f 4724 193d
00000020: 7041 bdbd 2364 4a3d 4703 97bd 68ff 253f
00000030: 9bc3 c3bc e4aa 473f 7a9e 283f ed75 203f
00000040: 0b85 373f bb10 4fbd 1a9c 2f3f 51ee cc3c
00000050: feec 223f 535f ac3d 508e 003d c211 dd39
00000060: da35 643d d656 213f 4501 8a3d 8ac2 2e3f
00000070: 00d0 363d ac6e b8bd fabe 4d3f 2b5f 473f
00000080: ed4b 07bd 45f9 773d ba5a 353f ded4 3d3f
00000090: 151c 333f 4fd7 363f 8834 49bd 7b85 493f
000000a0: c5e5 4f3f 880a 453f 5cb9 0b3d e7c2 34bd
000000b0: b378 513d 3414 223d eee1 523c e6e6 213f
000000c0: 9cdd 233f 7cd0 2e3f 7102 763d 028a 4f3f
000000d0: 59bb 863d f275 fc3b 88de a43d e3d7 463f
000000e0: 864f 30bc 485e 4d3f 81e6 1dbd d685 453f
000000f0: aa1f 9cbd 8f00 4f3f 3630 4c3d c058 bc3b
00000100: 96c6 1e3f 6aeb 383f b088 203f 85aa 013d
00000110: 4c54 803d e9ec 443f 026e 3e3f 7a6a 45bd
00000120: 889a a13d 0791 e2bc 5145 0bbd 3b4e a8bd
00000130: 1fa3 353f ab53 333d 1a2e 533d 3296 47bd
00000140: f7a1 2c3f 99f9 233f 5898 653d d827 353f
00000150: b1e4 3b3f ec5f 9dbd 44a2 89bc 8c76 5a3d
00000160: 6780 a13d 0f1f 08bd 6e99 493f 8906 263f
00000170: cfe0 db3c 1a4a b13d d8f1 8c3d c713 203f
00000180: 9c6a 2f3f db88 223d 0cf8 783d 6fb1 8a3d
00000190: bc50 cfbc 05da 2d3f c210 4e3f d6d2 4b3f
000001a0: 1740 2e3f d3e1 273f f6c4 2d3f b12d 5a3d
000001b0: b890 ca3c 85aa b3bd 3c67 4a3f de66 223d
000001c0: 3b3a 56bd 139b 0ebd d693 bf3d f977 133d
000001d0: 95dc 243f 8ace 233f be79 003d bfc4 6dbd
000001e0: de89 3f3f ef79 c03d 80db 5abc 5a06 413f
000001f0: a6f9 35bd 700c 3c3f 3b13 593d 74ff 06bb
00000200: 7624 333f f58d 40bd 1cd3 3c3f 7247 3a3f
00000210: 01c0 aa3d e4e1 1dbc 4e15 2f3f bf5c 423f
00000220: 0d6c bbbc 8daa 273f 1e09 45bd 99e4 9f3c
00000230: af4d 343f c1b2 b33c ef34 d33c fec6 4a3f
00000240: df59 273d a036 373d bfaa 39bd 99a5 a83d
00000250: 67f1 dfbc a963 423d e287 483f dfe6 04bd
00000260: 2739 65bd 87e4 253f 8fd8 4c3f d8d2 d5bd
00000270: d7dc 353f 9150 463f 967e 4b3f bb01 4a3f
00000280: afe4 98bd bab9 4c3f b896 253f fbce 67bd
00000290: d1d1 343d 66a9 413f 8fce 293f 8492 283f
000002a0: 4efb 223d fb27 26bb 430a 353f bd2a af3b
000002b0: 43c3 2f3f ac8a 403f 6517 4a3d 268e 923d
000002c0: 5255 3c3f ecae 4bbd 2386 90ba 9b86 9fbd
000002d0: 9d99 583d 67eb 72bd 66b8 393f 12d4 d23a
000002e0: 09fc 963d b124 26bd 7910 4a3f 4b8b b7bc
000002f0: a351 183d 642a 0b3d 55e1 373f 36ce 3b3f
00000300: c1a9 92bd a483 333f 553e 693d c18d fdbc
00000310: 4973 3ebd 69e6 ba3d fc2a aa3d 5865 483f
0.8287493 -0.06575357 0.0043643545 0.062043097 0.78757405 0.026484743 0.64260936 0.037388112
-0.09240997 0.049411904 -0.07373672 0.64842844 -0.023896983 0.77995133 0.65866816 0.6267994
0.7168738 -0.050553065 0.6859757 0.025015982 0.6364287 0.08416619 0.03138572 0.00042165635
0.05571542 0.63023126 0.067385234 0.68265593 0.044631958 -0.09005484 0.8036953 0.7787959
-0.033031393 0.060540456 0.7084156 0.74152935 0.69964725 0.71422285 -0.049122363 0.787193
0.81209975 0.76969194 0.03411232 -0.044131186 0.0511405 0.03957005 0.012871249 0.6324295
0.64010024 0.6828687 0.060060922 0.8106996 0.065787025 0.00770449 0.08050257 0.77673167
-0.010761147 0.80221987 -0.038549904 0.7715734 -0.07623227 0.8086023 0.049850665 0.0057478845
0.6202177 0.72234213 0.6270857 0.03165676 0.06266078 0.76923996 0.7438661 -0.048197247
0.078908026 -0.027657045 -0.034001652 -0.08218046 0.7095203 0.043780964 0.051557638 -0.04872722
0.6743464 0.6405273 0.05605349 0.7076392 0.7339583 -0.07684311 -0.016801007 0.05333571
0.07885819 -0.033232745 0.7874974 0.6485372 0.026840596 0.08656712 0.068820655 0.6253018
0.6852205 0.039681297 0.06078343 0.06772124 -0.025307052 0.67910796 0.8049432 0.79618585
0.68066543 0.65578955 0.67878664 0.05326623 0.02472721 -0.087727584 0.79063773 0.039648883
-0.052301627 -0.03481586 0.09354369 0.036003087 0.6439908 0.6398703 0.031366102 -0.05804896
0.74819744 0.09398257 -0.013357997 0.75400317 -0.044427536 0.7345648 0.052996855 -0.002059904
0.6997751 -0.04701038 0.7375963 0.72765267 0.08337403 -0.009636376 0.68391883 0.7592277
-0.022878671 0.65494615 -0.048104398 0.019518184 0.70431036 0.021935822 0.025782077 0.7920989
0.040857192 0.04472983 -0.04532885 0.0823471 -0.02733679 0.047458325 0.7833234 -0.03244674
-0.055962708 0.6480183 0.8001794 -0.10440606 0.710401 0.77466685 0.7949003 0.7890889
-0.07465493 0.79970896 0.64683104 -0.056593876 0.04414541 0.75649107 0.6633081 0.65848565
0.039790444 -0.002535342 0.70718783 0.005345671 0.6865732 0.75211596 0.049338717 0.07156019
0.7356769 -0.049727365 -0.0011026304 -0.07789346 0.052880872 -0.05930653 0.72546995 0.001608493
0.07372291 -0.040562335 0.78931385 -0.022405287 0.03718723 0.033975974 0.71828204 0.7336153
-0.07161284 0.7012274 0.05694421 -0.030951383 -0.046496663 0.091259785 0.0830898 0.7827964

fc2.weight f4 [20, 200]
00000000: 71b5 493f 4008 27bf d885 363f 9dc4 413f
00000010: 867a 4a3f 1041 1cbf 1268 2d3f e011 2dbf
00000020: ea90 33bf d895 3f3f 0be4 393f 65ab 333f
00000030: 6440 333f 87d4 3a3f c30c 2f3f e675 423f
00000040: 4f73 2b3f ca89 213f 2e4e 403f 4502 333f
00000050: e499 363f 42fe 3d3f a0c4 34bf b908 3b3f
00000060: 12cc 17bf b100 393f 67da 433f 145d 493f
00000070: 0c25 3bbf 0c89 3dbf bf09 4d3f 3a7a 373f
00000080: 1235 3e3f 481c 353f acb1 403f 9e31 4c3f
00000090: 857c 313f a44b 373f 4288 2abf a80e 433f
000000a0: f2b8 483f d359 323f 0f8a 2a3f 0d59 2a3f
000000b0: a092 40bf 969d 3bbf 5764 3cbf 60d3 463f
000000c0: 3be3 293f ea34 4c3f 609f 2dbf 949e 353f
000000d0: 7552 21bf 7cd2 3abf da99 35bf 0118 3b3f
000000e0: fc27 3abf d4d0 463f fa2e 2e3f 5e07 4c3f
000000f0: 62c8 313f e877 313f 94ba 41bf 9d3e 2cbf
00000100: f43b 4b3f b810 4a3f 87b7 4b3f 8d53 31bf
00000110: fc9c 3bbf a320 373f 39c3 483f e6dd 3cbf
00000120: c03e 20bf 3a63 363f 78ad 31bf 4f4f 34bf
00000130: a34a 393f 1b2d 28bf ef88 09bf db0b 1abf
00000140: 5a08 4c3f c560 4e3f 790a 26bf 5014 3c3f
00000150: 2a19 3e3f 97dd 31bf df01 2bbf f730 403f
00000160: 3548 39bf aae6 22bf 7dfa 4c3f e3c6 463f
00000170: 3ab2 26bf e801 2f3f 33ed 37bf 7a9f 3d3f
00000180: 247c 2f3f 8b55 31bf 2d7b 433f 2baf 3e3f
00000190: db93 3f3f 46a9 353f a83b 303f 2652 2e3f
000001a0: 3f64 353f aaec 313f 68a8 493f 4661 473f
000001b0: 1272 27bf 472a 2d3f 8a4f 4c3f 6658 35bf
000001c0: 3c3a 17bf bade 323f 67b6 2b3f 22f2 20bf
000001d0: 903e 2c3f 8fd7 423f c200 1abf 6e06 423f
000001e0: bc31 373f 8799 0cbf 89a8 34bf 0e16 3d3f
000001f0: 989b 293f ce7b 2f3f 48f5 343f 9d97 2cbf
00000200: 1ce4 413f d623 14bf eaca 473f 3157 4d3f
00000210: dd1e 38bf 74ff 3abf e064 303f 28ac 2b3f
00000220: ce8a 283f 7c54 2d3f 60ce 16bf c515 13bf
00000230: 9d5f 2d3f 7143 283f 9416 32bf d2ef 2e3f
00000240: b55d 35bf 6d2a 2c3f 1df0 2abf 5078 09bf
00000250: 3919 443f e870 323f 3482 463f ad5e 263f
00000260: bdf6 233f d6ae 4c3f 8a47 2a3f f5cd 21bf
00000270: 9d72 4a3f 38ab 2a3f c2bd 523f 5ed6 513f
00000280: 58e1 23bf 897b 2e3f aeba 4a3f bf17 29bf
00000290: be0e 2c3f c3fb 413f a191 453f f935 403f
000002a0: 6f62 423f b28d 333f 8a69 443f 2e92 30bf
000002b0: 6ae4 3f3f 8358 313f 0110 3ebf 4aeb 313f
000002c0: 0122 563f 3e11 15bf 2a0f 2d3f cecc 423f
000002d0: ec61 35bf 1aca 253f 72fd 463f fb5f 373f
000002e0: 8573 2fbf f23f 453f 3b9e 393f e9e7 31bf
000002f0: 8532 393f 9a2d 2c3f ab4c 503f 378d 383f
00000300: 251c 34bf 9b08 513f 3f92 383f 1866 413f
00000310: 6acd 22bf 5fd7 2fbf 364b 2c3f 0d3a 3e3f
00000320: d3c4 503d 1434 8d3d e058 44bc 9db9 25bd
00000330: b8a8 4fbc fd5d 21bc 8290 8f3c 6327 d1bc
00000340: 4f38 55bd 147f c23b d8d9 f63c ab27 293d
00000350: 9585 a63c 6952 223d 5ad6 283d 2955 47bd
00000360: 37df 73bd fd77 6aba 505a 97bc e859 38bd
00000370: 5d86 f2bc 8ebb 0e3d df6a d539 2eee a43c
00000380: 7017 463d 73fe 6b3d f376 32bc 2401 4abd
00000390: da1d 47bd 4907 03bc 5c73 443b f5ac 51bd
000003a0: 2c3e 7cbd dd52 893d 115e dfbc 81dc 5abd
000003b0: 1713 233c 2dbc 8bbd 08be 92bc 15fd 0f3d
000003c0: e736 e6b9 d6e8 63bc c5c3 603d d7fe 063d
000003d0: 8907 a33d 81cb 693d 9bad 5bbd c14e a8bc
000003e0: 7115 a2bd 7f56 9dbd 59b3 4ebd 0d1a 61bd
000003f0: bee6 fdbc 4cec d9bc 5d0c 1b3d 8644 1bbc
0.7879248 -0.65246964 0.7129798 0.75690633 0.79093206 -0.6103678 0.67736924 -0.676054
-0.70142996 0.7483802 0.7261359 0.701834 0.7002013 0.7298054 0.6837885 0.7596115
0.6697282 0.63100874 0.7511929 0.6992534 0.7132857 0.7421609 -0.70612526 0.73060185
-0.5929576 0.7226668 0.7650513 0.7865765 -0.73103404 -0.7403724 0.80092996 0.7167088
0.7429973 0.7074628 0.75271106 0.7976321 0.69330627 0.71599793 -0.6661416 0.7619424
0.78407204 0.6966831 0.6661691 0.6654213 -0.7522373 -0.7328733 -0.73590606 0.7766628
0.6636235 0.7976824 -0.6782131 0.70945096 -0.63016444 -0.72977424 -0.70937884 0.730835
-0.7271726 0.77662396 0.6804043 0.7969874 0.69446385 0.6932359 -0.7567532 -0.6728304
0.79388356 0.7893176 0.79576916 -0.69268113 -0.73286414 0.71534175 0.78422886 -0.7377609
-0.6259575 0.7124516 -0.6940532 -0.70433515 0.7237951 -0.65693825 -0.5372457 -0.6017434
0.79700243 0.8061641 -0.6485973 0.73468494 0.7425715 -0.69478744 -0.6679973 0.75074714
-0.72375804 -0.63633215 0.80069715 0.7764723 -0.651157 0.68362284 -0.7184631 0.74071467
0.685488 -0.69271153 0.76359826 0.74486035 0.74834985 0.70961416 0.6884103 0.680941
0.7085609 0.69501746 0.7877259 0.778828 -0.6540843 0.67642635 0.79808867 -0.7083801
-0.59073234 0.69871104 0.670752 -0.62869465 0.6728296 0.76110166 -0.60157406 0.7579106
0.71560264 -0.54921764 -0.70569664 0.7386178 0.6625304 0.68548286 0.7068677 -0.67418844
0.7573869 -0.5786718 0.78044 0.8021117 -0.71922094 -0.7304604 0.68903923 0.67059565
0.658368 0.6770704 -0.58908653 -0.5745509 0.6772402 0.6572791 -0.695657 0.68334687
-0.7084611 0.67252237 -0.66772634 -0.5369921 0.76600987 0.6970353 0.77542424 0.64988214
0.6404837 0.7995428 0.6651541 -0.6320489 0.79081136 0.6666751 0.823208 0.81967723
-0.6401572 0.6815725 0.791911 -0.6605186 0.67209995 0.7577478 0.7717534 0.75082356
0.7593145 0.70138085 0.7672354 -0.6897305 0.7495791 0.69275683 -0.7424317 0.6949965
0.83645636 -0.58229434 0.67601264 0.7609376 -0.7085254 0.6476151 0.77730477 0.7163083
-0.68535644 0.770507 0.72507066 -0.6949449 0.7234271 0.6725708 0.81366986 0.72090477
-0.70355445 0.81653756 0.72098154 0.7554641 -0.63594687 -0.68688005 0.6730226 0.7430733
0.050968956 0.06894699 -0.01198408 -0.040460218 -0.012674503 -0.009849069 0.017524961 -0.025531476
-0.052055653 0.005935559 0.030133173 0.041297596 0.020327369 0.039629374 0.041220047 -0.0486652
-0.059539046 -0.0008944271 -0.018475682 -0.045007616 -0.029605085 0.034846835 0.0004070615 0.020133104
0.048362195 0.05761571 -0.0108926175 -0.049317494 -0.048612453 -0.007997342 0.0029975986 -0.051190335
-0.06158273 0.06705258 -0.027266534 -0.053432945 0.009953282 -0.06823001 -0.01791288 0.035153467
-0.00043909924 -0.013910493 0.0548742 0.032957878 0.079604216 0.057078842 -0.05363236 -0.020545365
-0.07914246 -0.076825134 -0.050464008 -0.054956485 -0.030993816 -0.026601933 0.037853587 -0.0094767865

fc2.bias f4 [20]
00000000: 3417 f93e 3cc4 18bd 05f1 6abd 16e3 0c3d
00000010: 8f30 673d 331f 91ba 5a65 96bd f298 0e3f
00000020: 5f54 bbbc 7adb 0d3f ebcf 113f bab3 813c
00000030: c779 833d 4b99 253f 5273 a13d 76c6 243f
00000040: 8a97 1c3f 9e4d 133f 8dd0 123f 28ef ff3e
0.48650515 -0.03729652 -0.05735876 0.034396254 0.056442793 -0.001107192 -0.0734355 0.55702126
-0.02286738 0.5541302 0.5695788 0.01583277 0.064197116 0.6468703 0.07883324 0.6436533
0.6116873 0.5754031 0.57349473 0.4998715

fc3.weight f4 [1, 20]
00000000: 9dc8 753f ec27 11bf e365 f1be 1c19 e5be
00000010: fa63 07bf 6b17 f2be fe17 cdbe 7bf9 6a3f
00000020: 9ce7 21bf 09ab 623f 2beb 643f b542 0dbf
00000030: fc37 13bf c806 5c3f 1f07 21bf 4362 553f
00000040: 60fb 6d3f 7e3b 623f 602f 5f3f 6e9b 803f
0.96009237 -0.5670154 -0.47148046 -0.4474572 -0.5288693 -0.47283491 -0.40057367 0.91786927
-0.6324403 0.8854223 0.8942134 -0.5517991 -0.575073 0.8594785 -0.6290149 0.8335306
0.9296169 0.8837203 0.87181664 1.0047433

bn1.weight f4 [200]
00000000: edbf e43f 0000 803f 0000 803f 0000 803f
00000010: 3790 ea3f 8181 d53f 2931 e23f 0000 803f
00000020: 0000 803f 0000 803f 0000 803f b792 e73f
00000030: 0000 803f 47a7 e63f 3633 e33f ce76 e83f
00000040: dd8b e63f 0000 803f 8e0e ea3f 0000 803f
00000050: 0ed8 e43f 0000 803f 0000 803f 0000 803f
00000060: 33e8 d33f 2344 e63f 0000 803f f5f0 e83f
00000070: 0000 803f 0000 803f 62e7 e93f eb3d e73f
00000080: 0000 803f 0000 803f 7b1f ec3f f668 e43f
00000090: b36a e33f b200 e43f 0000 803f d5a8 e73f
000000a0: f216 ea3f a450 e93f 0000 803f 0000 803f
000000b0: 0000 803f 0000 803f 0000 803f 3933 e83f
000000c0: 1fdb e63f 38c9 e83f 0000 803f c596 e53f
000000d0: 0000 803f 0000 803f 0000 803f 59c5 e53f
000000e0: 0000 803f 27fe e83f 0000 803f 87cf e63f
000000f0: 0000 803f f01d e63f 0000 803f 0000 803f
00000100: cb6e e93f 8657 e83f cd85 e93f 0000 803f
00000110: 0000 803f 9a44 e63f 4380 e53f 0000 803f
00000120: 4533 d53f 0000 803f 0000 803f 224f c73f
00000130: 6949 e83f 0000 803f f4f0 d03f 6ede d53f
00000140: eb75 e73f 5ff4 e93f 0000 803f bf3e e63f
00000150: 0277 e63f 0000 803f 0000 803f 0000 803f
00000160: 0000 803f 0000 803f d518 ea3f c16c e83f
00000170: 0000 803f 0000 803f 725e db3f 8312 e83f
00000180: fd06 e43f 0000 803f 0000 803f 0000 803f
00000190: 0000 803f deba e73f 9ceb e73f 359e e53f
000001a0: 90d8 e73f 2855 e53f 5109 ec3f 0000 803f
000001b0: 0000 803f 0000 803f bb35 e53f 0000 803f
000001c0: ffa8 d63f 0000 803f 0000 803f 0000 803f
000001d0: f58f e63f 2485 e93f a736 d73f 0000 803f
000001e0: 7d89 e73f 0e87 d53f 0000 803f 05c7 e83f
000001f0: 0000 803f 5314 e43f 0000 803f 0000 803f
00000200: 7e73 e63f 1b8b d63f 4611 e63f 34d1 e73f
00000210: 7eac d83f 0000 803f 689b e73f a5a2 e43f
00000220: 0000 803f a127 e23f b511 d63f a8da cf3f
00000230: 74e7 e53f 0000 803f 0000 803f 6bb5 e43f
00000240: 0000 803f 0000 803f 0000 803f ac05 d53f
00000250: 0000 803f 0000 803f c20b e93f 0000 803f
00000260: 0000 803f bd0b e63f 2844 e53f 5f54 d43f
00000270: 0ec7 e83f df5f e33f b92c ec3f e5b9 ea3f
00000280: 0000 803f 38e1 e63f fda6 e73f 0000 803f
00000290: 0000 803f 782b e93f 15f6 e73f 4be7 e93f
000002a0: 0000 803f 0000 803f fa7b e93f bb37 b33f
000002b0: e863 eb3f eb2c e73f 0000 803f 0000 803f
000002c0: 17c8 ea3f 6905 d63f 0000 803f 0000 803f
000002d0: dfb4 cb3f 0000 803f ffe6 e63f 0000 803f
000002e0: 0000 803f 0000 803f 75fb e43f 0000 803f
000002f0: 0000 803f 0000 803f 80c2 e83f 5da9 e63f
00000300: 0000 803f 34dd e73f 0000 803f 0000 803f
00000310: 0000 803f 72cf d73f 0000 803f 2710 e73f
1.7871071 1.0 1.0 1.0 1.8325261 1.6680146 1.7671252 1.0
1.0 1.0 1.0 1.8091649 1.0 1.8019799 1.7750003 1.8161256
1.8011433 1.0 1.8285692 1.0 1.7878435 1.0 1.0 1.0
1.6555237 1.7989544 1.0 1.8198534 1.0 1.0 1.8273737 1.8065771
1.0 1.0 1.8447107 1.7844532 1.7766937 1.7812712 1.0 1.8098398
1.8288252 1.8227735 1.0 1.0 1.0 1.0 1.0 1.8140632
1.803562 1.8186407 1.0 1.7936636 1.0 1.0 1.0 1.7950851
1.0 1.8202561 1.0 1.8032082 1.0 1.7977886 1.0 1.0
1.8236936 1.815171 1.8243958 1.0 1.0 1.7989686 1.7929767 1.0
1.6656271 1.0 1.0 1.5571024 1.8147403 1.0 1.6323533 1.6708505
1.8082861 1.8277701 1.0 1.7987899 1.8005068 1.0 1.0 1.0
1.0 1.0 1.8288828 1.8158189 1.0 1.0 1.7138197 1.8130649
1.7814633 1.0 1.0 1.0 1.0 1.8103902 1.8118777 1.7938906
1.8112965 1.7916613 1.8440343 1.0 1.0 1.0 1.7907022 1.0
1.6770324 1.0 1.0 1.0 1.8012682 1.8243756 1.6813554 1.0
1.8088833 1.668184 1.0 1.8185736 1.0 1.7818702 1.0 1.0
1.8003995 1.6761202 1.7974021 1.8110719 1.692764 1.0 1.8094301 1.7862135
1.0 1.7668344 1.6724154 1.6238604 1.7961259 1.0 1.0 1.7867864
1.0 1.0 1.0 1.6642356 1.0 1.0 1.8206713 1.0
1.0 1.7972332 1.7911425 1.6588248 1.8185747 1.7763633 1.8451148 1.833798
1.0 1.8037481 1.8097836 1.0 1.0 1.8216391 1.8121973 1.827371
1.0 1.0 1.824096 1.4001383 1.8389864 1.8060583 1.0 1.0
1.8342313 1.6720401 1.0 1.0 1.5914572 1.0 1.8039244 1.0
1.0 1.0 1.7889239 1.0 1.0 1.0 1.8184357 1.8020436
1.0 1.8114381 1.0 1.0 1.0 1.6860182 1.0 1.8051804

bn1.bias f4 [200]
00000000: fe72 333f cf82 35bf 62dc 363f 4863 353f
00000010: d319 323f b38c 36bf 0ffc 2e3f 63f3 30bf
00000020: 269d 36bf 159b 373f 6d69 353f c8bc 333f
00000030: 861b 343f e9c4 303f f297 313f 35fa 2c3f
00000040: 8537 343f 9930 323f 7179 333f 3f3f 353f
00000050: 3475 313f fd71 363f 21a0 32bf 0414 373f
00000060: 04e4 32bf 1f58 2e3f 0538 343f 83b5 323f
00000070: 208a 31bf c322 32bf a18f 323f 1b50 323f
00000080: 4116 363f d4c3 343f 8fd6 2d3f fabf 2c3f
00000090: f2a7 333f 7e34 2f3f b8b4 31bf e774 343f
000000a0: 23ce 323f cab2 313f 628c 333f 200a 333f
000000b0: 85d0 32bf 4f1b 34bf 87a0 31bf de72 333f
000000c0: 1bb4 2c3f 582e 313f 4afc 37bf 4dc3 343f
000000d0: 110d 36bf 1c15 37bf d8fb 33bf ce8e 353f
000000e0: 7f61 37bf 8fbb 373f 1659 333f 9494 343f
000000f0: 6291 333f f7f0 343f 61e3 33bf f769 36bf
00000100: c861 313f 036c 2d3f 10bc 2f3f 1c82 32bf
00000110: d0f3 2fbf 1d9e 363f b9a8 323f ecf9 2ebf
00000120: 4083 2ebf f0e0 343f 2a7b 33bf f411 2cbf
00000130: c6fc 313f b351 36bf a313 2bbf a31a 34bf
00000140: c994 2f3f 1d28 353f 24dc 35bf 4d7a 303f
00000150: f96f 2d3f 1dfd 34bf 449b 34bf ee0b 373f
00000160: 7503 33bf c18b 36bf cbea 2d3f 5e75 313f
00000170: b46f 34bf 206c 333f 2880 30bf ecc5 303f
00000180: 2909 2f3f a6b1 35bf 6dc7 313f 6f38 363f
00000190: dd9d 353f f91b 333f 1fae 333f 0293 2f3f
000001a0: 17f6 333f bfd1 323f 444f 2e3f 16a8 333f
000001b0: 41b3 2fbf 1203 373f e561 313f df77 2cbf
000001c0: 529f 38bf 8ff3 323f 9d23 2e3f d562 36bf
000001d0: cc99 353f 0ac0 333f 23c9 33bf c27f 323f
000001e0: acfe 313f 9127 35bf e716 36bf 0b3d 2d3f
000001f0: 860c 373f 5bb8 273f 5a69 383f bbd0 32bf
00000200: 8619 2d3f e433 38bf eac4 313f 2b50 333f
00000210: 5e5f 32bf 32f2 32bf ab3b 323f bd7e 363f
00000220: cf0c 333f 6295 2b3f 3a9b 32bf 334d 31bf
00000230: 328d 313f 9add 343f 0cf4 35bf cdd5 333f
00000240: d179 2fbf fad4 313f 4e75 31bf 7d90 34bf
00000250: fbb1 323f d7ba 343f b941 343f 324a 363f
00000260: 6e36 313f 9901 303f aee9 343f 2e6c 36bf
00000270: d89a 303f 2bd2 313f 3ce6 2d3f 2a83 343f
00000280: 54b6 2fbf de21 2f3f 80b4 2e3f 9f32 33bf
00000290: a7fc 313f 1f48 333f c8c5 333f 5edd 2e3f
000002a0: 0ab4 333f b1fb 343f f2f2 343f 1961 32bf
000002b0: 44a7 323f ab9a 333f 77a1 37bf bbe7 343f
000002c0: 68dd 2f3f b66d 34bf 1cf9 323f b9c5 323f
000002d0: 222d 2fbf a0b6 2e3f c55f 2d3f a35a 353f
000002e0: 75f7 30bf bd59 333f 7202 313f c123 33bf
000002f0: 624b 353f 475d 333f c3bd 2e3f 2cbc 343f
00000300: 3064 34bf cb5e 313f 0ad9 353f 8562 333f
00000310: 6df7 31bf 53bf 30bf 84cd 363f 66d1 353f
0.7009734 -0.70902723 0.7143003 0.70854616 0.69570655 -0.7130844 0.6835336 -0.6912138
-0.7133354 0.7172101 0.7086399 0.7020993 0.703545 0.6905046 0.69372475 0.67569286
0.70397216 0.69605404 0.7010718 0.7079963 0.6931946 0.7126768 -0.6977559 0.71514916
-0.69879174 0.6810321 0.7039798 0.69808215 -0.6935139 -0.6958429 0.6975041 0.6965348
0.71127707 0.7061131 0.67905515 0.67480433 0.7017814 0.6843947 -0.6941638 0.7049088
0.6984579 0.69413435 0.7013608 0.69937325 -0.69849426 -0.7035417 -0.6938557 0.7009715
0.6746232 0.6921134 -0.7186934 0.70610505 -0.7111369 -0.71516585 -0.7030616 0.7092103
-0.7163314 0.71770567 0.7005781 0.7053921 0.7014371 0.70680183 -0.7026883 -0.7125544
0.6928983 0.6774294 0.68646336 -0.6972978 -0.68731403 0.7133501 0.697887 -0.683501
-0.6816902 0.7065573 -0.7010981 -0.67214894 0.69526327 -0.71218413 -0.6682684 -0.70353144
0.68586403 0.70764333 -0.7103903 0.68936616 0.6774898 -0.7069872 -0.70549417 0.7150258
-0.6992715 -0.71307 0.6793639 0.69319713 -0.70482945 0.7008686 -0.6894555 0.69052005
0.6837335 -0.70974195 0.69444925 0.7117986 0.70944005 0.6996456 0.7018756 0.6858369
0.7029738 0.698513 0.680897 0.70178354 -0.68632895 0.7148906 0.6929 -0.6737041
-0.72118104 0.6990289 0.6802309 -0.71244556 0.709378 0.70214903 -0.70228785 0.6972619
0.69529223 -0.707635 -0.71128696 0.6767127 0.71503484 0.6551568 0.72035754 -0.6984975
0.6761707 -0.7195418 0.6944109 0.700442 -0.6967677 -0.6990081 0.69622296 0.7128714
0.6994142 0.67024815 -0.69768107 -0.6925842 0.6935607 0.7065064 -0.7107551 0.7024811
-0.6854525 0.694656 -0.6931962 -0.7053297 0.69802827 0.70597595 0.70412785 0.71206963
0.6922368 0.6875244 0.70669067 -0.7125882 0.6898627 0.69461316 0.67929435 0.7051264
-0.68637586 0.6841105 0.6824417 -0.69999117 0.6952614 0.70031923 0.70223665 0.6830653
0.7019659 0.7069655 0.70683205 -0.6967941 0.6978648 0.7015788 -0.7173075 0.7066609
0.68697214 -0.70479906 0.6991136 0.6983295 -0.6842824 0.68247414 0.6772426 0.70841426
-0.6912759 0.70058805 0.69144356 -0.6997643 0.7081815 0.70064205 0.68258303 0.7059963
-0.70465374 0.6928527 0.710343 0.70072204 -0.69518167 -0.6904194 0.7140734 0.7102264

bn1.running_mean f4 [200]
00000000: e381 a646 0000 0000 0000 0000 0000 0000
00000010: b8bc 8945 c3c3 d245 4721 4146 0000 0000
00000020: 0000 0000 0000 0000 0000 0000 09ec 9346
00000030: 0000 0000 25d7 7646 695d 9545 1352 ab46
00000040: 79f8 af46 0000 0000 af4f b545 0000 0000
00000050: 3723 7946 0000 0000 0000 0000 0000 0000
00000060: 9228 ea45 3973 3c46 0000 0000 5c32 4546
00000070: 0000 0000 0000 0000 9d4a b445 b8e8 df45
00000080: 0000 0000 0000 0000 b487 4645 b9a9 0c46
00000090: bb3c a745 cac7 ac46 0000 0000 f364 8445
000000a0: 0487 2946 b2b8 9445 0000 0000 0000 0000
000000b0: 0000 0000 0000 0000 0000 0000 5148 b746
000000c0: e5dc a546 1678 0546 0000 0000 50a6 8646
000000d0: 0000 0000 0000 0000 0000 0000 7825 b846
000000e0: 0000 0000 eee7 cb44 0000 0000 7ea4 4046
000000f0: 0000 0000 1048 4c46 0000 0000 0000 0000
00000100: 42f6 d245 f66d b346 b5b6 9c46 0000 0000
00000110: 0000 0000 f3e6 8e46 9bc6 7a46 0000 0000
00000120: de65 9743 0000 0000 0000 0000 0936 bf3e
00000130: 6fc4 8646 0000 0000 5ca9 2d46 d380 4c45
00000140: bf33 5c46 b56d 2345 0000 0000 ed3c 3946
00000150: 0f15 8846 0000 0000 0000 0000 0000 0000
00000160: 0000 0000 0000 0000 96bf 3c46 6637 b746
00000170: 0000 0000 0000 0000 abc3 fd41 35ff e546
00000180: 82c5 5946 0000 0000 0000 0000 0000 0000
00000190: 0000 0000 028e 8346 c6ac 3146 048a b546
000001a0: 2940 9546 e73d 1345 813e b544 0000 0000
000001b0: 0000 0000 0000 0000 756c 4546 0000 0000
000001c0: 0356 5845 0000 0000 0000 0000 0000 0000
000001d0: 01dc a046 d42f 0546 4860 743e 0000 0000
000001e0: ca6c 5e45 bb82 e13f 0000 0000 a28e b544
000001f0: 0000 0000 e094 a746 0000 0000 0000 0000
00000200: ca9c 0546 2064 4444 4451 ad46 672f be44
00000210: b72d d140 0000 0000 97b6 7646 2b9e a545
00000220: 0000 0000 3e20 1346 d60b a33c 27a6 5546
00000230: f396 3b46 0000 0000 0000 0000 9f40 6c45
00000240: 0000 0000 0000 0000 0000 0000 8947 7042
00000250: 0000 0000 0000 0000 4a7d ef45 0000 0000
00000260: 0000 0000 8776 3c46 a9c2 c746 9cb8 643f
00000270: 73f3 e245 790c 9746 9b3a 3145 f8da ea45
00000280: 0000 0000 a322 a945 1c97 bd46 0000 0000
00000290: 0000 0000 6cf7 2c45 bfea 8346 9707 3846
000002a0: 0000 0000 0000 0000 2e13 7245 6cec 893a
000002b0: 3bcd 9f45 4a23 bd45 0000 0000 0000 0000
000002c0: 68e9 8445 1ca7 2b44 0000 0000 0000 0000
000002d0: 896b 2a3d 0000 0000 e6c4 9246 0000 0000
000002e0: 0000 0000 0000 0000 a53f 5146 0000 0000
000002f0: 0000 0000 0000 0000 282c 8045 bdc5 b944
00000300: 0000 0000 eed6 af45 0000 0000 0000 0000
00000310: 0000 0000 3d8f 9d42 0000 0000 7574 4f45
21312.943 0.0 0.0 0.0 4407.59 6744.47 12360.319 0.0
0.0 0.0 0.0 18934.018 0.0 15797.786 4779.6763 21929.037
22524.236 0.0 5801.9604 0.0 15944.804 0.0 0.0 0.0
7493.0713 12060.806 0.0 12620.59 0.0 0.0 5769.3267 7165.09
0.0 0.0 3176.4814 9002.431 5351.5913 22115.895 0.0 4236.6187
10849.754 4759.087 0.0 0.0 0.0 0.0 0.0 23460.158
21230.447 8542.021 0.0 17235.156 0.0 0.0 0.0 23570.734
0.0 1631.2478 0.0 12329.123 0.0 13074.016 0.0 0.0
6750.782 22966.98 20059.354 0.0 0.0 18291.475 16049.651 0.0
302.79584 0.0 0.0 0.37345913 17250.217 0.0 11114.34 3272.0515
14092.937 2614.8567 0.0 11855.231 17418.53 0.0 0.0 0.0
0.0 0.0 12079.896 23451.7 0.0 0.0 31.720541 29439.604
13937.377 0.0 0.0 0.0 0.0 16839.004 11371.193 23237.008
19104.08 2355.869 1449.9532 0.0 0.0 0.0 12635.114 0.0
3461.3757 0.0 0.0 0.0 20590.002 8523.957 0.23864853 0.0
3558.7993 1.7618021 0.0 1452.4573 0.0 21450.438 0.0 0.0
8551.197 785.56445 22184.633 1521.4813 6.5368304 0.0 15789.647 5299.771
0.0 9416.061 0.019903105 13673.538 12005.737 0.0 0.0 3780.0388
0.0 0.0 0.0 60.06986 0.0 0.0 7663.661 0.0
0.0 12061.632 25569.33 0.8934419 7262.431 19334.236 2835.6628 7515.371
0.0 5412.3296 24267.555 0.0 0.0 2767.4639 16885.373 11777.897
0.0 0.0 3873.1987 0.001052273 5113.654 6052.411 0.0 0.0
4253.176 686.6111 0.0 0.0 0.04160646 0.0 18786.45 0.0
0.0 0.0 13391.911 0.0 0.0 0.0 4101.5195 1486.1793
0.0 5626.866 0.0 0.0 0.0 78.77976 0.0 3319.2786

bn1.running_var f4 [200]
00000000: a3eb 154e d0bf 3d3e d0bf 3d3e d0bf 3d3e
00000010: 734b c64b d630 744c 49f7 424d d0bf 3d3e
00000020: d0bf 3d3e d0bf 3d3e d0bf 3d3e ba26 ed4d
00000030: d0bf 3d3e ed46 a34d 4a15 ed4b cf3f 1d4e
00000040: b3c1 254e d0bf 3d3e 314c 334c d0bf 3d3e
00000050: 15b0 a34d d0bf 3d3e d0bf 3d3e d0bf 3d3e
00000060: dada 8e4c 4a6a 3f4d d0bf 3d3e 9268 514d
00000070: d0bf 3d3e d0bf 3d3e b52f 314c 0034 894c
00000080: d0bf 3d3e d0bf 3d3e 1e7e 594b 813b d14c
00000090: 052d 204c 743e 1e4e d0bf 3d3e 4b3a b74b
000000a0: 1c6d 194d fca4 e74b d0bf 3d3e d0bf 3d3e
000000b0: d0bf 3d3e d0bf 3d3e d0bf 3d3e fc73 314e
000000c0: 4112 114e e25a c14c d0bf 3d3e b783 c14d
000000d0: d0bf 3d3e d0bf 3d3e d0bf 3d3e 3a07 344e
000000e0: d0bf 3d3e 14c6 654a d0bf 3d3e 8db9 4a4d
000000f0: d0bf 3d3e 3edd 5f4d d0bf 3d3e d0bf 3d3e
00000100: 9045 644c 59b6 2d4e e81c 024e d0bf 3d3e
00000110: d0bf 3d3e a389 dc4d f7e2 aa4d d0bf 3d3e
00000120: b8d9 3448 d0bf 3d3e d0bf 3d3e 126e 8d42
00000130: 6123 bf4d d0bf 3d3e dba2 1d4d f42d 694b
00000140: 0d7c 844d 0622 154b d0bf 3d3e 682b 354d
00000150: 0dee c34d d0bf 3d3e d0bf 3d3e d0bf 3d3e
00000160: d0bf 3d3e d0bf 3d3e c2f8 424d 6e8c 324e
00000170: d0bf 3d3e d0bf 3d3e daf1 a946 6ee1 8b4e
00000180: 7ef8 7f4d d0bf 3d3e d0bf 3d3e d0bf 3d3e
00000190: d0bf 3d3e 8101 b74d 78e6 294d e3db 2f4e
000001a0: 2c8a f04d f479 d14a 0bc7 604a d0bf 3d3e
000001b0: d0bf 3d3e d0bf 3d3e 774a 534d d0bf 3d3e
000001c0: 669a 814b d0bf 3d3e d0bf 3d3e d0bf 3d3e
000001d0: 78d0 0b4e a33f bb4c e8fe ee40 d0bf 3d3e
000001e0: 27d1 8b4b e796 d243 d0bf 3d3e c857 414a
000001f0: d0bf 3d3e de37 184e d0bf 3d3e d0bf 3d3e
00000200: 04ac c34c d8ed 2e49 23da 224e 14e0 764a
00000210: 7450 e144 d0bf 3d3e e319 a44d 47cf 0d4c
00000220: d0bf 3d3e 60a6 e94c 5eef 093f e587 764d
00000230: 762a 3f4d d0bf 3d3e d0bf 3d3e 1d27 a04b
00000240: d0bf 3d3e d0bf 3d3e d0bf 3d3e 083e 9546
00000250: d0bf 3d3e d0bf 3d3e 7e1f 9f4c d0bf 3d3e
00000260: d0bf 3d3e b0d9 424d 0377 564e bafd 0144
00000270: d280 8e4c 2dca f54d 81eb 244b 2dc5 924c
00000280: d0bf 3d3e 5ee1 224c 8f0f 404e d0bf 3d3e
00000290: d0bf 3d3e 944b 304b 66ed ba4d f06b 324d
000002a0: d0bf 3d3e d0bf 3d3e a88f a84b 3544 3f3e
000002b0: 4b01 0f4c 865d 424c d0bf 3d3e d0bf 3d3e
000002c0: cae6 c04b 494f 9f49 d0bf 3d3e d0bf 3d3e
000002d0: ef47 1140 d0bf 3d3e 8419 e54d d0bf 3d3e
000002e0: d0bf 3d3e d0bf 3d3e 7b15 6e4d d0bf 3d3e
000002f0: d0bf 3d3e d0bf 3d3e 8305 aa4b a163 534a
00000300: d0bf 3d3e 9656 244c d0bf 3d3e d0bf 3d3e
00000310: d0bf 3d3e 10a3 8947 d0bf 3d3e f36a 604b
6.2881197e+08 0.18530202 0.18530202 0.18530202 2.5990886e+07 6.4013144e+07 2.0443662e+08 0.18530202
0.18530202 0.18530202 0.18530202 4.9734227e+08 0.18530202 3.424168e+08 3.1074964e+07 6.5955117e+08
6.952337e+08 0.18530202 4.7001796e+07 0.18530202 3.4327824e+08 0.18530202 0.18530202 0.18530202
7.48971e+07 2.0071338e+08 0.18530202 2.195807e+08 0.18530202 0.18530202 4.644834e+07 7.193395e+07
0.18530202 0.18530202 1.4253598e+07 1.09698056e+08 4.198914e+07 6.6372326e+08 0.18530202 2.4016022e+07
1.6087904e+08 3.0362104e+07 0.18530202 0.18530202 0.18530202 0.18530202 0.18530202 7.442921e+08
6.0847315e+08 1.0137371e+08 0.18530202 4.0582934e+08 0.18530202 0.18530202 0.18530202 7.550931e+08
0.18530202 3.764613e+06 0.18530202 2.1257237e+08 0.18530202 2.3473866e+08 0.18530202 0.18530202
5.9840064e+07 7.286022e+08 5.457331e+08 0.18530202 0.18530202 4.6250096e+08 3.5837514e+08 0.18530202
185190.88 0.18530202 0.18530202 70.71498 4.0084586e+08 0.18530202 1.6529349e+08 1.5281652e+07
2.778403e+08 9.773574e+06 0.18530202 1.8997005e+08 4.1089475e+08 0.18530202 0.18530202 0.18530202
0.18530202 0.18530202 2.0444266e+08 7.488869e+08 0.18530202 0.18530202 21752.926 1.1734034e+09
2.684047e+08 0.18530202 0.18530202 0.18530202 0.18530202 3.8379114e+08 1.7815334e+08 7.376058e+08
5.044484e+08 6.864122e+06 3.6827548e+06 0.18530202 0.18530202 0.18530202 2.2155454e+08 0.18530202
1.698734e+07 0.18530202 0.18530202 0.18530202 5.864238e+08 9.8172184e+07 7.4686165 0.18530202
1.8326094e+07 421.17892 0.18530202 3.16773e+06 0.18530202 6.3844954e+08 0.18530202 0.18530202
1.0258845e+08 716509.5 6.830512e+08 4.044805e+06 1802.5142 0.18530202 3.44145e+08 3.7174556e+07
0.18530202 1.2249984e+08 0.5388087 2.5850632e+08 2.0045194e+08 0.18530202 0.18530202 2.0991546e+07
0.18530202 0.18530202 0.18530202 19103.016 0.18530202 0.18530202 8.342629e+07 0.18530202
0.18530202 2.043154e+08 8.9953094e+08 519.9645 7.471272e+07 5.1545846e+08 1.0808193e+07 7.6949864e+07
0.18530202 4.2698104e+07 8.055613e+08 0.18530202 0.18530202 1.1553684e+07 3.9201504e+08 1.8708864e+08
0.18530202 0.18530202 2.2093648e+07 0.18678363 3.7487916e+07 5.0951704e+07 0.18530202 0.18530202
2.5283988e+07 1.3050651e+06 0.18530202 0.18530202 2.2700155 0.18530202 4.8045683e+08 0.18530202
0.18530202 0.18530202 2.4964907e+08 0.18530202 0.18530202 0.18530202 2.2285062e+07 3.4634002e+06
0.18530202 4.308028e+07 0.18530202 0.18530202 0.18530202 70470.125 0.18530202 1.4707443e+07

bn2.weight f4 [20]
00000000: cc4c e73f dc53 bc3f b478 bc3f 3706 b23f
00000010: 987c b73f 2071 c83f eb95 b03f c49b ea3f
00000020: 4990 b93f de81 eb3f 51da ea3f b663 b43f
00000030: c8e2 ba3f a26f ec3f 0053 b83f 0831 ed3f
00000040: 4c11 e93f f63f ec3f 2256 eb3f d0f7 e93f
1.8070312 1.4713092 1.4724336 1.3908147 1.4334898 1.5659523 1.3795751 1.8328786
1.4497157 1.8399007 1.8347875 1.4092929 1.4600458 1.8471568 1.440033 1.8530588
1.8208404 1.8457019 1.8385661 1.8278751

bn2.bias f4 [20]
00000000: bfd0 083f 82b9 02bf b714 15bf 2194 0abf
00000010: a2e4 04bf f597 14bf 2dc5 11bf f6c3 0c3f
00000020: 637d fbbe 1454 103f 821a 0f3f 8220 03bf
00000030: bc34 02bf a6f9 133f 4626 fabe 47b5 183f
00000040: 82ec 0b3f f7d0 103f 68d2 113f a3ed 053f
0.5344352 -0.5106431 -0.58234733 -0.54132277 -0.51911366 -0.5804437 -0.5694149 0.5498651
-0.491191 0.56378293 0.5589982 -0.5122148 -0.50861716 0.5780281 -0.48857325 0.5965161
0.5465776 0.56568855 0.5696168 0.5231573

bn2.running_mean f4 [20]
00000000: 7302 853d 4fa3 3c3e 1a63 1d3d 1ee0 2f3e
00000010: f088 e83d adee 843e 1ca2 f03d 9531 473e
00000020: 120c 3a3e 3cc4 c33d a7ba 2e3e b793 b23d
00000030: 7380 213e 8201 073e 7ac8 3f3e 6366 a23d
00000040: e797 ad3d abb9 d83d 39de 6b3e b8ce ff3d
0.06494608 0.18421672 0.03842459 0.17175338 0.11354244 0.25963345 0.1174967 0.19452508
0.18168667 0.09558913 0.1706339 0.087195806 0.15771656 0.13184169 0.1872882 0.07929685
0.08476239 0.10582288 0.2303399 0.124906

bn2.running_var f4 [20]
00000000: d0e2 573e bc0a 663e 66f1 423e f7df ac3e
00000010: 919e 503e 763e 813e 7068 8c3e fea5 d23e
00000020: b032 653e 14ca 813e 0057 bc3e 0a27 4d3e
00000030: 66df 543e 6cab 8e3e 0297 583e 34c0 633e
00000040: 21bc 603e 20eb 853e 47cc 013f d146 9b3e
0.21082616 0.22465032 0.19037399 0.33764622 0.20372988 0.25242966 0.2742343 0.41142267
0.22382617 0.25349486 0.36785126 0.20034423 0.20788345 0.2786516 0.21151355 0.22241288
0.21946765 0.2615595 0.5070233 0.30327466
