Results/NN_MLP_MLs/MLP_Ensemble/Model_Results/MGTwRD/test1/best_model_7.pt (torch, 116722 bytes, 14 tensors)

country_embedding.weight f4 [8, 10]
0	0x4119fbff	9.6240225
1	0x412edd39	10.929009
2	0x413241a2	11.141024
3	0xc146ff37	-12.437308
4	0xc130a678	-11.040642
5	0xc123090e	-10.189711
6	0x412764a3	10.4620695
7	0x4121e707	10.118903
8	0x41388cc4	11.534367
9	0xc11ebd4f	-9.921218
10	0x41241e52	10.257402
11	0x41306f71	11.027207
12	0x41408418	12.032249
13	0xc12d741f	-10.84085
14	0xc137bd24	-11.483677
15	0xc125d76a	-10.365091
16	0x4124f773	10.310412
17	0x4137ff9d	11.499906
18	0x41570c8d	13.440564
19	0xc1259355	-10.34847
20	0xc0ca2c91	-6.31794
21	0xc0baaaf8	-5.83337
22	0xc0ab9685	-5.362124
23	0x40c8eb9d	6.2787614
24	0x40d472f5	6.639033
25	0x40c75cc6	6.230075
26	0xc10bc852	-8.736406
27	0xc0e58a45	-7.1731286
28	0xc10c99db	-8.787562
29	0x40a34380	5.1019897
30	0x4099fdde	4.8122396
31	0x409a7412	4.8266687
32	0x40bc637b	5.8871436
33	0xc0d5f965	-6.6866937
34	0xc0cbd5e8	-6.3698616
35	0xc0775cab	-3.865031
36	0x40fadb5f	7.8392787
37	0x40c16f0d	6.044806
38	0x40b0937c	5.5180035
39	0xc0e0537d	-7.0101914
40	0xc0ec4453	-7.3833404
41	0xc08b15fa	-4.3464327
42	0xc0917a43	-4.5461745
43	0x4074356b	3.8157604
44	0x40978dd5	4.7360635
45	0x40b98da1	5.7985387
46	0xc07701c8	-3.8594837
47	0xc0921492	-4.565011
48	0xc0aa8cb2	-5.3296747
49	0x40d72962	6.7238016
50	0x41326a62	11.150972
51	0x412c8241	10.7818
52	0x41010e7e	8.066038
53	0xc14ae041	-12.6797495
54	0xc13cdfc5	-11.804631
55	0xc1246e2c	-10.276897
56	0x4156d900	13.4279785
57	0x413ac501	11.673097
58	0x412d7119	10.840112
59	0xc15b1121	-13.691682
60	0x40f39287	7.6116366
61	0x40c12a6a	6.0364275
62	0x40c6ca61	6.2122045
63	0xc0b4ef41	-5.654206
64	0xc0c7353e	-6.2252493
65	0xc0cb2fd8	-6.3495903
66	0x40bdd3bb	5.932096
67	0x40e86e18	7.263439
68	0x40a3a57f	5.113952
69	0xc1119d23	-9.100863
70	0xc086c007	-4.210941
71	0xc087ba33	-4.2414794
72	0xc0928e78	-4.579891
73	0x409a99e8	4.8312874
74	0x40811fee	4.0351477
75	0x405cbbb2	3.448956
76	0xc088111d	-4.252089
77	0xc0784762	-3.8793569
78	0xc0948eca	-4.6424303
79	0x404c5b5f	3.1930768

fc1.weight f4 [200, 114]
0	0x3f25ccee	0.6476582
1	0xc122e48f	-10.1808
2	0x408e4bbf	4.4467463
3	0x3f454025	0.77051
4	0xbef3c5b4	-0.47611773
5	0xbf18f0b3	-0.5974228
6	0x3fd0dea5	1.6317946
7	0xbd3a0956	-0.04541906
8	0xbecabcfc	-0.3959731
9	0xbf677152	-0.9040729
10	0xbe48f50b	-0.19624726
11	0x3fe273c0	1.7691574
12	0xbd0aeed5	-0.033919174
13	0x3f9c185b	1.2194933
14	0x3f8f0715	1.1174036
15	0x3ff3e173	1.9053177
16	0x3f867a25	1.0506026
17	0xbe2ad12a	-0.16681352
18	0x4036d621	2.8568194
19	0xc0b900ab	-5.7813315
20	0xc0b676b7	-5.7019916
21	0xc0cbec70	-6.372612
22	0xbe711c18	-0.23545873
23	0xc046192c	-3.0952864
24	0xc0ed2808	-7.4111366
25	0xc08dd8b6	-4.432704
26	0xc09ac0b3	-4.836023
27	0xc043c6a5	-3.0589993
28	0xc0780ef7	-3.8759134
29	0xbfa204d9	-1.2657729
30	0xc080e782	-4.02826
31	0xc054f665	-3.3275387
32	0xc082f568	-4.092457
33	0xbfab78b7	-1.3396214
34	0x3f38e972	0.7223121
35	0xbd9021af	-0.07037675
36	0x4093b4ad	4.615805
37	0x3e86510c	0.2623371
38	0xbf1d78ba	-0.6151234
39	0xbf375716	-0.7161726
40	0x3fce2b97	1.6107053
41	0xbd419c88	-0.04726842
42	0xbea8d486	-0.32974643
43	0xbf683f6b	-0.9072177
44	0xbe7a9b93	-0.2447341
45	0x3ff23dfe	1.8925169
46	0xbe29887b	-0.1655597
47	0x3f3411d6	0.70339715
48	0x3fb14156	1.3848064
49	0x3fd44c47	1.6585778
50	0x3f572225	0.84036475
51	0x3eb76bd3	0.3582445
52	0x402e84b5	2.7268498
53	0xc0b9b5c7	-5.8034396
54	0xc0b1a413	-5.5512786
55	0xc0c8057d	-6.25067
56	0xbe6d8f15	-0.23199113
57	0xc04393ed	-3.0559037
58	0xc0ea13c8	-7.3149147
59	0xc08c9226	-4.3928404
60	0xc09d6d04	-4.9195576
61	0xc03fc4aa	-2.9963784
62	0xc073d201	-3.8096926
63	0xbfab84d3	-1.339991
64	0xc082e113	-4.089975
65	0xc05cfca7	-3.4529207
66	0xc08382b9	-4.1097074
67	0xbfac690e	-1.346956
68	0x3ee785be	0.45219225
69	0x3b521172	0.0032053855
70	0x4096468d	4.696112
71	0x3e29ad0f	0.16569923
72	0xbf195562	-0.5989591
73	0xbf2b641b	-0.66949624
74	0x3fbc46e0	1.4709129
75	0x3dc4dd6a	0.09612544
76	0xbeba89df	-0.36433312
77	0xbf3ce0d6	-0.7378057
78	0xbe3657bc	-0.17806906
79	0x3ff933ff	1.9468993
80	0xbdf9f84a	-0.122055605
81	0x3f055850	0.5208788
82	0x3faa1053	1.3286232
83	0x3fc24176	1.5176227
84	0x3f47933e	0.7795905
85	0x3f1885cd	0.59579164
86	0x40329e0d	2.7908967
87	0xc0bce99e	-5.9035177
88	0xc0b1fa81	-5.561829
89	0xc0c86c41	-6.2632146
90	0xbe05bdb6	-0.1306065
91	0xc04acc6a	-3.1687264
92	0xc0ea09f2	-7.313714
93	0xc08bb0cf	-4.365333
94	0xc09e98c5	-4.9561486
95	0xc0423c2c	-3.0349226
96	0xc078d5f5	-3.888059
97	0xbfa81c21	-1.3133584
98	0xc07cd8b2	-3.950726
99	0xc05b7a7e	-3.4293513
100	0xc08123c0	-4.035614
101	0xbfa81b63	-1.3133358
102	0x3e57244e	0.21009943
103	0x3cefac3a	0.029256929
104	0xc114f2bd	-9.309262
105	0xc1155e32	-9.335497
106	0xc0fc9645	-7.8933434
107	0x41247a95	10.279927
108	0x41270a52	10.44002
109	0x410fa57a	8.9779
110	0xc12305ce	-10.188917
111	0xc1209b89	-10.037972
112	0xc107f333	-8.496875
113	0x41293059	10.574304
114	0x3caef2ff	0.021356104
115	0xbc036317	-0.00801923
116	0x3d024332	0.031802364
117	0xbc94ccb9	-0.018164026
118	0x3cd6259f	0.026140986
119	0xbdb07c74	-0.086174875
120	0x3d2f56eb	0.0428075
121	0x3db847e4	0.08998087
122	0xbc89fb61	-0.0168435
123	0xbd9892ac	-0.074498504
124	0xbd9f72d7	-0.07785576
125	0xbc93303b	-0.017967334
126	0xbab9b1b9	-0.0014167345
127	0x3c2b24a4	0.0104457475
128	0x3c4088e8	0.011751391
129	0x3d907ab0	0.07054651
130	0xbc8b31e8	-0.01699157
131	0x3cdaf47c	0.026727907
132	0xbd4be229	-0.04977623
133	0x3dbca7ee	0.092117175
134	0x3d1336a2	0.035940774
135	0xbc54d043	-0.012989107
136	0x3d7c2de0	0.061567187
137	0x3d07cc58	0.03315386
138	0x3c8394f7	0.016062243
139	0xbce27ebd	-0.027648324
140	0x3c40f3c5	0.011776869
141	0x3bdb6a9c	0.0066960584
142	0xbd602283	-0.054720413
143	0x3aafaa5b	0.001340221
144	0x3ca78b7c	0.020452254
145	0xbd6339b8	-0.055474967
146	0x3c890d23	0.016729897
147	0xbcfeac71	-0.031088086
148	0xbd9f94c1	-0.077920444
149	0xbd65bfc3	-0.05609108
150	0xbd983b9e	-0.07433246
151	0x3cb190bf	0.021675466
152	0x3d6aa9c6	0.057290815
153	0x3dae61e1	0.08514763
154	0x3dbc12b1	0.091832526
155	0x3d17199d	0.03688966
156	0x3d3ba1a2	0.045808442
157	0xbc82d814	-0.015972175
158	0x3d9e9152	0.077425614
159	0xbd12aad3	-0.035807442
160	0xbcd07df7	-0.02545069
161	0xbcff597a	-0.031170595
162	0xbd809516	-0.06278436
163	0xbd93d4ba	-0.07218309
164	0xbc9c67dd	-0.019092495
165	0x3d9b0661	0.07569576
166	0xbd3f1bc1	-0.046657328
167	0xbdae236d	-0.08502851
168	0xbcaf4d66	-0.021399211
169	0x3dadcf20	0.084867716
170	0x3cb90e62	0.022589866
171	0xbbc1fe5e	-0.0059202155
172	0xbcdb53ce	-0.02677336
173	0x3da86b45	0.08223585
174	0xbdb85064	-0.08999708
175	0x3d59610a	0.05307106
176	0x3cd05240	0.025429845
177	0x3d707be8	0.058711916
178	0xbd5e5970	-0.054284513
179	0xbcfb911e	-0.030708846
180	0xbd21385a	-0.03936038
181	0x3dba1ed3	0.090879105
182	0xbc4624bd	-0.01209372
183	0xbdb6e704	-0.089307815
184	0x3d405bba	0.046962477
185	0x3c93eeaf	0.01805815
186	0x3c51fab0	0.012816116
187	0xbd7fd230	-0.06245631
188	0xbdb3af5a	-0.0877368
189	0x3dadce4e	0.08486615
190	0xbd907668	-0.07053834
191	0xbc91cba6	-0.017797302
192	0xbc8c9f5d	-0.017165834
193	0x3d5b16a8	0.053488404
194	0xbda1b4c1	-0.07895804
195	0xbd5b9204	-0.05360605
196	0xbd4d94a7	-0.050190594
197	0xbd416e8e	-0.047224574
198	0x3d6aaf4a	0.057296075
199	0x3d6ad3a3	0.05733074
200	0x3d2e0658	0.04248652
201	0x3d9c92ec	0.076452106
202	0xbd7f235a	-0.062289573
203	0xb9c2fdc7	-0.00037191642
204	0xbd9b39a0	-0.075793505
205	0xb94044f5	-0.00018336235
206	0xbda3f087	-0.08004861
207	0xbdb8bf59	-0.09020872
208	0x3d71a2b8	0.05899307
209	0xbd29c3f2	-0.041446634
210	0xbbf486f6	-0.0074623777
211	0xbce22755	-0.027606646
212	0xbd9822f2	-0.0742854
213	0xbc191673	-0.009343731
214	0x3c62ae10	0.013835445
215	0x3d994374	0.07483569
216	0xbd2330c3	-0.039841425
217	0x3db6c1b0	0.08923662
218	0xbd319fda	-0.043365337
219	0x3d758eb4	0.059950545
220	0x3da78ac3	0.081807636
221	0x3c1eaa6a	0.009684185
222	0xbd03c0f9	-0.032166455
223	0x3d8de351	0.06928123
224	0xbcdfcdc4	-0.027319796
225	0xbd243b50	-0.040095627
226	0xbd05bc85	-0.03265049
227	0xbd9c712a	-0.07638772
228	0x3f1199ef	0.5687551
229	0xc123145b	-10.19247
230	0x4091d9d6	4.5578413
231	0x3f33b9d2	0.70205414
232	0xbefd0a8e	-0.49422115
233	0xbf0c124b	-0.5471541
234	0x3fd1a4da	1.6378434
235	0xbc024158	-0.0079501495
236	0xbef60c31	-0.48056176
237	0xbf6773bc	-0.9041097
238	0xbd81e8cb	-0.0634323
239	0x3fe1faa8	1.7654619
240	0xbd096a8a	-0.03354887
241	0x3f98d47a	1.1939843
242	0x3f9d8e40	1.2309036
243	0x3ff1c7d5	1.8889109
244	0x3f86ec2e	1.0540826
245	0xbe96f204	-0.29481518
246	0x40345568	2.8177128
247	0xc0bbd2b7	-5.869472
248	0xc0b43dcd	-5.632544
249	0xc0cafa9c	-6.343092
250	0xbdfd3d22	-0.12365176
251	0xc0440991	-3.063084
252	0xc0efd0e0	-7.4942474
253	0xc08eca77	-4.462215
254	0xc09df05e	-4.9355917
255	0xc040cf4a	-3.012652

fc1.bias f4 [200]
0	0x3f2cd56b	0.6751315
1	0x3cb50866	0.022098731
2	0x3f19e4b2	0.60114586
3	0x3ba20d6a	0.0049454467
4	0xbd39a628	-0.045324475
5	0xbda0a688	-0.07844263
6	0xbdb6257a	-0.08893867
7	0x3db48043	0.088135265
8	0xbd58f2e2	-0.052966006
9	0x3c12f5ab	0.008969705
10	0x3d513ba0	0.051082253
11	0x3f143007	0.57885784
12	0x3f198515	0.5996869
13	0x3f1a4550	0.6026201
14	0x3daf053d	0.08545921
15	0x3efdd001	0.49572757
16	0xbd222f69	-0.039595995
17	0x3cfefcbc	0.031126373
18	0x3dd3a21a	0.10333653
19	0xbbb56996	-0.0055362685
20	0x3f26f11e	0.65211666
21	0x3f058c53	0.5216724
22	0xbd3fc23e	-0.046816103
23	0x3f0d36ca	0.55161726
24	0x3f296c09	0.66180474
25	0x3f2feae4	0.6871779
26	0x3f0c2b8d	0.54753953
27	0x3f04f1c4	0.51931405
28	0x3f0579ad	0.5213879
29	0x3f265771	0.64977175
30	0xbd6bfa23	-0.057611596
31	0x3f24b1e1	0.6433392
32	0x3f238467	0.63873905
33	0x3f0eab65	0.5573028
34	0x3f0672ad	0.5251873
35	0x3c4de636	0.012567094
36	0x3f186cb0	0.59540844
37	0xbce020b7	-0.02735935
38	0x3f0ea247	0.55716366
39	0xbdba3bb4	-0.09093419
40	0x3f22503e	0.6340369
41	0x3a2a576f	0.0006498014
42	0x3f2076ce	0.6268128
43	0x3f317d07	0.693314
44	0x3f1acda0	0.6047001
45	0x3db9597b	0.0905027
46	0x3f00ffdb	0.50390404
47	0x3c68568a	0.014180789
48	0x3f268dd4	0.6506016
49	0xbe033f82	-0.12817195
50	0xbd420598	-0.047368616
51	0x3cd8bc36	0.026456933
52	0x3f02309c	0.5085542
53	0x3f0cc351	0.5498553
54	0xbc03048b	-0.007996689
55	0x3cecd05b	0.028907945
56	0x3f1e322b	0.617953
57	0x3c1c5487	0.009541637
58	0xbd95441e	-0.07288383
59	0xbd772b96	-0.0603443
60	0x3f215828	0.6302514
61	0xbc54609f	-0.012962489
62	0xbd6373ea	-0.055530466
63	0x3b1328da	0.002245477
64	0x3f0a205d	0.5395563
65	0xbd94dbf9	-0.07268519
66	0xbd3a8413	-0.045536112
67	0x3f217230	0.6306486
68	0x3f266f55	0.6501363
69	0x3f016fca	0.505612
70	0xbdbd63cf	-0.092475526
71	0x3f2b4b2c	0.6691158
72	0x3da85238	0.08218807
73	0x3d6c14b9	0.05763695
74	0x3f04f328	0.51933527
75	0xbda107ac	-0.078627914
76	0xbdbd6753	-0.09248223
77	0x3f1fd028	0.62426996
78	0x3f085618	0.5325637
79	0xbdb668d0	-0.0890671
80	0x3f248557	0.6426596
81	0x3cc99eeb	0.02461191
82	0x3f1f6a52	0.62271607
83	0xbd9f8f90	-0.07791054
84	0xbd546903	-0.05185796
85	0x3b08ec19	0.0020892678
86	0x3f0f6c42	0.56024563
87	0x3a70a65e	0.0009180064
88	0x3c4f7014	0.012660999
89	0xbd69a501	-0.057042126
90	0x3dac9fe5	0.08428935
91	0x3f1ffa61	0.6249142
92	0x3f07c4c9	0.53034645
93	0x3da13893	0.07872119
94	0x3c9e2a2f	0.019307224
95	0x3f20221e	0.6255206
96	0x3f2a994d	0.6664017
97	0x3d869389	0.06571109
98	0x3f2cecbf	0.67548746
99	0xbd17fc84	-0.037106052
100	0xbd9340dd	-0.07190106
101	0x3f270687	0.65244335
102	0x3da9d59d	0.082926966
103	0x3f223092	0.6335536
104	0xbc840f78	-0.016120657
105	0x3f04099b	0.51577157
106	0xbd26f660	-0.040762305
107	0x3c052716	0.008126995
108	0xbd58321c	-0.052782163
109	0xbd06775e	-0.03282868
110	0x3d784c44	0.060619608
111	0x3f1976fc	0.5994718
112	0x3f1a0e9f	0.6017856
113	0x3f253ccb	0.6454589
114	0x3f1c2839	0.60998875
115	0x3f26b138	0.65114164
116	0x3f19a39e	0.60015285
117	0x3f159570	0.5843115
118	0x3d645f44	0.055754915
119	0x3f2c9a7c	0.67423224
120	0x3d557b57	0.05211958
121	0x3c992731	0.018695446
122	0xbd99228a	-0.07477291
123	0xbd84e7f9	-0.06489558
124	0xbb277bf6	-0.0025556064
125	0x3f0b2af1	0.543624
126	0x3f156efc	0.58372474
127	0x3f0aa5d7	0.541593
128	0x3dbbb45b	0.091652595
129	0x3ca62e7e	0.020285841
130	0x3f0a0c29	0.53924805
131	0xbd8fbb38	-0.07018131
132	0x3d3a9111	0.045548502
133	0xbd805e94	-0.06268039
134	0x3f072d88	0.5280385
135	0x3f11d12f	0.56959814
136	0xbacce76e	-0.0015632936
137	0xb99f54b0	-0.0003038994
138	0xbd7aec1d	-0.06126033
139	0x3d90eb29	0.07076103
140	0x3db6aead	0.089200355
141	0x3d98e7b7	0.07466071
142	0x3d9af02e	0.07565342
143	0x3f15428f	0.58304685
144	0x3f1057f7	0.56384224
145	0x3f053177	0.520286
146	0x3f19aa8a	0.60025847
147	0xbcac4bc2	-0.021032218
148	0x3f0cf932	0.5506774
149	0x3f186f23	0.5954458
150	0x3d11f772	0.035636373
151	0xbd630620	-0.055425763
152	0x3cd34554	0.025789894
153	0xbd8e7762	-0.06956364
154	0x3c8c4783	0.017123943
155	0x3d1059af	0.03524178
156	0x3dabc2bb	0.08386751
157	0xbcddc09f	-0.027069388
158	0x3f25d5b3	0.64779204
159	0x3f2ea0b4	0.68213964
160	0x3cd531c2	0.026024703
161	0x3d92c04c	0.07165584
162	0x3d64f3f0	0.0558967
163	0x3f076f6c	0.5290439
164	0x3f009b85	0.50237304
165	0x3ee2749b	0.44229588
166	0x3f037eea	0.5136553
167	0x3f1e6f25	0.61888343
168	0x3f182f12	0.59446824
169	0x3f21e60c	0.6324165
170	0x3f00da7b	0.50333375
171	0x3d8a43ff	0.067512505
172	0x3d1e2add	0.038615096
173	0x3d33d0ec	0.043900415
174	0xbd812fa4	-0.06307915
175	0x3cc90aeb	0.024541339
176	0x3f2efb2e	0.6835202
177	0x3d011ed1	0.03152353
178	0x3f06a507	0.5259556
179	0x3d691334	0.05690308
180	0x3d53e922	0.051736005
181	0x3f03c59f	0.5147342
182	0x3f16bfb6	0.5888628
183	0x3f2206de	0.6329173
184	0x3f2effdc	0.6835916
185	0x3db62228	0.088932335
186	0x3d8063fb	0.0626907
187	0x3c07aa56	0.008280357
188	0x3d456e4b	0.048200887
189	0x3f0605b4	0.5235245
190	0x3cf8bc5e	0.030363258
191	0x3f006430	0.50152874
192	0x3cae782f	0.021297542
193	0xbdb5890f	-0.088640325
194	0xbda1fa6e	-0.07909094
195	0x3f03d9fa	0.5150448
196	0x3d6d838a	0.057986774
197	0x3da2c491	0.07947648
198	0x3f29b574	0.662925
199	0x3f0991ad	0.5373791

fc2.weight f4 [20, 200]
0	0x3d27fb25	0.041010994
1	0x3cba4745	0.022739062
2	0xbce8d06e	-0.0284197
3	0xbcaefd58	-0.021361038
4	0xbc93f919	-0.018063115
5	0x3cceb96e	0.025234904
6	0x3da22d14	0.07918754
7	0xbcad3475	-0.021143178
8	0x3d09ba2f	0.033624824
9	0x3d6bb3a0	0.05754435
10	0x3de6e3b0	0.11273897
11	0xbd01ad1c	-0.03165923
12	0xbbefa07d	-0.007312833
13	0x3bfe6816	0.007763873
14	0x3c8cdd89	0.01719548
15	0xbc363f30	-0.0111234635
16	0x3c03ca24	0.0080438
17	0x3c698e85	0.014255171
18	0xbc541a02	-0.012945654
19	0x3d15f169	0.03660718
20	0xbd5df523	-0.05418886
21	0xbd20fc86	-0.039303325
22	0x3d1fe5b8	0.039037436
23	0xbc0e8a2a	-0.008699933
24	0xbd6ad402	-0.057331093
25	0x3d1d739d	0.038440336
26	0xbd86d1e4	-0.06583002
27	0xbdb7a256	-0.0896651
28	0x3d212058	0.039337486
29	0x3cbbb70c	0.022914432
30	0x3d78a018	0.060699552
31	0xbceb72bb	-0.028741231
32	0xbd682c88	-0.056683093
33	0xbb2dcd79	-0.0026520176
34	0xbd9f40c8	-0.07776028
35	0x3d8d1ee5	0.06890658
36	0x3d2ad4e2	0.041706927
37	0xbd0f67f8	-0.03501126
38	0x3ad00d49	0.00158731
39	0x3d6f4feb	0.058425825
40	0x3d1225c9	0.035680566
41	0x3a6fae4b	0.0009143098
42	0xbd4331e8	-0.047655016
43	0x3abc9b59	0.0014389559
44	0xbc50e578	-0.012750022
45	0x3c973da3	0.018462008
46	0x3d34ad8a	0.044110812
47	0xbc716ef5	-0.014735927
48	0x3d763b4d	0.060115147
49	0xbd60791d	-0.054803003
50	0xbd286b79	-0.04111812
51	0xbd5fd3ad	-0.05464523
52	0xbd97568d	-0.07389555
53	0xbd39e284	-0.045382038
54	0x3cfdfd02	0.031004433
55	0x3bb04ac2	0.0053800056
56	0xbccd6e2e	-0.025076952
57	0x3d1ccba0	0.03828013
58	0xbcc87ed0	-0.024474531
59	0xbb7c1cf1	-0.00384694
60	0xbd502ccc	-0.05082397
61	0x3ba14eb4	0.004922712
62	0x3ccfdda2	0.025374237
63	0x3d592668	0.053015143
64	0xbccb9f81	-0.02485633
65	0xbd1d268b	-0.038366836
66	0xbd682c7f	-0.05668306
67	0xbd827560	-0.06370044
68	0xbd4d072a	-0.05005566
69	0xbd8e3b47	-0.069449
70	0xbbe90d53	-0.007112184
71	0x3d4f0bdc	0.05054842
72	0xbd283aab	-0.041071575
73	0xbd9b47cf	-0.07582056
74	0xbaac9507	-0.0013166972
75	0x3d3a3211	0.045457903
76	0xbd2eb07e	-0.042648785
77	0x3bf3b6f4	0.007437581
78	0x3d2171d3	0.03941519
79	0xbddb419c	-0.10705873
80	0x38f3584b	0.00011603589
81	0xbd0ef4c5	-0.0349014
82	0x3cda8498	0.026674554
83	0x3c9b2b72	0.018941615
84	0xba8ed867	-0.0010898233
85	0x3cec3a4d	0.028836394
86	0x3c16edd8	0.00921198
87	0xbc0777d2	-0.0082683135
88	0x3d0f68f6	0.035012208
89	0xbc8acf8d	-0.016944671
90	0x3c109c12	0.008826273
91	0xbda35c48	-0.079765856
92	0x3c9f3d01	0.019438269
93	0xbce69ca2	-0.02815086
94	0xbd85785d	-0.06517098
95	0xbc4ffbe2	-0.012694331
96	0x3d1ac84a	0.037788667
97	0xbcd43fdb	-0.025909355
98	0x3c08fc06	0.008360868
99	0xbd3cc7bd	-0.046088923
100	0x3da60919	0.08107204
101	0xbd402b24	-0.046916142
102	0xbd167b21	-0.03673852
103	0x3c86c0b8	0.016449317
104	0x3c541fe5	0.012947057
105	0x3d587429	0.052845154
106	0xbbd2dc8b	-0.006434982
107	0x3d227250	0.0396598
108	0xbc5465dd	-0.012963739
109	0xbd3bb7a2	-0.045829423
110	0x3d7639b0	0.06011361
111	0xbd91ab98	-0.07112807
112	0x3b90ceb7	0.0044191736
113	0xbc6931a7	-0.014233029
114	0xbd5cf2ed	-0.05394261
115	0xbc8215c9	-0.015879529
116	0x3d2fb29b	0.04289494
117	0x3d2a0c7b	0.04151581
118	0x3c8784b8	0.016542777
119	0xbc4f5695	-0.01265492
120	0x3d1f9f4e	0.038970284
121	0x3cba79a7	0.022763086
122	0xbccfa55c	-0.025347404
123	0xbc8c8573	-0.017153477
124	0xbdb3b4de	-0.08774732
125	0xbd3bc3c6	-0.045841
126	0xbcea4f29	-0.0286022
127	0xbd89fce9	-0.06737692
128	0xbb1340ea	-0.0022469112
129	0x3bf6852b	0.007523199
130	0x3d7373ef	0.059436735
131	0x3d558766	0.05213108
132	0x3d49b4c8	0.049244672
133	0xbc4daa6a	-0.012552837
134	0x3d14f4ec	0.03636639
135	0x3d2e96bb	0.042624217
136	0xbd74ded3	-0.059782814
137	0xbd24a9a9	-0.040200863
138	0x3b895fad	0.0041923136
139	0xbc8fa7f7	-0.017536147
140	0xbd08706c	-0.03331034
141	0xbd65786e	-0.056023054
142	0x3d664412	0.05621726
143	0xbd4ed025	-0.05049147
144	0xbc914e91	-0.017737659
145	0xbdaf51b3	-0.08560505
146	0xbbaf25bd	-0.005345075
147	0xbcda1b8c	-0.026624463
148	0x3c32ac49	0.010905334
149	0xbd4d5969	-0.050134096
150	0xbbb475ad	-0.005507192
151	0x3d4fbfbe	0.05071997
152	0x3cb9abfe	0.02266502
153	0x3d489fce	0.048980527
154	0x3ceb14ff	0.028696535
155	0x3da498a4	0.080369264
156	0x3d9501ba	0.0727572
157	0xbb7c5899	-0.0038504957
158	0xbd0be750	-0.034156144
159	0x3be1aac6	0.006886813
160	0x3c884381	0.01663375
161	0x3bf53e6e	0.007484249
162	0xbcba5c7e	-0.022749182
163	0x3ca48830	0.02008447
164	0xbc7f7acc	-0.015593242
165	0x3c7b7629	0.015347996
166	0xbc271028	-0.010196723
167	0x3d6a18b6	0.057152472
168	0x3d27a2a9	0.04092661
169	0x3d2f1929	0.042748604
170	0x3d35665a	0.044287063
171	0x3c494f56	0.012286982
172	0x3c108e7e	0.008823035
173	0x3da04936	0.07826464
174	0x3daa07e1	0.08302284
175	0x3bd70711	0.0065621217
176	0xbd4ea57b	-0.050450783
177	0x3c8ff7b1	0.017574163
178	0x3d4577b5	0.048209865
179	0xbd1a6ded	-0.03770249
180	0x3c536971	0.012903557
181	0x3cadabe2	0.021200124
182	0x3ca4708f	0.020073203
183	0xbd288ef3	-0.041151952
184	0xbd809e23	-0.06280162
185	0x3ce81d63	0.028334325
186	0x3d5e03cd	0.054202843
187	0x3c249d4c	0.010047268
188	0x3d7996f8	0.06093499
189	0xbd2551c0	-0.040361166
190	0x3d4c043a	0.04980872
191	0xbcf04ef0	-0.029334515
192	0x3d98a5d4	0.07453504
193	0x3c6c4b58	0.01442226
194	0x3d077f59	0.033080433
195	0x3c714a08	0.014727123
196	0xbba362b1	-0.00498613
197	0x3c974286	0.018464338
198	0x3c9b66e2	0.018969957
199	0xbd884108	-0.06653029
200	0xbd56469e	-0.05231344
201	0xbc80c82d	-0.015720451
202	0xbc2f336f	-0.010693415
203	0xba8bcb2f	-0.0010665412
204	0x3d9b894a	0.07594545
205	0x3c0f601f	0.008750944
206	0xbd1856ee	-0.037192278
207	0xbcee6b82	-0.029103998
208	0x3c0a3117	0.0084345555
209	0xbd9e148a	-0.07718761
210	0x3d8ef7f9	0.06980891
211	0xbd7d8811	-0.06189734
212	0x3d29a5a9	0.04141775
213	0x3bb6b0f5	0.005575294
214	0xbda91852	-0.08256592
215	0xbd5251e4	-0.05134763
216	0x3d6117ac	0.054954216
217	0x3cb3c84a	0.021946091
218	0x3d12137e	0.03566312
219	0x3d233fb4	0.039855674
220	0xbdc91b4f	-0.09819662
221	0xbb942a39	-0.004521635
222	0x3df9d0a6	0.12198
223	0x3d6735e5	0.056447882
224	0xbcf0c744	-0.029391892
225	0xbc67880b	-0.014131556
226	0x3d90b116	0.070650265
227	0xbd044c8c	-0.032299563
228	0xbd9161d3	-0.070987366
229	0xbcb05ea2	-0.0215295
230	0xbd964246	-0.073368594
231	0x3ab89d80	0.0014085025
232	0xbd2c7ac0	-0.04210925
233	0xba4900b3	-0.00076676457
234	0xbd9f3423	-0.07773616
235	0x3dae262c	0.085033745
236	0x3db5f010	0.08883679
237	0xbc6b9832	-0.014379548
238	0xbd9c76f4	-0.07639876
239	0x3b01d64d	0.001981157
240	0x3d728d19	0.059216592
241	0xbd580e37	-0.05274793
242	0x3bffc2ec	0.007805219
243	0x3c5316ac	0.012883823
244	0x3cce91c2	0.025215987
245	0xbd10eac6	-0.035380147
246	0x3d2626e4	0.040564433
247	0xbceec649	-0.029147284
248	0xbd29c8e8	-0.041451365
249	0xbc83139b	-0.01600056
250	0xbd1f5cfa	-0.03890703
251	0xbcaf2178	-0.021378264
252	0xbd954fb5	-0.072905935
253	0xbd3d7d92	-0.04626233
254	0x3cb20305	0.021729955
255	0x3d495a5c	0.04915844

fc2.bias f4 [20]
0	0x3bec7192	0.007215687
1	0x3c8aee4b	0.01695933
2	0x3d630fab	0.055434864
3	0x3d8136f9	0.06309313
4	0x3edc146c	0.4298433
5	0x3ef03173	0.46912727
6	0xbd367a6e	-0.04455035
7	0x3f0e2c79	0.5553661
8	0x3ce8bc15	0.028409997
9	0xbd7d8940	-0.06189847
10	0x3d8997de	0.067184195
11	0x3efdd5fd	0.49577323
12	0x3efbd6ca	0.4918731
13	0x3eef7faa	0.46777087
14	0x3ed2268d	0.41045037
15	0x3ee63443	0.44961748
16	0x3cbe76cb	0.023250004
17	0x3ecdb414	0.4017645
18	0x3c9080c0	0.017639518
19	0xbcf0e6b8	-0.02940689

fc3.weight f4 [1, 20]
0	0xbf06cc0e	-0.5265511
1	0xbed9116d	-0.42396107
2	0xbf13bf66	-0.57713926
3	0xbeff744f	-0.49893424
4	0x3f429105	0.7600253
5	0x3f178ceb	0.591994
6	0xbec789dc	-0.38972366
7	0x3f205436	0.62628496
8	0xbdb557c3	-0.0885463
9	0xbeb028cb	-0.34406123
10	0xbef651b2	-0.48109204
11	0x3f14ae47	0.58078426
12	0x3f47b000	0.7800293
13	0x3f050266	0.51956785
14	0x3f41961f	0.7561969
15	0x3f332df0	0.6999197
16	0xbeb7acff	-0.35874173
17	0x3f3db2ac	0.74100757
18	0xbf174137	-0.59083885
19	0xbee781c9	-0.45216206

bn1.weight f4 [200]
0	0x3fc3422f	1.5254573
1	0x3f800000	1.0
2	0x3fc3af88	1.5287943
3	0x3f800000	1.0
4	0x3f800000	1.0
5	0x3f800000	1.0
6	0x3f800000	1.0
7	0x3fc94054	1.5722756
8	0x3f800000	1.0
9	0x3f800000	1.0
10	0x3f800000	1.0
11	0x3fc3dd2f	1.5301875
12	0x3fc38867	1.5276002
13	0x3fc2ddf0	1.522398
14	0x3f299e16	0.66256845
15	0x3fc317f7	1.5241688
16	0x3f800000	1.0
17	0x3fc5849a	1.5431092
18	0x3fc63307	1.5484322
19	0x3fc83c71	1.5643445
20	0x3fc78c13	1.5589622
21	0x3fc4e514	1.5382409
22	0x3f800000	1.0
23	0x3fc46c43	1.5345539
24	0x3fbc0aba	1.4690773
25	0x3fc566a9	1.5421954
26	0x3fb93df5	1.4472033
27	0x3fc4699e	1.5344732
28	0x3fc287d5	1.5197703
29	0x3fc0c912	1.5061362
30	0x3f800000	1.0
31	0x3fc64c23	1.5491985
32	0x3fc40a34	1.5315614
33	0x3fc27bf0	1.5194073
34	0x3fc2d274	1.5220475
35	0x3fc6366c	1.5485358
36	0x3fb9de43	1.4520954
37	0x3fc52d73	1.5404495
38	0x3fc8c2b7	1.5684422
39	0x3fc6b089	1.5522624
40	0x3fc27bf0	1.5194073
41	0x3f800000	1.0
42	0x3fc035ac	1.5016379
43	0x3fc2e44c	1.5225921
44	0x3fc59753	1.5436805
45	0x3f800000	1.0
46	0x3fbb2500	1.4620667
47	0x3f800000	1.0
48	0x3fc405b7	1.5314244
49	0x3fc4f8c0	1.5388412
50	0x3f800000	1.0
51	0x3f800000	1.0
52	0x3fc256c6	1.5182731
53	0x3fc4582c	1.5339408
54	0x3f800000	1.0
55	0x3f800000	1.0
56	0x3fc1cc50	1.5140476
57	0x3fc4ed2f	1.5384883
58	0x3f800000	1.0
59	0x3f800000	1.0
60	0x3fbe534f	1.4869174
61	0x3f800000	1.0
62	0x3f800000	1.0
63	0x3f800000	1.0
64	0x3fc1d889	1.5144206
65	0x3fc6b77b	1.5524744
66	0x3fc6fcfb	1.5545954
67	0x3fc3c3b3	1.5294098
68	0x3fc3d7b7	1.5300206
69	0x3fc2d249	1.5220424
70	0x3f800000	1.0
71	0x3fc562c2	1.5420763
72	0x3f800000	1.0
73	0x3f800000	1.0
74	0x3fc48124	1.535191
75	0x3f800000	1.0
76	0x3fc13fba	1.5097573
77	0x3fc59400	1.5435791
78	0x3fc34391	1.5254995
79	0x3f800000	1.0
80	0x3fc0de44	1.506783
81	0x3f800000	1.0
82	0x3fc0180d	1.500734
83	0x3fc60b9c	1.5472293
84	0x3f800000	1.0
85	0x3f800000	1.0
86	0x3fc33b46	1.5252464
87	0x3f800000	1.0
88	0x3fc495d6	1.5358226
89	0x3f800000	1.0
90	0x3f800000	1.0
91	0x3fc4368c	1.5329146
92	0x3fc5d562	1.5455744
93	0x3f800000	1.0
94	0x3fca645a	1.5811875
95	0x3fc233a0	1.5172005
96	0x3fc156e9	1.5104648
97	0x3f800000	1.0
98	0x3fc2b453	1.521128
99	0x3f800000	1.0
100	0x3f800000	1.0
101	0x3fbf6d32	1.4955199
102	0x3f800000	1.0
103	0x3fc0634c	1.5030303
104	0x3f800000	1.0
105	0x3fc3d506	1.5299385
106	0x3fc578a7	1.5427445
107	0x3f800000	1.0
108	0x3f800000	1.0
109	0x3f800000	1.0
110	0x3f800000	1.0
111	0x3fc1f8ac	1.5154014
112	0x3fc3c6b0	1.529501
113	0x3fbdc41c	1.4825473
114	0x3fc482a9	1.5352374
115	0x3fc450f3	1.5337204
116	0x3fc1b4a5	1.5133253
117	0x3fc17b6b	1.5115789
118	0x3fc4782a	1.5349171
119	0x3fc0b92e	1.5056512
120	0x3f800000	1.0
121	0x3f800000	1.0
122	0x3f800000	1.0
123	0x3f800000	1.0
124	0x3f800000	1.0
125	0x3fc471c3	1.5347217
126	0x3fc03a21	1.501774
127	0x3fc221fe	1.5166624
128	0x3f800000	1.0
129	0x3f800000	1.0
130	0x3fc0ce3f	1.5062941
131	0x3f800000	1.0
132	0x3f800000	1.0
133	0x3f800000	1.0
134	0x3fc08299	1.5039855
135	0x3fc3ac20	1.5286903
136	0x3fc5184f	1.5398043
137	0x3f800000	1.0
138	0x3f800000	1.0
139	0x3f800000	1.0
140	0x3f800000	1.0
141	0x3f800000	1.0
142	0x3f800000	1.0
143	0x3fbc64c2	1.4718249
144	0x3fc092a4	1.5044751
145	0x3fc8058d	1.5626694
146	0x3fc2bf7c	1.5214686
147	0x3f800000	1.0
148	0x3fc79148	1.5591211
149	0x3fbc02cb	1.4688352
150	0x3f800000	1.0
151	0x3f800000	1.0
152	0x3fc77738	1.5583258
153	0x3f800000	1.0
154	0x3f800000	1.0
155	0x3f800000	1.0
156	0x3f800000	1.0
157	0x3f800000	1.0
158	0x3fc0f46a	1.5074589
159	0x3fc270b1	1.5190641
160	0x3f800000	1.0
161	0x3f800000	1.0
162	0x3f800000	1.0
163	0x3fc10408	1.5079355
164	0x3fc26ba6	1.5189102
165	0x3fb75b29	1.4324695
166	0x3fc29af7	1.5203542
167	0x3fbf7ae5	1.495938
168	0x3fc2051e	1.5157812
169	0x3fc4c198	1.537158
170	0x3fbe8b5e	1.4886281
171	0x3f800000	1.0
172	0x3f800000	1.0
173	0x3f800000	1.0
174	0x3f800000	1.0
175	0x3fc56e4b	1.5424284
176	0x3fc2b98f	1.5212878
177	0x3f800000	1.0
178	0x3fc07616	1.5036037
179	0x3fc5e8d5	1.546168
180	0x3f800000	1.0
181	0x3fc17282	1.511307
182	0x3fbff2cd	1.4995972
183	0x3fbeeab3	1.4915375
184	0x3fbea116	1.489291
185	0x3fc5fead	1.5468346
186	0x3f800000	1.0
187	0x3f800000	1.0
188	0x3f800000	1.0
189	0x3fc0a755	1.5051066
190	0x3fc934ad	1.57192
191	0x3fc1f5d7	1.5153149
192	0x3f800000	1.0
193	0x3f800000	1.0
194	0x3f800000	1.0
195	0x3fbe4e4e	1.4867647
196	0x3f800000	1.0
197	0x3f800000	1.0
198	0x3fbf582f	1.4948786
199	0x3fc06960	1.5032158

bn1.bias f4 [200]
0	0x3f10279b	0.56310433
1	0x3f157caa	0.5839335
2	0x3f14c8a2	0.5811864
3	0xbf1810ea	-0.5940081
4	0xbf15139b	-0.5823304
5	0x3f1953c2	0.5989343
6	0x3f0db41e	0.5535296
7	0xbf1719a8	-0.59023523
8	0x3f188e7e	0.59592426
9	0x3f154848	0.5831342
10	0xbf16ff24	-0.58983064
11	0x3f10a2af	0.56498235
12	0x3f128b6e	0.57244
13	0x3f182e6b	0.5944583
14	0x3f194ce2	0.5988294
15	0x3f123369	0.57109696
16	0xbf172fc0	-0.59057236
17	0xbf14a60c	-0.5806587
18	0xbf136e61	-0.575903
19	0xbf13fcec	-0.57807803
20	0x3f154916	0.58314645
21	0x3f170b27	0.5900139
22	0xbf17562b	-0.59115857
23	0x3f13f18d	0.5779045
24	0x3f093138	0.53590727
25	0x3f189fbb	0.5961873
26	0x3f0814d0	0.5315676
27	0x3f12361c	0.57113814
28	0x3f15fb11	0.5858622
29	0x3f15ec08	0.5856328
30	0x3f15003c	0.5820348
31	0x3f12bcd6	0.5731939
32	0x3f12a310	0.57280064
33	0x3f18c8d5	0.59681445
34	0x3f102b9e	0.56316555
35	0xbf17ca71	-0.59293276
36	0x3f0aa2c5	0.54154617
37	0xbf16d888	-0.5892415
38	0x3f129efa	0.5727383
39	0xbf14bd8d	-0.5810173
40	0x3f187ee5	0.59568626
41	0x3f171e1a	0.59030306
42	0x3f0d6c58	0.55243444
43	0x3f1630cf	0.58668226
44	0x3f115d94	0.56783414
45	0x3f17ebc7	0.5934414
46	0x3f0f5235	0.5598481
47	0x3f14defa	0.58152735
48	0x3f198546	0.59968984
49	0xbf17a928	-0.59242487
50	0xbf141103	-0.5783846
51	0xbf16739b	-0.5877015
52	0x3f1783ab	0.59185284
53	0x3f11c2bd	0.5693777
54	0xbf172d05	-0.5905307
55	0xbf168f8a	-0.58812773
56	0x3f17c7cf	0.5928926
57	0xbf16157e	-0.58626544
58	0xbf164db5	-0.5871232
59	0xbf15c2e5	-0.5850051
60	0x3f10c347	0.5654797
61	0xbf159ab5	-0.5843919
62	0xbf14d58e	-0.5813836
63	0xbf15fd30	-0.5858946
64	0x3f0fd7d5	0.5618871
65	0xbf19554a	-0.59895766
66	0xbf11277f	-0.5670089
67	0x3f0fa016	0.56103647
68	0x3f144d84	0.5793078
69	0x3f175b31	0.5912352
70	0x3f157ebe	0.5839652
71	0x3f18d377	0.5969767
72	0x3f1a59b7	0.60293144
73	0xbf12838c	-0.57231975
74	0x3f0fd2c8	0.56181
75	0x3f1008fe	0.5626372
76	0xbf15879d	-0.58410054
77	0x3f15a5fe	0.5845641
78	0x3f185065	0.5949767
79	0x3f149ea8	0.5805459
80	0x3f15c20b	0.5849921
81	0x3f164228	0.58694696
82	0x3f12c14a	0.57326186
83	0xbf18cba3	-0.59685725
84	0xbf16c474	-0.58893514
85	0xbf196ea2	-0.5993444
86	0x3f1224b4	0.57087255
87	0x3f159bd9	0.5844093
88	0xbf18d396	-0.59697855
89	0x3f15bbe6	0.58489835
90	0x3f1757f5	0.59118587
91	0x3f0e6b58	0.55632544
92	0x3f111515	0.56672794
93	0x3f18259d	0.59432393
94	0xbf16a25a	-0.5884148
95	0x3f19a20b	0.6001288
96	0x3f160fc0	0.5861778
97	0xbf1665d4	-0.5874913
98	0x3f151a27	0.5824303
99	0x3f174fab	0.5910594
100	0xbf158c57	-0.58417267
101	0x3f0dcb3d	0.5538824
102	0x3f17ecf4	0.59345937
103	0x3f1688d0	0.5880251
104	0xbf174994	-0.59096646
105	0x3f18636e	0.5952672
106	0xbf18e886	-0.597298
107	0xbf182490	-0.5943079
108	0x3f162d8c	0.5866325
109	0xbf1428ad	-0.57874566
110	0x3f17ac80	0.5924759
111	0x3f16094a	0.58607924
112	0x3f17e451	0.5933276
113	0x3f11635d	0.5679224
114	0x3f14b7e2	0.5809308
115	0x3f16cdfb	0.5890805
116	0x3f174f8d	0.5910576
117	0x3f119dd7	0.5688147
118	0xbf123a60	-0.57120323
119	0x3f0f77d4	0.5604222
120	0xbf14c9e2	-0.5812055
121	0xbf16d01b	-0.58911294
122	0x3f14ad40	0.5807686
123	0x3f17ab3e	0.5924567
124	0x3f15db07	0.58537334
125	0x3f0eec5e	0.5582942
126	0x3f10a8ab	0.56507367
127	0x3f10d8d0	0.5658083
128	0xbf18a6e0	-0.5962963
129	0xbf15f323	-0.5857412
130	0x3f14f0d8	0.5818
131	0x3f119c64	0.5687926
132	0xbf147b18	-0.58000326
133	0xbf1770eb	-0.59156674
134	0x3f14981d	0.58044606
135	0x3f15bc9c	0.5849092
136	0xbf128626	-0.57235944
137	0x3f173508	0.59065294
138	0x3f161cc4	0.5863764
139	0x3f1a34b9	0.602367
140	0x3f168689	0.58799034
141	0x3f17ec79	0.59345204
142	0x3f13e852	0.5777637
143	0x3f095e15	0.5365918
144	0x3f115c72	0.56781685
145	0x3f113aa6	0.56730115
146	0x3f14826f	0.58011526
147	0x3f1682f7	0.58793586
148	0x3f159b78	0.5844035
149	0x3f0d2a75	0.5514291
150	0x3f184697	0.5948271
151	0xbf17d74d	-0.593129
152	0xbf13cffd	-0.5773924
153	0x3f17918c	0.5920646
154	0xbf15fdfe	-0.58590686
155	0x3f111fce	0.56689155
156	0xbf16b198	-0.58864737
157	0xbf176a6c	-0.5914676
158	0x3f125dbc	0.5717428
159	0x3f11e19d	0.56984884
160	0x3f15ac93	0.5846645
161	0x3f16b4cb	0.5886962
162	0x3f172c3d	0.5905188
163	0x3f10bc02	0.5653688
164	0x3f148949	0.5802198
165	0x3f0b246e	0.5435246
166	0x3f165570	0.5872412
167	0x3f10d615	0.56576663
168	0x3f19003e	0.59765995
169	0x3f142a08	0.57876635
170	0x3f152cf8	0.5827174
171	0xbf157406	-0.5838016
172	0xbf17504b	-0.5910689
173	0x3f11aae9	0.56901413
174	0xbf15e54a	-0.5855299
175	0xbf0e031f	-0.5547351
176	0x3f13bb11	0.57707316
177	0x3f15cfee	0.585204
178	0x3f14e52a	0.58162177
179	0xbf174ed1	-0.5910464
180	0xbf18e3b5	-0.59722453
181	0x3f0ed37b	0.55791444
182	0x3f165d4c	0.5873611
183	0x3f14cb03	0.5812227
184	0x3f0fbbbb	0.5614583
185	0xbf09d48f	-0.53839964
186	0x3f18d31e	0.5969714
187	0xbf15a4e9	-0.5845476
188	0x3f1514fd	0.5823515
189	0x3f126373	0.57183
190	0xbf16a20c	-0.58841014
191	0x3f12269b	0.5709016
192	0xbf193065	-0.5983947
193	0x3f176701	0.59141546
194	0x3f185b4d	0.59514314
195	0x3f114e9a	0.5676056
196	0xbf178ae5	-0.5919631
197	0x3f151380	0.5823288
198	0x3f17f976	0.5936502
199	0x3f133f52	0.57518494

bn1.running_mean f4 [200]
0	0x462bcd3e	10995.311
1	0x00000000	0.0
2	0x4595e2a6	4796.331
3	0x00000000	0.0
4	0x00000000	0.0
5	0x00000000	0.0
6	0x00000000	0.0
7	0x44949a6b	1188.8256
8	0x00000000	0.0
9	0x00000000	0.0
10	0x00000000	0.0
11	0x460fa056	9192.084
12	0x46390877	11842.116
13	0x44aae712	1367.221
14	0x3aabd184	0.0013108705
15	0x45a54109	5288.1294
16	0x00000000	0.0
17	0x456a32e1	3747.18
18	0x42e863ab	116.194664
19	0x403164eb	2.7717845
20	0x4550f020	3343.0078
21	0x4580a4df	4116.609
22	0x00000000	0.0
23	0x4657993e	13798.311
24	0x460f062c	9153.543
25	0x4540dec5	3085.923
26	0x468bfb90	17917.781
27	0x452a6f94	2726.9736
28	0x4664adcf	14635.452
29	0x462909d1	10818.454
30	0x00000000	0.0
31	0x4668e851	14906.079
32	0x462dc2a1	11120.657
33	0x46655b56	14678.834
34	0x4569e6e7	3742.4314
35	0x45e6926c	7378.3027
36	0x46c9043c	25730.117
37	0x4191880e	18.191433
38	0x4483ba22	1053.8167
39	0x4525f90d	2655.5657
40	0x4636b8b2	11694.174
41	0x00000000	0.0
42	0x46be9ab4	24397.352
43	0x400ac021	2.1679766
44	0x448d6d4c	1131.4155
45	0x00000000	0.0
46	0x46584104	13840.254
47	0x00000000	0.0
48	0x4617b6b9	9709.681
49	0x461a6670	9881.609
50	0x00000000	0.0
51	0x00000000	0.0
52	0x45894171	4392.18
53	0x461e8c7c	10147.121
54	0x00000000	0.0
55	0x00000000	0.0
56	0x454a438f	3236.2224
57	0x45efd3ca	7674.4736
58	0x00000000	0.0
59	0x00000000	0.0
60	0x45895c39	4395.528
61	0x00000000	0.0
62	0x00000000	0.0
63	0x00000000	0.0
64	0x46cbd9ae	26092.84
65	0x3ea32d91	0.31870702
66	0x4583fd66	4223.675
67	0x4511039e	2320.226
68	0x4621743c	10333.059
69	0x45e5c079	7352.059
70	0x00000000	0.0
71	0x45b4f0d0	5790.1016
72	0x00000000	0.0
73	0x00000000	0.0
74	0x45920280	4672.3125
75	0x00000000	0.0
76	0x411bd211	9.738786
77	0x45c98fea	6449.9893
78	0x46350820	11586.031
79	0x00000000	0.0
80	0x4680839e	16449.809
81	0x00000000	0.0
82	0x4615b082	9580.127
83	0x44e3aa0e	1821.3142
84	0x00000000	0.0
85	0x00000000	0.0
86	0x46b5a022	23248.066
87	0x00000000	0.0
88	0x4552a306	3370.189
89	0x00000000	0.0
90	0x00000000	0.0
91	0x45203b84	2563.7197
92	0x4574a3b7	3914.2322
93	0x00000000	0.0
94	0x416fb401	14.981446
95	0x4611228b	9288.636
96	0x450adfcd	2221.9875
97	0x00000000	0.0
98	0x45b9f3d0	5950.4766
99	0x00000000	0.0
100	0x00000000	0.0
101	0x462fc7d7	11249.96
102	0x00000000	0.0
103	0x45f52f8d	7845.944
104	0x00000000	0.0
105	0x468bdfeb	17903.959
106	0x45ed2400	7588.5
107	0x00000000	0.0
108	0x00000000	0.0
109	0x00000000	0.0
110	0x00000000	0.0
111	0x450d720c	2263.128
112	0x45b67e41	5839.7817
113	0x46c9ec78	25846.234
114	0x428a357e	69.10448
115	0x46892d42	17558.629
116	0x461c4598	10001.398
117	0x46381d07	11783.257
118	0x4608aab6	8746.678
119	0x4686dd7c	17262.742
120	0x00000000	0.0
121	0x00000000	0.0
122	0x00000000	0.0
123	0x00000000	0.0
124	0x00000000	0.0
125	0x4645d703	12661.753
126	0x46baa9a5	23892.822
127	0x464e0e21	13187.532
128	0x00000000	0.0
129	0x00000000	0.0
130	0x46bbdc7b	24046.24
131	0x00000000	0.0
132	0x00000000	0.0
133	0x00000000	0.0
134	0x463b8287	12000.632
135	0x461cc895	10034.1455
136	0x44a0b4e4	1285.6528
137	0x00000000	0.0
138	0x00000000	0.0
139	0x00000000	0.0
140	0x00000000	0.0
141	0x00000000	0.0
142	0x00000000	0.0
143	0x3f83ceb6	1.0297458
144	0x468232b4	16665.352
145	0x452076f8	2567.4355
146	0x452c2686	2754.4077
147	0x00000000	0.0
148	0x456c8f1b	3784.944
149	0x46262b8c	10634.887
150	0x00000000	0.0
151	0x00000000	0.0
152	0x3c8a3212	0.016869579
153	0x00000000	0.0
154	0x00000000	0.0
155	0x00000000	0.0
156	0x00000000	0.0
157	0x00000000	0.0
158	0x466c2d7e	15115.373
159	0x458a1251	4418.2896
160	0x00000000	0.0
161	0x00000000	0.0
162	0x00000000	0.0
163	0x45e9105c	7458.045
164	0x4654211e	13576.279
165	0x467bd78d	16117.888
166	0x46797584	15965.379
167	0x464335f5	12493.489
168	0x45cff30d	6654.3813
169	0x4611d0af	9332.171
170	0x458fd5f2	4602.743
171	0x00000000	0.0
172	0x00000000	0.0
173	0x00000000	0.0
174	0x00000000	0.0
175	0x41575a43	13.459537
176	0x45adc063	5560.0483
177	0x00000000	0.0
178	0x464b9144	13028.316
179	0x3f8f9957	1.1218671
180	0x00000000	0.0
181	0x460c54f4	8981.238
182	0x44746540	977.58203
183	0x465a0f66	13955.85
184	0x45faa29d	8020.3267
185	0x438685c5	269.04507
186	0x00000000	0.0
187	0x00000000	0.0
188	0x00000000	0.0
189	0x45330f74	2864.9658
190	0x3fb03ff4	1.3769517
191	0x452728c4	2674.5479
192	0x00000000	0.0
193	0x00000000	0.0
194	0x00000000	0.0
195	0x463dfba5	12158.911
196	0x00000000	0.0
197	0x00000000	0.0
198	0x460d263c	9033.559
199	0x46d23a9e	26909.309

bn1.running_var f4 [200]
0	0x4d1aa6f2	1.6216451e+08
1	0x3e3dbfd0	0.18530202
2	0x4bf10e37	3.159563e+07
3	0x3e3dbfd0	0.18530202
4	0x3e3dbfd0	0.18530202
5	0x3e3dbfd0	0.18530202
6	0x3e3dbfd0	0.18530202
7	0x4a14b07e	2.4361275e+06
8	0x3e3dbfd0	0.18530202
9	0x3e3dbfd0	0.18530202
10	0x3e3dbfd0	0.18530202
11	0x4cd6b054	1.1255875e+08
12	0x4d37737b	1.9236242e+08
13	0x4a102189	2.3614422e+06
14	0x3e41bc97	0.18919598
15	0x4c190759	4.0115556e+07
16	0x3e3dbfd0	0.18530202
17	0x4b9e0398	2.0711216e+07
18	0x47ac4d4e	88218.61
19	0x42edfa54	118.98892
20	0x4b61e5aa	1.4804394e+07
21	0x4baac528	2.2383184e+07
22	0x3e3dbfd0	0.18530202
23	0x4d77bc93	2.5977067e+08
24	0x4cd807a3	1.1326185e+08
25	0x4b52f704	1.3825796e+07
26	0x4dce0dbc	4.3212582e+08
27	0x4b1fbbd8	1.0468312e+07
28	0x4d8c486e	2.9419462e+08
29	0x4d1c96e5	1.6419592e+08
30	0x3e3dbfd0	0.18530202
31	0x4d92df70	3.080146e+08
32	0x4d23ba44	1.7168083e+08
33	0x4d8a197e	2.896158e+08
34	0x4ba09fc1	2.1053314e+07
35	0x4c8a7e83	7.261084e+07
36	0x4e59dcda	9.137824e+08
37	0x45edea9c	7613.326
38	0x49cfc110	1.701922e+06
39	0x4b0e45e1	9.324001e+06
40	0x4d2f5b89	1.8387573e+08
41	0x3e3dbfd0	0.18530202
42	0x4e44326c	8.229097e+08
43	0x4502b85c	2091.5225
44	0x4a2ee053	2.8651728e+06
45	0x3e3dbfd0	0.18530202
46	0x4d756ccd	2.5734677e+08
47	0x3e3dbfd0	0.18530202
48	0x4cf955fa	1.3072379e+08
49	0x4d029fae	1.3696893e+08
50	0x3e3dbfd0	0.18530202
51	0x3e3dbfd0	0.18530202
52	0x4bd75979	2.822629e+07
53	0x4d0a5341	1.450445e+08
54	0x3e3dbfd0	0.18530202
55	0x3e3dbfd0	0.18530202
56	0x4b6601cb	1.5073739e+07
57	0x4c9eddf2	8.329205e+07
58	0x3e3dbfd0	0.18530202
59	0x3e3dbfd0	0.18530202
60	0x4bc744e2	2.6118596e+07
61	0x3e3dbfd0	0.18530202
62	0x3e3dbfd0	0.18530202
63	0x3e3dbfd0	0.18530202
64	0x4e5f3316	9.361668e+08
65	0x42952043	74.56301
66	0x4bbae404	2.4496136e+07
67	0x4acb1ca7	6.6555715e+06
68	0x4d096850	1.4408218e+08
69	0x4c8c2afc	7.348835e+07
70	0x3e3dbfd0	0.18530202
71	0x4c354ede	4.7528824e+07
72	0x3e3dbfd0	0.18530202
73	0x3e3dbfd0	0.18530202
74	0x4bdedf00	2.921216e+07
75	0x3e3dbfd0	0.18530202
76	0x462e41f9	11152.493
77	0x4c512153	5.482222e+07
78	0x4d2bc802	1.8012573e+08
79	0x3e3dbfd0	0.18530202
80	0x4db2eb6b	3.752216e+08
81	0x3e3dbfd0	0.18530202
82	0x4cea5a4b	1.2286831e+08
83	0x4a9f2231	5.2144885e+06
84	0x3e3dbfd0	0.18530202
85	0x3e3dbfd0	0.18530202
86	0x4e30152c	7.385444e+08
87	0x3e3dbfd0	0.18530202
88	0x4b80ce33	1.688279e+07
89	0x3e3dbfd0	0.18530202
90	0x3e3dbfd0	0.18530202
91	0x4b118b2a	9.538346e+06
92	0x4b9a23c8	2.0203408e+07
93	0x3e3dbfd0	0.18530202
94	0x45b8a7c4	5908.9707
95	0x4ce0bcc5	1.1782711e+08
96	0x4adaf8d9	7.1752765e+06
97	0x3e3dbfd0	0.18530202
98	0x4c34e761	4.7422852e+07
99	0x3e3dbfd0	0.18530202
100	0x3e3dbfd0	0.18530202
101	0x4d22e98c	1.7082592e+08
102	0x3e3dbfd0	0.18530202
103	0x4ca07219	8.411975e+07
104	0x3e3dbfd0	0.18530202
105	0x4dd1d98e	4.4008698e+08
106	0x4c942f92	7.769205e+07
107	0x3e3dbfd0	0.18530202
108	0x3e3dbfd0	0.18530202
109	0x3e3dbfd0	0.18530202
110	0x3e3dbfd0	0.18530202
111	0x4aff9006	8.374275e+06
112	0x4c32312d	4.6711988e+07
113	0x4e58dda7	9.096012e+08
114	0x472ffd47	45053.277
115	0x4dc6f24b	4.1722096e+08
116	0x4cfd4156	1.3277867e+08
117	0x4d391773	1.9408261e+08
118	0x4cc3d8ca	1.0268014e+08
119	0x4dc63422	4.1566317e+08
120	0x3e3dbfd0	0.18530202
121	0x3e3dbfd0	0.18530202
122	0x3e3dbfd0	0.18530202
123	0x3e3dbfd0	0.18530202
124	0x3e3dbfd0	0.18530202
125	0x4d50d983	2.1899474e+08
126	0x4e3a176a	7.8052416e+08
127	0x4d607144	2.3534496e+08
128	0x3e3dbfd0	0.18530202
129	0x3e3dbfd0	0.18530202
130	0x4e3a94ae	7.825765e+08
131	0x3e3dbfd0	0.18530202
132	0x3e3dbfd0	0.18530202
133	0x3e3dbfd0	0.18530202
134	0x4d3da275	1.9884629e+08
135	0x4d00f5d1	1.3522459e+08
136	0x4a2fb9b5	2.8790852e+06
137	0x3e3dbfd0	0.18530202
138	0x3e3dbfd0	0.18530202
139	0x3e3dbfd0	0.18530202
140	0x3e3dbfd0	0.18530202
141	0x3e3dbfd0	0.18530202
142	0x3e3dbfd0	0.18530202
143	0x449a716c	1235.5444
144	0x4db38ba4	3.7653414e+08
145	0x4b1cfde1	1.0288609e+07
146	0x4b2bed44	1.1267396e+07
147	0x3e3dbfd0	0.18530202
148	0x4b8d5e16	1.8529324e+07
149	0x4d141966	1.5529328e+08
150	0x3e3dbfd0	0.18530202
151	0x3e3dbfd0	0.18530202
152	0x3f121530	0.5706358
153	0x3e3dbfd0	0.18530202
154	0x3e3dbfd0	0.18530202
155	0x3e3dbfd0	0.18530202
156	0x3e3dbfd0	0.18530202
157	0x3e3dbfd0	0.18530202
158	0x4d940f5e	3.105044e+08
159	0x4bce0b46	2.7006604e+07
160	0x3e3dbfd0	0.18530202
161	0x3e3dbfd0	0.18530202
162	0x3e3dbfd0	0.18530202
163	0x4c8ffe18	7.549357e+07
164	0x4d71f76d	2.5372027e+08
165	0x4da77e24	3.5125773e+08
166	0x4da89517	3.5354288e+08
167	0x4d4ec795	2.1682414e+08
168	0x4c6f7661	6.2773636e+07
169	0x4ce8d90b	1.2207932e+08
170	0x4bd8c0b7	2.8410222e+07
171	0x3e3dbfd0	0.18530202
172	0x3e3dbfd0	0.18530202
173	0x3e3dbfd0	0.18530202
174	0x3e3dbfd0	0.18530202
175	0x45978c84	4849.5645
176	0x4c1f5ebd	4.1777908e+07
177	0x3e3dbfd0	0.18530202
178	0x4d59a9b7	2.2823614e+08
179	0x43fcc658	505.54956
180	0x3e3dbfd0	0.18530202
181	0x4cd642e2	1.1233461e+08
182	0x49ae6261	1.4285561e+06
183	0x4d79b380	2.6183066e+08
184	0x4cac2e5b	9.027247e+07
185	0x48bb15dd	383150.9
186	0x3e3dbfd0	0.18530202
187	0x3e3dbfd0	0.18530202
188	0x3e3dbfd0	0.18530202
189	0x4b411b8a	1.2655498e+07
190	0x43e3a87d	455.3163
191	0x4b2abe46	1.118983e+07
192	0x3e3dbfd0	0.18530202
193	0x3e3dbfd0	0.18530202
194	0x3e3dbfd0	0.18530202
195	0x4d458914	2.0713094e+08
196	0x3e3dbfd0	0.18530202
197	0x3e3dbfd0	0.18530202
198	0x4ccd943f	1.0778265e+08
199	0x4e69d793	9.808048e+08

bn2.weight f4 [20]
0	0x3fb31ed8	1.3993788
1	0x3fbe53be	1.4869306
2	0x3fb49e48	1.4110804
3	0x3faa7c8d	1.331926
4	0x3fc74ec6	1.5570915
5	0x3fcb3418	1.5875273
6	0x3f9eb5e6	1.2399261
7	0x3fca27c1	1.5793382
8	0x3f6f9c9d	0.9359835
9	0x3fa213d9	1.2662307
10	0x3fb880e8	1.4414339
11	0x3fca49a4	1.5803723
12	0x3fc93730	1.5719967
13	0x3fc35816	1.5261257
14	0x3fc909ef	1.5706156
15	0x3fc896d7	1.5671033
16	0x3fb5e8c6	1.4211662
17	0x3fc6d473	1.5533584
18	0x3fb27032	1.3940489
19	0x3fb8edb5	1.4447542

bn2.bias f4 [20]
0	0xbedfce9a	-0.43712312
1	0xbefd2648	-0.4944327
2	0xbedc878b	-0.4307216
3	0xbedcc128	-0.43116117
4	0x3ee83e45	0.45360008
5	0x3f03f121	0.5153981
6	0xbee3b33e	-0.44472688
7	0x3efcf778	0.49407554
8	0x3de5530d	0.11197481
9	0xbef12d1d	-0.4710473
10	0xbeea5856	-0.4577052
11	0x3f054e2a	0.52072394
12	0x3ee7ac27	0.4524853
13	0x3ef7e945	0.48420158
14	0x3ee96404	0.45584118
15	0x3eefd62d	0.4684309
16	0xbedef506	-0.43546313
17	0x3ee9e152	0.45679718
18	0xbed9ed45	-0.42563835
19	0xbeef7838	-0.46771407

bn2.running_mean f4 [20]
0	0x3e438edb	0.19097464
1	0x3eaf75ee	0.3426966
2	0x3e97319f	0.29530045
3	0x3def29af	0.116778724
4	0x3e085196	0.13312373
5	0x3e5d1781	0.21590997
6	0x3d9231f7	0.07138436
7	0x3ddea64a	0.10871561
8	0x3e255922	0.16147283
9	0x3da5ee04	0.081020385
10	0x3e9a50df	0.30139825
11	0x3da984ee	0.082773075
12	0x3e0b35b3	0.13594703
13	0x3e0e7de1	0.13915206
14	0x3dcfd1bd	0.10147426
15	0x3df42932	0.1192192
16	0x3ea02896	0.31280965
17	0x3dfbf378	0.12302297
18	0x3e6d6415	0.2318271
19	0x3e6106f8	0.21975315

bn2.running_var f4 [20]
0	0x3e618909	0.22024931
1	0x3e94695e	0.2898664
2	0x3e86a2e2	0.26296145
3	0x3e49a69c	0.19692463
4	0x3ea2a5bf	0.3176708
5	0x3ef56d54	0.47934973
6	0x3e71b6a7	0.23604833
7	0x3e79f510	0.2440989
8	0x3e588bb4	0.21147043
9	0x3e72e475	0.23719962
10	0x3e858c2b	0.26083502
11	0x3e754c76	0.23954949
12	0x3e9d3876	0.3070714
13	0x3eb01db2	0.34397656
14	0x3e8b1d5c	0.27170837
15	0x3e91f4e8	0.2850716
16	0x3e8d6a71	0.2762027
17	0x3ea16803	0.31524667
18	0x3e71fc0d	0.23631306
19	0x3e773098	0.24139631
