Results/NN_MLP_MLs/MLP_Ensemble/Model_Results/AllVar/var_ly/gelu_5lyr_128_64_64/best_model_0.pt (torch, 98973 bytes, 20 tensors)

country_embedding.weight f4 [8, 2]
00000000: 1313 b9c1 a37b bd41 9b81 afc1 1f16 ba41
00000010: 5209 bf41 a554 cac1 6d0e 16c1 91b3 2241
00000020: 54a4 51c1 f3dc 5441 7697 5cc1 d750 6741
00000030: 4ea6 4bbf fa01 a83f 8ddf 813e fa6d e1bd
-23.134314 23.68537 -21.938284 23.260801 23.87955 -25.29133 -9.378522 10.168839
-13.102619 13.303943 -13.786978 14.457236 -0.79550636 1.3125603 0.25365868 -0.110073045

fc1.weight f4 [128, 74]
00000000: 954c b0be ae6a 2a3c 9e49 4d3c 1c04 20ba
00000010: 86c8 553b 0f01 da3b 847a 7abb 1183 0a3b
00000020: a0d1 1d3c 5ed0 12bb 42b3 e3ba 017c 78bc
00000030: c973 e2b9 fd0b 4abc 2c5f 593a d215 37bb
00000040: cab6 ee3b 98b0 2039 f44c e9bb d22f e43a
00000050: 8564 2f3b 5fc7 0bbb 1e3e a23b 482a 023b
00000060: 48cf 47bb b090 9138 7777 333b 27c9 eb3b
00000070: ae4f 0b3b e0c4 ebba 728f f4ba 8c59 533b
00000080: 275f bdbb decf c23a 343c bdbe c8d0 553c
00000090: d00f 093c bf8e 973a 7efe abba eca8 3fbb
000000a0: 6e1a ec3a 10d8 193b ec5d a33b 2cce 70bb
000000b0: 6bea 4c3a 8cde 203a 8014 8bbb 26fb 1d3c
000000c0: d6ce f7ba 0e17 8cba d9ab a83c c283 173a
000000d0: 3127 bdbe 748c 9e3c a90c cebb e76e 8a3a
000000e0: 685a b33a 02f4 953a 714c 25bc d84a 0a3c
000000f0: 5e15 703b 0000 c132 5ecb eeba eeed c73b
00000100: 8a72 e7ba 9098 2bbb e11a 8dba 3d6c b43a
00000110: 03a4 5dbc d221 8aba 1143 bdbe 3e41 2dbd
00000120: 34d5 5cb9 6870 4f39 7cf2 963b 2881 323a
00000130: c509 90bc 28fc 47bb f614 063c c202 59bc
00000140: 5b57 853b 27a0 a53c 97ff cbbc 6849 383c
00000150: b3c4 17bc 3850 453c 7c45 993c 81eb 21bc
00000160: a5cb 113c 2a6a 4cbc 68d4 afbb 50a9 feba
00000170: 2601 da3b 8315 4cbd 9af5 923b c41c 32bb
00000180: 8ec8 22bc aa88 f3bb a581 47bc b0ea ab3b
00000190: 507e 8b3c 5162 523b 08e1 1bba a800 89bc
000001a0: ab63 32bc 5d11 b53b b7c3 4ebc 3add 0dbb
000001b0: f3ba 5bbd b448 a4bb 3430 ef3b b3b0 6e3c
000001c0: ca30 27bc d0af 3f3a 0c04 453a b6ac 2cbc
000001d0: 3848 de3b 8c81 acbc 0132 4e3c fa95 10bc
000001e0: aa10 05bc ceb7 dabb 925b 643c 98d1 a1bb
000001f0: a3f7 edba fcbb 1ebc ca25 58bd 6ae5 7a3c
00000200: 15f8 ac3b 4719 debc 94a2 cd3b 7aeb 67bc
00000210: 5b1f a9bb 3d59 58bc 09c4 55bc 162b e6bb
00000220: 315b 9bbc 1c68 d33b c0dd 4839 4f56 a5bc
00000230: 2737 65bc 802e 1fba 8881 993b 2653 ab3c
00000240: 1bbc 5abd ae89 a23c 6e09 d23c 8cfc 03bc
00000250: 5630 14bf 161a 1dbf c46e 18bf e805 25bf
00000260: 2e1b 22bf 15b7 1fbf 1874 22bf 3cce 22bf
00000270: 5289 98be 518e 22bf 5c8a 23bf 7022 1cbf
00000280: 946c 20bf 7d45 19bf b681 21bf d6da 20bf
00000290: cc46 1cbf 78f0 1cbf 1c67 19bf c39b 22bf
000002a0: 3212 23bf 30ac 20bf ed2b 21bf d55c 22bf
000002b0: 22b4 c1be 79f8 21bf f358 23bf 9bc5 1bbf
000002c0: 910f 21bf a400 19bf 2b6a 21bf a12b 21bf
000002d0: c3e3 19bf ee2c 1bbf f287 1ebf 293f a6bc
000002e0: 3ed1 19bf d022 21bf 82e3 21bf 12c3 1fbf
000002f0: 03aa 20bf 53ab 21bf d9bc c1be 7760 22bf
00000300: 3fac 21bf 1e9b 1cbf 36fb 20bf 4c0b 19bf
00000310: d4af 22bf b7e8 20bf 5f99 1abf b5de 1bbf
00000320: 714a 23bf 2daa a1bb a492 18bf 5cee 21bf
00000330: 50de 22bf ee19 1ebf 82fb 21bf 5aca 21bf
00000340: f929 c0be 6000 22bf d0b1 20bf d58d 1abf
00000350: c6c3 1fbf 25ac 17bf 6f5c 22bf 8b61 20bf
00000360: 5799 1bbf cf96 1cbf 5cf3 21bf df9e a5bb
00000370: 0f74 dab8 0258 10ba ac26 efbe 274f bf3a
00000380: e83f 8cba a1c9 f1b8 9409 f9b9 2887 87b9
00000390: ff58 b939 4b3a fe39 4011 a438 2962 6dba
000003a0: 8da6 4638 7196 03ba f645 6c3a 9c87 f0b9
000003b0: 5c85 8b38 c0de 2a3a fa6c 8c38 a880 f638
000003c0: 905c ae37 f8a3 85b8 dc2e d339 60c1 1db8
000003d0: fd54 54b9 6b4a c4b9 9c30 663b 1cfe 88b9
000003e0: 50c4 fbb8 9b47 c839 9838 7439 590d 90ba
000003f0: 009e 7e35 fb04 e538 402c a6ba 2049 36b9
-0.34433427 0.010401411 0.012529759 -0.0006104128 0.0032620742 0.006652958 -0.0038219998 0.002113525
0.009632498 -0.0022402029 -0.0017372149 -0.015166284 -0.00043192346 -0.01233196 0.0008292075 -0.002793659
0.0072849737 0.00015324575 -0.007119769 0.0017409271 0.0026762795 -0.0021328551 0.0049512526 0.0019861627
-0.003048854 6.941089e-05 0.002738444 0.00719561 0.002125721 -0.001798775 -0.0018658473 0.003224942
-0.0057791653 0.0014862975 -0.36959994 0.013050266 0.008365586 0.0011562927 -0.0013122109 -0.0029244972
0.0018013248 0.002347473 0.0049855616 -0.0036743982 0.00078169134 0.00061366777 -0.004244387 0.009642398
-0.0018906246 -0.0010688023 0.020589756 0.00057798263 -0.36943963 0.019354083 -0.0062881303 0.0010561616
0.0013683559 0.0011440518 -0.010089026 0.008440696 0.003663383 2.2468157e-08 -0.0018218567 0.0061013615
-0.0017658037 -0.0026183464 -0.0010765457 0.0013765168 -0.013527873 -0.0010538644 -0.3696523 -0.042298548
-0.0002106026 0.00019782933 0.004606543 0.0006809407 -0.017582783 -0.0030515287 0.008183708 -0.013245286
0.0040692515 0.020217968 -0.024902148 0.01124797 -0.009263205 0.012043051 0.01870989 -0.009882809
0.00889865 -0.012476483 -0.005365897 -0.0019429121 0.006652969 -0.049825203 0.0044848444 -0.002717779
-0.009935511 -0.007432063 -0.012176906 0.005246483 0.017028004 0.0032102058 -0.0005946313 -0.016723946
-0.0108880205 0.0055257515 -0.012619904 -0.0021646754 -0.053645086 -0.0050135497 0.0072994474 0.014568496
-0.010204503 0.000731227 0.00075155566 -0.010539224 0.0067835115 -0.021057867 0.012585164 -0.00882482
-0.008121649 -0.0066747433 0.013937848 -0.0049383156 -0.0018155467 -0.009688374 -0.052770413 0.015313486
0.005278597 -0.027111663 0.0062754843 -0.014155263 -0.0051612086 -0.01320487 -0.013047227 -0.007024179
-0.018964382 0.00645162 0.00019156095 -0.020182757 -0.0139902 -0.00060722977 0.004684631 0.020913672
-0.053402048 0.019841041 0.025639262 -0.008055817 -0.57886255 -0.6136793 -0.59544015 -0.6446214
-0.6332272 -0.62388736 -0.63458395 -0.6359594 -0.29792267 -0.6349841 -0.63882995 -0.6099005
-0.6266568 -0.59871656 -0.6308855 -0.6283392 -0.6104553 -0.61304426 -0.5992296 -0.63518924
-0.6369964 -0.6276274 -0.6295765 -0.634229 -0.37832743 -0.63269764 -0.638076 -0.60848397
-0.6291438 -0.597666 -0.63052624 -0.629572 -0.6011316 -0.6061543 -0.61926186 -0.020293789
-0.60084903 -0.62943745 -0.63237774 -0.6240703 -0.6275942 -0.63152045 -0.37839392 -0.63428444
-0.6315345 -0.6117419 -0.6288332 -0.5978286 -0.6354954 -0.62855095 -0.60390276 -0.608867
-0.63785464 -0.0049336166 -0.59598756 -0.6325433 -0.6362047 -0.61758316 -0.63274395 -0.6319939
-0.37532023 -0.6328182 -0.6277132 -0.6037267 -0.624081 -0.59247047 -0.6342229 -0.6264884
-0.60780853 -0.61167616 -0.6326196 -0.0050543393 -0.00010416668 -0.0005506278 -0.46709192 0.0014595733
-0.0010700198 -0.00011529332 -0.00047500117 -0.00025849906 0.00035352257 0.00048490087 7.8233425e-05 -0.00090554595
4.736199e-05 -0.0005019671 0.00090131105 -0.00045877404 6.6528766e-05 0.00065181777 6.696019e-05 0.00011754158
2.078552e-05 -6.372476e-05 0.0004027997 -3.761181e-05 -0.00020249556 -0.0003743948 0.0035124188 -0.00026129268
-0.00012005179 0.00038200323 0.00023290736 -0.0010990306 9.4852294e-07 0.000109204986 -0.0012677982 -0.00017384114

fc1.bias f4 [128]
00000000: d4c4 f5ba 9996 053d ae43 bfbe 1e0c 9dbb
00000010: 19b8 d13e 4b05 f83e 27e9 553e c635 5637
00000020: 7966 413f 62d7 c33d 26da 60bf a7f0 1d3f
00000030: 9c9e 3a3d f30b b1bc 6658 b8bc 0c44 343a
00000040: 541c bdbc 06be 333f ae78 0f3e 766d fc3d
00000050: 1cea a23b caef c93c 1aac a3bb 9126 16c0
00000060: bdf7 b9bc bf82 043f d68a 553c 7ec8 a23e
00000070: f60d 863e b4f2 a23e 2bea a2bb 224c 183f
00000080: 4062 31bc 832f 153f 377b 253f 76e5 eb3e
00000090: f66c b9bc 4a9a 813c 444b 57bc 64ff 6ebc
000000a0: 5ab3 093f b6fd a23e a164 043a 2b49 533b
000000b0: eb73 5e3e c10f 3b3e 11cf 533e a84c f33b
000000c0: 7da5 d13e 29a8 b93d 1f17 c8bb fdd1 a03c
000000d0: fdd5 3a3f 8e36 cbbf 2f6e d63d 4b86 0abc
000000e0: 6651 aaba ea9b c73e 0137 d8bb 33d9 503e
000000f0: 0b7f b4bc 1cd9 2f3c 1140 d13e 75b5 6f3e
00000100: 9ba2 80bf 027e f9be e4f3 e83b ce0a fd3d
00000110: 2980 293f f9c2 1f3f c437 5b3b d157 593e
00000120: 584f 96bc b6a9 c9bc f43a 033f f13b 86bf
00000130: 1673 103f 49b4 593c eb37 92bc e422 bcbb
00000140: e959 e13e 5a16 853a 1b4a 9e3e 5638 ed3e
00000150: c840 593c 6836 643e c87c b8ba 50b4 dd3b
00000160: 2ad2 803d 75d1 f63e efe7 083d 54ee 4a3a
00000170: bd35 043d 33da 12bc 14d3 003f 56fc b03d
00000180: 527b a0bc 427a 8aba a699 0e3f 9321 d43d
00000190: 6504 38c0 800b 9e3e aa58 063d dcb2 3abb
000001a0: 750d 953e d97f b3bb a038 0fc0 6c72 e53e
000001b0: 6915 043f 49e9 a2bb 14e7 b63e 2408 be3b
000001c0: ce02 b0bc c326 1e3f f844 96bb c59a a43b
000001d0: ca1c 623a be96 e1ba 6227 a63e 1083 c83e
000001e0: 8f23 173f 07cc ba3b 2025 eb39 55f3 963c
000001f0: 6ff6 b33b e076 cbbc 0de8 7c38 9114 453b
-0.0018750676 0.032614324 -0.37356323 -0.0047927042 0.40960768 0.48441538 0.20889722 1.2767914e-05
0.75546986 0.095625654 -0.8783287 0.6169533 0.045561418 -0.021612143 -0.02250309 0.0006876595
-0.023084797 0.7021183 0.1401088 0.123255655 0.0049717557 0.024650473 -0.0049948813 -2.346104
-0.022701139 0.51762 0.013033589 0.31793588 0.26182526 0.31825793 -0.0049717627 0.5949117
-0.010826647 0.5827562 0.64641136 0.46073502 -0.022634964 0.015820641 -0.013140503 -0.014587257
0.53789294 0.3183419 0.0005050395 0.0032239656 0.21723907 0.18267728 0.20684458 0.0074249096
0.4094657 0.09065277 -0.006106272 0.01963138 0.7298277 -1.5876024 0.104702346 -0.0084548695
-0.0012994229 0.3898614 -0.006598354 0.20395355 -0.022033235 0.010732915 0.4086919 0.23409064
-1.0049623 -0.4872895 0.007109152 0.123555765 0.6621118 0.6240688 0.0033449987 0.21224906
-0.01834838 -0.024617057 0.5126183 -1.0487043 0.5642561 0.013287612 -0.01784893 -0.005741464
0.44013909 0.0010153756 0.30915913 0.46332043 0.013260074 0.2228638 -0.0014075274 0.0067658797
0.062900856 0.48206678 0.033424314 0.0007741202 0.03227781 -0.008963156 0.5032208 0.08641879
-0.019590054 -0.0010565 0.557032 0.10357966 -2.8752682 0.3086815 0.0327994 -0.0028487956
0.2911183 -0.005477887 -2.237831 0.4481386 0.5159517 -0.0049716574 0.35723174 0.0057993103
-0.021485712 0.61777896 -0.0045858584 0.005023333 0.0008625506 -0.0017211062 0.32451922 0.39162493
0.59038633 0.0057005915 0.00044850353 0.018426577 0.0054920237 -0.024836957 6.0297596e-05 0.0030072073

fc2.weight f4 [64, 128]
00000000: 7b65 2e3c 3ba4 973c b6f0 c3bd a566 9abd
00000010: 424c 60bd 073c 47bd 203a 0ebe 4dc5 ecbc
00000020: d134 7dbd 849b 4cbd de7b 51b7 0d62 4dbd
00000030: 6dc4 3abd e83b 84bd e72a 97bd 6249 6c3d
00000040: 14d4 9fbd d27f a6bd 23ea d9bc 19bb 27bd
00000050: 5d13 8eb7 4058 f4bd 4866 94bd f292 943d
00000060: d931 67bd 2466 1abe c563 9f3d 28a9 03bd
00000070: 0e8d b9bd 6ccc 2cbd 9be8 a53c ecd4 0fbe
00000080: 9e5f 6f3d bf9d abbd e437 10be 30ca 5abd
00000090: 5f0f 8abd 2345 32bd d280 59bd 46fe d8b6
000000a0: bca3 aabd bae2 0ebe 0917 fb3d c52e 843c
000000b0: 4073 f1bd bc78 1abd 59a5 05be ea2a 2b3c
000000c0: 40cd 0dbe 97b0 35bd 3668 35bd c6ac 0db6
000000d0: b6d8 82bd 0815 c6bb a92d c2bd ee8e 8bbd
000000e0: 18c6 713d 944a e3bd 28e5 b536 01eb 43bd
000000f0: f414 5bbd 40b6 0337 5e4b 0dbe 10e9 07be
00000100: 1e11 71b6 4127 403d d676 6b37 1f85 00be
00000110: 6d19 0cbe 877f 66bd 31a3 aebc 6064 30bd
00000120: 276b 15b7 dce0 7cbd 73f3 52bd 1659 c1bd
00000130: 520b fdbd c506 e53b 5d78 9136 9ad3 513c
00000140: dca1 56bd 5e0a 7736 1eeb bebc 8cdf 50bd
00000150: cd88 a33c deb4 06be c78c b3bd 8dcd a63d
00000160: 3eda 3abd a8a8 dabd 72d3 a5bd e18a c03b
00000170: 2830 a1bd 9a47 a73d c691 50bd c885 0dbe
00000180: 846b d238 2a25 013c d2c6 00be 175b 38bd
00000190: b380 65bd 5ce6 cbbd 3800 43bd da31 943d
000001a0: 3763 0cbe 3a3d 603d 23bb 2537 b2d1 f7bd
000001b0: 0e5e 103e faf6 fc3c a166 dfbd aa38 913d
000001c0: d3d2 80bd aed9 1bbe 6d0f de3d cee5 b2bd
000001d0: ec48 1fbd ce4e a6bd 7a30 0dbd e040 9bbd
000001e0: a7fb 44bd 8400 993d f098 df3d 78a9 ac3d
000001f0: 94e5 e836 1028 07b6 c66d 9b3d 1ce8 553d
00000200: 20c3 f23b 40c9 0835 0764 03bd 9438 02b8
00000210: b066 23bd 12dc 23bd 2d9e 11be 5741 7437
00000220: e7d8 3fbd 2ba4 e2bc e632 1536 e9db 48bd
00000230: e94e 11bd abf4 3cbd e4d5 3ab7 30eb 8d3c
00000240: 57e7 8ebd 93dc c9bd 90b6 fcbc 0b8d 05bd
00000250: ec31 9e37 627e 2fbd 8a37 5db6 9ac7 e43c
00000260: 7b40 2dbd a6f2 22be ba5d 643d 22dd 0abd
00000270: 72a9 c3bd 685d 1cbd bb59 1e3d 0e85 21be
00000280: 8997 8c3c e13d a0bd 0872 01be be46 36bd
00000290: 1587 74bd 5ae6 0bbd 1aec 5fb8 e78c d836
000002a0: 1052 56bd d091 18be abc5 803d 4d2f 403c
000002b0: 479d 0bbe e571 1fbd 0c35 e7bd 9775 e53b
000002c0: 33a9 f3bd b491 e2bc 921a 17bd 542c ebb6
000002d0: 813b 93bd 4aaf fcb7 fa7f 1ebd 38cf 00bd
000002e0: 3334 433c 47e1 f9bd 607f a236 6ddf 19bd
000002f0: 9a12 16bd bc2b 1138 a463 14be 9479 eebd
00000300: fe97 b53b a044 9c3c 940b e5b6 6fb2 01be
00000310: df1a 2abe fdd2 23bd 2880 09b8 932d 803b
00000320: 7e20 4eb7 14a0 28bd bc20 5ebd 4207 fcbc
00000330: f5e0 e6bd 9c25 9f3b f4b5 2136 383a ba3b
00000340: 274a 17bd d760 e1b6 8f46 2fbd 82c7 2cbd
00000350: 1735 853c c197 e4bd c797 4db8 9eae 8c3c
00000360: 9754 ffbc d655 ccbd f7fc 2bbd 3648 0e3c
00000370: a35c fabc 69b2 893c 8f95 24bd fc50 09be
00000380: 69be bd3b ddad e53b b812 debd 0d36 1ebd
00000390: e0a2 28b5 05d5 bbbd 4605 afbc 3d88 0937
000003a0: 4acc f1bd f42d 0e38 2bc5 1038 62a3 00be
000003b0: e047 773d d032 0c3c 07e6 f7bd 0150 e73c
000003c0: 6efe 4bbd 6bc8 2dbe 427f 853d 290b 10bd
000003d0: 644e 0dbd 40e2 0db8 1c01 2bbd 0d68 92bd
000003e0: 0f16 2bbd eeed 9f3d 9c94 663d ae4b 0b3d
000003f0: 08e2 bdb6 01e9 4b3c 827e a53c a8f4 9737
0.010644312 0.018510928 -0.09567396 -0.07539109 -0.054760225 -0.04864123 -0.1388936 -0.028902674
-0.061817948 -0.049953 -1.2486211e-05 -0.050142337 -0.045597482 -0.06456739 -0.0738123 0.05768717
-0.078041226 -0.081298485 -0.026600903 -0.040949915 -1.6936736e-05 -0.11930895 -0.07246071 0.0725459
-0.056444023 -0.15078026 0.077827014 -0.03214374 -0.09060107 -0.04218714 0.020252516 -0.14046067
0.058440797 -0.08379697 -0.1408382 -0.053415477 -0.06741213 -0.043522965 -0.05310137 -6.466903e-06
-0.08332011 -0.13953677 0.12260253 0.016135583 -0.1178956 -0.037712798 -0.13051356 0.010447243
-0.13847828 -0.044357862 -0.044288836 -2.1111205e-06 -0.063889906 -0.0060449876 -0.09481365 -0.06814371
0.059026808 -0.11098209 5.4208977e-06 -0.04783154 -0.05348678 7.850642e-06 -0.13798282 -0.132725
-3.5921762e-06 0.046912435 1.403476e-05 -0.12550782 -0.13681574 -0.056273963 -0.02131805 -0.043064475
-8.90604e-06 -0.06173788 -0.051501703 -0.0944082 -0.12355675 0.0069893324 4.335349e-06 0.012806797
-0.052400455 3.6811903e-06 -0.023305472 -0.05099444 0.019962693 -0.13154933 -0.087670855 0.081446745
-0.04561829 -0.106767 -0.080969706 0.0058759307 -0.07870513 0.08167954 -0.05092027 -0.13820565
0.00010033607 0.007882396 -0.12575844 -0.045008745 -0.05603094 -0.09956047 -0.04760763 0.07236071
-0.13709722 0.05474589 9.878338e-06 -0.12100543 0.14098379 0.030879486 -0.10908247 0.07090886
-0.062902115 -0.15219757 0.10842786 -0.08735238 -0.038887903 -0.081204996 -0.03447006 -0.07580733
-0.048091557 0.074708015 0.109178424 0.08430761 6.940865e-06 -2.0139887e-06 0.07589297 0.05222331
0.0074085146 5.0956805e-07 -0.032077815 -3.1047108e-05 -0.039892852 -0.040004797 -0.14220496 1.4558746e-05
-0.046837714 -0.027666172 2.2232357e-06 -0.049037848 -0.035475645 -0.04613177 -1.1136264e-05 0.01732406
-0.06977718 -0.09856524 -0.030848771 -0.032605212 1.8858314e-05 -0.042845137 -3.2963894e-06 0.027927209
-0.04229782 -0.15912876 0.055753447 -0.033902295 -0.095538035 -0.038175017 0.038659792 -0.15773413
0.017162101 -0.078243025 -0.12641156 -0.04450106 -0.059699137 -0.034155227 -5.338723e-05 6.453705e-06
-0.052324355 -0.14899373 0.06287702 0.011730027 -0.13634215 -0.038926978 -0.11289415 0.007002543
-0.118975066 -0.027657367 -0.036890574 -7.0087062e-06 -0.07189084 -3.0122366e-05 -0.038696267 -0.03144762
0.011914301 -0.12201171 4.8428046e-06 -0.03756659 -0.036638834 3.4611425e-05 -0.14491135 -0.11644283
0.0055418005 0.019075692 -6.8260797e-06 -0.12665723 -0.16611813 -0.039996136 -3.27827e-05 0.003911683
-1.2286122e-05 -0.041168287 -0.054230437 -0.03076518 -0.11273376 0.0048567783 2.409678e-06 0.0056832097
-0.03693595 -6.716796e-06 -0.0427919 -0.042182453 0.016260667 -0.11161757 -4.9017162e-05 0.017173108
-0.031168265 -0.099773094 -0.041989293 0.008684209 -0.03056175 0.016808705 -0.040181693 -0.134098
0.005790521 0.0070092515 -0.10843414 -0.038625766 -6.282189e-07 -0.091714896 -0.02136482 8.197557e-06
-0.11806543 3.3898235e-05 3.4515902e-05 -0.12562326 0.06037128 0.0085570365 -0.12104421 0.028236391
-0.04980319 -0.16970985 0.06518413 -0.035166893 -0.034498587 -3.382773e-05 -0.041749105 -0.07148752
-0.041769084 0.07809053 0.05629407 0.03400772 -5.6589524e-06 0.012445689 0.020201925 1.811453e-05

fc2.bias f4 [64]
00000000: 7d1b cdbd 7e88 92bd 5185 5ebe d16d 99bd
00000010: 458a 833f 8e71 b4bd 2d6c 5c3f 8430 ce3f
00000020: de7c bc3f 25b7 cf3f 7915 bf3f 4930 4a3f
00000030: dd43 813f f5a0 623f 043c d4bf 9ef0 64be
00000040: 6854 b53f fadb 86bf d491 3abc 09c9 c3be
00000050: 7a5f 2fbc 03cf aebe 6b04 bbbe 1552 10bf
00000060: 9112 c8bd b4a1 c33f 7991 cb3f b093 b3be
00000070: 0043 ae3f 41f6 75bd d742 a0bd cbf3 7c3f
00000080: 1148 61bf f6a5 9b3f b9a6 30be 40ad 6e3e
00000090: 713b 823f 38cd 9ebd 43c2 6a3d f092 8f3d
000000a0: 5b8b d6bd 0b0a d4be f8f9 5ebf 1991 8c3f
000000b0: 7ba6 593f 690f 90bd d2ac cc3f 150b 4ebe
000000c0: da34 9e3f 900f a73d ef75 ca3f 4756 f5be
000000d0: 8117 c43f 40af 66be 7cf1 6b3f 4619 ffbc
000000e0: 73c3 d23f 0a14 c73f 9a00 b9bd 876c 64bd
000000f0: 79d8 46bf 5b89 86bb f244 f3bc 80bf 5fbe
-0.100150086 -0.0715494 -0.21730544 -0.07491649 1.0276572 -0.08810721 0.86102563 1.6108556
1.4725606 1.6227766 1.4928428 0.7897993 1.0098835 0.8852685 -1.6580815 -0.22357413
1.4166384 -1.0535882 -0.011387307 -0.38239315 -0.010703916 -0.34142312 -0.36526808 -0.5637525
-0.09769166 1.5283723 1.590377 -0.35073614 1.3614197 -0.0600493 -0.07825249 0.988095
-0.8800059 1.2160022 -0.172511 0.23308277 1.017439 -0.07753986 0.05731417 0.07010448
-0.10475799 -0.41413912 -0.8710017 1.098178 0.85019654 -0.07034189 1.599024 -0.20121415
1.2359879 0.08157265 1.581724 -0.47917387 1.5319673 -0.2252779 0.9216535 -0.031139981
1.6465896 1.555299 -0.09033318 -0.055767562 -0.7767406 -0.0041057295 -0.029695962 -0.21850395

fc3.weight f4 [64, 64]
00000000: b34f 97bf 4c3b 84bf 51e5 7fbf df87 93bf
00000010: ccf3 a33f 9380 93bf 43f8 8b3f d5a5 ec3f
00000020: 11ba d43f 2269 ed3f 80f3 e63f 7bcb 823f
00000030: a07b a23f ca04 933f 503b 76bf 0f85 80bf
00000040: 9655 d83f d61d 183f 0939 be3f 0622 db3e
00000050: 7eef 93bf c4a9 203e 19cf 51be b087 02be
00000060: 56a8 98bf abf6 d53f 5184 fa3f 3e5c a73e
00000070: 6224 d13f 96a5 91bf be62 93bf 7a3d 9c3f
00000080: b53a a1bf 3b42 bd3f 9987 84bf ba51 bbbf
00000090: dcd2 a63f 6570 9ebf f97a be3e ae84 d23d
000000a0: 2220 9cbf 2cbe f63d 5d6d 7fbf 5985 ac3f
000000b0: 60d7 8d3f c99e 91bf 8f72 e63f 3e4b 91bf
000000c0: 13b2 bd3f ecff f83d df95 e53f aaff 8a3d
000000d0: ffca e53f ef6a 62bf 5575 903f 725d 92bf
000000e0: 58d4 ee3f 50f2 df3f 2fe7 92bf 0257 a3bf
000000f0: f691 9abf 4e89 94bf ba5e 9cbf c253 a83f
00000100: 0b94 513f bf4d 593f f856 523f 2d09 4e3f
00000110: 0fea 67bf 2c50 603f 95bf 64bf 0dd1 68bf
00000120: e96e 63bf 7ef4 68bf 9476 6cbf 54e4 63bf
00000130: e7ff 64bf 0700 65bf 1f0c 433f e73e 433f
00000140: faff 64bf d2b8 183f 94ca 60bf 6206 5bbf
00000150: 3f9a 553f b480 5ebf 04c2 5f3f 243a 603f
00000160: bc49 553f 4934 63bf 8a45 6fbf 2ff9 64bf
00000170: 8800 65bf f02d 533f 0472 603f ebff 64bf
00000180: 61da 603f 26f3 64bf f62b 563f 6dd9 463f
00000190: 0300 65bf 3776 5f3f b38c 16bf 7949 62bf
000001a0: 3049 583f eee7 60bf 0280 5d3f 4e96 66bf
000001b0: 66bf 63bf c753 5e3f 0a14 68bf 9add 673f
000001c0: 2e00 65bf 7d3f 5bbf 9f91 5fbf 61d6 5ebf
000001d0: c6a8 64bf 321c 4b3f 00ed 65bf 6e81 4b3f
000001e0: 2640 66bf 45fe 66bf ae75 563f eb5d 523f
000001f0: 35c4 5f3f e17d 603f 78bc 443f 27d7 5dbf
00000200: 1b4e 9abf b23f 87bf 2178 83bf adf8 95bf
00000210: 8427 a33f 1590 96bf 9ddd 8d3f 9e53 ee3f
00000220: ef1f d53f 2463 ed3f 13ec e63f 46ee 833f
00000230: 8f72 a23f 7611 933f ad9d 7abf 189e 84bf
00000240: 8443 d83f 1beb 183f 2497 c13f 2df3 d33e
00000250: 434f 98bf 58b0 073e 0c6b 73be 6615 04be
00000260: d3c4 9bbf cd88 d63f c31e fb3f 911c 883e
00000270: 661a d13f ef9c 95bf 214b 98bf 7f54 9c3f
00000280: 9917 a7bf 6ac9 bd3f 0ab2 85bf 1442 bdbf
00000290: f436 a73f 04e0 9fbf d6d9 c33e 0dc9 e53d
000002a0: 4cab 9ebf 77b4 e13d 9e63 7fbf 88ec ab3f
000002b0: dd21 8f3f 036a 93bf 4ce1 e73f ac1f 92bf
000002c0: ded6 bf3f 9e16 003e 66f2 e53f 20b4 343d
000002d0: 7072 e63f 8718 66bf 741c 913f 8f6a 95bf
000002e0: d4da ee3f 87f0 e03f 5437 95bf bbf5 a5bf
000002f0: 3097 9fbf e79b 97bf 6f3a 9dbf 663d ab3f
00000300: 828c 9437 70b9 713c 251a 243c 6596 163b
00000310: 1e9b c0bc 632d 233d a055 debc e724 9fbd
00000320: ebe6 98bc c371 a6bd 70e7 0bbd 549c b8bc
00000330: 991f a1bc 9cf4 b7bc 7392 283c a344 5737
00000340: 6b5b cfbc 699e 8e3d cec7 08bd 2b79 523d
00000350: 7edb 70b6 e04d 6e3d 1def 05bd b42c 25bd
00000360: c134 be3c 6e1f 35bd 82e4 52bd 5830 e036
00000370: 427e 00bd 0e23 0f3c 012d 433d a91d 32bd
00000380: 8371 983d d644 ffbc 5dc4 f23c 1c22 abbc
00000390: 9f8e cbbc a6b8 0e3d eb74 50bd 8454 b1bc
000003a0: fc58 d63c 6a70 383d c880 393d bc47 2abd
000003b0: 4bbc d5bc b5f4 f03c 5b3b eebd e4c7 8d3d
000003c0: 6e35 f6bc fe17 83bc 101c 83bc 99a7 263d
000003d0: cc63 23bd 249d b13c d527 ffbc 1079 9038
000003e0: 1fe3 39bd 42f7 05bd 753f bb3c 05b1 1c3c
000003f0: 34f0 e13c 8067 683d 9bdb f7bb 9ed8 4cbd
-1.1821197 -1.0330596 -0.99959284 -1.152584 1.2808776 -1.1523613 1.0935138 1.8488108
1.6619283 1.8547709 1.804306 1.0218347 1.2693977 1.1485837 -0.96184254 -1.0040606
1.6901119 0.59420526 1.4861156 0.42799395 -1.1557462 0.1568976 -0.20489158 -0.12747073
-1.1926372 1.6715902 1.957163 0.32687563 1.6339228 -1.1378658 -1.1514509 1.2206261
-1.2596041 1.4785837 -1.0353881 -1.4634316 1.3033099 -1.237805 0.37203196 0.10279213
-1.2197306 0.12047991 -0.9977625 1.3478194 1.1081352 -1.1376582 1.800371 -1.1351087
1.4819969 0.12158188 1.7936362 0.06787045 1.7952574 -0.8844442 1.1285807 -1.1434767
1.8658552 1.7495823 -1.1476802 -1.2760928 -1.2075794 -1.1604402 -1.2216408 1.3150561
0.8186652 0.84884256 0.82163954 0.8048275 -0.9059152 0.8762233 -0.8935483 -0.90943986
-0.8884111 -0.90998065 -0.92368436 -0.89020276 -0.89452976 -0.89453167 0.7619037 0.76267856
-0.8945309 0.59657013 -0.8780911 -0.85556614 0.83438486 -0.86915135 0.8740542 0.87588716
0.83315635 -0.88751656 -0.93465483 -0.89442724 -0.89453936 0.8249197 0.87673974 -0.89453
0.8783322 -0.89433515 0.8366083 0.77675515 -0.8945314 0.87289757 -0.5880844 -0.8839336
0.84486675 -0.87853897 0.8652345 -0.90073097 -0.88963926 0.86846584 -0.9065558 0.9057251
-0.894534 -0.8564375 -0.87331575 -0.87045866 -0.8932003 0.793399 -0.8981476 0.7949437
-0.8994163 -0.90231735 0.83773315 0.8217456 0.87408763 0.87692076 0.7685008 -0.8665642
-1.2055086 -1.0566313 -1.0271035 -1.1716515 1.2746434 -1.176272 1.1083256 1.8619268
1.665037 1.854588 1.8040794 1.030709 1.269121 1.1489704 -0.97896844 -1.0360746
1.6895604 0.5973374 1.512425 0.41396466 -1.1899189 0.13250864 -0.23771304 -0.12898788
-1.2169441 1.6760498 1.9618763 0.26584294 1.6336181 -1.1688517 -1.1897928 1.2213286
-1.3054076 1.4827092 -1.0444958 -1.478579 1.3063645 -1.2490239 0.38252133 0.11219988
-1.2396026 0.11020749 -0.9976138 1.3431559 1.1182209 -1.1516727 1.811563 -1.1415915
1.4987447 0.12508628 1.7964599 0.044117093 1.8003674 -0.89881176 1.1336808 -1.1673144
1.8660531 1.7573403 -1.165751 -1.2965616 -1.2468014 -1.1844453 -1.2283458 1.3378112
1.7708404e-05 0.014753684 0.010015999 0.0022977826 -0.023511466 0.039838206 -0.027140439 -0.077707104
-0.018664798 -0.08127167 -0.034156263 -0.02253548 -0.019668387 -0.022455506 0.010288822 1.2830979e-05
-0.025312146 0.06963808 -0.033393674 0.051385086 -3.5890548e-06 0.058179736 -0.03269874 -0.040325835
0.023218514 -0.044219427 -0.051487453 6.681348e-06 -0.03137041 0.008736385 0.04765034 -0.043485317
0.07443526 -0.031160753 0.029634649 -0.020890288 -0.02484828 0.034844063 -0.05089275 -0.021646746
0.026165478 0.04502908 0.04528883 -0.041572317 -0.026090762 0.02941356 -0.11632415 0.06922892
-0.030054774 -0.016002651 -0.016004592 0.040687177 -0.039890096 0.021681376 -0.031146923 6.889005e-05
-0.045382615 -0.032706507 0.022857407 0.009563689 0.027580358 0.05673933 -0.007564021 -0.05001127

fc3.bias f4 [64]
00000000: 9050 9b3f 3b0c 14bf e94d 9f3f cdf8 32bd
00000010: 543c e3bc f709 46bc 41d4 a13f 816a 1ebc
00000020: a67a 2ebd 8aa6 9f3f a218 a63f 76cf 94bc
00000030: 7bca 96bd 4a27 9d3f adaf 8dbc 0413 a33f
00000040: bdbc 9b3f 170c a23f 67d2 9d3f e7ea ad3f
00000050: e2cc a3bb cd21 b53f a030 9a3f 47d6 8abd
00000060: 6267 eb3f b514 a03f a26f b03f 74e1 54bd
00000070: b432 6abd e44c da3f 06da a9bb d2fa 36bd
00000080: 4083 8bbd deb8 a33f 404f 9b3f 588b be3f
00000090: 1760 76b7 78c8 a0b9 22e6 9c3f faf1 a83f
000000a0: 5f41 933f a399 b53f d6fb ba3f 8eef 8abd
000000b0: 37e5 a23f ed8f 57bd ac68 a13f dec5 5d37
000000c0: d161 59bd 9c05 ddbc a01f 62bd 1c14 ebbd
000000d0: f821 04b5 cf6f 9d3f a904 a53f ce5f b13f
000000e0: ed08 9a3f cadc a03f 3212 9f3f e32e 5db6
000000f0: 17a8 9c3f 2842 15bd fc1d f8bc 9943 87bd
1.2133961 -0.5783116 1.2445651 -0.043694306 -0.027738728 -0.012087337 1.26429 -0.009668947
-0.042597435 1.2472699 1.2976267 -0.018165331 -0.07362839 1.2277615 -0.017295683 1.2740178
1.2166973 1.265994 1.2329835 1.3587312 -0.004998789 1.415094 1.2046089 -0.067791514
1.8390925 1.2506319 1.3784068 -0.05197282 -0.05717726 1.7054715 -0.005183461 -0.044672795
-0.06812143 1.2790792 1.213356 1.4886274 -1.4685115e-05 -0.0003066694 1.2257731 1.3198845
1.1504325 1.4187511 1.4608104 -0.06783973 1.2726201 -0.052627493 1.2610068 1.3218696e-05
-0.0530718 -0.026980214 -0.05520594 -0.11478445 -4.9223263e-07 1.2299746 1.2892047 1.3857362
1.2033974 1.256738 1.2427428 -3.2958858e-06 1.2238797 -0.036440045 -0.030287735 -0.0660469

fc4.weight f4 [1, 64]
00000000: a961 f23f d3f7 cbbf 4f5b f23f fdeb 00c0
00000010: 7956 7cbf d975 0cc0 53d9 ec3f ec9d c1bf
00000020: 11d5 08c0 6d25 f13f ae11 f73f dc27 9abe
00000030: b010 edbf 863d f13f c060 b0bf 8f2a f43f
00000040: e9b1 f33f 262e f63f e8ab ec3f 6893 f53f
00000050: e481 e5bf 4c8d f23f 47b1 f03f 2ab5 20be
00000060: d860 da3f 7404 ed3f 18ed f53f ccc4 1740
00000070: 93a2 58bf a139 d33f 3718 adbf 1629 22be
00000080: 96a8 84bd a07f ea3f b005 ec3f 3afe f43f
00000090: 8333 e5bf a405 ccbf 525c ec3f 0cd0 ea3f
000000a0: 5429 ee3f 9a22 f43f b802 f53f fe05 6fbf
000000b0: c49f f73f a680 14c0 2617 f73f 4682 f5bf
000000c0: a5db 84bf 2ad9 9cbf 58d3 23c0 898e dabf
000000d0: 8aee eabf f2eb ed3f 2f54 f83f ec18 f53f
000000e0: 6cc7 f13f ded3 f63f 9e60 f13f ac44 e3bf
000000f0: 7a44 f73f 91ab b1bd 45de 30bf 43a9 97bd
1.8936054 -1.5935005 1.8934115 -2.0144036 -0.98569447 -2.1946929 1.8503822 -1.5126319
-2.1380045 1.8839546 1.930227 -0.30108535 -1.8520718 1.88469 -1.3779526 1.9075488
1.9038669 1.9232833 1.8489962 1.918561 -1.7930264 1.894937 1.8804101 -0.15694109
1.7060804 1.8516984 1.921298 2.3713865 -0.8462307 1.6501962 -1.3523015 -0.15835986
-0.06477468 1.8320198 1.8439236 1.9140084 -1.7906345 -1.5939221 1.8465674 1.8344741
1.8606362 1.907306 1.9141455 -0.9336852 1.9345632 -2.320352 1.9303939 -1.9180381
-1.037953 -1.2253773 -2.5597744 -1.7074748 -1.8354046 1.858763 1.9400691 1.914823
1.8888984 1.9283407 1.885761 -1.7755332 1.9317772 -0.08675302 -0.69089156 -0.07405331

bn1.weight f4 [128]
00000000: aa06 57be bd9e 933e 3776 083f a50a 4a3f
00000010: 4a70 ff3f 1c62 ff3f be1f d83f efad 683e
00000020: 06a7 0540 099f 0040 facd db3e 40a0 0440
00000030: b882 fa3f fc1c ca3f 8221 6fbe b463 403f
00000040: 8b32 c43f 5ff5 0740 16a0 f93f 7c83 fe3f
00000050: 5473 e93e 3340 31bf 7856 25bf d9e7 ddbf
00000060: 6aef d33f 6df5 fa3f 26a4 503f 98e2 0640
00000070: b693 f83f d89c ef3f 3f09 c23e 495c 0040
00000080: 42f9 3e3f a370 f13f e2e1 0240 d03a f53f
00000090: 6d56 d33f ed02 e63f 0eed 1dbf edb9 eabd
000000a0: 0be3 ff3f 9af5 dd3f a8d1 f23d 123a 0c3f
000000b0: 3331 ed3f b664 0140 c839 0240 e4eb a3bd
000000c0: 8979 0440 5d09 fe3f cd06 d13f a6f8 173f
000000d0: 1e4c 0840 3a26 1f40 22b6 0540 ea78 ec3f
000000e0: a174 363f 27ad e13f d722 dc3c 08b9 f63f
000000f0: 599d cf3f 1395 983e b68c 0240 fe5f 0240
00000100: bcde 1940 c96c 24bf 47e7 bc3e ea3d dd3f
00000110: 2a0e 0240 9028 0440 1c59 c2be 5c6a 0c40
00000120: b330 8fbf ba58 df3f b7e0 fa3f 961f ee3f
00000130: 3f65 0640 b1c0 d53d 580c 8b3f 009c c4be
00000140: be63 0140 7b46 a6bf 02bc 0540 2a33 fb3f
00000150: 7ebc 53be f2b9 f53f cbae d4be ce87 60bc
00000160: cab2 fd3f a8e5 0640 f7f5 f23f 0a4e dabe
00000170: 3488 f83f 55ba 3e3f fc40 0140 d945 d23f
00000180: 0942 c83d 44bf 0ac0 af07 0740 4926 f53f
00000190: e797 1340 3009 f33f ed62 0340 a4e9 1fbd
000001a0: 2870 ec3f 609d 243f 72f6 e4bf e910 0540
000001b0: 6490 f4bf ed1c bb3e cf7b e13f 29f3 343f
000001c0: 9f62 c93f 61a7 ff3f 962b 3f3f b3c3 2dbf
000001d0: 9c8e a83c 3942 cdbc 6ebe 0640 d347 e73f
000001e0: f2df 0640 7883 503f b519 3f3f 37a1 453f
000001f0: 789f 60be 1f43 8abe b380 c3bd 6949 1c3f
-0.20998636 0.28832045 0.5330538 0.7892249 1.9956143 1.9951816 1.6884687 0.227226
2.0883193 2.0097067 0.42930585 2.072281 1.9571142 1.5790095 -0.23352626 0.75152135
1.5327924 2.1243513 1.9501979 1.9883876 0.455958 -0.69238585 -0.64585066 -1.7336379
1.6557438 1.9606148 0.8150047 2.1075802 1.9420078 1.871974 0.3789768 2.0056326
0.7459909 1.8862499 2.0450368 1.9158573 1.651075 1.7969643 -0.6168984 -0.11461244
1.9991163 1.7340577 0.11856395 0.5477611 1.853064 2.021772 2.0347767 -0.08003977
2.069918 1.9846607 1.63302 0.5936378 2.1296458 2.4867082 2.0892415 1.84744
0.7127171 1.7630967 0.026872082 1.9275217 1.6219894 0.29801235 2.0398383 2.037109
2.4042196 -0.6422849 0.368952 1.728452 2.0321145 2.0649757 -0.3795861 2.1939917
-1.1186737 1.7448952 1.9599828 1.8603389 2.0999296 0.104371436 1.0863142 -0.3840027
2.0217128 -1.2990259 2.0896 1.9624989 -0.20677373 1.9197371 -0.41539606 -0.013704253
1.9820187 2.107767 1.8981313 -0.42637664 1.9416566 0.7450307 2.0195913 1.6427566
0.0977822 -2.167924 2.109844 1.9152309 2.3061464 1.8987179 2.052913 -0.039041176
1.8471727 0.64302635 -1.7887709 2.079157 -1.9106565 0.36545506 1.7615908 0.7068353
1.5733222 1.9972955 0.7467588 -0.6787674 0.020575814 -0.025055991 2.105373 1.8068794
2.1074185 0.81450605 0.746486 0.7719912 -0.21935833 -0.27004334 -0.09546032 0.61049515

bn1.bias f4 [128]
00000000: e99c 803e e530 80be ca67 e6be 47cb 17be
00000010: aeb4 963f c60a 953f 43ec 883f 360c 77be
00000020: d194 9a3f e28c 993f 4055 e93e f087 993f
00000030: 5adc 953f 724d 843f fffa 063f f764 35bf
00000040: 33fc 823f d75e a43f f9c5 963f deac 993f
00000050: 7a9a e3be c142 393f a94a 303f 8459 9abe
00000060: 7ef9 873f ea72 953f e737 43bf 6096 a53f
00000070: 2d8d 963f 4d05 8d3f f4f9 b4be 40c3 973f
00000080: 3372 38bf a0ff 8d3f 3e57 9d3f e65b 8f3f
00000090: db9d 883f 0727 8d3f 6631 233f 19dd 333e
000000a0: 57f2 953f ae5e 8a3f c054 e5be 91a3 0c3f
000000b0: bc5c 923f a1a6 963f 8101 9c3f b877 6b3d
000000c0: bc03 9f3f 1bbe 973f ecbf 843f c9fc 14bf
000000d0: 0803 a23f 1a12 243e 1c51 9f3f 4f05 913f
000000e0: 73d5 29bf a80b 893f c391 293d b4ac 933f
000000f0: 5f0b 863f 5f1c 6ebe b32d 9e3f f11c 9c3f
00000100: 4fb2 22bd d69f 2c3f f23d 9abe 49bb 8b3f
00000110: 7c47 993f d28a 993f 0b6c e03e 7315 a13f
00000120: 0c3b 963f df83 8c3f 211a 8f3f 1be6 203e
00000130: 1fbf 9e3f dc5e 00bf c27f d8bf 3c9e bf3e
00000140: 59e5 963f c88b ad3f e0ee a33f da72 933f
00000150: 2c01 7b3e 2a88 963f 015d 2e3f 1aa8 c0bc
00000160: 619a 973f 757e 9c3f e7f1 933f 999c d53e
00000170: 1d21 973f b63f 31bf 8d3a 963f b545 883f
00000180: 55f0 d5bd 8d1b 2d3f 5561 9f3f 513a 923f
00000190: b80f 503f f4d4 923f d357 9c3f b9ea 0dbe
000001a0: 7eb5 943f 4cb1 22bf 3422 6d3e 53b9 9f3f
000001b0: 8a49 a1bf 3c41 bdbe 5243 8a3f 64b1 26bf
000001c0: 970e 843f afc4 973f 147e 41bf 9c9f 3c3f
000001d0: 8e5d 9bbe d229 d93d 56f4 a53f bbe5 8b3f
000001e0: e626 9b3f e06f 46bf 451b 3fbf bd0a 3ebf
000001f0: f785 5e3e 6d77 a23e f4c6 023e 5a15 1bbf
0.25119713 -0.25037304 -0.4500106 -0.14823638 1.1773889 1.1643913 1.0697101 -0.24125752
1.2076665 1.1996119 0.45572853 1.199461 1.1707871 1.0336134 0.5272674 -0.70857185
1.0233215 1.2841443 1.1779166 1.200588 -0.44453794 0.72367483 0.6886392 -0.3014642
1.0623014 1.1675694 -0.76257175 1.2936516 1.1761833 1.1017243 -0.3534695 1.185646
-0.72049254 1.1093636 1.2292249 1.119992 1.0673174 1.1027535 0.6374725 0.17564811
1.1714581 1.0810144 -0.44791222 0.5493708 1.143455 1.1769601 1.2187959 0.05748722
1.2423015 1.185489 1.037107 -0.5819822 1.2657175 0.1602253 1.2446628 1.1329745
-0.6634132 1.0706682 0.041398775 1.153708 1.047222 -0.2325301 1.2357696 1.2196332
-0.03972083 0.6743139 -0.30125386 1.091653 1.197494 1.199549 0.4383243 1.2584671
1.173677 1.0977744 1.1179849 0.15712778 1.2402076 -0.50144744 -1.6913989 0.3742541
1.1788741 1.3558283 1.2807274 1.1519425 0.24512166 1.1760304 0.6811066 -0.023517657
1.1843988 1.2226092 1.1558198 0.41721037 1.180698 -0.6923784 1.1736618 1.0646273
-0.1044623 0.67620164 1.2451578 1.1424047 0.81273985 1.1471238 1.2214302 -0.13859071
1.1617887 -0.63551784 0.23157579 1.2478431 -1.2600567 -0.36963832 1.0801795 -0.65114427
1.0316952 1.1856898 -0.75583005 0.73681045 -0.30344814 0.1060368 1.296519 1.0929483
1.2121246 -0.7751446 -0.74650985 -0.74235135 0.21730791 0.3173174 0.12771207 -0.60579455

bn1.running_mean f4 [128]
00000000: 710a ab43 f5ae 4f43 943a 0542 5d7c 8843
00000010: bc08 ad47 6625 9747 266c b147 8af5 2943
00000020: 29a3 3b47 1597 0d48 88c3 4b42 06a6 7547
00000030: 13ff 0f48 dc8c 1448 7c7b c243 fab1 c642
00000040: 051e 1848 247b 6547 4ead f647 b4d8 ff47
00000050: 4c77 2a42 136e c040 7ad1 423c c5e8 2841
00000060: db68 0d48 b386 9147 eebc cc3e 3c61 d347
00000070: d740 c547 4833 b147 e46b 4245 7a6b 8647
00000080: d14f 8643 1647 2a47 73d0 6b47 79c0 8947
00000090: 3759 1048 aa79 0b48 6b26 e441 6277 8743
000000a0: 92d2 9147 eacb 9747 51e5 df43 d32c 3343
000000b0: e324 c747 e4d1 eb47 eeb5 0048 3825 df42
000000c0: daf9 c747 4edb 0d48 80c4 fe47 3efe 8d42
000000d0: 04ae 5a47 44b1 7642 44c9 0c48 a9eb 1148
000000e0: f506 8d43 b582 8247 b4f7 a043 3ffe d947
000000f0: ce77 1648 bb71 f442 f73b c247 d5e9 f947
00000100: bcad 2342 c449 7342 20eb 6a43 c0d3 dc47
00000110: 79be 6447 a74e 8047 4b27 2543 1851 0d48
00000120: 88b2 0443 4125 1548 ba74 6a47 66b4 8b43
00000130: 77bb 8e47 7517 9a43 3a37 0a43 3be6 a742
00000140: 7001 b147 18db 3e44 6ce2 cc47 19df 8d47
00000150: 661f 1543 37af d347 0216 8d43 675e c847
00000160: f788 1248 428c aa47 55fa 0f48 1663 0e43
00000170: a620 1748 184e c042 f413 9747 c34e e247
00000180: d0ce 2743 482e f442 cb35 9247 a5e8 0248
00000190: 451d 7a42 83df bb47 8ec4 ee47 c8b0 4644
000001a0: d81e bc47 e838 ec42 7eac 8f41 4a82 b247
000001b0: edef c947 faa1 3341 edca 9647 4532 6847
000001c0: 0a64 1448 9ce6 6a47 92ce 3b43 5aac 9a42
000001d0: 6e80 af43 d8bd a443 c487 cc47 bf36 8b47
000001e0: 3107 8847 94ee 6b3f a4f5 fa42 f5f1 e741
000001f0: 6078 9447 922c 703f 7803 2343 2d4b 1043
342.08157 207.68343 33.307205 272.9716 88593.47 77386.8 90840.3 169.95914
48035.16 144988.33 50.94095 62886.023 147452.3 152115.44 388.96472 99.34761
155768.08 58747.14 126298.61 130993.41 42.6165 6.013437 0.011890763 10.5568285
144803.42 74509.4 0.39987892 108226.47 100993.68 90726.56 3110.7432 68822.95
268.62357 43591.086 60368.45 70528.945 147812.86 142822.66 28.518759 270.93268
74661.14 77719.83 447.79153 179.1751 101961.77 120739.78 131799.72 111.57269
102387.7 145261.22 130441.0 70.99657 55982.016 61.67311 144165.06 149422.64
282.05435 66821.414 321.93518 111612.49 154079.22 122.22213 99447.93 127955.664
40.919662 60.822037 234.91846 113063.5 58558.473 65693.305 165.15349 144708.38
132.69739 152725.02 60020.727 279.40936 73078.93 308.18326 138.21573 83.94967
90626.875 763.42334 104900.84 72638.195 149.12265 108382.43 282.17194 102588.805
150051.86 87320.516 147433.33 142.38705 154754.6 96.15253 77351.91 115869.52
167.80786 122.09039 74859.586 134050.58 62.528584 96191.02 122249.11 794.7622
96317.69 118.111145 17.959225 91396.58 103391.85 11.227045 77205.85 59442.27
151952.16 60134.61 187.80692 77.336624 351.00336 329.48315 104719.53 71277.49
69646.38 0.92160916 125.47977 28.993143 76016.75 0.9381801 163.01355 144.29366

bn1.running_var f4 [128]
00000000: 4a79 e34a 1a7d ae49 e751 ec46 6bac 484a
00000010: c78c 2550 e50d f74f 2a56 3b50 e858 ec49
00000020: f72f 3f4f e287 db50 2f12 3148 b276 a74f
00000030: e82b e150 1c0e ee50 8b66 604a f075 a348
00000040: 46f1 f750 a2d8 8d4f 7b33 ab50 a22e b850
00000050: 6235 ec47 c7b4 cd45 f8e5 f03e 6c34 7a45
00000060: 9999 d750 1a0f e24f 506b 8943 6fd3 8150
00000070: 657a 6850 1ad3 2750 74f7 8e4c cb63 bd4f
00000080: d274 874a b751 194f a471 944f 80c3 cc4f
00000090: c2c4 e350 cf87 cf50 849f 6747 8896 8b4a
000000a0: 5772 de4f 8cff 0d50 0f93 db4a a45d fb49
000000b0: 6c6a 6d50 7574 9a50 b3a1 b850 f105 4b49
000000c0: 60d6 6550 723f dc50 9455 b350 6e4f 8f48
000000d0: 7974 7d4f 3d2d 8d48 5e48 d550 7be5 e650
000000e0: 84f4 294a 4856 bf4f 24f1 a94a 8000 8850
000000f0: 5378 f450 8845 1549 fe0f 5a50 49f3 ae50
00000100: e217 bb47 058c 0448 bf50 554a 3392 8950
00000110: 0f03 9a4f 10e7 b04f d135 6849 3ba1 d650
00000120: 9b17 8849 4378 ee50 9737 954f 7619 ea49
00000130: 068d 0a50 3c7a be4a 372c 9a49 dafd e148
00000140: adaf 2350 3471 924b b20b 7650 3f40 e34f
00000150: a17f b549 cbb9 8650 2da9 0e4a 4abe 6e50
00000160: a528 e850 4a73 2e50 4d55 e150 95ce 9f49
00000170: 231b f750 883e a648 602e f54f 74a6 8f50
00000180: 1de3 d949 c892 6649 eb2c 1150 cae7 b850
00000190: fd38 9048 0647 4950 82b9 a050 e996 614b
000001a0: 1569 4c50 7e2e f748 7ac0 a646 8537 3d50
000001b0: 662e 6f50 89d6 6846 5fac f24f 5734 9b4f
000001c0: 9cca ed50 9cd0 9d4f 6ade 8b49 037c 4648
000001d0: aed1 814a 5fc9 934a 33ca 7450 ca48 d44f
000001e0: 24e0 c44f 978c 5b44 f1a2 0749 169d fd46
000001f0: 2e89 0450 d25c f443 2af8 5049 993b 3249
7.453861e+06 1.4294112e+06 30248.951 3.2878348e+06 1.1109866e+10 8.289766e+09 1.2571945e+10 1.936157e+06
3.2075917e+09 2.9464924e+10 181320.73 5.619148e+09 3.0222008e+10 3.1951217e+10 3.6765788e+06 334767.5
3.3278276e+10 4.7595694e+09 2.2978222e+10 2.472051e+10 120938.766 6582.597 0.47050452 4003.2764
2.893734e+10 7.585281e+09 274.83838 1.742494e+10 1.5601341e+10 1.1262519e+10 7.495568e+07 6.3548677e+09
4.438633e+06 2.5722693e+09 4.980951e+09 6.8707287e+09 3.0570582e+10 2.7854273e+10 59295.516 4.57402e+06
7.4640707e+09 9.52934e+09 7.1950155e+06 2.0591885e+06 1.5932699e+10 2.0730587e+10 2.4780839e+10 831583.06
1.5424127e+10 2.9561164e+10 2.406984e+10 293499.44 4.2522688e+09 289129.9 2.8626317e+10 3.0990391e+10
2.784545e+06 6.4202056e+09 5.568658e+06 1.8253873e+10 3.281221e+10 611416.5 1.4633925e+10 2.3481436e+10
95791.766 135728.08 3.4949598e+06 1.846448e+10 5.1677834e+09 5.935866e+09 951133.06 2.8807125e+10
1.1148674e+06 3.2006871e+10 5.0068966e+09 1.9177428e+06 9.297992e+09 6.241566e+06 1.2629829e+06 462830.8
1.0984797e+10 1.9194472e+07 1.6511846e+10 7.625277e+09 1.4868361e+06 1.8082585e+10 2.3373552e+06 1.6021793e+10
3.1159822e+10 1.1707165e+10 3.024371e+10 1.3091386e+06 3.3166006e+10 340468.25 8.2269143e+09 1.9280404e+10
1.7849316e+06 944428.5 9.74256e+09 2.4817586e+10 295367.9 1.35075e+10 2.1572096e+10 1.4784233e+07
1.3717755e+10 506227.94 21344.238 1.2698129e+10 1.6051182e+10 14901.634 8.1427656e+09 5.207797e+09
3.1915827e+10 5.2953887e+09 1.1458052e+06 203248.05 4.253911e+06 4.8426715e+06 1.6427568e+10 7.12308e+09
6.606047e+09 878.1967 555567.06 32462.543 8.894331e+09 488.72516 855938.6 730041.56

bn2.weight f4 [64]
00000000: 3831 a43f 158b 9a3f 82f1 963f 8c74 a53f
00000010: 3a23 cd3f 92a3 a03f 4b43 b63f 8060 e53f
00000020: 5ba0 f13f 3ec4 e43f a261 e43f 917d b13f
00000030: 2b8e c13f 2819 bb3f 5fb1 9e3f 206c 973f
00000040: 8d00 d93f bae2 47bf 4d7b c0bf fd1c b7be
00000050: 1bc7 c43f 2066 c7bd 90fa 403e eed0 b63d
00000060: 66df a33f 89b0 ef3f f3ee e83f f2e1 8abe
00000070: a8ae d93f 5099 a13f bee6 a23f 1b0a cb3f
00000080: a9a6 ae3f 0801 d13f e904 9b3f 7428 e33f
00000090: 497a c83f 74ec a43f 2d94 72be 23c7 d13d
000000a0: 3189 a53f f8cd a1bd f657 8b3f 5e28 cc3f
000000b0: 0000 b73f d622 ab3f 7669 e33f c218 9b3f
000000c0: eac0 d03f 7afd e93d 6fb2 e93f e6d7 0bbd
000000d0: 3957 ef3f 1882 863f c073 bb3f 5edd a53f
000000e0: 77cb ec3f 4d14 db3f 75b3 a33f 0bf7 ac3f
000000f0: 9522 b03f 1e54 b63f a583 bb3f 1d3f b5bf
1.282752 1.2073694 1.1792452 1.2926192 1.6026375 1.2549918 1.4239286 1.7920074
1.8877062 1.7872388 1.7842295 1.3866445 1.5121511 1.4617052 1.2397879 1.1829872
1.6953293 -0.7808033 -1.5037628 -0.35764304 1.5373262 -0.09736276 0.18845582 0.08926569
1.2802551 1.8725749 1.8197922 -0.27125508 1.7006426 1.2624912 1.2726667 1.5862459
1.3644611 1.632844 1.2110873 1.774672 1.5662318 1.288466 -0.23689337 0.102430604
1.2932492 -0.079006135 1.0886219 1.5949819 1.4296875 1.3370006 1.7766559 1.211693
1.6308873 0.114253 1.8257579 -0.034141444 1.8698493 1.0508451 1.4644699 1.2958181
1.8499593 1.711557 1.2789141 1.3512892 1.3760554 1.424442 1.464955 -1.4159886

bn2.bias f4 [64]
00000000: 7094 98bf 5656 91bf 8380 8cbf 6d82 99bf
00000010: a6c8 a83f 12c6 9bbf 6a4f 9a3f 9c10 d93f
00000020: b066 da3f abcf d93f d217 c33f 678b 953f
00000030: 963f a43f feb2 9b3f d495 99bf aba9 8abf
00000040: 0d5b b63f 9ade b83d 9dcb c43f 3555 0abf
00000050: 7f0d bfbf e34e 6abf b48a 493f 7f5b 5e3f
00000060: c6dc 98bf 2a19 da3f 3601 cb3f a402 41bf
00000070: 4476 b83f 914b 96bf 809a a6bf 76e6 a33f
00000080: 410f b4bf 0779 ad3f ef74 90bf 997d d0bf
00000090: fe05 a83f 1ae8 9dbf 3cf8 313f 4577 e73e
000000a0: bed9 9cbf 05e0 74bf af0e 8cbf 8315 a63f
000000b0: 5142 9a3f fc73 aabf 9134 d93f 9e3d 99bf
000000c0: fcd2 ac3f 6c41 fd3e 87ef d83f 0112 81bf
000000d0: ae36 d93f 7379 7fbf 86d8 9a3f 23c0 98bf
000000e0: 9dbf d63f 9eb8 b93f 95c7 98bf d432 a1bf
000000f0: 2aac b2bf add9 b6bf 1b0b b1bf 374d b93f
-1.19203 -1.1354473 -1.0976719 -1.1992928 1.3186233 -1.2169821 1.2055485 1.6958194
1.7062588 1.70165 1.5241644 1.1683167 1.2831905 1.2163999 -1.1998849 -1.0833029
1.4246536 0.09026833 1.5374638 -0.54036266 -1.4925994 -0.9152662 0.7872727 0.8685836
-1.1942375 1.703893 1.5859745 -0.75394654 1.4411092 -1.1741811 -1.30159 1.2804706
-1.4067155 1.355256 -1.1285685 -1.6288329 1.3126829 -1.2336457 0.695194 0.45208183
-1.225395 -0.95654327 -1.0941981 1.2975315 1.2051488 -1.3316646 1.6969167 -1.1971929
1.3501887 0.49463975 1.6948098 -1.0083619 1.6969812 -0.9979469 1.2097328 -1.1933635
1.6777226 1.4509466 -1.1935908 -1.2593637 -1.395879 -1.4285179 -1.3831514 1.4476689

bn2.running_mean f4 [64]
00000000: 0638 8041 0cf7 9141 7513 a041 4dab 9d41
00000010: 0ab2 ca40 4560 9e41 12ef f440 27c9 2d40
00000020: 2123 7d40 206f 1540 1d78 0541 85a0 da40
00000030: 3707 e640 2580 ce40 7f9c 9a41 b6f6 9d41
00000040: 6e68 c340 6fab 2f41 1604 8641 76d5 4641
00000050: 9b16 4741 9fbe 6941 cfd0 3741 803b 763d
00000060: f889 8641 4def 5640 2285 8641 81b9 7e41
00000070: bc80 9d40 b496 8741 df08 1e41 ab2a ad40
00000080: 0975 0141 6b84 be40 f313 9741 b68d 9041
00000090: f57f aa40 28c1 8141 9f8b 3e41 18e6 1940
000000a0: 721d 8841 2d16 6241 241b 3841 9a6f e840
000000b0: 28f9 dd40 1c8b 6841 931b 3a40 2a6c 8e41
000000c0: f862 cc40 ced9 2b40 e3e1 7540 3eee 3841
000000d0: 74b9 3840 ccd1 8941 8ca0 dc40 6ddd 9d41
000000e0: 1e64 8340 9ba8 ae40 51d1 8f41 1fce 9141
000000f0: 2116 2541 ff89 6041 2b6b 8641 928b 2b41
16.027355 18.245628 20.0095 19.708643 6.3342333 19.797007 7.6541834 2.7154024
3.955269 2.3349075 8.341825 6.8320947 7.1883807 6.4531426 19.326414 19.745464
6.106498 10.979354 16.751995 12.4271145 12.443019 14.609038 11.488479 0.060115337
16.817368 3.3583558 16.815006 15.920289 4.9219646 16.948586 9.877166 5.4114585
8.091073 5.9536643 18.88474 18.069195 5.3281198 16.219315 11.909087 2.4046688
17.014378 14.130414 11.506626 7.263623 6.9366646 14.533962 2.907933 17.802814
6.387081 2.6851687 3.841912 11.558165 2.8863192 17.22744 6.894598 19.733118
4.1059713 5.4580817 17.977205 18.225645 10.317903 14.03369 16.802328 10.721575

bn2.running_var f4 [64]
00000000: c4c1 0843 5fc0 1343 a14d 3243 5c07 1143
00000010: edac 7e43 6dbe 2243 43da a943 5853 8842
00000020: 44fd cd42 cece 5c42 3925 0343 739b 7a43
00000030: 7126 b243 010a 6e43 3569 a241 0241 3343
00000040: 0a12 8043 7f62 7e42 15ff d742 4d1d 9d42
00000050: 28ed cf42 df39 be42 9690 7142 73e5 f03e
00000060: 1154 0943 b16f 9042 81d9 1342 7e31 b842
00000070: e676 3443 65d0 1443 dc49 6342 9bca 2543
00000080: b849 1d42 3cf7 6f43 c6a3 1743 7b0d fd42
00000090: e141 4543 fce1 0043 f9b9 9a42 e626 4442
000000a0: 37ce 1143 7ae9 e642 f53c 9242 5c31 9c43
000000b0: 1eac 8043 7ab3 c942 0a67 8d42 2c26 1d43
000000c0: f3fa 8443 a896 5e42 4b30 c342 2986 9c42
000000d0: c27a 8042 cbcc 0a43 d040 8543 4d46 2443
000000e0: 32e5 d442 39d6 5943 634f 0f43 da5d 2143
000000f0: f13d 7c42 c68a d742 ed35 8e41 96df b242
136.7569 147.75145 178.30324 145.02875 254.67549 162.74385 339.70517 68.16278
102.99466 55.201958 131.1454 250.60722 356.30032 238.03908 20.30137 179.25394
256.14093 63.596188 107.99821 78.55723 103.963196 95.11303 60.391197 0.47050056
137.32838 72.21815 36.962406 92.096664 180.46445 148.81404 56.82213 165.79143
39.32199 239.96576 151.63974 126.52633 197.25734 128.88275 77.36323 49.037987
145.80553 115.45601 73.11906 312.38562 257.34467 100.85054 70.70125 157.14911
265.96054 55.647125 97.59432 78.26203 64.23976 138.79997 266.50635 164.27461
106.44765 217.8368 143.3101 161.36661 63.06049 107.77104 17.77633 89.43669

bn3.weight f4 [64]
00000000: 156c 0140 60ee c03f e8ad 0140 a28d 0740
00000010: 6428 2c3f 8b52 1140 7366 fa3f 6dc8 c13f
00000020: 4e6e 0f40 2722 0140 1bf6 0340 2c0f 6b3e
00000030: 962d c73f da79 0040 fb9a a53f 0864 0240
00000040: 3a27 0240 304b 0340 f3bc fd3f 926f 0140
00000050: 1ded fb3f cf7c fd3f 365d 0040 36fb 073e
00000060: 6504 d73f 342c fe3f 88ca 0140 9c79 fbbf
00000070: 315d 1f3f d0bc dc3f 659b a43f bc87 ef3d
00000080: 8954 a33d f375 f53f ca4d fc3f f322 fd3f
00000090: b131 fa3f 9c96 d33f f050 fd3f 24ea f53f
000000a0: 623d fe3f 3bfa fd3f 6efa 0040 ad15 303f
000000b0: 1ed7 0340 cc8b 1740 408e 0340 cd53 0740
000000c0: 4a53 363f 9d28 5b3f 50ae 2040 1253 ec3f
000000d0: 5d07 0040 b205 fe3f a065 0440 5b7a 0040
000000e0: f509 0140 11c3 0340 60d1 0040 17b9 f93f
000000f0: 7b7d 0340 0be6 ce3d 4ac2 c43e 334d 9b3d
2.0222218 1.5072746 2.0262394 2.1180196 0.6724913 2.270663 1.9562515 1.513929
2.2411075 2.0177095 2.061896 0.22955006 1.5560787 2.0074372 1.2937921 2.0373554
2.0336442 2.051464 1.9823288 2.0224347 1.9681736 1.9803714 2.0056891 0.13279423
1.6798216 1.985724 2.0279865 -1.9646487 0.62251574 1.7245121 1.2859923 0.11695811
0.07975108 1.917662 1.9711239 1.9776291 1.9546415 1.6530337 1.9790325 1.9212079
1.9862483 1.9841989 2.015285 0.68783075 2.0600047 2.3679075 2.0555573 2.1144898
0.7122084 0.85608846 2.5106392 1.8462851 2.0004494 1.9845488 2.0687027 2.007468
2.0162327 2.058781 2.0127792 1.950961 2.0545337 0.10102471 0.3842948 0.07583084

bn3.bias f4 [64]
00000000: f111 d63f 6cca e1bf c049 d83f 6ed0 00c0
00000010: 989b c7bf f9ab 0dc0 708c da3f 8d87 d7bf
00000020: b717 0ac0 5340 d93f bdda db3f d1bb 4abf
00000030: 00da 09c0 26cd d53f 1a40 d8bf 2eec d93f
00000040: d0ee d83f 3c8f d83f e3af d83f 8a0a e63f
00000050: 9c27 ecbf 330f ea3f b158 d63f a94d 19bf
00000060: 0c14 0840 e28d da3f 64eb e53f 880f 1e40
00000070: f16d aebf 2044 0540 bbf6 cbbf a377 27bf
00000080: a22e debe 9816 dd3f 9fdb d53f 0f05 e83f
00000090: 796a ecbf e6dd dbbf 18cc d83f a86f dc3f
000000a0: 3c95 d43f 7096 e83f 2b32 e93f a366 bdbf
000000b0: 2127 d83f a716 14c0 df1d d83f 7e3b 02c0
000000c0: ba43 d2bf 22fb e0bf d1ce 25c0 5ca3 e6bf
000000d0: f4fa f3bf de4a d53f 9ecf da3f 2e2b e73f
000000e0: ea84 d63f 4986 da3f f094 d83f 000b ebbf
000000f0: c85d d73f 54d4 00bf 6b74 aabf d127 f3be
1.6724225 -1.7639899 1.6897507 -2.0127215 -1.5594358 -2.2136214 1.7074108 -1.6838242
-2.1576974 1.6972755 1.7176129 -0.79192835 -2.1539307 1.6703231 -1.6894562 1.7025201
1.694788 1.6918712 1.6928676 1.7971966 -1.8449588 1.8285888 1.6745816 -0.59884125
2.1262236 1.7074549 1.796246 2.469698 -1.3627301 2.082283 -1.5934671 -0.65416926
-0.43394953 1.727252 1.6707648 1.8126544 -1.8469993 -1.7177093 1.6937284 1.7221575
1.6608043 1.817091 1.8218435 -1.4796947 1.6886941 -2.3138826 1.6884116 -2.034881
-1.6426919 -1.757664 -2.590748 -1.8018603 -1.906096 1.6663473 1.709461 1.8060052
1.6759312 1.707223 1.6920452 -1.8362732 1.6825495 -0.50323987 -1.3316778 -0.47491315

bn3.running_mean f4 [64]
00000000: 6168 8740 0f02 5441 7dcc 9c40 1b18 2e41
00000010: 24eb cc40 9dea f840 e9fe 9d40 ee96 3241
00000020: 2195 cc40 477f aa40 58e0 3c40 128f 2241
00000030: 7834 ba40 b19b af40 1c31 0941 51ca 7a40
00000040: 891d 8d40 0e50 5340 e7d5 ca40 6503 2740
00000050: cead 2d41 c366 3f40 967b 8340 f55d 4341
00000060: cab1 f33f 812a c640 c24d 2240 70f7 803f
00000070: 2f4a e840 cdb1 1640 4b08 f540 e36e d240
00000080: 42a2 d240 7f28 7e40 bf23 b740 09c5 0a40
00000090: 51a4 1741 1907 3c41 aefc be40 2a95 9d40
000000a0: 7749 ab40 74cb 4140 89c6 1340 3c8c da40
000000b0: b589 5340 03ca ac40 ca79 4540 0fe4 3941
000000c0: d382 ea40 ec20 ce40 ae7b c840 ac00 5e41
000000d0: 1b1b 0b41 40cc 9240 2b99 4940 0fbc 2440
000000e0: 16f6 a240 c6c8 4340 3ddc 9e40 0c68 2f41
000000f0: ee36 2a40 7a04 e140 fae7 0241 7a84 0f41
4.2314916 13.250503 4.899962 10.880885 6.4037037 7.7786393 4.937367 11.161848
6.393204 5.328037 2.9511929 10.159929 5.818905 5.4877553 8.57449 3.9185984
4.4098554 3.3017612 6.338611 2.6095822 10.854933 2.990647 4.108836 12.210439
1.9038632 6.1926885 2.535996 1.0075512 7.2590556 2.354602 7.6572623 6.576036
6.582307 3.9712217 5.7231135 2.168276 9.477616 11.751733 5.9683447 4.9244585
5.352718 3.0280428 2.3089926 6.8296185 3.30528 5.3996596 3.0855584 11.618178
7.3284698 6.441519 6.2650976 13.875164 8.694118 4.587433 3.1499736 2.5739782
5.09254 3.0591292 4.9643846 10.962902 2.6596026 7.0317965 8.181635 8.969843
