Results/NN_MLP_MLs/MLP_Ensemble/Model_Results/MGT/test8std/best_model_1.pt (torch, 79666 bytes, 14 tensors)

country_embedding.weight f4 [8, 2]
0	0xbe9a35bc	-0.3011912
1	0x3de4e5d6	0.1117665
2	0x3f512f66	0.8171295
3	0x3c5395a4	0.012914095
4	0xbfd449a7	-1.6584977
5	0xc06932eb	-3.6437328
6	0xbf7a5706	-0.9778904
7	0xbfae697f	-1.3625945
8	0xbe9b26b4	-0.30302966
9	0x3f85f390	1.0464954
10	0xc003b38f	-2.0578344
11	0xbf6108df	-0.8790416
12	0xbfc5a298	-1.5440245
13	0x3f7c557f	0.98567957
14	0xc07baafa	-3.9323106
15	0xc06ece1d	-3.7313302

fc1.weight f4 [200, 68]
0	0x3fd3c9b4	1.654593
1	0x3ea40782	0.32036978
2	0x3f0b1e59	0.5434318
3	0x3e82d816	0.25555485
4	0xbe8a5e04	-0.27024853
5	0x3f259ed7	0.64695495
6	0xbee49fef	-0.4465327
7	0x3ecbd834	0.39813387
8	0xbe3ce67b	-0.18447296
9	0x3b1bc37d	0.0023767643
10	0x3f8f3c1c	1.1190219
11	0x3ecb2acd	0.39681092
12	0xbf485164	-0.7824919
13	0xbf2af5a6	-0.6678108
14	0xbee61fd3	-0.44946155
15	0x3c0a9615	0.008458634
16	0x3cfae44c	0.030626439
17	0xbea3a00e	-0.3195805
18	0x3ee72b02	0.4515
19	0xbdbc4c35	-0.09194223
20	0x3e018b62	0.12650827
21	0x3da9d1ed	0.08291993
22	0x3e15262e	0.14565346
23	0x3f41af8a	0.75658476
24	0xbf1ff12b	-0.6247737
25	0xbdaaea74	-0.083455
26	0x3ed2979f	0.41131303
27	0xbe4d6a56	-0.20060095
28	0xbe2edd25	-0.17076547
29	0xbf6b1d67	-0.9184174
30	0xbf42bd07	-0.7606968
31	0x3da4d430	0.08048284
32	0x3f83431f	1.0254859
33	0xbcd6ca80	-0.026219606
34	0x3f03b8ff	0.51454157
35	0x3cdaf832	0.026729677
36	0x3e057f86	0.13036928
37	0x3d2d8793	0.04236562
38	0x3de1b772	0.110213175
39	0x3f603441	0.87579733
40	0xbf090d43	-0.5353586
41	0xbd9dc72e	-0.07704006
42	0x3e989e1a	0.29808122
43	0xbeda494c	-0.42634046
44	0xbda41126	-0.08011083
45	0xbf6a2682	-0.9146501
46	0xbf2f91cd	-0.6858185
47	0x3df269b4	0.118365675
48	0x3f8eabaf	1.1146144
49	0x3ce9e6e5	0.028552482
50	0x3f29179c	0.6605165
51	0x3e30a5bd	0.17250724
52	0x3ceac0a2	0.028656308
53	0xbd8d6ca2	-0.06905486
54	0x3e8aa533	0.27079162
55	0x3f650103	0.8945467
56	0xbeea48d5	-0.4575869
57	0x3de7e750	0.11323416
58	0x3ec8418a	0.39112502
59	0xbee541e0	-0.4477682
60	0xbd1a3143	-0.037644636
61	0xbf707309	-0.9392553
62	0xbf178929	-0.59193665
63	0xbe6b09bd	-0.22952934
64	0x3f2eab8a	0.682305
65	0xbd9a5ab8	-0.075368345
66	0x3fd74e3d	1.6820751
67	0x3d135e05	0.035978336
68	0x3cd70f81	0.02625251
69	0x3c911093	0.017708099
70	0xbccf2586	-0.025286447
71	0x3e17bb78	0.14817607
72	0x3de5a17e	0.11212443
73	0x3e4f69e9	0.20255245
74	0xbee52116	-0.44751805
75	0xbec93bfc	-0.39303577
76	0x3eab5f54	0.33471167
77	0xbd4c21d8	-0.049836963
78	0x3dc390ff	0.0954914
79	0xbe4e363c	-0.20137876
80	0xbe8f4261	-0.2798033
81	0xbde3002b	-0.110840164
82	0xbd3f6889	-0.046730552
83	0xbe82a595	-0.25516954
84	0xbe495fbd	-0.19665428
85	0xbe3b04d3	-0.18263559
86	0xbdf4b3db	-0.11948367
87	0xbf8456f3	-1.0339035
88	0xbea64335	-0.3247315
89	0xbdb91df2	-0.09038915
90	0xbebdfb36	-0.3710572
91	0xbe72eafc	-0.23722452
92	0xbd85b107	-0.06527906
93	0xbcf4d8dc	-0.029888563
94	0xbe843886	-0.25824374
95	0x3d869f63	0.06573369
96	0xbec967be	-0.39336962
97	0xbe9a0708	-0.3008349
98	0x3ded84a0	0.11597562
99	0xbd986789	-0.07441623
100	0xbeae117e	-0.3399772
101	0xbde8e886	-0.11372475
102	0xbe96e57c	-0.29471958
103	0xbf8034b7	-1.0016087
104	0xbec18f6b	-0.37804732
105	0x3cf8847e	0.030336615
106	0xbe9c0ffd	-0.30480948
107	0xbea99e26	-0.3312847
108	0x3e53eaa4	0.20694977
109	0xbdf9f328	-0.122045815
110	0xbef438ec	-0.47699678
111	0xbdb99907	-0.09062391
112	0xbedc29a3	-0.43000516
113	0xbe06a411	-0.13148524
114	0xbb387a26	-0.0028148978
115	0xbdd7cc72	-0.10537042
116	0xbe4ce5d3	-0.20009546
117	0xbdb0e4e8	-0.086374104
118	0xbe081535	-0.1328934
119	0xbf568e05	-0.83810455
120	0xbe8d82c1	-0.2763882
121	0xbd708b7e	-0.05872678
122	0xbf092010	-0.5356455
123	0xbf122c6c	-0.5709903
124	0x3dcfc5c3	0.10145142
125	0xbea7b4cf	-0.32755134
126	0xbea59c49	-0.323458
127	0xbc1ffc91	-0.009764806
128	0xbea3d0d9	-0.31995276
129	0xbe8af402	-0.27139288
130	0x3e1234a3	0.14277892
131	0xbd6eb3df	-0.058277007
132	0xbe966539	-0.29374102
133	0xbe851870	-0.25995207
134	0x3fa21ff1	1.2665998
135	0x3f388752	0.7208148
136	0xbea2eacf	-0.3181977
137	0x3e689175	0.22711737
138	0x3e396cf9	0.18107976
139	0xbee791dd	-0.45228472
140	0x3de15eb0	0.11004388
141	0xbe790225	-0.24317224
142	0xbe2afd52	-0.16698197
143	0x3d431f39	0.047637198
144	0xbbb5abf9	-0.0055441824
145	0x3eba2694	0.36357558
146	0xbf0e400f	-0.55566496
147	0x3e8d8086	0.27637118
148	0xbf250b15	-0.64470035
149	0x3ef71b01	0.4826279
150	0x3ec63924	0.3871547
151	0xbdaf9d95	-0.08574978
152	0x3f1bc686	0.608498
153	0x3e07d7f0	0.13265967
154	0xbf7d9385	-0.9905322
155	0xbeeeb298	-0.4662063
156	0xbf12e860	-0.57385826
157	0xbef8814c	-0.48536146
158	0x3de7adfe	0.11312483
159	0x3fa2ab80	1.2708588
160	0xbf7b213c	-0.98097587
161	0xbca54223	-0.020173138
162	0xbf6e6992	-0.9312984
163	0x3ed047fe	0.40679926
164	0xbe62b844	-0.22140604
165	0x3d65dfcd	0.056121636
166	0xbe835ffe	-0.25659174
167	0xbcac8d88	-0.021063581
168	0x3f915b93	1.1356071
169	0xbf8d9733	-1.1061767
170	0xbf3a9733	-0.7288696
171	0xbf02ea43	-0.51138705
172	0xbf0206d8	-0.5079169
173	0xbf039b01	-0.5140839
174	0xbe23dead	-0.16002913
175	0x3f9b7bf9	1.2147208
176	0x3e01e221	0.12683918
177	0x3e902fc2	0.28161436
178	0xbf47b0cf	-0.78004164
179	0x3ea57332	0.3231445
180	0x3ccca621	0.02498156
181	0x3efa9a8f	0.48946044
182	0x3da65ac4	0.08122781
183	0x3d94e370	0.07269943
184	0x3fba3577	1.4547566
185	0xbf854564	-1.0411801
186	0xbf2d1871	-0.6761542
187	0xbeb44d63	-0.3521529
188	0xbe4d7873	-0.20065479
189	0xbf19bbce	-0.6005219
190	0xbead02ef	-0.337913
191	0x3f7aee73	0.98020095
192	0xbc2e1a9b	-0.01062646
193	0x3e9a289e	0.30109113
194	0xbf537337	-0.8259768
195	0x3eb608f2	0.355537
196	0xbe8cce78	-0.27501273
197	0x3ec1c600	0.37846375
198	0x3d9dace3	0.07698991
199	0x3eda74bd	0.4266719
200	0x3fb81e69	1.438428
201	0xbf2590d1	-0.646741
202	0x3f95401c	1.166019
203	0x3e8dbab3	0.27681503
204	0x3f92e554	1.1476235
205	0xbddb1007	-0.10696416
206	0xbf2a7f3d	-0.666004
207	0xbfd433f4	-1.6578355
208	0xbf06897d	-0.5255354
209	0xbf2fc601	-0.68661505
210	0xbfa2684c	-1.2688079
211	0xbf4b0d64	-0.7931731
212	0xbec5d434	-0.3863846
213	0xbf4919eb	-0.7855517
214	0xbf5d1891	-0.8636561
215	0xbf7780bc	-0.9668081
216	0xbf4d9142	-0.8029977
217	0xbf1b8a99	-0.6075836
218	0xbf4cc0f9	-0.7998195
219	0xbf468ac7	-0.7755551
220	0xbf26bae8	-0.65128946
221	0xbf0ab471	-0.5418158
222	0xbf001726	-0.5003532
223	0xbfc30b06	-1.5237739
224	0xbf90db78	-1.1316977
225	0xbf5c1958	-0.8597617
226	0xbfba7656	-1.4567363
227	0xbf6a0d4f	-0.9142656
228	0xbf10f4c1	-0.56623465
229	0xbf9b4c5b	-1.2132677
230	0xbf95be3a	-1.1698678
231	0xbf8757e5	-1.0573698
232	0xbfc8167c	-1.5631862
233	0xbef2972f	-0.4738097
234	0xbf6bb10e	-0.9206704
235	0xbf39e648	-0.72617006
236	0xbf226689	-0.63437706
237	0xbf539ca9	-0.8266092
238	0xbf0fc4ad	-0.5615948
239	0xbfb163c4	-1.3858571
240	0xbf73f9db	-0.95303124
241	0xbf542201	-0.82864386
242	0xbfbc222f	-1.4697932
243	0xbf7e7ee0	-0.99412346
244	0xbeca11c8	-0.3946669
245	0xbf766efa	-0.96263087
246	0xbf6d23b4	-0.92632604
247	0xbf3a0d50	-0.72676563
248	0xbfc0bc88	-1.5057535
249	0xbf276cf1	-0.65400606
250	0xbf34f4b1	-0.7068587
251	0xbf3ecb4a	-0.74528944
252	0xbf081e4e	-0.5317124
253	0xbf7375d7	-0.95101684
254	0xbf0a84e9	-0.54109055
255	0xbfa48bfa	-1.2855217

fc1.bias f4 [200]
0	0xbeb8e6c1	-0.3611355
1	0xbf00b7e3	-0.5028059
2	0xbf0baa77	-0.54556984
3	0x3ec96c9d	0.39340678
4	0x3eeab8ce	0.4584412
5	0xbe365df0	-0.17809272
6	0xbe603150	-0.21893811
7	0x3f40c573	0.75301284
8	0xbf47c8c8	-0.7804074
9	0x3eeece44	0.46641743
10	0xbf12a8fd	-0.57289106
11	0xbf08ed82	-0.5348741
12	0x3ef6ab51	0.4817758
13	0xbf787878	-0.9705882
14	0xbf83aa8d	-1.0286423
15	0x3f192b52	0.59831727
16	0xbf8be307	-1.0928658
17	0xbf0bc11d	-0.5459154
18	0xbca5bfc6	-0.020233046
19	0xbe06ba15	-0.13156922
20	0xbf031a40	-0.5121193
21	0xbf9466c1	-1.1593858
22	0x3f02337d	0.50859815
23	0x3f0fd42c	0.56183124
24	0x3f0bd496	0.54621255
25	0xbf04d031	-0.51880175
26	0xbf46acfb	-0.776077
27	0x3f112f75	0.5671304
28	0xbf0b8e29	-0.54513794
29	0x3f263301	0.64921576
30	0x3d431d2d	0.047635246
31	0x3eaaba2a	0.33345157
32	0xbf03c1af	-0.5146741
33	0xbf642433	-0.89117736
34	0xbd47b864	-0.048759833
35	0x3f2e4efc	0.6808927
36	0x3f1aa291	0.60404307
37	0x3f0a064b	0.5391585
38	0xbe239d44	-0.15977961
39	0xbf34ba59	-0.70596844
40	0x3f2e7aa1	0.68155867
41	0x3f0a02fd	0.5391081
42	0xbf05d580	-0.522789
43	0x3ef4030d	0.47658578
44	0xbeb5a50a	-0.35477477
45	0xbe85fd78	-0.26169944
46	0xbe79a55a	-0.24379483
47	0xbf8f65df	-1.1202964
48	0x3f00745c	0.5017755
49	0x3f263181	0.64919287
50	0xbf2c3339	-0.6726566
51	0xbf2aaa1a	-0.66665804
52	0x3f2623df	0.64898485
53	0xbf690980	-0.9103012
54	0xbe1ed350	-0.15510297
55	0xbe805cac	-0.25070703
56	0x3f2557a5	0.6458686
57	0x3e16228b	0.14661615
58	0xbf50e385	-0.8159717
59	0xbed8ab26	-0.42318076
60	0xbf0ebb7b	-0.5575482
61	0x3efb4227	0.49073908
62	0x3f265e37	0.6498751
63	0x3f307bbd	0.6893881
64	0x3ef5b7dd	0.4799184
65	0x3f343e29	0.7040735
66	0xbf338cac	-0.70136523
67	0xbe58735d	-0.21137758
68	0xbd2b9c1c	-0.041896924
69	0xbfeaef6b	-1.8354315
70	0xbf0af915	-0.5428632
71	0x3f13fa6f	0.57804006
72	0x3f265245	0.64969283
73	0xbe7c5850	-0.24643064
74	0xbdfbf1ed	-0.12302003
75	0x3f107d48	0.56441164
76	0xbf083d92	-0.5321895
77	0xbf5f9f0b	-0.87352055
78	0xbe94ee15	-0.29087892
79	0xbedbe378	-0.42946982
80	0xbe4a320b	-0.19745652
81	0xbad5c9fd	-0.0016310808
82	0x3f1497d5	0.5804418
83	0xbe8d935b	-0.27651486
84	0xbe8a6d91	-0.27036718
85	0xbf22e0cb	-0.63624257
86	0x3f09c565	0.53816825
87	0xbd98a342	-0.07453014
88	0x3f02c155	0.5107625
89	0xbf001532	-0.5003234
90	0xbeaac60d	-0.33354226
91	0x3f109460	0.564764
92	0xbfa6f4b3	-1.3043426
93	0xbdeb478c	-0.11488256
94	0xbf75de0c	-0.9604194
95	0x3f185949	0.5951124
96	0xbf9998ff	-1.1999816
97	0x3f07cbb3	0.53045195
98	0xbf426f25	-0.75950843
99	0x3f57a499	0.8423553
100	0x3f36141e	0.71124446
101	0x3ed1f695	0.4100844
102	0x3f02ba7d	0.5106581
103	0xbf6e710b	-0.9314124
104	0x3ede8e6d	0.43468037
105	0xbf294e70	-0.6613531
106	0xbf0360cc	-0.51319575
107	0x3f207b3c	0.6268804
108	0xbed99744	-0.4249822
109	0x3f30ea4f	0.69107527
110	0x3f12d456	0.5735525
111	0x3f236176	0.6382059
112	0x3f256da7	0.6462044
113	0xbe10fd68	-0.14159167
114	0xbf71b4a8	-0.94416285
115	0xbf28a16f	-0.6587133
116	0x3f2531f1	0.6452933
117	0x3f308790	0.6895685
118	0xbf9f50f9	-1.2446586
119	0xbf72f663	-0.94907206
120	0xbdd7f75e	-0.105452284
121	0xbf4a09bc	-0.78921103
122	0xbe94aa1d	-0.29036036
123	0x3f195684	0.5989764
124	0xbe67046b	-0.22560279
125	0xbf2b6924	-0.66957307
126	0x3ee61047	0.44934294
127	0xbed61029	-0.41809204
128	0x3f1c04de	0.60944927
129	0xbf31b155	-0.6941121
130	0xbf6dd6b1	-0.9290572
131	0xbe1e2990	-0.15445542
132	0x3f175fcd	0.59130555
133	0x3ea353b3	0.31899795
134	0xbfaec1b8	-1.3652868
135	0x3e617d2f	0.2202041
136	0xbf1f64f6	-0.6226343
137	0xbd741ac9	-0.059595857
138	0x3ee3ccea	0.44492275
139	0xbe9a2010	-0.30102587
140	0xbf2cea23	-0.67544764
141	0x3f157a10	0.5838938
142	0x3e64d507	0.22346888
143	0xbf8e6dba	-1.1127236
144	0xbff5db13	-1.9207481
145	0xbf23c6d6	-0.63975275
146	0xbe3e4574	-0.18581182
147	0x3f1f7455	0.62286884
148	0xbf8d8d21	-1.1058694
149	0xbf3ae033	-0.7299835
150	0x4084d05a	4.1504335
151	0xbedffdf5	-0.4374844
152	0xbd11d7aa	-0.035606064
153	0xbe0d6c15	-0.13810761
154	0xbefc809a	-0.49316865
155	0xbde82156	-0.11334483
156	0xbf04ff66	-0.5195221
157	0xbe29fe82	-0.16600993
158	0x3f11e4f3	0.56989974
159	0x3f0a39e0	0.5399456
160	0xbe8ffd8c	-0.28123128
161	0xbfa426d4	-1.2824349
162	0x3f15c467	0.5850281
163	0x3f1251fd	0.57156354
164	0xbfabc5df	-1.341976
165	0xbf977ae7	-1.1834382
166	0xbf591aaf	-0.8480634
167	0xbf26708c	-0.6501548
168	0x3eb8ea1b	0.36116108
169	0xbfea9915	-1.8327967
170	0x3ec5ab95	0.3860747
171	0xbe96861a	-0.29399186
172	0xbe98ba18	-0.29829478
173	0xbef8151f	-0.48453614
174	0xbf823556	-1.0172527
175	0x3f63804f	0.8886766
176	0xbf845884	-1.0339513
177	0x3f220965	0.63295585
178	0xbf209395	-0.6272519
179	0x3ee2b5b8	0.44279265
180	0x3f1e4bc8	0.61834383
181	0xbf1fea53	-0.62466925
182	0xbe803936	-0.25043648
183	0xbfad8f16	-1.3559291
184	0xbe35fe2c	-0.1777274
185	0xbfa7c070	-1.3105602
186	0xbf0e1de7	-0.5551438
187	0x3f3447ad	0.7042187
188	0xbf93404e	-1.1503999
189	0xbe2c2148	-0.16809571
190	0xbf695c00	-0.91156006
191	0xbe91513c	-0.2838229
192	0xbe688de1	-0.22710373
193	0x3eaabbae	0.33346313
194	0xbe1845fc	-0.14870447
195	0xbe898f84	-0.26867306
196	0x3f2cfe51	0.67575556
197	0xbe7a5e8e	-0.24450132
198	0x3f27d84f	0.65564436
199	0xbf04ab7e	-0.51824176

fc2.weight f4 [20, 200]
0	0xc0500d02	-3.250794
1	0xc02bee3b	-2.6864154
2	0xc074a51b	-3.8225772
3	0x3fa5a12a	1.2939808
4	0x3f9d7e6b	1.2304205
5	0xc055c9a6	-3.3404326
6	0xc0513d46	-3.2693648
7	0x3f977907	1.183381
8	0xc0993047	-4.787143
9	0x3f9ba3f3	1.2159408
10	0xc04c7c1b	-3.1950748
11	0xc05c7f6d	-3.4452775
12	0x3fa23c84	1.2674718
13	0xc0b83124	-5.7559986
14	0xc06d564e	-3.7083926
15	0x3f943dcb	1.1581358
16	0xc064bc24	-3.5739832
17	0xc03367e3	-2.8032157
18	0xc04bbfa1	-3.183571
19	0xc0541128	-3.3135471
20	0xc0544d82	-3.3172307
21	0xc04fb134	-3.2451906
22	0x3fa32192	1.274462
23	0xc0540045	-3.3125165
24	0x3f9d01db	1.2266191
25	0xc0502ce2	-3.2527394
26	0xc045f1e9	-3.09289
27	0x3fa10169	1.2578555
28	0xc04a8011	-3.1640666
29	0x3f9edc6a	1.2411015
30	0xc05621d3	-3.3458145
31	0x3f979b64	1.1844296
32	0xc01d2b06	-2.455751
33	0xc04e5457	-3.2238977
34	0xc0520985	-3.281831
35	0x3f96a141	1.1767961
36	0x3f98c222	1.1934245
37	0x3f90feb8	1.1327734
38	0xc0237aec	-2.5543776
39	0xc052fe51	-3.2967722
40	0x3f99daea	1.2019932
41	0x3f95ef90	1.1713734
42	0xc018c590	-2.3870583
43	0x3f9d4d93	1.2289299
44	0xc03c8779	-2.9457686
45	0xc03b7571	-2.929043
46	0xc04d058e	-3.203464
47	0xc063462f	-3.5511587
48	0x3f9fce01	1.2484742
49	0x3f975efb	1.1825861
50	0xc04f6d2d	-3.2410386
51	0xc05f9595	-3.4935048
52	0x3f9890b4	1.191916
53	0xc06d6a42	-3.7096105
54	0xc043c890	-3.0591164
55	0xc07f8393	-3.9924057
56	0x3f949ef3	1.1611007
57	0xc037c434	-2.8713503
58	0xc039a53e	-2.9007106
59	0xc06fb9f1	-3.745724
60	0xc0300b33	-2.7506835
61	0x3f9d0191	1.2266103
62	0x3f985dde	1.1903646
63	0x3f9e5c4e	1.2371919
64	0x3fa81ea1	1.3134347
65	0x3f968657	1.1759747
66	0xc034b482	-2.8235173
67	0xc04cc502	-3.1995244
68	0xc04b7294	-3.1788683
69	0xc0a7b8fa	-5.24133
70	0xc0276f98	-2.6161861
71	0x3fa20a81	1.2659456
72	0x3f92a8d2	1.145777
73	0xc03498fe	-2.821838
74	0xc04742f6	-3.113462
75	0x3f9ec583	1.2404026
76	0xc036578c	-2.8490934
77	0xc08c40f7	-4.3829303
78	0xc03231a8	-2.7842808
79	0xc02ad7cb	-2.669421
80	0xc053f077	-3.3115518
81	0xc049c6ab	-3.1527507
82	0x3f975072	1.1821425
83	0xc04df32d	-3.2179673
84	0xc05032df	-3.253105
85	0xc05c8fb0	-3.44627
86	0x3fa1661e	1.2609289
87	0xc050cc45	-3.2624676
88	0xc04d5cba	-3.2087846
89	0xc02b943b	-2.6809223
90	0xc030f607	-2.7650163
91	0x3fa0c36f	1.2559642
92	0xc091ec24	-4.5600758
93	0xc0528a98	-3.289709
94	0xc097f520	-4.7486725
95	0x3f970a65	1.1800047
96	0xc0962851	-4.6924214
97	0x3f9613d5	1.1724802
98	0xc056bfe0	-3.3554611
99	0xc078497a	-3.8794847
100	0x3f970135	1.1797243
101	0x3fa1c18c	1.2637191
102	0x3f9ebdd4	1.2401681
103	0xc0aec771	-5.461846
104	0x3f9fb169	1.2476016
105	0xc0540c4b	-3.3132503
106	0xc042abcf	-3.0417364
107	0x3f99c765	1.2013975
108	0xc0594565	-3.3948605
109	0x3fa280da	1.2695572
110	0x3f9b6ffe	1.2143552
111	0x3f9ba217	1.2158841
112	0x3fa59b19	1.2937957
113	0xc05a1a9e	-3.4078746
114	0xc08261da	-4.074445
115	0xc08ff406	-4.498538
116	0x3f9ad173	1.2095169
117	0x3f9f50d1	1.2446538
118	0xc05fef2c	-3.498973
119	0xc08736b9	-4.22543
120	0xc04bd01b	-3.1845767
121	0xc03c3a09	-2.9410422
122	0xc04a6f6a	-3.1630502
123	0x3fa322ba	1.2744973
124	0xc040c83e	-3.0122218
125	0xc05f2da0	-3.4871597
126	0xc0a03662	-5.0066385
127	0xc05d980b	-3.462405
128	0x3f957c6b	1.1678594
129	0xc0532bef	-3.2995565
130	0xc02fe2ba	-2.7482133
131	0xc046a1b9	-3.1036208
132	0x3fa529c5	1.2903372
133	0xc050d216	-3.2628226
134	0xc06bb617	-3.682989
135	0xc049aa5e	-3.1510234
136	0xc050e0af	-3.2637136
137	0xc052a49f	-3.2912977
138	0x3f958929	1.1682483
139	0xc029905a	-2.6494355
140	0xc0819d67	-4.050464
141	0x3f9d1711	1.2272664
142	0xc030c8e6	-2.7622619
143	0xc083fb43	-4.1244216
144	0xc0d0242f	-6.504417
145	0xc03244a2	-2.785439
146	0xc046b324	-3.1046839
147	0x3f9aac34	1.2083802
148	0xc07fabc2	-3.9948583
149	0xc074d755	-3.8256428
150	0x407d3abe	3.9567103
151	0xc01c0099	-2.4375365
152	0xc04f471b	-3.238715
153	0xc04f42a6	-3.238443
154	0xc057940c	-3.368411
155	0xc04d642a	-3.2092385
156	0xc034e21a	-2.8263001
157	0xc0462ba0	-3.0964127
158	0x3f9b0986	1.2112281
159	0x3fa0c501	1.2560121
160	0xc05da891	-3.4634135
161	0xc0864ceb	-4.1968894
162	0x3f9f5701	1.2448426
163	0x3f956fce	1.1674745
164	0xc08ec9be	-4.4621267
165	0xc0676dba	-3.6160722
166	0xc0542717	-3.3148859
167	0xc0a0348a	-5.0064135
168	0x3f9c9d29	1.2235461
169	0xc0cc2b12	-6.3802576
170	0x3f9a977b	1.2077478
171	0xc0425e3c	-3.0370016
172	0xc0542208	-3.314577
173	0xc0552fd9	-3.3310454
174	0xc06c072e	-3.6879382
175	0xc05a682e	-3.4126086
176	0xc0775c99	-3.8650267
177	0x3fa1cf38	1.2641363
178	0xc028446a	-2.6291757
179	0x3f984eae	1.1899011
180	0x3f95dc6c	1.1707892
181	0xc0536dc6	-3.303575
182	0xc0532780	-3.299286
183	0xc07e4267	-3.9728029
184	0xc0428299	-3.039221
185	0xc09f7971	-4.9835744
186	0xc02b8273	-2.679837
187	0x3f9c8a48	1.22297
188	0xc0769055	-3.8525593
189	0xc09ff4f4	-4.9986515
190	0xc05bcdd3	-3.4344375
191	0xc04424fb	-3.064757
192	0xc03c022e	-2.937633
193	0xc060f94a	-3.5152154
194	0xc0312d54	-2.7683916
195	0xc071a03f	-3.7754056
196	0x3fa02bc6	1.2513359
197	0xc043c8f6	-3.0591407
198	0x3f9d94c4	1.2311025
199	0xc00c8c22	-2.196053
200	0xbdacb733	-0.0843338
201	0xbd9f28cc	-0.07771453
202	0xbd083f50	-0.033263505
203	0xbea06d4d	-0.3133339
204	0xbe89db4c	-0.26925123
205	0x3d87f328	0.06638175
206	0x3dd127ef	0.10212695
207	0xbeac5945	-0.33661857
208	0x3d4c98a4	0.049950257
209	0xbe91d5e5	-0.284835
210	0xbdda78b9	-0.10667557
211	0xbc525124	-0.012836728
212	0xbeb06813	-0.34454402
213	0xbe055c1d	-0.1302342
214	0xbeb11f95	-0.34594408
215	0xbe6492cc	-0.22321624
216	0xbe31c67a	-0.17360869
217	0x3c74e76e	0.014947755
218	0x3d4f51a2	0.05061496
219	0x3dbeb368	0.09311563
220	0xbe20dc49	-0.15709032
221	0xbe1a76ec	-0.15084428
222	0xbea2538c	-0.31704366
223	0xbda234c1	-0.07920218
224	0xbed4af12	-0.41539818
225	0xbe0ee704	-0.13955313
226	0xbe69df2d	-0.22839041
227	0xbe90e144	-0.28296864
228	0xbe874e77	-0.2642705
229	0xbec40768	-0.382869
230	0x3c645dd8	0.01393839
231	0xbe5f9e22	-0.21837667
232	0xbc38dc96	-0.011283061
233	0xbdbd3206	-0.09238057
234	0xbe32b886	-0.17453203
235	0xbe979459	-0.29605368
236	0xbe8fc0d8	-0.28076816
237	0xbef11880	-0.47089005
238	0xbd6400a0	-0.05566466
239	0xbe13ca25	-0.14432581
240	0xbe92dbdd	-0.28683367
241	0xbeb415b6	-0.35172814
242	0xbda28ea9	-0.079373665
243	0xbe92df22	-0.28685862
244	0xbcc5810a	-0.024109382
245	0x3d722f66	0.059127234
246	0xbd51772d	-0.051139046
247	0xbe43af3b	-0.19109814
248	0xbec86117	-0.39136574
249	0xbe3f3a03	-0.18674473
250	0xbe63ab73	-0.22233371
251	0xbd8d8e3b	-0.06911894
252	0xbe981641	-0.29704478
253	0xba583635	-0.00082478236
254	0x3d53bff8	0.051696748
255	0xbdd4c673	-0.10389414

fc2.bias f4 [20]
0	0x4048a77b	3.1352222
1	0xbeec5cea	-0.46164638
2	0xbe21a706	-0.1578637
3	0xbd604ed7	-0.054762688
4	0x40494a3d	3.1451561
5	0x3f28237a	0.6567913
6	0xbe7ab160	-0.24481726
7	0xbe355d5e	-0.17711398
8	0x3f2a2de7	0.6647629
9	0x404caf8a	3.198214
10	0x40474d7b	3.114104
11	0xbe2f3b4f	-0.17112468
12	0x404e7eb7	3.226484
13	0x3f41622d	0.7554043
14	0x405d9940	3.4624786
15	0x3f1dee71	0.6169196
16	0xbe8c641f	-0.27420136
17	0x4045a7f2	3.0883756
18	0x3f0c4f68	0.54808664
19	0xbda190e7	-0.07888966

fc3.weight f4 [1, 20]
0	0x404a51b8	3.1612377
1	0xc068dd22	-3.6384969
2	0xc06d5da2	-3.70884
3	0xc0733f62	-3.8007436
4	0x4049a73e	3.1508327
5	0xc08c4ec1	-4.3846135
6	0xc06f5da6	-3.7400908
7	0xc071072a	-3.7660623
8	0xc08a848f	-4.3286815
9	0x404755c8	3.1146107
10	0x405388fc	3.3052359
11	0xc074124a	-3.8136163
12	0x404e2050	3.2207222
13	0xc084b2b7	-4.146816
14	0x40540f10	3.3134193
15	0xc08d44cb	-4.4146476
16	0xc04b112c	-3.172923
17	0x404c4de2	3.1922536
18	0xc081eb79	-4.059994
19	0xc071eb22	-3.7799764

bn1.weight f4 [200]
0	0x40243435	2.5656865
1	0x404cac70	3.1980247
2	0x408d2793	4.411081
3	0x3fe8d2b6	1.8189304
4	0x3ff27937	1.8943242
5	0x404a4e2b	3.161021
6	0x4026d856	2.606954
7	0x3fe0e051	1.7568456
8	0x409ca705	4.895388
9	0x3feeeb8c	1.8665633
10	0x40504b4c	3.2545958
11	0x40485c44	3.1306314
12	0x3ff1423f	1.8848342
13	0x40bdcedc	5.9315014
14	0x4067615b	3.615317
15	0x3fda4857	1.7053326
16	0x403d5505	2.9583142
17	0x404d6685	3.2093823
18	0x402fbc6b	2.7458751
19	0x4034caa8	2.8248692
20	0x404f0243	3.234513
21	0x3ff669dd	1.9251057
22	0x3fea9fd1	1.8330022
23	0x4040a8cb	3.0103023
24	0x3fea1e31	1.8290464
25	0x405ab1f3	3.4171112
26	0x40245aa6	2.5680327
27	0x3feea4e9	1.8644077
28	0x40253316	2.581243
29	0x3ff09edc	1.879848
30	0x402561c2	2.5840917
31	0x3fcbeac4	1.593102
32	0x4045a3f7	3.0881326
33	0x402a3d02	2.6599736
34	0x402cda83	2.700837
35	0x3fe994b5	1.8248507
36	0x3fea8d69	1.8324405
37	0x3fdfcecf	1.7484988
38	0x402eb260	2.7296371
39	0x402f77d2	2.7416883
40	0x3fedeeb8	1.8588476
41	0x3fed058d	1.8517319
42	0x4034b616	2.8236136
43	0x3fec2735	1.8449465
44	0x40200d9c	2.5008307
45	0x403a4e32	2.9110227
46	0x4076fb3b	3.859084
47	0x403473bc	2.8195639
48	0x3fe236a0	1.767292
49	0x3fecdacf	1.8504275
50	0x402dcb23	2.7155235
51	0x403cb28a	2.9483972
52	0x3fe024f0	1.7511272
53	0x406b8337	3.6798837
54	0x402de41b	2.7170475
55	0x409d82fa	4.9222383
56	0x3fe0f73b	1.7575449
57	0x4029fbf7	2.6560037
58	0x4020f196	2.5147452
59	0x4099817b	4.7970557
60	0x4046acf6	3.1043067
61	0x3fee0d2e	1.8597772
62	0x3fe2f74c	1.7731719
63	0x3fe240f1	1.7676069
64	0x3fec41f5	1.8457628
65	0x3fe17eb9	1.7616798
66	0x4096e77c	4.7157574
67	0x404061fa	3.00598
68	0x4033ae6a	2.8075204
69	0x40ce8e1c	6.4548473
70	0x4042e291	3.0450785
71	0x3fe312aa	1.7740071
72	0x3fe5f65d	1.7965809
73	0x4041a458	3.0256557
74	0x403e8d5d	2.9773781
75	0x3fde6f6e	1.7377756
76	0x404bd6e0	3.18499
77	0x408088f2	4.016717
78	0x404824af	3.127239
79	0x40409eb6	3.009687
80	0x4041cdd9	3.028189
81	0x4032ce20	2.7938309
82	0x3feb6627	1.839055
83	0x403a58f9	2.9116805
84	0x4051096a	3.2661996
85	0x4053dd15	3.3103688
86	0x3fea6dff	1.8314818
87	0x4039be0a	2.902224
88	0x4041c5a3	3.0276878
89	0x4048ab50	3.135456
90	0x40323b61	2.7848742
91	0x3fe9853a	1.8243783
92	0x40926b7a	4.5756197
93	0x401fc0ec	2.49615
94	0x408e442c	4.445822
95	0x3feed260	1.8657951
96	0x40b6e2e2	5.7151957
97	0x3fded7ef	1.7409648
98	0x4060fc98	3.515417
99	0x40864b1c	4.1966686
100	0x3feba11b	1.840854
101	0x3fd5460c	1.6662002
102	0x3fe19d4b	1.7626127
103	0x40fc599d	7.885939
104	0x3fd0293a	1.6262581
105	0x403c6ccc	2.9441404
106	0x4075f553	3.8430984
107	0x3fecb9e0	1.8494225
108	0x40403ef2	3.0038419
109	0x3fedad54	1.856852
110	0x3fe98a55	1.824534
111	0x3fefcf52	1.8735144
112	0x3ff1aaa0	1.8880196
113	0x402d1cce	2.704883
114	0x40815f3e	4.0428762
115	0x40883626	4.25661
116	0x3fe5472a	1.7912343
117	0x3fed0174	1.8516068
118	0x402570fa	2.5850205
119	0x409c92f0	4.8929367
120	0x402a54d4	2.6614275
121	0x400d1a2b	2.2047222
122	0x403608b8	2.8442822
123	0x3ff3f902	1.9060366
124	0x4067e24d	3.6231873
125	0x4047a8bb	3.1196735
126	0x40947418	4.6391716
127	0x403861b2	2.8809628
128	0x3fe48474	1.7852921
129	0x400e5a2b	2.2242534
130	0x4030806b	2.757838
131	0x4034df47	2.8261278
132	0x3fe76172	1.8076613
133	0x403e54cc	2.9739256
134	0x404e2c67	3.22146
135	0x401db58e	2.4642062
136	0x406d1de3	3.7049491
137	0x403d4d8c	2.957858
138	0x3fdea684	1.7394567
139	0x403ae09b	2.9199588
140	0x4055ecff	3.34259
141	0x3feb208a	1.8369305
142	0x4023f7e3	2.5620048
143	0x40797926	3.8980193
144	0x40e44eae	7.1346045
145	0x4052da16	3.294561
146	0x40219e29	2.5252783
147	0x3fea8cfd	1.8324276
148	0x407eb2e2	3.9796681
149	0x4030dbf4	2.7634249
150	0x40923a9e	4.5696554
151	0x40472a8e	3.1119723
152	0x403a0919	2.9068053
153	0x402812d7	2.62615
154	0x40882796	4.2548323
155	0x4023b89f	2.5581434
156	0x40378d0e	2.8679843
157	0x402ba853	2.6821487
158	0x3fe7e8ef	1.8117961
159	0x3fe77546	1.8082664
160	0x408cada2	4.3961954
161	0x40799a4c	3.9000425
162	0x3feb21c6	1.8369682
163	0x3ff0671e	1.8781469
164	0x409055d5	4.5104775
165	0x402fe1da	2.74816
166	0x4046953d	3.1028588
167	0x40a0c16a	5.02361
168	0x3fcea1e4	1.6143155
169	0x40ee29b1	7.4425893
170	0x3fcc7880	1.5974274
171	0x4036b35f	2.854698
172	0x4019917d	2.399505
173	0x404cd37a	3.2004075
174	0x408113b9	4.0336576
175	0x40483bce	3.1286502
176	0x408f9734	4.4872074
177	0x3fed811e	1.8555028
178	0x405008fc	3.2505484
179	0x3fdb8684	1.7150426
180	0x3feada3f	1.8347853
181	0x403b382d	2.9253037
182	0x404d833e	3.2111354
183	0x40a93922	5.288224
184	0x40426249	3.0372488
185	0x410d9efc	8.851315
186	0x402f87ed	2.7426713
187	0x3fed669f	1.8546942
188	0x409ef164	4.9669666
189	0x40da9b8f	6.831489
190	0x4026b15a	2.6045747
191	0x403d6f34	2.9599123
192	0x4024a044	2.5722818
193	0x404a8314	3.1642504
194	0x40335611	2.802128
195	0x4086ed90	4.2164993
196	0x3fee2086	1.8603675
197	0x401cf8f8	2.4526958
198	0x3fed04a0	1.8517036
199	0x40378be7	2.867914

bn1.bias f4 [200]
0	0xc0745c77	-3.8181436
1	0xc0796dea	-3.8973336
2	0xc07a67f2	-3.9125943
3	0x405d3880	3.4565735
4	0x405bbaff	3.4332883
5	0xc07736cb	-3.8627193
6	0xc0743412	-3.8156781
7	0x40597fc4	3.3984232
8	0xc07a352e	-3.9094958
9	0x405ad285	3.419099
10	0xc0745a47	-3.81801
11	0xc0746057	-3.81838
12	0x405bf7fd	3.437011
13	0xc07a3d67	-3.9099977
14	0xc0761bb6	-3.8454413
15	0x40577f10	3.3671303
16	0xc078f503	-3.8899543
17	0xc0798fbe	-3.8993983
18	0xc071d992	-3.7789044
19	0xc0767f1a	-3.8515077
20	0xc077674a	-3.8656793
21	0xc0775fe6	-3.8652282
22	0x405e252a	3.4710183
23	0xc0739a95	-3.80631
24	0x405dd902	3.46637
25	0xc076d3a2	-3.856667
26	0xc0772bca	-3.8620477
27	0x405c588b	3.4429042
28	0xc077b4b9	-3.8704054
29	0x405a62e7	3.4122865
30	0xc0759717	-3.8373468
31	0x40594f75	3.3954747
32	0xc07655b0	-3.84898
33	0xc07828df	-3.8774946
34	0xc06ccb8e	-3.699924
35	0x405c76f2	3.4447598
36	0x405bf0e8	3.4365788
37	0x4057398b	3.3628871
38	0xc0768106	-3.851625
39	0xc078e538	-3.8889904
40	0x405c4413	3.441655
41	0x405bd759	3.4350188
42	0xc07a0f24	-3.907174
43	0x4058f47c	3.3899221
44	0xc0739c6a	-3.8064218
45	0xc078cadd	-3.8873818
46	0xc075c4d9	-3.8401396
47	0xc07994f3	-3.8997161
48	0x405be447	3.435808
49	0x405b5925	3.427316
50	0xc073f062	-3.8115468
51	0xc077a1b6	-3.869245
52	0x405aa886	3.4165359
53	0xc076b005	-3.8544934
54	0xc076996c	-3.8531141
55	0xc0754f4e	-3.8329654
56	0x4057c7c5	3.371568
57	0xc075e64d	-3.8421814
58	0xc0790874	-3.891141
59	0xc0761e5e	-3.8456035
60	0xc078e260	-3.8888168
61	0x40598b93	3.399144
62	0x405df318	3.4679623
63	0x405c99fe	3.446899
64	0x405dc108	3.4649067
65	0x405e3ca2	3.4724507
66	0xc079b802	-3.901856
67	0xc07356b9	-3.8021681
68	0xc075530e	-3.8331943
69	0xc0763463	-3.8469474
70	0xc07a3398	-3.909399
71	0x405dbb21	3.4645464
72	0x405c420d	3.4415314
73	0xc077cfcf	-3.8720586
74	0xc0741c2c	-3.8142195
75	0x405c3c86	3.441194
76	0xc07404e8	-3.8127995
77	0xc0768658	-3.8519497
78	0xc0773b81	-3.8630068
79	0xc0788645	-3.8831952
80	0xc07851b7	-3.8799875
81	0xc075b97b	-3.8394458
82	0x405c5b54	3.4430742
83	0xc0749cb9	-3.8220656
84	0xc076d9b0	-3.8570366
85	0xc074012c	-3.8125715
86	0x405e3961	3.4722521
87	0xc0737beb	-3.8044384
88	0xc070dc34	-3.7634401
89	0xc0765ad4	-3.8492937
90	0xc0774221	-3.8634112
91	0x4059a2e4	3.400567
92	0xc0772f3f	-3.8622587
93	0xc07599ee	-3.8375201
94	0xc07903f2	-3.8908658
95	0x405a4910	3.4107094
96	0xc077ea70	-3.873684
97	0x40551e9c	3.3299932
98	0xc07a5f5d	-3.9120705
99	0xc0772dfb	-3.8621814
100	0x40587e8d	3.382724
101	0x405a67b6	3.41258
102	0x405be04b	3.4355648
103	0xc07f0ec6	-3.9852767
104	0x405e68ef	3.4751546
105	0xc07ba845	-3.9321454
106	0xc078e27e	-3.888824
107	0x4059ba69	3.4020026
108	0xc0740ec0	-3.8134003
109	0x405c7970	3.444912
110	0x405d36a1	3.4564593
111	0x405ae93e	3.420486
112	0x405c79a3	3.444924
113	0xc0759547	-3.8372362
114	0xc0794ad8	-3.895193
115	0xc0776d06	-3.8660293
116	0x4059e062	3.4043202
117	0x405bd20a	3.4346948
118	0xc07b9c9c	-3.9314337
119	0xc0757876	-3.8354774
120	0xc0754868	-3.8325443
121	0xc07b9503	-3.93097
122	0xc075e4fa	-3.8421006
123	0x405c4535	3.441724
124	0xc0758597	-3.8362787
125	0xc07707ae	-3.8598437
126	0xc07b9938	-3.9312267
127	0xc07862f1	-3.881039
128	0x405a920e	3.4151645
129	0xc0721f95	-3.7831776
130	0xc07af2f0	-3.9210777
131	0xc075730d	-3.8351471
132	0x405d5330	3.4582024
133	0xc071d277	-3.7784708
134	0xc078de72	-3.888577
135	0xc0727be6	-3.7888122
136	0xc073e70b	-3.8109767
137	0xc07381a6	-3.804788
138	0x4056b446	3.354753
139	0xc075739d	-3.8351815
140	0xc074a12d	-3.8223374
141	0x405c93a3	3.446511
142	0xc07165e9	-3.771845
143	0xc077f1f7	-3.8741434
144	0xc074e7fd	-3.8266594
145	0xc076800d	-3.8515656
146	0xc0750631	-3.828503
147	0x405b5729	3.4271948
148	0xc0761c7b	-3.8454883
149	0xc074c4a7	-3.8245027
150	0x40782742	3.877396
151	0xc07b46ac	-3.9261885
152	0xc0759f5c	-3.8378515
153	0xc0716c53	-3.7722366
154	0xc0753450	-3.831318
155	0xc07371c3	-3.8038185
156	0xc079b7bd	-3.9018395
157	0xc0759f38	-3.837843
158	0x405ca227	3.447397
159	0x405a1cdb	3.4080112
160	0xc0756021	-3.8339922
161	0xc07792d9	-3.8683379
162	0x405c92da	3.446463
163	0x405c88e9	3.4458563
164	0xc0755c37	-3.8337533
165	0xc0797773	-3.8979156
166	0xc07630cc	-3.8467283
167	0xc074b748	-3.8236866
168	0x405634c3	3.3469703
169	0xc0739043	-3.80568
170	0x405c1b66	3.4391723
171	0xc079eb36	-3.9049811
172	0xc078154d	-3.8763
173	0xc0747d5a	-3.8201509
174	0xc078d4d3	-3.8879898
175	0xc0700434	-3.7502565
176	0xc076496d	-3.8482316
177	0x405bb700	3.4330444
178	0xc07a79c4	-3.913682
179	0x405c8b95	3.4460194
180	0x40592848	3.3930836
181	0xc0792e28	-3.8934422
182	0xc077a647	-3.8695238
183	0xc0741879	-3.8139937
184	0xc0787a90	-3.8824806
185	0xc077d4bf	-3.87236
186	0xc077d88d	-3.8725922
187	0x405c96e7	3.4467103
188	0xc0761d70	-3.8455467
189	0xc0796c96	-3.8972526
190	0xc07a16f8	-3.907652
191	0xc076fedd	-3.8593056
192	0xc073ac3b	-3.807387
193	0xc074c6d5	-3.8246357
194	0xc075ddbb	-3.8416584
195	0xc078c646	-3.8871017
196	0x405c24f5	3.4397557
197	0xc070fe62	-3.7655263
198	0x40591489	3.3918784
199	0xc06bbc60	-3.6833725

bn1.running_mean f4 [200]
0	0x3d79aec8	0.0609577
1	0x3db3ddc7	0.08782535
2	0x3dda9ea8	0.106747925
3	0x3d2a7de3	0.04162396
4	0x3de2a619	0.11066837
5	0x3dc92243	0.09820988
6	0x3d94cc3b	0.07265516
7	0x3e035f6f	0.12829374
8	0x3e05c52d	0.13063498
9	0x3e162ab1	0.14664723
10	0x3deb5fb0	0.1149286
11	0x3dacdcf8	0.08440584
12	0x3e0ca33d	0.13734145
13	0x3da00006	0.078125045
14	0x3d6f135b	0.05836807
15	0x3dc3a910	0.095537305
16	0x3d92a945	0.07161192
17	0x3dbdd436	0.09268992
18	0x3dcf45f3	0.10120764
19	0x3d7fca26	0.062448643
20	0x3db8965a	0.09013052
21	0x3d4afa73	0.049555253
22	0x3d81911e	0.06326507
23	0x3db6b678	0.08921522
24	0x3da18787	0.07887178
25	0x3de76095	0.112977184
26	0x3dc3e9ab	0.09566053
27	0x3daf5587	0.08561235
28	0x3d6589de	0.056039684
29	0x3dfaed18	0.12252253
30	0x3dba17fe	0.090866074
31	0x3dad358b	0.08457478
32	0x3db18a6e	0.086689815
33	0x3d9e6138	0.07733387
34	0x3d811e7b	0.06304642
35	0x3e0efb87	0.13963138
36	0x3e113d33	0.14183502
37	0x3e07d0b6	0.1326321
38	0x3da666ba	0.08125062
39	0x3d6a4a18	0.057199568
40	0x3e22669b	0.15859453
41	0x3e0fc4b4	0.1403988
42	0x3d24417f	0.040101524
43	0x3dbb716c	0.09152493
44	0x3d928fad	0.0715631
45	0x3d869069	0.06570513
46	0x3e0652cd	0.13117523
47	0x3d81ba4e	0.06334363
48	0x3d6a671c	0.05722724
49	0x3e2c96aa	0.16854349
50	0x3de1cc72	0.11025323
51	0x3d5b71a7	0.053575184
52	0x3da3e33d	0.08002327
53	0x3dc37e37	0.09545558
54	0x3d8e6c97	0.069543056
55	0x3dc82233	0.09772148
56	0x3dff16d2	0.124555245
57	0x3dc354e2	0.095376745
58	0x3dae6434	0.08515206
59	0x3debe9ef	0.11519229
60	0x3d9c7567	0.0763958
61	0x3dce7433	0.10080757
62	0x3e0920c5	0.13391407
63	0x3e726e18	0.2367481
64	0x3d66b41b	0.056324106
65	0x3dd9e116	0.10638635
66	0x3d737616	0.059438787
67	0x3dc21119	0.09475917
68	0x3dc2293f	0.09480523
69	0x3de2344d	0.11045132
70	0x3da21722	0.079145685
71	0x3da9d116	0.08291833
72	0x3e23c569	0.15993275
73	0x3dda5201	0.10660172
74	0x3deca952	0.11555733
75	0x3d183056	0.03715547
76	0x3de3d400	0.1112442
77	0x3db256e2	0.08707978
78	0x3db122e1	0.08649231
79	0x3d945b9c	0.072440356
80	0x3db982fa	0.09058185
81	0x3d8ba14f	0.068178765
82	0x3de6c83e	0.11268662
83	0x3d9599fb	0.0730476
84	0x3e03d00f	0.12872337
85	0x3dd94a73	0.10609903
86	0x3d2d9838	0.042381495
87	0x3dc02f89	0.093840666
88	0x3d311e9f	0.043242093
89	0x3dc81bc9	0.097709246
90	0x3d8e50e2	0.06949021
91	0x3dac348c	0.0840846
92	0x3df424b1	0.11921061
93	0x3d8b8d10	0.06814015
94	0x3da9898d	0.08278189
95	0x3def4a5a	0.11684103
96	0x3df109a6	0.117694184
97	0x3dddae9d	0.108243205
98	0x3d86c1e4	0.065799505
99	0x3d9f55d9	0.07780046
100	0x3dda2671	0.10651863
101	0x3d8dd204	0.06924823
102	0x3dff8b8e	0.1247779
103	0x3e2042c7	0.15650474
104	0x3d8b145a	0.06790991
105	0x3db8f689	0.09031398
106	0x3db56049	0.088562556
107	0x3e4498d5	0.19198926
108	0x3d95e065	0.073181905
109	0x3dfa3373	0.122168444
110	0x3dc6fe5c	0.09716484
111	0x3e1e862b	0.15480869
112	0x3e02eae1	0.12784912
113	0x3d7507a1	0.05982173
114	0x3dc587c6	0.09645037
115	0x3dc01d0c	0.0938054
116	0x3e4885f9	0.19582357
117	0x3e233e2a	0.15941682
118	0x3d96a7a1	0.073561914
119	0x3debbeac	0.11510977
120	0x3d567d4b	0.052365582
121	0x3d7be46c	0.061497137
122	0x3d577772	0.052604146
123	0x3dbff8eb	0.09373649
124	0x3da037d9	0.07823152
125	0x3d9965ac	0.074900955
126	0x3d967fa0	0.07348561
127	0x3dac586a	0.08415301
128	0x3d9c67fb	0.0763702
129	0x3d7b9ab1	0.061426822
130	0x3d524d61	0.051343326
131	0x3d75aec5	0.059981126
132	0x3e00e035	0.12585528
133	0x3d8423a7	0.06452113
134	0x3da6e333	0.081488036
135	0x3d692f54	0.0569299
136	0x3d9debac	0.077109665
137	0x3d87dbd5	0.066337265
138	0x3de257d1	0.11051906
139	0x3d97d6c6	0.07414012
140	0x3d983dac	0.07433638
141	0x3dbf797d	0.09349344
142	0x3d8d68e5	0.06904773
143	0x3dcf356e	0.10117613
144	0x3da387e4	0.079849035
145	0x3df41afc	0.11919209
146	0x3d971227	0.07376509
147	0x3dbace8d	0.09121428
148	0x3dcf12f3	0.10111036
149	0x3dab0050	0.08349669
150	0x3da53496	0.080666706
151	0x3ddd69f7	0.10811227
152	0x3ddd1059	0.10794134
153	0x3d5a79c3	0.053338777
154	0x3d5d9e49	0.05410603
155	0x3d4f9c7b	0.05068634
156	0x3d8138cd	0.06309662
157	0x3da27712	0.07932867
158	0x3d9ef59f	0.07761692
159	0x3deb0070	0.11474693
160	0x3ddc3068	0.1075142
161	0x3d9577a7	0.072982125
162	0x3debee40	0.11520052
163	0x3e0940ca	0.13403621
164	0x3d7658d8	0.06014332
165	0x3d9ae315	0.07562844
166	0x3dc1893e	0.09450005
167	0x3df1f071	0.11813439
168	0x3e1771a7	0.14789449
169	0x3da4caeb	0.08046516
170	0x3d549418	0.051899046
171	0x3da586b1	0.08082331
172	0x3d9a8f97	0.07546919
173	0x3dbc3637	0.09190028
174	0x3db851e8	0.089999974
175	0x3daa46c9	0.083142824
176	0x3dff59df	0.124683134
177	0x3dffcc14	0.12490097
178	0x3dae94b5	0.08524457
179	0x3dba71e9	0.09103758
180	0x3dd1bcc0	0.10241079
181	0x3d991569	0.07474787
182	0x3dc7487c	0.09730622
183	0x3e06e5e5	0.13173635
184	0x3dabdc0a	0.083915785
185	0x3dc7add5	0.09749953
186	0x3d5f2887	0.05448201
187	0x3e161953	0.14658098
188	0x3dfb195b	0.122606955
189	0x3de58c0f	0.11208355
190	0x3db116fe	0.086469635
191	0x3d93cc02	0.07216646
192	0x3d27f44d	0.041004468
193	0x3dce2b88	0.10066897
194	0x3dbc3379	0.09189505
195	0x3ddf015d	0.10888932
196	0x3e1b33dc	0.15156502
197	0x3d60d376	0.054889165
198	0x3e2332f2	0.15937403
199	0x3ddaec00	0.10689545

bn1.running_var f4 [200]
0	0x3f346e1e	0.70480525
1	0x3f397aac	0.7245281
2	0x3f346898	0.704721
3	0x3f2af20f	0.667756
4	0x3f30d255	0.6907094
5	0x3f41f2ab	0.75760907
6	0x3f3bdd92	0.73384964
7	0x3f3250bf	0.6965446
8	0x3f55e14b	0.83546895
9	0x3f35987a	0.70935786
10	0x3f46dc97	0.77680343
11	0x3f42baaa	0.76066077
12	0x3f366601	0.71249396
13	0x3f368f4c	0.71312404
14	0x3f34401c	0.70410323
15	0x3f2e30be	0.68043125
16	0x3f348a0b	0.70523137
17	0x3f465fde	0.7749003
18	0x3f45da6a	0.772864
19	0x3f3b0acc	0.7306335
20	0x3f454bac	0.7706859
21	0x3f2bc8c0	0.67103195
22	0x3f2cc716	0.6749128
23	0x3f422f86	0.75853765
24	0x3f2ca8a4	0.67444825
25	0x3f40ffeb	0.753905
26	0x3f450d81	0.7697373
27	0x3f2e2ec9	0.6804014
28	0x3f2f22cd	0.68412477
29	0x3f318df3	0.6935722
30	0x3f43348d	0.7625206
31	0x3f2dd950	0.6790972
32	0x3f3c3eae	0.7353314
33	0x3f3a9278	0.72879744
34	0x3f3a6861	0.7281552
35	0x3f326f3c	0.6970098
36	0x3f31d03f	0.69458383
37	0x3f322318	0.695848
38	0x3f3eed7a	0.7458111
39	0x3f2f0a76	0.6837534
40	0x3f355354	0.70830274
41	0x3f3348bd	0.70032865
42	0x3f2cd19d	0.67507344
43	0x3f2de53e	0.6792792
44	0x3f33ece3	0.70283335
45	0x3f395e35	0.72409374
46	0x3f5b8634	0.8575165
47	0x3f30e520	0.69099617
48	0x3f30062b	0.6875941
49	0x3f3c313c	0.73512626
50	0x3f45e96f	0.77309316
51	0x3f33edf2	0.7028495
52	0x3f34ab3b	0.70573777
53	0x3f44010c	0.765641
54	0x3f37e403	0.71832293
55	0x3f43508b	0.76294774
56	0x3f346e8f	0.704812
57	0x3f45dba3	0.77288264
58	0x3f3b4244	0.7314799
59	0x3f4864fd	0.78279096
60	0x3f388b8e	0.72087944
61	0x3f30f4b2	0.69123375
62	0x3f326b0b	0.69694585
63	0x3f415488	0.7551961
64	0x3f2c64ef	0.6734151
65	0x3f2f6371	0.6851111
66	0x3f2fa479	0.6861034
67	0x3f421737	0.75816673
68	0x3f435468	0.7630067
69	0x3f5d6abf	0.86491007
70	0x3f2eee3f	0.68332285
71	0x3f306cc4	0.68915963
72	0x3f33fe41	0.70309836
73	0x3f44d8a1	0.7689305
74	0x3f4edea1	0.80808455
75	0x3f2ad89c	0.6673677
76	0x3f5638b5	0.8368028
77	0x3f335756	0.7005514
78	0x3f3b74ea	0.7322527
79	0x3f33ff03	0.7031099
80	0x3f39f144	0.7263377
81	0x3f349bbd	0.7055014
82	0x3f2ffa88	0.68741655
83	0x3f3bd770	0.73375607
84	0x3f4dbd20	0.80366707
85	0x3f456629	0.7710901
86	0x3f2ae803	0.6676027
87	0x3f3ea1f4	0.7446587
88	0x3f3148a5	0.6925147
89	0x3f383131	0.7195006
90	0x3f42e7be	0.7613486
91	0x3f35e735	0.7105592
92	0x3f571dd8	0.8402991
93	0x3f328891	0.69739634
94	0x3f3551bf	0.7082786
95	0x3f2f5404	0.6848757
96	0x3f53ccf4	0.8273461
97	0x3f2fa842	0.68616116
98	0x3f2f7612	0.68539536
99	0x3f30c869	0.690558
100	0x3f306ead	0.6891888
101	0x3f303bd4	0.6884129
102	0x3f33722b	0.7009608
103	0x3f6e1064	0.9299376
104	0x3f3086b0	0.68955517
105	0x3f43bfe8	0.764647
106	0x3f310023	0.69140834
107	0x3f39fab2	0.72648156
108	0x3f40bd71	0.75289065
109	0x3f328235	0.6972993
110	0x3f3026a0	0.6880894
111	0x3f344500	0.70417786
112	0x3f322076	0.6958078
113	0x3f341539	0.70344883
114	0x3f2d5405	0.6770633
115	0x3f464b6e	0.77458847
116	0x3f3dc0a5	0.7412208
117	0x3f33ab87	0.70183605
118	0x3f3018da	0.6878792
119	0x3f46b33d	0.77617246
120	0x3f2b5c95	0.66938144
121	0x3f2c22f1	0.67240816
122	0x3f385467	0.7200379
123	0x3f2d8d71	0.6779395
124	0x3f3ae38e	0.7300347
125	0x3f37c422	0.7178365
126	0x3f3f5cf7	0.7475123
127	0x3f3b7531	0.73225695
128	0x3f2e6704	0.6812594
129	0x3f332a8c	0.69986796
130	0x3f333916	0.7000898
131	0x3f2f49a7	0.6847176
132	0x3f33dc59	0.702581
133	0x3f395257	0.72391266
134	0x3f37eed6	0.7184881
135	0x3f33f275	0.70291835
136	0x3f3ce841	0.7379189
137	0x3f3164ed	0.69294626
138	0x3f303a42	0.68838894
139	0x3f378939	0.7169376
140	0x3f39135b	0.7229516
141	0x3f2df553	0.6795246
142	0x3f35eee7	0.7106766
143	0x3f3cf274	0.73807454
144	0x3f3853b6	0.7200273
145	0x3f51db6a	0.81975424
146	0x3f344b2d	0.7042721
147	0x3f2fe9f0	0.68716335
148	0x3f54feba	0.8320118
149	0x3f380bb0	0.71892834
150	0x3f2f6d60	0.6852627
151	0x3f414340	0.7549324
152	0x3f4a7a07	0.7909245
153	0x3f325c7b	0.69672364
154	0x3f2e2f42	0.6804086
155	0x3f3201e9	0.69534165
156	0x3f31e770	0.6949377
157	0x3f3cc3a2	0.7373601
158	0x3f2ec271	0.68265444
159	0x3f319823	0.6937277
160	0x3f4e9102	0.80690014
161	0x3f39ee3c	0.7262914
162	0x3f3168a6	0.69300306
163	0x3f32b96d	0.6981419
164	0x3f33e58e	0.7027215
165	0x3f37dd55	0.718221
166	0x3f3c1a50	0.7347765
167	0x3f4eb84f	0.8074998
168	0x3f3a6aee	0.7281941
169	0x3f394a04	0.72378564
170	0x3f329a82	0.6976701
171	0x3f3123d1	0.69195276
172	0x3f3698c5	0.7132686
173	0x3f4058a8	0.7513528
174	0x3f33ddd2	0.70260346
175	0x3f3ea85e	0.7447566
176	0x3f563438	0.8367343
177	0x3f324b33	0.69645995
178	0x3f4634c8	0.7742429
179	0x3f2eb3bc	0.68243
180	0x3f2e4a2a	0.68081915
181	0x3f2f4cf4	0.68476796
182	0x3f439946	0.7640575
183	0x3f6529e1	0.8951703
184	0x3f3600df	0.7109508
185	0x3f40261c	0.7505815
186	0x3f3a165b	0.7269036
187	0x3f351233	0.70730895
188	0x3f510ac5	0.8165706
189	0x3f43b948	0.7645459
190	0x3f34e140	0.70656204
191	0x3f374451	0.7158862
192	0x3f2c31d8	0.67263556
193	0x3f485147	0.7824902
194	0x3f3d742e	0.740054
195	0x3f40eca5	0.7536109
196	0x3f36ded1	0.7143374
197	0x3f33f3ed	0.70294076
198	0x3f3575d7	0.70882934
199	0x3f3688bd	0.71302396

bn2.weight f4 [20]
0	0x4083c86b	4.118215
1	0x40960d91	4.689156
2	0x4097ab2e	4.739646
3	0x4093dfcc	4.621069
4	0x408393cc	4.1117916
5	0x40aff5fa	5.4987764
6	0x40971d17	4.722301
7	0x40951cbf	4.659759
8	0x40abaee5	5.3650994
9	0x40838af9	4.1107144
10	0x408c531a	4.385144
11	0x4092fd8c	4.5934505
12	0x408b8fc5	4.3613
13	0x40a5f8fc	5.1866436
14	0x40897601	4.295655
15	0x40aba34b	5.363683
16	0x4063106d	3.5478776
17	0x408a7514	4.326792
18	0x40a2733d	5.076567
19	0x409437bb	4.631803

bn2.bias f4 [20]
0	0x4066e4be	3.6077113
1	0xc079a91c	-3.9009466
2	0xc0718275	-3.7735875
3	0xc06b2e13	-3.6746871
4	0x4066d161	3.6065295
5	0xc07da61b	-3.9632633
6	0xc0711dd1	-3.7674448
7	0xc06db95d	-3.7144387
8	0xc0794b21	-3.8952105
9	0x406ad936	3.6695075
10	0x406d1b3c	3.7047873
11	0xc068ecb9	-3.6394484
12	0x40733406	3.8000503
13	0xc07a56dd	-3.9115517
14	0x406745a5	3.6136258
15	0xc0778d36	-3.8679938
16	0xc07076e8	-3.7572575
17	0x4070c84a	3.7622247
18	0xc0751655	-3.829488
19	0xc06e4e10	-3.7235146

bn2.running_mean f4 [20]
0	0x3e5e9a93	0.21738653
1	0x3e2307f8	0.15921009
2	0x3e774f7f	0.24151419
3	0x3e6a9503	0.22908406
4	0x3e9394fb	0.288246
5	0x3e71cb46	0.23612699
6	0x3e419cf2	0.18907526
7	0x3e5d4121	0.21606876
8	0x3e580e4e	0.21099207
9	0x3e8701de	0.26368612
10	0x3e6c7741	0.23092367
11	0x3ea45751	0.32097867
12	0x3e5fa9c8	0.2184211
13	0x3e6832fa	0.22675696
14	0x3ea80910	0.32819414
15	0x3e4c375a	0.1994299
16	0x3e1e67c4	0.15469271
17	0x3e5cdff3	0.21569805
18	0x3e58a51f	0.21156739
19	0x3e1face0	0.1559329

bn2.running_var f4 [20]
0	0x3f4e3f24	0.80565095
1	0x3f6f246c	0.9341495
2	0x3f967669	1.1754886
3	0x3f955b54	1.1668496
4	0x3f6cdbe2	0.92523015
5	0x3f9bdade	1.2176168
6	0x3f880235	1.0625674
7	0x3f895e9f	1.0732001
8	0x3f8669cc	1.0501037
9	0x3f64e6a9	0.8941446
10	0x3f4db7ac	0.80358386
11	0x3fda4e96	1.7055233
12	0x3f4f6902	0.81019604
13	0x3f964de6	1.1742523
14	0x3f7bf568	0.98421335
15	0x3f733415	0.95001346
16	0x3f5a2704	0.85215783
17	0x3f4abc7c	0.79193854
18	0x3f7cdd66	0.9877533
19	0x3f58ecc0	0.8473625
