Results/NN_MLP_MLs/MLP_Ensemble/Model_Results/MGT/test10/best_model_1.pt (torch, 83357 bytes, 20 tensors)

country_embedding.weight f4 [8, 2]
0	0xc1834bb6	-16.411968
1	0xc15d9cd6	-13.85079
2	0xc1e5b614	-28.713905
3	0xc1c05f24	-24.046455
4	0xbee50bed	-0.4473566
5	0xbf1474d6	-0.5799078
6	0xc0a713f3	-5.221185
7	0xc12697e7	-10.412086
8	0xc08a3137	-4.3185077
9	0xc118e81e	-9.556669
10	0x4136e4fd	11.430905
11	0xc160d48e	-14.051893
12	0xc0c3eb08	-6.1224403
13	0xc0fa3c66	-7.819873
14	0x4096b8d4	4.710062
15	0x4104ac17	8.292014

fc1.weight f4 [200, 68]
0	0xacb0c0f6	-5.023644e-12
1	0xacb2e19e	-5.084113e-12
2	0xad5538b4	-1.2120239e-11
3	0xadaa7ace	-1.9381299e-11
4	0xad955c42	-1.698031e-11
5	0xaddc51a1	-2.5047355e-11
6	0xadfd0d6f	-2.8768736e-11
7	0xad84b179	-1.5085476e-11
8	0xadc09031	-2.1891907e-11
9	0xadbf62cc	-2.175806e-11
10	0xadc93538	-2.2874688e-11
11	0xadd629a8	-2.4347482e-11
12	0xadde939f	-2.5304035e-11
13	0xadc50dd3	-2.2402446e-11
14	0xadc530fd	-2.2418062e-11
15	0xad942fdf	-1.6846911e-11
16	0xad8ceafa	-1.6020508e-11
17	0xadc9d8bc	-2.2947304e-11
18	0xad9dfa4a	-1.7959984e-11
19	0xadb786ba	-2.0864522e-11
20	0xad852437	-1.5136432e-11
21	0xadd8f0a9	-2.4663232e-11
22	0xadf2aa29	-2.7587781e-11
23	0xadbb19c6	-2.1270884e-11
24	0xad9ee52d	-1.8064295e-11
25	0xadcd46f8	-2.3337318e-11
26	0xadbfda18	-2.1811039e-11
27	0xaddef21d	-2.5345998e-11
28	0xadcd492d	-2.3338298e-11
29	0xadc0cff0	-2.1920216e-11
30	0xadd37083	-2.4037888e-11
31	0xada072b6	-1.8240836e-11
32	0xad9e6ca2	-1.8010763e-11
33	0xadb6f50c	-2.0799827e-11
34	0xad9ef156	-1.8069695e-11
35	0xadb8c7bb	-2.1007076e-11
36	0xad8cc816	-1.6005013e-11
37	0xaddaef9a	-2.4890135e-11
38	0xade5f897	-2.6144682e-11
39	0xad9eb209	-1.8041584e-11
40	0xadb744d0	-2.083525e-11
41	0xadd326d5	-2.4005168e-11
42	0xadc3aa87	-2.2244663e-11
43	0xadd7f5fb	-2.4551907e-11
44	0xadcfc93c	-2.3622541e-11
45	0xadbb5da8	-2.130103e-11
46	0xadba6830	-2.119202e-11
47	0xad944deb	-1.6860255e-11
48	0xada2b6be	-1.8498422e-11
49	0xadb7d59f	-2.0899558e-11
50	0xad8d4921	-1.606232e-11
51	0xadad3d44	-1.969503e-11
52	0xada7cc1e	-1.9076348e-11
53	0xade5481d	-2.606631e-11
54	0xadf00a2e	-2.7289362e-11
55	0xadb68989	-2.0752082e-11
56	0xadaa1269	-1.9334938e-11
57	0xadc2ce26	-2.2146795e-11
58	0xadca07ec	-2.296826e-11
59	0xaddb8b0c	-2.4959167e-11
60	0xadb9e057	-2.1131692e-11
61	0xadbf63e4	-2.1758546e-11
62	0xaddd0333	-2.5126212e-11
63	0xad9c8125	-1.7792498e-11
64	0xada61a2a	-1.8883634e-11
65	0xadc3d8d8	-2.2265231e-11
66	0x2d286821	9.572816e-12
67	0xad303cbe	-1.0017929e-11
68	0xbbb9f12a	-0.005674501
69	0xbd5345b5	-0.05158015
70	0xbdc28e9a	-0.09499855
71	0xbda0d9ad	-0.07854018
72	0xbd054d98	-0.032544702
73	0xbb8f5d1a	-0.0043751122
74	0xbce02b09	-0.02736427
75	0xbcff09d3	-0.031132614
76	0xbd8dac7b	-0.06917664
77	0xbd5a68c4	-0.05332257
78	0xbd20cca6	-0.039257668
79	0xbce1ba96	-0.027554791
80	0xbcdf0bd2	-0.027227316
81	0xbdca501c	-0.09878561
82	0xbc943585	-0.018091926
83	0xbc29b632	-0.01035838
84	0x3cab2243	0.02089036
85	0xbd11606b	-0.035492342
86	0xbde82f0c	-0.113370985
87	0xbd5eb7fb	-0.054374676
88	0xbd2fe1e1	-0.042940024
89	0xbc748670	-0.0149246305
90	0xbd02b8b3	-0.031914424
91	0xbaac5b1b	-0.001314971
92	0xbd3b5c28	-0.045742184
93	0xbcde1c3f	-0.027113078
94	0xbd1e4338	-0.038638324
95	0x3caad013	0.02085117
96	0xbc52495c	-0.012834873
97	0xbd9efa1a	-0.07762547
98	0xbc1766f7	-0.009240857
99	0x3c43f5a3	0.01196042
100	0x3d77206a	0.060333647
101	0xbd0b3f34	-0.033995822
102	0xbdb130d6	-0.08651893
103	0xbd70391c	-0.058648214
104	0xbd26bb81	-0.04070616
105	0xbc8c8c57	-0.017156763
106	0xbcdfd1b1	-0.027321668
107	0xb8c6698a	-9.461034e-05
108	0xbd0b122e	-0.033952884
109	0xbc99043d	-0.018678779
110	0xbd1e0cba	-0.038586356
111	0x3ba27be0	0.0049586147
112	0xbb1c06bd	-0.0023807727
113	0xbd1d53a3	-0.03840984
114	0xbc2539ea	-0.010084609
115	0x3c1afb6b	0.009459357
116	0x3d2ef65e	0.042715423
117	0xbc7290ab	-0.014804999
118	0xbda7390a	-0.08165176
119	0xbd372b87	-0.044719245
120	0xbd283277	-0.041063752
121	0xbc7d926f	-0.015476807
122	0xbca60b92	-0.020269189
123	0x3c2d8a21	0.0105920145
124	0xbd0053fe	-0.0313301
125	0xbcce52ee	-0.025186028
126	0xbd0a5f96	-0.033782564
127	0x3c3e6c45	0.011622493
128	0x3baa66ab	0.0052002273
129	0xbd16c7c0	-0.03681159
130	0xbb944832	-0.004525208
131	0x3c87f99f	0.01659852
132	0x3d3e71eb	0.04649536
133	0xbc6b1a2a	-0.0143495
134	0xbd7de7c3	-0.061988603
135	0xbdb8460c	-0.089977354
136	0xaaa4d504	-2.9280061e-13
137	0xa9c3ef96	-8.701301e-14
138	0xac283876	-2.3905578e-12
139	0xabe569d2	-1.63008e-12
140	0xabd03c56	-1.4796035e-12
141	0xab9875ac	-1.083291e-12
142	0x2bfd6bc7	1.8006645e-12
143	0xab68f5a4	-8.276385e-13
144	0xac052ec9	-1.8926408e-12
145	0x2b892486	9.744573e-13
146	0x2b643ef8	8.108926e-13
147	0x2be6de02	1.6404102e-12
148	0xabb8733b	-1.3105969e-12
149	0x2b1a90ac	5.4912563e-13
150	0xab81c3b4	-9.22032e-13
151	0xab202b4f	-5.690352e-13
152	0xac0e0788	-2.0183594e-12
153	0xaba2744c	-1.1543071e-12
154	0xab5a5461	-7.756626e-13
155	0x2b986de3	1.0830749e-12
156	0x2b023ce9	4.626981e-13
157	0x2b301847	6.256145e-13
158	0x2c31e2cb	2.5279108e-12
159	0x2c2db38c	2.4684447e-12
160	0x2bf31ce5	1.7274208e-12
161	0x29b59b5c	8.064965e-14
162	0xabf695c9	-1.7520925e-12
163	0x2c0b4853	1.9793236e-12
164	0xab3244c8	-6.3333757e-13
165	0xaa668947	-2.0475731e-13
166	0xac1989c4	-2.1819083e-12
167	0xab0cd10e	-5.0028113e-13
168	0xabe5e757	-1.6335638e-12
169	0x2c23c4d0	2.3272946e-12
170	0xac1a13e7	-2.1895764e-12
171	0xac0aebc1	-1.974185e-12
172	0xa9c1a873	-8.600143e-14
173	0xabc0bc95	-1.3694763e-12
174	0x2b7f147a	9.0622616e-13
175	0xab89344b	-9.74895e-13
176	0xaba76b2d	-1.1895811e-12
177	0x2a218198	1.4344634e-13
178	0x2c0103e9	1.8334173e-12
179	0xabfabb0a	-1.7815482e-12
180	0x2ba763b8	1.1893741e-12
181	0x2be4fefb	1.6271146e-12
182	0x2c2e5668	2.4774852e-12
183	0xabf97cbd	-1.7727136e-12
184	0x2b2ca778	6.1339085e-13
185	0xac03c877	-1.87275e-12
186	0x2c182879	2.1622966e-12
187	0xab8a4437	-9.824423e-13
188	0x2bd6b4e0	1.5255817e-12
189	0x29a9ca7f	7.540235e-14
190	0xaa5e16b7	-1.9725442e-13
191	0xa9b5f981	-8.081297e-14
192	0x2af26038	4.30546e-13
193	0x2ba80734	1.1939117e-12
194	0x2ae4aae4	4.0619515e-13
195	0x2b5978cc	7.7261526e-13
196	0xac2050c8	-2.278221e-12
197	0x2c01d7b1	1.8451735e-12
198	0x2c1b62b3	2.2081614e-12
199	0x2c1351b1	2.0935304e-12
200	0x2c03beea	1.8722198e-12
201	0xac009c9c	-1.827683e-12
202	0xab84228d	-9.388754e-13
203	0x2c1d2473	2.2331275e-12
204	0xac07bebd	-1.9290535e-12
205	0x2c21b028	2.2977262e-12
206	0xac0c2baa	-1.9919435e-12
207	0xabfb1567	-1.7840563e-12
208	0x2bae4215	1.2381785e-12
209	0xac000d18	-1.8197163e-12
210	0xab235319	-5.8024554e-13
211	0x2c01a7d9	1.8425177e-12
212	0x2c0d2b1a	2.0061231e-12
213	0x2c288e39	2.3953185e-12
214	0xab10a89f	-5.1393086e-13
215	0xac0a86a7	-1.9685727e-12
216	0x2c2f7b09	2.4937294e-12
217	0xab17dd54	-5.395313e-13
218	0xab92a752	-1.0420365e-12
219	0x2b2dc8d9	6.174068e-13
220	0xabf9459a	-1.7711832e-12
221	0x2bea48be	1.664689e-12
222	0x2bdf651f	1.587317e-12
223	0xac0d6abd	-2.0096557e-12
224	0xac126342	-2.0802947e-12
225	0xaa79c9ae	-2.2185614e-13
226	0x2b95b771	1.0638002e-12
227	0xa9a52cd8	-7.335251e-14
228	0xabb4bf16	-1.2842806e-12
229	0x2982634c	5.790385e-14
230	0xac278452	-2.380558e-12
231	0xabfbec2b	-1.7900172e-12
232	0xabed483e	-1.6859914e-12
233	0x2c12c590	2.0857517e-12
234	0x2c1d1ac4	2.23259e-12
235	0xab72251a	-8.602716e-13
236	0x29ffc96a	1.13592146e-13
237	0x2b9ef78d	1.1295284e-12
238	0x2aaad599	3.034628e-13
239	0xabb27dd3	-1.2682584e-12
240	0x2bcd9332	1.4606981e-12
241	0x2bdb1e8b	1.5569363e-12
242	0xaa2543ac	-1.4678422e-13
243	0xaaaf8445	-3.1178025e-13
244	0x2c21f58f	2.3015788e-12
245	0x2c1bca54	2.213914e-12
246	0xabca18c5	-1.4359838e-12
247	0x2c2e5ef5	2.47796e-12
248	0x2b306bad	6.267719e-13
249	0xabecc619	-1.6823792e-12
250	0x2bc31f9d	1.3864358e-12
251	0xac050e84	-1.8908495e-12
252	0x2c24aa6f	2.3400411e-12
253	0xabe5269b	-1.6282144e-12
254	0x2b49a049	7.1631985e-13
255	0x2b591356	7.712072e-13

fc1.bias f4 [200]
0	0xad7927a4	-1.4162813e-11
1	0xbbcd917d	-0.006273447
2	0x2b068488	4.779029e-13
3	0xac29a72c	-2.4109144e-12
4	0xac13ed50	-2.1021691e-12
5	0xad8239aa	-1.4804897e-11
6	0x2d42af1b	1.10665045e-11
7	0xad822e2c	-1.4799793e-11
8	0x2bc69f70	1.4112999e-12
9	0xaadb157b	-3.891712e-13
10	0xbc5beab9	-0.013422661
11	0xabd4ebe3	-1.5128978e-12
12	0xad84243c	-1.5022754e-11
13	0x2b992297	1.0880904e-12
14	0xaea581cf	-7.52639e-11
15	0x2bf8faa5	1.7691028e-12
16	0x2b8046f2	9.114638e-13
17	0xb524a084	-6.132834e-07
18	0x2d6c9828	1.3448832e-11
19	0xac0f86b5	-2.03963e-12
20	0xb186ffa6	-3.928977e-09
21	0xaba9f9f5	-1.2077549e-12
22	0xac092325	-1.948838e-12
23	0xad558379	-1.2136841e-11
24	0x3e044cd4	0.12919933
25	0xad77196b	-1.4045968e-11
26	0x3daaa35b	0.08331939
27	0xad669563	-1.3107157e-11
28	0x29ff839f	1.13471075e-13
29	0xad70f5b4	-1.3696978e-11
30	0xad3a6447	-1.0595142e-11
31	0xab63f5ef	-8.09879e-13
32	0xab333c24	-6.3677037e-13
33	0xaac813a8	-3.5540776e-13
34	0xad7c6748	-1.4347475e-11
35	0xad4226ac	-1.103621e-11
36	0xad06b5a1	-7.657348e-12
37	0x2ab6a17d	3.244175e-13
38	0xad781d61	-1.4103691e-11
39	0xb19f11f4	-4.62955e-09
40	0x2bf6fbed	1.7549275e-12
41	0xb58bd0f6	-1.0417123e-06
42	0x3e994137	0.29932567
43	0xac013300	-1.8360313e-12
44	0xaaaf0a6d	-3.109348e-13
45	0xad7b9d22	-1.4302589e-11
46	0xb17ba6f3	-3.6620207e-09
47	0xabfd2dfd	-1.7989496e-12
48	0xad6ea818	-1.3566058e-11
49	0xad4ca05f	-1.1631667e-11
50	0x2b4d2c35	7.289198e-13
51	0xabf7ae09	-1.759871e-12
52	0xad4034b1	-1.0925636e-11
53	0xad242c61	-9.332175e-12
54	0xb5c3ca99	-1.4587596e-06
55	0xb5083742	-5.074436e-07
56	0x2adf635f	3.968171e-13
57	0xab30bd87	-6.2790783e-13
58	0xb50c4bd6	-5.226442e-07
59	0x2bd32c4b	1.5004745e-12
60	0xb530490f	-6.5671423e-07
61	0xad6e034c	-1.3529466e-11
62	0xb6c8d249	-5.984945e-06
63	0x2be7caf9	1.6469873e-12
64	0x3e281d3e	0.16417405
65	0x2c3199fb	2.523869e-12
66	0xac1fd935	-2.2715833e-12
67	0xb5360807	-6.7811965e-07
68	0x2d40a342	1.0950187e-11
69	0xb11605fd	-2.1831277e-09
70	0x2b39243c	6.577549e-13
71	0xb2265904	-9.6827115e-09
72	0xad4ba8f4	-1.1576729e-11
73	0x2d7cac2c	1.4362771e-11
74	0xac2ad192	-2.4274788e-12
75	0xab9cc03e	-1.1137825e-12
76	0xaabd9d55	-3.3682315e-13
77	0x3e520846	0.20510969
78	0xb107762b	-1.9712256e-09
79	0xb1f5c465	-7.152766e-09
80	0xad0f19de	-8.134353e-12
81	0x2b5e58f2	7.899368e-13
82	0xad62eb58	-1.28988695e-11
83	0x3e8d8674	0.27641642
84	0xb51f8ae4	-5.943423e-07
85	0xab3a1dc2	-6.612177e-13
86	0xb17648dd	-3.583913e-09
87	0x2b2c4658	6.1204297e-13
88	0xabcf43e8	-1.4727082e-12
89	0x2c24ccb3	2.3419433e-12
90	0xad82b7ac	-1.4860856e-11
91	0xadba1930	-2.1156937e-11
92	0xad8485f0	-1.5066143e-11
93	0xad624306	-1.2861495e-11
94	0xad6aa62b	-1.3338257e-11
95	0x2d6ca38e	1.3451363e-11
96	0xb207d437	-7.906286e-09
97	0xb51068db	-5.3796765e-07
98	0xaa9a8c37	-2.745319e-13
99	0x2d6f0171	1.3585897e-11
100	0xbd5eb231	-0.054369155
101	0xab520c5f	-7.4624156e-13
102	0xad62ffcc	-1.2903411e-11
103	0x29b9c710	8.250182e-14
104	0xad696a52	-1.32681244e-11
105	0xbd3015f4	-0.042989686
106	0x2d57e643	1.2272463e-11
107	0x2b3a7688	6.624497e-13
108	0x2d46f6bd	1.1309784e-11
109	0xb4e7cef2	-4.3177675e-07
110	0xaae86979	-4.1284665e-13
111	0x2b46fd84	7.0695554e-13
112	0xad5cdf7a	-1.2555174e-11
113	0xac289d23	-2.3961464e-12
114	0xad296b71	-9.630395e-12
115	0xb8187c84	-3.635559e-05
116	0xad72e93e	-1.38078975e-11
117	0xad97bf70	-1.7251728e-11
118	0xaa63a623	-2.021929e-13
119	0x2be346a3	1.6148926e-12
120	0x2ac42442	3.4841753e-13
121	0xae96a5ed	-6.8506846e-11
122	0xb2029ec2	-7.603093e-09
123	0xad341286	-1.0235928e-11
124	0xabb1b39d	-1.2626459e-12
125	0xb63b533d	-2.7913622e-06
126	0xab99d7db	-1.0931216e-12
127	0x3cb2f790	0.021846563
128	0x2d65d157	1.3063626e-11
129	0xad5b661e	-1.2471383e-11
130	0xad7ab6f6	-1.425148e-11
131	0x2a0faee7	1.2761633e-13
132	0x2aac2469	3.0578602e-13
133	0xab5fb995	-7.948306e-13
134	0xab80ea04	-9.159899e-13
135	0x3e9d6fcc	0.30749357
136	0xac2e0a42	-2.4732581e-12
137	0xb9fd40e8	-0.0004830428
138	0x3d067754	0.032828644
139	0xb56a5b5b	-8.730473e-07
140	0xbb48b3c8	-0.0030624736
141	0xaa9789f0	-2.6918702e-13
142	0x3cf84f3d	0.030311221
143	0x2c1d45b3	2.2349733e-12
144	0x2c062e96	1.9068406e-12
145	0xad5759a8	-1.2241243e-11
146	0x2b44f1ee	6.9968933e-13
147	0x2ba0d86d	1.1428754e-12
148	0xb10a5fe2	-2.0136146e-09
149	0x2bf6d2b1	1.753783e-12
150	0xb50249a4	-4.8535935e-07
151	0x2d82e568	1.4881166e-11
152	0xb160a8b7	-3.2692193e-09
153	0x2a9648a9	2.669577e-13
154	0xad568323	-1.219361e-11
155	0x2a2dc0d3	1.5432386e-13
156	0xac311073	-2.5162344e-12
157	0xb506e3ad	-5.02502e-07
158	0xaaf04b76	-4.2684926e-13
159	0xabb4c882	-1.2845421e-12
160	0xaac77012	-3.5427266e-13
161	0x2b3b9ee1	6.6656235e-13
162	0x29ced1bb	9.18462e-14
163	0xab3a0490	-6.6086806e-13
164	0x2d40b175	1.095334e-11
165	0x2a8514f1	2.3640077e-13
166	0xb51c8480	-5.830734e-07
167	0x2b897bef	9.768834e-13
168	0xb527dbdc	-6.2532285e-07
169	0xad5a2cff	-1.24018565e-11
170	0xb51bdcc2	-5.8063245e-07
171	0x2b06bd6b	4.7869234e-13
172	0xb41cd00a	-1.4604316e-07
173	0xaaaa8f67	-3.0297572e-13
174	0xad4f8545	-1.17961795e-11
175	0x2be32c49	1.6141612e-12
176	0x2c27b9a2	2.3835174e-12
177	0xaba9041a	-1.2009311e-12
178	0x2d355d95	1.0309438e-11
179	0xac19cbfa	-2.1855837e-12
180	0xad44b292	-1.1180961e-11
181	0xb6ef5075	-7.1321215e-06
182	0x2d3f8124	1.0885768e-11
183	0xb09bacbe	-1.1326831e-09
184	0xad96f036	-1.71597e-11
185	0x2bdf32ef	1.585924e-12
186	0x3e95629a	0.2917679
187	0xad9745cf	-1.7197714e-11
188	0x2b9a263f	1.0952974e-12
189	0x2b539754	7.517227e-13
190	0xad01e7aa	-7.384241e-12
191	0x2b67914b	8.226932e-13
192	0xabead22a	-1.6685032e-12
193	0xad97d81a	-1.7262681e-11
194	0x2be62584	1.6352896e-12
195	0xadae7e37	-1.983756e-11
196	0xb4c983cc	-3.7535062e-07
197	0xb5252739	-6.1524366e-07
198	0x2b97c8d9	1.0784942e-12
199	0xad88cac7	-1.5551461e-11

fc2.weight f4 [20, 200]
0	0xbf99750e	-1.1988847
1	0x3cc39fa4	0.023879834
2	0x3cad34c1	0.02114332
3	0xbe773445	-0.24141033
4	0x3f9992fc	1.1997981
5	0x3a30eb4e	0.00067489303
6	0xbd9163e0	-0.07099128
7	0xbf99ea2d	-1.202459
8	0xbf9944e6	-1.1974151
9	0x3f9b5d36	1.2137821
10	0x3c7a49ee	0.015276415
11	0xbf99871c	-1.1994357
12	0xbf99e8f4	-1.2024217
13	0x3e4710e3	0.19440036
14	0x3f99901b	1.1997102
15	0xbf99971f	-1.1999243
16	0x3f9989c0	1.1995163
17	0x3cb90ed2	0.022590075
18	0x39efebfa	0.0004576145
19	0xbbc716ca	-0.0060757147
20	0x3c6dd440	0.014515936
21	0xbf993539	-1.1969367
22	0x3ddde6fe	0.10835074
23	0x3d7eba3a	0.06218932
24	0x3efd5ffb	0.4948729
25	0xbde6a8a1	-0.11262632
26	0x3f62a25e	0.88529
27	0xbf99e8c1	-1.2024156
28	0x3f9953fd	1.1978756
29	0xbf99ef75	-1.2026201
30	0xbbb9a6fa	-0.005665657
31	0x3f99a798	1.200427
32	0x3f996813	1.1984886
33	0xbd88d1d5	-0.06680647
34	0xbf99e9bd	-1.2024456
35	0xbf99e8b6	-1.2024143
36	0xbf99e8b4	-1.202414
37	0xbf9945d7	-1.1974438
38	0xbf9956e0	-1.1979637
39	0xbe4b66d0	-0.19863439
40	0x3f993134	1.1968141
41	0xbf9a56ff	-1.2057799
42	0x3f0b912c	0.5451839
43	0x3f9999ba	1.2000039
44	0x3f99e163	1.2021908
45	0x3e1d0ebd	0.15337653
46	0xbd151112	-0.036393233
47	0xbf99405f	-1.197277
48	0xbf9944e4	-1.1974149
49	0x3d3f6d1c	0.046734914
50	0xbc382948	-0.011240311
51	0x3e1dbd5d	0.15404268
52	0xbf99e8ec	-1.2024207
53	0xbf99ed1b	-1.2025484
54	0x3f996caf	1.1986293
55	0x3e19d1a1	0.15021373
56	0xbddab003	-0.10678103
57	0xbe653ab1	-0.2238567
58	0xbc461532	-0.012090014
59	0xbd58d9ca	-0.052942075
60	0x3dd73451	0.105080254
61	0xbf998506	-1.199372
62	0xbe40d8f6	-0.18832764
63	0xbd4d2ff9	-0.05009458
64	0x4001e795	2.0297596
65	0xbbd85a0d	-0.0066025318
66	0x3e0a4414	0.13502532
67	0x3e216ec2	0.15764907
68	0xbf99e959	-1.2024337
69	0x3e81c7fe	0.25347894
70	0xbe0fd716	-0.14046893
71	0x3e612857	0.21988045
72	0x3f9984b8	1.1993628
73	0x3e1e5c04	0.15464789
74	0x3f991faf	1.1962794
75	0xbf99e8a2	-1.2024119
76	0x3c54ee62	0.012996288
77	0x3f1a77a0	0.60338783
78	0x3f9a2d88	1.2045145
79	0x3d539cd7	0.051663246
80	0x3c97d135	0.018532375
81	0xbe15492c	-0.14578694
82	0xbf99e8c3	-1.2024158
83	0x3f6308b7	0.8868517
84	0xbd5556d1	-0.052084748
85	0x3f999862	1.1999629
86	0x3e31bf83	0.17358212
87	0x3ae50194	0.0017471784
88	0xbdec5fec	-0.11541733
89	0xbe21c836	-0.1579903
90	0xbf99e8c8	-1.2024164
91	0xbf99e9d9	-1.202449
92	0x3f9956f7	1.1979665
93	0xbb469298	-0.003029978
94	0xbf99e8fb	-1.2024225
95	0xbf99e8da	-1.2024186
96	0xbc98979a	-0.018626977
97	0xbe087609	-0.13326277
98	0xbd7348b5	-0.05939551
99	0xbf99e9e0	-1.2024498
100	0xbfa6a38d	-1.3018662
101	0x3e4732cb	0.1945297
102	0xbe1c07a1	-0.15237285
103	0x3e61562b	0.22005527
104	0xbf99e8cd	-1.202417
105	0xbe80fe9c	-0.25194252
106	0x3f992888	1.1965494
107	0xbf9996bd	-1.1999127
108	0xbcc3f0bc	-0.023918502
109	0xbe202471	-0.15638901
110	0x3d62034c	0.055178925
111	0xbf994ea8	-1.1977129
112	0xbc379546	-0.011205023
113	0xbe549615	-0.20760377
114	0x3f993389	1.1968852
115	0x388c8415	6.7003224e-05
116	0xbf99337f	-1.196884
117	0x399693f1	0.00028720454
118	0x3dabff5e	0.08398317
119	0x3d3133f0	0.043262422
120	0xbf99995a	-1.1999924
121	0xbc82108f	-0.015877036
122	0x3f997f5e	1.1991994
123	0xbf991cb0	-1.196188
124	0x3f99614b	1.1982816
125	0x3f9a86a1	1.2072335
126	0xbf99f3e1	-1.2027551
127	0x3fc69ae6	1.5516021
128	0x3d97368e	0.07383452
129	0xbf99504e	-1.1977632
130	0xbf99e8cc	-1.2024169
131	0x3e622216	0.22083315
132	0x3f995436	1.1978824
133	0xbe3783c2	-0.17921355
134	0x3f998303	1.1993107
135	0x405b778b	3.4291713
136	0x3cbf7977	0.023373349
137	0xbe55274b	-0.2081577
138	0x3e00de79	0.12584867
139	0xbf9a3d56	-1.2049968
140	0xbcb44259	-0.022004293
141	0xbf99cd60	-1.20158
142	0x3dcc7b2d	0.099844314
143	0x3e8f8f9a	0.28039247
144	0xbd10fd1f	-0.035397645
145	0xbf999720	-1.1999245
146	0xbf999c7f	-1.2000884
147	0xbe314e94	-0.17315131
148	0x3e01c8a1	0.1267419
149	0xbf99507e	-1.1977689
150	0xbe943936	-0.28949898
151	0x3b67dc6c	0.0035379184
152	0x3e4f9597	0.20271908
153	0x3f99785a	1.1989853
154	0x3f998eb5	1.1996676
155	0x3e02bee8	0.12768137
156	0xbe4b9ec8	-0.19884789
157	0x3da2e0c5	0.07953028
158	0x3f998b53	1.1995643
159	0x3e25d4d6	0.16194472
160	0xbf993a6d	-1.1970955
161	0x3e0a8bf3	0.13529949
162	0xbf999f2b	-1.2001699
163	0x3f99e29a	1.2022278
164	0xbf99e8f3	-1.2024215
165	0x3dab3e14	0.0836145
166	0xbdbf66cc	-0.09345779
167	0xbe91e6d5	-0.28496423
168	0x3da932a4	0.08261612
169	0xbdb8ca2c	-0.09022936
170	0x3e698974	0.2280634
171	0xbe1efed4	-0.15526897
172	0xbe06c51e	-0.13161132
173	0xbc47d363	-0.012196395
174	0xbf99e8f5	-1.2024218
175	0xbc890e62	-0.016730491
176	0x3e31f314	0.17377883
177	0xbe1034fe	-0.14082715
178	0x3e7d6499	0.24745406
179	0x3e9a64c2	0.30154997
180	0x3e7e9b89	0.2486402
181	0x3b02f358	0.001998147
182	0x3e2acd3a	0.1667985
183	0xbf992a12	-1.1965964
184	0x3da6ddd2	0.081477776
185	0xbe4c136c	-0.19929284
186	0x3f88d86f	1.069105
187	0x3f99569b	1.1979555
188	0xbe5e1ff0	-0.2169187
189	0x3f99457e	1.1974332
190	0x3caa0892	0.02075604
191	0x3dc89d02	0.09795572
192	0x3f999e5a	1.200145
193	0xbf99ec31	-1.2025205
194	0x3d9ec684	0.077527076
195	0xbd94e135	-0.07269517
196	0x3c31bba7	0.010847962
197	0x3cabf660	0.020991504
198	0xbe8eca12	-0.27888542
199	0x3f9964f1	1.198393
200	0x36369669	2.7207664e-06
201	0xb64abf55	-3.0211716e-06
202	0x36043795	1.9701886e-06
203	0xb64643db	-2.9543796e-06
204	0xb635663e	-2.7030615e-06
205	0xb60b4033	-2.0749983e-06
206	0xb6544aad	-3.1633929e-06
207	0x36344903	2.6864589e-06
208	0x360a0bf0	2.057055e-06
209	0xb60442ff	-1.970853e-06
210	0xb659b19e	-3.2438907e-06
211	0x36358bbc	2.7052438e-06
212	0x363449b0	2.6864982e-06
213	0x352297b5	6.0570466e-07
214	0xb634fa2f	-2.6967716e-06
215	0x3634ee00	2.6960624e-06
216	0xb603fd8f	-1.9668112e-06
217	0xb61e07d8	-2.35484e-06
218	0x3604323f	1.969878e-06
219	0x36188709	2.2728366e-06
220	0xb633761e	-2.6741832e-06
221	0x3637c540	2.738394e-06
222	0x361bc47c	2.3211169e-06
223	0xb611cf4e	-2.172735e-06
224	0xb64d8a3e	-3.0627848e-06
225	0x360fcb87	2.142713e-06
226	0x3629e142	2.531408e-06
227	0x363447ef	2.686396e-06
228	0xb6301d04	-2.6242933e-06
229	0x363441f0	2.686047e-06
230	0xb6533c02	-3.147638e-06
231	0xb6345912	-2.6873936e-06
232	0xb635b0a5	-2.7073922e-06
233	0x360045cb	1.9114111e-06
234	0x36344947	2.6864743e-06
235	0x36344923	2.6864661e-06
236	0x3634488f	2.6864325e-06
237	0x36042de2	1.969624e-06
238	0x3634412b	2.6860023e-06
239	0x36341650	2.6835078e-06
240	0xb5e669f4	-1.7167172e-06
241	0x3633b665	2.6779246e-06
242	0xb585a728	-9.957921e-07
243	0xb634e6df	-2.6956475e-06
244	0xb60462b3	-1.9726983e-06
245	0xb61828f6	-2.2673607e-06
246	0xb637ef2f	-2.7408348e-06
247	0x360365ad	1.9579704e-06
248	0x36043504	1.9700392e-06
249	0xb6511ea8	-3.1161271e-06
250	0x362b2500	2.5502522e-06
251	0x361b75b9	2.3165323e-06
252	0x36344792	2.686375e-06
253	0x36344504	2.6862263e-06
254	0xb6346392	-2.6880048e-06
255	0xb62dac9a	-2.5879476e-06

fc2.bias f4 [20]
0	0x3fe25822	1.7683146
1	0xb63225b0	-2.6546004e-06
2	0xb414ef7c	-1.3870698e-07
3	0xb847020f	-4.7447214e-05
4	0xbdb3f5fe	-0.08787154
5	0x3fd688e7	1.6760529
6	0xb85bac7e	-5.2374315e-05
7	0xbd977216	-0.07394807
8	0x3fd285b6	1.6447055
9	0x3fceb9e8	1.6150484
10	0xb4b1468a	-3.3020143e-07
11	0xbece9f92	-0.40356117
12	0x3d6c1a7e	0.057642452
13	0x3fda501d	1.7055699
14	0xb7331bfb	-1.0675746e-05
15	0xb65a22d3	-3.2504802e-06
16	0x3fcfcb3b	1.6233896
17	0x3fd5ebf1	1.6712629
18	0x3fd55a78	1.6668234
19	0x3fd3ddbd	1.6552044

fc3.weight f4 [20, 20]
0	0x3f8eb7b5	1.1149813
1	0xc0049e9d	-2.072181
2	0xc0049ef1	-2.072201
3	0xc005554a	-2.0833306
4	0x3ff37299	1.9019347
5	0x3fda354d	1.7047516
6	0xc00320ea	-2.048884
7	0xc0053f10	-2.081974
8	0x4000b4c1	2.0110323
9	0x3f818085	1.0117346
10	0xc0048316	-2.0705009
11	0x40649ce5	3.572076
12	0xc0532abc	-3.2994833
13	0x400a04b8	2.156538
14	0x40036c53	2.0534866
15	0xc0048b45	-2.0710003
16	0x3fcf0510	1.617342
17	0x4001df0e	2.0292392
18	0x3fd60ae9	1.672208
19	0x4003b56e	2.0579486
20	0xae3e39f6	-4.3252478e-11
21	0x2e05b0ce	3.0397733e-11
22	0x2dc748e5	2.2656052e-11
23	0x2e00c775	2.9280984e-11
24	0xad005203	-7.294168e-12
25	0xaedb709a	-9.978969e-11
26	0x2de3c16c	2.5892809e-11
27	0x2d669abe	1.3108346e-11
28	0xaf20bc7b	-1.4618877e-10
29	0xaf249ad9	-1.4970726e-10
30	0xad9d8b27	-1.791063e-11
31	0x2ec5961a	8.985186e-11
32	0xae878bf0	-6.163947e-11
33	0xaeb322d7	-8.1461664e-11
34	0x2cac3280	4.8941406e-12
35	0x2e0d3900	3.2110314e-11
36	0xaf07d565	-1.2353991e-10
37	0xaf1b728c	-1.4137863e-10
38	0xaf112fa2	-1.3204596e-10
39	0xaf1edfc7	-1.4449518e-10
40	0x3fda39f0	1.7048931
41	0xc004d1e1	-2.07531
42	0xc004c9c4	-2.0748148
43	0xc0044557	-2.0667322
44	0x3ff7a7a8	1.934804
45	0x3fc37d57	1.5272626
46	0xc002f440	-2.0461578
47	0xc0058ceb	-2.086726
48	0x3fd1be08	1.6386118
49	0x3fc63f98	1.5488157
50	0xc004b3ae	-2.0734668
51	0x4021fdf0	2.531124
52	0xc0392671	-2.8929713
53	0x3fe04241	1.7520219
54	0x40030d4e	2.047687
55	0xc004afa9	-2.0732214
56	0x3fbaf665	1.4606444
57	0x3fd451b1	1.658743
58	0x3fc1bdb8	1.5136023
59	0x3fd6c370	1.6778393
60	0x3f69dd70	0.9135351
61	0xbfeeb908	-1.8650217
62	0xbfee9f92	-1.8642447
63	0xbfea3864	-1.8298459
64	0x3fc83eb7	1.5644139
65	0x40146d32	2.3191648
66	0xbfea4d42	-1.8304827
67	0xbff06805	-1.8781744
68	0x40156a19	2.3346007
69	0x3f5175a6	0.8182014
70	0xbfee7b2b	-1.8631338
71	0x3eccd293	0.40004405
72	0xc12ff14b	-10.996409
73	0x401ca492	2.4475446
74	0x3feb2a47	1.8372277
75	0xbfee6355	-1.8624064
76	0x400d5792	2.2084699
77	0x401894cb	2.3840816
78	0x4012c10d	2.293033
79	0x40174242	2.363419
80	0xad9b4290	-1.765102e-11
81	0x2d91f1d2	1.6591981e-11
82	0xab8329d2	-9.319717e-13
83	0x2d5f8aaf	1.2706876e-11
84	0x2b91abc6	1.0350546e-12
85	0xad82d8e4	-1.4875608e-11
86	0xacc1b7a6	-5.505779e-12
87	0x2c0043fb	1.822763e-12
88	0xadbbcf1f	-2.1351419e-11
89	0xad8ac766	-1.5777334e-11
90	0x2ca1bcde	4.5968637e-12
91	0xad06896b	-7.647531e-12
92	0xae021c9b	-2.9583985e-11
93	0xabb3a162	-1.2763508e-12
94	0xab721c3b	-8.601485e-13
95	0x2c470a03	2.8285159e-12
96	0xad51d83c	-1.1928288e-11
97	0xadbd2bab	-2.1506205e-11
98	0xad98f429	-1.7388828e-11
99	0xadae2159	-1.9796319e-11
100	0x4009aec6	2.1512923
101	0xc017ae82	-2.370026
102	0xc0179d8a	-2.3689904
103	0xc0162363	-2.3459098
104	0x400dc5d7	2.2152002
105	0x3f8ba029	1.0908252
106	0xc014dd25	-2.3259976
107	0xc0189e0c	-2.3846464
108	0x3f9ff714	1.2497277
109	0x3ff9949d	1.9498478
110	0xc0178373	-2.367398
111	0x40342846	2.814958
112	0xbfecc874	-1.8498673
113	0x3fabcde7	1.3422211
114	0x40149e9e	2.3221812
115	0xc01771ff	-2.3663328
116	0x3f85b1d4	1.0444894
117	0x3fa16e0b	1.2611707
118	0x3f8b3e7c	1.0878444
119	0x3fa45851	1.2839452
120	0x3f936d0a	1.1517651
121	0xc0091ca3	-2.1423728
122	0xc009203d	-2.1425927
123	0xc00a1e7d	-2.1581109
124	0x40006175	2.0059483
125	0x3fe177c2	1.7614672
126	0xc0082845	-2.1274579
127	0xc009b9a8	-2.1519566
128	0x4005996a	2.0874887
129	0x3f871b0e	1.0555131
130	0xc009095a	-2.1411958
131	0x406c0379	3.687712
132	0xc05ac3ed	-3.4182084
133	0x400e3c97	2.222448
134	0x40088601	2.133179
135	0xc009178d	-2.1420624
136	0x3fd740ac	1.6816611
137	0x40066fc9	2.1005728
138	0x3fddb21a	1.7319977
139	0x40087866	2.1323485
140	0x40091fa2	2.1425557
141	0xc0157c31	-2.335705
142	0xc0157513	-2.3352706
143	0xc0156d0d	-2.334781
144	0x400ef548	2.2337208
145	0x3f6ac9ef	0.91714376
146	0xc0138346	-2.3048873
147	0xc01663b7	-2.349836
148	0x3f84ac3e	1.0365064
149	0x3ff8537a	1.9400475
150	0xc01558cd	-2.333545
151	0x3feaaa7e	1.833328
152	0x3eab16f8	0.3341596
153	0x3f909f6b	1.129865
154	0x4013bac8	2.3082752
155	0xc0155c50	-2.3337593
156	0x3f653652	0.8953601
157	0x3f842cf7	1.0326222
158	0x3f6dc455	0.92877704
159	0x3f89585a	1.0730088
160	0x40095061	2.145531
161	0xc015b844	-2.3393717
162	0xc015b187	-2.3389604
163	0xc015b5c4	-2.339219
164	0x400f412e	2.2383533
165	0x3f6ae896	0.9176115
166	0xc013c8dd	-2.3091347
167	0xc0169fb0	-2.3534966
168	0x3f84cd9b	1.0375246
169	0x3ff8bc52	1.9432471
170	0xc0159551	-2.3372386
171	0x3feb5c56	1.8387554
172	0x3eaad057	0.33362076
173	0x3f90c394	1.1309686
174	0x4014043c	2.3127584
175	0xc0159977	-2.3374918
176	0x3f6563d0	0.89605427
177	0x3f844bba	1.033561
178	0x3f6dec8d	0.9293907
179	0x3f897ac5	1.0740591
180	0xacf2bdf1	-6.8991414e-12
181	0x2dd07e86	2.370305e-11
182	0xad065ce6	-7.637646e-12
183	0x2e1f94df	3.628464e-11
184	0x2d6c58c8	1.343476e-11
185	0xad8964b1	-1.5619813e-11
186	0x2cfa6c1a	7.117429e-12
187	0x2cc27063	5.526289e-12
188	0xad3a565d	-1.0592052e-11
189	0xad307189	-1.0029652e-11
190	0x2cd8d4b1	6.1627027e-12
191	0x2dbbd2db	2.1353077e-11
192	0xae21c286	-3.6779933e-11
193	0xad5d30d4	-1.2573238e-11
194	0xad144cb1	-8.429855e-12
195	0xad2a1ca3	-9.66974e-12
196	0x2d0b7be7	7.928747e-12
197	0xae0088cc	-2.922533e-11
198	0xadebf528	-2.6825278e-11
199	0xae62f221	-5.1601504e-11
200	0x4008cb6a	2.1374154
201	0xc015148f	-2.3293798
202	0xc0150cda	-2.3289094
203	0xc014f156	-2.32723
204	0x400e711d	2.225654
205	0x3f6a8f13	0.91624564
206	0xc0130c5a	-2.2976289
207	0xc015fc49	-2.3435233
208	0x3f84700d	1.0346695
209	0x3ff79ce4	1.9344754
210	0xc014f01f	-2.3271558
211	0x3fe98022	1.8242228
212	0x3eab836b	0.334987
213	0x3f905fbd	1.1279217
214	0x40133c8a	2.30057
215	0xc014f2be	-2.3273158
216	0x3f64e1e5	0.8940719
217	0x3f83f562	1.030926
218	0x3f6d792a	0.92763007
219	0x3f891a9a	1.0711243
220	0xae13a990	-3.3574532e-11
221	0x2d944ebf	1.6860622e-11
222	0x2d8b8bdb	1.5864579e-11
223	0x2dc44442	2.2312933e-11
224	0x2c2ecc2f	2.4840232e-12
225	0xad4fcd6c	-1.18122005e-11
226	0xad361506	-1.035017e-11
227	0x2d477444	1.13376565e-11
228	0xadabb343	-1.9520057e-11
229	0xada89be4	-1.9168618e-11
230	0xad9e99cd	-1.8030822e-11
231	0x2d947da0	1.688144e-11
232	0xade4fb0e	-2.603209e-11
233	0x2cb41d7b	5.1191807e-12
234	0xad067878	-7.6437676e-12
235	0x2cc636a7	5.633566e-12
236	0xada12094	-1.8318048e-11
237	0xad71214a	-1.3706656e-11
238	0x2c9d6157	4.4730153e-12
239	0xabc74106	-1.4157848e-12
240	0x40085459	2.1301482
241	0xc0148455	-2.320577
242	0xc0147bb9	-2.3200514
243	0xc01436f3	-2.3158538
244	0x400dc276	2.214994
245	0x3f6a5b68	0.91545725
246	0xc0126247	-2.2872484
247	0xc0156c2a	-2.3347268
248	0x3f842bce	1.0325868
249	0x3ff6abed	1.9271218
250	0xc0145f60	-2.3183212
251	0x3fe7b21d	1.8101231
252	0x3eac5c94	0.33664382
253	0x3f900aa7	1.1253251
254	0x40128215	2.2891896
255	0xc0145f63	-2.318322

fc3.bias f4 [20]
0	0x4017f83b	2.3745258
1	0xad136c5c	-8.380043e-12
2	0x4016e065	2.357446
3	0x40080f9c	2.1259527
4	0x2cea3f4c	6.6577074e-12
5	0x402946fb	2.6449573
6	0x401d08b0	2.4536552
7	0x40278d76	2.618009
8	0x4027d30e	2.6222568
9	0x2d8d2c98	1.6049648e-11
10	0x40271586	2.6106887
11	0xadd21e2d	-2.3887637e-11
12	0x40266c9b	2.6003788
13	0x4014362a	2.315806
14	0x40272a9a	2.6119752
15	0x3ff5da18	1.9207182
16	0xacc282e3	-5.528343e-12
17	0xad43ba00	-1.1125767e-11
18	0xaa9e12a0	-2.8079362e-13
19	0xb4c6e90f	-3.7049946e-07

fc4.weight f4 [1, 20]
0	0x40111327	2.266794
1	0xc0492b81	-3.1432803
2	0x4002f2a1	2.046059
3	0x40123ede	2.285087
4	0xc0492ba5	-3.1432889
5	0x3fff487f	1.9943999
6	0x40160cd6	2.3445334
7	0x3fcbbd27	1.59171
8	0x3fcc0380	1.5938568
9	0xc0492b8f	-3.1432836
10	0x3fcb41af	1.587942
11	0xc0492bae	-3.143291
12	0x3fcaa880	1.5832672
13	0x400da223	2.213021
14	0x3fcb5cfc	1.5887752
15	0x401c3c98	2.4411983
16	0xc0492b91	-3.143284
17	0xc0492b6f	-3.143276
18	0xc0492b9a	-3.1432862
19	0x4048d006	3.1376967

bn1.weight f4 [200]
0	0x3f88c6eb	1.0685705
1	0xbd43db8c	-0.047816798
2	0x2db7b558	2.0885224e-11
3	0x2db7b558	2.0885224e-11
4	0x2db7b558	2.0885224e-11
5	0xbb53e50d	-0.003233257
6	0x3c67b27c	0.014141675
7	0x3f89591f	1.0730323
8	0x2db7b558	2.0885224e-11
9	0x2db7b558	2.0885224e-11
10	0xbc4b1ec8	-0.012397476
11	0x2db7b558	2.0885224e-11
12	0x3f895730	1.0729733
13	0x2db7b558	2.0885224e-11
14	0xbf88d5aa	-1.0690205
15	0x2db7b558	2.0885224e-11
16	0x2db7b558	2.0885224e-11
17	0x3d0bc3dc	0.034122333
18	0x3a820c6a	0.0009921913
19	0x2db7b558	2.0885224e-11
20	0xb94407c0	-0.00018694904
21	0x2db7b558	2.0885224e-11
22	0x2db7b558	2.0885224e-11
23	0xbbe0621a	-0.006847632
24	0x403d9810	2.9624062
25	0x3d64de61	0.05587614
26	0x3fb89e46	1.4423301
27	0x3f895641	1.0729448
28	0x2db7b558	2.0885224e-11
29	0x3f896045	1.0732504
30	0x3c6ed9b5	0.014578273
31	0x2db7b558	2.0885224e-11
32	0x2db7b558	2.0885224e-11
33	0x2db7b558	2.0885224e-11
34	0x3f895879	1.0730125
35	0x3f895670	1.0729504
36	0x3f895634	1.0729432
37	0x2db7b558	2.0885224e-11
38	0x3f889f8d	1.0673691
39	0x3c81c227	0.01583965
40	0x2db7b558	2.0885224e-11
41	0x3f89ddc9	1.0770808
42	0x40bd1aa3	5.9095016
43	0x2db7b558	2.0885224e-11
44	0x2db7b558	2.0885224e-11
45	0xbd3fb341	-0.04680181
46	0xbd516045	-0.0511172
47	0x2db7b558	2.0885224e-11
48	0x3f88b2e5	1.0679594
49	0xbdb83707	-0.08994871
50	0x2db7b558	2.0885224e-11
51	0x2db7b558	2.0885224e-11
52	0x3f895658	1.0729475
53	0x3f895d1e	1.0731542
54	0xbf88d003	-1.068848
55	0xbd7e5dff	-0.06210136
56	0x2db7b558	2.0885224e-11
57	0x2db7b558	2.0885224e-11
58	0x3c56b82f	0.013105436
59	0x2db7b558	2.0885224e-11
60	0xbd94762a	-0.072491005
61	0x3f88cd05	1.0687567
62	0x3d070d1a	0.03297148
63	0x2db7b558	2.0885224e-11
64	0x404c6308	3.1935444
65	0x2db7b558	2.0885224e-11
66	0x2db7b558	2.0885224e-11
67	0xbd59b6cc	-0.053152844
68	0x3f89579c	1.0729861
69	0xbc9d3da5	-0.019194433
70	0x2db7b558	2.0885224e-11
71	0xbc203ece	-0.009780599
72	0xbf88d83c	-1.069099
73	0xbd503a25	-0.0508367
74	0x2db7b558	2.0885224e-11
75	0x3f895677	1.0729512
76	0x2db7b558	2.0885224e-11
77	0xc03ef073	-2.9834259
78	0xbf89fbe2	-1.0779994
79	0xbda088d8	-0.07838601
80	0x3b93261a	0.004490626
81	0x2db7b558	2.0885224e-11
82	0x3f895656	1.0729473
83	0x3f2e3fed	0.68066293
84	0xbbe962ee	-0.007122389
85	0x2db7b558	2.0885224e-11
86	0xbcf7b55f	-0.030237852
87	0x2db7b558	2.0885224e-11
88	0x2db7b558	2.0885224e-11
89	0x2db7b558	2.0885224e-11
90	0x3f895669	1.0729495
91	0x3f89588a	1.0730145
92	0xbf88aa96	-1.0677059
93	0x3a290480	0.0006447509
94	0x3f8956b1	1.0729581
95	0x3f8956cc	1.0729613
96	0x3b0eb067	0.0021772624
97	0x3d364737	0.04450151
98	0x2db7b558	2.0885224e-11
99	0x3f89588b	1.0730146
100	0x3f8c2b96	1.0950801
101	0x2db7b558	2.0885224e-11
102	0x3d6d8f18	0.057997793
103	0x2db7b558	2.0885224e-11
104	0x3f89566a	1.0729496
105	0x403feb34	2.9987307
106	0xbf889a36	-1.0672061
107	0x2db7b558	2.0885224e-11
108	0x3b04c0d1	0.002025653
109	0x3d818f30	0.06326139
110	0x2db7b558	2.0885224e-11
111	0x2db7b558	2.0885224e-11
112	0x3a952eda	0.0011381761
113	0x2db7b558	2.0885224e-11
114	0xbf889bee	-1.0672586
115	0xb92ae936	-0.00016299341
116	0x3f889967	1.0671815
117	0x3a9d52f4	0.0012002871
118	0x2db7b558	2.0885224e-11
119	0x2db7b558	2.0885224e-11
120	0x2db7b558	2.0885224e-11
121	0x3cc13bfe	0.023588177
122	0xbf88cc74	-1.0687394
123	0x3f8896be	1.0671003
124	0x2db7b558	2.0885224e-11
125	0xbf898bd6	-1.07458
126	0x2db7b558	2.0885224e-11
127	0xbfce5ed3	-1.6122688
128	0xbceb3cbe	-0.028715488
129	0x3f88c0c6	1.068383
130	0x3f89565b	1.0729479
131	0x2db7b558	2.0885224e-11
132	0x2db7b558	2.0885224e-11
133	0x2db7b558	2.0885224e-11
134	0x2db7b558	2.0885224e-11
135	0x409aafc7	4.833957
136	0x2db7b558	2.0885224e-11
137	0x3c95c3ac	0.01828178
138	0x3de917c6	0.113814875
139	0x3f89c92a	1.0764515
140	0x3d1a2edc	0.037642345
141	0x2db7b558	2.0885224e-11
142	0x3dd7a500	0.10529518
143	0x2db7b558	2.0885224e-11
144	0x2db7b558	2.0885224e-11
145	0x3f88da38	1.0691595
146	0x2db7b558	2.0885224e-11
147	0x2db7b558	2.0885224e-11
148	0xbd520c3a	-0.05128119
149	0x2db7b558	2.0885224e-11
150	0x3df6db70	0.12053573
151	0xba4d2f92	-0.0007827218
152	0xbc75f2a6	-0.015011465
153	0x2db7b558	2.0885224e-11
154	0xbf88cfb2	-1.0688384
155	0x2db7b558	2.0885224e-11
156	0x2db7b558	2.0885224e-11
157	0xbcfce307	-0.030869974
158	0x2db7b558	2.0885224e-11
159	0x2db7b558	2.0885224e-11
160	0x2db7b558	2.0885224e-11
161	0x2db7b558	2.0885224e-11
162	0x2db7b558	2.0885224e-11
163	0x2db7b558	2.0885224e-11
164	0x3f89567d	1.0729519
165	0x2db7b558	2.0885224e-11
166	0x3d5a47d9	0.053291176
167	0x2db7b558	2.0885224e-11
168	0xbc4eba97	-0.012617729
169	0x3d34180e	0.043968253
170	0xbc231347	-0.009953327
171	0x2db7b558	2.0885224e-11
172	0x3d31612e	0.04330557
173	0x2db7b558	2.0885224e-11
174	0x3f89568a	1.0729535
175	0x2db7b558	2.0885224e-11
176	0x2db7b558	2.0885224e-11
177	0x2db7b558	2.0885224e-11
178	0xbdccc908	-0.09999281
179	0x2db7b558	2.0885224e-11
180	0xbc400712	-0.011720436
181	0xb9f414c2	-0.00046554772
182	0xbd49560f	-0.049154337
183	0x3f8897db	1.0671343
184	0xbc115143	-0.008869472
185	0x2db7b558	2.0885224e-11
186	0x3f561f01	0.8364106
187	0xbf88aac0	-1.0677109
188	0x2db7b558	2.0885224e-11
189	0x2db7b558	2.0885224e-11
190	0xbc07bbf4	-0.008284558
191	0x2db7b558	2.0885224e-11
192	0x2db7b558	2.0885224e-11
193	0x3f895bb7	1.0731114
194	0x2db7b558	2.0885224e-11
195	0x3c55b741	0.013044179
196	0xbbc92495	-0.006138394
197	0xbcb3b841	-0.021938445
198	0x2db7b558	2.0885224e-11
199	0xbf88ae96	-1.0678279

bn1.bias f4 [200]
0	0xbf88c6f0	-1.0685711
1	0x3d5b6dbd	0.05357145
2	0xbb483c43	-0.0030553497
3	0xbc9c0b8c	-0.019048475
4	0x3f88dcaf	1.0692347
5	0x3b53e334	0.0032331469
6	0xbc67b240	-0.014141619
7	0xbf895918	-1.0730314
8	0xbf88a319	-1.0674773
9	0x3f8bf8c5	1.0935293
10	0xbcca4341	-0.024690272
11	0xbf88cf95	-1.0688349
12	0xbf895725	-1.0729719
13	0x3d9ec725	0.077528276
14	0x3f88d5b3	1.0690216
15	0xbf88da4c	-1.0691619
16	0x3f88c183	1.0684055
17	0xbd0bda35	-0.034143645
18	0xba8200b7	-0.0009918426
19	0xbb008ae7	-0.0019614042
20	0x394686f8	0.00018933031
21	0xbf88a112	-1.0674155
22	0x3d1faa60	0.03898084
23	0x3be0635a	0.006847781
24	0xbe4aa8da	-0.19790974
25	0xbd64de78	-0.055876225
26	0x3f928a91	1.1448537
27	0xbf895644	-1.0729451
28	0x3f88a057	1.0673932
29	0xbf896045	-1.0732504
30	0xbc6ed9c2	-0.014578285
31	0x3f88dfd1	1.0693303
32	0x3f88b7e0	1.0681114
33	0xbd4ba5e8	-0.049718767
34	0xbf895879	-1.0730125
35	0xbf89566f	-1.0729502
36	0xbf895633	-1.0729431
37	0xbf88b569	-1.0680362
38	0xbf889f84	-1.067368
39	0xbc81c1dc	-0.01583951
40	0x3f8892d8	1.0669813
41	0xbf89ddb3	-1.0770782
42	0xbff03269	-1.8765384
43	0x3f88db46	1.0691917
44	0x3f899564	1.0748715
45	0x3d3fb33f	0.0468018
46	0x3d51580a	0.05110935
47	0xbf88a071	-1.0673963
48	0xbf88b2e9	-1.0679599
49	0x3db836d6	0.08994834
50	0x3c33ec05	0.010981564
51	0x3d740d51	0.059583012
52	0xbf895656	-1.0729473
53	0xbf895d1d	-1.0731541
54	0x3f88cffa	1.068847
55	0x3d7ec20e	0.062196784
56	0xbd6aa8cd	-0.057289887
57	0xbc06d94c	-0.008230519
58	0xbc56ac1a	-0.013102556
59	0xbbe913ae	-0.0071129417
60	0x3d9478b6	0.07249586
61	0xbf88cd03	-1.0687565
62	0xbd07587a	-0.033043362
63	0xbd1dceda	-0.038527347
64	0x3ec877db	0.39153942
65	0xbba01b19	-0.004886043
66	0x3d452774	0.04813333
67	0x3d59b7f8	0.053153962
68	0xbf89579b	-1.072986
69	0x3c9d40e4	0.019195981
70	0xbd4c256d	-0.04984038
71	0x3c2033a4	0.009777937
72	0x3f88d83e	1.0690992
73	0x3d503a83	0.05083705
74	0x3f889c21	1.0672647
75	0xbf895678	-1.0729513
76	0x3cb5e9de	0.022206243
77	0xbf959e80	-1.1688995
78	0x3f89fbf2	1.0780013
79	0x3da08691	0.078381665
80	0xbb932674	-0.004490668
81	0xbd826d46	-0.063684985
82	0xbf89565e	-1.0729482
83	0x3f5eb137	0.8698916
84	0x3bd4bbb8	0.0064921044
85	0x3f88dabb	1.0691751
86	0x3cf7b6d7	0.030238552
87	0xbd91814f	-0.07104742
88	0xbd7a0d09	-0.061047588
89	0xbd3ecd01	-0.046582226
90	0xbf89566b	-1.0729498
91	0xbf895884	-1.0730138
92	0x3f88aa94	1.0677056
93	0xba2903da	-0.00064474123
94	0xbf8956b2	-1.0729582
95	0xbf8956c9	-1.072961
96	0xbb0eb4a3	-0.0021775148
97	0xbd3647c2	-0.044502027
98	0xbbfec682	-0.007775129
99	0xbf895888	-1.0730143
100	0xbf810d7d	-1.0082241
101	0x3c817457	0.015802545
102	0xbd6d8ef2	-0.05799765
103	0x3c0caf54	0.008586723
104	0xbf895672	-1.0729506
105	0x3f33784e	0.70105445
106	0x3f889a3d	1.067207
107	0xbf88d4ba	-1.0689919
108	0xbb04c37e	-0.0020258124
109	0xbd8190e4	-0.06326464
110	0x3c0838fe	0.008314369
111	0xbf88a5bf	-1.0675582
112	0xba953251	-0.0011382793
113	0xbc58ced8	-0.013232909
114	0x3f889bf9	1.0672599
115	0x38d97d67	0.00010370724
116	0xbf889965	-1.0671812
117	0xba9d52b0	-0.0012002792
118	0x3c63a877	0.013895146
119	0xbc0ca27c	-0.008583661
120	0xbf88e354	-1.0694375
121	0xbcc13b76	-0.023587923
122	0x3f88cc71	1.068739
123	0xbf8896b9	-1.0670997
124	0x3f88b313	1.0679649
125	0x3f898a6b	1.0745367
126	0xbf8965dc	-1.073421
127	0x3f90ec7a	1.1322167
128	0x3ceb3c1b	0.028715184
129	0xbf88c0c4	-1.0683827
130	0xbf895655	-1.0729471
131	0x3c150ba3	0.009097013
132	0x3f88bdb1	1.0682889
133	0xbd4dd300	-0.050250053
134	0x3f88c057	1.0683697
135	0xc03c74ea	-2.9446359
136	0xbb2b9a61	-0.0026184546
137	0xbc6798a8	-0.014135517
138	0x3bc9cbe4	0.006158339
139	0xbf89c91c	-1.0764499
140	0xbd5d9ef5	-0.05410667
141	0xbf898591	-1.0743886
142	0x3b8115cc	0.003939366
143	0x3d45ca5c	0.048288688
144	0xbd0224e2	-0.031773455
145	0xbf88da37	-1.0691594
146	0xbf88df37	-1.069312
147	0xbd21b09c	-0.03947507
148	0x3d520d9a	0.051282503
149	0xbf88c0be	-1.068382
150	0xbdf59313	-0.11990943
151	0x3a4d2f56	0.0007827183
152	0x3c75f360	0.015011638
153	0x3f88c169	1.0684024
154	0x3f88cfb3	1.0688385
155	0x3d5ca611	0.05386931
156	0xbc80f9ad	-0.015744055
157	0x3cfc4c52	0.030798111
158	0x3f88d5bd	1.0690228
159	0x3d6a8f5e	0.05726563
160	0xbf889e08	-1.0673227
161	0x3d76da7d	0.06026696
162	0xbf88dd7c	-1.0692592
163	0x3f89a0f7	1.0752248
164	0xbf895670	-1.0729504
165	0x3b098286	0.002098234
166	0xbd5a3da5	-0.053281445
167	0xbd73ad3e	-0.05949139
168	0x3c4ec6eb	0.012620668
169	0xbd3417d7	-0.043968048
170	0x3c22a6fc	0.0099275075
171	0xbd74f830	-0.059807003
172	0xbd31664e	-0.043310456
173	0xbc9e0bd1	-0.019292744
174	0xbf89568a	-1.0729535
175	0x3b04eeeb	0.0020284008
176	0x3d059e31	0.032621566
177	0xbd7f276f	-0.062293466
178	0x3dccc8ed	0.09999261
179	0x3dda69ca	0.10664709
180	0x3c400866	0.011720752
181	0x39ef6c90	0.00045666518
182	0x3d49563a	0.049154498
183	0xbf8897ec	-1.0671363
184	0x3c1150e8	0.008869387
185	0xbd6769e2	-0.056497462
186	0x3f705cd2	0.9389163
187	0x3f88aab1	1.0677091
188	0xbc1f2a28	-0.009714641
189	0x3f88a0b5	1.0674044
190	0x3c07bb5a	0.008284414
191	0x3d480f8d	0.048842955
192	0x3f88e197	1.0693845
193	0xbf895bb8	-1.0731115
194	0xbb662668	-0.0035118107
195	0xbc55b764	-0.013044212
196	0x3bc99b24	0.0061525274
197	0x3cb36bf8	0.02190207
198	0xbde5c7ce	-0.1121975
199	0x3f88aea1	1.0678293

bn1.running_mean f4 [200]
0	0x42c25567	97.1668
1	0x43283f6c	168.24774
2	0x00000000	0.0
3	0x00000000	0.0
4	0x00000000	0.0
5	0x424d33d1	51.300602
6	0x3fb5befc	1.4198909
7	0x419f5a04	19.918953
8	0x00000000	0.0
9	0x00000000	0.0
10	0x4290aa4a	72.332596
11	0x00000000	0.0
12	0x3f8745c7	1.0568169
13	0x00000000	0.0
14	0x427618e8	61.524323
15	0x00000000	0.0
16	0x00000000	0.0
17	0x42ecd9e4	118.42557
18	0x4033c598	2.8089352
19	0x00000000	0.0
20	0x42207f10	40.124084
21	0x00000000	0.0
22	0x00000000	0.0
23	0x413e7a50	11.904861
24	0x42badd9b	93.43282
25	0x426149fa	56.322243
26	0x42c206ba	97.01314
27	0x412e34b6	10.887869
28	0x00000000	0.0
29	0x41abff15	21.499552
30	0x40dac139	6.8360868
31	0x00000000	0.0
32	0x00000000	0.0
33	0x00000000	0.0
34	0x41b7f154	22.992836
35	0x40a91ead	5.2849946
36	0x417b90f1	15.722886
37	0x00000000	0.0
38	0x3b3676ff	0.0027841923
39	0x422747a7	41.819973
40	0x00000000	0.0
41	0x43224fc2	162.31155
42	0x42f7c6d1	123.88831
43	0x00000000	0.0
44	0x00000000	0.0
45	0x3ebd958a	0.37028152
46	0x4221e072	40.469185
47	0x00000000	0.0
48	0x40c25ec7	6.0740695
49	0x4325c1cc	165.75702
50	0x00000000	0.0
51	0x00000000	0.0
52	0x40e7ae80	7.2400513
53	0x41750bd2	15.315386
54	0x430db8d6	141.72202
55	0x431ab13a	154.69229
56	0x00000000	0.0
57	0x00000000	0.0
58	0x42f4b6cf	122.35705
59	0x00000000	0.0
60	0x43110fa9	145.06117
61	0x40bb3c5e	5.851119
62	0x42d75c64	107.68045
63	0x00000000	0.0
64	0x4312cd72	146.80252
65	0x00000000	0.0
66	0x00000000	0.0
67	0x432b55d2	171.33524
68	0x41991fc3	19.140509
69	0x429d2d61	78.58863
70	0x00000000	0.0
71	0x42c73e6d	99.621925
72	0x40eaacc7	7.333591
73	0x400d7508	2.210268
74	0x00000000	0.0
75	0x407f138d	3.9855683
76	0x00000000	0.0
77	0x42b1a025	88.81278
78	0x4268c355	58.190754
79	0x423e7ca4	47.62172
80	0x41754b03	15.330813
81	0x00000000	0.0
82	0x411b2ee6	9.69895
83	0x42def6c5	111.48197
84	0x42cfd244	103.910675
85	0x00000000	0.0
86	0x43073a5c	135.22797
87	0x00000000	0.0
88	0x00000000	0.0
89	0x00000000	0.0
90	0x414533f0	12.32518
91	0x4291fea1	72.99732
92	0x411a1401	9.629884
93	0x3d38ec07	0.04514697
94	0x41069ad6	8.412802
95	0x40bfaa31	5.9895253
96	0x42c6fb71	99.4911
97	0x432b378c	171.21698
98	0x00000000	0.0
99	0x4123cf3c	10.238094
100	0x42dfa94e	111.83067
101	0x00000000	0.0
102	0x40fc1464	7.877489
103	0x00000000	0.0
104	0x41776f8c	15.464733
105	0x430ba870	139.65796
106	0x408537e5	4.163073
107	0x00000000	0.0
108	0x403b4c6e	2.92654
109	0x43097de3	137.49174
110	0x00000000	0.0
111	0x00000000	0.0
112	0x3bea9b54	0.00715963
113	0x00000000	0.0
114	0x39b168bf	0.00033838113
115	0x41b6c3a3	22.845526
116	0x42c399b9	97.80024
117	0x4289836d	68.75669
118	0x00000000	0.0
119	0x00000000	0.0
120	0x00000000	0.0
121	0x43158d93	149.55302
122	0x42e6058b	115.010826
123	0x3fa15069	1.2602664
124	0x00000000	0.0
125	0x42189f09	38.155308
126	0x00000000	0.0
127	0x431bb70a	155.715
128	0x401f4790	2.4887428
129	0x422e2300	43.53418
130	0x40d5b20a	6.6779833
131	0x00000000	0.0
132	0x00000000	0.0
133	0x00000000	0.0
134	0x00000000	0.0
135	0x43423d19	194.23866
136	0x00000000	0.0
137	0x42fe95c6	127.29253
138	0x4300d47f	128.83006
139	0x42519f4d	52.405567
140	0x4215360d	37.302784
141	0x00000000	0.0
142	0x42ee4706	119.13872
143	0x00000000	0.0
144	0x00000000	0.0
145	0x3d1a3227	0.037645485
146	0x00000000	0.0
147	0x00000000	0.0
148	0x4255d677	53.45944
149	0x00000000	0.0
150	0x42865e7d	67.18455
151	0x40f7446d	7.7271028
152	0x430ecc80	142.79883
153	0x00000000	0.0
154	0x410e0b89	8.877816
155	0x00000000	0.0
156	0x00000000	0.0
157	0x431da6e9	157.652
158	0x00000000	0.0
159	0x00000000	0.0
160	0x00000000	0.0
161	0x00000000	0.0
162	0x00000000	0.0
163	0x00000000	0.0
164	0x40d7922c	6.7365932
165	0x00000000	0.0
166	0x430e0733	142.02812
167	0x00000000	0.0
168	0x432ec35a	174.76309
169	0x396a9791	0.00022372442
170	0x42ce6f4f	103.2174
171	0x00000000	0.0
172	0x42ef9088	119.78229
173	0x00000000	0.0
174	0x419421c7	18.516493
175	0x00000000	0.0
176	0x00000000	0.0
177	0x00000000	0.0
178	0x40a02318	5.004284
179	0x00000000	0.0
180	0x425a135f	54.518917
181	0x42e6f6e7	115.48223
182	0x40193e0f	2.3944128
183	0x423e0bfd	47.511707
184	0x419b3520	19.40094
185	0x00000000	0.0
186	0x42e36817	113.7033
187	0x42713e6d	60.310963
188	0x00000000	0.0
189	0x00000000	0.0
190	0x42a81a83	84.05178
191	0x00000000	0.0
192	0x00000000	0.0
193	0x417d03f7	15.813468
194	0x00000000	0.0
195	0x416781e6	14.4692135
196	0x41ae7fc9	21.812395
197	0x4305bed3	133.7454
198	0x00000000	0.0
199	0x413883c7	11.532172

bn1.running_var f4 [200]
0	0x450b010e	2224.066
1	0x44a11355	1288.6041
2	0x3f27f62b	0.6561
3	0x3f27f62b	0.6561
4	0x3f27f62b	0.6561
5	0x44a6b0ed	1333.5289
6	0x406220b8	3.533247
7	0x43ec660a	472.79718
8	0x3f27f62b	0.6561
9	0x3f27f62b	0.6561
10	0x4491e043	1167.0082
11	0x3f27f62b	0.6561
12	0x40a067c9	5.012669
13	0x3f27f62b	0.6561
14	0x4389381a	274.4383
15	0x3f27f62b	0.6561
16	0x3f27f62b	0.6561
17	0x43d6be55	429.48697
18	0x40cd54df	6.4166102
19	0x3f27f62b	0.6561
20	0x445ce07b	883.5075
21	0x3f27f62b	0.6561
22	0x3f27f62b	0.6561
23	0x4087d822	4.2451334
24	0x448cec44	1127.3833
25	0x4492ab0c	1173.3452
26	0x440cb93b	562.8942
27	0x40aafb7c	5.343199
28	0x3f27f62b	0.6561
29	0x42d0203c	104.06296
30	0x402ddbd8	2.7165432
31	0x3f27f62b	0.6561
32	0x3f27f62b	0.6561
33	0x3f27f62b	0.6561
34	0x44461d4b	792.4577
35	0x40a95270	5.291313
36	0x41a3e2b9	20.485704
37	0x3f27f62b	0.6561
38	0x3f28f308	0.65995836
39	0x44b3e6ef	1439.2167
40	0x3f27f62b	0.6561
41	0x43fac368	501.5266
42	0x44210604	644.094
43	0x3f27f62b	0.6561
44	0x3f27f62b	0.6561
45	0x3ff94cb9	1.9476539
46	0x44036896	525.63416
47	0x3f27f62b	0.6561
48	0x40b38385	5.6098046
49	0x44c16cf0	1547.4043
50	0x3f27f62b	0.6561
51	0x3f27f62b	0.6561
52	0x409f5f25	4.9803643
53	0x410a89ef	8.658675
54	0x44d193c0	1676.6172
55	0x44db6d4f	1755.4159
56	0x3f27f62b	0.6561
57	0x3f27f62b	0.6561
58	0x448377cc	1051.7437
59	0x3f27f62b	0.6561
60	0x448a53fe	1106.6248
61	0x40a2b693	5.084787
62	0x449331f7	1177.5614
63	0x3f27f62b	0.6561
64	0x4447811b	798.0173
65	0x3f27f62b	0.6561
66	0x3f27f62b	0.6561
67	0x441ee272	635.5382
68	0x436276f4	226.46466
69	0x438aa077	277.25363
70	0x3f27f62b	0.6561
71	0x43b428a4	360.3175
72	0x4203c4e0	32.94226
73	0x410ea31d	8.914823
74	0x3f27f62b	0.6561
75	0x40b8b325	5.771868
76	0x3f27f62b	0.6561
77	0x44602612	896.59485
78	0x44888466	1092.1375
79	0x4448b21b	802.7829
80	0x41243a11	10.264176
81	0x3f27f62b	0.6561
82	0x4035725a	2.8351045
83	0x44b5ded7	1454.9637
84	0x4423045b	652.06805
85	0x3f27f62b	0.6561
86	0x443c38d9	752.88824
87	0x3f27f62b	0.6561
88	0x3f27f62b	0.6561
89	0x3f27f62b	0.6561
90	0x40b732af	5.724937
91	0x4493deb6	1182.9597
92	0x4125fe08	10.374519
93	0x3f7fc645	0.9991191
94	0x409158cc	4.5420895
95	0x40c922cc	6.2854977
96	0x44f196c8	1932.7119
97	0x44332700	716.6094
98	0x3f27f62b	0.6561
99	0x40cdbc99	6.429272
100	0x4523fa95	2623.6614
101	0x3f27f62b	0.6561
102	0x40dfd42f	6.9946513
103	0x3f27f62b	0.6561
104	0x41815383	16.165777
105	0x4495d967	1198.7938
106	0x411477ad	9.279218
107	0x3f27f62b	0.6561
108	0x406fb008	3.745119
109	0x4423b2df	654.79486
110	0x3f27f62b	0.6561
111	0x3f27f62b	0.6561
112	0x3f3019e3	0.687895
113	0x3f27f62b	0.6561
114	0x3f2806d4	0.6563542
115	0x43b8c2b0	369.521
116	0x43aeee62	349.86237
117	0x43c70a80	398.08203
118	0x3f27f62b	0.6561
119	0x3f27f62b	0.6561
120	0x3f27f62b	0.6561
121	0x44c32f18	1561.4717
122	0x44688e24	930.22095
123	0x40886395	4.262156
124	0x3f27f62b	0.6561
125	0x44135cb7	589.44867
126	0x3f27f62b	0.6561
127	0x43f54a7c	490.5819
128	0x40c38b8e	6.1107855
129	0x4410d171	579.2725
130	0x402a3232	2.6593137
131	0x3f27f62b	0.6561
132	0x3f27f62b	0.6561
133	0x3f27f62b	0.6561
134	0x3f27f62b	0.6561
135	0x4445a765	790.61554
136	0x3f27f62b	0.6561
137	0x44a7bc52	1341.885
138	0x449fc6f3	1278.2172
139	0x44038295	526.04034
140	0x43d3be28	423.4856
141	0x3f27f62b	0.6561
142	0x44d7d27a	1726.5774
143	0x3f27f62b	0.6561
144	0x3f27f62b	0.6561
145	0x3f79f5d7	0.97640747
146	0x3f27f62b	0.6561
147	0x3f27f62b	0.6561
148	0x44cba865	1629.2623
149	0x3f27f62b	0.6561
150	0x44fbb23e	2013.5701
151	0x40f73477	7.7251544
152	0x43f86b26	496.8371
153	0x3f27f62b	0.6561
154	0x40658036	3.5859504
155	0x3f27f62b	0.6561
156	0x3f27f62b	0.6561
157	0x43a024e9	320.28836
158	0x3f27f62b	0.6561
159	0x3f27f62b	0.6561
160	0x3f27f62b	0.6561
161	0x3f27f62b	0.6561
162	0x3f27f62b	0.6561
163	0x3f27f62b	0.6561
164	0x40192226	2.3927093
165	0x3f27f62b	0.6561
166	0x441143ea	581.06116
167	0x3f27f62b	0.6561
168	0x446c06aa	944.1041
169	0x3f2801b0	0.65627575
170	0x44dae6ab	1751.2084
171	0x3f27f62b	0.6561
172	0x44861ffb	1072.9994
173	0x3f27f62b	0.6561
174	0x41d64bd7	26.787031
175	0x3f27f62b	0.6561
176	0x3f27f62b	0.6561
177	0x3f27f62b	0.6561
178	0x4062ad35	3.5418217
179	0x3f27f62b	0.6561
180	0x43e86d5c	464.85437
181	0x450d2ab5	2258.6692
182	0x4043d7b6	3.060041
183	0x4413335e	588.8026
184	0x437a3a4b	250.2277
185	0x3f27f62b	0.6561
186	0x44a74724	1338.2231
187	0x43fe1db4	508.23206
188	0x3f27f62b	0.6561
189	0x3f27f62b	0.6561
190	0x441a77fc	617.87476
191	0x3f27f62b	0.6561
192	0x3f27f62b	0.6561
193	0x425c5994	55.08748
194	0x3f27f62b	0.6561
195	0x425fd393	55.956615
196	0x4520d8eb	2573.5574
197	0x448e39f5	1137.8112
198	0x3f27f62b	0.6561
199	0x4295774e	74.73302

bn2.weight f4 [20]
0	0x3fd466b0	1.6593838
1	0x40081cce	2.126758
2	0x4007f3c3	2.124253
3	0x4006ab77	2.1042154
4	0xbed7ce02	-0.4214936
5	0x3fd6a60d	1.6769425
6	0x400500fb	2.0781848
7	0x4007d2e4	2.1222467
8	0x3fec9bcb	1.8485044
9	0x3fbe3f2f	1.4863032
10	0x4008011b	2.1250675
11	0xc023cf06	-2.5595107
12	0x40760d5a	3.844565
13	0x3ffb803a	1.9648507
14	0xc004ff2b	-2.0780742
15	0x4007da04	2.1226816
16	0x3fccf54b	1.6012357
17	0x3fefc8f5	1.8733202
18	0x3fd428a3	1.6574901
19	0x3ff16810	1.8859882

bn2.bias f4 [20]
0	0x40062474	2.095975
1	0xc0081eef	-2.126888
2	0xc0080ec8	-2.1259022
3	0xc0092c60	-2.1433334
4	0x400f51d5	2.2393696
5	0x3ff9b292	1.950762
6	0xc006a2be	-2.103683
7	0xc008dfad	-2.138652
8	0x3fff35ad	1.9938256
9	0x40004928	2.004465
10	0xc00801bc	-2.1251059
11	0x402c6576	2.6936927
12	0xc0113cc4	-2.2693338
13	0x4001e1ce	2.029407
14	0x40095046	2.1455245
15	0xc007da0f	-2.1226842
16	0x3ff7b129	1.935094
17	0x4000780a	2.0073266
18	0x3ffa8c29	1.9574023
19	0x3fffb430	1.9976864

bn2.running_mean f4 [20]
0	0x3eda0442	0.42581373
1	0x3f5a6238	0.8530612
2	0x3e3c58c5	0.18393238
3	0x3f85e885	1.0461584
4	0x3dbafc6e	0.091301784
5	0x3ef9ca36	0.48787087
6	0x3ec9f816	0.39447087
7	0x3e628209	0.22119917
8	0x3ebe538c	0.37173116
9	0x3ecb2bed	0.3968195
10	0x3f6d0efb	0.92600983
11	0x3d4965bb	0.049169283
12	0x3e574642	0.21022895
13	0x3e6845eb	0.22682922
14	0x3f29c1b1	0.66311175
15	0x3f3a6080	0.728035
16	0x3e637765	0.22213514
17	0x3e3042d3	0.17212991
18	0x3e767e40	0.24071598
19	0x3e764320	0.24049044

bn2.running_var f4 [20]
0	0x3fa26344	1.2686543
1	0x3f8b87d8	1.0900831
2	0x3f57452f	0.8408994
3	0x3fa1acb8	1.2630835
4	0x3f52e0e5	0.8237441
5	0x40881e41	4.253693
6	0x3f938cf2	1.1527388
7	0x3fb907b7	1.4455479
8	0x402f93cb	2.7433956
9	0x4030ddc7	2.7635362
10	0x3ff74a66	1.931958
11	0x3f461090	0.7736902
12	0x3fd21fa2	1.6415904
13	0x3fc99cc3	1.5750965
14	0x3fe235ad	1.767263
15	0x3fdf2416	1.7432888
16	0x3fa59881	1.2937165
17	0x3f9be528	1.2179308
18	0x400ce9f2	2.201779
19	0x3fd4a484	1.6612706
