Results/NN_MLP_MLs/MLP_Ensemble/Model_Results/MGTwRD/test10_node500/best_model_0.pt (torch, 266717 bytes, 20 tensors)

country_embedding.weight f4 [8, 2]
-21.385038 21.385038 -23.209202 23.209206 29.642746 -29.642742 -12.204117 12.204116
-10.910789 10.910789 -28.084314 28.084307 -16.526108 16.526104 2.0181153 -2.0181143
00000000: 8f14 abc1 8f14 ab41 72ac b9c1 74ac b941
00000010: 5824 ed41 5624 edc1 1044 43c1 0f44 4341
00000020: 9792 2ec1 9792 2e41 adac e0c1 a9ac e041
00000030: 7835 84c1 7635 8441 cd28 0140 c928 01c0

fc1.weight f4 [500, 74]
0.90190756 -77.01277 11.803404 -39.613976 -25.252226 -31.551195 -3.2558074 -24.95106
-56.300667 -28.087667 -29.595425 -21.627987 -25.492825 -22.794771 -24.336216 -16.0697
-2.983323 -27.839813 7.897021 11.139489 0.26958558 5.9029517 3.191015 5.25423
2.8873725 4.347054 6.096282 15.305987 2.219679 16.36373 10.929728 1.4286183
-2.977048 10.831005 2.0517366 6.029148e-16 7.074888 7.3327084 1.3196808 4.3762393
-1.6540239 2.5060506 2.6511424 3.7080734 3.7200499 12.276594 0.1809654 13.449976
8.207387 -3.6345909 -8.967981 18.465368 0.2641939 5.823268e-16 5.015445 8.069173
2.3656423 3.7994566 -1.2705138 4.2706637 4.010946 3.5225892 3.1604054 13.349965
-0.08857219 10.688335 8.886258 -1.818598 -10.604956 20.351479 0.22346139 -2.776135e-16
50.155838 -50.15585 2.2232778e-16 3.066938e-16 4.3415722e-16 2.2676703e-16 -6.0024614e-16 -3.9341568e-16
3.028194e-16 1.2693371e-16 -4.7309797e-16 -3.4921877e-16 5.7053635e-16 4.0864885e-16 -2.6443498e-16 -1.526402e-16
-5.777217e-16 -1.09008e-17 -4.567073e-16 -4.678054e-16 -3.3416386e-17 9.105789e-17 -2.4836703e-16 3.598666e-16
-3.6906163e-16 5.5029555e-16 4.1561561e-16 -5.114251e-16 -1.5094142e-16 2.7365643e-17 8.848441e-17 1.4383832e-16
2.3799553e-16 3.6327632e-17 -2.959156e-16 2.8697418e-16 -5.817585e-16 -3.594568e-16 -1.5181901e-16 -2.9542082e-16
-2.1216432e-16 -4.9707747e-16 -1.2900604e-16 1.2963735e-16 -3.950918e-16 -3.112362e-17 4.3414306e-16 -6.234564e-17
1.6855234e-17 -5.2319524e-17 1.2273834e-16 3.8561943e-16 5.7447204e-16 3.8514268e-16 5.757941e-16 -4.3861087e-17
-5.448022e-16 -2.875141e-16 4.129485e-16 -3.931437e-18 -3.0144555e-16 -4.647437e-16 -5.6756554e-16 -5.1186164e-16
-1.2301478e-16 3.325929e-16 3.2788246e-16 -5.8489907e-16 3.7830498e-16 -4.7456546e-16 -1.2821438e-16 -2.4590753e-16
-1.1681564e-16 -1.1907593e-16 -5.442189e-16 -5.236513e-16 -9.490014e-17 7.843006e-18 -2.75505e-16 2.2845723e-16
-5.4586054e-16 -4.0928708e-17 5.333421e-16 -2.4737311e-16 5.4764026e-16 2.1963617e-16 -5.4731584e-16 3.8371246e-16
-6.998367e-17 -2.7073013e-16 4.84966e-16 -4.900875e-16 6.5077025e-17 -1.2697586e-16 4.3308832e-16 1.6929266e-16
2.9141038e-16 2.1418108e-16 -1.4584156e-16 -1.275439e-16 -4.99781e-16 3.2861255e-16 4.8152367e-16 4.1496456e-16
-4.2778893e-16 2.7048394e-17 -4.2752426e-16 -3.338532e-16 -3.5339313e-16 2.0725794e-16 -3.6140379e-16 -1.3231508e-17
2.5513188e-17 3.9094636e-16 -4.584425e-16 -4.1634774e-16 -3.521536e-16 4.2449077e-16 -2.1800505e-16 5.1155046e-16
2.1930394e-16 7.679465e-17 -4.5146017e-18 -1.1988753e-16 7.6091656e-17 -1.3848384e-16 -4.261332e-18 7.7381793e-17
-4.7438525e-16 -3.1786928e-16 4.8972343e-16 -4.921797e-16 -4.3548525e-17 5.999467e-16 2.190801e-16 1.7170958e-17
-5.2557616e-16 3.0043316e-16 -4.3197706e-16 -1.7215586e-16 -2.0347833e-16 -8.981043e-17 6.633767e-18 5.00219e-16
7.5711385e-17 5.4321276e-16 3.7098675e-16 -3.834209e-16 2.7200473e-16 -4.2871027e-16 -2.570369e-16 1.783772e-16
2.0025163e-16 4.5499354e-16 -1.9523301e-16 9.708651e-19 3.1222413e-16 -5.8651155e-16 4.3846634e-16 -5.0150624e-16
8.358593e-18 -1.03110293e-16 -3.1941223e-16 8.015807e-17 5.015028e-16 -1.772827e-16 -3.6005835e-16 -2.2429774e-16
-6.0110027e-16 2.7375718e-16 -2.9126522e-16 -4.04723e-16 -3.4938876e-16 3.4869488e-16 3.2116842e-16 4.654758e-16
2.1998184e-16 -2.025374e-16 -1.6947655e-16 1.7916939e-16 4.985422e-16 1.6489527e-16 -2.869475e-16 -2.8508948e-16
00000000: 6ae3 663f 8a06 9ac2 beda 3c41 b674 1ec2
00000010: 8f04 cac1 d968 fcc1 265f 50c0 c59b c7c1
00000020: e233 61c2 8bb3 e0c1 6ec3 ecc1 1e06 adc1
00000030: 4ef1 cbc1 b15b b6c1 92b0 c2c1 bf8e 80c1
00000040: c4ee 3ec0 f0b7 dec1 65b4 fc40 593b 3241
00000050: 1f07 8a3e fbe4 bc40 9739 4c40 a722 a840
00000060: b6ca 3840 111b 8b40 be14 c340 53e5 7441
00000070: 390f 0e40 ebe8 8241 2ae0 2e41 f7dc b63f
00000080: f487 3ec0 cc4b 2d41 a74f 0340 43c7 2d26
00000090: 7c65 e240 8ca5 ea40 4deb a83f 270a 8c40
000000a0: 0eb7 d3bf 2263 2040 51ac 2940 1351 6d40
000000b0: 4c15 6e40 ee6c 4441 fe4e 393e 1a33 5741
000000c0: 7551 0341 239d 68c0 da7c 0fc1 13b9 9341
000000d0: 6c44 873e 22d8 2726 877e a040 551b 0141
000000e0: af66 1740 4c2a 7340 32a0 a2bf 47a9 8840
000000f0: ab59 8040 1a72 6140 1544 4a40 7599 5541
00000100: 5665 b5bd 6c03 2b41 1d2e 0e41 d2c7 e8bf
00000110: e6ad 29c1 d4cf a241 10d3 643e 8608 a0a5
00000120: 949f 4842 979f 48c2 ca29 8025 04cc b025
00000130: 4c46 fa25 e8b8 8225 5902 2da6 e8c9 e2a5
00000140: 4190 ae25 3858 1225 785c 08a6 984f c9a5
00000150: 2772 2426 ed91 eb25 b76f 98a5 6ffb 2fa5
00000160: 5684 26a6 9315 49a3 0da3 03a6 f2d5 06a6
00000170: 1b1b 1aa4 17f7 d124 812c 8fa5 f072 cf25
00000180: e2bf d4a5 a59c 1e26 0a96 ef25 8368 13a6
00000190: 0b06 2ea5 4c67 fc23 fa07 cc24 94d5 2525
000001a0: f131 8925 1988 2724 6f95 aaa5 ea6d a525
000001b0: 33ae 27a6 7636 cfa5 1009 2fa5 6b4c aaa5
000001c0: db9b 74a5 d845 0fa6 ddbb 14a5 3176 1525
000001d0: 42c1 e3a5 4988 0fa4 3544 fa25 5fc2 8fa4
000001e0: 4c76 9b23 fe47 71a4 f781 0d25 624b de25
000001f0: 8e94 2526 0705 de25 1bf6 2526 0846 4aa4
00000200: 4f07 1da6 98bd a5a5 710c ee25 5f0b 91a2
00000210: 83c5 ada5 08f4 05a6 f296 23a6 b988 13a6
00000220: 8ed3 0da5 0dba bf25 e902 bd25 ef95 28a6
00000230: f613 da25 c0c8 08a6 35d2 13a5 8cc1 8da5
00000240: e4ad 06a5 0349 09a5 44dc 1ca6 a5ee 16a6
00000250: 28d3 daa4 8cad 1023 5dd1 9ea5 56b2 8325
00000260: 6655 1da6 17c0 3ca4 b3b9 1926 d499 8ea5
00000270: b8d8 1d26 2839 7d25 c8c0 1da6 f731 dd25
00000280: 115f a1a4 b710 9ca5 2dc8 0b26 1342 0da6
00000290: b20e 9624 a964 12a5 8ea8 f925 602e 4325
000002a0: 95fc a725 19ef 7625 d524 28a5 510c 13a5
000002b0: 540d 10a6 a76e bd25 2dca 0a26 f635 ef25
000002c0: 819a f6a5 377a f923 7273 f6a5 0974 c0a5
000002d0: 9fb7 cba5 bff3 6e25 c955 d0a5 0814 74a3
000002e0: 5051 eb23 805d e125 1623 04a6 1502 f0a5
000002f0: b300 cba5 c8b3 f425 bc57 7ba5 c371 1326
00000300: 19d7 7c25 8f13 b124 358f a6a2 8e38 0aa5
00000310: 9674 af24 37a9 1fa5 2537 9da2 266e b224
00000320: 74bb 08a6 3a3d b7a5 3627 0d26 74dc 0da6
00000330: 06d5 48a4 41ec 2c26 0895 7c25 c75f 9e23
00000340: ad7c 17a6 1c30 ad25 9004 f9a5 717b 46a5
00000350: 3498 6aa5 b816 cfa4 28be f422 a62d 1026
00000360: 1d94 ae24 0792 1c26 fbdb d525 f006 dda5
00000370: d0cc 9c25 7822 f7a5 f42b 94a5 a8a7 4d25
00000380: d9df 6625 9924 0326 9d16 61a5 3f46 8f21
00000390: 26fc b325 ea0c 29a6 36c2 fc25 a18c 10a6
000003a0: 5730 1a23 93c1 eda4 ed20 b8a5 f9d4 b824
000003b0: 608c 1026 9e64 4ca5 3c8f cfa5 814c 81a5
000003c0: 5f41 2da6 6ecf 9d25 29e7 a7a5 934e e9a5
000003d0: ae68 c9a5 4802 c925 1824 b925 0d2a 0626
000003e0: 2e9f 7d25 7d82 69a5 a664 43a5 7891 4e25
000003f0: ecb1 0f26 7e1c 3e25 fa69 a5a5 c857 a4a5

fc1.bias f4 [500]
0.9111219 1.3718367e-16 3.7860938e-16 3.2324178e-16 0.91119605 -2.269091e-15 0.9111599 0.91137844
-2.8674297e-15 0.91127694 0.9113155 0.91105217 0.9113115 0.911365 -5.2581926e-16 -4.712174e-16
0.91097933 3.782947e-16 1.6260837e-16 -4.7088563e-16 0.91133237 0.9112651 -2.9664762e-15 3.359718e-17
1.6242121e-16 3.0736657e-15 3.5244073e-15 3.6850282e-16 1.1755323e-16 0.91111815 -2.611028e-15 0.9108704
0.9109467 0.91133225 -5.4690477e-16 0.9114952 0.91132295 0.9114086 0.9112816 0.9114426
0.9111631 3.145219e-16 1.7898713e-16 0.911382 -4.3731022e-16 0.9109732 -4.977451e-16 0.9109415
-4.622429e-16 -2.74811e-15 0.9108927 -2.50504e-15 4.967962e-16 -2.5914952e-15 0.91110474 0.9113835
-8.689637e-17 0.91097057 0.91105914 0.9108861 3.568082e-15 2.0151359e-16 -1.9660584e-16 1.3899954e-16
0.9112995 -1.1616149e-16 0.9109789 0.91106915 7.8078163e-16 0.9110814 -5.9474376e-16 0.9110982
0.91137075 0.91141677 0.91095424 -1.6314518e-16 -5.1942845e-16 0.9108783 1.4346163e-15 -2.3415919e-15
0.9107755 1.1716635e-15 2.7573066e-16 -3.5466714e-15 2.1339375e-15 -5.968655e-16 7.946299e-17 3.030449e-16
0.9112752 3.532766e-16 -1.3524775e-15 -1.777824e-15 2.8403717e-15 5.3758307e-16 0.9110871 0.91102064
0.9113741 1.8608365e-15 1.9282799e-16 0.9110143 -3.1420664e-15 0.9110595 1.3887742e-17 -5.786954e-16
9.914519e-17 -4.874598e-16 0.91131604 5.138068e-16 -4.0316444e-16 0.9108371 0.9111463 -4.148624e-16
0.9113831 0.911008 3.4875496e-16 -4.515277e-16 -2.5249931e-15 -1.7785928e-16 -4.602286e-16 -2.4995781e-15
0.9109974 0.91112804 -1.3642673e-16 -3.0714394e-16 -5.325263e-16 1.6604391e-16 -5.4952996e-17 -1.2650412e-16
-5.0323e-16 0.9105304 -2.0423232e-16 -2.81741e-16 -2.7040775e-16 6.9853676e-17 -4.95e-16 1.4537922e-16
-3.4347194e-16 4.2035058e-16 3.0823412e-16 -5.911351e-17 -3.5603346e-16 0.9109987 -1.7632998e-15 0.91131777
4.204662e-16 -3.567733e-15 0.91100574 0.9110691 0.9111328 0.91078514 1.5881234e-16 0.9111028
0.910571 0.911428 3.2951945e-15 -4.1125594e-16 -1.3200455e-15 0.9113038 -4.0565292e-16 7.223995e-17
-2.4727573e-15 -3.726821e-15 4.7978467e-17 0.9114992 0.9114376 0.9113379 0.91128784 -4.0172324e-16
3.384217e-15 -3.4844198e-16 5.6283545e-16 -5.0557237e-16 0.9113103 0.91131186 1.6438465e-16 5.729851e-16
-7.898538e-17 1.9625347e-15 -1.9972567e-15 0.91113466 0.9111121 -3.2768364e-16 0.9110999 0.9107884
-4.4038442e-16 -2.0501396e-16 0.9110314 -2.2144721e-16 0.9112558 4.905424e-16 0.911318 0.9109856
0.91078365 -2.353404e-16 -2.1576847e-16 1.5667145e-16 -5.965038e-16 -5.1337677e-16 1.5519383e-15 -1.856616e-16
-1.02799426e-16 1.167685e-15 -3.387695e-16 1.6837857e-16 0.91119874 1.152171e-15 4.4901857e-16 0.9109048
3.3341067e-16 0.9109375 3.632454e-16 -2.2178484e-15 4.585944e-16 0.9110161 0.91117734 -3.0429741e-15
2.35329e-16 1.7205492e-16 7.9624e-17 0.9109946 -3.6892443e-16 5.789741e-16 0.91146743 -1.8408379e-16
-6.644189e-16 8.0299895e-17 0.9113614 0.9113229 -1.3626182e-16 0.9113715 3.6816883e-16 0.91087884
0.91115236 0.91137016 -2.039262e-15 0.9115835 -4.069787e-15 -3.6168777e-15 3.2039093e-16 3.9565846e-16
-3.0881606e-15 -3.1839608e-15 0.9109113 -2.9509093e-15 0.9111693 -4.77992e-16 0.91116196 -2.722728e-15
2.1326308e-15 1.7045842e-16 0.9110612 0.9112347 0.911495 0.9114386 -2.1084589e-16 3.0179422e-15
00000000: 493f 693f 7929 1e25 e240 da25 1156 ba25
00000010: 2544 693f 5781 23a7 c641 693f 1950 693f
00000020: be9e 4ea7 7249 693f f94b 693f b73a 693f
00000030: b64b 693f 374f 693f 9d8e 17a6 b5d1 07a6
00000040: f135 693f 7212 da25 8579 3b25 3ab9 07a6
00000050: 144d 693f ab48 693f d4c1 55a7 8df0 1a24
00000060: 4842 3b25 207b 5d27 d7f5 7d27 6b6d d425
00000070: 9787 0725 0a3f 693f f724 3ca7 cd2e 693f
00000080: ce33 693f 124d 693f 73a2 1da6 c057 693f
00000090: 764c 693f 1352 693f c049 693f 4d54 693f
000000a0: fc41 693f 3d4f b525 ad5b 4e25 5550 693f
000000b0: 9917 fca5 8a35 693f 1b77 0fa6 7633 693f
000000c0: 823b 05a6 af05 46a7 4430 693f d581 34a7
000000d0: 1731 0f26 a6bc 3aa7 293e 693f 6e50 693f
000000e0: 905e c8a4 5e35 693f 2c3b 693f d52f 693f
000000f0: bf8d 8027 5054 6825 cdab 62a5 6c41 2025
00000100: ed4a 693f d2ec 05a5 ea35 693f d43b 693f
00000110: 840b 6126 a13c 693f 586c 2ba6 bb3d 693f
00000120: 984f 693f 9c52 693f 4c34 693f f517 3ca5
00000130: 0eb7 15a6 522f 693f 00c0 ce26 bfba 28a7
00000140: 9528 693f c1da a826 aaf2 9e25 8a90 7fa7
00000150: 33c4 1927 e708 2ca6 ac3a b724 89b1 ae25
00000160: 5549 693f 6da6 cb25 9de9 c2a6 101b 00a7
00000170: 9cab 4c27 a1f2 1a26 013d 693f a638 693f
00000180: d04f 693f 6016 0627 c750 5e25 3c38 693f
00000190: e568 62a7 323b 693f 8117 8023 2fcc 26a6
000001a0: fe9c e424 2f80 0ca6 024c 693f 4018 1426
000001b0: 9268 e8a5 9f2c 693f e240 693f e226 efa5
000001c0: 6750 693f d237 693f 260b c925 dd24 02a6
000001d0: e7f1 35a7 cb0e 4da5 e0a6 04a6 141d 34a7
000001e0: 2037 693f b03f 693f 104a 1da5 720e b1a5
000001f0: 817d 19a6 836f 3f25 0c6d 7da4 6dd9 11a5
00000200: d20b 11a6 8518 693f be76 6ba5 a269 a2a5
00000210: 24e1 9ba5 5512 a124 8eac 0ea6 5f9c 2725
00000220: 83ff c5a5 cc50 f225 54af b125 754e 88a4
00000230: 443d cda5 3637 693f 481e fea6 1f4c 693f
00000240: dc61 f225 878a 80a7 ac37 693f d33b 693f
00000250: 0040 693f 3729 693f 2119 3725 083e 693f
00000260: 2e1b 693f 5853 693f 9c71 6d27 aa12 eda5
00000270: 153d bea6 354b 693f ced7 e9a5 f192 a624
00000280: 522e 32a7 db45 86a7 fa42 5d24 0358 693f
00000290: f953 693f 714d 693f 294a 693f e393 e7a5
000002a0: c9db 7327 f6dc c8a5 ed39 2226 a8b8 11a6
000002b0: a24b 693f bc4b 693f c985 3d25 d726 2526
000002c0: bd20 b6a4 606a 0d27 e2ea 0fa7 1f40 693f
000002d0: a53e 693f 92e5 bca5 d83d 693f 6e29 693f
000002e0: 45dd fda5 715d 6ca5 5b39 693f ae4f 7fa5
000002f0: 0f48 693f a463 0d26 234c 693f 5a36 693f
00000300: 1e29 693f 1daa 87a5 9dc3 78a5 40a1 3425
00000310: 36ee 2ba6 85f8 13a6 6ba8 df26 a20d 56a5
00000320: 120a eda4 f947 a826 8e49 c3a5 9520 4225
00000330: 5244 693f 9b0b a626 b96b 0126 0f31 693f
00000340: bb32 c025 3333 693f 8f65 d125 15d0 1fa7
00000350: 4b2e 0426 5a38 693f eb42 693f f744 5ba7
00000360: 6ea8 8725 a65d 4625 b799 b724 f136 693f
00000370: a3ab d4a5 c0e0 2626 ee55 693f f23b 54a5
00000380: 7681 3fa6 b128 b924 fb4e 693f 754c 693f
00000390: 6419 1da5 a54f 693f 213c d425 5b2f 693f
000003a0: 4841 693f 8e4f 693f bff1 12a7 895d 693f
000003b0: 29a1 92a7 cf4f 82a7 5bb1 b825 e214 e425
000003c0: 8286 5ea7 b66d 65a7 7c31 693f aba2 54a7
000003d0: 6442 693f 96c5 09a6 e941 693f 7731 44a7
000003e0: 18ac 1927 7286 4425 4f3b 693f ad46 693f
000003f0: bc57 693f 0a54 693f b916 73a5 3577 5927

fc2.weight f4 [50, 500]
-4.146846e-15 -1.0184629e-15 -8.8511936e-16 -6.5105896e-16 -3.408259e-15 -1.4935315e-15 -3.2050172e-15 -3.636597e-15
-2.9330557e-15 -3.3811052e-15 -5.4586437e-15 -3.3539972e-15 -3.577234e-15 -3.4734773e-15 -7.3149723e-16 -9.580831e-16
-3.4024862e-15 -1.0283654e-15 -9.751908e-16 1.6935663e-15 -3.5038231e-15 -3.8673657e-15 1.7649478e-15 7.624486e-16
-3.3814148e-15 -2.7241842e-15 -3.2957146e-15 2.8198684e-15 1.0258315e-15 -1.2993553e-16 -2.764962e-15 -1.7655464e-15
3.8034096e-15 -3.765191e-15 1.0178464e-15 -2.829954e-16 2.7566217e-15 1.5804937e-15 2.9997202e-15 -3.4662873e-15
-3.2877038e-15 1.1664566e-15 -9.151257e-16 -3.1493094e-15 -1.053043e-15 -3.0880316e-15 -7.9938803e-16 -3.2546271e-15
-8.2322243e-16 -3.2587632e-15 -3.4125814e-15 3.0878084e-15 -9.436031e-16 2.955035e-15 -3.2540137e-15 -3.3246132e-15
-9.009309e-16 -3.7128076e-15 -4.537431e-15 -4.679401e-15 -2.341711e-15 8.1431757e-16 6.9057913e-16 -2.5873003e-15
-3.0946486e-15 6.2396063e-16 -3.318802e-15 -1.9261718e-15 -3.473601e-15 -3.130082e-15 -9.847869e-16 -3.397723e-15
1.6542753e-15 1.872575e-15 -4.32475e-15 -9.274503e-16 -8.1209056e-16 -3.6564752e-15 3.2543976e-15 -3.0346264e-15
-3.1317156e-15 -2.4262323e-15 1.0014698e-15 -2.9217404e-15 -2.6360089e-15 8.1270747e-16 -1.2969521e-15 1.123972e-15
-2.84117e-15 -7.6967353e-16 -2.7533496e-15 -2.005597e-15 3.1014944e-15 6.272423e-16 -4.1195015e-15 -4.119575e-15
2.2860204e-15 -2.9378186e-15 1.0242153e-15 -3.4293463e-15 3.2905337e-15 -4.64652e-15 -7.2200776e-16 2.4531434e-15
9.587653e-16 -6.6342887e-16 -3.4328492e-15 1.0618714e-15 1.1698044e-15 2.7899453e-15 -4.803009e-15 -3.475576e-15
-3.27164e-15 -4.5865e-15 9.701608e-16 -1.0178442e-15 1.7704636e-15 8.891909e-16 1.1276791e-15 -3.1011733e-15
-4.8055237e-15 -3.2458917e-15 -9.971503e-16 -6.1251816e-16 8.577046e-16 -8.0592575e-16 1.1202752e-15 -7.746433e-16
-8.31827e-16 9.737239e-16 7.561164e-16 3.3538754e-15 9.423178e-16 -8.075903e-16 1.0428279e-15 9.228616e-16
-1.1561512e-15 -8.3510217e-16 -7.553951e-16 8.056234e-16 -5.289803e-16 -3.179873e-15 1.0953293e-17 -3.855588e-15
-9.509844e-16 -3.5185214e-16 -2.8848426e-15 -3.1172316e-15 -3.2304869e-15 -3.219849e-15 1.0258092e-15 -3.180516e-15
-3.0438143e-18 -1.370326e-15 -3.3358284e-15 7.3584584e-16 -3.236341e-15 -3.210366e-15 -7.067459e-16 -7.0689045e-16
-3.0921732e-15 -3.0092493e-15 -9.137678e-16 -3.4802299e-15 -3.551543e-15 -3.2631118e-15 -5.440304e-15 1.0311183e-15
-3.1842971e-15 -1.1640723e-15 1.052603e-15 1.2746038e-15 2.9255048e-15 -5.481613e-15 -1.0927144e-15 1.1132636e-15
6.871564e-16 3.2286884e-15 2.7064905e-15 -4.9455145e-15 -2.3917587e-15 -1.0659312e-15 -4.6956733e-15 3.0726453e-15
5.078522e-16 1.1241208e-15 -4.815912e-15 -1.6148282e-15 -2.9969368e-15 7.806285e-16 -4.93308e-15 -3.0846045e-15
-2.5812471e-15 -9.789568e-16 9.960623e-16 -8.996751e-16 7.5514867e-16 7.2554095e-16 3.311598e-15 9.254109e-16
-7.9831045e-16 -2.9040281e-15 -1.0097008e-15 9.634811e-16 3.2554957e-15 -2.7140778e-15 -7.365156e-16 -4.0579955e-15
-1.5040181e-15 -2.958269e-15 8.0134664e-16 3.5481012e-15 -8.685872e-16 -3.2316859e-15 -3.0884094e-15 -1.534226e-15
-1.0274385e-15 -7.279467e-16 1.0299245e-15 -2.7337366e-15 -7.9805247e-16 6.504803e-16 -2.7153553e-15 -1.3740007e-15
-2.5799885e-15 1.0042526e-15 -3.3691115e-15 -3.3739287e-15 -7.9595464e-16 -3.4143506e-15 -6.6175857e-16 -3.8444153e-15
-3.160082e-15 -3.5716885e-15 -3.1753908e-15 1.7065164e-15 -3.3233507e-15 -2.5123258e-15 6.239451e-16 1.083694e-15
-4.742937e-15 -3.2106866e-15 -2.4473658e-15 3.3106588e-15 -3.398353e-15 7.6780514e-16 -2.977478e-15 3.275418e-15
3.2097445e-15 -1.074903e-15 -5.0140158e-15 -3.3015314e-15 3.644939e-16 3.8967626e-16 6.597004e-16 3.3676459e-15
00000000: e767 95a7 a6c6 92a6 481e 7fa6 aca7 3ba6
00000010: 4897 75a7 963d d7a6 22f2 66a7 b005 83a7
00000020: 5459 53a7 62a2 73a7 1aab c4a7 54ae 71a7
00000030: 29e2 80a7 594a 7aa7 f8d6 52a6 0713 8aa6
00000040: cb2c 75a7 fd33 94a6 318a 8ca6 9111 f426
00000050: 217a 7ca7 2756 8ba7 155b fe26 c7c2 5b26
00000060: 18a8 73a7 544c 44a7 347b 6da7 6431 4b27
00000070: 81d6 9326 33ce 15a5 8c3c 47a7 2a71 fea6
00000080: 4308 8927 c2a7 87a7 e7af 9226 c022 a3a5
00000090: b2a2 4627 edc5 e326 1227 5827 b7c5 79a7
000000a0: 6ee7 6ca7 a71a a826 2ee2 83a6 81ee 62a7
000000b0: 6ec2 97a6 2184 5ea7 6d68 66a6 4685 6aa7
000000c0: 1847 6da6 92d1 6aa7 04e7 75a7 0380 5e27
000000d0: cffc 87a6 c6ee 5427 f579 6aa7 4a90 6fa7
000000e0: 7cd6 81a6 9bc4 85a7 6a7a a3a7 db97 a8a7
000000f0: f2bc 28a7 08b6 6a26 bf0b 4726 446f 3aa7
00000100: 31fe 5ea7 2bd8 3326 1725 6fa7 99cb 0aa7
00000110: a14c 7aa7 d28b 61a7 39ec 8da6 edd4 74a7
00000120: fc67 ee26 e9ee 0627 c7d0 9ba7 e0a8 85a6
00000130: b511 6aa6 08bd 83a7 0a81 6a27 faaa 5aa7
00000140: f5a9 61a7 16d4 2ea7 b753 9026 9988 52a7
00000150: c8f1 3da7 3a3f 6a26 16e9 baa6 3ffb a126
00000160: 56ba 4ca7 e2d7 5da6 5666 46a7 bc84 10a7
00000170: 797c 5f27 50ca 3426 b26b 94a7 5f6c 94a7
00000180: a2b9 2427 30b1 53a7 e09a 9326 461c 77a7
00000190: a21b 6d27 9568 a7a7 c51a 50a6 82c4 3027
000001a0: 322c 8a26 6938 3fa6 e45c 77a7 2408 9926
000001b0: 2a96 a826 6809 4927 f00b ada7 1071 7aa7
000001c0: 1bbf 6ba7 ff3e a5a7 9ed0 8b26 d3af 92a6
000001d0: 9426 ff26 5b25 8026 0484 a226 8d76 5fa7
000001e0: 2223 ada7 22e4 69a7 5ab4 8fa6 dd8b 30a6
000001f0: 6e37 7726 d34a 68a6 dc72 a126 9646 5fa6
00000200: 00c2 6fa6 1254 8c26 8bef 5926 15ac 7127
00000210: 64cd 8726 a5c5 68a6 8f49 9626 95ff 8426
00000220: 739e a6a6 aab3 70a6 52ba 59a6 8434 6826
00000230: db77 18a6 4e22 65a7 770d 4a23 86e9 8aa7
00000240: 220d 89a6 36d4 caa5 f4df 4fa7 c69e 60a7
00000250: f7c7 68a7 bb03 68a7 aed5 9326 2a2e 65a7
00000260: 0798 60a2 1b7c c5a6 2c5f 70a7 d717 5426
00000270: f433 69a7 cd54 67a7 a5b4 4ba6 4fbf 4ba6
00000280: 87d0 5ea7 dad6 58a7 15b0 83a6 e9c6 7aa7
00000290: 68ea 7fa7 ca21 6ba7 f301 c4a7 8d99 9426
000002a0: ea73 65a7 b0c2 a7a6 32b2 9726 95b0 b726
000002b0: 0ace 5227 f57e c5a7 0c7a 9da6 2d70 a026
000002c0: 310f 4626 caa6 6827 f005 4327 522e b2a7
000002d0: 2958 2ca7 ec9d 99a6 f12d a9a7 4d68 5d27
000002e0: e160 1226 bd00 a226 f382 ada7 a5b8 e8a6
000002f0: baf3 57a7 3700 6126 a2bb b1a7 e944 5ea7
00000300: 9bff 39a7 2215 8da6 368c 8f26 27a8 81a6
00000310: 23a8 5926 791f 5126 33a0 6e27 a35d 8526
00000320: ea18 66a6 dd41 51a7 6283 91a6 2eda 8a26
00000330: 4c95 6a27 e691 43a7 4249 54a6 6734 92a7
00000340: 79c0 d8a6 6e2a 55a7 f2f8 6626 eaaa 7f27
00000350: 6c5a 7aa6 15de 68a7 198b 5ea7 f31a dda6
00000360: ca11 94a6 fcd0 51a6 826d 9426 8afc 44a7
00000370: e105 66a6 f97c 3b26 77a9 43a7 ae03 c6a6
00000380: 63e8 39a7 62ba 9026 23c5 72a7 001e 73a7
00000390: 166b 65a6 a707 76a7 2abd 3ea6 7982 8aa7
000003a0: 39b5 63a7 03af 80a7 9fcf 64a7 58ef f526
000003b0: 0079 6fa7 3b08 35a7 06d7 3326 402d 9c26
000003c0: dfe1 aaa7 b75a 67a7 ee59 30a7 e08e 6e27
000003d0: 8ce0 74a7 054e 5d26 c68c 56a7 cc04 6c27
000003e0: 5649 6727 ece8 9aa6 22a6 b4a7 81e6 6da7
000003f0: ce1d d225 11a2 e025 4c25 3e26 1aaa 7227

fc2.bias f4 [50]
-3.0100273e-15 -2.5073257e-15 2.263535e-15 0.9884084 2.4741835e-15 2.9840467e-15 2.812609e-15 0.9883323
0.98794883 6.7125063e-16 0.98844564 0.98795253 0.9884559 2.9097917e-15 0.9883971 -3.0393744e-15
-3.206521e-15 0.98841894 -3.2735543e-15 3.007037e-15 0.98844886 0.98824036 -2.967949e-15 -3.0008308e-15
0.988482 0.9890909 -1.4880542e-15 0.98823375 3.165639e-15 2.0066911e-15 0.98831886 -2.1703369e-15
0.9885361 -3.4475308e-15 0.9883649 0.9883625 -3.4878538e-15 -3.1133755e-15 -2.9720715e-15 -3.2090754e-15
0.98847073 2.693708e-15 -3.1136211e-15 2.9864264e-15 -3.0472402e-15 1.0089094e-15 0.9879408 2.5556267e-15
2.911058e-15 0.98832834
00000000: 34e5 58a7 ffab 34a7 da1a 2327 5508 7d3f
00000010: a148 3227 f205 5727 7aab 4a27 5803 7d3f
00000020: 37ea 7c3f 8e79 4126 c60a 7d3f 75ea 7c3f
00000030: 720b 7d3f 2fac 5127 9807 7d3f 9002 5ba7
00000040: df0d 67a7 0609 7d3f 6be2 6ba7 0bae 5827
00000050: fc0a 7d3f 52fd 7c3f ffdc 55a7 8f3b 58a7
00000060: 280d 7d3f 1035 7d3f 8373 d6a6 e3fc 7c3f
00000070: bc1b 6427 eb98 1027 7702 7d3f a663 1ca7
00000080: b410 7d3f b86b 78a7 7b05 7d3f 5305 7d3f
00000090: 8c53 7ba7 a457 60a7 0b29 56a7 fe3c 67a7
000000a0: 6b0c 7d3f 241a 4227 2c5c 60a7 d831 5727
000000b0: a993 5ba7 3066 9126 b0e9 7c3f fe26 3827
000000c0: 8bc3 5127 1603 7d3f

fc3.weight f4 [5, 50]
-1.9074174e-15 4.1010654e-15 -1.6614395e-15 1.2454368e-15 -1.88768e-15 4.2491137e-15 3.593436e-15 8.0843233e-16
-3.9082854e-15 -1.1167124e-15 -2.6008505e-15 -4.9892506e-15 -1.5883489e-15 3.82393e-15 3.1681142e-16 3.8161896e-15
4.6763325e-15 -4.5481976e-15 4.1615135e-15 4.1202694e-15 -3.906056e-15 -8.8244957e-16 3.729292e-15 2.786802e-15
1.3162607e-15 -5.1796903e-15 -1.9777948e-15 -1.289806e-15 4.1688755e-15 -1.4030545e-15 5.1311107e-16 2.7992563e-15
-4.0257193e-15 -1.0585453e-15 7.404246e-16 -1.9028538e-15 -1.7088884e-15 -5.999528e-16 4.8439244e-15 1.0805013e-15
5.9760387e-16 -1.5605418e-15 4.2620568e-15 4.3544693e-15 3.642062e-15 -2.5549654e-15 -5.2124413e-15 -1.5561346e-15
4.566009e-15 -8.4965557e-16 -1.9740653e-15 3.9020606e-15 -1.8676655e-15 -7.585939e-16 -1.4604891e-15 4.803295e-15
4.9534275e-15 -2.6255078e-16 -4.7442413e-15 -1.7584743e-15 -4.6920314e-15 -4.876503e-15 1.566556e-15 4.706537e-15
6.9479106e-16 4.809415e-15 3.852816e-15 -4.35391e-15 -1.5696312e-15 4.3288428e-15 -3.972083e-15 5.986979e-16
3.8609176e-15 1.5462405e-15 -1.3737041e-15 -3.820847e-15 -1.0671004e-15 -1.2802823e-15 4.3679935e-15 -1.8562752e-15
-2.709222e-16 4.0676026e-15 -5.1018577e-15 -7.227415e-16 -1.5127431e-15 -1.5151537e-15 -9.861463e-16 1.8424006e-15
3.638559e-15 2.7747725e-16 4.2921375e-16 -1.764987e-15 3.968078e-15 3.931659e-15 4.061369e-15 -1.1198125e-15
-4.525924e-15 -1.1684221e-15 4.8324115e-15 1.2736449e-15 5.729299e-15 5.72009e-15 4.513891e-15 -1.8845731e-15
5.1817126e-15 1.2139067e-15 4.497173e-15 -4.480032e-15 -1.9635172e-15 4.090534e-15 -2.0678368e-15 -2.4708578e-15
-4.9409003e-15 1.3253811e-15 -4.065916e-15 1.2171593e-15 1.786097e-15 -1.9396805e-15 5.4378613e-15 4.4653815e-15
-1.936172e-15 -4.0548352e-15 1.4897642e-16 5.5272538e-15 -1.988394e-15 -2.3090025e-15 4.8486427e-15 -1.1146745e-15
2.7273781e-15 5.3594112e-15 -1.9263613e-15 5.635605e-15 -2.2279006e-15 5.3328906e-15 -5.196548e-15 -1.869237e-15
4.8386346e-15 4.6226285e-15 1.953819e-15 4.487772e-15 -3.3877741e-15 5.2472425e-15 5.2641217e-15 4.8040977e-15
-1.2238518e-15 4.5743375e-15 -2.2366055e-15 5.4345905e-15 2.666753e-15 -3.9401546e-15 -0.98243004 -0.9824298
-0.9824303 1.9176434 -0.9824303 -0.98242974 -0.9824298 1.9175729 1.9169995 -0.98243034
1.9178342 1.9172477 1.9177122 -0.9824302 1.9176162 -0.9824301 -0.9824305 1.9178239
-0.98242927 -0.9824294 1.9178326 1.9174379 -0.9824303 -0.9824303 1.9178096 1.9183936
-0.98243076 1.9174163 -0.98243004 -0.9824291 1.91753 -0.9824302 1.9175804 -0.98243034
1.9175887 1.917567 -0.9824302 0.9824302 -0.98243046 -0.9824297 1.9177467 -0.9824295
-0.98242974 -0.9824296 -0.9824299 -0.9824303 1.9172337 -0.98243 -0.9824294 1.9175279
2.1457003e-15 3.6541035e-15 1.3555269e-15 -3.0600778e-15 1.3728354e-15 4.489067e-15 2.1482767e-15 -3.15833e-15
-4.69891e-15 1.6240056e-15 -4.5933013e-15 -3.595216e-15 -3.598684e-15 4.4999375e-15 -2.109706e-15 3.2412768e-15
4.3833633e-15 -4.3170648e-15 2.54003e-15 3.8015406e-15 -5.1585975e-15 -3.0309427e-15 3.820488e-15 1.9849825e-15
-4.686366e-15 -3.668497e-15 2.0952095e-15 -1.974963e-15 3.900796e-15 1.6297695e-15 -2.145969e-15 4.358124e-16
-4.276955e-15 1.0719394e-15 -2.8836116e-15 -3.2729414e-15 1.984673e-15 2.2248896e-15 3.882282e-15 1.4870698e-15
-2.3114396e-15 1.5252617e-15 1.6205161e-15 2.4829113e-15 3.7553477e-15 1.4580196e-15 -4.670358e-15 1.2902397e-15
1.3547084e-15 -3.2234567e-15
00000000: a471 09a7 a7c1 9327 4c70 efa6 827c b326
00000010: 8d05 08a7 2817 9927 9977 8127 c703 6926
00000020: 92cf 8ca7 6aef a0a6 3969 3ba7 b7c1 b3a7
00000030: bbe7 e4a6 87c5 8927 1da1 b625 237e 8927
00000040: 8e7b a827 b8dd a3a7 30ef 9527 c772 9427
00000050: 02bb 8ca7 4959 7ea6 a65c 8627 6ccf 4827
00000060: 73b1 bd26 369e baa7 e083 0ea7 71e1 b9a6
00000070: 1733 9627 9333 caa6 eae4 1326 2ab5 4927
00000080: b50a 91a7 6e8d 98a6 b169 5526 751d 09a7
00000090: db46 f6a6 b4ec 2ca6 5185 ae27 76b7 9b26
000000a0: 623f 2c26 d5e5 e0a6 898e 9927 e4e2 9c27
000000b0: 1838 8327 cb1a 38a7 49cc bba7 3c43 e0a6
000000c0: 0082 a427 84e5 74a6 143f 0ea7 2896 8c27
000000d0: 5994 06a7 5aa6 5aa6 8a7a d2a6 940e ad27
000000e0: 4e77 b227 a859 97a5 e7ed aaa7 406c fda6
000000f0: 5a0c a9a7 cdb1 afa7 b7c3 e126 2492 a927
00000100: 8842 4826 0647 ad27 f5cf 8a27 bbdd 9ca7
00000110: 2c35 e2a6 87f6 9b27 001c 8fa7 1c90 2c26
00000120: ae1a 8b27 35d6 de26 bcf8 c5a6 18a9 89a7
00000130: 0ec9 99a6 1482 b8a6 a15f 9d27 3cc2 05a7
00000140: 0f2d 9ca5 038d 9227 55d0 b7a7 e950 50a6
00000150: 5f02 daa6 4e5b daa6 601e 8ea6 4bc2 0427
00000160: c917 8327 6af4 9f25 c56c f725 875c fea6
00000170: 0ff7 8e27 27a7 8d27 8453 9227 ca61 a1a6
00000180: 4810 a3a7 2b63 a8a6 211b ae27 348d b726
00000190: 756b ce27 8516 ce27 4ca1 a227 3dcc 07a7
000001a0: ddb0 ba27 41f1 ae26 1a07 a227 0069 a1a7
000001b0: 807c 0da7 8460 9327 db00 15a7 480b 32a7
000001c0: c303 b2a7 ef01 bf26 757d 92a7 4169 af26
000001d0: adb3 0027 cac4 0ba7 6beb c327 e0e1 a027
000001e0: 1284 0ba7 4117 92a7 14c2 2b25 eb23 c727
000001f0: 6547 0fa7 9461 26a7 d6b0 ae27 3ba4 a0a6
00000200: 3f87 4427 d817 c127 18cf 0aa7 480b cb27
00000210: 8389 20a7 3c23 c027 b239 bba7 56b1 06a7
00000220: 8754 ae27 398c a627 99c9 0c27 64b0 a127
00000230: 671d 74a7 450d bd27 f4a8 bd27 fb15 ad27
00000240: 2960 b0a6 d1ce a427 172a 21a7 40cd c327
00000250: e928 4027 83f5 8da7 8980 7bbf 8580 7bbf
00000260: 8d80 7bbf 5775 f53f 8d80 7bbf 8480 7bbf
00000270: 8580 7bbf 0773 f53f 3d60 f53f 8e80 7bbf
00000280: 977b f53f 5f68 f53f 9877 f53f 8c80 7bbf
00000290: 7374 f53f 8a80 7bbf 9180 7bbf 417b f53f
000002a0: 7c80 7bbf 7e80 7bbf 8a7b f53f 9b6e f53f
000002b0: 8d80 7bbf 8d80 7bbf c97a f53f ec8d f53f
000002c0: 9580 7bbf e66d f53f 8980 7bbf 7980 7bbf
000002d0: 9f71 f53f 8c80 7bbf 4673 f53f 8e80 7bbf
000002e0: 8c73 f53f d672 f53f 8c80 7bbf 8c80 7b3f
000002f0: 9080 7bbf 8380 7bbf b978 f53f 8080 7bbf
00000300: 8480 7bbf 8280 7bbf 8780 7bbf 8d80 7bbf
00000310: ea67 f53f 8880 7bbf 7e80 7bbf 8e71 f53f
00000320: 2f9d 1a27 28a7 8327 1e5a c326 7980 5ca7
00000330: b0d8 c526 56bc a127 b6cc 1a27 e894 63a7
00000340: cc4b a9a7 3b0b ea26 ba7d a5a7 0488 81a7
00000350: 00a8 81a7 9920 a227 3505 18a7 018f 6927
00000360: 64ed 9d27 e589 9ba7 4907 3727 06f7 8827
00000370: aadb b9a7 0667 5aa7 c8a5 8927 7708 0f27
00000380: 19d8 a8a7 ea2b 84a7 cbf9 1627 a34f 0ea7
00000390: 7e8a 8c27 e2df ea26 24a2 1aa7 8f3a fb25
000003a0: f217 9aa7 957b 9a26 3fc9 4fa7 1dd7 6ba7
000003b0: c102 0f27 f851 2027 bbdf 8b27 314f d626
000003c0: 898e 26a7 39d0 db26 7e8a e926 a1e9 3227
000003d0: f84c 8727 6e1f d226 7344 a8a7 71f1 b926
000003e0: eb3b c326 4846 68a7

fc3.bias f4 [5]
-2.678611e-15 -2.2258976e-15 -4.011206e-15 1.0657345 3.1632886e-15
00000000: a703 41a7 9064 20a7 d884 90a7 fd69 883f
00000010: 60f0 6327

fc4.weight f4 [1, 5]
-1.062941 -1.0629398 -1.0629408 1.91727 -1.062941
00000000: 730e 88bf 690e 88bf 720e 88bf 1a69 f53f
00000010: 730e 88bf

bn1.weight f4 [500]
1.9339434 5.217083e-15 5.217083e-15 5.217083e-15 1.9362072 -1.0014293e-09 1.9369831 1.9449681
-1.5461512e-06 1.9429072 1.9435493 1.9336287 1.9433213 1.9443744 5.217083e-15 5.217083e-15
1.9316033 5.217083e-15 5.217083e-15 5.217083e-15 1.9429218 1.9415222 -2.9199713e-08 5.217083e-15
-3.091865e-08 -4.568967e-08 3.8298527e-08 5.217083e-15 5.217083e-15 1.9340594 -2.1418254e-08 1.9259006
1.9305183 1.9436322 5.217083e-15 1.9478987 1.9435691 1.9471601 1.9421353 1.9466125
1.9370375 -7.76637e-06 5.217083e-15 1.9452511 5.217083e-15 1.9314733 5.217083e-15 1.9285349
5.217083e-15 -5.1646274e-09 1.9268652 2.1029757e-05 5.217083e-15 -0.0010435034 1.9405948 1.9447857
5.217083e-15 1.9309567 1.9318011 1.9265555 -2.437689e-08 5.217083e-15 5.217083e-15 5.217083e-15
1.9423188 5.217083e-15 1.9316231 1.9324218 2.3611761e-08 1.9327971 5.217083e-15 1.9405127
1.944392 1.9474068 1.9310042 5.217083e-15 5.217083e-15 1.9269739 0.00019756495 -0.00038229418
1.9269775 -4.2166878e-08 5.217083e-15 -0.0005667246 6.9160784e-08 5.217083e-15 5.217083e-15 5.217083e-15
1.9401188 5.217083e-15 -2.610205e-08 2.0063402e-07 -9.12583e-08 5.217083e-15 1.9329648 1.9327717
1.9460332 -0.82756805 5.217083e-15 1.9329151 4.3279172e-08 1.9323305 5.217083e-15 5.217083e-15
5.217083e-15 5.217083e-15 1.9424232 5.217083e-15 5.217083e-15 1.9272205 1.934656 -0.87036484
1.9453908 1.9326676 5.217083e-15 5.217083e-15 -8.251269e-06 5.217083e-15 5.217083e-15 -2.6470843e-08
1.9319112 1.9407899 5.217083e-15 5.217083e-15 5.217083e-15 5.217083e-15 5.217083e-15 5.217083e-15
5.217083e-15 1.9214045 5.217083e-15 -0.83593744 5.217083e-15 5.217083e-15 5.217083e-15 5.217083e-15
5.217083e-15 5.217083e-15 5.217083e-15 5.217083e-15 5.217083e-15 1.9297043 1.866735e-05 1.943633
5.217083e-15 -2.4508967e-07 1.9328914 1.9345351 1.9408268 1.9261066 5.217083e-15 1.9352113
1.9222032 1.9479818 0.92466354 5.217083e-15 -0.87481344 1.9429471 5.217083e-15 5.217083e-15
-8.74265e-08 5.541302e-09 5.217083e-15 1.9480906 1.9472415 1.9440572 1.9390363 5.217083e-15
-0.86384195 5.217083e-15 5.217083e-15 5.217083e-15 1.9429361 1.9396756 5.217083e-15 5.217083e-15
5.217083e-15 -0.8646563 -7.789518e-08 1.9364178 1.933654 5.217083e-15 1.9337082 1.9270288
5.217083e-15 5.217083e-15 1.9313365 5.217083e-15 1.9399917 5.217083e-15 1.9413368 1.93204
1.9263968 5.217083e-15 5.217083e-15 5.217083e-15 5.217083e-15 5.217083e-15 -1.00491535e-08 5.217083e-15
5.217083e-15 -9.013093e-09 5.217083e-15 5.217083e-15 1.9413173 2.4725397e-08 5.217083e-15 1.9276634
5.217083e-15 1.9303856 5.217083e-15 0.857245 5.217083e-15 1.932793 1.9375485 5.4441117e-08
5.217083e-15 5.217083e-15 5.217083e-15 1.9322582 5.217083e-15 5.217083e-15 1.9493835 5.217083e-15
-5.4947327e-09 5.217083e-15 1.9446127 1.9433199 5.217083e-15 1.9442223 5.217083e-15 1.9297024
1.9349458 1.9445461 -0.83978015 1.9509516 -6.7811254e-09 -1.5357116e-09 5.217083e-15 5.217083e-15
1.1283607e-06 3.4123725e-05 1.9275974 1.0932311e-07 1.9355173 5.217083e-15 1.9409198 1.3197074e-05
4.3394856e-08 5.217083e-15 1.9322553 1.9288148 1.950069 1.9480647 5.217083e-15 2.717963e-06
00000000: 758b f73f 19f7 bb27 19f7 bb27 19f7 bb27
00000010: a3d5 f73f a9a2 89b0 10ef f73f b7f4 f83f
00000020: 5a85 cfb5 2fb1 f83f 39c6 f83f 2581 f73f
00000030: c1be f83f 43e1 f83f 19f7 bb27 19f7 bb27
00000040: c73e f73f 19f7 bb27 19f7 bb27 19f7 bb27
00000050: a9b1 f83f cd83 f83f d9d2 fab2 19f7 bb27
00000060: 6acb 04b3 533c 44b3 ad7d 2433 19f7 bb27
00000070: 19f7 bb27 428f f73f 3dfb b7b2 e983 f63f
00000080: 391b f73f f1c8 f83f 19f7 bb27 bf54 f93f
00000090: dfc6 f83f 8b3c f93f e497 f83f 992a f93f
000000a0: d8f0 f73f 4e4c 02b7 19f7 bb27 fdfd f83f
000000b0: 19f7 bb27 843a f73f 19f7 bb27 3bda f63f
000000c0: 19f7 bb27 8b74 b1b1 85a3 f63f 0f69 b037
000000d0: 19f7 bb27 2ac6 88ba 6965 f83f bdee f83f
000000e0: 19f7 bb27 9729 f73f 4245 f73f 5f99 f63f
000000f0: 5965 d1b2 19f7 bb27 19f7 bb27 19f7 bb27
00000100: e79d f83f 19f7 bb27 6d3f f73f 9959 f73f
00000110: d0d2 ca32 e565 f73f 19f7 bb27 b862 f83f
00000120: d6e1 f83f a044 f93f 252b f73f 19f7 bb27
00000130: 19f7 bb27 15a7 f63f 7029 4f39 a86e c8b9
00000140: 33a7 f63f f91a 35b3 19f7 bb27 3e90 14ba
00000150: 8b85 9433 19f7 bb27 19f7 bb27 19f7 bb27
00000160: d055 f83f 19f7 bb27 0437 e0b2 dc6d 5734
00000170: c8f9 c3b3 19f7 bb27 646b f73f 1065 f73f
00000180: 9e17 f93f 80db 53bf 19f7 bb27 c369 f73f
00000190: f4e1 3933 9b56 f73f 19f7 bb27 19f7 bb27
000001a0: 19f7 bb27 19f7 bb27 53a1 f83f 19f7 bb27
000001b0: 19f7 bb27 29af f63f cfa2 f73f 3bd0 5ebf
000001c0: 9102 f93f a761 f73f 19f7 bb27 19f7 bb27
000001d0: ee6e 0ab7 19f7 bb27 19f7 bb27 0062 e3b2
000001e0: de48 f73f ce6b f83f 19f7 bb27 19f7 bb27
000001f0: 19f7 bb27 19f7 bb27 19f7 bb27 19f7 bb27
00000200: 19f7 bb27 95f0 f53f 19f7 bb27 ffff 55bf
00000210: 19f7 bb27 19f7 bb27 19f7 bb27 19f7 bb27
00000220: 19f7 bb27 19f7 bb27 19f7 bb27 19f7 bb27
00000230: 19f7 bb27 8d00 f73f d497 9c37 f7c8 f83f
00000240: 19f7 bb27 de94 83b4 fc68 f73f d99e f73f
00000250: 036d f83f a98a f63f 19f7 bb27 01b5 f73f
00000260: c10a f63f 7857 f93f c0b6 6c3f 19f7 bb27
00000270: c6f3 5fbf 7eb2 f83f 19f7 bb27 19f7 bb27
00000280: 3abf bbb3 cf65 be31 19f7 bb27 085b f93f
00000290: 363f f93f ded6 f83f 5732 f83f 19f7 bb27
000002a0: bf24 5dbf 19f7 bb27 19f7 bb27 19f7 bb27
000002b0: 21b2 f83f 4a47 f83f 19f7 bb27 19f7 bb27
000002c0: 19f7 bb27 1e5a 5dbf 5447 a7b3 8adc f73f
000002d0: f981 f73f 19f7 bb27 c083 f73f e1a8 f63f
000002e0: 19f7 bb27 19f7 bb27 0936 f73f 19f7 bb27
000002f0: a651 f83f 19f7 bb27 b97d f83f 164d f73f
00000300: 2c94 f63f 19f7 bb27 19f7 bb27 19f7 bb27
00000310: 19f7 bb27 19f7 bb27 a5a4 2cb2 19f7 bb27
00000320: 19f7 bb27 01d8 1ab2 19f7 bb27 19f7 bb27
00000330: 167d f83f b963 d432 19f7 bb27 adbd f63f
00000340: 19f7 bb27 e016 f73f 19f7 bb27 6974 5b3f
00000350: 19f7 bb27 c365 f73f 9701 f83f a4d2 6933
00000360: 19f7 bb27 19f7 bb27 19f7 bb27 3d54 f73f
00000370: 19f7 bb27 19f7 bb27 6685 f93f 19f7 bb27
00000380: 2ecc bcb1 19f7 bb27 12e9 f83f b5be f83f
00000390: 19f7 bb27 47dc f83f 19f7 bb27 7d00 f73f
000003a0: 4eac f73f e3e6 f83f d5fb 56bf c8b8 f93f
000003b0: 69ff e8b1 0c11 d3b0 19f7 bb27 19f7 bb27
000003c0: 2e72 9735 1220 0f38 83bb f63f 04c5 ea33
000003d0: 08bf f73f 19f7 bb27 0f70 f83f 0069 5d37
000003e0: 2661 3a33 19f7 bb27 2454 f73f 67e3 f63f
000003f0: dc9b f93f 2f5a f93f 19f7 bb27 4066 3636

bn1.bias f4 [500]
0.94959205 -1.5583673e-11 5.795018e-06 -8.4766594e-05 0.9495984 -3.2230466e-10 0.94955546 0.94953114
1.5822654e-06 0.94949675 0.94951195 0.94954914 0.94952005 0.9495262 -0.86420727 -1.5871209e-11
0.9495399 5.4008208e-11 -3.9468715e-12 -2.1190313e-11 0.9495355 0.949513 -9.634509e-10 -3.5499867e-12
-8.061041e-09 -1.543593e-08 1.5422306e-09 -1.8486601e-12 1.7228874e-10 0.94958395 -4.9281197e-09 0.9495821
0.9495199 0.94952565 -1.4081012e-09 0.9495563 0.949513 0.94950986 0.9495188 0.94954705
0.94956356 7.83776e-06 3.0334533e-07 0.94953513 4.4761487e-07 0.94953966 7.967984e-12 0.94957453
1.7456845e-11 -1.1999353e-09 0.94957566 -2.0920628e-05 -0.9643043 0.001043576 0.9494354 0.94953483
-6.8491896e-12 0.9495295 0.9495925 0.94957954 -6.2875385e-09 3.9370057e-12 -2.1111697e-05 0.00037160836
0.9495249 0.93622273 0.9495366 0.94958496 1.685822e-08 0.94958574 -0.84878737 0.9494302
0.94953924 0.9495097 0.94953966 -5.9839217e-12 -4.0542e-07 0.9495558 -0.00019743593 0.00038224924
0.94948107 -5.202334e-08 -2.977453e-12 0.0005666051 -1.9428738e-08 3.5411611e-09 2.0346957e-10 1.4069284e-12
0.94956404 -4.6103885e-09 -2.1734454e-08 -2.1693131e-07 7.559915e-08 -0.8660965 0.9495858 0.9495441
0.9495068 0.8275691 4.6659265e-12 0.9495361 1.0538567e-08 0.94957864 7.729998e-09 -1.0615064e-08
3.546933e-11 1.1968826e-10 0.94953233 2.7141762e-09 -0.85441047 0.94952136 0.9495943 0.8703661
0.9495235 0.94954014 3.1873526e-10 0.00417114 8.217355e-06 1.7211488e-10 -1.716596e-12 -9.8526405e-09
0.9495449 0.94944453 -7.4779234e-13 0.8639636 -0.89252245 -4.824175e-11 0.0009481739 1.0637337e-12
-0.0009319134 0.9494213 3.045936e-13 0.8359375 -1.4610371e-09 5.8120193e-12 6.159424e-06 3.889446e-09
8.203251e-12 -0.0006265724 -5.219848e-14 1.2337264e-08 1.9682044e-05 0.949594 -1.869944e-05 0.94951123
-3.458633e-05 1.5465017e-07 0.9495396 0.9495508 0.9494457 0.94951606 -9.397044e-12 0.949559
0.9494271 0.94950503 -0.9246629 -1.2990292e-11 0.8748139 0.94951755 1.6595451e-12 0.828491
-2.3364283e-08 1.686595e-10 0.0005219551 0.9495642 0.94953024 0.9495137 0.94960827 -0.87349516
0.8638423 2.545542e-08 -6.3381904e-12 -3.9992694e-09 0.94952136 0.9496145 0.8880419 -1.6267254e-09
-2.4300434e-06 0.8646564 1.0591088e-07 0.94955575 0.94959015 9.297363e-10 0.94957703 0.94949096
-3.2634125e-05 -9.321212e-08 0.9495809 -0.9223759 0.9495693 -9.4317665e-11 0.94958496 0.9495357
0.94949675 -0.0005259095 -8.0507356e-10 -1.1833951e-12 8.9871947e-13 -3.917985e-12 4.8265374e-08 -7.480153e-12
-2.7260612e-06 -2.2884403e-09 1.3728571e-07 1.2998261e-12 0.94948035 6.398343e-09 2.8411187e-06 0.94956595
3.1536772e-12 0.9495326 8.743198e-13 -0.85724515 -1.5552148e-09 0.94954157 0.9495613 8.716846e-10
-7.0638106e-11 0.0009933468 1.2562765e-11 0.9495399 2.6726003e-11 -3.2900635e-13 0.9495127 -0.0010298165
-1.9929889e-09 0.86356145 0.9495276 0.9495175 0.8412617 0.949539 -2.396357e-12 0.94948494
0.949591 0.94953173 0.8397809 0.94956714 -3.248189e-09 2.5045886e-11 1.6187371e-11 -3.4687524e-09
-9.905291e-07 -3.4098593e-05 0.9495739 2.8575498e-08 0.9495921 7.530547e-12 0.9494627 -1.3249548e-05
1.2158939e-08 0.8801087 0.9495827 0.9497818 0.9495145 0.94951403 1.0516628e-09 -2.7428468e-06
00000000: 7718 733f 5013 89ad d372 c236 b8c4 b1b8
00000010: e118 733f 5930 b1af 1116 733f 7914 733f
00000020: 3a5e d435 3812 733f 3713 733f a715 733f
00000030: bf13 733f 2614 733f b03c 5dbf c99a 8bad
00000040: 0c15 733f d687 6d2e 42de 8aac 5864 baad
00000050: c214 733f 4913 733f 6a6a 84b0 e0ce 79ac
00000060: d57c 0ab2 f897 84b2 6af6 d330 8016 02ac
00000070: f86e 3d2f ef17 733f 3354 a9b1 d017 733f
00000080: bc13 733f 1d14 733f 2887 c1b0 1f16 733f
00000090: 4913 733f 1413 733f aa13 733f 8415 733f
000000a0: 9916 733f ec7e 0337 77db a234 bc14 733f
000000b0: b84f f034 0815 733f 9c2c 0c2d 5117 733f
000000c0: 528d 992d f8ea a4b0 6417 733f b57e afb7
000000d0: a6dc 76bf 9ac8 883a 330e 733f b714 733f
000000e0: 04fc f0ac 5e14 733f 7e18 733f a517 733f
000000f0: c609 d8b1 6585 8a2c 0619 b1b7 6ed4 c239
00000100: 1014 733f 4bac 6f3f d514 733f 0018 733f
00000110: 9ecf 9032 0d18 733f 214a 59bf dc0d 733f
00000120: 0115 733f 1113 733f 0815 733f 608a d2ac
00000130: 80a8 d9b4 1716 733f ce06 4fb9 a068 c839
00000140: 3111 733f 4470 5fb3 0685 51ac 3988 143a
00000150: 3fe4 a6b2 c458 7331 98b7 5f2f f001 c62b
00000160: a116 733f 6869 9eb1 92b2 bab2 a0ed 68b4
00000170: 1259 a233 80b8 5dbf 0e18 733f 5215 733f
00000180: e112 733f 92db 533f ee2a a42c cc14 733f
00000190: 1c0d 3532 9617 733f e4cc 0432 8c5d 36b2
000001a0: eafe 1b2e 4099 032f 8d14 733f 4b84 3a31
000001b0: a5ba 5abf d513 733f 9d18 733f 50d0 5e3f
000001c0: f913 733f 1015 733f 003a af2f 0fae 883b
000001d0: 45dd 0937 083e 3d2f e496 f1ab 5f44 29b2
000001e0: 6015 733f cc0e 733f 1e7c 52ab b82c 5d3f
000001f0: 5a7c 64bf 622b 54ae e08e 783a 0cb5 952b
00000200: a64b 74ba 460d 733f 9078 ab2a 0000 563f
00000210: accd c8b0 047e cc2c 0dad ce36 eea3 8531
00000220: 2850 102d 9040 24ba c014 6ba9 dcf3 5332
00000230: de1a a537 9818 733f bedc 9cb7 2b13 733f
00000240: ca10 11b8 ea0d 2634 0715 733f c315 733f
00000250: e00e 733f 7c13 733f 8650 25ad 4c16 733f
00000260: a80d 733f c312 733f b5b6 6cbf 1387 64ad
00000270: cef3 5f3f 9513 733f 6a8f e92b fc17 543f
00000280: 9ab2 c8b2 6e71 392f d0d3 083a a416 733f
00000290: 6a14 733f 5413 733f 8719 733f 619d 5fbf
000002a0: c524 5d3f 10a9 da32 5801 dfac f269 89b1
000002b0: d513 733f f019 733f b756 633f 5093 dfb0
000002c0: d413 23b6 1f5a 5d3f 1f71 e333 1616 733f
000002d0: 5718 733f 6090 7f30 7b17 733f d711 733f
000002e0: a0e0 08b8 e82b c8b3 bc17 733f d420 6cbf
000002f0: f916 733f 2068 cfae 0018 733f c614 733f
00000300: 3812 733f 30dd 09ba 044c 5db0 4d8c a6ab
00000310: 90f7 7c2b 12da 89ac 574c 4f33 9d97 03ad
00000320: 60f1 36b6 ab42 1db1 cf68 1334 2cef b62b
00000330: 2511 733f 6cd8 db31 0caa 3e36 c116 733f
00000340: 99eb 5d2c 9214 733f 6219 762b 6b74 5bbf
00000350: 42bf d5b0 2815 733f 7316 733f 5a9b 6f30
00000360: b855 9bae 3033 823a aa01 5d2d 0c15 733f
00000370: 9c15 eb2d d036 b9aa 4413 733f e8fa 86ba
00000380: 08f5 08b1 5d12 5d3f 3e14 733f 9413 733f
00000390: ed5c 573f fd14 733f eea0 28ac 7211 733f
000003a0: 6518 733f 8314 733f e2fb 563f d516 733f
000003b0: bf36 5fb1 524e dc2d b862 8e2d f05e 6eb1
000003c0: 52f2 84b5 1605 0fb8 4617 733f 2f76 f532
000003d0: 7818 733f 927a 042d fd0f 733f 604a 5eb7
000003e0: 94e3 5032 ce4e 613f da17 733f e624 733f
000003f0: 6213 733f 5a13 733f 188a 9030 c011 38b6

bn1.running_mean f4 [500]
13691.448 0.0 0.0 0.0 15877.558 712.1587 17090.188 24368.586
867.42554 21603.201 22258.727 13919.42 22907.13 23170.355 0.0 0.0
12055.789 0.0 0.0 0.0 22017.701 21118.234 0.052314367 0.0
781.7464 2056.1387 0.7732772 0.0 0.0 13864.792 986.2454 6232.0737
10174.398 23152.68 0.0 26966.607 22339.266 25490.639 21768.432 25896.963
17156.295 1166.4075 0.0 24721.598 0.0 11923.557 0.0 8643.284
0.0 135.60403 7159.956 267.39246 0.0 233.22354 20943.445 23546.23
0.0 10683.949 11725.996 6889.7144 780.0862 0.0 0.0 0.0
21807.799 0.0 12030.099 12343.909 853.9425 12719.195 0.0 20890.873
23781.137 25740.877 11531.412 0.0 0.0 7183.9297 521.06866 316.70038
7716.796 3173.2678 0.0 866.5271 562.004 0.0 0.0 0.0
19343.469 0.0 342.67105 534.24384 423.8072 0.0 12717.841 13125.958
24468.371 460.5902 0.0 13274.068 236.6717 12326.28 0.0 0.0
0.0 0.0 21559.037 0.0 0.0 7797.0522 14381.277 10154.265
24013.145 13064.947 0.0 0.0 0.018627264 0.0 0.0 3650.3052
12263.4 20874.781 0.0 0.0 0.0 0.0 0.0 0.0
0.0 2537.0615 0.0 872.9443 0.0 0.0 0.0 0.0
0.0 0.0 0.0 0.0 0.0 9764.745 0.2284772 22341.75
0.0 15179.392 13347.947 14862.738 20879.78 6853.07 0.0 15462.195
3094.9968 26227.775 39.576443 0.0 561.62946 22537.709 0.0 0.0
189.68011 0.47521892 0.0 27267.764 25680.027 22788.014 18481.756 0.0
0.5458172 0.0 0.0 0.0 22471.281 19073.52 0.0 0.0
0.0 894.8935 615.6323 16609.566 13459.199 0.0 13392.624 7753.9287
0.0 0.0 11298.073 0.0 19902.326 0.0 21102.627 12470.568
7030.9033 0.0 0.0 0.0 0.0 0.0 237.39584 0.0
0.0 311.9986 0.0 0.0 21225.463 795.7979 0.0 7852.4937
0.0 10867.373 0.0 268.98334 0.0 13176.015 17656.887 0.06307807
0.0 0.0 0.0 12691.438 0.0 0.0 27492.69 0.0
2940.2861 0.0 24091.928 22150.848 0.0 23411.574 0.0 10109.746
14641.0205 23243.863 908.2872 29864.012 6866.665 0.003083674 0.0 0.0
482.92532 455.2382 7757.591 330.57852 15119.1875 0.0 20912.98 215.308
1091.8842 0.0 12218.452 10675.634 28152.633 26323.217 0.0 97.05937
00000000: cbed 5546 0000 0000 0000 0000 0000 0000
00000010: 3b16 7846 280a 3244 6084 8546 2c61 be46
00000020: 3cdb 5844 67c6 a846 74e5 ad46 ae7d 5946
00000030: 43f6 b246 b604 b546 0000 0000 0000 0000
00000040: 285f 3c46 0000 0000 0000 0000 0000 0000
00000050: 6703 ac46 78fc a446 9747 563d 0000 0000
00000060: c56f 4344 3882 0045 7ff5 453f 0000 0000
00000070: 0000 0000 2ba3 5846 b58f 7644 97c0 c245
00000080: 98f9 1e46 5ce1 b446 0000 0000 37ad d246
00000090: 8886 ae46 4725 c746 dd10 aa46 ed51 ca46
000000a0: 9708 8646 0acd 9144 0000 0000 3223 c146
000000b0: 0000 0000 3a4e 3a46 0000 0000 230d 0746
000000c0: 0000 0000 a29a 0743 a6bf df45 3cb2 8543
000000d0: 0000 0000 3a39 6943 e49e a346 76f4 b746
000000e0: 0000 0000 ccef 2646 fc37 3746 b74d d745
000000f0: 8405 4344 0000 0000 0000 0000 0000 0000
00000100: 995f aa46 0000 0000 65f8 3b46 a3df 4046
00000110: 527c 5544 c8bc 4646 0000 0000 bf35 a346
00000120: 46ca b946 c119 c946 a62d 3446 0000 0000
00000130: 0000 0000 707f e045 6544 0244 a659 9e43
00000140: 5e26 f145 4954 4645 0000 0000 bca1 5844
00000150: 4280 0c44 0000 0000 0000 0000 0000 0000
00000160: f01e 9746 0000 0000 e555 ab43 9b8f 0544
00000170: 52e7 d343 0000 0000 5db7 4646 d517 4d46
00000180: be28 bf46 8c4b e643 0000 0000 4668 4f46
00000190: f5ab 6c43 1f99 4046 0000 0000 0000 0000
000001a0: 0000 0000 0000 0000 136e a846 0000 0000
000001b0: 0000 0000 6ba8 f345 1cb5 6046 0fa9 1e46
000001c0: 4a9a bb46 ca23 4c46 0000 0000 0000 0000
000001d0: 3498 983c 0000 0000 0000 0000 e224 6445
000001e0: 9a9d 3f46 9015 a346 0000 0000 0000 0000
000001f0: 0000 0000 0000 0000 0000 0000 0000 0000
00000200: 0000 0000 fc90 1e45 0000 0000 6f3c 5a44
00000210: 0000 0000 0000 0000 0000 0000 0000 0000
00000220: 0000 0000 0000 0000 0000 0000 0000 0000
00000230: 0000 0000 fb92 1846 edf5 693e 808b ae46
00000240: 0000 0000 912d 6d46 ca8f 5046 f43a 6846
00000250: 8f1f a346 8f28 d645 0000 0000 c898 7146
00000260: f36f 4145 8de7 cc46 474e 1e42 0000 0000
00000270: 4968 0c44 6b13 b046 0000 0000 0000 0000
00000280: 1cae 3d43 e54f f33e 0000 0000 8707 d546
00000290: 0ea0 c846 0708 b246 8363 9046 0000 0000
000002a0: adba 0b3f 0000 0000 0000 0000 0000 0000
000002b0: 908e af46 0a03 9546 0000 0000 0000 0000
000002c0: 0000 0000 2fb9 5f44 78e8 1944 22c3 8146
000002d0: cc4c 5246 0000 0000 7f42 5146 6e4f f245
000002e0: 0000 0000 0000 0000 4b88 3046 0000 0000
000002f0: a77c 9b46 0000 0000 41dd a446 46da 4246
00000300: 3ab7 db45 0000 0000 0000 0000 0000 0000
00000310: 0000 0000 0000 0000 5665 6d43 0000 0000
00000320: 0000 0000 d2ff 9b43 0000 0000 0000 0000
00000330: edd2 a546 11f3 4644 0000 0000 f363 f545
00000340: 0000 0000 7ecd 2946 0000 0000 de7d 8643
00000350: 0000 0000 0fe0 4d46 c6f1 8946 132f 813d
00000360: 0000 0000 0000 0000 0000 0000 c14d 4646
00000370: 0000 0000 0000 0000 61c9 d646 0000 0000
00000380: 94c4 3745 0000 0000 db37 bc46 b20d ad46
00000390: 0000 0000 26e7 b646 0000 0000 fcf6 1d46
000003a0: 15c4 6446 ba97 b546 6112 6344 0650 e946
000003b0: 5295 d645 7717 4a3b 0000 0000 0000 0000
000003c0: 7176 f143 7d9e e343 ba6c f245 0d4a a543
000003d0: c03c 6c46 0000 0000 f661 a346 d94e 5743
000003e0: 4b7c 8844 0000 0000 cfe9 3e46 89ce 2646
000003f0: 44f1 db46 6fa6 cd46 0000 0000 661e c242
