Results/NN_MLP_MLs/MLP_Ensemble/Model_Results/AGTwRD/test10_ensemblesize10/best_model_7.pt (torch, 74525 bytes, 20 tensors)

country_embedding.weight f4 [8, 2]
00000000: 21fa 2e41 11fa 2ec1 38b0 2b41 2ab0 2bc1
00000010: 0918 18c2 fe17 1842 34a2 3841 23a2 38c1
00000020: ecb2 ed40 dab2 edc0 0cb8 7941 fab7 79c1
00000030: c2f7 bb40 b5f7 bbc0 3b06 f63f 3006 f6bf
10.936067 -10.936051 10.730522 -10.730509 -38.02347 38.02343 11.5396 -11.539584
7.428091 -7.4280825 15.607433 -15.607416 5.873994 -5.8739877 1.9220651 -1.9220638

fc1.weight f4 [200, 57]
00000000: 5d5b 45b2 8af2 20b2 5c1c 40b2 a06a 49b2
00000010: 131a 48b2 c84f 25b2 9912 1fb2 b6ad 3cb2
00000020: c674 28b2 3ebf 34b2 bc8f 32b2 ff93 3fb2
00000030: 32f4 4bb2 4340 3ab2 2caa 41b2 e6c6 66b2
00000040: e20d 1ab2 9aea 49b2 58b6 c125 ffd9 18b2
00000050: 809f 37b2 d6f6 4bb2 8183 40b2 5948 13b2
00000060: e98d 17b2 3833 3fb2 ea4b 26b2 ecdb 2cb2
00000070: 08d6 1cb2 8542 37b2 4452 44b2 23b7 2cb2
00000080: 847e 32b2 e7b3 51b2 831c 3ab2 c8a9 48b2
00000090: 9928 4426 7be3 16b2 abc2 3ab2 53fc 4db2
000000a0: 13dd 3fb2 3b8a 15b2 91e3 18b2 a818 43b2
000000b0: f3aa 27b2 cefc 2bb2 4dee 26b2 2d37 36b2
000000c0: 64e2 30b2 393a 2eb2 b705 38b2 0c22 51b2
000000d0: 5db6 3bb2 081c 49b2 292e 3223 f3b5 a331
000000e0: 849c aab1 34d6 d9a5 4c8d 3aa5 5271 3b26
000000f0: 3060 1225 f100 6024 47f7 8525 5ecf 41a5
00000100: 79ff 2926 b40e 22a6 07a0 5aa5 3f64 09a5
00000110: 9283 a3a5 4ab5 44a5 1048 f625 8e0b da25
00000120: f4c4 3024 d819 2d26 ad49 0ca6 19f6 eca5
00000130: bf8b b325 69e0 2aa4 6f11 35a6 7587 09a6
00000140: 2aeb f1a5 fb6e 1926 c9f6 b325 1ab6 1926
00000150: 08ed 13a6 54b8 41a6 5e4c 02a6 660d aa24
00000160: 05f9 1ca5 ce6c faa5 9fa4 1026 d926 80a5
00000170: 50d7 e5a5 d58f b725 a624 56a5 1157 fd25
00000180: 6f69 3d25 eadc 9c23 add8 2625 514d 15a6
00000190: 35a0 d4a5 d3c4 baa5 7edc e0a5 17ef 0c25
000001a0: 91c8 1e25 b51c a5a5 ca86 0126 3a1b dda5
000001b0: 5275 2025 2df2 62a5 795a 2ca6 af60 01a6
000001c0: e452 a225 a541 9d25 47ba f5a5 1fd6 77a5
000001d0: aebf 39a6 499d d525 46cf 2b26 abf4 8125
000001e0: 7fe2 f5a5 389b d125 b1e4 2426 0a99 22a5
000001f0: af48 02a5 308b 8925 fb7d cc24 4157 83a5
00000200: f275 38a6 0f53 0ba6 d729 2c24 ef89 2aa4
00000210: 5013 2426 279b d923 b9a4 4ca5 ce24 42a6
00000220: 61af 36a6 2213 a525 5afa 3026 28f2 40a3
00000230: f097 31a6 bd16 8d25 1cd5 2126 9b81 03a6
00000240: 8f40 51a5 ecaf 8524 69a0 e2a5 e13c 38a6
00000250: ccf7 ad25 980b 23a6 eb7e 47a5 7d01 d3a5
00000260: 3c6d 1526 0c75 1925 5749 b825 d28c 06a6
00000270: e970 2726 fca0 8d24 0a68 dca5 e3f7 4fa4
00000280: fbaf 0ca6 0ebf 12a4 56e7 dd25 e1a4 b2a5
00000290: acf3 2726 30aa 7225 2513 0ba5 9445 7825
000002a0: e16a 12a5 41b8 38a5 b85b 02a6 b38c e725
000002b0: 8c8c ee25 0611 8825 d306 eb25 fb80 4626
000002c0: d217 3b26 ffbe 3fa6 0a3a 3525 8c19 88a4
000002d0: b8ef 8625 8d23 1aa5 44d4 5d25 1bd1 36a6
000002e0: 3da1 b525 81e4 3e26 39ee 0ea5 a10b 1ea6
000002f0: 262b 25a6 1b78 18a5 3e5b 40a3 9a48 b124
00000300: 0371 c724 65a9 1526 6b30 10a5 2dcf 6225
00000310: 4e32 d3a5 c86c 4326 c37e 9825 ca72 dca4
00000320: df9c 0226 a0ab 8c25 a44d 0825 e09e 6aa5
00000330: 11e0 c724 3349 6324 802d e8a5 e1f7 3523
00000340: 168e 2d25 de60 eba5 aef7 0d25 bde7 83a5
00000350: 464e 25a6 83fd eda5 82b1 1da6 68ef 3725
00000360: 2415 f325 9aa3 3426 1ed2 4226 7c85 9c25
00000370: c85c c225 c289 07a5 a541 2426 07ee 97a5
00000380: bff8 57a5 6141 84a5 2332 05a6 8b22 19a6
00000390: f5aa 23b4 1ea5 0ab4 808e 1fb4 cd6e 2ab4
000003a0: ece6 27b4 84af 0cb4 3f64 09b4 64fa 21b4
000003b0: cfc4 10b4 2599 18b4 e00f 16b4 4483 21b4
000003c0: b61d 27b4 761f 1cb4 9091 23b4 a131 3db4
000003d0: c901 0cb4 c044 27b4 7640 cda4 31fa 04b4
000003e0: 0cdd 19b4 12fa 2bb4 1dbc 22b4 369c 00b4
000003f0: 6551 04b4 2379 23b4 8228 0fb4 cd35 13b4
-1.1487683e-08 -9.368373e-09 -1.1182319e-08 -1.1723984e-08 -1.1647461e-08 -9.622404e-09 -9.259247e-09 -1.09825375e-08
-9.805438e-09 -1.0520862e-08 -1.0393645e-08 -1.1151314e-08 -1.1871679e-08 -1.0841236e-08 -1.1272771e-08 -1.3432986e-08
-8.967136e-09 -1.1753082e-08 3.3603724e-16 -8.897131e-09 -1.0688268e-08 -1.1872279e-08 -1.1205771e-08 -8.572976e-09
-8.821623e-09 -1.1129309e-08 -9.679733e-09 -1.0061722e-08 -9.12906e-09 -1.0667127e-08 -1.1427407e-08 -1.0053358e-08
-1.038973e-08 -1.2206306e-08 -1.0833108e-08 -1.1680136e-08 6.805618e-16 -8.782872e-09 -1.0870887e-08 -1.1989942e-08
-1.116793e-08 -8.7043714e-09 -8.899307e-09 -1.13561e-08 -9.759549e-09 -1.0010991e-08 -9.716655e-09 -1.060634e-08
-1.0296024e-08 -1.0141371e-08 -1.0711509e-08 -1.21731425e-08 -1.0926297e-08 -1.1706113e-08 9.659174e-18 4.7646096e-09
-4.965445e-09 -3.778865e-16 -1.6180802e-16 6.5032236e-16 1.2696071e-16 4.8573055e-17 2.3239384e-16 -1.681034e-16
5.8979883e-16 -5.6224967e-16 -1.8962705e-16 -1.191682e-16 -2.8365148e-16 -1.7061713e-16 4.272303e-16 3.7824802e-16
3.8330742e-17 6.0056457e-16 -4.8672107e-16 -4.1106236e-16 3.1146246e-16 -3.7052957e-17 -6.2820617e-16 -4.7715e-16
-4.196619e-16 5.3232945e-16 3.1218778e-16 5.332933e-16 -5.132211e-16 -6.721014e-16 -4.5206307e-16 7.3748446e-17
-1.3615214e-16 -4.3441816e-16 5.018314e-16 -2.2230785e-16 -3.987107e-16 3.1842904e-16 -1.8573958e-16 4.3947502e-16
1.6428859e-16 1.7007115e-17 1.4471617e-16 -5.1799543e-16 -3.6884698e-16 -3.239923e-16 -3.9007217e-16 1.2224071e-16
1.377227e-16 -2.864239e-16 4.493854e-16 -3.8355838e-16 1.3917537e-16 -1.9684428e-16 -5.97971e-16 -4.4886896e-16
2.815869e-16 2.727964e-16 -4.2626952e-16 -2.1496382e-16 -6.4444543e-16 3.705619e-16 5.960845e-16 2.2543726e-16
-4.2654205e-16 3.63609e-16 5.7208865e-16 -1.4103112e-16 -1.1300329e-16 2.386003e-16 8.8684316e-17 -2.2784003e-16
-6.399767e-16 -4.833788e-16 3.7331994e-17 -3.6979708e-17 5.6925103e-16 2.3592897e-17 -1.774999e-16 -6.735715e-16
-6.3381617e-16 2.8635902e-16 6.1401556e-16 -1.04596194e-17 -6.1615125e-16 2.447501e-16 5.6146913e-16 -4.5625403e-16
-1.8149734e-16 5.797758e-17 -3.931345e-16 -6.392033e-16 3.017863e-16 -5.65677e-16 -1.73035e-16 -3.6603674e-16
5.18428e-16 1.3310292e-16 3.196861e-16 -4.6681436e-16 5.8092786e-16 6.142172e-17 -3.8234416e-16 -4.5095938e-17
-4.8810755e-16 -3.1820533e-17 3.8494148e-16 -3.0989804e-16 5.827e-16 2.1047816e-16 -1.2062815e-16 2.1534145e-16
-1.2699693e-16 -1.6021884e-16 -4.522711e-16 4.0167454e-16 4.1381657e-16 2.3603775e-16 4.0770626e-16 6.886985e-16
6.491094e-16 -6.6525285e-16 1.5718912e-16 -5.9023876e-17 2.3407734e-16 -1.3369416e-16 1.9240613e-16 -6.3427325e-16
3.1507754e-16 6.622917e-16 -1.239725e-16 -5.483302e-16 -5.730435e-16 -1.3224592e-16 -1.0427662e-17 7.6884506e-17
8.649394e-17 5.192433e-16 -1.2506414e-16 1.9672569e-16 -3.6636753e-16 6.780164e-16 2.6453694e-16 -9.560425e-17
4.531541e-16 2.4402426e-16 1.1822425e-16 -2.0350094e-16 8.6682076e-17 4.928478e-17 -4.0276417e-16 9.86452e-18
1.5053499e-16 -4.0831641e-16 1.2313718e-16 -2.288191e-16 -5.7351955e-16 -4.1284733e-16 -5.4710885e-16 1.5953834e-16
4.2168106e-16 6.2671767e-16 6.7592033e-16 2.715214e-16 3.3716506e-16 -1.1756058e-16 5.6987895e-16 -2.6355618e-16
-1.8732556e-16 -2.2942652e-16 -4.621159e-16 -5.3129353e-16 -1.5242752e-07 -1.2912321e-07 -1.485987e-07 -1.5872793e-07
-1.5637096e-07 -1.3102368e-07 -1.2795589e-07 -1.5085385e-07 -1.3482644e-07 -1.4211817e-07 -1.3975614e-07 -1.5042048e-07
-1.5563896e-07 -1.4540078e-07 -1.5233513e-07 -1.7620052e-07 -1.3039165e-07 -1.5578098e-07 -8.901378e-17 -1.2384477e-07
-1.4329652e-07 -1.6016591e-07 -1.5155861e-07 -1.1977758e-07 -1.2323069e-07 -1.5224627e-07 -1.333265e-07 -1.3710014e-07

fc1.bias f4 [200]
00000000: b956 45b2 ce31 83a5 ae9b a7a4 73e8 c6a5
00000010: 78a6 23b4 48f9 86a5 68c7 eca5 e635 c426
00000020: 2cb5 7327 38bf 74b0 1be1 3aa7 70d1 67af
00000030: 576b 0fa6 95b9 99b2 c4c9 0eb1 39d6 0726
00000040: ee4d 89af 0b38 17a6 6cf5 1126 c278 f3a6
00000050: 17d1 7425 7e20 33b0 4dfa 1ba7 9cfa 3ba5
00000060: 8766 3524 6905 41a7 24a0 50b0 d45b 84b1
00000070: 580f 7825 0266 21b2 efa2 f225 b67c dda5
00000080: 0835 2027 3409 11b6 ebb7 60b3 554b 67a5
00000090: 3539 bea5 7549 2b26 02e3 8eaf 4443 5024
000000a0: 28d9 bba3 c495 6325 3e10 3c26 1268 6a24
000000b0: ce14 0ba6 cca5 4aa7 69f3 53b0 56c9 abb0
000000c0: 8302 4db3 6484 1ba6 df1f 2126 4ea5 a2b1
000000d0: ec7e 3aa6 1b15 1327 3109 6ca7 2d8b 0eb2
000000e0: 2bac 0ab7 760a 61a7 ef9b ea25 2016 1027
000000f0: 83f5 2a27 daad c9a5 9b93 1ea6 32ae e325
00000100: a8bb 28b1 d232 f0a6 2f8e e83e 2671 8126
00000110: 6ba3 9826 5700 4227 3f78 82b0 dc9a 2426
00000120: 2ae0 e825 8127 1a29 5bad 94af 9129 40b4
00000130: 94e8 8eb0 df99 1bb3 39bd 34a4 394d 5eb0
00000140: c7cc 1e27 026a 15a7 c070 9a25 5b67 4cb4
00000150: 085c 17a6 5bdd f3ae fe40 3ea7 b77e 28a6
00000160: d392 8025 07af 5fb3 7a56 01b1 18ef 0fb0
00000170: f79b 41a5 1ade 00a4 5cc7 1aa6 8042 99b0
00000180: 7b65 3eb0 9fca 1c26 7915 04a6 9cf0 8f25
00000190: 3aed 0cb3 e192 13b1 f1f2 fd25 2cc4 17a6
000001a0: 6492 e6b3 a717 e7b3 413f ac26 575e d0b1
000001b0: e2e7 bca3 5652 fdb2 80a5 7e25 2aad d626
000001c0: 3e32 6424 a378 9fa6 9327 82b2 2e68 2fa7
000001d0: a3fa 41a6 6898 70b0 ae9e 2ba5 1b1f 9db7
000001e0: 5320 0cb0 ec25 f625 08fb 3fa7 23ff 1826
000001f0: 3938 92a3 69c2 66b1 2517 bea6 a312 92b1
00000200: f3ac 2727 c7e8 b7a3 6836 09a5 5a8c 3cb3
00000210: 459b 0da6 95a2 19a5 5191 f5a6 8cf9 c4a5
00000220: 6663 dfa5 1e6a 21a6 aba5 1a27 b8f8 78a5
00000230: f370 8fb1 f03b 39b1 de50 1fa6 3638 27a6
00000240: dcf8 5ab2 c636 6027 be12 0da6 4113 cd25
00000250: 5223 e4a6 cd46 bfb5 8bef 9fb0 8ce4 4327
00000260: 7cbe 4bb3 fccc c5b1 76b6 95a5 1027 0ca7
00000270: 7c66 0c25 41a8 a9a6 ec67 7425 aa6d 7927
00000280: 625f 1126 2dcc 1eb8 5071 05b0 0e51 f7a6
00000290: 6f02 0bb0 9527 3d26 1e71 2ba7 2278 31a5
000002a0: e766 2ea7 5175 35b1 a57e f725 c764 18b2
000002b0: dc29 c9b7 4e41 01b5 2648 60a7 67b4 67a6
000002c0: f7fe 5ca7 900d 62b1 aea2 bfaf 8fe7 80b7
000002d0: 3519 b6a6 7103 8fb0 bd88 0526 2dc8 38a6
000002e0: 31ef 85b0 a22a 94a4 d4a2 9cb2 3b55 dc25
000002f0: 6bbd c925 87bf 8827 13ec 23b1 bcf9 66a7
00000300: c2df 58af f770 85a4 c2cc 06b3 e8d7 a7a5
00000310: fa42 54b1 ad8f c0af cc33 1ba6 d764 dfa4
-1.1486628e-08 -2.2758627e-16 -7.268844e-17 -3.4505039e-16 -1.5241119e-07 -2.3414214e-16 -4.1074597e-16 1.3614841e-15
3.3821238e-15 -8.903842e-10 -2.5934715e-15 -2.1083735e-10 -4.9758564e-16 -1.7895937e-08 -2.077841e-09 4.712786e-16
-2.4975527e-10 -5.24646e-16 5.063959e-16 -1.6894244e-15 2.1234469e-16 -6.5165995e-10 -2.164626e-15 -1.6304574e-16
3.9334963e-17 -2.6787063e-15 -7.589753e-10 -3.8521453e-09 2.151577e-16 -9.394627e-09 4.2090716e-16 -3.8421896e-16
2.2233209e-15 -2.161204e-06 -5.2321337e-08 -2.006158e-16 -3.299851e-16 5.9427096e-16 -2.5990948e-10 4.5159787e-17
-2.036655e-17 1.9739854e-16 6.5247615e-16 5.0828813e-17 -4.825351e-16 -2.812301e-15 -7.710726e-10 -1.2499111e-09
-4.7732566e-08 -5.395585e-16 5.590129e-16 -4.7336135e-09 -6.4703725e-16 2.041179e-15 -3.2756562e-15 -8.297133e-09
-8.265527e-06 -3.1230693e-15 4.0698194e-16 1.9996008e-15 2.3725331e-15 -3.4985748e-16 -5.5017305e-16 3.9496262e-16
-2.4553888e-09 -1.666712e-15 0.45420977 8.981842e-16 1.0591413e-15 2.6923093e-15 -9.492921e-10 5.7108804e-16
4.0397484e-16 3.4229133e-14 -2.704422e-10 -1.7896515e-07 -1.0397962e-09 -3.6228695e-08 -3.9191556e-17 -8.087287e-10
2.2037915e-15 -2.073537e-15 2.6791144e-16 -1.9036581e-07 -5.2513375e-16 -1.1089681e-10 -2.640303e-15 -5.845844e-16
2.2303952e-16 -5.208042e-08 -1.8821127e-09 -5.236287e-10 -1.6792924e-16 -2.7943703e-17 -5.3699665e-16 -1.1151116e-09
-6.926581e-10 5.4397975e-16 -4.58258e-16 2.496959e-16 -3.2812046e-08 -2.1474806e-09 4.4053127e-16 -5.265451e-16
-1.0736838e-07 -1.0761078e-07 1.1952043e-15 -6.064322e-09 -2.0481207e-17 -2.9490518e-08 2.2087062e-16 1.4896169e-15
4.9482176e-17 -1.106554e-15 -1.5151988e-08 -2.4342605e-15 -6.73e-16 -8.7528074e-10 -1.4885648e-16 -1.8730343e-05
-5.097764e-10 4.2699894e-16 -2.664266e-15 5.308137e-16 -1.5853163e-17 -3.3579914e-09 -1.3190172e-15 -4.251278e-09
2.3269662e-15 -1.9939485e-17 -1.190129e-16 -4.389981e-08 -4.912963e-16 -1.332572e-16 -1.7039678e-15 -3.416968e-16
-3.8751689e-16 -5.600191e-16 2.1461602e-15 -2.159484e-16 -4.1746886e-09 -2.6955114e-09 -5.52738e-16 -5.8015944e-16
-1.2745854e-08 3.1115937e-15 -4.89446e-16 3.5574878e-16 -1.5830252e-15 -1.4251215e-06 -1.1636855e-09 2.7185582e-15
-4.7437865e-08 -5.7567586e-09 -2.597102e-16 -1.9450079e-15 1.2177787e-16 -1.1772336e-15 2.1198837e-16 3.461514e-15
5.043625e-16 -3.786029e-05 -4.8546145e-10 -1.7161038e-15 -5.0571364e-10 6.562619e-16 -2.3792338e-15 -1.5393005e-16
-2.4203134e-15 -2.6405653e-09 4.2933488e-16 -8.870479e-09 -2.398056e-05 -4.8151276e-07 -3.1125356e-15 -8.0388715e-16
-3.066935e-15 -3.2895038e-09 -3.4858288e-10 -1.5366617e-05 -1.2635619e-15 -1.0405597e-09 4.632896e-16 -6.4109113e-16
-9.745006e-10 -6.425699e-17 -1.8234836e-08 3.822167e-16 3.4996296e-16 3.7955237e-15 -2.3853814e-09 -3.2054293e-15
-1.972458e-10 -5.7870925e-17 -3.1385532e-08 -2.9116186e-16 -3.0888132e-09 -3.5026684e-10 -5.3846626e-16 -9.688166e-17

fc2.weight f4 [20, 200]
00000000: 9667 4ba7 6e7d 2c27 ad04 22a7 fd3b 1ca7
00000010: 320a 7ea7 a32d fd26 85f3 0e27 0c4d 6f27
00000020: 89f4 c126 8f94 e5a6 5b9e 4127 e9b5 5ca7
00000030: 18ea 2627 650c 9aa7 0601 68a7 4067 1ea7
00000040: a3da a9a7 acb4 1b27 a438 b127 e703 27a7
00000050: afa6 08a7 6829 8ba7 ea8c 4b27 fff0 c7a6
00000060: a42a 0927 cfea b526 80cb 88a7 c68f 68a7
00000070: ad4b 1227 48e1 41a7 0d76 cc25 9081 2027
00000080: fc02 9126 88c8 43a7 dae6 a1a6 23e6 08a7
00000090: f704 1527 cea6 1327 c52e 43a7 0d2c 12a7
000000a0: 60d9 0c27 5d2c 1e27 691a 03a7 a01e 2227
000000b0: c107 1ea7 1e1e 7727 e39f 8fa7 abb1 59a7
000000c0: 7009 a8a7 aaf8 2da7 722c 1b27 e7fe 39a7
000000d0: 2c6f 0927 749d 4e27 d870 5f27 2083 6aa7
000000e0: f1fb eca6 5f05 ef26 4c51 0ea7 7da0 b726
000000f0: 1dda 7027 4e23 6ba7 7bba 28a7 945a b326
00000100: b477 aaa7 f5c8 b726 0591 9ca7 bb22 6627
00000110: 77bd 8127 19e5 9727 5b2c 88a7 3492 3127
00000120: e0bb 15a7 6260 86a7 f042 a7a7 ccfb ada6
00000130: 131c a3a7 968b 8ba7 a6a3 5327 a7d0 4ca7
00000140: cb77 fa26 0cd0 89a5 7aad f0a6 ff86 4aa7
00000150: 2726 0f27 91d2 e5a6 8068 3a26 2639 0da7
00000160: c58d 14a7 ffc9 4fa7 e452 89a7 0005 d6a6
00000170: afec d225 1961 0ca7 7c63 1fa7 28ae 5ca7
00000180: a1a3 87a7 2ef5 2a27 3f30 12a7 437a 05a7
00000190: fe53 7fa7 8e91 81a7 d3a6 2e27 1d2d 16a7
000001a0: f3f0 1ca7 7398 a0a6 faab 7627 0264 97a7
000001b0: f85b 2827 1758 36a7 fee5 eda6 7748 8027
000001c0: df21 08a7 9880 0f27 901d 53a7 cad6 ed26
000001d0: 45f0 2627 c78d 5ca7 df52 10a7 43b4 4ca7
000001e0: 7d59 4da7 3e90 1327 b14a 4727 4506 20a7
000001f0: de58 20a7 6b0e 96a7 6cd5 8627 9516 94a7
00000200: 7531 ef26 e3ad 13a7 050a 0627 62e8 16a7
00000210: 3a38 2527 fca1 2b27 0dee 7aa6 0cb0 2227
00000220: 6500 33a7 6d7a 0ea7 0ce4 7c27 3087 20a7
00000230: a57f 54a7 ce1b e6a6 005a 2927 cb7b 5a27
00000240: fdbb caa6 644d ae26 2bc6 0c27 4e72 1627
00000250: 282c 4127 d1c9 8ea7 add3 37a7 e0e9 a426
00000260: db92 93a7 fb1d 44a7 25b9 23a7 df6d d6a6
00000270: 06ed 10a7 2144 2b27 04b8 13a7 14d7 8327
00000280: 4fb9 0c27 3b53 a9a6 4bdc 63a7 a1ce ed26
00000290: 77bd 81a7 27c0 1f27 b6a6 c727 6b4a 0927
000002a0: dce0 8927 df2d 8ba7 d6a4 1527 2730 a2a7
000002b0: 1de3 cca6 cc63 00a7 143d be26 c741 6027
000002c0: 4542 45a6 cf11 a0a7 6d51 97a7 f956 4da7
000002d0: 7718 7427 cbbc 8ea7 2289 1f27 b621 16a7
000002e0: e6d4 9ba7 ca79 2227 b897 8ea7 fc34 1aa7
000002f0: 8ecf 0327 15b4 fd26 87b4 93a7 aac1 82a7
00000300: 4b69 84a7 e8e3 1127 76d3 dda6 e708 0b27
00000310: c20d e626 fbe4 5aa7 4c69 01a7 8e82 3027
00000320: 7700 6ba7 e062 8b27 36b9 6da7 e461 84a7
00000330: 1d92 52a7 ca52 5e27 dde3 8027 bf14 58a7
00000340: ea89 54a7 0d61 70a7 7205 36a7 7c15 80a7
00000350: 2187 6b27 5ae8 4da7 409b 46a7 3559 77a7
00000360: 4630 68a7 605c 7827 059a 48a7 16ab 69a7
00000370: 7c56 7ca7 3616 37a7 0b8b 51a7 32fa 6ea7
00000380: 21f9 6e27 a803 51a7 8973 5aa7 243d 68a7
00000390: 22e7 7d27 125a 39a7 e9ed c3a6 0f0f 8c27
000003a0: d96f 3da7 eef4 64a7 30b4 69a7 e3a6 82a7
000003b0: 47fb 8327 4570 5327 ece2 41a7 7850 72a7
000003c0: 9ba6 7e27 3be6 8327 0a44 6aa7 b26e 7927
000003d0: 2584 6aa7 e3bd 55a7 2ffe 7da7 69df 58a7
000003e0: 1650 58a7 7331 80a7 78b1 8827 9a30 81a7
000003f0: 54a2 7127 5852 29a7 0703 5ba7 2ee3 61a7
-2.8228063e-15 2.393779e-15 -2.248455e-15 -2.1681869e-15 -3.5255108e-15 1.7567771e-15 1.983847e-15 3.320968e-15
1.3458347e-15 -1.5930334e-15 2.6869975e-15 -3.0629747e-15 2.316403e-15 -4.2757025e-15 -3.2197023e-15 -2.1982877e-15
-4.714397e-15 2.1608514e-15 4.918878e-15 -2.3178021e-15 -1.896415e-15 -3.8625143e-15 2.8248299e-15 -1.3873721e-15
1.9035685e-15 1.2623043e-15 -3.796822e-15 -3.2274407e-15 2.0302594e-15 -2.6906256e-15 3.5468353e-16 2.2274696e-15
1.0062205e-15 -2.7170394e-15 -1.1234192e-15 -1.8998549e-15 2.0680595e-15 2.0490773e-15 -2.708704e-15 -2.028545e-15
1.9546742e-15 2.1950954e-15 -1.819422e-15 2.2498618e-15 -2.1931108e-15 3.4294462e-15 -3.9863823e-15 -3.0211114e-15
-4.66396e-15 -2.4143374e-15 2.1534665e-15 -2.581209e-15 1.9072836e-15 2.8673598e-15 3.100864e-15 -3.2545106e-15
-1.6444078e-15 1.6585412e-15 -1.975053e-15 1.2741676e-15 3.342493e-15 -3.263194e-15 -2.3415775e-15 1.2445171e-15
-4.731426e-15 1.2752645e-15 -4.345593e-15 3.193774e-15 3.601011e-15 4.2159307e-15 -3.7795673e-15 2.4642941e-15
-2.0779751e-15 -3.729697e-15 -4.6424385e-15 -1.2072536e-15 -4.5272026e-15 -3.873159e-15 2.9370846e-15 -2.8423798e-15
1.7379705e-15 -2.390669e-16 -1.6700366e-15 -2.8106313e-15 1.986592e-15 -1.5947141e-15 6.4673337e-16 -1.959866e-15
-2.061598e-15 -2.8836523e-15 -3.811501e-15 -1.4850588e-15 3.6589576e-16 -1.948154e-15 -2.2119613e-15 -3.0625543e-15
-3.7647434e-15 2.3725151e-15 -2.0287724e-15 -1.8523736e-15 -3.5433891e-15 -3.5962503e-15 2.4237786e-15 -2.0841138e-15
-2.1779968e-15 -1.1143552e-15 3.4232587e-15 -4.2019348e-15 2.336454e-15 -2.5305327e-15 -1.6507518e-15 3.5605703e-15
-1.8892153e-15 1.9914947e-15 -2.9298158e-15 1.6503397e-15 2.3167378e-15 -3.060799e-15 -2.002894e-15 -2.8408407e-15
-2.8497977e-15 2.0478542e-15 2.7657288e-15 -2.220786e-15 -2.2252635e-15 -4.1648995e-15 3.7423864e-15 -4.1102735e-15
1.6597362e-15 -2.0494612e-15 1.8601667e-15 -2.0942657e-15 2.292883e-15 2.381883e-15 -8.7058793e-16 2.2577451e-15
-2.4841454e-15 -1.9772826e-15 3.509565e-15 -2.2277746e-15 -2.9490106e-15 -1.5966992e-15 2.350225e-15 3.0320686e-15
-1.406752e-15 1.2094652e-15 1.953633e-15 2.0878646e-15 2.6808068e-15 -3.9631727e-15 -2.5511101e-15 1.1443178e-15
-4.0959917e-15 -2.7216717e-15 -2.2721161e-15 -1.4879014e-15 -2.0112505e-15 2.376795e-15 -2.0500103e-15 3.6592992e-15
1.9529359e-15 -1.174929e-15 -3.1622e-15 1.6501185e-15 -3.601011e-15 2.2169849e-15 5.5414344e-15 1.9052911e-15
3.826893e-15 -3.8629984e-15 2.0767262e-15 -4.501624e-15 -1.4216903e-15 -1.7817668e-15 1.3200454e-15 3.1121903e-15
-6.8437917e-16 -4.442823e-15 -4.19992e-15 -2.8496613e-15 3.3875065e-15 -3.9617607e-15 2.2140022e-15 -2.0834956e-15
-4.3251967e-15 2.2548038e-15 -3.957741e-15 -2.1400516e-15 1.8292418e-15 1.7604213e-15 -4.0996424e-15 -3.629222e-15
-3.675152e-15 2.024634e-15 -1.5392272e-15 1.929495e-15 1.5963185e-15 -3.0377708e-15 -1.7959428e-15 2.449568e-15
-3.2613053e-15 3.868745e-15 -3.299076e-15 -3.6743493e-15 -2.9222563e-15 3.085357e-15 3.5774187e-15 -2.9987268e-15
-2.9495674e-15 -3.3359302e-15 -2.5260526e-15 -3.555043e-15 3.2686055e-15 -2.8575423e-15 -2.756218e-15 -3.4326495e-15
-3.2222637e-15 3.446699e-15 -2.783907e-15 -3.2427991e-15 -3.5018909e-15 -2.5408392e-15 -2.9079952e-15 -3.3164766e-15
3.3164188e-15 -2.9006559e-15 -3.031621e-15 -3.2229612e-15 3.52361e-15 -2.5722735e-15 -1.3595329e-15 3.8874132e-15
-2.6289652e-15 -3.1774133e-15 -3.2432925e-15 -3.6263187e-15 3.663224e-15 2.9342994e-15 -2.6907145e-15 -3.3627869e-15
3.5339898e-15 3.660942e-15 -3.2510908e-15 3.46157e-15 -3.254566e-15 -2.9662626e-15 -3.5248596e-15 -3.0097133e-15
-3.0019436e-15 -3.558075e-15 3.7939995e-15 -3.5857386e-15 3.3533467e-15 -2.34981e-15 -3.0393996e-15 -3.1348177e-15

fc2.bias f4 [20]
00000000: f4fc 8fa6 67fb 6ba7 b711 38aa d29d 8c2a
00000010: 8646 f5a7 3f99 173f fe1a 4ea9 50b7 b3a7
00000020: 50ac 62aa b58d b3a7 2fe7 1127 3038 baab
00000030: 5343 b4a7 81a4 3ba7 2c5c 7f26 9ae2 baa6
00000040: 6a86 41ab 3bab 80a7 30c6 1027 933e 4d27
-9.991181e-16 -3.2749087e-15 -1.6348629e-13 2.4978506e-13 -6.807762e-15 0.5921821 -4.57646e-14 -4.988123e-15
-2.0132615e-13 -4.983612e-15 2.0248117e-15 -1.323169e-12 -5.003303e-15 -2.604064e-15 8.8595813e-16 -1.2967763e-15
-6.875391e-13 -3.5712785e-15 2.0091452e-15 2.8483387e-15

fc3.weight f4 [20, 20]
00000000: b6af b92b 719a b92b 205b baab 5994 baab
00000010: 8639 baab e5d7 b9ab 8d8e baab c659 ba2b
00000020: 5d71 baab df62 baab 64f7 b92b d29c b9ab
00000030: 4407 baab 76c8 b9ab a458 b92b 189e b92b
00000040: 8955 baab 2998 b92b a5c8 b92b 52ae b92b
00000050: 0b40 4f2b d49f 4f2b cff7 8bab 8d88 75ab
00000060: b5ab 70ab 4ec2 49ab 6cbb 83ab 3b52 752b
00000070: 90ca 90ab 0a65 65ab 62ae 4f2b 6311 4eab
00000080: b068 4eab 5079 82ab fd62 4e2b d900 792b
00000090: 49fd a2ab 216d 4f2b 4486 4f2b 55df 4f2b
000000a0: c728 18bf bb28 18bf cbf8 16bf 22d6 163f
000000b0: 0b29 183f f41f 953f ce63 17bf cc28 183f
000000c0: acfe 173f 2429 183f b428 18bf a728 183f
000000d0: a128 183f 8728 18bf c828 18bf 3a29 18bf
000000e0: 523b 183f ba28 18bf b128 18bf b728 18bf
000000f0: 3b56 702b 3a60 702b 5605 71ab 9220 71ab
00000100: c853 6eab a31a 6fab 92f4 70ab be4b 702b
00000110: 4ec4 70ab 8f4a 70ab 65bf 702b 5003 6fab
00000120: 3905 6fab 8602 72ab 4fe9 6e2b def3 6e2b
00000130: 06bd 70ab 929f 702b 4df5 702b 8fea 702b
00000140: 2548 18bf 3248 18bf 8113 17bf 31f6 163f
00000150: 5e48 183f d81d 953f bc85 17bf 3148 183f
00000160: bc1f 183f 7348 183f 2548 18bf 1648 183f
00000170: 1848 183f f047 18bf 3748 18bf 8f48 18bf
00000180: 215b 183f 3148 18bf 2a48 18bf 2d48 18bf
00000190: 32af 6d2b 61da 6e2b 2f2f 6fab b76b 6eab
000001a0: 8988 6dab e5f8 6cab f382 6eab 64e0 6e2b
000001b0: 487a 6eab d5a1 6eab c63c 6d2b ba35 6dab
000001c0: 01d7 6cab 1012 6dab 200a 6d2b 4e37 6e2b
000001d0: ba9e 6eab ffb8 6e2b 3346 6d2b e23c 6e2b
000001e0: 1a8b 18bf 0d8b 18bf d44e 17bf ee35 173f
000001f0: 628b 183f d9b7 943f 64c4 17bf 418b 183f
00000200: c95f 183f 7a8b 183f 0a8b 18bf f58a 183f
00000210: f68a 183f f68a 18bf 118b 18bf 968b 18bf
00000220: 759d 183f 1c8b 18bf 128b 18bf 118b 18bf
00000230: e92e 18bf e82e 18bf a601 17bf 46dc 163f
00000240: 3c2f 183f 991f 953f bd6a 17bf f82e 183f
00000250: 4f05 183f 482f 183f e22e 18bf c52e 183f
00000260: d12e 183f bf2e 18bf e92e 18bf 6c2f 18bf
00000270: 6441 183f e12e 18bf d22e 18bf d82e 18bf
00000280: 932c 9626 87b3 e226 d705 bba7 25ab a7a7
00000290: 66a4 4827 b14e 92a6 7b05 cba7 eb1a 71a7
000002a0: a457 91a7 dfe8 7026 5a28 0d27 f031 1ba7
000002b0: 4877 a2a7 3c73 9ba6 fe5e 0527 c2db 2527
000002c0: 024c 9726 74e9 6127 7b4a 1227 caa1 7e24
000002d0: ce28 18bf d528 18bf 3bf7 16bf f3d5 163f
000002e0: 1629 183f 0920 953f ad63 17bf f628 183f
000002f0: 90fe 173f 2829 183f da28 18bf b828 183f
00000300: c628 183f b928 18bf db28 18bf 3d29 18bf
00000310: 653b 183f d928 18bf da28 18bf d328 18bf
00000320: c7c2 b82b 1dc1 b82b 201e b9ab b81c b9ab
00000330: ae2b b8ab 2932 b8ab 113b b9ab 62b4 b82b
00000340: 9bef b8ab eeca b7ab 4fbb b82b 2836 b8ab
00000350: d019 b8ab 4a61 b7ab 98c5 b72b 7d49 b72b
00000360: cc09 b9ab 2aed b82b d0d8 b82b 7911 b92b
00000370: bac9 a6a6 dc16 d425 2bc8 5da7 45f6 81a7
00000380: 7635 51a7 a963 e4a7 ca29 82a7 9cdf 8ea7
00000390: 0a66 49a7 ea10 7326 d6ae d9a6 6c15 fca7
000003a0: 1ec0 e3a5 2017 3ea7 0d4b 5227 c5eb c7a6
000003b0: 6a81 c4a6 564c 4b25 d6e8 45a6 abf8 86a6
000003c0: c4a9 192b a795 1a2b 5d71 1aab ce60 1aab
000003d0: 5819 19ab efa2 18ab 0f17 1aab e133 192b
000003e0: 8867 1aab 3b43 1aab a077 192b 8312 19ab
000003f0: d686 18ab 93c2 18ab cc49 192b 74b1 1a2b
1.319381e-12 1.3187907e-12 -1.3241387e-12 -1.325727e-12 -1.3232061e-12 -1.3204963e-12 -1.3255661e-12 1.3241012e-12
-1.324756e-12 -1.3243537e-12 1.3213705e-12 -1.3188567e-12 -1.3218112e-12 -1.320068e-12 1.3169643e-12 1.318892e-12
-1.3239836e-12 1.3187274e-12 1.3200731e-12 1.3193424e-12 7.363005e-13 7.376298e-13 -9.945325e-13 -8.723099e-13
-8.550342e-13 -7.1679197e-13 -9.36013e-13 8.7155603e-13 -1.0288038e-12 -8.1497363e-13 7.378318e-13 -7.321003e-13
-7.3331185e-13 -9.270727e-13 7.3323276e-13 8.8463747e-13 -1.1581093e-12 7.369262e-13 7.3727504e-13 7.385111e-13
-0.5943722 -0.5943715 -0.5897338 0.5892049 0.59437627 1.1650376 -0.59136665 0.5943725
0.59372973 0.59437776 -0.5943711 0.5943703 0.59436995 -0.5943684 -0.5943723 -0.59437907
0.59465516 -0.59437144 -0.5943709 -0.59437126 8.5384797e-13 8.539867e-13 -8.5627805e-13 -8.56656e-13
-8.4670855e-13 -8.4946823e-13 -8.560454e-13 8.537024e-13 -8.5537556e-13 -8.53686e-13 8.553074e-13 -8.4914454e-13
-8.4917105e-13 -8.5979173e-13 8.4878366e-13 8.489302e-13 -8.552745e-13 8.5486577e-13 8.560555e-13 8.5590644e-13
-0.59485084 -0.5948516 -0.59014136 0.5896941 0.59485424 1.1649733 -0.5918844 0.59485155
0.5942342 0.5948555 -0.59485084 0.59484994 0.59485006 -0.5948477 -0.5948519 -0.59485716
0.5951405 -0.59485155 -0.59485114 -0.5948513 8.4442447e-13 8.4857647e-13 -8.497534e-13 -8.470407e-13
-8.4388795e-13 -8.4189453e-13 -8.4736314e-13 8.486599e-13 -8.4724285e-13 -8.477917e-13 8.4283654e-13 -8.4273875e-13
-8.414242e-13 -8.422438e-13 8.4213365e-13 8.4631336e-13 -8.4774863e-13 8.481132e-13 8.4296735e-13 8.463908e-13
-0.5958725 -0.59587175 -0.5910466 0.59066665 0.5958768 1.1618606 -0.59284043 0.59587485
0.59521157 0.59587824 -0.59587157 0.5958703 0.5958704 -0.5958704 -0.595872 -0.5958799
0.5961526 -0.59587264 -0.59587204 -0.595872 -0.5944658 -0.59446573 -0.5898689 0.5892986
0.59447074 1.1650268 -0.59147245 0.5944667 0.593831 0.59447145 -0.5944654 0.59446365
0.59446436 -0.5944633 -0.5944658 -0.5944736 0.5947478 -0.5944653 -0.5944644 -0.5944648
1.0420423e-15 1.5730561e-15 -5.190926e-15 -4.6537367e-15 2.7844696e-15 -1.0152114e-15 -5.634976e-15 -3.346006e-15
-4.0340605e-15 8.3582326e-16 1.9589555e-15 -2.1537642e-15 -4.5093357e-15 -1.078652e-15 1.8508953e-15 2.301748e-15
1.0498332e-15 3.1351578e-15 2.0301946e-15 5.521451e-17 -0.59437263 -0.59437305 -0.58970994 0.5892021
0.5943769 1.1650401 -0.5913647 0.594375 0.59372807 0.594378 -0.59437335 0.5943713
0.59437215 -0.5943714 -0.5943734 -0.59437925 0.5946563 -0.5943733 -0.59437335 -0.5943729
1.3128048e-12 1.3127586e-12 -1.3153402e-12 -1.3153012e-12 -1.308611e-12 -1.3087909e-12 -1.3161435e-12 1.3124053e-12
-1.314049e-12 -1.3059256e-12 1.3125975e-12 -1.3089018e-12 -1.3081151e-12 -1.3029935e-12 1.3057775e-12 1.3023329e-12
-1.314776e-12 1.3139813e-12 1.3134164e-12 1.314989e-12 -1.1573242e-15 3.6791628e-16 -3.0778422e-15 -3.60717e-15
-2.9033558e-15 -6.3390764e-15 -3.6127556e-15 -3.9655355e-15 -2.794967e-15 8.4330484e-16 -1.5104789e-15 -6.9967276e-15
-3.9508407e-16 -2.6380333e-15 2.918404e-15 -1.3872304e-15 -1.363531e-15 1.7633307e-16 -6.8663656e-16 -9.365519e-16
5.4592116e-13 5.4919475e-13 -5.4869114e-13 -5.4846134e-13 -5.439169e-13 -5.4227364e-13 -5.474379e-13 5.4428516e-13
-5.485547e-13 -5.480509e-13 5.452253e-13 -5.438221e-13 -5.418837e-13 -5.4271274e-13 5.4458933e-13 5.4958056e-13

fc3.bias f4 [20]
00000000: d3b1 b9ab ea44 56ab 0fcd 3a3f 3f8d 6fab
00000010: dcf2 3a3f e0f4 6fab 0706 3b3f 9dd4 3a3f
00000020: 6e8d 9827 35cd 3a3f dffa b8ab d772 a7a6
00000030: 3b64 1aab e4fe 6e3a ee0d 13ac 44cd 3a3f
00000040: a6ec 3a3f 8496 cea7 a689 b9ab 2681 b2a7
-1.3194397e-12 -7.612371e-13 0.72969145 -8.5105875e-13 0.73026824 -8.524969e-13 0.7305607 0.7298067
4.2341813e-15 0.7296937 -1.3143617e-12 -1.161908e-15 -5.485089e-13 0.0009116961 -2.089769e-12 0.7296946
0.73017347 -5.7339675e-15 -1.3183246e-12 -4.9544948e-15

fc4.weight f4 [1, 20]
00000000: a3bc 3fbf 3f42 3fbf 9417 953f 9abc 3fbf
00000010: 8915 953f 9abc 3fbf 5cb0 943f 4f17 953f
00000020: 93bc 3fbf 8917 953f 9bbc 3fbf 92bc 3fbf
00000030: 98bc 3fbf 830a 003f 3f92 3fbf 9117 953f
00000040: 0916 953f 95bc 3fbf a1bc 3fbf 0eba 3f3f
-0.7489721 -0.7471046 1.164782 -0.7489716 1.1647197 -0.7489716 1.1616321 1.1647738
-0.74897116 1.1647807 -0.74897164 -0.7489711 -0.74897146 0.5001604 -0.7483253 1.1647817
1.164735 -0.7489713 -0.748972 0.7489327

bn1.weight f4 [200]
00000000: 15a3 d0be ba83 bb27 ba83 bb27 ba83 bb27
00000010: 3ec4 7839 ba83 bb27 ba83 bb27 f244 8b33
00000020: ea85 9a33 121e ee36 15ae 1b37 518c 15b8
00000030: ba83 bb27 8bfd 4cbb 7194 a7be ba83 bb27
00000040: 1a44 bbba ba83 bb27 8f26 3eb3 bfe6 7638
00000050: ba83 bb27 e06d 6fb8 54f8 9233 ba83 bb27
00000060: ba83 bb27 8740 c134 ce2d ddb8 e8fe 9db8
00000070: ba83 bb27 6fdd 09b9 ba83 bb27 ba83 bb27
00000080: 439d 8332 5a68 ac39 0738 bb38 ba83 bb27
00000090: ba83 bb27 ba83 bb27 0d99 c338 ba83 bb27
000000a0: ba83 bb27 ba83 bb27 ba83 bb27 ba83 bb27
000000b0: ba83 bb27 1701 c4b5 fbee c039 a05a 9e39
000000c0: e77c c2b6 ba83 bb27 ba83 bb27 5ae0 a739
000000d0: ba83 bb27 726c 843b 443e 98be 2548 acb7
000000e0: 225c e137 a01d 4ab3 ba83 bb27 28ac 2f33
000000f0: 086b 053b 3a6a 1333 ba83 bb27 7151 d8b3
00000100: 65ae cdb8 1e16 1231 7019 953f d8b2 3d38
00000110: a59e ddb2 aa73 24b2 3813 bebb ba83 bb27
00000120: ba83 bb27 97b1 2bb6 a7ad 48b6 d64c 5eb9
00000130: c49e be3b 915b 443a 4278 d3b2 deed 33b8
00000140: 65e5 51b8 2151 23b8 ba83 bb27 51c0 5cba
00000150: ba83 bb27 8029 1039 5a59 4eb7 ba83 bb27
00000160: ba83 bb27 3c60 8db9 d2a8 fc39 2fc1 ef38
00000170: ba83 bb27 ba83 bb27 ba83 bb27 f849 72b8
00000180: de06 4939 ba83 bb27 ba83 bb27 ba83 bb27
00000190: 25d9 9eb9 6dd3 cd36 ba83 bb27 ba83 bb27
000001a0: 3ea0 9f38 3504 d5b8 e790 a2b1 033f 62b7
000001b0: ba83 bb27 7203 5738 ba83 bb27 0242 f3b5
000001c0: ba83 bb27 321f 40b3 5b1a 5fb9 2cf3 7032
000001d0: ba83 bb27 e2ea 08ba ba83 bb27 8968 48b8
000001e0: edce 25b9 ba83 bb27 aae7 ffb3 ba83 bb27
000001f0: ba83 bb27 cc94 1939 41ae 1dbc f01e 80b7
00000200: 8801 88b0 ba83 bb27 ba83 bb27 af40 53b8
00000210: ba83 bb27 ba83 bb27 f8c4 7b32 ba83 bb27
00000220: ba83 bb27 ba83 bb27 efad 40b2 ba83 bb27
00000230: 825c d7b8 ad09 3539 ba83 bb27 5e76 9836
00000240: 3e24 9e3a b513 9ab6 ba83 bb27 ba83 bb27
00000250: d67f 52b2 2b2e d738 9eeb efbb efd5 1eb3
00000260: 1d6b a0b8 b9d5 d638 ba83 bb27 624f 8533
00000270: ba83 bb27 6216 1e36 ba83 bb27 be61 2737
00000280: ba83 bb27 8674 9cbe 9085 9236 a60d 1532
00000290: 98f5 c637 ba83 bb27 c749 b2b3 ba83 bb27
000002a0: 88fb 0d34 d629 13b8 ba83 bb27 392e 1c3a
000002b0: 9575 9bb9 e8f3 383a 9cc4 feb1 1088 3133
000002c0: 558c 5fb4 c71f 21ba dbcc 2fb8 7753 93bb
000002d0: 4637 88b3 4412 4c38 ba83 bb27 ba83 bb27
000002e0: 8d42 e938 ba83 bb27 8e07 38b8 ba83 bb27
000002f0: ba83 bb27 bf4b 7033 d22a 553a e8a7 afb3
00000300: 78d0 5db9 ba83 bb27 aafe 9837 ba83 bb27
00000310: b667 c639 16ce 3939 ba83 bb27 ba83 bb27
-0.40749422 5.2045745e-15 5.2045745e-15 5.2045745e-15 0.00023724229 5.2045745e-15 5.2045745e-15 6.485233e-08
7.195543e-08 7.0964534e-06 9.279252e-06 -3.5655048e-05 5.2045745e-15 -0.0031279053 -0.3273044 5.2045745e-15
-0.0014287264 5.2045745e-15 -4.427289e-08 5.886587e-05 5.2045745e-15 -5.708437e-05 6.8438254e-08 5.2045745e-15
5.2045745e-15 3.5996e-07 -0.00010546633 -7.5338234e-05 5.2045745e-15 -0.00013147829 5.2045745e-15 5.2045745e-15
1.5321922e-08 0.00032884144 8.927291e-05 5.2045745e-15 5.2045745e-15 5.2045745e-15 9.3268325e-05 5.2045745e-15
5.2045745e-15 5.2045745e-15 5.2045745e-15 5.2045745e-15 5.2045745e-15 -1.4603455e-06 0.00036799148 0.0003020363
-5.796191e-06 5.2045745e-15 5.2045745e-15 0.00032019877 5.2045745e-15 0.004041248 -0.29735005 -2.0537593e-05
2.6864993e-05 -4.7058734e-08 5.2045745e-15 4.0901938e-08 0.0020357985 3.4322717e-08 5.2045745e-15 -1.0073098e-07
-9.807645e-05 2.1258368e-09 1.1648388 4.5227673e-05 -2.579993e-08 -9.572355e-09 -0.005800631 5.2045745e-15
5.2045745e-15 -2.5584357e-06 -2.9903401e-06 -0.00021200193 0.005817266 0.0007490451 -2.461832e-08 -4.2898457e-05
-5.0043123e-05 -3.8937786e-05 5.2045745e-15 -0.00084209914 5.2045745e-15 0.0001374837 -1.2299361e-05 5.2045745e-15
5.2045745e-15 -0.00026965316 0.00048190966 0.00011432391 5.2045745e-15 5.2045745e-15 5.2045745e-15 -5.7766185e-05
0.00019171412 5.2045745e-15 5.2045745e-15 5.2045745e-15 -0.00030297894 6.1340893e-06 5.2045745e-15 5.2045745e-15
7.611558e-05 -0.00010157415 -4.731294e-09 -1.3485321e-05 5.2045745e-15 5.1263203e-05 5.2045745e-15 -1.8124122e-06
5.2045745e-15 -4.4731856e-08 -0.00021276755 1.40251295e-08 5.2045745e-15 -0.00052229885 5.2045745e-15 -4.778107e-05
-0.00015812712 5.2045745e-15 -1.1916502e-07 5.2045745e-15 5.2045745e-15 0.00014646648 -0.009624065 -1.5273195e-05
-9.895738e-10 5.2045745e-15 5.2045745e-15 -5.036656e-05 5.2045745e-15 5.2045745e-15 1.4654908e-08 5.2045745e-15
5.2045745e-15 5.2045745e-15 -1.1215419e-08 5.2045745e-15 -0.0001026923 0.0001726511 5.2045745e-15 4.5437328e-06
0.0012065244 -4.591852e-06 5.2045745e-15 5.2045745e-15 -1.2252675e-08 0.00010260598 -0.007321789 -3.6981813e-08
-7.649346e-05 0.00010244124 5.2045745e-15 6.207735e-08 5.2045745e-15 2.3556863e-06 5.2045745e-15 9.976733e-06
5.2045745e-15 -0.3055765 4.366688e-06 8.676045e-09 2.3717803e-05 5.2045745e-15 -8.302191e-08 5.2045745e-15
1.3223155e-07 -3.5086494e-05 5.2045745e-15 0.00059578154 -0.0002965151 0.0007055388 -7.414725e-09 4.1334772e-08
-2.0819546e-07 -0.0006146398 -4.1914038e-05 -0.004496034 -6.343048e-08 4.86544e-05 5.2045745e-15 5.2045745e-15
0.00011122702 5.2045745e-15 -4.3876054e-05 5.2045745e-15 5.2045745e-15 5.5948245e-08 0.0008131686 -8.1796145e-08
-0.00021153863 5.2045745e-15 1.82384e-05 5.2045745e-15 0.00037842774 0.00017719748 5.2045745e-15 5.2045745e-15

bn1.bias f4 [200]
00000000: 7053 d23e 0000 0000 908f 0eb7 f845 82ae
00000010: 6c2c e8b9 0000 0000 8c5d 0c28 572e 8932
00000020: 0748 8632 6d65 7536 c1ce 1db7 5201 a3b7
00000030: 6167 3d3b ebd2 403b 42a3 a73e 2824 ad27
00000040: 6c6c 55ba 2542 2335 ab0c 45b2 d53d 77b8
00000050: bd43 aaaa 8458 9438 f7ed 9a32 dc44 1f28
00000060: 3add e32b 6afa b6b4 879f 34b8 6071 29b8
00000070: 0000 0000 3906 97b8 0000 0000 0000 0000
00000080: 569e 8b31 d488 3839 ce01 3838 9e68 1f2c
00000090: 0000 0000 0000 0000 016d 5a38 1dd4 042b
000000a0: fb69 5131 54d9 1fbb b2c7 beae e0ba 8a2b
000000b0: e319 da2e 2dd4 bc35 4a62 2239 d20b 1e39
000000c0: 8e01 71b6 0000 0000 e9cb 01a6 867f 3539
000000d0: 0000 0000 896c 84bb 453e 983e d330 35b7
000000e0: cfd0 6437 34ff 51b2 0000 0000 0067 4232
000000f0: 226a 05bb b3ab 3032 0000 0000 bfe2 ad33
00000100: 5738 5ab8 bebd 1f30 00f1 053f 0cb4 3db8
00000110: 32fa 5fb2 5fac 02b1 3894 c53b d264 3b27
00000120: 0000 0000 f83d a8b5 0ae8 c9b5 4a9d f2b8
00000130: 95a9 c1bb a864 a139 3ef6 0fb2 56e9 d1b8
00000140: f8e3 5138 4a67 2338 c4d0 f124 39b0 deb9
00000150: 6fa1 592b f30f 8e38 d891 4e37 c122 7c28
00000160: 2538 3630 bc82 1db9 b6b5 8739 7505 8238
00000170: 0000 0000 0000 0000 0000 0000 c6fa f2b7
00000180: 3fba d738 aee9 6db7 0000 0000 0000 0000
00000190: a009 46b9 8513 5036 0067 59ae 16a2 80a8
000001a0: 2cd9 1e38 f115 52b8 68b0 e2b0 5b8f f7b6
000001b0: 33d2 87b9 2ac4 e537 3814 0fba 5c28 f635
000001c0: 0000 0000 88ea 32b2 5d48 f0b8 e512 7831
000001d0: 2141 a728 4c52 c7b8 0000 0000 2cf0 dab7
000001e0: 76bf b2b8 0000 0000 00a4 8933 0000 0000
000001f0: d2a0 00b7 52b1 a338 c3ad 1d3c e06d 0cb7
00000200: e6fa acb0 90d4 66be 0000 0000 3850 d3b7
00000210: 0000 0000 bea9 a0b0 4f38 e0b2 18b1 612e
00000220: 14fa 9d2a 8e91 abaf 9646 bcb0 e832 4829
00000230: 536b 5bb8 6277 b638 0000 0000 6ba5 9ab6
00000240: 5c3b a4b9 11a7 9936 0000 0000 0000 0000
00000250: 22a6 84b1 6599 5f38 10f4 ed3b 6b48 25b2
00000260: b493 20b8 ae9d 6c38 0000 0000 db3a 8e32
00000270: 0000 0000 7223 1fb6 9a60 bb36 52d7 27b7
00000280: 40e0 38b2 f0b3 9d3e dd53 1936 e224 5731
00000290: f372 4537 0000 0000 6dc1 7333 6e60 84be
000002a0: ac59 36b4 02f3 8eb7 0000 0000 e0b6 05ba
000002b0: 0f56 28b9 6e6e 4dba bae4 fab2 3650 3132
000002c0: c4a9 8b34 87be aeb9 fe04 acb7 405f 953b
000002d0: a4d2 8db2 92e9 cb37 e8f5 f1b9 0000 0000
000002e0: 471e 7738 0000 0000 feda beb7 0000 0000
000002f0: 0000 0000 533d 5532 773b e639 ac4d 73b2
00000300: 6c09 bab9 0000 0000 8069 1937 f684 6bbb
00000310: dffa 1b39 bdc6 ad38 0000 0000 0000 0000
0.41079283 0.0 -8.497285e-06 -5.9241445e-11 -0.00044283585 0.0 7.791846e-15 1.5969972e-08
1.5632407e-08 3.6566882e-06 -9.406068e-06 -1.9431729e-05 0.002890073 0.0029422592 0.32741743 4.8056346e-15
-0.00081414613 6.0818485e-07 -1.146979e-08 -5.8946975e-05 -3.024507e-13 7.073677e-05 1.8036173e-08 8.8412045e-15
1.6190723e-12 -3.4082342e-07 -4.3063916e-05 -4.039833e-05 0.0 -7.2014e-05 0.0 0.0
4.063433e-09 0.0001759858 4.38707e-05 2.2653333e-12 0.0 0.0 5.2076768e-05 4.7190187e-13
3.0473746e-09 -0.0024391012 -8.675673e-11 9.857358e-13 9.918091e-11 1.4068843e-06 0.0001548614 0.00015072458
-3.5912703e-06 0.0 -4.5032215e-16 0.00017309011 0.0 -0.0040412587 0.29735008 -1.07998085e-05
1.3638476e-05 -1.2223428e-08 0.0 1.1315706e-08 -0.002035745 1.0283588e-08 0.0 8.097185e-08
-5.202772e-05 5.8113503e-10 0.5232086 -4.5228793e-05 -1.3037196e-08 -1.9015471e-09 0.006029632 2.6006118e-15
0.0 -1.2535011e-06 -1.5043199e-06 -0.000115687566 -0.0059101083 0.00030783308 -8.3796845e-09 -0.00010009359
5.0041795e-05 3.8958424e-05 1.0487075e-16 -0.00042474436 7.731792e-13 6.7740584e-05 1.2312514e-05 1.3996346e-14
6.6291e-10 -0.00015021389 0.00025884592 6.1998995e-05 0.0 0.0 0.0 -2.8965424e-05
0.0001028669 -1.4180709e-05 0.0 0.0 -0.00018886337 3.1005777e-06 -4.943157e-11 -1.4281148e-14
3.7872393e-05 -5.0088336e-05 -1.6493802e-09 -7.3778624e-06 -0.00025905817 2.7390273e-05 -0.000545803 1.8340174e-06
0.0 -1.041429e-08 -0.000114575705 3.609949e-09 1.856897e-14 -9.5043884e-05 0.0 -2.6099464e-05
-8.523364e-05 0.0 6.409391e-08 0.0 -7.666838e-06 7.805474e-05 0.009623948 -8.3702325e-06
-1.2585957e-09 -0.22542024 0.0 -2.5190515e-05 0.0 -1.1689776e-09 -2.6102638e-08 5.1316368e-11
2.806233e-13 -3.1208142e-10 -1.3698862e-09 4.4453075e-14 -5.2313622e-05 8.700673e-05 0.0 -4.608815e-06
-0.00031324744 4.5792044e-06 0.0 0.0 -3.8605927e-09 5.3310203e-05 0.0072617605 -9.62073e-09
-3.8284532e-05 5.6413635e-05 0.0 1.655774e-08 0.0 -2.3713478e-06 5.58428e-06 -1.0004109e-05
-1.0761198e-08 0.30801344 2.2847591e-06 3.1307583e-09 1.1768879e-05 0.0 5.6753766e-08 -0.2585482
-1.6982693e-07 -1.7040878e-05 0.0 -0.0005100798 -0.00016053788 -0.00078365847 -2.9207843e-08 1.0320994e-08
2.6014288e-07 -0.0003332982 -2.0506322e-05 0.004558474 -1.6510349e-08 2.430825e-05 -0.00046150316 0.0
5.8917587e-05 0.0 -2.2751741e-05 0.0 0.0 1.2412175e-08 0.00043913323 -1.4162122e-08
-0.00035483704 0.0 9.144074e-06 -0.0035937405 0.00014875409 8.286301e-05 0.0 0.0

bn1.running_mean f4 [200]
00000000: acb8 cc45 0000 0000 0000 0000 0000 0000
00000010: 2aca c246 0000 0000 0000 0000 dac1 0f44
00000020: 848f ac42 de04 d246 be71 9644 e88d 8646
00000030: 0000 0000 14ec 3646 fbaf 3746 0000 0000
00000040: 74fd 0246 0000 0000 8ff2 1f44 6db4 0f44
00000050: 0000 0000 b01f 9446 0a10 0644 0000 0000
00000060: 0000 0000 b876 b341 4329 6f46 9c2f 3946
00000070: 0000 0000 6afa 7046 0000 0000 0000 0000
00000080: e36f 1b44 8290 4c46 e26c aa46 0000 0000
00000090: 0000 0000 0000 0000 18e9 9b46 0000 0000
000000a0: 0000 0000 0000 0000 0000 0000 0000 0000
000000b0: 0000 0000 051f 6145 161e ec45 e3f6 b346
000000c0: 6a7f a446 0000 0000 0000 0000 60ec 6e46
000000d0: 0000 0000 afe1 4c43 b0f9 0443 f8fa 4546
000000e0: c3b5 c246 4ba7 1f43 0000 0000 918d 7943
000000f0: dd13 1944 eef9 4e43 0000 0000 fc41 3a45
00000100: 81a7 b746 8ada 3444 2a71 1f3e 4213 3d44
00000110: a786 0d46 344e 6b42 3e3c 5e46 0000 0000
00000120: 0000 0000 9d6c a546 2004 b746 6a97 7446
00000130: f5c1 da45 f4bb 0446 7ca1 0145 38e6 b946
00000140: d430 5344 9355 b644 0000 0000 c435 8346
00000150: 0000 0000 27e3 a646 1b22 aa40 0000 0000
00000160: 0000 0000 9696 8446 27f2 3246 e89e 7546
00000170: 0000 0000 0000 0000 0000 0000 128c b446
00000180: 59ba 5f46 0000 0000 0000 0000 0000 0000
00000190: 1f56 7546 cf92 ba46 0000 0000 0000 0000
000001a0: e9e1 b046 6067 aa46 db1c 0f45 0e02 8546
000001b0: 0000 0000 f261 6f46 0000 0000 8bfa 8145
000001c0: 0000 0000 c1ad 8544 c7ea 6346 8394 4b44
000001d0: 0000 0000 7ac6 6446 0000 0000 936e eb45
000001e0: adbe 5b46 0000 0000 dba3 4443 0000 0000
000001f0: 0000 0000 0a37 2e46 e3c5 0d46 57a6 5946
00000200: c14d 1a45 0000 0000 0000 0000 64d4 b746
00000210: 0000 0000 0000 0000 48a5 9343 0000 0000
00000220: 0000 0000 0000 0000 7b40 2a44 0000 0000
00000230: 06ba bf46 cd48 b546 0000 0000 9853 aa44
00000240: 0c4d 0146 a3c7 8c43 0000 0000 0000 0000
00000250: 4567 5644 6885 dd46 5eab 9346 8b2e e143
00000260: 6bde b046 e060 5846 0000 0000 9200 ea43
00000270: 0000 0000 f78d ba43 0000 0000 b6dc 0243
00000280: 0000 0000 fa22 a346 5e80 de46 6786 0445
00000290: 4988 aa46 0000 0000 0ba0 8743 0000 0000
000002a0: 1911 0643 53db a146 0000 0000 61f9 b946
000002b0: c2b5 6446 a611 b946 80b5 6d44 12a7 2a44
000002c0: 4675 a93c 9870 3846 cc70 a546 6740 e346
000002d0: cd19 0344 69c3 b646 0000 0000 0000 0000
000002e0: 7ef1 9346 0000 0000 6cb4 cc46 0000 0000
000002f0: 0000 0000 bcc5 fd41 b0c1 3d46 e17d bd41
00000300: e0ae ba46 0000 0000 8a03 b146 0000 0000
00000310: 2fba 3746 4508 1845 0000 0000 0000 0000
6551.084 0.0 0.0 0.0 24933.082 0.0 0.0 575.02893
86.280304 26882.434 1203.5544 17222.953 0.0 11707.02 11755.995 0.0
8383.363 0.0 639.79 574.81915 0.0 18959.844 536.2506 0.0
0.0 22.432968 15306.315 11851.902 0.0 15422.604 0.0 0.0
621.7482 13092.127 21814.441 0.0 0.0 0.0 19956.547 0.0
0.0 0.0 0.0 0.0 0.0 3601.9387 7555.7607 23035.443
21055.707 0.0 0.0 15291.094 0.0 204.88158 132.97534 12670.742
24922.88 159.65349 0.0 249.553 612.31036 206.97629 0.0 2980.124
23507.752 723.4147 0.15570512 756.3009 9057.663 58.82637 14223.061 0.0
0.0 21174.307 23426.062 15653.854 7000.2446 8494.988 2074.0928 23795.11
844.76294 1458.6742 0.0 16794.883 0.0 21361.576 5.3166633 0.0
0.0 16971.293 11452.538 15719.727 0.0 0.0 0.0 23110.035
14318.587 0.0 0.0 0.0 15701.53 23881.404 0.0 0.0
22640.955 21811.688 2289.8035 17025.027 0.0 15320.486 0.0 4159.318
0.0 1069.4298 14586.694 814.3205 0.0 14641.619 0.0 7533.822
14063.669 0.0 196.64006 0.0 0.0 11149.76 9073.472 13929.585
2468.8596 0.0 0.0 23530.195 0.0 0.0 295.29126 0.0
0.0 0.0 681.0075 0.0 24541.012 23204.4 0.0 1362.6123
8275.262 281.55966 0.0 0.0 857.6136 28354.703 18901.684 450.36362
22639.209 13848.219 0.0 468.00446 0.0 373.1091 0.0 130.86215
0.0 20881.488 28480.184 2120.4001 21828.143 0.0 271.25034 0.0
134.06679 20717.662 0.0 23804.69 14637.439 23688.824 950.83594 682.6105
0.020685803 11804.148 21176.398 29088.201 524.40314 23393.705 0.0 0.0
18936.746 0.0 26202.21 0.0 0.0 31.72155 12144.422 23.686464
23895.438 0.0 22657.77 0.0 11758.546 2432.5168 0.0 0.0

bn1.running_var f4 [200]
00000000: 82fa 094d 2bf6 273f 2bf6 273f 2bf6 273f
00000010: 35c0 eb4e 2bf6 273f 2bf6 273f d0b5 a24a
00000020: e348 1c48 cc6c 224f bb0d ac4b 06ec 6d4e
00000030: 2bf6 273f b897 e64d f64e e94d 2bf6 273f
00000040: bad3 4e4d 2bf6 273f 3d1e ba4a 384b 934a
00000050: 2bf6 273f 88a6 8e4e 3242 7e4a 2bf6 273f
00000060: 2bf6 273f 6b2a c445 88fc 394e 1bb9 e84d
00000070: 2bf6 273f 0108 3d4e 2bf6 273f 2bf6 273f
00000080: eebd a74a 4baf 0e4e ded5 ea4e 2bf6 273f
00000090: 2bf6 273f 2bf6 273f 4d49 984e 2bf6 273f
000000a0: 2bf6 273f 2bf6 273f 2bf6 273f 2bf6 273f
000000b0: 2bf6 273f 9855 b04c bdb6 994d 5a04 fe4e
000000c0: b761 dc4e 2bf6 273f 2bf6 273f 8cbf 3e4e
000000d0: 2bf6 273f ab4a 2d49 946e 4248 033a 064e
000000e0: 6796 0f4f fea7 b848 2bf6 273f edae 4649
000000f0: 1b33 aa4a 973f 0949 2bf6 273f 586f 7f4c
00000100: b3a6 024f 0375 e44a 0b8f 9a42 9f30 094b
00000110: 4ff7 974d 9f6f a547 31bd 204e 2bf6 273f
00000120: 2bf6 273f 5f43 dd4e b040 014f 3320 444e
00000130: 4e91 1b4d af39 cd4d 21a3 0d4c 62cd 054f
00000140: 4770 264b b741 ac4b 2bf6 273f aec4 5f4e
00000150: 2bf6 273f aa0e e04e 0334 ee45 2bf6 273f
00000160: 2bf6 273f a9cf 5d4e 266e d84d 1f53 484e
00000170: 2bf6 273f 2bf6 273f 2bf6 273f 7c38 fd4e
00000180: 7365 284e 2bf6 273f 2bf6 273f 2bf6 273f
00000190: e199 454e 120e 054f 2bf6 273f 2bf6 273f
000001a0: dcd4 f64e a537 e94e 8ad0 234c 0fe0 664e
000001b0: 2bf6 273f c923 444e 2bf6 273f 1999 c84c
000001c0: 2bf6 273f dc1b 874b 85ef 2e4e 66ba 184b
000001d0: 2bf6 273f 54a0 294e 2bf6 273f a48f 3a4d
000001e0: b34d 224e 2bf6 273f 72d5 0b49 2bf6 273f
000001f0: 2bf6 273f 2299 d04d d3fb 964d 6a07 1a4e
00000200: d994 3b4c 2bf6 273f 2bf6 273f acee 034f
00000210: 2bf6 273f 2bf6 273f 0e88 b249 2bf6 273f
00000220: 2bf6 273f 2bf6 273f 7e5e d94a 2bf6 273f
00000230: d154 0a4f fa6f fd4e 2bf6 273f be87 d54b
00000240: 2b37 8b4d 33b9 9e49 2bf6 273f 2bf6 273f
00000250: 0cc4 264b 6385 314f ee46 8c4e 5c62 2c4a
00000260: 5b9b f34e 2ec7 164e 2bf6 273f 5fe5 3b4a
00000270: 2bf6 273f ad8e 054a 2bf6 273f 8987 4c48
00000280: 2bf6 273f 4dbf d74e cb14 344f 84fd 0b4c
00000290: 59af e64e 2bf6 273f c1d2 7349 2bf6 273f
000002a0: ab36 9c48 2585 d84e 2bf6 273f a470 054f
000002b0: 5a65 2e4e 969e 024f 7c34 474b 4314 e44a
000002c0: ee28 0a40 dfba e54d 6b55 df4e ae12 394f
000002d0: 6f3d 814a 02f8 004f 2bf6 273f 2bf6 273f
000002e0: 665a 984e 2bf6 273f 09d5 1b4f 2bf6 273f
000002f0: 2bf6 273f 0459 9f46 2a27 f14d 9437 9246
00000300: b8a9 054f 2bf6 273f 9777 f34e 2bf6 273f
00000310: 2798 e14d c370 ce4b 2bf6 273f 2bf6 273f
1.44681e+08 0.6561 0.6561 0.6561 1.9776211e+09 0.6561 0.6561 5.331688e+06
160035.55 2.725039e+09 2.2551414e+07 9.9791706e+08 0.6561 4.8358784e+08 4.8928326e+08 0.6561
2.1687389e+08 0.6561 6.0987185e+06 4.826524e+06 0.6561 1.1966392e+09 4.1657725e+06 0.6561
0.6561 6277.3022 7.800837e+08 4.8805565e+08 0.6561 7.928546e+08 0.6561 0.6561
5.496567e+06 5.9846317e+08 1.9699423e+09 0.6561 0.6561 0.6561 1.2774703e+09 0.6561
0.6561 0.6561 0.6561 0.6561 0.6561 9.244998e+07 3.2236125e+08 2.130849e+09
1.8486957e+09 0.6561 0.6561 8.0005606e+08 0.6561 709802.7 199098.31 5.629872e+08
2.4089987e+09 378175.94 0.6561 813806.8 5.5771015e+06 562169.44 0.6561 6.6960736e+07
2.191963e+09 7.4860815e+06 77.27938 8.990879e+06 3.186959e+08 84703.24 6.7418835e+08 0.6561
0.6561 1.85609e+09 2.1685002e+09 8.2261114e+08 1.6312445e+08 4.303887e+08 3.7129348e+07 2.2448297e+09
1.0907719e+07 2.257803e+07 0.6561 9.385522e+08 0.6561 1.8795287e+09 7622.5015 0.6561
0.6561 9.303435e+08 4.5388717e+08 8.4022266e+08 0.6561 0.6561 0.6561 2.1241687e+09
7.063052e+08 0.6561 0.6561 0.6561 8.2879904e+08 2.2322918e+09 0.6561 0.6561
2.0705725e+09 1.956369e+09 4.2943016e+07 9.683609e+08 0.6561 8.226699e+08 0.6561 1.05171144e+08
0.6561 1.7708984e+07 7.337332e+08 1.000919e+07 0.6561 7.114642e+08 0.6561 1.9562349e+08
6.807503e+08 0.6561 572759.1 0.6561 0.6561 4.3746208e+08 3.1663574e+08 6.460443e+08
4.9173348e+07 0.6561 0.6561 2.213457e+09 0.6561 0.6561 1.4625298e+06 0.6561
0.6561 0.6561 7.122751e+06 0.6561 2.3208143e+09 2.1259871e+09 0.6561 2.7987836e+07
2.9195606e+08 1.3002624e+06 0.6561 0.6561 1.0929164e+07 2.9783089e+09 1.1767293e+09 2.824343e+06
2.0435224e+09 6.3240896e+08 0.6561 3.0784878e+06 0.6561 2.1882032e+06 0.6561 209438.14
0.6561 1.8098193e+09 3.0212616e+09 3.6697616e+07 1.9351256e+09 0.6561 998700.06 0.6561
319925.34 1.8163022e+09 0.6561 2.2387517e+09 7.3146944e+08 2.1914312e+09 1.30551e+07 7.4736975e+06
2.1587481 4.8177866e+08 1.8734586e+09 3.1050092e+09 4.2349355e+06 2.163737e+09 0.6561 0.6561
1.2780306e+09 0.6561 2.61443e+09 0.6561 0.6561 20396.508 5.0573446e+08 18715.79
2.2424924e+09 0.6561 2.0423505e+09 0.6561 4.7310563e+08 2.7058566e+07 0.6561 0.6561

bn2.weight f4 [20]
00000000: 173c 183f 1b3c 183f 8c21 173f 5bb6 17bf
00000010: 123d 18bf d518 953f fc4e 183f 1d3d 18bf
00000020: e3a0 18bf f03c 18bf 1a3c 183f 283c 18bf
00000030: 2c3c 18bf 5b3d 183f 203c 183f b73c 183f
00000040: c486 18bf 1b3c 183f 203c 183f 1a3c 183f
0.5946669 0.59466714 0.59035563 -0.5926263 -0.59468186 1.1648203 0.5949552 -0.5946825
-0.59620494 -0.59467983 0.5946671 -0.5946679 -0.59466815 0.5946862 0.59466743 0.59467643
-0.59580636 0.59466714 0.59466743 0.5946671

bn2.bias f4 [20]
00000000: 123c 18bf 163c 18bf 7621 18bf bd05 183f
00000010: 073d 183f 1c3e 293f ac83 18bf 163d 183f
00000020: 52bb 183f e53c 183f 1a3c 18bf 243c 183f
00000030: 233c 183f 563d 18bf 1f3c 18bf a83c 18bf
00000040: 3589 183f 193c 18bf 163c 18bf 183c 18bf
-0.5946666 -0.59466684 -0.5942606 0.59383756 0.5946812 0.66110396 -0.59575915 0.5946821
0.5966083 0.5946792 -0.5946671 0.5946677 0.5946676 -0.5946859 -0.5946674 -0.59467554
0.5958436 -0.594667 -0.59466684 -0.59466696

bn2.running_mean f4 [20]
00000000: 52ec 953f 4494 8e3f f721 a43e 99ac 923f
00000010: 81d5 863f ee59 803f 4927 883f 566d 8f3f
00000020: 1ccd 933f 6712 533f 0ecc d93f f730 943f
00000030: 5690 8d3f 17f8 c73f aa2f 723f c1e0 cc3f
00000040: b2d0 7d3f 182a 833f 79e6 303f 7d44 a53f
1.1712744 1.1138997 0.32057163 1.1458923 1.0533906 1.0027444 1.0636989 1.1205242
1.154697 0.82449955 1.7015398 1.1577443 1.1059673 1.5622586 0.9460398 1.600609
0.9914657 1.0247221 0.69101673 1.2911526

bn2.running_var f4 [20]
00000000: 309b 3c40 ec33 8f40 c62a 5f40 54ab a641
00000010: 96c2 6740 8ae7 8b41 b561 9b41 4823 b541
00000020: 65b9 b541 32f2 3940 f5d9 e540 60d6 a741
00000030: 4fba ad41 460f be40 9c56 6040 215d d240
00000040: 6ad6 6f40 99f3 8140 9284 bf3f a36b b140
2.946972 4.475088 3.4869857 20.833656 3.6212516 17.488056 19.422709 22.642227
22.715525 2.9054074 7.182856 20.979675 21.715971 5.9393644 3.5052862 6.5738683
3.7474618 4.060986 1.4962332 5.5443892

bn3.weight f4 [20]
00000000: 95bc 3f3f 92ba 3a3f af17 953f 9ebc 3f3f
00000010: ab15 953f a4bc 3f3f 66b0 943f 6e17 953f
00000020: a6bc 3f3f aa17 953f 97bc 3f3f a1bc 3f3f
00000030: 9ebc 3f3f 40e1 c5be c3b1 3f3f a617 953f
00000040: 2016 953f a7bc 3f3f fbbc 3f3f d0be 3fbf
0.7489713 0.72940934 1.1647853 0.7489718 1.1647238 0.7489722 1.1616333 1.1647775
0.7489723 1.1647847 0.7489714 0.748972 0.7489718 -0.38648415 0.7488062 1.1647842
1.1647377 0.74897236 0.74897736 -0.7490053

bn3.bias f4 [20]
00000000: 94bc 3fbf fe03 42bf ff79 4c3f a3bc 3fbf
00000010: 4c90 4c3f 9cbc 3fbf 00a1 4c3f 807e 4c3f
00000020: 9abc 3fbf 0e7a 4c3f 9cbc 3fbf 9ebc 3fbf
00000030: a1bc 3fbf 8637 3b3f 28f6 3fbf 237a 4c3f
00000040: a48c 4c3f a5bc 3fbf febc 3fbf d6be 3f3f
-0.7489712 -0.7578734 0.7987365 -0.7489721 0.7990768 -0.7489717 0.79933167 0.79880524
-0.7489716 0.7987374 -0.7489717 -0.7489718 -0.748972 0.731316 -0.7498498 0.79873866
0.799021 -0.74897224 -0.74897754 0.7490057

bn3.running_mean f4 [20]
00000000: c930 563e 70ad 673e de5d ef3d 4d5d 5f3e
00000010: 6108 123e 4e4a 1e3e 39a5 0e3e 5c82 ad3b
00000020: 9762 853e cb28 193e 12dc f63d 3bd3 8e3e
00000030: 2242 393e d0d0 353e 9f61 c33e 4b77 e13d
00000040: 0976 033e 0f4d 163e 5b2a a83e b0db e33d
0.20917048 0.22624755 0.116878256 0.21812935 0.14261009 0.15458032 0.13930215 0.005295081
0.2605178 0.14956968 0.12053694 0.2789553 0.18091634 0.17755437 0.38160416 0.110090815
0.12837996 0.14677833 0.32844815 0.111258864
