Results/NN_MLP_MLs/MLP_Ensemble/Model_Results/AGTwRD/test10/best_model_1.pt (torch, 74525 bytes, 20 tensors)

country_embedding.weight f4 [8, 2]
000000 a3 56 4b c1 a7 56 4b 41 a5 47 43 c1 a3 47 43 41
       -12.708652 12.708655 -12.204991 12.204989
000010 71 11 31 42 71 11 31 c2 d3 55 53 c1 d4 55 53 41
       44.267033 -44.267033 -13.208453 13.208454
000020 18 43 10 c1 19 43 10 41 de 7f 8e c1 e0 7f 8e 41
       -9.01638 9.016381 -17.812435 17.812439
000030 13 a2 ce c0 14 a2 ce 40 b8 f4 e4 bf b5 f4 e4 3f
       -6.4572845 6.457285 -1.7887182 1.7887179

fc1.weight f4 [200, 57]
000000 ee 8d d1 24 78 d1 38 a2 d0 fa 1d 26 20 f4 60 25
       9.087974e-17 -2.5047542e-18 5.481023e-16 1.9511616e-16
000010 13 9a 86 a5 18 4b da a5 29 55 f2 a4 5a e7 9b a5
       -2.33497e-16 -3.7867857e-16 -1.0509504e-16 -2.7044984e-16
000020 0e a5 67 a5 4f 73 0a 24 88 76 d7 25 a1 74 c4 25
       -2.0091979e-16 3.002165e-17 3.7376875e-16 3.407961e-16
000030 ce a9 30 a6 97 10 e0 25 d6 f1 49 25 73 6c 2b 26
       -6.1292395e-16 3.8869048e-16 1.7515908e-16 5.947452e-16
000040 59 92 ee 25 fd a8 24 a6 4c d4 2b a6 5d 55 ae a5
       4.1385588e-16 -5.712795e-16 -5.961526e-16 -3.0242033e-16
000050 4f b1 1e 26 0b d1 f0 a4 6d ae 9a 25 3a f7 a7 a5
       5.505756e-16 -1.0443754e-16 2.6832937e-16 -2.913741e-16
000060 14 53 31 26 d5 ec 98 a5 a1 86 07 26 28 f6 08 23
       6.1521803e-16 -2.652828e-16 4.701999e-16 7.4247e-18
000070 d9 69 be a5 fe c8 b9 25 16 dc bf a5 6c 9a 54 25
       -3.303147e-16 3.2228582e-16 -3.3282354e-16 1.8440389e-16
000080 b8 bc 50 a5 d9 80 9e a4 06 be 2d a6 95 53 ac a5
       -1.8105065e-16 -6.8739854e-17 -6.027896e-16 -2.989388e-16
000090 0f 21 c4 25 48 b7 2f a5 5a 01 34 26 b0 dc 10 26
       3.4022982e-16 -1.5240929e-16 6.2451877e-16 5.0259123e-16
0000a0 38 64 07 a4 de 40 f1 a5 7a 1a dc 25 fd 59 60 25
       -2.9358347e-17 -4.1850791e-16 3.8181858e-16 1.9459392e-16
0000b0 a7 a3 e9 a5 76 c5 ea 25 14 6e db 25 c8 47 20 26
       -4.0529952e-16 4.0726334e-16 3.8065036e-16 5.5608433e-16
0000c0 db 9b ca a5 09 fb ed a4 8b 0e 60 a3 d3 29 d3 24
       -3.5147026e-16 -1.03207636e-16 -1.2146144e-17 9.1577516e-17
0000d0 f8 26 09 a6 07 3e 00 a6 fc 9f c4 25 18 82 29 a5
       -4.7584236e-16 -4.4492984e-16 3.410899e-16 -1.4702491e-16
0000e0 c2 8d b0 25 e1 79 0f 3f 88 00 57 c0 69 f1 86 3f
       3.0627192e-16 0.5604535 -3.3594074 1.0542423
0000f0 93 1f 23 c0 f8 d6 e3 bf e8 1a 2b c0 f3 25 1a c0
       -2.5488021 -1.7799978 -2.6735172 -2.4085662
000100 7e 06 35 c0 ba 47 c4 bf 03 be 05 c0 9b 17 0e 40
       -2.8285213 -1.5334389 -2.0897224 2.2201908
000110 4e 2d 67 c0 34 dc f3 3f 4b d1 db 3e f9 57 bc bf
       -3.6121402 1.9051576 0.42933115 -1.4714347
000120 96 e5 de bf 3c 7a e6 40 40 3e db 3f 3f 84 07 a6
       -1.7413814 7.202421 1.7128372 -4.701676e-16
000130 33 6c e6 bf 2d ea 0c 3d 22 dc de bf 90 d8 a0 bf
       -1.800177 0.034403015 -1.7410929 -1.256609
000140 47 45 4e c0 57 75 bd bf 50 f1 32 c0 c3 a7 8d bd
       -3.2229784 -1.4801434 -2.7959785 -0.06916764
000150 e6 3f c3 bf 1f 7f 44 40 0e b3 61 c0 bb 3b 69 40
       -1.5253875 3.0702589 -3.5265536 3.6442707
000160 65 06 a8 3f 1e 7f 59 c0 fa e7 d0 c0 39 f3 1a 41
       1.3126951 -3.3983836 -6.5283175 9.684381
000170 3f 41 95 3e a2 cd 15 25 49 f5 38 c0 c9 47 a5 3d
       0.2915134 1.2993361e-16 -2.889971 0.080703326
000180 4c f6 25 be f0 a3 43 bf e3 8b 41 c0 87 39 9a bf
       -0.16207236 -0.76422024 -3.024163 -1.2048806
000190 47 0c 99 3e fa 9f 00 3e 56 ba c3 bf b8 36 40 40
       0.2989218 0.12561026 -1.529124 3.0033398
0001a0 0c e1 52 c0 d9 c4 68 40 c7 b0 c8 3f 55 49 5f c0
       -3.2949858 3.6370146 1.5678948 -3.4888508
0001b0 c3 04 c5 c0 40 92 2d 41 7a 4b 4f 3e 2a a4 19 a5
       -6.1568313 10.848206 0.20243636 -1.3326256e-16
0001c0 de 80 33 42 dc 80 33 c2 fb af 32 27 e7 8c 58 27
       44.875847 -44.87584 2.4797862e-15 3.0052405e-15
0001d0 a3 ba 75 27 44 af 6c 27 7b e6 6a 27 d1 d9 6e 27
       3.4101756e-15 3.284659e-15 3.2598967e-15 3.3147213e-15
0001e0 92 52 6b 27 74 6a 5a 27 02 da 2f 27 2a ce 28 27
       3.2657563e-15 3.0311286e-15 2.440431e-15 2.3426445e-15
0001f0 2a 0b 3a 27 cd 7b 49 27 97 0d 33 27 7a 46 5f 27
       2.5818737e-15 2.7961466e-15 2.4848607e-15 3.0985672e-15
000200 b0 ba 5c 27 b9 83 44 27 6f 1c 60 27 36 25 40 a7
       3.0632337e-15 2.7271871e-15 3.1101659e-15 -2.6665525e-15
000210 79 ac dc 25 dd 2b 6d 27 25 72 3f 27 36 e3 7a 27
       3.8280788e-16 3.2914135e-15 2.6568453e-15 3.481764e-15
000220 8d 85 49 27 3f 31 4d 27 c6 19 24 27 c0 aa 31 27
       2.7966752e-15 2.8476161e-15 2.2773544e-15 2.4656248e-15
000230 d7 59 34 27 d1 6b 3b 27 27 de 6e 27 36 fb 3f 27
       2.502872e-15 2.600991e-15 3.3149564e-15 2.6642756e-15
000240 b8 fb 2c 27 f3 20 60 27 0f 36 5d 27 e6 01 6c 27
       2.4006252e-15 3.1104106e-15 3.0699216e-15 3.2752608e-15
000250 df 5d 37 27 6b f3 44 a7 1f 95 83 a5 4e 98 44 27
       2.544724e-15 -2.7332421e-15 -2.2825926e-16 2.7283029e-15
000260 aa bd 2a 27 46 27 3a 27 69 e8 40 27 29 11 62 27
       2.3695056e-15 2.5833975e-15 2.6771342e-15 3.1373103e-15
000270 ff ff 56 27 b5 e7 59 27 58 d7 7b 27 62 c7 7a 27
       2.9837242e-15 3.0240408e-15 3.4949985e-15 3.4802555e-15
000280 96 8f 6d 27 67 2f 50 27 c8 7d 2f 27 de 0d 72 27
       3.2968195e-15 2.8891496e-15 2.4354315e-15 3.3591764e-15
000290 b5 72 43 27 d0 17 4b 27 37 d2 27 27 f3 aa 57 a7
       2.712387e-15 2.8184818e-15 2.3289863e-15 -2.9929916e-15
0002a0 91 1f e9 a5 9c 3a 25 a7 59 af 27 27 09 de 0c a6
       -4.0440447e-16 -2.2930122e-15 2.3270962e-15 -4.887317e-16
0002b0 e7 5e c4 a3 64 6f c3 a5 9c 53 81 25 6c 20 8b a5
       -2.1290555e-17 -3.390259e-16 2.243459e-16 -2.4134626e-16
0002c0 90 c3 a9 a5 eb c4 23 24 75 d2 02 26 2a 3e fe a5
       -2.9449345e-16 3.5511787e-17 4.5388033e-16 -4.41041e-16
0002d0 22 bc a9 25 35 34 e8 25 85 c7 30 26 e0 fb fc a5
       2.944431e-16 4.0280962e-16 6.1332666e-16 -4.388571e-16
0002e0 c2 12 2f 25 2f a1 05 a6 3d 4a 1a 26 50 34 8c a5
       1.5185186e-16 -4.636209e-16 5.3530095e-16 -2.4321577e-16
0002f0 91 b6 d9 25 96 2b ac 23 ea 32 61 a4 08 86 b8 a3
       3.776721e-16 1.8666737e-17 -4.8832224e-17 -2.0006084e-17
000300 7a c5 f5 24 9c 61 aa 25 fa de e7 24 d9 84 5c 25
       1.0658635e-16 2.9556442e-16 1.0055802e-16 1.9126969e-16
000310 0f 90 22 a6 3e a9 03 26 11 90 1d 26 2c 62 15 26
       -5.6400276e-16 4.567912e-16 5.4665564e-16 5.1827807e-16
000320 8c 97 05 26 d2 69 02 a6 6c fc 85 a5 3f 58 1f 26
       4.634903e-16 -4.5246224e-16 -2.324287e-16 5.52838e-16
000330 c0 a5 09 a6 e0 f3 23 26 5c 22 0e a6 1b 9a fe a5
       -4.7756056e-16 5.68825e-16 -4.931271e-16 -4.4166402e-16
000340 0c b3 b0 25 41 d8 01 a6 d2 9c 25 a5 98 78 03 26
       3.065246e-16 -4.5048944e-16 -1.4364601e-16 4.561319e-16
000350 4f 25 0f 26 d0 ea 2a 26 37 af 12 a5 f4 76 0c a6
       4.9663654e-16 5.929883e-16 -1.2722846e-16 -4.873347e-16
000360 69 f0 31 26 42 fe 19 a5 3c b5 94 a5 26 38 30 25
       6.173503e-16 -1.335678e-16 -2.5796717e-16 1.528459e-16
000370 96 c3 fc a5 70 91 ed 25 2c 86 e2 25 d5 65 0f a6
       -4.3847566e-16 4.1211499e-16 3.929567e-16 -4.97511e-16
000380 0c 70 14 a6 8a 49 7d a4 73 d0 97 25 4b 7d a7 a3
       -5.1499667e-16 -5.492292e-17 2.6335575e-16 -1.815924e-17
000390 cd 5c 0f 3f 88 f9 56 c0 dd e5 86 3f a4 1b 23 c0
       0.5600098 -3.3589802 1.0538899 -2.548562
0003a0 4d c6 e3 bf 81 11 2b c0 17 20 1a c0 c9 10 35 c0
       -1.7794892 -2.6729434 -2.4082086 -2.8291495
0003b0 a1 38 c4 bf ff b4 05 c0 90 0f 0e 40 bd 24 67 c0
       -1.5329782 -2.0891721 2.2196999 -3.6116173
0003c0 6d c5 f3 3f 20 c0 db 3e b8 63 bc bf 4f de de bf
       1.9044625 0.42920017 -1.4717932 -1.7411593
0003d0 46 65 e6 40 1e 24 db 3f dc ed cc a5 fa 6e e6 bf
       7.1998625 1.7120397 -3.554954e-16 -1.8002617
0003e0 40 d1 0c 3d ac db de bf 55 cc a0 bf 01 39 4e c0
       0.034379244 -1.7410789 -1.2562357 -3.2222292
0003f0 43 73 bd bf d8 f9 32 c0 6b 8e 8d bd 19 33 c3 bf
       -1.48008 -2.7964993 -0.0691193 -1.5249969

fc1.bias f4 [200]
000000 1c dc 1e a6 04 1b 09 3f e1 cc 5b 27 9b e1 25 26
       -5.5115566e-16 0.5355685 3.050342e-15 5.7551627e-16
000010 40 fe 08 3f 87 04 09 3f 86 1f 09 3f 16 c2 50 a7
       0.53512955 0.53522533 0.53563726 -2.8971013e-15
000020 c7 5e de 25 ed 0b 82 25 03 97 c3 a4 b2 1c 09 3f
       3.8575085e-16 2.2559486e-16 -8.482359e-17 0.5355941
000030 f6 1c 09 3f 49 f0 08 3f 82 eb 08 3f e8 19 09 3f
       0.53559816 0.53491646 0.53484356 0.53555155
000040 d1 a1 b0 a5 5b 88 12 a4 d9 18 09 3f 92 7c 1e a6
       -3.0640784e-16 -3.17742e-17 0.5355354 -5.4986086e-16
000050 14 bf 03 25 72 2b 09 3f 89 17 09 3f dc 3f 30 26
       1.1427179e-16 0.5358192 0.53551537 6.114881e-16
000060 19 0d 25 26 b4 ed f3 a5 88 4f 86 25 8a 1f 09 3f
       5.7263625e-16 -4.2314854e-16 2.3299187e-16 0.5356375
000070 58 06 09 3f 82 0f bc 25 7d d1 36 a7 ea fb 08 3f
       0.53525305 3.262331e-16 -2.5371138e-15 0.5350939
000080 5c 0d 09 3f 9c 41 0b a6 2e 0f 1e 27 4f bc 17 a6
       0.5353601 -4.831423e-16 2.1935134e-15 -5.2643855e-16
000090 7a fd 08 3f 5e fa 8f a5 3c 1b 09 3f c4 60 e7 a6
       0.53511775 -2.49762e-16 0.5355718 -1.6055073e-15
0000a0 da 3a d1 25 b0 74 87 24 27 24 09 3f ac 85 9d 25
       3.62956e-16 5.8744594e-17 0.5357079 2.7325738e-16
0000b0 f6 05 09 3f 0b 6e 5c a7 58 fd 0b 26 fc 16 09 3f
       0.5352472 -3.0590788e-15 4.856866e-16 0.53550696
0000c0 0d 1d 09 3f 96 b9 ca a5 54 41 70 a5 27 5f 80 a5
       0.5355995 -3.5167172e-16 -2.0838816e-16 -2.2268938e-16
0000d0 eb d7 3b 27 ed 04 09 3f 69 4e 7d a7 91 81 41 a4
       2.6068513e-15 0.5352314 -3.515331e-15 -4.195995e-17
0000e0 fb 00 09 3f d9 d2 db 25 80 29 09 3f 62 04 a8 25
       0.5351712 3.813332e-16 0.5357895 2.9146324e-16
0000f0 be 57 76 a7 e1 9c 1c a6 49 e0 33 26 49 b7 b7 a4
       -3.4186923e-15 -5.4335983e-16 6.2407064e-16 -7.9674096e-17
000100 01 1d 09 3f fc fd 08 3f a3 44 ac 22 2e 9c 8c 23
       0.5355988 0.5351255 4.6693365e-18 1.5244975e-17
000110 6d fd 2f a7 13 1b 09 3f 0c ef aa 25 44 4e 4f 25
       -2.442351e-15 0.53556937 2.9652284e-16 1.7980905e-16
000120 b6 00 74 27 6a 26 7b a7 99 3a 65 a7 2d cd 0e a6
       3.3862188e-15 -3.4854072e-15 -3.18119e-15 -4.954421e-16
000130 4c 35 20 25 be 5f 01 a6 a0 b6 e1 a5 ed a0 1b 27
       1.3895845e-16 -4.488562e-16 -3.915503e-16 2.159781e-15
000140 7d 1d 09 3f 1e 07 09 3f bb e1 ff 25 47 14 09 3f
       0.5356062 0.53526485 4.438841e-16 0.53546566
000150 f1 1d f4 a4 c3 ea 28 26 11 d0 4c a7 8e f6 08 3f
       -1.05868855e-16 5.860487e-16 -2.842348e-15 0.5350121
000160 9d 12 09 3f 4e 73 32 a7 84 1b 09 3f 27 da 9b a5
       0.53544027 -2.476497e-15 0.5355761 -2.703604e-16
000170 07 3a 4e a7 95 9e 82 a5 2e ef 08 3f a3 1a 09 3f
       -2.86197e-15 -2.2658865e-16 0.5348996 0.5355627
000180 e4 1a 1c a7 ce 24 09 3f d1 26 09 3f 21 1a ea a5
       -2.1663926e-15 0.53571784 0.53574854 -4.0610235e-16
000190 80 87 26 26 9e f4 08 3f 42 c7 87 a6 3c 43 88 25
       5.7776456e-16 0.53498256 -9.421516e-16 2.36378e-16
0001a0 63 ef 77 a7 ac a9 31 26 36 7f c4 a3 e4 fa 08 3f
       -3.4407908e-15 6.163916e-16 -2.1304239e-17 0.5350783
0001b0 7d 11 1b 26 78 1d 09 3f 77 64 61 25 d7 62 32 a7
       5.380013e-16 0.5356059 1.9549678e-16 -2.4756043e-15
0001c0 ef f4 08 3f e1 07 a9 25 41 e2 33 a7 92 12 09 3f
       0.5349874 2.9322166e-16 -2.4963893e-15 0.5354396
0001d0 dc af 08 26 81 f1 08 3f 09 0f 09 26 cb f1 28 a4
       4.742281e-16 0.53493506 4.75518e-16 -3.6634e-17
0001e0 df fc e0 a5 cf 1d 09 3f 5b 71 11 27 df 1e 09 3f
       -3.9029158e-16 0.5356111 2.0184242e-15 0.5356273
0001f0 07 07 09 3f 6e fb 2c 26 f4 6e c8 25 b8 41 8a 25
       0.5352635 6.001524e-16 3.4769654e-16 2.3983717e-16
000200 1a fa 2a 27 cc 20 20 a7 07 1c 09 3f ef b1 1c 26
       2.372782e-15 -2.222224e-15 0.5355839 5.436452e-16
000210 02 10 09 3f 29 93 f6 a5 51 54 1f 27 9f 77 b2 26
       0.5354005 -4.2773917e-16 2.211139e-15 1.2383655e-15
000220 20 19 09 3f 04 f7 08 3f 7c 7b ce 25 61 df 1c a6
       0.5355396 0.53501916 3.581898e-16 -5.4426107e-16
000230 ec 68 f7 25 ee b7 c6 24 8c fb 08 3f cb 20 e8 25
       4.2918768e-16 8.61804e-17 0.5350883 4.0267806e-16
000240 73 45 05 a7 cc 50 f6 a6 a9 82 1c a6 1f 27 1e a5
       -1.8495106e-15 -1.7091579e-15 -5.430045e-16 -1.371757e-16
000250 ef 1a 09 3f 88 a4 28 a6 95 1f 09 3f ee 28 dd 25
       0.5355672 -5.850969e-16 0.53563815 3.8365124e-16
000260 da 06 09 3f 2f 03 09 3f 18 8b 88 25 ff 57 22 26
       0.5352608 0.5352048 2.3686493e-16 5.63243e-16
000270 0b 16 09 3f 04 6e c2 a7 c7 b7 f8 24 99 3b d3 a5
       0.5354926 -5.3965096e-15 1.07864186e-16 -3.664305e-16
000280 a1 89 dd 24 01 7d 83 a5 f4 fc 08 3f 4b ee 3e a7
       9.6076624e-17 -2.2809583e-16 0.53510976 -2.6496976e-15
000290 3b 7f b1 25 f5 f8 c1 a5 fa 1a 09 3f cb e8 13 27
       3.079082e-16 -3.3648863e-16 0.5355679 2.0526545e-15
0002a0 65 12 09 3f b0 1b 09 3f 3c 3a 3f a5 74 72 3f 27
       0.5354369 0.5355787 -1.658634e-16 2.656862e-15
0002b0 4f a1 2a a6 70 f4 08 3f 69 a8 2e a6 3b 51 0c 25
       -5.919921e-16 0.5349798 -6.0596615e-16 1.2170586e-16
0002c0 dc eb 0c 26 66 9b 65 a7 de 4e 33 a6 fa 22 0f 26
       4.8891906e-16 -3.1864376e-15 -6.2209985e-16 4.9660493e-16
0002d0 66 f7 d4 25 a3 f2 08 3f 60 22 09 3f dc a6 bf 25
       3.6943781e-16 0.53495234 0.5356808 3.3246287e-16
0002e0 b6 28 09 3f 4e 1a 09 3f f9 ee 54 27 fb 3c aa 25
       0.53577745 0.5355576 2.9550457e-15 2.953162e-16
0002f0 81 4a a0 a3 0a 38 a3 a3 74 9c 07 26 e8 16 09 3f
       -1.7378788e-17 -1.7696229e-17 4.704957e-16 0.5355058
000300 22 61 30 a6 73 4e 23 a6 b1 b1 43 a5 dc 2e 59 a7
       -6.1193906e-16 -5.6658304e-16 -1.6973758e-16 -3.0140202e-15
000310 c9 4c 36 a7 7c 0e 35 27 e6 dc c1 a6 97 31 0a 26
       -2.52992e-15 2.5126648e-15 -1.345194e-15 4.7945575e-16

fc2.weight f4 [20, 200]
000000 aa 4c ac 25 54 49 48 a7 9e 56 40 a7 20 a7 21 a5
       2.9889193e-16 -2.7795327e-15 -2.6692308e-15 -1.4021148e-16
000010 43 12 54 a7 2f 8f 3c a7 d0 ff 51 a7 dd c6 4b a7
       -2.943081e-15 -2.6167861e-15 -2.9143253e-15 -2.8279713e-15
000020 8a 37 a3 a5 31 1a 2a a5 cf 5c 50 23 e7 5c 3e a7
       -2.8313627e-16 -1.4754024e-16 1.12953556e-17 -2.641816e-15
000030 89 27 3f a7 83 fb 54 a7 f3 26 41 a7 ee 8f 58 a7
       -2.6528007e-15 -2.9557255e-15 -2.6805245e-15 -3.0054046e-15
000040 ce e2 40 25 1d d1 1a 25 ae 49 59 a7 8b 90 03 23
       1.673019e-16 1.3428221e-16 -3.0154741e-15 7.132132e-18
000050 bd d9 d6 a5 d6 99 65 a7 31 c3 39 a7 16 47 fa a4
       -3.7270628e-16 -3.1863529e-15 -2.577972e-15 -1.0854064e-16
000060 c2 b8 7d a4 51 ba d7 25 65 a5 aa 25 3f b0 49 a7
       -5.5017126e-17 3.7422808e-16 2.9602375e-16 -2.7989897e-15
000070 97 76 51 a7 f4 cb 9b a4 47 b8 66 a7 3f 66 65 a7
       -2.9068864e-15 -6.7566045e-17 -3.2018809e-15 -3.1835562e-15
000080 e9 34 65 a7 45 72 17 25 27 43 4f a7 13 6c f0 25
       -3.1808817e-15 1.3135878e-16 -2.8763424e-15 4.1706597e-16
000090 82 cd 63 a7 12 59 8b a4 0d 8c 4b a7 70 79 3a a7
       -3.1613984e-15 -6.043253e-17 -2.824783e-15 -2.5878517e-15
0000a0 d8 41 dc 25 c6 90 54 a5 9d ec 5e a7 3f 5d 3b 25
       3.8208534e-16 -1.843712e-16 -3.0936957e-15 1.6251258e-16
0000b0 8b 93 38 a7 aa fb 44 a7 e4 77 3b 25 42 36 53 a7
       -2.5615113e-15 -2.7336891e-15 1.6260285e-16 -2.9311545e-15
0000c0 03 37 5d a7 97 a2 bb 25 d8 f9 d7 25 81 a4 b3 25
       -3.0699733e-15 3.2549504e-16 3.7465855e-16 3.1163022e-16
0000d0 ec 09 59 a7 69 96 3b a7 f9 7b 35 a7 c8 9f 97 23
       -3.0120178e-15 -2.6033e-15 -2.5186002e-15 1.6439123e-17
0000e0 40 62 54 a7 9f 79 ee 25 97 2d 44 a7 90 c7 e0 25
       -2.9474172e-15 4.1368832e-16 -2.7225178e-15 3.8993035e-16
0000f0 13 4b 53 27 a3 23 fc a5 6f e8 8a 25 b2 00 4a a5
       2.932283e-15 -4.373918e-16 2.4096687e-16 -1.7520943e-16
000100 8e 67 37 a7 d3 2c 4e a7 ad 95 47 25 94 4b 8f 25
       -2.5452489e-15 -2.8612542e-15 1.7311211e-16 2.485776e-16
000110 6f c6 38 27 7f 0f 55 a7 09 cd 80 a4 c5 7a 19 a5
       2.56427e-15 -2.9568088e-15 -5.5858494e-17 -1.331223e-16
000120 0a 42 45 a7 28 ca 44 27 59 f4 5c a7 5d 0f 08 a6
       -2.7375042e-15 2.7310053e-15 -3.0663594e-15 -4.72053e-16
000130 a6 18 06 26 4f 97 56 a5 3d 01 f5 a5 90 0d 60 a7
       4.6523994e-16 -1.8612807e-16 -4.2501564e-16 -3.1093597e-15
000140 15 ba 58 a7 c8 ed 4a a7 10 55 99 a3 f6 5d 60 a7
       -3.0076897e-15 -2.8162033e-15 -1.6624319e-17 -3.113718e-15
000150 0a 60 ba 25 64 49 84 a4 d1 c5 5c a7 b5 d3 5b a7
       3.2330935e-16 -5.73702e-17 -3.063837e-15 -3.0507122e-15
000160 37 ac 56 a7 bc 4f 5e a7 c8 3e 62 a7 88 c3 bf 25
       -2.9791824e-15 -3.0851913e-15 -3.1397834e-15 3.3265716e-16
000170 fa 2d 4b a7 7a 82 0d a6 73 8b 56 a7 f7 22 34 27
       -2.8196833e-15 -4.909603e-16 -2.9774061e-15 2.4998973e-15
000180 6c 44 45 a7 18 d8 49 a7 c0 19 3d a7 e0 b4 82 25
       -2.7376334e-15 -2.8011498e-15 -2.6242978e-15 2.267397e-16
000190 3d c4 31 a5 ef 20 4c a7 04 56 62 a7 ff ac 00 a6
       -1.5418791e-16 -2.832854e-15 -3.141043e-15 -4.4643374e-16
0001a0 25 00 51 a7 06 39 ac 24 a8 1b 76 22 c2 c1 49 a7
       -2.9004655e-15 7.468971e-17 3.3353858e-18 -2.799939e-15
0001b0 55 b5 dc a4 2d 9b 4d a7 db 27 e9 a5 93 23 4f a7
       -9.571698e-17 -2.8533586e-15 -4.0446064e-16 -2.8746306e-15
0001c0 e4 a3 37 a7 88 31 ad 24 d1 da 64 a7 dc 33 54 a7
       -2.5485197e-15 7.51107e-17 -3.1759977e-15 -2.9449023e-15
0001d0 09 73 b7 a5 60 c7 3c a7 9c f5 20 a5 38 e4 28 a5
       -3.182339e-16 -2.6198322e-15 -1.3961004e-16 -1.4649001e-16
0001e0 de ac 46 a5 14 f2 51 a7 52 38 41 a7 f3 be 45 a7
       -1.7232332e-16 -2.9135807e-15 -2.6814662e-15 -2.7442756e-15
0001f0 14 0f 42 a7 f6 7c 6d 22 ad 21 bc a5 ff 3f 63 25
       -2.6931082e-15 3.2185643e-18 -3.263562e-16 1.9710794e-16
000200 27 75 52 a7 c4 d5 59 a7 17 37 36 27 b2 5f fe 24
       -2.9206863e-15 -3.0230682e-15 2.5287438e-15 1.10317055e-16
000210 3f 55 41 a7 bb 55 07 24 01 b6 4d a7 98 ee 3b a7
       -2.6830342e-15 2.9346075e-17 -2.854813e-15 -2.6080805e-15
000220 43 e5 60 a7 61 18 60 a7 b6 9e 17 a3 7f fe 02 25
       -3.1210528e-15 -3.109946e-15 -8.219335e-18 1.1361929e-16
000230 f0 71 84 a5 57 b9 a0 24 89 a4 4c a7 cd 8e e2 a5
       -2.2975557e-16 6.970292e-17 -2.8399882e-15 -3.9301516e-16
000240 e5 71 63 a7 a6 cf 41 a7 ac 70 e8 24 99 4a 65 a4
       -3.156432e-15 -2.6896697e-15 1.00804835e-16 -4.9719646e-17
000250 b7 74 40 a7 c6 25 40 a5 5f 7c 3d a7 5a c1 03 25
       -2.6708624e-15 -1.6666144e-16 -2.629644e-15 1.1427949e-16
000260 76 37 50 a7 3e 90 3b a7 bd 6c e5 25 f8 8a 63 25
       -2.8895864e-15 -2.6029657e-15 3.9798852e-16 1.9736196e-16
000270 0d 64 59 a7 f3 49 44 27 aa a4 b2 25 48 cb 06 26
       -3.0169037e-15 2.7240552e-15 3.0989659e-16 4.6766087e-16
000280 1a 92 9f a3 1b c6 f6 a5 19 42 64 a7 9a 2f 50 a7
       -1.7300691e-17 -4.280844e-16 -3.1677188e-15 -2.8891603e-15
000290 27 56 90 24 f7 6c cf a4 d0 b1 46 a7 dd 3c 45 a7
       6.259599e-17 -8.9956534e-17 -2.7574412e-15 -2.7372236e-15
0002a0 83 fc 4a a7 b6 0f 49 a7 f3 49 14 a4 e7 dd 63 a7
       -2.8170018e-15 -2.790287e-15 -3.2155022e-17 -3.1622872e-15
0002b0 fb 4f a2 a5 2e 37 64 a7 47 30 5d 25 e4 31 64 25
       -2.8156717e-16 -3.167127e-15 1.9185051e-16 1.9792751e-16
0002c0 a1 56 1d 25 09 5f 38 a7 b2 82 2f 25 82 a3 e0 25
       1.364693e-16 -2.5586648e-15 1.5223112e-16 3.8968603e-16
0002d0 ea d1 8d 25 aa 18 45 a7 d0 37 43 a7 5d d5 83 24
       2.4601844e-16 -2.7352612e-15 -2.7091942e-15 5.7173645e-17
0002e0 4a 37 5f a7 9b 0e 5f a7 ba f7 37 a7 0a 6e d7 a5
       -3.097744e-15 -3.0955384e-15 -2.5530645e-15 -3.737112e-16
0002f0 62 5a 25 a5 7f b9 c0 a5 fe 1d f8 a5 8e 40 4d a7
       -1.4342092e-16 -3.3432388e-16 -4.3041466e-16 -2.848446e-15
000300 20 88 81 25 1f c5 1f 25 fa 35 a1 a5 e1 51 3f a7
       2.2470175e-16 1.3857839e-16 -2.7965624e-16 -2.6550961e-15
000310 6c 89 4b a7 10 10 4c a7 0d 09 41 a7 cd 4b 2b 25
       -2.8246406e-15 -2.8319395e-15 -2.6789037e-15 1.4857568e-16
000320 87 03 a2 26 22 84 39 a7 09 df 3d a7 ef c4 b4 26
       1.1241964e-15 -2.5745537e-15 -2.6349927e-15 1.2543388e-15
000330 25 a0 57 a7 49 5b 41 a7 d7 87 57 a7 66 1e 42 a7
       -2.9924058e-15 -2.6833616e-15 -2.9910883e-15 -2.6939387e-15
000340 d1 f5 e8 a6 21 8b b2 a6 93 6c dc 26 78 e2 5b a7
       -1.6164863e-15 -1.2388942e-15 1.5294996e-15 -3.0515124e-15
000350 05 09 56 a7 fe 40 41 a7 d9 51 65 a7 f2 a2 3b a7
       -2.9703355e-15 -2.6819363e-15 -3.1824504e-15 -2.6039796e-15
000360 f6 12 a9 26 6a 51 ce a6 dd b5 36 a7 a6 6f e5 a6
       1.173187e-15 -1.4316189e-15 -2.5356162e-15 -1.5920329e-15
000370 cc 72 c7 a6 d0 aa 4a a7 6b 80 60 a7 a5 05 93 a6
       -1.3839515e-15 -2.812573e-15 -3.115586e-15 -1.0201704e-15
000380 e7 16 ec 26 c8 29 b9 26 38 3e e7 26 98 80 5e a7
       1.6381997e-15 1.2848279e-15 1.6045709e-15 -3.08784e-15
000390 b8 c9 52 a7 8d ae b1 a6 8f 11 59 a7 21 d4 4b a7
       -2.9252706e-15 -1.2329154e-15 -3.0124318e-15 -2.8286905e-15
0003a0 22 86 36 a7 a6 15 90 26 c2 7c 41 a7 5f df ba 26
       -2.5330287e-15 9.997875e-16 -2.6851762e-15 1.2966888e-15
0003b0 74 20 61 a7 d0 a1 f6 a6 06 83 42 a7 7a c2 51 a7
       -3.1242615e-15 -1.7113538e-15 -2.6993936e-15 -2.9110002e-15
0003c0 5e 61 9a 26 e5 36 a1 26 51 ef 53 a7 85 cf ad 26
       1.0712288e-15 1.1186498e-15 -2.9411866e-15 1.2060535e-15
0003d0 e3 92 4c a7 7e 26 3c a7 12 d7 a8 a6 0a b8 50 a7
       -2.8390315e-15 -2.6111108e-15 -1.1715637e-15 -2.8965566e-15
0003e0 6d 00 4a a7 e7 be b9 26 68 3b aa 26 c5 8e c7 26
       -2.8033362e-15 1.2888698e-15 1.1812222e-15 1.3847097e-15
0003f0 78 8c 5d 27 d5 64 61 a7 50 96 c1 a6 29 6a b8 26
       3.074606e-15 -3.1279684e-15 -1.3432808e-15 1.279634e-15

fc2.bias f4 [20]
000000 56 ca 63 a7 e7 b8 76 a7 ce 3a 25 3f 18 9b 43 27
       -3.1612265e-15 -3.4239594e-15 0.64542854 2.7145763e-15
000010 28 3b 25 3f e1 b9 8c 26 ce 3a 25 3f 4b 8f 49 a7
       0.6454339 9.764834e-16 0.64542854 -2.7972033e-15
000020 e2 3a 25 3f 43 96 59 a7 ec 46 4c a7 eb d8 32 27
       0.64542973 -3.0196257e-15 -2.8349134e-15 2.4820054e-15
000030 65 a0 1a 27 f6 72 3e 27 d2 3a 25 3f 69 91 52 27
       2.1458743e-15 2.6430117e-15 0.6454288 2.9222181e-15
000040 b0 16 4a 27 d5 3a 25 3f e3 8f 44 27 d0 3a 25 3f
       2.804543e-15 0.64542896 2.7278465e-15 0.64542866

fc3.weight f4 [20, 20]
000000 cd e8 25 bf be e8 25 bf 20 7c ad 3f cd e8 25 bf
       -0.6480835 -0.6480826 1.3553505 -0.6480835
000010 0d 81 ad 3f ca e8 25 bf e3 7c ad 3f bd e8 25 bf
       1.3555008 -0.6480833 1.3553737 -0.64808255
000020 1f 7f ad 3f cd e8 25 bf c9 e8 25 bf d5 e8 25 bf
       1.3554419 -0.6480835 -0.64808327 -0.648084
000030 bc e8 25 bf d9 e8 25 bf bc 7c ad 3f cd e8 25 bf
       -0.6480825 -0.6480842 1.3553691 -0.6480835
000040 c8 e8 25 bf 50 7e ad 3f d1 e8 25 bf 9c 7c ad 3f
       -0.6480832 1.3554173 -0.64808375 1.3553653
000050 b7 e8 25 bf ba e8 25 bf 21 7c ad 3f c5 e8 25 bf
       -0.6480822 -0.6480824 1.3553506 -0.64808303
000060 0e 81 ad 3f b9 e8 25 bf de 7c ad 3f bd e8 25 bf
       1.3555009 -0.6480823 1.3553731 -0.64808255
000070 23 7f ad 3f c0 e8 25 bf c3 e8 25 bf bf e8 25 bf
       1.3554424 -0.64808273 -0.6480829 -0.6480827
000080 c3 e8 25 bf b5 e8 25 bf b8 7c ad 3f b8 e8 25 bf
       -0.6480829 -0.6480821 1.3553686 -0.64808226
000090 b4 e8 25 bf 54 7e ad 3f c1 e8 25 bf 8e 7c ad 3f
       -0.648082 1.3554177 -0.6480828 1.3553636
0000a0 e0 e8 25 bf df e8 25 bf 29 7c ad 3f d0 e8 25 bf
       -0.64808464 -0.6480846 1.3553516 -0.6480837
0000b0 12 81 ad 3f cc e8 25 bf e6 7c ad 3f da e8 25 bf
       1.3555014 -0.64808345 1.3553741 -0.6480843
0000c0 1a 7f ad 3f d3 e8 25 bf d4 e8 25 bf da e8 25 bf
       1.3554413 -0.64808387 -0.6480839 -0.6480843
0000d0 d4 e8 25 bf db e8 25 bf b2 7c ad 3f de e8 25 bf
       -0.6480839 -0.64808434 1.3553679 -0.6480845
0000e0 db e8 25 bf 53 7e ad 3f ce e8 25 bf a1 7c ad 3f
       -0.64808434 1.3554176 -0.64808357 1.3553659
0000f0 c2 e8 25 bf c5 e8 25 bf 2a 7c ad 3f b4 e8 25 bf
       -0.64808285 -0.64808303 1.3553517 -0.648082
000100 17 81 ad 3f ca e8 25 bf ea 7c ad 3f c4 e8 25 bf
       1.355502 -0.6480833 1.3553746 -0.648083
000110 2b 7f ad 3f c2 e8 25 bf c3 e8 25 bf c3 e8 25 bf
       1.3554434 -0.64808285 -0.6480829 -0.6480829
000120 cd e8 25 bf d7 e8 25 bf c2 7c ad 3f c8 e8 25 bf
       -0.6480835 -0.6480841 1.3553698 -0.6480832
000130 c7 e8 25 bf 5c 7e ad 3f c0 e8 25 bf a6 7c ad 3f
       -0.64808315 1.3554187 -0.64808273 1.3553665
000140 a6 e8 25 bf a7 e8 25 bf 13 7c ad 3f b0 e8 25 bf
       -0.6480812 -0.64808124 1.355349 -0.6480818
000150 02 81 ad 3f ab e8 25 bf e2 7c ad 3f ad e8 25 bf
       1.3554995 -0.6480815 1.3553736 -0.6480816
000160 17 7f ad 3f aa e8 25 bf a4 e8 25 bf a6 e8 25 bf
       1.355441 -0.6480814 -0.64808106 -0.6480812
000170 a6 e8 25 bf b7 e8 25 bf af 7c ad 3f ad e8 25 bf
       -0.6480812 -0.6480822 1.3553675 -0.6480816
000180 ae e8 25 bf 45 7e ad 3f a2 e8 25 bf 8a 7c ad 3f
       -0.64808166 1.3554159 -0.64808095 1.3553631
000190 df 1a a5 27 39 f6 66 27 11 99 5f a7 f6 bd 8f 27
       4.5825833e-15 3.205239e-15 -3.1030444e-15 3.989643e-15
0001a0 eb aa 15 a7 7a 3e 6c 27 59 5e 46 a7 5d ce 74 27
       -2.0770559e-15 3.2785448e-15 -2.7529166e-15 3.3973672e-15
0001b0 dd 0a c1 a6 39 d5 6c 27 37 d1 32 a7 cf 56 81 27
       -1.339501e-15 3.2867167e-15 -2.4815878e-15 3.589881e-15
0001c0 b1 b9 9f 27 0a 9b ff a6 44 9b a1 a7 4d c6 a2 27
       4.4332692e-15 -1.7736203e-15 -4.4854816e-15 4.517903e-15
0001d0 fe f2 65 27 99 37 e3 a6 8c 35 68 a7 d1 62 6b a7
       3.191186e-15 -1.5766359e-15 -3.2225496e-15 -3.266637e-15
0001e0 b8 48 a5 27 7d 6a 34 27 bb 3b 11 a7 45 ed be 26
       4.587554e-15 2.5037745e-15 -2.0155172e-15 1.324821e-15
0001f0 05 41 66 27 ac a7 9e 26 98 dc 03 a7 79 cc f5 26
       3.195416e-15 1.10089e-15 -1.8299486e-15 1.7055712e-15
000200 62 b7 1b a7 31 6d 8a 27 72 4d 91 27 89 09 58 27
       -2.1609983e-15 3.842108e-15 4.032955e-15 2.998119e-15
000210 00 5b 50 27 33 28 5c 27 13 0c cb a6 e3 a1 5d 27
       2.891513e-15 3.0552925e-15 -1.4089227e-15 3.075767e-15
000220 46 10 d9 26 03 fc 64 a7 0d 56 75 27 15 3a c6 a6
       1.5061811e-15 -3.1777972e-15 3.4047228e-15 -1.3754753e-15
000230 b4 e8 25 bf b1 e8 25 bf 26 7c ad 3f b5 e8 25 bf
       -0.648082 -0.64808184 1.3553512 -0.6480821
000240 0f 81 ad 3f af e8 25 bf e3 7c ad 3f b4 e8 25 bf
       1.355501 -0.6480817 1.3553737 -0.648082
000250 22 7f ad 3f c1 e8 25 bf b5 e8 25 bf bc e8 25 bf
       1.3554423 -0.6480828 -0.6480821 -0.6480825
000260 c1 e8 25 bf bf e8 25 bf ac 7c ad 3f bc e8 25 bf
       -0.6480828 -0.6480827 1.3553672 -0.6480825
000270 ac e8 25 bf 53 7e ad 3f b4 e8 25 bf 95 7c ad 3f
       -0.64808154 1.3554176 -0.648082 1.3553644
000280 c0 e8 25 bf be e8 25 bf 21 7c ad 3f c5 e8 25 bf
       -0.64808273 -0.6480826 1.3553506 -0.64808303
000290 09 81 ad 3f b8 e8 25 bf e0 7c ad 3f c1 e8 25 bf
       1.3555003 -0.64808226 1.3553734 -0.6480828
0002a0 22 7f ad 3f b5 e8 25 bf c0 e8 25 bf be e8 25 bf
       1.3554423 -0.6480821 -0.64808273 -0.6480826
0002b0 b7 e8 25 bf b0 e8 25 bf b8 7c ad 3f bc e8 25 bf
       -0.6480822 -0.6480818 1.3553686 -0.6480825
0002c0 bf e8 25 bf 51 7e ad 3f b3 e8 25 bf a3 7c ad 3f
       -0.6480827 1.3554174 -0.64808196 1.3553661
0002d0 28 55 c2 a5 29 59 2a a6 a3 6a 2b a6 79 c8 a6 27
       -3.371134e-16 -5.9101433e-16 -5.947206e-16 4.629161e-15
0002e0 8f b4 68 a7 75 f8 5d 27 2f 26 03 a7 16 d6 08 a5
       -3.2294349e-15 3.08046e-15 -1.8200601e-15 -1.1868655e-16
0002f0 7b f0 b0 a7 5d ae 07 26 95 79 53 27 a1 55 e3 a5
       -4.9110543e-15 4.707384e-16 2.9348042e-15 -3.9436247e-16
000300 3d 32 01 a7 f6 36 90 27 43 4a a6 25 9f b7 99 27
       -1.792958e-15 4.0027618e-15 2.8846731e-16 4.2665113e-15
000310 64 99 a9 a6 bf 5a 94 a7 6b 9a 85 27 3b 5d c4 26
       -1.1768307e-15 -4.117664e-15 3.7082336e-15 1.3625502e-15
000320 b2 e8 25 bf b1 e8 25 bf 26 7c ad 3f bf e8 25 bf
       -0.6480819 -0.64808184 1.3553512 -0.6480827
000330 12 81 ad 3f b2 e8 25 bf dd 7c ad 3f c0 e8 25 bf
       1.3555014 -0.6480819 1.355373 -0.64808273
000340 1a 7f ad 3f b6 e8 25 bf ae e8 25 bf b7 e8 25 bf
       1.3554413 -0.64808214 -0.64808166 -0.6480822
000350 b3 e8 25 bf b7 e8 25 bf b1 7c ad 3f bb e8 25 bf
       -0.64808196 -0.6480822 1.3553678 -0.64808244
000360 c1 e8 25 bf 4b 7e ad 3f b3 e8 25 bf 95 7c ad 3f
       -0.6480828 1.3554167 -0.64808196 1.3553644
000370 ea 1b 8d a6 f3 b1 a3 a5 7e b7 7c 26 be 19 86 27
       -9.791407e-16 -2.8396576e-16 8.767874e-16 3.722038e-15
000380 dd 9e 9c a7 32 a9 52 a7 19 d5 4e a7 4a 27 6e a6
       -4.3470938e-15 -2.9235075e-15 -2.8703763e-15 -8.2626084e-16
000390 26 30 4c a7 43 76 0d a7 00 1c b1 27 33 04 e4 a6
       -2.8336788e-15 -1.963179e-15 4.9157727e-15 -1.5821816e-15
0003a0 c2 b9 d4 a4 79 0b a1 26 3c 1d b1 a7 22 f9 29 27
       -9.225503e-17 1.1174729e-15 -4.9159065e-15 2.3588517e-15
0003b0 8a 78 8b 26 c3 b4 88 a7 52 75 83 27 82 d5 ce 26
       9.677735e-16 -3.7943565e-15 3.6487003e-15 1.4351993e-15
0003c0 0f 99 c5 27 36 9a c9 27 a3 f8 d4 a7 5f f7 fb 27
       5.484443e-15 5.5955903e-15 -5.9111393e-15 6.9934695e-15
0003d0 88 7d 73 a6 e3 f0 ed 27 53 97 08 a8 ee 75 bd 27
       -8.447769e-16 6.6041884e-15 -7.58233e-15 5.2585898e-15
0003e0 e3 0f 95 a6 c1 3b ad 27 13 ec e1 a6 fb 80 c2 27
       -1.0343258e-15 4.808193e-15 -1.5676499e-15 5.3985658e-15
0003f0 53 7d c0 27 00 6c a4 23 1f 86 e0 a7 58 a0 a1 26
       5.342658e-15 1.7826655e-17 -6.2317904e-15 1.121508e-15

fc3.bias f4 [20]
000000 29 8a 41 3f 17 8a 41 3f 38 8a 41 3f 24 8a 41 3f
       0.7560144 0.75601333 0.7560153 0.7560141
000010 e3 89 41 3f 30 c2 77 a7 6a e0 92 25 13 8a 41 3f
       0.75601023 -3.4383405e-15 2.5479032e-16 0.7560131
000020 18 8a 41 3f 9b c2 3f 26 0b 8a 41 3f 2c e4 c5 26
       0.7560134 6.6530176e-16 0.7560126 1.3731467e-15
000030 9f f5 52 a7 43 b0 e7 a4 17 8a 41 3f 83 fe 89 a7
       -2.9276506e-15 -1.0047888e-16 0.75601333 -3.830108e-15
000040 14 2d 14 27 11 8a 41 3f 16 8a 41 3f 1e 8a 41 3f
       2.0563563e-15 0.756013 0.7560133 0.75601375

fc4.weight f4 [1, 20]
000000 f5 6b ad 3f fe 6b ad 3f fc 6b ad 3f 01 6c ad 3f
       1.3548571 1.3548582 1.3548579 1.3548585
000010 dc 6b ad 3f f9 48 46 bf e7 48 46 bf eb 6b ad 3f
       1.3548541 -0.774551 -0.7745499 1.3548559
000020 f3 6b ad 3f fb 48 46 bf eb 6b ad 3f f0 48 46 bf
       1.3548568 -0.7745511 1.3548559 -0.77455044
000030 ec 48 46 bf e8 48 46 bf 05 6c ad 3f ed 48 46 bf
       -0.7745502 -0.77454996 1.354859 -0.77455026
000040 e5 48 46 bf e7 6b ad 3f f5 6b ad 3f ff 6b ad 3f
       -0.7745498 1.3548554 1.3548571 1.3548583

bn1.weight f4 [200]
000000 20 8d aa 27 c1 14 b0 3f 60 71 b5 30 20 8d aa 27
       4.7337487e-15 1.3756334 1.3201706e-09 4.7337487e-15
000010 96 b7 ae 3f 5a dc ae 3f bf 38 b0 3f 63 2d 57 b3
       1.3649776 1.3660996 1.3767318 -5.0099867e-08
000020 20 8d aa 27 20 8d aa 27 20 8d aa 27 db 1d b0 3f
       4.7337487e-15 4.7337487e-15 4.7337487e-15 1.3759111
000030 74 28 b0 3f 79 02 ae 3f 1a ea ad 3f df 0a b0 3f
       1.3762345 1.3594505 1.3587067 1.3753318
000040 20 8d aa 27 20 8d aa 27 68 a9 af 3f 20 8d aa 27
       4.7337487e-15 4.7337487e-15 1.3723574 4.7337487e-15
000050 20 8d aa 27 49 b0 b0 3f 89 9a af 3f 20 8d aa 27
       4.7337487e-15 1.3803798 1.3719035 4.7337487e-15
000060 20 8d aa 27 20 8d aa 27 20 8d aa 27 b2 3f b0 3f
       4.7337487e-15 4.7337487e-15 4.7337487e-15 1.3769438
000070 ba ee ae 3f 20 8d aa 27 91 86 0c ba dc 77 ae 3f
       1.3666604 4.7337487e-15 -0.0005360628 1.3630328
000080 91 32 af 3f 20 8d aa 27 46 75 ee b3 20 8d aa 27
       1.3687307 4.7337487e-15 -1.11040706e-07 4.7337487e-15
000090 2a 8d ae 3f 20 8d aa 27 3d b8 af 3f 22 63 ee 32
       1.363683 4.7337487e-15 1.37281 2.7751927e-08
0000a0 20 8d aa 27 20 8d aa 27 f5 65 b0 3f 20 8d aa 27
       4.7337487e-15 4.7337487e-15 1.3781115 4.7337487e-15
0000b0 a3 e9 ae 3f 58 c7 03 3f 20 8d aa 27 9f 8d af 3f
       1.366505 0.5147605 4.7337487e-15 1.3715094
0000c0 c1 28 b0 3f 20 8d aa 27 20 8d aa 27 20 8d aa 27
       1.3762437 4.7337487e-15 4.7337487e-15 4.7337487e-15
0000d0 ba dc bb b8 97 e1 ae 3f 89 d8 14 bf 20 8d aa 27
       -8.9579684e-05 1.3662595 -0.58142906 4.7337487e-15
0000e0 c2 bc ae 3f 20 8d aa 27 d4 a0 b0 3f 20 8d aa 27
       1.3651354 4.7337487e-15 1.3799081 4.7337487e-15
0000f0 6f 8d 0f 3f 20 8d aa 27 20 8d aa 27 20 8d aa 27
       0.56075186 4.7337487e-15 4.7337487e-15 4.7337487e-15
000100 9d cd af 3f 08 9b ae 3f 20 8d aa 27 20 8d aa 27
       1.3734623 1.3641062 4.7337487e-15 4.7337487e-15
000110 96 4c 19 b6 87 14 b0 3f 20 8d aa 27 20 8d aa 27
       -2.2843356e-06 1.3756264 4.7337487e-15 4.7337487e-15
000120 08 39 73 38 62 e1 b4 b3 76 22 b1 34 20 8d aa 27
       5.798883e-05 -8.4229e-08 3.2993893e-07 4.7337487e-15
000130 20 8d aa 27 20 8d aa 27 20 8d aa 27 48 b6 40 ba
       4.7337487e-15 4.7337487e-15 4.7337487e-15 -0.0007351381
000140 21 27 b0 3f 52 f1 ae 3f 20 8d aa 27 36 72 af 3f
       1.3761941 1.3667395 4.7337487e-15 1.370673
000150 20 8d aa 27 20 8d aa 27 05 9a 85 38 a0 a1 ae 3f
       4.7337487e-15 4.7337487e-15 6.3706226e-05 1.3643074
000160 fd 64 af 3f ee c1 46 b9 22 15 b0 3f 20 8d aa 27
       1.3702694 -0.00018954996 1.3756449 4.7337487e-15
000170 ae a7 21 35 20 8d aa 27 f8 04 ae 3f b4 12 b0 3f
       6.022118e-07 4.7337487e-15 1.3595266 1.3755708
000180 ab 61 1c 3f de 20 b0 3f 5a 82 b0 3f 20 8d aa 27
       0.6108653 1.376003 1.378978 4.7337487e-15
000190 20 8d aa 27 88 23 ae 3f 2f cd 92 32 20 8d aa 27
       4.7337487e-15 1.3604593 1.7089944e-08 4.7337487e-15
0001a0 68 af 9f 39 20 8d aa 27 20 8d aa 27 f2 5f ae 3f
       0.0003045753 4.7337487e-15 4.7337487e-15 1.362303
0001b0 20 8d aa 27 8a 2c b0 3f 20 8d aa 27 83 15 34 33
       4.7337487e-15 1.3763592 4.7337487e-15 4.192908e-08
0001c0 37 46 ae 3f 20 8d aa 27 51 fe 90 33 7a 64 af 3f
       1.3615178 4.7337487e-15 6.7517824e-08 1.3702538
0001d0 20 8d aa 27 08 22 ae 3f 20 8d aa 27 20 8d aa 27
       4.7337487e-15 1.3604136 4.7337487e-15 4.7337487e-15
0001e0 20 8d aa 27 77 30 b0 3f 28 0b d2 b2 83 31 b0 3f
       4.7337487e-15 1.376479 -2.445229e-08 1.376511
0001f0 cb f3 ae 3f 20 8d aa 27 20 8d aa 27 20 8d aa 27
       1.366815 4.7337487e-15 4.7337487e-15 4.7337487e-15
000200 c3 81 cf b8 2a 0d 21 31 7d 18 b0 3f 20 8d aa 27
       -9.894699e-05 2.3436066e-09 1.3757473 4.7337487e-15
000210 c4 4f af 3f 20 8d aa 27 9d 46 94 ba 50 63 61 b8
       1.3696218 4.7337487e-15 -0.0011312548 -5.3736672e-05
000220 9d 03 b0 3f bb 4e ae 3f 20 8d aa 27 20 8d aa 27
       1.3751103 1.3617777 4.7337487e-15 4.7337487e-15
000230 20 8d aa 27 20 8d aa 27 c1 94 ae 3f 20 8d aa 27
       4.7337487e-15 4.7337487e-15 1.3639146 4.7337487e-15
000240 36 78 77 b3 ea e3 51 b1 20 8d aa 27 20 8d aa 27
       -5.76185e-08 -3.0543057e-09 4.7337487e-15 4.7337487e-15
000250 43 15 b0 3f 20 8d aa 27 36 40 b0 3f 20 8d aa 27
       1.3756489 4.7337487e-15 1.3769596 4.7337487e-15
000260 05 f4 ae 3f b7 c7 ae 3f 20 8d aa 27 20 8d aa 27
       1.3668219 1.3654698 4.7337487e-15 4.7337487e-15
000270 2f 89 af 3f c6 aa 4b 33 20 8d aa 27 20 8d aa 27
       1.371374 4.7419938e-08 4.7337487e-15 4.7337487e-15
000280 20 8d aa 27 20 8d aa 27 2d 91 ae 3f 0e 2f ff 32
       4.7337487e-15 4.7337487e-15 1.3638054 2.9707305e-08
000290 20 8d aa 27 20 8d aa 27 a5 12 b0 3f b0 81 dd 33
       4.7337487e-15 4.7337487e-15 1.375569 1.03147045e-07
0002a0 66 66 af 3f 4a 19 b0 3f 20 8d aa 27 07 df c1 bb
       1.3703125 1.3757718 4.7337487e-15 -0.0059164795
0002b0 20 8d aa 27 b4 2a ae 3f 20 8d aa 27 20 8d aa 27
       4.7337487e-15 1.3606782 4.7337487e-15 4.7337487e-15
0002c0 20 8d aa 27 30 1f 14 38 20 8d aa 27 20 8d aa 27
       4.7337487e-15 3.5314995e-05 4.7337487e-15 4.7337487e-15
0002d0 20 8d aa 27 ae 1c ae 3f e1 55 b0 3f 20 8d aa 27
       4.7337487e-15 1.3602502 1.3776208 4.7337487e-15
0002e0 a1 91 b0 3f dc 07 b0 3f 26 75 04 ba 20 8d aa 27
       1.3794442 1.3752398 -0.0005052857 4.7337487e-15
0002f0 20 8d aa 27 20 8d aa 27 20 8d aa 27 48 97 af 3f
       4.7337487e-15 4.7337487e-15 4.7337487e-15 1.3718042
000300 20 8d aa 27 20 8d aa 27 20 8d aa 27 9b 0c 31 33
       4.7337487e-15 4.7337487e-15 4.7337487e-15 4.122249e-08
000310 4f 80 04 3f de 18 91 b3 00 30 36 2f 20 8d aa 27
       0.51758283 -6.756612e-08 1.6569857e-10 4.7337487e-15

bn1.bias f4 [200]
000000 93 02 1d 3f 52 0e 17 3f ee 54 c1 2f 28 09 b4 ad
       0.6133205 0.59006226 3.5166842e-10 -2.0467697e-11
000010 c1 0f 17 3f ab 12 17 3f aa 0f 17 3f b6 a5 61 b2
       0.59008414 0.5901286 0.59008276 -1.3134402e-08
000020 70 d2 c2 2a 66 aa d4 38 50 85 7f 3a 20 0f 17 3f
       3.4607343e-13 0.00010140687 0.0009747343 0.59007454
000030 a0 0e 17 3f a4 11 17 3f 52 0f 17 3f 1f 0e 17 3f
       0.5900669 0.5901129 0.5900775 0.5900592
000040 e7 2f 46 31 6d ea 0b 3a b7 14 17 3f 21 04 89 3a
       2.8840021e-09 0.00053373614 0.59015983 0.0010453501
000050 72 ad 1c 3f 34 11 17 3f b8 14 17 3f 21 47 b4 2f
       0.61202157 0.59010625 0.5901599 3.279235e-10
000060 ea b0 9a 34 df 1f 1e 3f 6e 05 9b 2f 1b 0f 17 3f
       2.8813457e-07 0.6176738 2.8198194e-10 0.59007424
000070 d9 12 17 3f 74 3e 06 3f 2a 88 0c 3a b4 12 17 3f
       0.59013134 0.52439046 0.0005360866 0.59012914
000080 79 13 17 3f f8 1b 09 ab 23 0e f2 b2 14 2d 92 af
       0.5901409 -4.871099e-13 -2.8178937e-08 -2.6589275e-10
000090 5c 12 17 3f 3a 8b 21 3f 78 15 17 3f a2 63 f2 31
       0.5901239 0.6310307 0.59017134 7.054454e-09
0000a0 d2 78 a7 34 7e 0b f9 3e a1 10 17 3f 13 a5 07 29
       3.1194082e-07 0.4864158 0.5900975 3.01192e-14
0000b0 d3 12 17 3f 5d c7 03 bf e6 b9 77 2d 42 15 17 3f
       0.590131 -0.5147608 1.4081602e-11 0.5901681
0000c0 a2 0e 17 3f 9a b9 a8 2f a2 d2 cc bb 9e d1 83 a9
       0.590067 3.06909e-10 -0.0062506953 -5.8539314e-14
0000d0 57 fe bb 38 8c 12 17 3f 89 d8 14 3f da b6 45 b8
       8.964229e-05 0.59012675 0.58142906 -4.7138754e-05
0000e0 f8 11 17 3f d0 c8 19 28 a6 10 17 3f c0 35 04 3a
       0.59011793 8.53675e-15 0.5900978 0.000504341
0000f0 67 8d 0f bf ed a2 ea 30 00 96 97 b3 3a 16 6e ac
       -0.5607514 1.7072047e-09 -7.05877e-08 -3.3834172e-12
000100 90 15 17 3f bc 11 17 3f b5 36 a9 2a 17 3b 02 bf
       0.59017277 0.59011436 3.005839e-13 -0.50871414
000110 c4 93 1a 36 5c 0e 17 3f 84 34 d0 3a 4d 5f 64 2c
       2.30338e-06 0.59006286 0.0015884792 3.2453651e-12
000120 92 f7 72 b8 5e d4 49 b1 37 83 82 b4 57 bb 8f 32
       -5.7927864e-05 -2.9370066e-09 -2.4309858e-07 1.6732583e-08
000130 bc 24 8a 2a 9f 0f f6 3b e4 f7 be b1 70 b6 40 3a
       2.4539214e-13 0.0075091864 -5.5579097e-09 0.0007351404
000140 36 0f 17 3f 5b 13 17 3f d6 27 7b a8 e6 14 17 3f
       0.59007585 0.5901391 -1.3941937e-14 0.59016263
000150 6f a9 95 2f c4 c6 91 37 01 bc 85 b8 12 0b 17 3f
       2.7223332e-10 1.7377904e-05 -6.376953e-05 0.59001267
000160 58 14 17 3f 52 c7 46 39 c2 0e 17 3f 77 47 b0 ae
       0.5901542 0.00018957004 0.59006894 -8.016248e-11
000170 20 2a 1a b5 0e 93 78 a8 84 10 17 3f 23 0e 17 3f
       -5.743077e-07 -1.3798653e-14 0.59009576 0.59005946
000180 a1 61 1c bf 11 16 17 3f ab 10 17 3f df 24 8d b3
       -0.6108647 0.59018046 0.5900981 -6.572531e-08
000190 38 1f 16 2a bb 12 17 3f 98 23 6b b2 5a 0b 66 34
       1.3333507e-13 0.59012955 -1.3686893e-08 2.1424549e-07
0001a0 a2 af 9f b9 7f d5 22 bf fc 2f 0b 2f 7c 13 17 3f
       -0.000304577 -0.6360702 1.2659024e-10 0.59014106
0001b0 cc cd 44 34 9a 0e 17 3f ef 3b bc b3 87 3f 40 32
       1.8328791e-07 0.59006655 -8.765334e-08 1.1190315e-08
0001c0 56 10 17 3f 65 0b 02 bf c7 34 95 32 56 14 17 3f
       0.590093 -0.50798637 1.7369883e-08 0.59015405
0001d0 1b 45 49 ba 30 10 17 3f 3b 6c 1e b4 6e 59 c0 3a
       -0.0007677839 0.59009075 -1.475427e-07 0.001467509
0001e0 28 56 ba 27 d0 0e 17 3f 31 84 df b1 9e 0f 17 3f
       5.171878e-15 0.5900698 -6.5051826e-09 0.59008205
0001f0 19 13 17 3f 04 d9 c4 38 59 a1 b7 b7 2d 33 94 2b
       0.59013516 9.3864306e-05 -2.1890433e-05 1.0530237e-12
000200 d1 66 cf 38 fe ee 85 b0 0b 0f 17 3f fc 29 33 2b
       9.88968e-05 -9.744949e-10 0.5900733 6.365184e-13
000210 9b 13 17 3f 48 42 cc 3b be 42 94 3a 0d 5e 61 38
       0.5901429 0.0062334873 0.0011311395 5.3731772e-05
000220 17 0e 17 3f 8f 11 17 3f c2 06 ae 39 67 00 22 a8
       0.59005874 0.5901117 0.000331929 -8.992894e-15
000230 1e 13 ec 32 c5 98 09 bf 1b 10 17 3f ee f7 94 35
       2.748271e-08 -0.5374873 0.5900895 1.1099016e-06
000240 7c db 82 b2 42 51 53 b0 17 5b d2 2e fe 39 b0 38
       -1.5233802e-08 -7.6876827e-10 9.565875e-11 8.403136e-05
000250 42 0e 17 3f f6 07 a7 2f 2f 0f 17 3f 4f 22 07 3f
       0.5900613 3.038278e-10 0.59007543 0.52786726
000260 f6 12 17 3f 16 13 17 3f eb 57 30 aa 7d c2 22 2b
       0.5901331 0.590135 -1.5662443e-13 5.782387e-13
000270 ba 14 17 3f 95 b6 c3 32 65 9f e5 aa 91 c4 b2 aa
       0.59016 2.2784016e-08 -4.0789174e-13 -3.1755547e-13
000280 77 8f 00 bf e3 91 eb be 93 11 17 3f 40 5e 07 32
       -0.5021891 -0.4600974 0.5901119 7.879464e-09
000290 de fe db b8 59 75 9e ad 65 0e 17 3f 8b 6d 90 b3
       -0.000104902065 -1.8014633e-11 0.5900634 -6.725448e-08
0002a0 0f 14 17 3f 9b 0e 17 3f 85 25 20 b1 6a df c1 3b
       0.5901498 0.5900666 -2.3304392e-09 0.0059165256
0002b0 74 92 8b b8 f9 11 17 3f cf ea a1 38 46 e2 14 bf
       -6.6553155e-05 0.590118 7.720815e-05 -0.58157766
0002c0 86 58 43 3b 11 06 14 b8 14 cc a3 a9 08 9f 01 37
       0.0029807403 -3.52916e-05 -7.274056e-14 7.7260265e-06
0002d0 34 05 13 3f 9d 11 17 3f 28 10 17 3f 0e 6a 18 29
       0.57429814 0.5901125 0.5900903 3.3842768e-14
0002e0 1e 11 17 3f be 0e 17 3f 39 77 04 3a a2 ca 83 34
       0.59010494 0.5900687 0.0005053166 2.4548086e-07
0002f0 61 d7 27 33 45 bb 0d bf bb 67 fd 2c 7f 14 17 3f
       3.9078603e-08 -0.55363876 7.202209e-12 0.5901565
000300 49 f6 9f b7 d0 9b b2 b5 88 55 cc b8 73 c4 38 32
       -1.9068963e-05 -1.3307381e-06 -9.7434095e-05 1.0754877e-08
000310 58 80 04 bf be d0 c7 b2 76 0d 07 34 93 1b c7 af
       -0.5175834 -2.3261574e-08 1.2577752e-07 -3.6217482e-10

bn1.running_mean f4 [200]
000000 00 00 00 00 8d 02 a8 46 8b bf de 43 00 00 00 00
       0.0 21505.275 445.49643 0.0
000010 ba c9 19 46 c0 11 2f 46 27 aa b1 46 9c 97 f6 43
       9842.432 11204.4375 22741.076 493.18445
000020 00 00 00 00 00 00 00 00 00 00 00 00 52 9a aa 46
       0.0 0.0 0.0 21837.16
000030 f3 17 ad 46 9b 03 68 45 68 b7 2d 45 90 62 a5 46
       22155.975 3712.2253 2779.463 21169.281
000040 00 00 00 00 00 00 00 00 98 25 8e 46 00 00 00 00
       0.0 0.0 18194.797 0.0
000050 00 00 00 00 be e9 d0 46 2f 33 8a 46 00 00 00 00
       0.0 26740.871 17689.592 0.0
000060 00 00 00 00 00 00 00 00 00 00 00 00 ff 5f b3 46
       0.0 0.0 0.0 22959.998
000070 d7 df 38 46 00 00 00 00 79 98 48 44 90 6e f3 45
       11831.96 0.0 802.3824 7789.8203
000080 dc 24 5d 46 00 00 00 00 fa 88 51 44 00 00 00 00
       14153.215 0.0 838.14026 0.0
000090 24 e7 04 46 00 00 00 00 c3 3c 92 46 bf 90 38 44
       8505.785 0.0 18718.38 738.26166
0000a0 00 00 00 00 00 00 00 00 3d 90 bd 46 00 00 00 00
       0.0 0.0 24264.12 0.0
0000b0 2a 21 36 46 2e 00 44 44 00 00 00 00 da f6 86 46
       11656.291 784.0028 0.0 17275.426
0000c0 c4 34 ad 46 00 00 00 00 00 00 00 00 00 00 00 00
       22170.383 0.0 0.0 0.0
0000d0 36 84 a7 40 4c c3 31 46 54 84 9f 45 00 00 00 00
       5.234889 11376.824 5104.541 0.0
0000e0 4f d3 1d 46 00 00 00 00 1d c8 cc 46 00 00 00 00
       10100.827 0.0 26212.057 0.0
0000f0 06 35 2a 40 00 00 00 00 00 00 00 00 00 00 00 00
       2.6594863 0.0 0.0 0.0
000100 eb d8 97 46 23 ad 0b 46 00 00 00 00 00 00 00 00
       19436.459 8939.284 0.0 0.0
000110 14 c9 a1 3e 8a f1 a7 46 00 00 00 00 00 00 00 00
       0.31598723 21496.77 0.0 0.0
000120 aa 4b fe 44 96 f7 9b 3e da c6 5e 42 00 00 00 00
       2034.3645 0.3046233 55.69419 0.0
000130 00 00 00 00 00 00 00 00 00 00 00 00 55 92 c1 44
       0.0 0.0 0.0 1548.5729
000140 9e f0 ac 46 46 9f 3a 46 00 00 00 00 fb 83 7f 46
       22136.309 11943.818 0.0 16352.995
000150 00 00 00 00 00 00 00 00 8c 96 13 45 cb e2 0a 46
       0.0 0.0 2361.4092 8888.698
000160 f8 19 78 46 31 de 8b 42 df 27 a8 46 00 00 00 00
       15878.492 69.93397 21523.936 0.0
000170 66 4f 8a 43 00 00 00 00 33 e6 6a 45 bc 5e a7 46
       276.6203 0.0 3758.3875 21423.367
000180 96 a2 78 44 86 9a ad 46 a5 f1 c4 46 00 00 00 00
       994.5404 22221.262 25208.822 0.0
000190 00 00 00 00 58 19 99 45 e6 f9 1c 44 00 00 00 00
       0.0 4899.168 627.90466 0.0
0001a0 a0 4f c5 42 00 00 00 00 00 00 00 00 df f8 da 45
       98.65552 0.0 0.0 7007.109
0001b0 00 00 00 00 db 3e ae 46 00 00 00 00 bc 9f fa 43
       0.0 22303.428 0.0 501.24792
0001c0 83 25 bb 45 00 00 00 00 9c 38 f6 42 fe d0 77 46
       5988.689 0.0 123.110565 15860.248
0001d0 00 00 00 00 c8 0e 94 45 00 00 00 00 00 00 00 00
       0.0 4737.8477 0.0 0.0
0001e0 00 00 00 00 f8 3e af 46 6e 3a 0a 44 8c c0 af 46
       0.0 22431.484 552.91296 22496.273
0001f0 1e c2 3b 46 00 00 00 00 00 00 00 00 00 00 00 00
       12016.529 0.0 0.0 0.0
000200 ea 26 8d 43 8f 5e 0a 44 44 1b a9 46 00 00 00 00
       282.30402 553.4775 21645.633 0.0
000210 47 99 6c 46 00 00 00 00 1a f3 b1 44 0e 0a b7 44
       15142.319 0.0 1423.5969 1464.3142
000220 1a 6c a3 46 9f fb c5 45 00 00 00 00 00 00 00 00
       20918.05 6335.4526 0.0 0.0
000230 00 00 00 00 00 00 00 00 c4 58 07 46 00 00 00 00
       0.0 0.0 8662.191 0.0
000240 2c 14 f1 43 e7 f5 2f 44 00 00 00 00 00 00 00 00
       482.1576 703.8422 0.0 0.0
000250 be 14 a8 46 00 00 00 00 3c 77 b3 46 00 00 00 00
       21514.371 0.0 22971.617 0.0
000260 43 c3 3b 46 a6 5e 24 46 00 00 00 00 00 00 00 00
       12016.815 10519.662 0.0 0.0
000270 4e a9 85 46 e3 89 ca 45 00 00 00 00 00 00 00 00
       17108.652 6481.236 0.0 0.0
000280 00 00 00 00 00 00 00 00 49 64 06 46 dd ab e6 43
       0.0 0.0 8601.071 461.34268
000290 00 00 00 00 00 00 00 00 45 6e a7 46 7c e6 44 44
       0.0 0.0 21431.135 787.6013
0002a0 5c a3 78 46 c2 32 a9 46 00 00 00 00 0f 20 f8 44
       15912.84 21657.379 0.0 1985.0018
0002b0 00 00 00 00 08 09 a0 45 00 00 00 00 00 00 00 00
       0.0 5121.129 0.0 0.0
0002c0 00 00 00 00 43 ba d1 40 00 00 00 00 00 00 00 00
       0.0 6.553987 0.0 0.0
0002d0 00 00 00 00 98 23 90 45 1a 52 b9 46 00 00 00 00
       0.0 4612.449 23721.05 0.0
0002e0 21 09 c9 46 e4 d1 a4 46 79 5d 06 44 00 00 00 00
       25732.564 21096.945 537.4605 0.0
0002f0 00 00 00 00 00 00 00 00 00 00 00 00 ab 44 89 46
       0.0 0.0 0.0 17570.334
000300 00 00 00 00 00 00 00 00 00 00 00 00 84 11 a3 44
       0.0 0.0 0.0 1304.5474
000310 13 56 96 44 0b a0 30 45 5d 91 21 45 00 00 00 00
       1202.6898 2826.0027 2585.0852 0.0
