Results/NN_MLP_MLs/MLP_Ensemble/Model_Results/LagRD/3layer-test1-lr-200/best_model_1.pt (torch, 36125 bytes, 20 tensors)

country_embedding.weight f4 [8, 2]
0	0x41bfa6a6	23.956371
1	0x41c0e87b	24.113516
2	0x4195d4a9	18.728838
3	0x4196c901	18.848146
4	0xc25e033a	-55.50315
5	0xc25e8764	-55.632217
6	0x41a5c6ae	20.722012
7	0x41a6f115	20.867716
8	0x41b28add	22.317804
9	0x41b4f9b2	22.621922
10	0x41be12c1	23.759157
11	0x41c02826	24.019604
12	0x411c2b01	9.760499
13	0x41158f9b	9.34756
14	0x408e7f09	4.453007
15	0x4092bfa4	4.5858936

fc1.weight f4 [200, 9]
0	0x3b4a878e	0.003090355
1	0xb8b29f5b	-8.517384e-05
2	0x3c98aef5	0.018638114
3	0x3bd9699e	0.006634905
4	0xbc02172a	-0.007940093
5	0xbc52fa53	-0.012877065
6	0xbb6a357a	-0.003573744
7	0xbc16ad95	-0.009196659
8	0xbbdfe189	-0.006832306
9	0xbd0f0bd9	-0.03492341
10	0xbcbe55e6	-0.023234319
11	0x3c3ddee7	0.011588789
12	0xbd689949	-0.05678681
13	0x3c588db4	0.013217378
14	0xbcf5a9b6	-0.029988151
15	0x3ca5ad44	0.020224221
16	0x3d4cdf3d	0.050017584
17	0x3c8750c9	0.016518014
18	0xbca61204	-0.020272262
19	0xbc287da6	-0.010283863
20	0x3c995f53	0.018722212
21	0xbb68bf39	-0.0035514368
22	0x3c157f00	0.009124517
23	0xbc2255ce	-0.009908153
24	0x3cab619f	0.020920573
25	0xbc13cc82	-0.009020926
26	0x3c82fbd0	0.015989214
27	0x39845ee5	0.00025247704
28	0xbc3807d4	-0.011232335
29	0x3c338ee3	0.01095936
30	0xbc396d9d	-0.011317638
31	0x3bcd79cd	0.0062706233
32	0xbbc9bd65	-0.006156611
33	0xbb193113	-0.0023375198
34	0xbca7eb26	-0.02049787
35	0xbc268d07	-0.0101654595
36	0xbcded0fb	-0.027199259
37	0xbd340698	-0.0439516
38	0x3cadf8d0	0.021236807
39	0xbcb19664	-0.021678157
40	0xba82da77	-0.000998332
41	0xbd5916f1	-0.053000394
42	0x3c54b9a9	0.012983718
43	0x3d39e68e	0.04538589
44	0xbd573ff0	-0.05255121
45	0x3d5785f0	0.052617967
46	0xbcd38e85	-0.025824795
47	0x3c9ae82e	0.01890954
48	0xbd4fc02b	-0.050720375
49	0xbb660102	-0.0035095816
50	0xbd207d3f	-0.039181944
51	0x3b4c15bf	0.0031140891
52	0xbd611320	-0.05494988
53	0x3cc1a68e	0.02363899
54	0x3d4e4e61	0.050367717
55	0xbd334691	-0.04376847
56	0x3c2aa2cf	0.010414793
57	0xbd19d16c	-0.037553236
58	0x3be5659f	0.0070006396
59	0xbd0b9831	-0.034080688
60	0x3bfe073e	0.007752328
61	0xbce70315	-0.028199712
62	0x3c9bd699	0.019023227
63	0x3f1c5b83	0.61077136
64	0x40002e95	2.0028431
65	0xbc83c8d0	-0.016086966
66	0x3ebc50b5	0.36780325
67	0xbb6e1c0e	-0.003633264
68	0x3e6c0a07	0.230507
69	0xbc4a4e5c	-0.012347784
70	0xc2281883	-42.023937
71	0xc22789da	-41.88462
72	0x3d11d8e7	0.035607245
73	0xbcdb5aed	-0.026776755
74	0x3be09aeb	0.006854405
75	0xbd6048fb	-0.0547571
76	0x3b8c5b97	0.0042833793
77	0xbd09d1f0	-0.033647478
78	0xbc69e45f	-0.014275639
79	0xbd483bc3	-0.04888512
80	0x3d3c9353	0.046038937
81	0x3f1b2a98	0.6061187
82	0x40000053	2.0000198
83	0xbbd37dff	-0.006454229
84	0x3ed011cd	0.4063858
85	0xbb8143de	-0.003944858
86	0x3e834823	0.25640973
87	0x3c17422f	0.009232088
88	0xc2272cdf	-41.79382
89	0xc2269358	-41.64389
90	0x3f17efaa	0.59350073
91	0x3fffb9e2	1.9978602
92	0x3c6f7286	0.014614707
93	0x3eb7e44a	0.35916358
94	0x3be0b363	0.006857322
95	0x3e765250	0.24054837
96	0x3ca59e0a	0.02021696
97	0xc225eec7	-41.48318
98	0xc2256afd	-41.35448
99	0x3c8257d7	0.015911026
100	0x3c7d1010	0.015445724
101	0x3c59035d	0.013245431
102	0xbc7cd01a	-0.015430475
103	0xbc7b8cd6	-0.015353402
104	0xbc5342de	-0.01289436
105	0x3b2f8a47	0.00267853
106	0x3cae143e	0.021249887
107	0xbc5ca8ed	-0.013468009
108	0x3d4d556a	0.050130285
109	0xbd4f2260	-0.050569892
110	0xbca43854	-0.02004639
111	0xbd315be1	-0.043300513
112	0x3c49453c	0.012284573
113	0xbc9b712a	-0.01897486
114	0xbc58f1ab	-0.013241212
115	0xbd0bd886	-0.03414204
116	0x3d6a26a4	0.057165757
117	0x3f16a2a4	0.5884192
118	0x4001cb53	2.028035
119	0x3c783dda	0.015151465
120	0x3ecc96ff	0.3995895
121	0x3bb4755b	0.005507154
122	0x3e6ab3b8	0.2292012
123	0xbc92ac92	-0.017904554
124	0xc226d3f9	-41.707005
125	0xc2266f7d	-41.608875
126	0x3f16467c	0.587013
127	0x40002442	2.002213
128	0x3bd83930	0.006598614
129	0x3ec3145f	0.3810148
130	0x3c064284	0.0081945695
131	0x3e8369dc	0.25666702
132	0x3c5546bf	0.013017355
133	0xc225ce1f	-41.45129
134	0xc2258efd	-41.389637
135	0x3caaa619	0.020831155
136	0xbb2189de	-0.0024648826
137	0xba4005ba	-0.0007325072
138	0xbca4dc0f	-0.020124463
139	0xbc60d4a5	-0.013722573
140	0xbc4c139d	-0.012455848
141	0xbc1569f4	-0.0091194995
142	0x3c785ba6	0.015158569
143	0xbbe44e38	-0.006967332
144	0x3f0daebc	0.5534475
145	0x3ffc9890	1.9734058
146	0x3bdfafb6	0.0068263663
147	0x3ecbbd68	0.39792943
148	0xbc34c3fc	-0.011033054
149	0x3e5bb1b9	0.21454515
150	0xbbfe57ab	-0.0077619157
151	0xc2260911	-41.508854
152	0xc225c236	-41.43966
153	0x3cedfd9c	0.029051594
154	0xbd398b1f	-0.04529869
155	0x3c156226	0.009117639
156	0xbd0ed7db	-0.034873825
157	0x3bac93e4	0.0052666534
158	0xbc8f4383	-0.017488247
159	0x3caa3b07	0.0207801
160	0xbcc67773	-0.02422688
161	0x3d2193d0	0.039447606
162	0x3f0f1a1c	0.55899215
163	0x40021d41	2.0330355
164	0xbbaeb4b1	-0.0053315987
165	0x3ec4bb09	0.38423946
166	0xbc96787d	-0.018368
167	0x3e74e814	0.23916656
168	0xbc614f66	-0.01375184
169	0xc226e8d6	-41.72738
170	0xc2268c5f	-41.63708
171	0xbc882575	-0.016619423
172	0xba3dc9d6	-0.0007239854
173	0xbc3ce292	-0.011528628
174	0x3bf9fc20	0.0076289326
175	0xbc0676c4	-0.008207027
176	0xbc2412d7	-0.010014257
177	0x3a9e4789	0.0012075762
178	0x3c7cdfdf	0.015434234
179	0xbc75b936	-0.014997771
180	0x3c240b7b	0.010012503
181	0x3c606ba1	0.013697536
182	0x3caada7c	0.020856135
183	0xbc7480bd	-0.014923272
184	0x3ba934aa	0.0051637487
185	0xbc812675	-0.015765408
186	0x3c951e2e	0.018202867
187	0xbc078154	-0.00827058
188	0x3c526a96	0.012842795
189	0xbd1c328a	-0.038134135
190	0xbd259961	-0.040429477
191	0xba3256c8	-0.00068030925
192	0xbd0ff381	-0.035144333
193	0x3c24ab8e	0.010050667
194	0xbd10ca9f	-0.035349485
195	0x3bd5206a	0.006504108
196	0x3ca07b3c	0.019590013
197	0xbcbe58cc	-0.023235701
198	0x3f200313	0.6250469
199	0x40034758	2.0512295
200	0x3c811d3f	0.015761016
201	0x3eaf3a9d	0.34224406
202	0xbc017e72	-0.007903682
203	0x3e664295	0.22486337
204	0xbc85086b	-0.016239366
205	0xc226e45c	-41.723007
206	0xc2268e19	-41.638767
207	0x3f0e89ab	0.55678815
208	0x3fff22a5	1.9932448
209	0xbc7afc35	-0.01531892
210	0x3ec16681	0.37773517
211	0x3c7e2170	0.015510902
212	0x3e843745	0.25823417
213	0x3ca53001	0.020164492
214	0xc227577c	-41.835434
215	0xc226f937	-41.743374
216	0x3f1f588b	0.6224448
217	0x3ffe19dc	1.9851642
218	0xbc0fb987	-0.0087722605
219	0x3eb66872	0.3562656
220	0xbc744aa0	-0.01491037
221	0x3e85a7fc	0.26104724
222	0x3c5aeeb3	0.013362574
223	0xc22787f7	-41.88278
224	0xc2270c8c	-41.762253
225	0xbaf4cbe3	-0.0018676486
226	0x3c12b987	0.008955366
227	0xba21e016	-0.0006175054
228	0xbc312235	-0.010811378
229	0x39ff9082	0.00048745057
230	0xbca42b94	-0.02004031
231	0xbc76e39b	-0.015068914
232	0xbc688a5d	-0.014193145
233	0x3c8fd709	0.017558591
234	0x3c99f737	0.018794639
235	0xbbed4ecb	-0.007242059
236	0x3a7aad77	0.00095625914
237	0x3c1bca94	0.009508748
238	0x3b276b89	0.0025546274
239	0xbc2eecc6	-0.010676568
240	0x3c4977c5	0.012296622
241	0x3c56bde3	0.013106796
242	0xbaa1f659	-0.0012356743
243	0x3d140bef	0.036144193
244	0xbc9edeeb	-0.019393405
245	0x3c98ad58	0.018637344
246	0xbd504fc0	-0.050857306
247	0x3caae2ff	0.020860193
248	0xbd092f83	-0.033492576
249	0xbc680ae9	-0.014162757
250	0x3d4e9a72	0.05044026
251	0x3cbb3155	0.022850672
252	0x3f1fc988	0.6241689
253	0x3fffdf2e	1.9989984
254	0x3bc598ba	0.0060301693
255	0x3ec756d2	0.38933426

fc1.bias f4 [200]
0	0xbc1beb0f	-0.009516492
1	0xbce1b29e	-0.027550992
2	0x3ca0fca2	0.019651715
3	0x3be32c21	0.006932751
4	0xbd4f87b5	-0.05066653
5	0x3d2e2a4c	0.042520806
6	0x3cd4c68b	0.025973579
7	0x3f149a2e	0.5804776
8	0x3b8d6148	0.0043145753
9	0x3f111a17	0.56680435
10	0x3f0d3980	0.55165863
11	0x3c3a6eac	0.011378925
12	0x3d71c543	0.059026014
13	0x3f0effcf	0.5585908
14	0x3f0e2abf	0.55533975
15	0xbc1a0c31	-0.009402321
16	0x3f0d51b0	0.5520277
17	0x3b9647cb	0.004586195
18	0x3f0cf60d	0.55062944
19	0xbb83edf3	-0.0040261685
20	0x3bfb468c	0.007668322
21	0x3cf6b806	0.030117046
22	0x3f0ef218	0.55838156
23	0x3f0bf125	0.5466483
24	0x3f135d67	0.57564396
25	0xbc9f011b	-0.019409707
26	0x3b39821b	0.0028306309
27	0xbd065ebf	-0.0328052
28	0x3f0f3ad8	0.55949163
29	0x3f18836f	0.5957555
30	0x3b89a231	0.004200243
31	0xbc2cc684	-0.010545377
32	0x3cb48b7c	0.022039168
33	0x3f11e434	0.56988835
34	0x3c9043c3	0.017610436
35	0x3f09e3de	0.5386332
36	0x3f0da306	0.5532688
37	0x3f1120ed	0.56690866
38	0xbc961177	-0.018318875
39	0x3bee662c	0.0072753634
40	0x3f0f51bd	0.559841
41	0x3cfcfcc2	0.030882243
42	0x3f1504d6	0.58210504
43	0xbd22afc0	-0.03971839
44	0x3f0bebe1	0.546568
45	0xbcdb9ae0	-0.026807249
46	0xbc9fb19d	-0.019493872
47	0xbcab8cac	-0.020941101
48	0x3b81cc28	0.003961105
49	0x3f10edbc	0.56612754
50	0x3ac5e979	0.0015099488
51	0xbc560740	-0.013063252
52	0xbc7d18bf	-0.015447794
53	0x3f0a0264	0.539099
54	0xbc1a7eec	-0.009429675
55	0xbc936ab1	-0.01799521
56	0xbcadf451	-0.021234663
57	0xbb6e3498	-0.0036347266
58	0xbc0cc53a	-0.008591944
59	0x3f15af3b	0.58470505
60	0x3ca89d3c	0.020582788
61	0xbbf15207	-0.0073645147
62	0x3c98b4c6	0.018640887
63	0x3f0763a1	0.52886397
64	0x3f0fe84c	0.5621383
65	0x3f14c423	0.5811178
66	0x3f0c7888	0.54871416
67	0x3f0edd41	0.55806357
68	0x3bccbcbc	0.006248085
69	0x3b0693fa	0.0020534978
70	0x3c4c9b69	0.012488225
71	0xbc50935d	-0.012730447
72	0xbc968fe0	-0.018379152
73	0x3f1144ed	0.567458
74	0x3b0e6aff	0.0021731255
75	0xbc8c6daa	-0.017142136
76	0xbc0059b2	-0.007833885
77	0x3f0e6649	0.55624825
78	0x3a875e2a	0.0010327746
79	0x3f0e63dc	0.55621123
80	0xbc1a4451	-0.009415702
81	0x3f0eee1a	0.55832064
82	0x3f08474d	0.53233796
83	0x3ca2b44b	0.019861361
84	0x3b1ee677	0.0024246254
85	0x3c20e577	0.009820334
86	0x3f12b66f	0.5730962
87	0x3f13904c	0.57642055
88	0xbc70f4cc	-0.014706802
89	0x3f0ee176	0.55812776
90	0x3f0a9ea4	0.54148316
91	0x3f15d4e5	0.58527976
92	0xbc33410a	-0.0109407995
93	0x3c0807d0	0.008302644
94	0x3f0914af	0.53547186
95	0x3c38d732	0.011281775
96	0x3c7a272f	0.015268131
97	0x3f149708	0.58042955
98	0xbc92a99e	-0.017903145
99	0x3c5a737e	0.0133332
100	0xbd05693a	-0.032571055
101	0xbb916f67	-0.004438329
102	0x3c85e586	0.016344797
103	0x3f165298	0.5871978
104	0x3f0d71c2	0.55251706
105	0xbce672d7	-0.028130932
106	0x3bb39e05	0.005481484
107	0xbc17009d	-0.009216455
108	0xbc8a7ed0	-0.016906172
109	0xbb2f5ec1	-0.0026759359
110	0xbc94be29	-0.018157082
111	0x3c2c1723	0.010503563
112	0xbc662be2	-0.014048548
113	0xbbedcea1	-0.007257298
114	0x3f09dbae	0.5385083
115	0x3f0f3716	0.5594343
116	0x3f0ca678	0.5494151
117	0x3c40c121	0.0117647955
118	0x3f0e12a4	0.55497193
119	0x3c6b28b2	0.014352964
120	0x3f123186	0.57106817
121	0xbc607e02	-0.013701918
122	0xbd0f3402	-0.034961708
123	0xbc8fe4be	-0.017565127
124	0x3f0b166b	0.5433108
125	0x3f104e2c	0.5636928
126	0xbc5aeb2c	-0.013361733
127	0x3c38f60c	0.011289131
128	0xbbe18fc6	-0.006883594
129	0xba4c97c9	-0.00078046
130	0x3f105a89	0.56388146
131	0x3f0a796e	0.54091537
132	0x3c91a482	0.017778639
133	0x3f0cb658	0.54965734
134	0xbc8d60a7	-0.017258001
135	0x3f13bb79	0.57707936
136	0xbc9985d3	-0.01874057
137	0x3f10f2ad	0.56620294
138	0xbc620baa	-0.013796726
139	0x3d0aa845	0.03385188
140	0xbbcd7ca0	-0.00627096
141	0x3f16fb6f	0.5897741
142	0x3f10654a	0.56404555
143	0x3cad25ca	0.021136183
144	0x3f12062c	0.5704067
145	0x3c5ed1b7	0.013599805
146	0x3f09655f	0.53670305
147	0xbc6a5467	-0.01430235
148	0x3c3bff25	0.011474405
149	0x3d31fb50	0.04345256
150	0x3f158a5d	0.5841425
151	0x3f12ed17	0.5739302
152	0x3c5d7d81	0.013518692
153	0x3c2429fb	0.010019775
154	0xbc0167ee	-0.007898314
155	0xbbdd5004	-0.0067539234
156	0x3f14d373	0.58135146
157	0x3f159a4f	0.5843858
158	0xbad3c1cf	-0.0016155782
159	0x3f0f9290	0.5608301
160	0x3c40fead	0.011779469
161	0x3c67952c	0.014134686
162	0xb9cf804f	-0.00039577714
163	0xbbce9939	-0.0063048867
164	0xbcae0226	-0.021241259
165	0x3aabb0eb	0.001309899
166	0x3c50dc7e	0.012747882
167	0xbc803aea	-0.015653092
168	0xbc81aced	-0.015829528
169	0x3f0d21bb	0.55129594
170	0x3d147a1a	0.036249258
171	0x3f10d952	0.56581604
172	0x3cacdb6c	0.021100722
173	0x3f11e316	0.5698713
174	0xbb134fbc	-0.0022477945
175	0x3f0e8a02	0.55679333
176	0xbc4d15c9	-0.012517401
177	0x3f0c62b2	0.548381
178	0xbc494287	-0.012283928
179	0x3f133e28	0.5751672
180	0x3f0d5f05	0.55223113
181	0x3c00cfcc	0.007862043
182	0xbc235b62	-0.009970518
183	0xbc343322	-0.010998519
184	0x3b868c48	0.0041060783
185	0x3a38d643	0.00070509705
186	0x3c4ea909	0.012613543
187	0x3c62ed03	0.013850453
188	0x3f102f0e	0.563218
189	0x3f157079	0.58374745
190	0xbc39f7db	-0.011350597
191	0x3f10b705	0.56529266
192	0x3f0e3db1	0.55562884
193	0x3b64bdc3	0.0034903146
194	0x3f111364	0.5667021
195	0x3f07c4e9	0.53034836
196	0x3ba45952	0.0050155306
197	0xbca08529	-0.019594746
198	0x3f1056d8	0.56382513
199	0x3ceb81b6	0.028748374

fc2.weight f4 [20, 200]
0	0xbefb097f	-0.49030682
1	0x3f011fb4	0.50439
2	0xbf002493	-0.5005581
3	0x3efc0972	0.49225956
4	0x3ee63abf	0.44966695
5	0xbee09641	-0.43864635
6	0x3efc1d5e	0.49241155
7	0x3fc9f7d6	1.5778759
8	0xbed1d1b1	-0.40980294
9	0x3fbec9a4	1.4905286
10	0x3fc78930	1.5588741
11	0xbf00a0f6	-0.50245607
12	0x3f03c576	0.51473176
13	0x3fc674d3	1.5504402
14	0x3fc28745	1.5197531
15	0xbefcfb3f	-0.49410436
16	0x3fc537a5	1.5407606
17	0x3f055c49	0.5209394
18	0x3fc7b9ab	1.5603536
19	0xbefb395e	-0.49067205
20	0xbefeca7c	-0.49763858
21	0x3f00c52e	0.5030087
22	0x3fd260fc	1.6435847
23	0x3fc23259	1.5171615
24	0x3fc3ab01	1.5286561
25	0x3efdc2c6	0.49562663
26	0xbefff3aa	-0.49990588
27	0x3f054330	0.52055645
28	0x3fc10b47	1.5081567
29	0x3fc23bb2	1.5174468
30	0x3f02456b	0.50887173
31	0xbefe7f93	-0.49706706
32	0x3f02f856	0.5116018
33	0x3fc2fa9a	1.5232728
34	0x3f009495	0.5022672
35	0x3fc8f314	1.5699182
36	0x3fc35d15	1.5262781
37	0x3fc276eb	1.5192541
38	0xbefe5c0d	-0.49679604
39	0x3ef949f3	0.4868923
40	0x3fc5e087	1.5459145
41	0x3c3ca0bb	0.0115129305
42	0x3fcd2a29	1.6028491
43	0xbef3b9f8	-0.4760282
44	0x3fbd3ba5	1.4783827
45	0x3f022a61	0.50845915
46	0x3efb0674	0.4902836
47	0x3f009e0b	0.50241154
48	0x3efeff2a	0.4980405
49	0x3fcaa8d4	1.5832772
50	0xbef4758a	-0.47745925
51	0xbefb7794	-0.49114668
52	0x3f057ffa	0.521484
53	0x3fc539b1	1.5408231
54	0x3f015068	0.50513315
55	0xbefe4484	-0.49661648
56	0x3efce6d6	0.49394864
57	0xbeda485a	-0.42633325
58	0x3ef90358	0.48635364
59	0x3fc481f0	1.5352154
60	0xbefcb2b9	-0.49355105
61	0xbee4b899	-0.44672087
62	0x3efbe283	0.49196252
63	0x3fc260ee	1.518583
64	0x3fc0f0da	1.5073502
65	0x3fcb19ad	1.5867211
66	0x3fbf86dd	1.4963032
67	0x3fc3a677	1.5285176
68	0x3ef5d32b	0.4801267
69	0xbefe1417	-0.49624702
70	0x3f05e3f5	0.5230096
71	0x3eff659d	0.49882212
72	0xbeff61f9	-0.49879435
73	0x3fc0bb40	1.5057144
74	0xbf00b2d2	-0.5027286
75	0x3efd053d	0.4941806
76	0x3efca287	0.4934275
77	0x3fc57934	1.5427613
78	0x3efd9350	0.49526453
79	0x3fc03e8a	1.5019085
80	0x3f00bc17	0.50287
81	0x3fca44c5	1.5802237
82	0x3fbf667e	1.4953153
83	0x3efe9458	0.49722552
84	0xbefffb81	-0.4999657
85	0xbeff3d3e	-0.49851412
86	0x3fc6b3d9	1.5523635
87	0x3fc44650	1.5333958
88	0x3efbde1a	0.49192888
89	0x3fc3c126	1.5293319
90	0x3fc41837	1.531989
91	0x3fd03863	1.6267208
92	0xbefc80ec	-0.4931711
93	0xbefd2fbb	-0.49450478
94	0x3fc860d9	1.5654556
95	0xbf013b99	-0.50481564
96	0xbefe1ce0	-0.49631405
97	0x3fc53c57	1.5409039
98	0xbef86dd5	-0.48521295
99	0xbeff6894	-0.49884474
100	0x3f052f06	0.5202488
101	0xbed69e33	-0.4191757
102	0x3f059d6c	0.5219333
103	0x3fcaae0e	1.5834367
104	0x3fc32bbd	1.5247723
105	0xbed60e90	-0.41807985
106	0xbef88f0d	-0.4854664
107	0x3f00aa2c	0.5025966
108	0x3effaa65	0.49934688
109	0x3efde0a0	0.49585438
110	0xbefc7472	-0.4930759
111	0xbeff8d20	-0.49912357
112	0xbefffba2	-0.49996668
113	0xbf010dd4	-0.50411725
114	0x3fbe6560	1.4874687
115	0x3fd0822e	1.6289728
116	0x3fc600cf	1.5468997
117	0x3f000cf8	0.5001979
118	0x3fca237c	1.5792079
119	0xbeff45fe	-0.49858087
120	0x3fc0b589	1.50554
121	0x3ed91700	0.4240036
122	0x3c33d1d4	0.01097532
123	0xbeff261a	-0.49833757
124	0x3fc334af	1.5250453
125	0x3fc94084	1.5722814
126	0xbf004494	-0.5010464
127	0x3effda43	0.49971208
128	0x3efca25f	0.4934263
129	0xbefd2ff5	-0.4945065
130	0x3fc79b59	1.5594283
131	0x3fc2e9c3	1.5227588
132	0xbefd43fc	-0.4946593
133	0x3fcc0fa6	1.5942276
134	0x3f0044d5	0.5010503
135	0x3fd47cad	1.6600548
136	0x3efdad38	0.49546218
137	0x3fc2864e	1.5197237
138	0xbefd3005	-0.49450698
139	0xbf08136b	-0.5315463
140	0xbefce643	-0.49394426
141	0x3fd1bf67	1.6386536
142	0x3fc51513	1.5397056
143	0x3efe1f0d	0.49633065
144	0x3fc1dc31	1.5145322
145	0xbf002adf	-0.50065416
146	0x3fbef555	1.4918619
147	0xbeff78a3	-0.49896726
148	0xbefe13cd	-0.49624482
149	0xbedb655c	-0.4285077
150	0x3fc7deb6	1.5614841
151	0x3fcab550	1.5836582
152	0x3efa1efa	0.48851758
153	0x3efd92ea	0.4952615
154	0x3f005847	0.501347
155	0x3f009c35	0.50238353
156	0x3fc2f50f	1.5231036
157	0x3fc2a795	1.5207392
158	0xbefe8e35	-0.4971787
159	0x3fcc60ca	1.5967038
160	0x3efdd5d8	0.49577212
161	0x3f00f7a4	0.5037787
162	0xbefefa3b	-0.49800286
163	0x3ef967cc	0.48712003
164	0xbf00cab8	-0.50309324
165	0x3efbae28	0.49156308
166	0xbec36090	-0.3815961
167	0x3f001514	0.5003216
168	0x3efc8adf	0.493247
169	0x3fc77014	1.5581079
170	0x3f01a08b	0.50635594
171	0x3fc30ebf	1.5238875
172	0x3effa2f8	0.49929023
173	0x3fbf9cd3	1.4969734
174	0x3efd3ea3	0.4946185
175	0x3fbd6b2b	1.479833
176	0x3f0132a0	0.5046787
177	0x3fc2d865	1.5222288
178	0x3efc0ef4	0.49230158
179	0x3fca8165	1.5820738
180	0x3fc0a854	1.505137
181	0xbef910c1	-0.48645595
182	0x3efb5b93	0.49093303
183	0x3efe62e4	0.49684823
184	0x3f04e552	0.51912415
185	0x3efe6471	0.49686006
186	0x3f00bbff	0.5028686
187	0x3ef9c588	0.48783517
188	0x3fcd97c2	1.6061938
189	0x3fcaa6a5	1.5832106
190	0x3efd1961	0.49433425
191	0x3fcac5f1	1.5841657
192	0x3fc4b536	1.5367801
193	0xbefc2956	-0.49250287
194	0x3fc50525	1.5392195
195	0x3fc0854e	1.5040681
196	0xbf0348be	-0.5128287
197	0xbefd279e	-0.49444288
198	0x3fc35007	1.5258797
199	0xbee34f42	-0.44396406
200	0x3cf14c3b	0.029455295
201	0xbc8700a4	-0.016479798
202	0x3ced5c51	0.028974684
203	0xbcdca77a	-0.026935328
204	0x3c6631e8	0.0140499845
205	0x3cbbb1cf	0.022911934
206	0x3c213d66	0.009841299
207	0xbd0a2472	-0.033726163
208	0x3cca15bc	0.024668567
209	0xbd88bec5	-0.066770114
210	0xbd7e7ec1	-0.0621326
211	0x3d08f191	0.0334335
212	0xbd412dd0	-0.04716283
213	0xbd8fb089	-0.07016093
214	0x3c8479d7	0.016171379
215	0x3cf5180f	0.029918699
216	0x3cb1e313	0.021714723
217	0xbd6d6a0b	-0.05796246
218	0xbd8b8684	-0.06812766
219	0x3d04437c	0.03229092
220	0x3d0c5baf	0.034267124
221	0x3c8e1df9	0.017348276
222	0x3c82b28e	0.015954282
223	0x3c440427	0.011963881
224	0xbd35df8a	-0.044402637
225	0xbce71e06	-0.028212558
226	0x3cfba7ee	0.030719724
227	0xbd79d3f3	-0.060993146
228	0xbd83129a	-0.06400032
229	0xbd905a51	-0.070484765
230	0xbc030cd2	-0.007998662
231	0x3cf140d8	0.029449865
232	0xbc75686e	-0.014978511
233	0x3c5f889b	0.013643409
234	0xbcea527d	-0.028603787
235	0xbd806634	-0.06269494
236	0x3cb5e951	0.02220598
237	0xbd86ccdd	-0.06582043
238	0x3d0243af	0.03180283
239	0xbcda038c	-0.02661302
240	0xbd823529	-0.06357796
241	0x3cb0b3c0	0.021570086
242	0xbaf65158	-0.0018792553
243	0x3cadf75d	0.021236116
244	0x3c5fb97b	0.013655062
245	0xbd54d6c6	-0.051962636
246	0xbd086612	-0.033300467
247	0xbd02a67e	-0.03189706
248	0xbd02da9b	-0.03194676
249	0x3bb8d909	0.005641107
250	0x3cc3320d	0.023827577
251	0x3cfe01f1	0.031006785
252	0x3c25c9c0	0.010118902
253	0xbd85d6e9	-0.065351315
254	0xbd064c6e	-0.032787733
255	0x3cec33e9	0.028833346

fc2.bias f4 [20]
0	0x3f1d4dff	0.6144714
1	0x3b39ffd7	0.0028381252
2	0x3f28d6c7	0.65952724
3	0x3f26891b	0.65052956
4	0xbd5ae5e3	-0.053441893
5	0x3cc50f4c	0.024055146
6	0x3f20658f	0.62654966
7	0x3cb5a7bc	0.022174709
8	0x3f1c7140	0.61110306
9	0x3f1e6378	0.6187053
10	0xbd69cfe1	-0.057083014
11	0x3c12e0cd	0.0089647295
12	0xbd1a6bad	-0.037700344
13	0x3f2be0d6	0.6713995
14	0xbd550026	-0.052002095
15	0xbd643acf	-0.055720147
16	0xbc9b636b	-0.018968305
17	0xbc33bd39	-0.010970407
18	0x3f28a070	0.6586981
19	0x3f1b2c99	0.60614926

fc3.weight f4 [20, 20]
0	0xbc2ac346	-0.010422533
1	0xbcf97d24	-0.03045518
2	0xbc84a56d	-0.016192162
3	0xbd645b49	-0.05575112
4	0xbce17632	-0.02752218
5	0xbcae2534	-0.021257974
6	0xbda38249	-0.07983834
7	0xbc978f06	-0.018500816
8	0xbd379640	-0.044821024
9	0xbdb6d1e4	-0.08926752
10	0x3d2536c6	0.04033544
11	0xbcaeab20	-0.021321833
12	0x3d2c0f5c	0.042006835
13	0xbda6fcba	-0.081536725
14	0x3cf411cf	0.029793648
15	0x3d5dd9d1	0.054162804
16	0x3c25bef1	0.010116325
17	0x3d040813	0.032234263
18	0xbcf9ef4f	-0.030509619
19	0xbd12b28e	-0.035814814
20	0xbd13c511	-0.03607661
21	0x3cb1fe84	0.021727808
22	0xbcd91e75	-0.02650378
23	0xbd1397e7	-0.036033537
24	0x3be9ba88	0.007132832
25	0x3cb39e2d	0.02192601
26	0xbca84c3c	-0.020544164
27	0x3c6155a4	0.0137533285
28	0xbd262fce	-0.040572934
29	0xbd4fc4f9	-0.050724957
30	0x3ccc7b84	0.02496124
31	0x3c8e307b	0.017357102
32	0x3c041b1f	0.008063107
33	0xbd52fdf5	-0.051511724
34	0x3ba7e53a	0.0051237615
35	0x3cbcbcc3	0.023039227
36	0x3c8c4f3e	0.01712763
37	0x3cb63141	0.022240283
38	0xbd368911	-0.04456431
39	0xbcfd6012	-0.030929599
40	0xbd2b5235	-0.041826446
41	0x3d5a4de0	0.053296924
42	0xbca4a3f9	-0.02009772
43	0xbd3da7eb	-0.046302717
44	0x3d0174e2	0.03160561
45	0x3c7b8d5d	0.015353528
46	0xbc869efc	-0.016433232
47	0x3d13a798	0.0360485
48	0xbd1775df	-0.036977645
49	0xbcc082d9	-0.023499893
50	0x3c936b92	0.01799563
51	0x3d12d448	0.03584698
52	0x3cfb5593	0.030680453
53	0xbd3f2516	-0.046666227
54	0x3d143bd0	0.036189854
55	0x3cfde718	0.030993983
56	0xb8717015	-5.7563262e-05
57	0x3ccdc796	0.025119584
58	0xbd5c3e8a	-0.05377058
59	0xbd230a21	-0.03980458
60	0xbd7044ba	-0.058659293
61	0x3cbf2e1d	0.023337418
62	0xbd9f1da7	-0.077693276
63	0xbd1e21c1	-0.03860641
64	0x3d22642d	0.039646316
65	0x3cbd184f	0.02308288
66	0xbd80f0d2	-0.06295933
67	0x3c687eb5	0.014190366
68	0xbd8016d4	-0.06254354
69	0xbd713287	-0.058886077
70	0x3d25a79e	0.040443055
71	0x3cb521d2	0.022110853
72	0x3d2f285a	0.04276309
73	0xbd672e89	-0.056440864
74	0x3d3810c0	0.04493785
75	0x3d0c1848	0.034202844
76	0x3d5f3894	0.054497316
77	0x3d3303bf	0.043704744
78	0xbcd955a6	-0.026530098
79	0xbd8d6006	-0.06903081
80	0xbc77e017	-0.015129111
81	0x3d0b15cf	0.033956345
82	0xbb81cfc3	-0.0039615347
83	0xbd8f0dea	-0.06985076
84	0x3b3d4c92	0.002888475
85	0x3bc6a73e	0.0060624173
86	0xbaafc2dc	-0.0013409513
87	0x3cd07401	0.02544594
88	0xbc88f807	-0.016719831
89	0xbcb77e16	-0.02239899
90	0xbc8553b5	-0.016275266
91	0x3c3949c0	0.011309087
92	0xbca50aa8	-0.020146683
93	0xbd90bde6	-0.0706747
94	0xbd0dca5d	-0.034616817
95	0xbcc7c7de	-0.024387296
96	0xbca9ff53	-0.02075163
97	0xbd2c2bdd	-0.04203402
98	0xbd869742	-0.06571819
99	0xbc5bce34	-0.013415862
100	0x3fc4eb9e	1.5384405
101	0xbf267d56	-0.65035
102	0x3fc2ae17	1.5209378
103	0x3fc6940e	1.5513933
104	0xbf1e704f	-0.6189012
105	0xbf26f079	-0.6521068
106	0x3fc460a1	1.5341989
107	0xbf20414c	-0.62599635
108	0x3fc53830	1.5407772
109	0x3fc5c4ff	1.5450743
110	0xbf195083	-0.59888476
111	0xbf2231f6	-0.63357484
112	0xbf1c8537	-0.6114077
113	0x3fc82ad9	1.5638076
114	0xbf161e42	-0.5863992
115	0xbf170d75	-0.5900491
116	0xbf11ba1f	-0.56924623
117	0xbf155b06	-0.58342016
118	0x3fc83527	1.5641221
119	0x3fc2729d	1.5191227
120	0x3fc33180	1.5249481
121	0xbf227b59	-0.63469464
122	0x3fc40bb2	1.5316069
123	0x3fc3d1b5	1.5298373
124	0xbf1ba773	-0.6080238
125	0xbf1fec02	-0.62469494
126	0x3fc3d3ac	1.5298972
127	0xbf1dba70	-0.61612606
128	0x3fc1c3b0	1.5137844
129	0x3fc57699	1.5426818
130	0xbf1ac4a1	-0.6045628
131	0xbf1b4a21	-0.60659987
132	0xbf1a94ec	-0.60383487
133	0x3fc55e7c	1.5419459
134	0xbf1af2bd	-0.6052664
135	0xbf1bdee5	-0.60886985
136	0xbf158b30	-0.5841551
137	0xbf19ef5c	-0.6013086
138	0x3fc35ca9	1.5262653
139	0x3fc2b0af	1.521017
140	0xbccb3a26	-0.024808
141	0x3b41c112	0.0029564542
142	0x3b489af9	0.003060995
143	0xbd65125b	-0.05592571
144	0xb934a296	-0.00017226706
145	0x3ce3d2f3	0.02781055
146	0x3b7d7d88	0.0038679559
147	0x3b5202df	0.0032045168
148	0xbcf99ced	-0.030470336
149	0x3c3ccbda	0.011523211
150	0x3b577373	0.003287521
151	0x3c0908c6	0.008363908
152	0xbc843f36	-0.016143423
153	0xbd6d1b8c	-0.0578876
154	0x3bd9aa3d	0.0066426084
155	0xbc3851a9	-0.011249938
156	0xbb58fa0b	-0.0033108022
157	0xbab7c5c3	-0.001402073
158	0xbd881c98	-0.06646079
159	0xbd4dfc17	-0.05028924
160	0xbd6ad89c	-0.05733548
161	0x3ce86af6	0.028371315
162	0xbd2bcd76	-0.04194399
163	0xbd61d917	-0.055138674
164	0x3cd5cb28	0.026097849
165	0x3c7b6ba2	0.015345486
166	0xbcf8143f	-0.030283092
167	0x3cc05bfc	0.023481362
168	0xbd71a68e	-0.05899673
169	0xbd5044a3	-0.050846707
170	0x3c615a90	0.013754502
171	0x3cce6fac	0.025199734
172	0x3ca75b8f	0.0204294
173	0xbdafd453	-0.085854195
174	0x3bbfdd66	0.00585525
175	0x3cc1f78a	0.023677606
176	0xbcebfb80	-0.028806448
177	0x3cfa6431	0.030565353
178	0xbd81d2b0	-0.063390136
179	0xbd4fd2c6	-0.05073812
180	0xbd117c94	-0.035519198
181	0x3d0149b8	0.031564444
182	0xbd04caec	-0.032420084
183	0xbd17a5ae	-0.03702324
184	0x3c0e3c2c	0.008681338
185	0xbbb92e92	-0.0056513036
186	0xbc238bbe	-0.009982048
187	0x3cd581d4	0.026062883
188	0xbd1e7b79	-0.03869197
189	0xbcf64789	-0.030063407
190	0x3b628e47	0.0034569667
191	0x3b86ee88	0.0041177906
192	0x3c6cfaa3	0.014464053
193	0xbd78528b	-0.060625594
194	0x3b897725	0.0041951113
195	0xbb823064	-0.003973054
196	0x3be315df	0.0069300975
197	0x3b014fb2	0.001973134
198	0xbd37969d	-0.04482137
199	0xbcd3dcc6	-0.025862109
200	0xbd695fb2	-0.056976028
201	0x3d083ef5	0.033263166
202	0xbd2afb91	-0.04174382
203	0xbd21d40f	-0.039508875
204	0x3c4408d1	0.011964993
205	0x3bee1ab7	0.0072663683
206	0xbcdc69c4	-0.026905902
207	0x3c2f31af	0.010692998
208	0xbd295f3d	-0.041350592
209	0xbd11a7ab	-0.03556029
210	0x3c4d40fa	0.012527699
211	0x3bcde686	0.006283584
212	0x3c935f31	0.017989727
213	0xbd5c88e6	-0.053841494
214	0x3cc6efb0	0.024284214
215	0x3cbee499	0.023302363
216	0x3ca9fbae	0.020749893
217	0x3c5d3803	0.013502124
218	0xbd379ba1	-0.044826154
219	0xbd272cc8	-0.04081419
220	0xbd244a1b	-0.040109735
221	0x3ccfab40	0.025350213
222	0xbc6fe8cf	-0.014642908
223	0xbd70532f	-0.05867308
224	0x3cc49cc1	0.024000527
225	0x3ce3f94c	0.027828835
226	0xbc9580b8	-0.018249854
227	0x3d4d067c	0.050055012
228	0xbcc0021f	-0.023438511
229	0xbc823bf6	-0.015897732
230	0x3c8642e4	0.016389318
231	0x3d2930c9	0.04130629
232	0x3cd8eda6	0.026480507
233	0xbd776508	-0.060399085
234	0x3d11c737	0.035590377
235	0x3cf8e455	0.030382315
236	0x3d04c587	0.03241494
237	0x3d01b081	0.031662468
238	0xbd2abff6	-0.041686974
239	0xbd4ef756	-0.050528847
240	0x3fc6b0ac	1.5522666
241	0xbf1c1c14	-0.60980344
242	0x3fc55da0	1.5419197
243	0x3fc25a43	1.5183796
244	0xbf122682	-0.5709001
245	0xbf1bcdc9	-0.6086088
246	0x3fc78a86	1.5589149
247	0xbf175fd1	-0.5913058
248	0x3fc61075	1.5473772
249	0x3fc6aa28	1.5520678
250	0xbf252bd0	-0.6451998
251	0xbf18eada	-0.59733355
252	0xbf24abfc	-0.6432493
253	0x3fc25236	1.5181339
254	0xbf2595d7	-0.6468176
255	0xbf27b7c7	-0.65514797

fc3.bias f4 [20]
0	0xbc5ede91	-0.013602869
1	0xbc28be96	-0.0102993455
2	0xbad55253	-0.0016275145
3	0x3d43e068	0.047821432
4	0xbd85bee5	-0.06530551
5	0x3f383e8a	0.7197043
6	0x3f2c2405	0.6724246
7	0xbd6c9669	-0.05776063
8	0x3c997cdd	0.018736297
9	0x3cd7ad26	0.02632768
10	0x3cdd74ff	0.027033327
11	0x3d2d8e84	0.04237224
12	0x3f38c7ed	0.7218006
13	0xbd15b339	-0.036547873
14	0x3f39cdff	0.7257995
15	0x3f308c44	0.6896403
16	0x3f382f7a	0.71947443
17	0xbd6078a5	-0.054802556
18	0xbb4f5083	-0.0031633682
19	0xbc663775	-0.014051308

fc4.weight f4 [1, 20]
0	0xbf3f8bc2	-0.7482263
1	0xbf3d5b5a	-0.73967516
2	0xbf313a4d	-0.69229585
3	0xbf3ea759	-0.744741
4	0xbf396556	-0.7242025
5	0x3fc4a4e2	1.5362818
6	0x3fc68b3d	1.5511242
7	0xbefb692f	-0.49103686
8	0xbf3543d5	-0.7080663
9	0xbf39307a	-0.72339594
10	0xbf3da6e5	-0.74082786
11	0xbf40958f	-0.7522821
12	0x3fc62c16	1.5482204
13	0xbf36244f	-0.7114915
14	0x3fc698cc	1.551538
15	0x3fc57ecb	1.5429319
16	0x3fc7300b	1.5561537
17	0xbf2a5d0e	-0.6654824
18	0xbf2c306a	-0.67261374
19	0xbf3858b9	-0.7201038

bn1.weight f4 [200]
0	0x3d82ff32	0.06396331
1	0xbed41404	-0.4142152
2	0x3d82ff32	0.06396331
3	0x3d82ff32	0.06396331
4	0xbeb1deb0	-0.3474021
5	0x3ef99e53	0.48753604
6	0xbee308e1	-0.44342712
7	0x3fd3affe	1.6538084
8	0x3eec1e43	0.46116838
9	0x3fc854f2	1.5650923
10	0x3fd493d0	1.6607609
11	0x3d82ff32	0.06396331
12	0xbeed6a57	-0.46370193
13	0x3fcf27bc	1.6184001
14	0x3fd025a2	1.6261485
15	0x3d82ff32	0.06396331
16	0x3fd2137c	1.6412196
17	0xbef02206	-0.46900958
18	0x3fcfbd09	1.6229564
19	0x3d82ff32	0.06396331
20	0x3d82ff32	0.06396331
21	0xbed7201a	-0.4201668
22	0x3fd93229	1.6968433
23	0x3fc9f795	1.5778681
24	0x3fcaadb2	1.5834258
25	0x3d82ff32	0.06396331
26	0x3d82ff32	0.06396331
27	0xbeefff72	-0.46874577
28	0x3fc92d4c	1.5716949
29	0x3fcb0c28	1.5863085
30	0xbedadd6a	-0.4274705
31	0x3d82ff32	0.06396331
32	0xbeed738f	-0.46377227
33	0x3fd0d172	1.6313918
34	0x3d82ff32	0.06396331
35	0x3fd0cff3	1.6313461
36	0x3fcb21b8	1.5869665
37	0x3fcab34d	1.5835968
38	0x3d82ff32	0.06396331
39	0x3d82ff32	0.06396331
40	0x3fd39362	1.6529353
41	0x3d5258c3	0.05135418
42	0x3fd360c1	1.6513902
43	0x3f16f147	0.5896191
44	0x3fcb5b7f	1.5887297
45	0xbed7bca4	-0.4213611
46	0x3d82ff32	0.06396331
47	0x3d82ff32	0.06396331
48	0x3d82ff32	0.06396331
49	0x3fd88c34	1.6917787
50	0x3d82ff32	0.06396331
51	0x3d82ff32	0.06396331
52	0xbef0d5c8	-0.47038102
53	0x3fcdec31	1.6087705
54	0x3d82ff32	0.06396331
55	0x3d82ff32	0.06396331
56	0x3d82ff32	0.06396331
57	0x3ef451ce	0.47718662
58	0x3d82ff32	0.06396331
59	0x3fca9ae1	1.5828515
60	0x3d82ff32	0.06396331
61	0x3f025e81	0.5092545
62	0x3d82ff32	0.06396331
63	0x3fcfb413	1.6226829
64	0x3fc94e90	1.57271
65	0x3fd85f0c	1.6904006
66	0x3fcd5dfc	1.6044307
67	0x3fcffa81	1.6248323
68	0xbed17cf8	-0.40915656
69	0x3d82ff32	0.06396331
70	0xbeefc0d2	-0.46826798
71	0x3d82ff32	0.06396331
72	0x3d82ff32	0.06396331
73	0x3fcecef7	1.6156911
74	0x3d82ff32	0.06396331
75	0x3d82ff32	0.06396331
76	0x3d82ff32	0.06396331
77	0x3fcd325d	1.6030995
78	0x3d82ff32	0.06396331
79	0x3fc80838	1.5627508
80	0x3d82ff32	0.06396331
81	0x3fd392b7	1.6529149
82	0x3fcd4725	1.6037337
83	0x3d82ff32	0.06396331
84	0x3d82ff32	0.06396331
85	0x3d82ff32	0.06396331
86	0x3fd34ee5	1.6508452
87	0x3fca8da6	1.5824478
88	0x3d82ff32	0.06396331
89	0x3fcbb173	1.5913528
90	0x3fcc2123	1.5947613
91	0x3fd7aa82	1.684891
92	0x3d82ff32	0.06396331
93	0x3d82ff32	0.06396331
94	0x3fd0707f	1.6284331
95	0x3d82ff32	0.06396331
96	0x3d82ff32	0.06396331
97	0x3fce8fe7	1.6137666
98	0x3d82ff32	0.06396331
99	0x3d82ff32	0.06396331
100	0xbeeed124	-0.46643937
101	0x3eee4e7e	0.4654426
102	0xbeef99e8	-0.4679711
103	0x3fd3b97f	1.6540984
104	0x3fcb6b99	1.5892211
105	0x3ee35437	0.44400188
106	0x3d82ff32	0.06396331
107	0x3d82ff32	0.06396331
108	0x3d82ff32	0.06396331
109	0x3d82ff32	0.06396331
110	0x3d82ff32	0.06396331
111	0x3d82ff32	0.06396331
112	0x3d82ff32	0.06396331
113	0x3d82ff32	0.06396331
114	0x3fcd7474	1.6051164
115	0x3fd9049b	1.695453
116	0x3fce7214	1.6128564
117	0x3d82ff32	0.06396331
118	0x3fd1b63f	1.6383742
119	0x3d82ff32	0.06396331
120	0x3fce4ff3	1.6118149
121	0xbeb91410	-0.3614812
122	0x3d449be5	0.048000235
123	0x3d82ff32	0.06396331
124	0x3fd12904	1.6340642
125	0x3fd156fc	1.635467
126	0x3d82ff32	0.06396331
127	0x3d82ff32	0.06396331
128	0x3d82ff32	0.06396331
129	0x3d82ff32	0.06396331
130	0x3fcf0e4a	1.6176236
131	0x3fd0777a	1.6286461
132	0x3d82ff32	0.06396331
133	0x3fd9ed7b	1.7025598
134	0x3d82ff32	0.06396331
135	0x3fdba879	1.7160789
136	0x3d82ff32	0.06396331
137	0x3fd0755a	1.6285813
138	0x3d82ff32	0.06396331
139	0x3f154d31	0.5832091
140	0x3d82ff32	0.06396331
141	0x3fd8c458	1.6934919
142	0x3fd2db19	1.6473113
143	0x3d82ff32	0.06396331
144	0x3fca1699	1.5788146
145	0x3d82ff32	0.06396331
146	0x3fc76589	1.5577861
147	0x3d82ff32	0.06396331
148	0x3d82ff32	0.06396331
149	0x3f0c643e	0.5484046
150	0x3fd4a016	1.6611354
151	0x3fd82b06	1.688813
152	0x3d82ff32	0.06396331
153	0x3d82ff32	0.06396331
154	0x3d82ff32	0.06396331
155	0x3d82ff32	0.06396331
156	0x3fcb8964	1.5901303
157	0x3fcb0d94	1.5863519
158	0x3d82ff32	0.06396331
159	0x3fd5a78a	1.6691754
160	0x3d82ff32	0.06396331
161	0x3d82ff32	0.06396331
162	0x3d82ff32	0.06396331
163	0x3d82ff32	0.06396331
164	0x3d82ff32	0.06396331
165	0x3d82ff32	0.06396331
166	0x3ede516b	0.43421492
167	0x3d82ff32	0.06396331
168	0x3d82ff32	0.06396331
169	0x3fd055ae	1.6276147
170	0xbed85dca	-0.42259055
171	0x3fd0d0d8	1.6313734
172	0x3d82ff32	0.06396331
173	0x3fc7d158	1.5610762
174	0x3d82ff32	0.06396331
175	0x3fca5350	1.5806675
176	0xbed892dc	-0.42299545
177	0x3fd0fed5	1.6327769
178	0x3d82ff32	0.06396331
179	0x3fd2ae5b	1.6459459
180	0x3fc98043	1.5742267
181	0x3d82ff32	0.06396331
182	0x3d82ff32	0.06396331
183	0x3d82ff32	0.06396331
184	0xbeee7538	-0.46573806
185	0x3d82ff32	0.06396331
186	0x3d82ff32	0.06396331
187	0x3d82ff32	0.06396331
188	0x3fda83fd	1.707153
189	0x3fd3281a	1.6496613
190	0x3d82ff32	0.06396331
191	0x3fd21316	1.6412075
192	0x3fd2187c	1.6413722
193	0x3d82ff32	0.06396331
194	0x3fd2e1b1	1.6475126
195	0x3fce555a	1.6119797
196	0x3d82ff32	0.06396331
197	0x3d82ff32	0.06396331
198	0x3fcb9755	1.5905558
199	0x3eede2cc	0.46462095

bn1.bias f4 [200]
0	0xbefe72d6	-0.49696988
1	0x3f07c96d	0.53041726
2	0xbf0416d7	-0.5159735
3	0x3f018fac	0.5060985
4	0x3ee5d862	0.4489165
5	0xbedb0fca	-0.42785484
6	0x3efccba2	0.4937411
7	0x3f0e58d7	0.5560431
8	0xbecec5e9	-0.40385368
9	0x3f1d4817	0.61438125
10	0x3f1faaad	0.62369806
11	0xbf036d2a	-0.51338446
12	0x3f05bc0d	0.5224007
13	0x3f1f0e65	0.6213134
14	0x3f1448f7	0.57923836
15	0xbf020b1d	-0.5079821
16	0x3f17136a	0.59014
17	0x3f08545a	0.5325371
18	0x3f1e609a	0.6186615
19	0xbeffd715	-0.49968782
20	0xbf020d74	-0.5080178
21	0x3f036bf4	0.513366
22	0x3f163efd	0.5868986
23	0x3f175161	0.5910855
24	0x3f17377f	0.59069055
25	0x3f029456	0.5100759
26	0xbf00fa65	-0.5038207
27	0x3f07c9e9	0.53042465
28	0x3f194c3b	0.59881943
29	0x3f1aae72	0.6042243
30	0x3f07290d	0.52797014
31	0xbf007e2d	-0.5019253
32	0x3f06f849	0.52722603
33	0x3f14b483	0.5808794
34	0x3f024c04	0.5089724
35	0x3f1eaf8f	0.6198663
36	0x3f14ad2a	0.5807673
37	0x3f1ecefc	0.62034583
38	0xbf0408c7	-0.51575893
39	0x3efec1dc	0.49757278
40	0x3f1f7bfa	0.6229855
41	0x3c5fef23	0.0136678545
42	0x3f16c2fe	0.58891284
43	0xbf073667	-0.52817386
44	0x3f1392ad	0.57645684
45	0x3f02d4ae	0.51105773
46	0x3f001cfd	0.5004423
47	0x3f031746	0.5120739
48	0x3f03c1d6	0.51467645
49	0x3f1e3b93	0.61809653
50	0xbef8adb2	-0.4857002
51	0xbf004d8c	-0.5011833
52	0x3f08944f	0.533513
53	0x3f1f99e2	0.6234418
54	0x3f03c876	0.51477754
55	0xbf025d1e	-0.50923336
56	0x3f01db97	0.5072569
57	0xbed6c64e	-0.4194817
58	0x3efde912	0.4959188
59	0x3f145025	0.5793479
60	0xbf01bd69	-0.5067964
61	0xbee3df85	-0.4450647
62	0x3efe958c	0.4972347
63	0x3f15ca36	0.58511674
64	0x3f1ef411	0.62091166
65	0x3f151780	0.58238983
66	0x3f154eb4	0.58323216
67	0x3f1454f6	0.5794214
68	0x3efc47e5	0.492736
69	0xbf038902	-0.5138093
70	0x3f076a49	0.52896553
71	0x3f0372cc	0.5134704
72	0xbf02cc01	-0.51092535
73	0x3f182fea	0.5944811
74	0xbf03155a	-0.51204455
75	0x3f021d3e	0.5082587
76	0x3f015533	0.5052063
77	0x3f1900ed	0.5976704
78	0x3f01c8bd	0.5069693
79	0x3f1e9f0d	0.6196144
80	0x3f034c8e	0.5128869
81	0x3f1a9672	0.6038581
82	0x3f16b4e8	0.5886979
83	0x3f029df1	0.5102225
84	0xbf026d8f	-0.50948423
85	0xbf035792	-0.51305497
86	0x3f1628bb	0.586559
87	0x3f13ef1c	0.57786727
88	0x3f00c777	0.5030436
89	0x3f1f83bf	0.62310404
90	0x3f14678f	0.5797052
91	0x3f1f751e	0.6228808
92	0xbf011358	-0.5042014
93	0xbf003e66	-0.5009521
94	0x3f1509f4	0.5821831
95	0xbf036aec	-0.51335025
96	0xbf0320d1	-0.5122195
97	0x3f1f08e5	0.62122947
98	0xbefb1af1	-0.49043992
99	0xbf013ae0	-0.5048046
100	0x3f061ec0	0.5239067
101	0xbecf0c01	-0.40438846
102	0x3f0852ed	0.53251535
103	0x3f1dde3f	0.61667246
104	0x3f1777a7	0.5916695
105	0xbed972c4	-0.42470372
106	0xbefd04fb	-0.49417862
107	0x3f02b0d9	0.510511
108	0x3f02e32b	0.5112788
109	0x3f00d790	0.5032892
110	0xbf009ce1	-0.5023938
111	0xbf01fa94	-0.50772977
112	0xbf023c09	-0.50872856
113	0xbf0315cc	-0.51205134
114	0x3f1cccb8	0.61249876
115	0x3f1e21f1	0.6177054
116	0x3f1f23fd	0.6216429
117	0x3f03405b	0.51270074
118	0x3f1ee260	0.6206417
119	0xbf02799d	-0.5096682
120	0x3f14fde5	0.5819991
121	0x3ee23c46	0.4418661
122	0x3c439ff2	0.011939989
123	0xbf011131	-0.50416857
124	0x3f1eaa7e	0.619789
125	0x3f15c812	0.5850841
126	0xbf044cfb	-0.5167996
127	0x3f03da95	0.51505405
128	0x3f01f35e	0.50761974
129	0xbf02337b	-0.508598
130	0x3f1cee7a	0.61301386
131	0x3f16d514	0.5891888
132	0xbf014a2c	-0.505038
133	0x3f182ab2	0.5944015
134	0x3f037066	0.5134338
135	0x3f183931	0.5946227
136	0x3f022158	0.5083213
137	0x3f14d2c3	0.58134097
138	0xbf02a97c	-0.5103986
139	0xbf034603	-0.51278704
140	0xbf022fd0	-0.50854206
141	0x3f183671	0.5945807
142	0x3f1f486b	0.62219876
143	0x3f02ab92	0.51043046
144	0x3f1df632	0.6170379
145	0xbf034800	-0.5128174
146	0x3f13c565	0.57723075
147	0xbf0206e0	-0.5079174
148	0xbf00ab0b	-0.5026099
149	0xbeedef62	-0.46471697
150	0x3f15cc39	0.58514744
151	0x3f1931c0	0.5984154
152	0x3f00023d	0.50003415
153	0x3f03160d	0.5120552
154	0x3f03ccf7	0.51484627
155	0x3f03e005	0.515137
156	0x3f1b8714	0.6075299
157	0x3f1ed42c	0.620425
158	0xbf024f98	-0.509027
159	0x3f0d09e5	0.5509322
160	0x3f012e92	0.50461686
161	0x3f0411af	0.51589483
162	0xbf018031	-0.5058623
163	0x3efa0253	0.48829898
164	0xbf02f274	-0.51151204
165	0x3f0031c8	0.5007596
166	0xbebc6407	-0.36795065
167	0x3f01fd66	0.5077728
168	0x3f00411e	0.5009936
169	0x3f1f0005	0.62109405
170	0x3f046581	0.5171738
171	0x3f164e37	0.58713096
172	0x3f03c24a	0.51468337
173	0x3f1eb622	0.6199666
174	0x3f0018e5	0.50037986
175	0x3f1d9fa0	0.61571693
176	0x3f05b9b9	0.52236515
177	0x3f179532	0.5921203
178	0x3f00f854	0.5037892
179	0x3f1d6091	0.61475474
180	0x3f1470da	0.579847
181	0xbefcdf2a	-0.4938901
182	0x3efc41c4	0.49268925
183	0x3f017e87	0.5058369
184	0x3f0702ff	0.52738947
185	0x3f033ed2	0.5126773
186	0x3f03a668	0.5142579
187	0x3efdff19	0.49608687
188	0x3f16e166	0.5893768
189	0x3f1dc7ed	0.6163319
190	0x3f02ac40	0.5104408
191	0x3f1fe757	0.6246237
192	0x3f165a40	0.5873146
193	0xbf00fe7b	-0.50388306
194	0x3f1bc332	0.6084472
195	0x3f187e57	0.5956778
196	0xbf022e90	-0.508523
197	0xbf01405a	-0.5048882
198	0x3f1586f6	0.5840906
199	0xbee3526a	-0.44398814

bn1.running_mean f4 [200]
0	0x00000000	0.0
1	0x3d7eef70	0.062240064
2	0x00000000	0.0
3	0x00000000	0.0
4	0x3e430866	0.19046172
5	0x430454ae	132.33078
6	0x4321504e	161.31369
7	0x469f64be	20402.371
8	0x432df105	173.94148
9	0x471ecc0c	40652.047
10	0x4635a22c	11624.543
11	0x00000000	0.0
12	0x440874ae	545.8231
13	0x46f4f150	31352.656
14	0x46e49a54	29261.164
15	0x00000000	0.0
16	0x465e2c59	14219.087
17	0x4533c708	2876.4395
18	0x46e89f88	29775.766
19	0x00000000	0.0
20	0x00000000	0.0
21	0x44521cbb	840.4489
22	0x464ea672	13225.611
23	0x46c8b6c6	25691.387
24	0x4619d76f	9845.858
25	0x00000000	0.0
26	0x00000000	0.0
27	0x44f650ff	1970.5311
28	0x46ea66d9	30003.424
29	0x46bee793	24435.787
30	0x44a6d6e4	1334.7153
31	0x00000000	0.0
32	0x460c1be6	8966.975
33	0x471059fb	36953.98
34	0x00000000	0.0
35	0x46d07a63	26685.193
36	0x46a8f744	21627.633
37	0x46b020f1	22544.47
38	0x00000000	0.0
39	0x00000000	0.0
40	0x46bd0c50	24198.156
41	0x449ede00	1270.9375
42	0x460891c2	8740.439
43	0x3e01ca2e	0.12674782
44	0x46fcb6c5	32347.385
45	0x3fe4ba82	1.7869418
46	0x00000000	0.0
47	0x00000000	0.0
48	0x00000000	0.0
49	0x46b553aa	23209.832
50	0x00000000	0.0
51	0x00000000	0.0
52	0x453af983	2991.5945
53	0x46b8cf3c	23655.617
54	0x00000000	0.0
55	0x00000000	0.0
56	0x00000000	0.0
57	0x451ea659	2538.3967
58	0x00000000	0.0
59	0x461dbecd	10095.7
60	0x00000000	0.0
61	0x4458f8cf	867.88763
62	0x00000000	0.0
63	0x46bb1e64	23951.195
64	0x46c62571	25362.72
65	0x46b95d05	23726.51
66	0x47043b88	33851.53
67	0x46a271fd	20792.994
68	0x43b83c3c	368.47058
69	0x00000000	0.0
70	0x455cf640	3535.3906
71	0x00000000	0.0
72	0x00000000	0.0
73	0x46b33e26	22943.074
74	0x00000000	0.0
75	0x00000000	0.0
76	0x00000000	0.0
77	0x46aceb9b	22133.803
78	0x00000000	0.0
79	0x46b38463	22978.193
80	0x00000000	0.0
81	0x47245893	42072.574
82	0x46edbe30	30431.094
83	0x00000000	0.0
84	0x00000000	0.0
85	0x00000000	0.0
86	0x46862f24	17175.57
87	0x465d2173	14152.362
88	0x00000000	0.0
89	0x46c86d49	25654.643
90	0x46bf9af3	24525.475
91	0x46131ac6	9414.693
92	0x00000000	0.0
93	0x00000000	0.0
94	0x46da4bb1	27941.846
95	0x00000000	0.0
96	0x00000000	0.0
97	0x4704fa8f	34042.56
98	0x00000000	0.0
99	0x00000000	0.0
100	0x4477d9a4	991.40063
101	0x457f83dc	4088.2412
102	0x4576f713	3951.4421
103	0x46a794e3	21450.443
104	0x4706c5fd	34501.99
105	0x44a55a53	1322.8226
106	0x00000000	0.0
107	0x00000000	0.0
108	0x00000000	0.0
109	0x00000000	0.0
110	0x00000000	0.0
111	0x00000000	0.0
112	0x00000000	0.0
113	0x00000000	0.0
114	0x471905ac	39173.67
115	0x46ab2d53	21910.662
116	0x46e42925	29204.572
117	0x00000000	0.0
118	0x46975ac0	19373.375
119	0x00000000	0.0
120	0x46c866f2	25651.473
121	0x44afe733	1407.225
122	0x4413d4d8	591.3257
123	0x00000000	0.0
124	0x46eb19f3	30092.975
125	0x46ee9b8a	30541.77
126	0x00000000	0.0
127	0x00000000	0.0
128	0x00000000	0.0
129	0x00000000	0.0
130	0x469bfc47	19966.139
131	0x4709f238	35314.22
132	0x00000000	0.0
133	0x46cbac3f	26070.123
134	0x00000000	0.0
135	0x466755a8	14805.414
136	0x00000000	0.0
137	0x47149caa	38044.664
138	0x00000000	0.0
139	0x457c268d	4034.4094
140	0x00000000	0.0
141	0x46845738	16939.61
142	0x46e1f34d	28921.65
143	0x00000000	0.0
144	0x46cb8bd6	26053.918
145	0x00000000	0.0
146	0x4708641b	34916.105
147	0x00000000	0.0
148	0x00000000	0.0
149	0x40bbaff1	5.865227
150	0x46a0f8ac	20604.336
151	0x46da39a9	27932.83
152	0x00000000	0.0
153	0x00000000	0.0
154	0x00000000	0.0
155	0x00000000	0.0
156	0x46b1f2ca	22777.395
157	0x46ce5882	26412.254
158	0x00000000	0.0
159	0x46a2c23a	20833.113
160	0x00000000	0.0
161	0x00000000	0.0
162	0x00000000	0.0
163	0x00000000	0.0
164	0x00000000	0.0
165	0x00000000	0.0
166	0x456fffec	3839.995
167	0x00000000	0.0
168	0x00000000	0.0
169	0x46ca225e	25873.184
170	0x44a8469c	1346.2065
171	0x46bc0d32	24070.598
172	0x00000000	0.0
173	0x46dfb724	28635.57
174	0x00000000	0.0
175	0x469215ff	18698.998
176	0x444c29bc	816.6521
177	0x46fb82e3	32193.443
178	0x00000000	0.0
179	0x46900fc3	18439.88
180	0x473a1521	47637.13
181	0x00000000	0.0
182	0x00000000	0.0
183	0x00000000	0.0
184	0x4409c6be	551.10535
185	0x00000000	0.0
186	0x00000000	0.0
187	0x00000000	0.0
188	0x462cc697	11057.647
189	0x46c1717c	24760.742
190	0x00000000	0.0
191	0x4615ac21	9579.032
192	0x46f204d5	30978.416
193	0x00000000	0.0
194	0x46d2dd9e	26990.809
195	0x46f40d31	31238.596
196	0x00000000	0.0
197	0x00000000	0.0
198	0x471225c9	37413.785
199	0x431dc430	157.76636

bn1.running_var f4 [200]
0	0x3f27f62b	0.6561
1	0x4137ab77	11.479362
2	0x3f27f62b	0.6561
3	0x3f27f62b	0.6561
4	0x42517bca	52.370888
5	0x485deab0	227242.75
6	0x48881296	278676.7
7	0x4ecc6494	1.7145718e+09
8	0x4911b3a7	596794.44
9	0x4fa8794a	5.653042e+09
10	0x4dcc7a0d	4.2881885e+08
11	0x3f27f62b	0.6561
12	0x4a7eb8f4	4.173373e+06
13	0x4f52266f	3.5257341e+09
14	0x4f3bf7e7	3.153586e+09
15	0x3f27f62b	0.6561
16	0x4e27ab7b	7.032583e+08
17	0x4cf1de43	1.268086e+08
18	0x4f436bd1	3.278623e+09
19	0x3f27f62b	0.6561
20	0x3f27f62b	0.6561
21	0x4b21b120	1.059664e+07
22	0x4dfae38c	5.2615206e+08
23	0x4f007b29	2.155555e+09
24	0x4d8ad352	2.911381e+08
25	0x3f27f62b	0.6561
26	0x3f27f62b	0.6561
27	0x4c63d30d	5.9722804e+07
28	0x4f404d56	3.2262938e+09
29	0x4f0a7bee	2.3233777e+09
30	0x4bdce380	2.895232e+07
31	0x3f27f62b	0.6561
32	0x4dc5b7de	4.146452e+08
33	0x4f8f11c3	4.800612e+09
34	0x3f27f62b	0.6561
35	0x4f1e9343	2.660451e+09
36	0x4ee918d7	1.9553596e+09
37	0x4ec5c671	1.6590583e+09
38	0x3f27f62b	0.6561
39	0x3f27f62b	0.6561
40	0x4f0a716b	2.3226888e+09
41	0x4b8c9f1d	1.8431546e+07
42	0x4d6e0303	2.4957342e+08
43	0x42644895	57.07088
44	0x4f5f4e66	3.746457e+09
45	0x4417dce4	607.4514
46	0x3f27f62b	0.6561
47	0x3f27f62b	0.6561
48	0x3f27f62b	0.6561
49	0x4ecc380c	1.7131126e+09
50	0x3f27f62b	0.6561
51	0x3f27f62b	0.6561
52	0x4cf83171	1.3012468e+08
53	0x4f04f83a	2.2308603e+09
54	0x3f27f62b	0.6561
55	0x3f27f62b	0.6561
56	0x3f27f62b	0.6561
57	0x4c490ea7	5.2705948e+07
58	0x3f27f62b	0.6561
59	0x4de7ccc5	4.8611958e+08
60	0x3f27f62b	0.6561
61	0x4b2d09f4	1.1340276e+07
62	0x3f27f62b	0.6561
63	0x4f05893d	2.2403638e+09
64	0x4ef54eba	2.0577887e+09
65	0x4ed2d523	1.7685917e+09
66	0x4f71d5c1	4.0573176e+09
67	0x4ea1a5ba	1.3559964e+09
68	0x4a11c10b	2.3880348e+06
69	0x3f27f62b	0.6561
70	0x4d1bd49b	1.6340011e+08
71	0x3f27f62b	0.6561
72	0x3f27f62b	0.6561
73	0x4efc6a01	2.1174028e+09
74	0x3f27f62b	0.6561
75	0x3f27f62b	0.6561
76	0x3f27f62b	0.6561
77	0x4ef26629	2.0333907e+09
78	0x3f27f62b	0.6561
79	0x4ece820b	1.7323145e+09
80	0x3f27f62b	0.6561
81	0x4fa4a9bd	5.525175e+09
82	0x4f336602	3.0098068e+09
83	0x3f27f62b	0.6561
84	0x3f27f62b	0.6561
85	0x3f27f62b	0.6561
86	0x4e6e2da1	9.9899194e+08
87	0x4e26ec03	7.001213e+08
88	0x3f27f62b	0.6561
89	0x4f03efbb	2.2135263e+09
90	0x4f0bb390	2.3438008e+09
91	0x4db3b42f	3.7686627e+08
92	0x3f27f62b	0.6561
93	0x3f27f62b	0.6561
94	0x4f2de12e	2.9172157e+09
95	0x3f27f62b	0.6561
96	0x3f27f62b	0.6561
97	0x4f710c5d	4.0441193e+09
98	0x3f27f62b	0.6561
99	0x3f27f62b	0.6561
100	0x4b5021a1	1.3640097e+07
101	0x4cf04b32	1.2598312e+08
102	0x4cdb0e50	1.1484838e+08
103	0x4eded75d	1.869328e+09
104	0x4f5f8bec	3.750489e+09
105	0x4bd48130	2.7853408e+07
106	0x3f27f62b	0.6561
107	0x3f27f62b	0.6561
108	0x3f27f62b	0.6561
109	0x3f27f62b	0.6561
110	0x3f27f62b	0.6561
111	0x3f27f62b	0.6561
112	0x3f27f62b	0.6561
113	0x3f27f62b	0.6561
114	0x4f910a62	4.8667535e+09
115	0x4eb78fb4	1.5398241e+09
116	0x4f3884fe	3.0957235e+09
117	0x3f27f62b	0.6561
118	0x4e8db02a	1.1885663e+09
119	0x3f27f62b	0.6561
120	0x4f190f0b	2.5679e+09
121	0x4bd99262	2.8517572e+07
122	0x4aac75b8	5.651164e+06
123	0x3f27f62b	0.6561
124	0x4f2fa8c4	2.947073e+09
125	0x4f471fcb	3.3407496e+09
126	0x3f27f62b	0.6561
127	0x3f27f62b	0.6561
128	0x3f27f62b	0.6561
129	0x3f27f62b	0.6561
130	0x4e91012e	1.2163868e+09
131	0x4f8145b5	4.3376584e+09
132	0x3f27f62b	0.6561
133	0x4f012a3c	2.1670287e+09
134	0x3f27f62b	0.6561
135	0x4e32a810	7.4933965e+08
136	0x3f27f62b	0.6561
137	0x4f862b50	4.501971e+09
138	0x3f27f62b	0.6561
139	0x4d075218	1.4189402e+08
140	0x3f27f62b	0.6561
141	0x4e5ae355	9.180829e+08
142	0x4f361a90	3.055194e+09
143	0x3f27f62b	0.6561
144	0x4f0234be	2.1844946e+09
145	0x3f27f62b	0.6561
146	0x4f64e7b9	3.8403914e+09
147	0x3f27f62b	0.6561
148	0x3f27f62b	0.6561
149	0x45841516	4226.6357
150	0x4ecf9060	1.7411727e+09
151	0x4f0d93a6	2.3752637e+09
152	0x3f27f62b	0.6561
153	0x3f27f62b	0.6561
154	0x3f27f62b	0.6561
155	0x3f27f62b	0.6561
156	0x4ef592fc	2.0600253e+09
157	0x4efd8b7d	2.1268886e+09
158	0x3f27f62b	0.6561
159	0x4ed4d4a2	1.7853524e+09
160	0x3f27f62b	0.6561
161	0x3f27f62b	0.6561
162	0x3f27f62b	0.6561
163	0x3f27f62b	0.6561
164	0x3f27f62b	0.6561
165	0x3f27f62b	0.6561
166	0x4cd02920	1.0913613e+08
167	0x3f27f62b	0.6561
168	0x3f27f62b	0.6561
169	0x4f16774b	2.5244004e+09
170	0x4bdc9700	2.8913152e+07
171	0x4f08b43f	2.293514e+09
172	0x3f27f62b	0.6561
173	0x4f1cb7db	2.6292948e+09
174	0x3f27f62b	0.6561
175	0x4e8d5df2	1.1858721e+09
176	0x4b1adc3a	1.0148922e+07
177	0x4f419f36	3.2484367e+09
178	0x3f27f62b	0.6561
179	0x4e7b4f26	1.0540671e+09
180	0x4fd3fd4c	7.1131853e+09
181	0x3f27f62b	0.6561
182	0x3f27f62b	0.6561
183	0x3f27f62b	0.6561
184	0x4aa3ee19	5.3716605e+06
185	0x3f27f62b	0.6561
186	0x3f27f62b	0.6561
187	0x3f27f62b	0.6561
188	0x4dd9012c	4.550916e+08
189	0x4ee46b4b	1.9161184e+09
190	0x3f27f62b	0.6561
191	0x4da14789	3.382275e+08
192	0x4f3742db	3.074612e+09
193	0x3f27f62b	0.6561
194	0x4f25a612	2.7791242e+09
195	0x4f517936	3.5143818e+09
196	0x3f27f62b	0.6561
197	0x3f27f62b	0.6561
198	0x4f8d97a5	4.7510513e+09
199	0x48a0cb6e	329307.44

bn2.weight f4 [20]
0	0x3fcfbe31	1.6229917
1	0x3f32a88d	0.6978844
2	0x3fce4222	1.6113932
3	0x3fd02919	1.6262542
4	0x3f27b90d	0.6551674
5	0x3f2f93e4	0.6858504
6	0x3fce853c	1.613441
7	0x3f2e0309	0.6797338
8	0x3fce7664	1.612988
9	0x3fcbad33	1.5912231
10	0x3f20274c	0.6255996
11	0x3f2a94cb	0.6663329
12	0x3f2672b8	0.65018797
13	0x3fd1b1f1	1.6382428
14	0x3f2fb2b7	0.6863207
15	0x3f275ccd	0.6537598
16	0x3f19f430	0.60138226
17	0x3f23f1a4	0.6404059
18	0x3fd15dc4	1.635674
19	0x3fd11587	1.6334695

bn2.bias f4 [20]
0	0x3f31226c	0.6919315
1	0xbf1b5185	-0.60671264
2	0x3f3151af	0.69265264
3	0x3f2fdc9c	0.68696
4	0xbf148ca7	-0.5802712
5	0xbf1c9a8e	-0.6117333
6	0x3f373f0b	0.7158057
7	0xbf14c456	-0.58112085
8	0x3f358bcd	0.70916444
9	0x3f2ebe26	0.68258893
10	0xbf22ca43	-0.63589877
11	0xbf1f75ef	-0.6228933
12	0xbf23f133	-0.64039916
13	0x3f29a6a6	0.6626991
14	0xbf17f8be	-0.59363925
15	0xbf2351df	-0.637968
16	0xbf206c1a	-0.6266495
17	0xbf1fa5b0	-0.62362194
18	0x3f311943	0.6917917
19	0x3f303e21	0.688448

bn2.running_mean f4 [20]
0	0x3f91c306	1.1387641
1	0x3fe12919	1.7590667
2	0x3f91d0a5	1.1391798
3	0x3facc2d1	1.3496953
4	0x3fa085bb	1.2540811
5	0x3fc9f579	1.5778037
6	0x3f6f7b9e	0.93548
7	0x3fc97775	1.573958
8	0x3f9394e9	1.1529819
9	0x3faa21c8	1.3291559
10	0x3f37820c	0.7168281
11	0x3fcc5390	1.5963001
12	0x3f1a8f45	0.6037486
13	0x3f9120a8	1.1338091
14	0x3f4aaf8c	0.79174113
15	0x3f492edb	0.7858712
16	0x3e48344d	0.19551201
17	0x3f561bad	0.8363598
18	0x3f8ea06b	1.1142706
19	0x3f92fd83	1.1483616

bn2.running_var f4 [20]
0	0x41b8b1c3	23.086798
1	0x4103bf22	8.234163
2	0x41b1ed03	22.240728
3	0x41d73e9b	26.90557
4	0x4055adb1	3.3387263
5	0x40d1b5e4	6.5534534
6	0x41755fe3	15.33591
7	0x40d23361	6.568772
8	0x41ba32f2	23.274876
9	0x41dc6ebe	27.554073
10	0x4024fde1	2.5779955
11	0x40a540bf	5.1641536
12	0x40053783	2.0815132
13	0x41555470	13.333115
14	0x403d8fac	2.961894
15	0x403934b0	2.8938408
16	0x3f6c8655	0.92392474
17	0x4041ad9d	3.0262215
18	0x41a98565	21.190134
19	0x41b9fe78	23.249252

bn3.weight f4 [20]
0	0x3f48e614	0.7847607
1	0x3f4433ae	0.76641357
2	0x3f37289a	0.7154633
3	0x3f46f974	0.77724385
4	0x3f3eb5b5	0.7449601
5	0x3fce62d2	1.6123908
6	0x3fd0042f	1.6251277
7	0x3edcd4fa	0.43131238
8	0x3f3b69c3	0.73208255
9	0x3f457ad6	0.7714056
10	0x3f48c7b8	0.78429747
11	0x3f4a5bbd	0.7904623
12	0x3fce8017	1.613284
13	0x3f40665f	0.75156206
14	0x3fcc7368	1.5972719
15	0x3fcc5105	1.5962225
16	0x3fcfcf00	1.6235046
17	0x3f30f47e	0.69123065
18	0x3f275960	0.6537075
19	0x3f3bf9ab	0.7342784

bn3.bias f4 [20]
0	0xbf3c24dc	-0.7349374
1	0xbf417b72	-0.7557899
2	0xbf3f14a4	-0.7464087
3	0xbf3c165d	-0.73471624
4	0xbf3ab8fd	-0.7293852
5	0x3f4d90e2	0.802992
6	0x3f4d57e3	0.8021223
7	0xbf115ec5	-0.5678523
8	0xbf4136fe	-0.75474536
9	0xbf416dfd	-0.75558454
10	0xbf411987	-0.75429577
11	0xbf411b0a	-0.75431883
12	0x3f4557ca	0.7708708
13	0xbf411e65	-0.75437003
14	0x3f3f4ec8	0.74729586
15	0x3f3c45c0	0.7354393
16	0x3f4d294f	0.80141157
17	0xbf31a9d7	-0.6939978
18	0xbf423b50	-0.75871754
19	0xbf3ffc12	-0.74994004

bn3.running_mean f4 [20]
0	0x3e5ef370	0.21772552
1	0x3e42aedf	0.1901202
2	0x3e520880	0.20511055
3	0x3d707752	0.058707543
4	0x3e1b95ba	0.15193835
5	0x3dc0fb8c	0.09422979
6	0x3e194897	0.14969097
7	0x3e1ac932	0.15115812
8	0x3e3a5945	0.18198116
9	0x3e8c7e00	0.2743988
10	0x3e9c5d52	0.30539948
11	0x3e97786f	0.2958407
12	0x3dce171b	0.10063001
13	0x3e4b8213	0.19873838
14	0x3df2f192	0.11862482
15	0x3dced7ce	0.10099755
16	0x3e3bcf7c	0.18340868
17	0x3d2256df	0.039633628
18	0x3e863f4f	0.26220176
19	0x3e17f32e	0.1483886
