Results/NN_MLP_MLs/MLP_Ensemble/Model_Results/MGT/test5-itr1000000/best_model_1.pt (torch, 79666 bytes, 14 tensors)

country_embedding.weight f4 [8, 2]
00000000: 658b 1a41 aadc 26c1 3412 7b41 e9b0 8ac1
00000010: 6a2b fdc0 e6a6 df40 4566 ae40 4fa6 f5c0
00000020: 4f00 ac40 9731 adc0 d704 edc0 f6ce e240
00000030: 1e1e cb40 e457 8cc0 348e 4bc1 711a 5041
9.659032 -10.428873 15.691944 -17.336382 -7.9115496 6.9891233 5.449984 -7.6765513
5.3750377 -5.4123034 -7.406841 7.087764 6.3474264 -4.385729 -12.722218 13.006455

fc1.weight f4 [200, 68]
00000000: 751c 9dbd d7d6 8cbd 00a5 3b3e b125 94bb
00000010: 9ff6 3dbe aa88 58be 626a 5dbd a60b 5bbd
00000020: 9fe4 edbd 79a8 bebd 06f8 3ebd 3e71 0bbd
00000030: 1980 89be 0bca 92bd 89d8 a2bd 29a9 11bd
00000040: 1baa e13a b9c3 1cbe 6dcd 1fbd a2fd 15be
00000050: 1b2b 1cbd 11db 34be f288 d33b 1cc2 aebd
00000060: e8f4 f33c 7ee4 1abe db26 2cbd 40a6 f8bd
00000070: 0bbd 65be 4531 c2bd d268 47be 25fb 00be
00000080: 350e f4bd e4ec 98bd 0616 25bd 6b29 15be
00000090: edaf a2bd 7954 3fbe 9ef7 623d 2fb4 823d
000000a0: 518c c4bd a53f 38be eab0 72bd cc90 adbd
000000b0: 8ff4 73be c781 9dbd 3843 64bd ca0e 5dbd
000000c0: 1243 1abe feba a6bd f127 8e3d d6c5 93bd
000000d0: 5cf9 71be 58d6 75be db1d f4bb f66e 80bd
000000e0: 9b71 02bd 6326 c5bd 3787 bebd 48b7 cebd
000000f0: 55e7 efbd e7dc c0bd 1036 76be f801 d2bd
00000100: ae5c 2cbe 28bd 1dbe 73c1 803c 200a ac39
00000110: 4f8a b9bd eea2 7abe 4c2e 5fbc 9282 6ebc
00000120: 55dd 40be d9c8 c0bd 5b51 db3c d619 a5bd
00000130: b71c b8bd fded b7bd 22fa 5dbe 56ed 1abe
00000140: e5de f7bd 8e12 f7bd 997b 2fbe 516e 3dbe
00000150: e731 923c f251 ebbd 8408 223e e413 98bd
00000160: 465e 77be 1b81 8abe ffb7 b93d 4b3b d73a
00000170: 1774 22bd eeae d5bd 5937 f1bd 8c90 14bd
00000180: b30b 60bd 217e 77be ebc9 01be 9864 85bd
00000190: 4476 14bd 8f89 c5bc 0b46 223b 29ee 5abe
000001a0: c0cf 71be 6e90 1cbe f39c c73d 59e4 b0bd
000001b0: 557e 72bd 0f9e 47be c28f 8abe b728 1cbe
000001c0: e860 cbbd 6b50 3abd 1c2c 5dbe 16a0 03be
000001d0: 1758 9dbc 7bed a2bc bdc0 293e 2a2e 3cbd
000001e0: 64e9 aebd 53b4 0bbe b6ed e5bd 67fa eabd
000001f0: 2aea 38be 14e7 1dbe fe71 6ebe 502c bbbd
00000200: 4c42 07be a2a7 3ebe ef4e c7bd 37f0 f0bd
00000210: 132f 50bd c57c a4bc 3896 43bd 2a73 df3d
00000220: 09b2 65bc 4385 88bb 326b eabd a4d8 9fbd
00000230: 3917 91bd 9d74 54bd eb92 b03d fe50 22bd
00000240: 9597 b9bd 3a1c 3f3d 4908 1f3d b1db a03d
00000250: 7f84 80bd bf63 d73c 23d4 34bd 9a32 dfbc
00000260: 7beb c5bd e361 62bd 471f 18bd 7969 543d
00000270: 087d b53c 7c64 f53c c9e2 f73d 180e f23d
00000280: 0d64 a93d d812 7d3b 96cf abbd ce17 c23d
00000290: 636b f8bc b4a0 20bc 77f5 d5bd e33a c4bc
000002a0: d92f a0bd 5c37 e43d 9bb5 d6bd ef96 c1bd
000002b0: a7ee 86bb 4a4a 86bd ceba 313d 9232 3fbd
000002c0: c74c 69bd ac0f e13b e5c8 b33d 29b3 aebd
000002d0: 7042 693d f28d 9f3d 0ef1 f23d 16d5 adbd
000002e0: 0399 f03c 36a4 b7bd ce08 d43d 97ad 40bd
000002f0: 2499 953d 179b 6c3b c4bd 1abc 9295 7dbb
00000300: 7de0 a83c 0726 6a3d 5653 9f3c 5486 173d
00000310: 1d67 dfbd dfef b43d 7788 d83d fc4a cd3d
00000320: 3a97 b73d ca38 b3bd a921 38bd 71fb da3d
00000330: af29 bdbd 7350 e13d d654 c3bd c5f1 aebd
00000340: 01d5 723d 0071 b2bd 3698 e3bc 64ad b43d
00000350: 6cb8 c43d 72e2 ea3d 5d95 c9bc aa09 c1bd
00000360: d588 f43d 2fa0 d3bc 7b5d 4cbd d52b f23c
00000370: 88ae adbd 633d a33d 33a7 9b3d f310 c5bd
00000380: 3ffe cbbd 850a 2ebc d1a1 503d 842c 66bb
00000390: 3bdf 7bbd 74b2 353b 3270 e9bd 5787 afbd
000003a0: 0954 a5bd 7287 cc3d 7ded da3d 84b7 28bd
000003b0: d538 b23b e485 5d3d 330f 6e3c f4ba 78bd
000003c0: 993c 8f3d 58ac 983d 494c e6bb 2696 74bc
000003d0: 58b1 e13d 7618 d93d 0ed0 8cbd 28fd f23d
000003e0: 7ad8 f53c 36f9 a4bd 15f4 873d a76a b9bd
000003f0: b276 e53d c7a9 9fbd fc7b 0c3d cc3f 173d
-0.076714434 -0.06876915 0.18324661 -0.0045210947 -0.1855111 -0.21145883 -0.054056533 -0.053477906
-0.11615872 -0.09309477 -0.046623252 -0.034043543 -0.26855543 -0.07167443 -0.07951457 -0.035561714
0.0017216833 -0.15309037 -0.03901427 -0.14647534 -0.038127046 -0.17661692 0.006455534 -0.08533117
0.029779866 -0.15126225 -0.042029243 -0.12141085 -0.22435395 -0.09482054 -0.1947358 -0.12595804
-0.11916772 -0.07467058 -0.040304206 -0.14566581 -0.079437114 -0.18684568 0.055411927 0.063820235
-0.09597076 -0.17993028 -0.05925075 -0.084748834 -0.2382376 -0.07690769 -0.055728167 -0.053969182
-0.15064648 -0.08141135 0.06941212 -0.072154686 -0.2363028 -0.24007547 -0.007449848 -0.06271164
-0.031846624 -0.09626462 -0.09303134 -0.10093552 -0.11714045 -0.09417134 -0.2404406 -0.10254282
-0.1683223 -0.15404189 0.015717244 0.0003281394 -0.090595834 -0.24476215 -0.013621878 -0.014557498
-0.18834431 -0.09413309 0.026772192 -0.080615684 -0.08989852 -0.089809395 -0.2167745 -0.15129599
-0.12103061 -0.12064086 -0.17136993 -0.18499114 0.01784606 -0.11490239 0.15823561 -0.07425669
-0.24157056 -0.27051625 0.090682976 0.0016420869 -0.039661493 -0.10433756 -0.11778135 -0.036270663
-0.054698657 -0.24169208 -0.12674682 -0.06513327 -0.0362456 -0.024113445 0.0024760987 -0.21379913
-0.23614407 -0.1528947 0.097467326 -0.08637304 -0.05920251 -0.19493888 -0.27062804 -0.15249906
-0.09930593 -0.04548685 -0.21598858 -0.12854037 -0.019207044 -0.01988863 0.1657743 -0.045942463
-0.085406095 -0.13643007 -0.112269804 -0.11473542 -0.18058077 -0.1542018 -0.23285672 -0.09139311
-0.13208884 -0.18618634 -0.09731852 -0.11764567 -0.050826143 -0.020079026 -0.04775068 0.10910638
-0.014019498 -0.0041662767 -0.11446227 -0.07804993 -0.070845075 -0.051869024 0.086217724 -0.03962802
-0.09062115 0.04665778 0.03882626 0.07854403 -0.062752716 0.02629268 -0.04414762 -0.027245808
-0.09664055 -0.055269133 -0.037139203 0.0518584 0.022154346 0.029955141 0.12103803 0.118190944
0.08271036 0.0038615968 -0.08389203 0.09477197 -0.030324643 -0.00980394 -0.10447209 -0.02395386
-0.07821626 0.111433715 -0.10483857 -0.094526164 -0.004117805 -0.06557138 0.04339104 -0.046679087
-0.056957986 0.0068683233 0.08778552 -0.08530266 0.056948125 0.07790746 0.11862384 -0.084879085
0.029369837 -0.089668676 0.10353242 -0.04704055 0.073046 0.0036103183 -0.009444658 -0.0038693887
0.020614857 0.057165172 0.019448917 0.03699334 -0.10908339 0.08834814 0.105729036 0.10024068
0.08964391 -0.08751066 -0.044953976 0.1069249 -0.09236466 0.110016726 -0.095376655 -0.08542208
0.059285168 -0.08712959 -0.02778254 0.08822134 0.09605488 0.11468972 -0.024607355 -0.094256714
0.11940161 -0.025833217 -0.049893837 0.029561916 -0.08480555 0.07970693 0.0760025 -0.096223734
-0.09960603 -0.010622625 0.05093557 -0.0035121748 -0.061492186 0.0027724775 -0.11398353 -0.08570736
-0.08072669 0.09986772 0.106898285 -0.04119064 0.005438904 0.054082766 0.014529991 -0.060725167
0.0699398 0.07454747 -0.007028137 -0.014928376 0.11020154 0.10600369 -0.06875621 0.11864692
0.03001045 -0.08055346 0.06638352 -0.090535454 0.1120428 -0.07796054 0.03429793 0.036926076

fc1.bias f4 [200]
00000000: 787d 44be d2fb 1dbe 1974 bb3c e069 ecbd
00000010: 6e23 cebd 1bb7 bfbd 1cc5 94be a3df 93bd
00000020: 4164 8a3d dba5 98bc db06 bd3c 045b 94bd
00000030: 1be9 18be 5865 553d 770e 62be 637a ad3d
00000040: 70c1 323d e5d1 2abe 2265 0f3e 7e01 c8bd
00000050: 0b2f f3bd 59dd 6cbd 5e1a bfbd db11 3c3e
00000060: 2255 d4bd 7194 12be 01f4 753e c1f5 5e3d
00000070: f607 b23b 8644 aabd 1ca2 393e 4fd5 1ebd
00000080: 9bc4 f9bc e067 8bbc 6dd7 023e 1792 65bd
00000090: 6d17 463e 0a80 7e3c f44e 8c3d 3a38 bb3d
000000a0: b016 ac3d d54c 0ebf 6228 b2be 8a0a b4bd
000000b0: 5fec 73bc cc17 0ebe 1a40 963c f067 b0bd
000000c0: 8d94 0abe 31c1 4bbe a0f4 0e3d c292 acbd
000000d0: ffe9 22bd bce6 d0bd a594 1cbe 1396 363c
000000e0: a9a5 9b3c b64a f6bc e2e8 92be 3923 933d
000000f0: 82e9 f4bd 0123 0e3d 2041 62bd c680 a13d
00000100: 469e c2be 457d f73d 41c0 debd 90a6 423d
00000110: 1f8b b7bd 75df cfbe a3ff 003d 96ee ba3d
00000120: 5032 883c ce21 413e c209 eebd 3de1 97be
00000130: 801d 84bc 2142 203d 0070 44be 27a1 99be
00000140: 5698 6e3e 1fec 1a3d b9b0 b6be cb89 8e3d
00000150: 53f2 143e 79ad 01bd fddb 72be 4911 f03c
00000160: 066a 90bd 9ba6 e53d 4021 82be c0ee 8abe
00000170: 48ac cfbc a5de 8ebd 8646 b4bd c088 9cbe
00000180: ec31 99bd 64d6 0b3e 425d 57bc 2ad7 193e
00000190: 0dd8 923c 585a 12bd d10e cb3d 2871 813b
000001a0: dca2 93be 443b 20be e01d 0b3e 94eb 013d
000001b0: 4e4e 16be f147 413d 4fef a1bc e8a5 0a3d
000001c0: aaaa 61bd 44f7 eabd e7df 903c 1051 a63d
000001d0: 022a 48be e2be 103d fb9d 1ebc 285b 9e3d
000001e0: 01aa 883c 9a88 dabb c78a 743d 65f2 e5bd
000001f0: 4fa1 77bd 40ce 2bbe 1962 56bd cd95 a2bd
00000200: 3011 223e d060 7ebe c01e 29be 5b39 c83b
00000210: c7e1 6f3c 25e2 1bbd cda4 33bd 84b5 f33d
00000220: f786 f2bd 7588 8bbd 51e1 a1be 256d 7bbd
00000230: 33b7 153e eb2b 53bc b60e 8cbe 5929 db3d
00000240: e6fb ba3d 641c 24bd 3139 093d 2024 603d
00000250: b2db aabe d7f9 ab3d 1537 033e ec5a 6e3e
00000260: 9e17 9bbd 516c 513c c9e9 a2bd f320 f23b
00000270: eebd f6bd 8955 8fbe 716d a7bc 45ec 7bbd
00000280: 9cf5 8abc deb9 023d 461a 903b ff9b 01bd
00000290: 72a8 14be 9f73 393c ab37 12bd fa95 3f3d
000002a0: 13a6 87be 504e 31bd 5b09 91be 2ac3 bb3c
000002b0: 59e5 5cbe a4ad 6dbc 2551 4d3e 0a49 9e3d
000002c0: 69ba e93d c886 6bbd 5d5b 1bbc 6351 d6bd
000002d0: c3d4 e9bd fd96 d1be aaa1 19be 41b9 443e
000002e0: 4a49 893e f583 9b3d ba61 023d 9a25 87be
000002f0: 2acf 563d 616d 133d e5d8 b83c e458 213d
00000300: 4a9d a3bd d72f ffbe 285b a03d 7147 2a3e
00000310: 77d9 02be 7b37 b3bb 6983 533d 252e d2be
-0.19188488 -0.15428093 0.022882508 -0.115436316 -0.100653514 -0.093610965 -0.29056633 -0.0722039
0.06757403 -0.018633774 0.023074558 -0.07243922 -0.14932673 0.052098602 -0.2207583 0.08470609
0.043641508 -0.16681631 0.14003423 -0.097659096 -0.11874207 -0.05782828 -0.09331201 0.18366186
-0.103678 -0.14314438 0.24018861 0.054433588 0.005433078 -0.08313851 0.18128246 -0.038777646
-0.030489257 -0.017017305 0.12777491 -0.056047525 0.19344874 0.015533457 0.068509966 0.09141584
0.08402765 -0.55585986 -0.34796435 -0.08791073 -0.014887898 -0.13876265 0.018341113 -0.086135745
-0.1353323 -0.19897915 0.03490126 -0.08426429 -0.039773937 -0.10200259 -0.15291078 0.011144179
0.018999891 -0.030064922 -0.286933 0.071844526 -0.119586006 0.03470135 -0.05523789 0.0788589
-0.38011378 0.1208444 -0.10876513 0.047522128 -0.08962082 -0.40600172 0.031493794 0.09127538
0.016625553 0.18860552 -0.11622955 -0.2966403 -0.016127348 0.039125565 -0.1918335 -0.30005762
0.23300299 0.03782284 -0.35681704 0.06959876 0.14545564 -0.031659577 -0.23716731 0.029305117
-0.07051472 0.11213418 -0.25415993 -0.27135277 -0.025350705 -0.0697606 -0.08802514 -0.30573082
-0.07480225 0.13656002 -0.013144793 0.15023485 0.017925287 -0.03573069 0.099149354 0.003950257
-0.2883519 -0.15647608 0.13585615 0.031718805 -0.14678308 0.04718775 -0.019767432 0.033849627
-0.0550944 -0.114729434 0.01768489 0.0812093 -0.19547275 0.03533829 -0.00968122 0.077322304
0.016682627 -0.006669116 0.05970266 -0.11227874 -0.06045657 -0.16777897 -0.052339647 -0.079387285
0.15826869 -0.24841619 -0.16515636 0.006110353 0.014641232 -0.038057465 -0.04385834 0.11899856
-0.11842149 -0.068131365 -0.31617215 -0.061383385 0.14620666 -0.012888889 -0.27354974 0.10701246
0.09130077 -0.040066138 0.033501808 0.05472195 -0.3337074 0.083972625 0.12813981 0.23276871
-0.07572864 0.012782172 -0.07954747 0.0073891818 -0.12047945 -0.27994946 -0.020437928 -0.06150462
-0.016962819 0.031915538 0.0043976633 -0.03164291 -0.14517382 0.01131907 -0.03569762 0.04677389
-0.26493892 -0.043287575 -0.2832745 0.02292021 -0.21571864 -0.014506731 0.20050485 0.07728775
0.11412508 -0.057501584 -0.009482232 -0.10464742 -0.11417534 -0.40935507 -0.15003076 0.19211294
0.26813728 0.07593528 0.03183148 -0.26395875 0.05244366 0.035992984 0.02256436 0.039391413
-0.07988985 -0.49841186 0.07829887 0.16628815 -0.12778269 -0.0054692603 0.051638994 -0.4105083

fc2.weight f4 [20, 200]
00000000: ade3 02bf c4fe 05bf ee9e ddbe bfc1 ba3e
00000010: dcba c03e 49c3 00bf 7bd1 df3f 98e0 fdbe
00000020: 7ab7 ae3e 6809 c7be 1950 07bf ae25 bcbe
00000030: 7194 d6be 0ced cfbe 60ae 04bf b767 c4be
00000040: a5c6 babe 5208 1cbf 949f 683f 2787 c93e
00000050: 206b f6be 2875 a13e 1686 c73e 6a39 803f
00000060: 624f e6be f543 02bf 348d 7a3f 1a42 7c3f
00000070: 3c74 943e f7a7 e13f f642 623f f709 073e
00000080: 0cc2 ec3e 95d4 c83e 28ca 733f 771f fdbe
00000090: 3c2e 6d3f 6ae1 e6be 2d55 6a3f afc6 713f
000000a0: 5e4f cd3e e6b7 1040 ceb0 5140 7ba7 ccbe
000000b0: 314b ce3e b8bb 9bbe 7ba3 bb3d 5219 c8be
000000c0: 54fd b8be 1ac4 03bf 4143 d93e e903 d03e
000000d0: 7057 f2be dc4c 0bbf 1451 d7be 5724 00bf
000000e0: 8d28 933e 19bf 903e 4fc4 ed3f 2e40 ddbe
000000f0: 4f4a c4be 1560 793f 754a 09bf 200b d93e
00000100: b596 0e40 878a e1be ac6c a4be 82d0 7b3f
00000110: 1aa6 163e 48b9 dd3f 8433 ca3e cef4 723f
00000120: 4622 12bf 2e21 5e3f a6b4 cc3e fb29 d73f
00000130: 193f ba3e 4a2d 08bf ca33 05bf daec 8a40
00000140: 18f5 6e3f 8504 dbbe 6091 bf40 4978 613f
00000150: eb00 673f baac bb3e 3459 db3f dfb8 c93e
00000160: 31d3 b83e a4b4 e73e 7b3b 11bf 1249 d43f
00000170: 18d9 673f 8399 c6be 53b0 13bf 13b5 eb3f
00000180: cd28 a63e e1b0 663f 2408 d53e 08f9 823f
00000190: 3016 c0be f339 e43e 053a 6d3f 8a76 96be
000001a0: 2fd9 5440 97dc 10bf 1f49 633f 0f8a c8be
000001b0: ffe2 0dbf 95d0 6c3f 89e4 babe 58fa cabe
000001c0: 1de7 ec3d 273d 763e 8861 e5be eb3f 793f
000001d0: 0f85 e83f 405e 703f bb9d c5be c15e e2be
000001e0: 84a8 d8be 0feb 10bf f050 583f 9e08 e23f
000001f0: a444 babe 9434 0dbf b187 e2be 1f84 17bf
00000200: 41ad 5b3f 0d38 f2be fa57 fdbe 6f25 c53e
00000210: 05f4 d93e ea63 a7be 7ce9 db3e aac2 713f
00000220: dae4 c83e 0d1c 0fbf e91b cd3f f190 c9be
00000230: 8df8 6b3f 5cc1 cebe 7e5e e63f af52 ee3e
00000240: 78d8 cc3e 28fa a0be 6075 aabe 972a c63e
00000250: e863 f140 189b 94be eca2 723f b93f 6a3f
00000260: fa7e 08bf f623 cf3e fc1c 0abf 1ffa e83e
00000270: b8a2 b3be 1337 f03f f06c a93e aeb8 d63e
00000280: 12fb dbbe a175 c53e d530 d63e 3e90 efbe
00000290: 4749 07bf d675 e73e 4c53 613f 46ea eabe
000002a0: 9e03 f0be 2ff1 c93e 37ad e73f 54bd a73e
000002b0: e325 7240 a3c6 c63e 7521 693f 8d08 bfbe
000002c0: 75fa aa3e eb2d a3be 5eef 603f 380c cebe
000002d0: d011 05bf a220 2240 7c57 fcbe 7d26 6d3f
000002e0: feb2 6d3f 3b41 edbe 4674 793f 0500 c4be
000002f0: b6eb b7be 689c d7be 955b edbe 66c8 d33e
00000300: 373d bbbe fe67 2540 a290 cb3e e6c7 5a3f
00000310: 873f d63f bd64 673f 66a2 ec3e 8d25 da3f
00000320: 45d7 933d 7ca2 253d eba6 f6bd 320f a33d
00000330: ca9a 363e 2158 1b3e 83b8 b8bd 5852 ec3d
00000340: 43c4 253e 2bc4 c5bd 5f2e 3e3d d5e6 babd
00000350: f164 433c e815 20be d594 c83d 112c 0ebe
00000360: ae05 abbd 9b64 f23d f54e 88bd 4035 b33d
00000370: 7108 f73d e021 f73d 20c8 583d 6b7a 66bd
00000380: bbf3 033e 3162 b63a 7d13 54bd ec51 1a3e
00000390: 57df 81bd 3a03 60bc b715 eebd 4ba6 0fbd
000003a0: 37e8 013e df58 063e 4347 39bc dc26 903d
000003b0: 420c 773d 0ecb 42be ea48 03be 110d 07bd
000003c0: a9b0 203e 2fa3 403d 53f3 debd 12b5 bfbd
000003d0: 499b 043e df82 3dbc 5528 85bd ecdd 1bbe
000003e0: 6cd7 82bd 6b0a 0d3e 18da 0c3e 6899 de3d
000003f0: 8b27 db3d 06a7 dd3d 8325 563d b0e8 723c
-0.51128656 -0.52341866 -0.43285316 0.36475942 0.37642562 -0.5029798 1.7485803 -0.49585414
0.34124357 -0.38874364 -0.52856594 -0.36747497 -0.41910127 -0.4061054 -0.51828575 -0.38360378
-0.3647968 -0.60950196 0.90868497 0.39360926 -0.48128605 0.31534696 0.38969487 1.0017521
-0.4498244 -0.50884944 0.9787171 0.9853836 0.2899493 1.7629384 0.88383424 0.13187395
0.46241796 0.39224687 0.9523034 -0.49438068 0.92648673 -0.45093852 0.9153622 0.9444379
0.40099615 2.2612243 3.2764163 -0.39971527 0.40291741 -0.30416656 0.09162041 -0.39081818
-0.36130774 -0.514711 0.42434123 0.40627983 -0.47332335 -0.54414153 -0.42054045 -0.5005545
0.28741875 0.28270796 1.8575534 -0.43213028 -0.38337943 0.97412235 -0.5362924 0.423913
2.2279484 -0.44051 -0.3211416 0.9836503 0.147118 1.7322168 0.39492428 0.9490479
-0.5708355 0.8676938 0.39981574 1.6809686 0.36376265 -0.53194106 -0.5203215 4.3414125
0.93342733 -0.42776886 5.986496 0.88074166 0.90235776 0.36655217 1.7136598 0.39398858
0.36098626 0.45255005 -0.56731385 1.6584799 0.90565634 -0.38788995 -0.57690924 1.8414634
0.32453004 0.90113646 0.41607773 1.0232248 -0.37516928 0.44575462 0.92666656 -0.29387313
3.3257558 -0.56586593 0.8878345 -0.3916783 -0.55424494 0.9250577 -0.36502483 -0.39644122
0.11567519 0.24046765 -0.44800973 0.97363156 1.8165606 0.93893814 -0.385969 -0.44212916
-0.42316067 -0.5660867 0.844985 1.765888 -0.36380494 -0.5515835 -0.4424415 -0.59185976
0.8581124 -0.47308388 -0.49481183 0.38505122 0.42568985 -0.32693416 0.42951572 0.9443766
0.392371 -0.5590218 1.6024143 -0.39368394 0.92176133 -0.40381896 1.7997587 0.46547458
0.40008903 -0.31440854 -0.33292675 0.38704368 7.5434456 -0.29024577 0.9477985 0.91503483
-0.5331875 0.40457124 -0.53950477 0.45503327 -0.35085082 1.8766807 0.33090925 0.41937774
-0.4296499 0.38566306 0.4183413 -0.46789736 -0.5284619 0.4520709 0.88017726 -0.4588186
-0.4687776 0.3944182 1.8099736 0.32761633 3.7835624 0.38823423 0.91066676 -0.3731121
0.3339421 -0.3187097 0.87865245 -0.40243697 -0.51980305 2.5332417 -0.49285495 0.92636853
0.92851245 -0.4633883 0.97443044 -0.38281265 -0.3592202 -0.42111516 -0.46358934 0.4136383
-0.3657014 2.5844722 0.39758784 0.8546127 1.6738137 0.9038809 0.4621765 1.704271
0.07218794 0.04043816 -0.12043556 0.07961883 0.17832485 0.15170337 -0.09019568 0.11539143
0.16188149 -0.09656557 0.04643094 -0.09126059 0.011925922 -0.15633357 0.097940125 -0.13883997
-0.08350693 0.11835595 -0.06655685 0.08750391 0.12062157 0.12067008 0.05292523 -0.05626909
0.12885945 0.0013914761 -0.051776398 0.15070313 -0.06341427 -0.013672644 -0.116252355 -0.0350707
0.12686239 0.13119839 -0.011308494 0.07038662 0.060314424 -0.19022772 -0.12820783 -0.032971445
0.1569239 0.047030624 -0.10886254 -0.09360708 0.12949862 -0.011566847 -0.06501833 -0.15221375
-0.06388745 0.13773505 0.13755071 0.10869104 0.107009016 0.10822873 0.052281868 0.014825985

fc2.bias f4 [20]
00000000: ae1f 1e3f 560e 233d 1af8 3a3e d28f 133e
00000010: 76ad 1f3f 462e 583d df4a d63d 3e2c c23d
00000020: 293e 0e3e 1e19 283f 230c 243f 47e4 983d
00000030: c3f8 983e 25e3 93bc e259 803e 205a dcbc
00000040: 5b01 59bc 4d2e 003f 53e8 293e eb6f c33d
0.6176709 0.039808594 0.18258706 0.14410332 0.62374055 0.052778505 0.10463499 0.09481095
0.138909 0.65663326 0.6408102 0.074654154 0.2987729 -0.018052647 0.25068575 -0.026898444
-0.013244952 0.5007065 0.16592531 0.09542831

fc3.weight f4 [1, 20]
00000000: 8003 0440 0f9b 4abf b004 5dbf 8bd9 73bf
00000010: a45a 0440 b7d5 4abf e739 55bf 94b8 6abf
00000020: 68e3 4cbf 5616 0440 4a71 0140 adc1 7abf
00000030: 6caa 0140 0de2 f7be bcb5 0540 c078 30bf
00000040: d379 4abf a615 fe3f 3c6d 56bf 0137 6abf
2.0627136 -0.7914285 -0.8633528 -0.9525382 2.0680323 -0.7923235 -0.83291477 -0.91687894
-0.80034494 2.0638633 2.0225396 -0.97951776 2.0260267 -0.4841465 2.0892172 -0.6893425
-0.7909214 1.9850357 -0.8376043 -0.9149018

bn1.weight f4 [200]
00000000: 7cd1 a93f 6c29 9f3f 0000 803f 0000 803f
00000010: 0000 803f 0a80 a53f 9e14 4140 ebc3 913f
00000020: 0000 803f 0000 803f b975 a53f 0000 803f
00000030: 8145 913f 0000 803f 1c4e a93f 0000 803f
00000040: 0000 803f a1ea a73f f6d3 f33f 0000 803f
00000050: 4688 993f 0000 803f 0000 803f 8dd3 ea3f
00000060: 6cab a03f 298a 983f 0bcb ed3f 137c f93f
00000070: 0000 803f 9c94 5140 413e f43f 0000 803f
00000080: 0000 803f 0000 803f 7556 f43f a8f8 863f
00000090: 55ec ed3f 0000 803f 7614 f13f f035 eb3f
000000a0: 0000 803f 619b 6640 8259 a240 0000 803f
000000b0: 0000 803f 07c0 973f 71e1 953f 0000 803f
000000c0: 3dc3 5b3f 361e 923f 0000 803f 0000 803f
000000d0: 0e57 8a3f 1766 ac3f 5daa 9d3f be1d a73f
000000e0: 0000 803f 0000 803f 231c 5740 0000 803f
000000f0: 8d83 863f 93a1 f83f c0dc a33f 0000 803f
00000100: 1e11 6740 0000 803f 0000 803f 8a4b e93f
00000110: 4dc6 703f f4c7 4b40 0000 803f b9f4 f83f
00000120: 56d4 a13f 494e f63f 0000 803f 1c47 4240
00000130: 0000 803f 07c0 9e3f b47c 943f 8155 dc40
00000140: f7f4 ef3f 0000 803f c602 0a41 28f5 f13f
00000150: cc40 f63f 0000 803f 1643 4440 0000 803f
00000160: 0000 803f 0000 803f 0ef5 9c3f 40d2 4140
00000170: 90eb ea3f c203 a63f 9320 ac3f 8f90 5440
00000180: 8663 613f a515 f03f 0000 803f 0e42 f53f
00000190: 9920 8d3f 0000 803f 51aa f23f 0000 803f
000001a0: 1083 b140 7e0d ae3f 7952 ee3f 0000 803f
000001b0: f9e6 9c3f 6815 ed3f 0000 803f 0000 803f
000001c0: 6b5d 863f 0000 803f 993b 653f a946 e53f
000001d0: 36b1 4440 047a ef3f 0000 803f 0000 803f
000001e0: 0000 803f 1b58 ae3f 37d8 ea3f 716a 4440
000001f0: 0000 803f 244a a53f 0000 803f 0a47 ab3f
00000200: 0a2c f33f 050e a43f ed9b 913f 0000 803f
00000210: 0000 803f 0000 803f 0000 803f d253 f53f
00000220: 0000 803f 52a3 a63f dc84 4540 f8d5 9a3f
00000230: 102e f13f 0000 803f bc7e 4d40 0000 803f
00000240: 0000 803f d4e7 9b3f 0000 803f 0000 803f
00000250: 3593 2a41 0000 803f 5047 f63f 56a3 f73f
00000260: 3f2b a23f 0000 803f c82f a03f 0000 803f
00000270: 0000 803f 9dcf 5240 0000 803f 0000 803f
00000280: 0000 803f 0000 803f 0000 803f 0000 803f
00000290: 73a4 aa3f 0000 803f dcaa f03f 0000 803f
000002a0: 8a56 923f 3abe 613f 0906 4b40 0000 803f
000002b0: 72d5 bf40 0000 803f 48fe fd3f 0000 803f
000002c0: 0000 803f 0000 803f 6c0a f13f 0000 803f
000002d0: 6525 933f daaa 7540 1cf9 9a3f bcd7 eb3f
000002e0: 283f ef3f 0000 803f fcd3 f53f 9fa2 703f
000002f0: 0000 803f 0000 803f 081f 993f 0000 803f
00000300: 0000 803f bf68 8e40 0000 803f 9a5d f03f
00000310: 9dc7 3e40 0a90 f13f 0000 803f 2166 5140
1.3267055 1.2434516 1.0 1.0 1.0 1.29297 3.0168834 1.1387914
1.0 1.0 1.2926551 1.0 1.1349336 1.0 1.3226962 1.0
1.0 1.3118478 1.904906 1.0 1.1994712 1.0 1.0 1.834581
1.2552314 1.1917163 1.8577589 1.949099 1.0 3.2746954 1.9081498 1.0
1.0 1.0 1.9088885 1.0544634 1.8587748 1.0 1.8834369 1.8375835
1.0 3.6032336 5.0734262 1.0 1.0 1.1855477 1.1709424 1.0
0.85844785 1.141547 1.0 1.0 1.0807817 1.3468655 1.2317616 1.3055952
1.0 1.0 3.3610923 1.0 1.0508896 1.9424309 1.2801743 1.0
3.6104198 1.0 1.0 1.8226178 0.9405258 3.1840792 1.0 1.9449683
1.2642925 1.9242641 1.0 3.0355902 1.0 1.2402352 1.1600556 6.8854375
1.8746632 1.0 8.625677 1.8902941 1.9238524 1.0 3.0665946 1.0
1.0 1.0 1.2262285 3.0284576 1.8353138 1.2969897 1.3447441 3.3213232
0.88042486 1.8756605 1.0 1.9160783 1.1025573 1.0 1.8958226 1.0
5.547249 1.3597867 1.8618919 1.0 1.2257987 1.8522158 1.0 1.0
1.0497259 1.0 0.89544064 1.7912189 3.073316 1.8709111 1.0 1.0
1.0 1.3620638 1.8347234 3.0689967 1.0 1.2913251 1.0 1.3381054
1.8997815 1.2816778 1.137571 1.0 1.0 1.0 1.0 1.9166205
1.0 1.3018591 3.086234 1.2096548 1.8842182 1.0 3.2108603 1.0
1.0 1.2180123 1.0 1.0 10.660939 1.0 1.9240513 1.9346721
1.2669448 1.0 1.2514582 1.0 1.0 3.2939217 1.0 1.0
1.0 1.0 1.0 1.0 1.3331436 1.0 1.8802142 1.0
1.143266 0.8818089 3.1722434 1.0 5.9948053 1.0 1.9843225 1.0
1.0 1.0 1.8831306 1.0 1.1495787 3.838553 1.2107272 1.8425212
1.8691149 1.0 1.9205317 0.9399814 1.0 1.0 1.1962595 1.0
1.0 4.4502864 1.0 1.8778565 2.9809334 1.8872082 1.0 3.2718585

bn1.bias f4 [200]
00000000: 279e 5fbe f008 83be da5e b2be db09 963e
00000010: 45bd b03e 8aba 67be 6e6f 933e 55c5 15be
00000020: 0b7c b23e 2644 acbe 241e 79be 162c a6be
00000030: fafe 96be 5470 a6be e0f9 74be c89d 89be
00000040: c56e abbe 4521 75be 786f 0e3e cc5e b53e
00000050: 8737 59be dbd4 893e 2391 983e 6fa1 833e
00000060: 5940 1abe c331 3ebe 9e8b 623e 29bb 7a3e
00000070: da77 713e a1f6 0c3e 2322 5b3e ed11 083e
00000080: d33d 993e 7fdf b43e c1f2 5a3e 1498 94be
00000090: cbe8 593e 62a6 b4be 6b50 553e f129 1f3e
000000a0: 8a14 af3e 6cdd 05bd b9ce 4c3e cc4c b5be
000000b0: ddc2 963e d813 6fbe bd3c 3e3d c331 b3be
000000c0: 40d9 e7bd ca30 8ebe 0691 a73e 2f46 a33e
000000d0: 6cd2 1abe beea 81be ef42 27be 2e5d 36be
000000e0: 8ea3 8a3e 1055 553e 7304 913e 89c4 aabe
000000f0: c6ee 37be ba58 1a3e 8404 4abe 9c05 af3e
00000100: d739 7e3e 7254 a1be e0a1 97be fde6 8b3e
00000110: 757b 813d 872d 2d3e 3c4a 983e 916d 213e
00000120: e8aa 8cbe 624e 1f3e 8f8d b23e ebcd a33e
00000130: 3ef8 9d3e 234e 3cbe 981d 3fbe a7e2 c13e
00000140: 2b0e 163e b544 b9be 82a9 093e 23bb 643e
00000150: 6e18 193e cc0e a83e 14d4 a73e 000a 953e
00000160: 1d9a 8b3e 4a6b af3e 877a 90be ec12 8a3e
00000170: ba9f 773e f6ed 77be c238 5fbe 2768 413e
00000180: bb5d 623e bf6a 553e ca97 ab3e fc9a 903e
00000190: a89e 2ebe 12a4 a73e 0c6c 0d3e cfe3 9ebe
000001a0: 250b b53e 6b32 83be 7473 823e 42c3 b6be
000001b0: 89bd 82be aed4 8f3e 3fff aebe 87c6 bbbe
000001c0: c6d8 8a3c eb9a 813e c2c6 acbe bc99 123e
000001d0: 1aa7 503e e637 683e f6dc 81be cedb adbe
000001e0: b3ff a6be 3fac 98be 2e7e 3a3e 1a46 403e
000001f0: 0397 b6be e902 62be 96ed adbe e6ae 78be
00000200: 944a 043e 0d96 4bbe 6d1f 37be c3f7 ad3e
00000210: b56e a23e 1f7d afbe e413 a73e 7581 683e
00000220: bb82 af3e d9a7 82be 9577 063e 93f5 f9bd
00000230: b191 5c3e a6e2 abbe 2b8a 9f3e 19e5 b03e
00000240: 3276 b93e 63dd 9fbe 7cbd 9ebe f1b6 b03e
00000250: a0fe 583e d97e 81be fb64 583e da2c 283e
00000260: f77d 6dbe 80db b93e 0d81 57be f966 bb3e
00000270: f778 a3be ef00 a13e 3eaa 923e 6864 9e3e
00000280: b0c4 b6be 4a06 b23e a3e5 9d3e 3f5a bdbe
00000290: 0c6c 53be 5220 b73e 7e7e 653e dccf bcbe
000002a0: a170 35be cb3c 913e cc02 a83e c5b9 9c3e
000002b0: da3a b93e 2564 9d3e b766 8f3e c1f2 8dbe
000002c0: 38de b93e 3ffa 9abe d579 323e 79f6 9cbe
000002d0: 10be acbe 2baa 46bd 6b45 a2be 967c 573e
000002e0: 6409 3e3e bba1 b8be 35f1 293e 4605 a9bb
000002f0: c5a6 b1be 96e6 aabe a0e6 47be 2e94 993e
00000300: e8e5 a8be 5bc5 b43c e6ba 9e3e 15e0 173e
00000310: 8bb3 643e 600f 2c3e a1eb bd3e 7591 b33d
-0.21837674 -0.25592756 -0.3483799 0.29304394 0.345194 -0.22629753 0.28795952 -0.14626057
0.34860262 -0.33645743 -0.24327904 -0.3245551 -0.29491407 -0.32507575 -0.23923445 -0.2687819
-0.33482948 -0.23938473 0.1390971 0.35423887 -0.21212588 0.26920208 0.2979823 0.25709102
-0.15063609 -0.1857367 0.22123572 0.24485458 0.23580876 0.13765956 0.21399741 0.13288088
0.2992998 0.35326764 0.21381666 -0.29022276 0.2128021 -0.3528319 0.20831458 0.15543343
0.34195358 -0.032681867 0.20000733 -0.35410154 0.29445544 -0.23347414 0.046444643 -0.34998903
-0.11320734 -0.27771598 0.32727832 0.31889483 -0.15119332 -0.25374407 -0.16334127 -0.17808983
0.27077907 0.2083323 0.28323707 -0.3335307 -0.17962179 0.15072909 -0.19728285 0.34183967
0.24826752 -0.3150974 -0.29615688 0.27324668 0.06322376 0.16911899 0.29744136 0.15764453
-0.2747414 0.15557244 0.34873626 0.3199304 0.30853456 -0.18389182 -0.18663633 0.37868235
0.14653842 -0.36185232 0.13443568 0.22337012 0.14950725 0.3282379 0.3277899 0.29109192
0.27266017 0.34261543 -0.2821848 0.2696756 0.24182025 -0.24211869 -0.21798995 0.18887387
0.22106068 0.20841502 0.33514243 0.28243244 -0.1705271 0.32742363 0.13810748 -0.3103318
0.35360065 -0.25624403 0.2547871 -0.35695845 -0.2553523 0.2809195 -0.34179112 -0.36674902
0.016949069 0.25313506 -0.3374539 0.14316458 0.20376244 0.22677574 -0.25363892 -0.3395676
-0.32616958 -0.29818913 0.18212196 0.18776742 -0.35662088 -0.22071423 -0.33970326 -0.24285468
0.12919074 -0.19881459 -0.17883082 0.3397809 0.31725088 -0.34275147 0.32632363 0.22705634
0.34279427 -0.25518683 0.13131554 -0.12205043 0.21539952 -0.33571357 0.311601 0.34549788
0.36222988 -0.31223592 -0.3100394 0.34514573 0.21190882 -0.2529209 0.21132271 0.1642336
-0.23192583 0.36300278 -0.21045323 0.36602 -0.31928226 0.31446025 0.2864551 0.3093598
-0.35696936 0.34770423 0.3083926 -0.36982915 -0.20646685 0.35766846 0.22411534 -0.36877334
-0.17718746 0.28366694 0.32814634 0.3061048 0.36177713 0.30740467 0.28008053 -0.2772427
0.36302352 -0.30269048 0.17429288 -0.30656794 -0.33738756 -0.04850213 -0.31693587 0.2104362
0.1855827 -0.3606089 0.1659592 -0.0051580993 -0.34697548 -0.33379048 -0.1952157 0.29995865
-0.32987905 0.022066763 0.31001967 0.14831574 0.22334115 0.1680274 0.37093833 0.08767978

bn1.running_mean f4 [200]
00000000: d583 8c41 51ea 1a42 0000 0000 0000 0000
00000010: 0000 0000 8124 ee42 0936 c941 4ced a642
00000020: 0000 0000 0000 0000 5847 6842 0000 0000
00000030: d1ae df3f 0000 0000 73b4 9442 0000 0000
00000040: 0000 0000 9a64 0e42 351d 8742 0000 0000
00000050: d34c 7f42 0000 0000 0000 0000 9e8b fb42
00000060: d840 ab41 bd2f ac42 60df 1b43 1281 eb42
00000070: 0000 0000 55df 2a43 3a7c 4342 0000 0000
00000080: 0000 0000 0000 0000 aae7 7c42 61a3 2942
00000090: c82f 1b43 0000 0000 0c40 e041 dd86 ca42
000000a0: 0000 0000 8c86 e242 e21c d740 0000 0000
000000b0: 0000 0000 7c2d 833e 9c2f 233a 0000 0000
000000c0: c203 7c42 25f6 c742 0000 0000 0000 0000
000000d0: fd07 ef41 9ce1 a042 e9ca 9641 b00a d741
000000e0: 0000 0000 0000 0000 ed33 aa41 0000 0000
000000f0: dbc0 cf42 cddc 9642 96d8 6242 0000 0000
00000100: d012 1243 0000 0000 0000 0000 ef89 0343
00000110: 524d 3e3b 0c8f 1042 0000 0000 be47 9142
00000120: 4b91 4842 7064 6342 0000 0000 8c3f b341
00000130: 0000 0000 412d 0642 ab6c d742 4274 8f42
00000140: 3dab 1f43 0000 0000 4490 e442 cb1a 8a42
00000150: 9697 ce42 0000 0000 8a6d 0042 0000 0000
00000160: 0000 0000 0000 0000 e0e0 5442 d9b8 8f42
00000170: 9549 e142 f922 a93c c304 4842 15ea 9c42
00000180: a163 cb3a 3af8 b542 0000 0000 20ca e742
00000190: f846 643d 0000 0000 cd5c 7142 0000 0000
000001a0: 6afe 9542 4c58 6842 3590 5142 0000 0000
000001b0: c24f 4140 2a2a c342 0000 0000 0000 0000
000001c0: 9331 313b 0000 0000 32d3 4c3a 2ab5 3043
000001d0: c974 6c41 ee3e 0c43 0000 0000 0000 0000
000001e0: 0000 0000 de9b f241 2807 c142 76dc a041
000001f0: 0000 0000 87ae e03f 0000 0000 9172 4d42
00000200: ca81 8142 d9b2 9e42 1a46 9541 0000 0000
00000210: 0000 0000 0000 0000 0000 0000 95e5 3643
00000220: 0000 0000 6096 ab41 551e 3342 fce3 3841
00000230: 8432 bb42 0000 0000 52f6 9a41 0000 0000
00000240: 0000 0000 7c68 b83c 0000 0000 0000 0000
00000250: f079 c641 0000 0000 42c7 6342 f2b3 8842
00000260: 2a11 3842 0000 0000 7551 f341 0000 0000
00000270: 0000 0000 bdde 3b42 0000 0000 0000 0000
00000280: 0000 0000 0000 0000 0000 0000 0000 0000
00000290: 91de 9341 0000 0000 e2b1 2c42 0000 0000
000002a0: 825d f142 a4e8 aa39 7a1e ca41 0000 0000
000002b0: c7b8 9341 0000 0000 783b 0f43 0000 0000
000002c0: 0000 0000 0000 0000 a23b 1b42 0000 0000
000002d0: 1612 c942 42c4 0e42 64b9 8040 3dd8 ef42
000002e0: d89a 1243 0000 0000 169c cc42 0a31 0843
000002f0: 0000 0000 0000 0000 ca48 8141 0000 0000
00000300: 0000 0000 b7a2 0143 0000 0000 722f de42
00000310: 1735 1842 2920 9d42 0000 0000 42e2 fa42
17.564371 38.728825 0.0 0.0 0.0 119.0713 25.151384 83.46347
0.0 0.0 58.06967 0.0 1.7475225 0.0 74.35244 0.0
0.0 35.598244 67.557045 0.0 63.825024 0.0 0.0 125.77269
21.406662 86.09324 155.87256 117.75209 0.0 170.87239 48.871315 0.0
0.0 0.0 63.226234 42.40955 155.18665 0.0 28.031273 101.263405
0.0 113.26279 6.7222757 0.0 0.0 0.2562064 0.0006225051 0.0
63.00367 99.98075 0.0 0.0 29.8789 80.44064 18.849077 26.880219
0.0 0.0 21.275354 0.0 103.87667 75.43125 56.71151 0.0
146.07349 0.0 0.0 131.5388 0.0029037786 36.139694 0.0 72.64012
50.141888 56.848083 0.0 22.406029 0.0 33.544193 107.71224 71.727066
159.6689 0.0 114.28177 69.05233 103.29607 0.0 32.10697 0.0
0.0 0.0 53.219604 71.86103 112.643715 0.02064656 50.00465 78.45719
0.0015517363 90.98482 0.0 115.894775 0.055731744 0.0 60.340626 0.0
74.9969 58.086227 52.390827 0.0 3.020493 97.58235 0.0 0.0
0.0027037605 0.0 0.0007813453 176.70767 14.778512 140.24582 0.0 0.0
0.0 30.326107 96.51398 20.107647 0.0 1.7553262 0.0 51.36188
64.753494 79.34931 18.65923 0.0 0.0 0.0 0.0 182.8968
0.0 21.448425 44.77962 11.55566 93.59866 0.0 19.370274 0.0
0.0 0.02251076 0.0 0.0 24.80954 0.0 56.944588 68.351456
46.01676 0.0 30.414774 0.0 0.0 46.967518 0.0 0.0
0.0 0.0 0.0 0.0 18.483675 0.0 43.173714 0.0
120.68263 0.00032598258 25.264881 0.0 18.465223 0.0 143.2323 0.0
0.0 0.0 38.808235 0.0 100.535324 35.691658 4.0226307 119.92234
146.60486 0.0 102.304855 136.19156 0.0 0.0 16.160542 0.0
0.0 129.6356 0.0 111.09267 38.051846 78.56281 0.0 125.44191

bn1.running_var f4 [200]
00000000: c840 7b42 31a2 bc42 3266 dc3e 3266 dc3e
00000010: 3266 dc3e b03c a542 962c 0d43 bf3e 4343
00000020: 3266 dc3e 3266 dc3e 8d2d 3042 3266 dc3e
00000030: 00e9 1541 3266 dc3e b580 e042 3266 dc3e
00000040: 3266 dc3e 4234 a242 9cdc 1243 3266 dc3e
00000050: ff76 9042 3266 dc3e 3266 dc3e 9d66 5442
00000060: 7f6c 4742 7748 1043 dc33 c542 d5e8 6c42
00000070: 3266 dc3e f270 8042 ad19 9d42 3266 dc3e
00000080: 3266 dc3e 3266 dc3e 39dc b242 e8ff 6f42
00000090: d701 8942 3266 dc3e 7541 5243 7d83 1642
000000a0: 3266 dc3e 8bea 0643 032d 8841 3266 dc3e
000000b0: 3266 dc3e 2802 ab3f 49c9 dc3e 3266 dc3e
000000c0: b79e 6242 ab44 2243 3266 dc3e 3266 dc3e
000000d0: ff4b a142 2919 c842 8180 4242 b647 f441
000000e0: 3266 dc3e 3266 dc3e 118d f842 3266 dc3e
000000f0: d7b6 0643 5a79 0b43 3762 6842 3266 dc3e
00000100: 201b 8342 3266 dc3e 3266 dc3e 9a9d 7442
00000110: 55d2 e43e 223e c142 3266 dc3e eb3f e742
00000120: 1931 a442 3699 cd42 3266 dc3e a07d 4243
00000130: 3266 dc3e a1cc 8542 fc26 1f43 4742 b442
00000140: ac86 f742 3266 dc3e 594e ad42 25dc 0043
00000150: b73b fa42 3266 dc3e 6934 2843 3266 dc3e
00000160: 3266 dc3e 3266 dc3e d41c 0a43 f52c 4642
00000170: 1a9b 3343 159d 1d3f 951a af42 eec2 ce42
00000180: db8c de3e e6f5 3942 3266 dc3e 2e80 9c42
00000190: 7a80 583f 3266 dc3e 5107 2343 3266 dc3e
000001a0: 9fae 4c43 2bd0 8242 48be e042 3266 dc3e
000001b0: 31b8 7c40 4a6e d541 3266 dc3e 3266 dc3e
000001c0: 5565 de3e 3266 dc3e 6ab1 dc3e ba6e c642
000001d0: a138 9a42 45c5 7942 3266 dc3e 3266 dc3e
000001e0: 3266 dc3e 4ff2 4442 c52d 3b43 771f 2342
000001f0: 3266 dc3e a83a 5840 3266 dc3e 1ee2 9a42
00000200: 5975 2043 3aa5 a542 f00c 8d42 3266 dc3e
00000210: 3266 dc3e 3266 dc3e 3266 dc3e 8e39 f942
00000220: 3266 dc3e 265b 8242 dd1a 4442 1b60 6442
00000230: 69b6 f342 3266 dc3e 7b7a 9642 3266 dc3e
00000240: 3266 dc3e 4b48 213f 3266 dc3e 3266 dc3e
00000250: 40d9 2c43 3266 dc3e ca2a a242 856f 1343
00000260: c839 9542 3266 dc3e 6e97 5f42 3266 dc3e
00000270: 3266 dc3e 3235 5f42 3266 dc3e 3266 dc3e
00000280: 3266 dc3e 3266 dc3e 3266 dc3e 3266 dc3e
00000290: 7a47 1042 3266 dc3e 28c0 6742 3266 dc3e
000002a0: ca4f 5443 be87 dc3e 62c0 8f42 3266 dc3e
000002b0: e013 de41 3266 dc3e 428d 4f42 3266 dc3e
000002c0: 3266 dc3e 3266 dc3e a5ad b542 3266 dc3e
000002d0: 9747 7742 6e32 1f43 d224 8241 5c20 da42
000002e0: ead9 d742 3266 dc3e ffe7 e942 554b a942
000002f0: 3266 dc3e 3266 dc3e b2d4 e542 3266 dc3e
00000300: 3266 dc3e daef 2843 3266 dc3e 6570 0143
00000310: f54c 2b43 8e36 1943 3266 dc3e 5b64 a242
62.813263 94.31678 0.4304672 0.4304672 0.4304672 82.61853 141.17416 195.2451
0.4304672 0.4304672 44.044483 0.4304672 9.369385 0.4304672 112.25138 0.4304672
0.4304672 81.102066 146.86176 0.4304672 72.232414 0.4304672 0.4304672 53.10021
49.855953 144.28307 98.60129 59.227375 0.4304672 64.2206 78.55015 0.4304672
0.4304672 0.4304672 89.43012 59.99991 68.50359 0.4304672 210.25569 37.628407
0.4304672 134.91618 17.021978 0.4304672 0.4304672 1.3360033 0.43122318 0.4304672
56.654995 162.26823 0.4304672 0.4304672 80.64843 100.04914 48.625492 30.535015
0.4304672 0.4304672 124.27552 0.4304672 134.71422 139.47403 58.095913 0.4304672
65.55298 0.4304672 0.4304672 61.153908 0.4469172 96.62135 0.4304672 115.62484
82.095894 102.79924 0.4304672 194.49072 0.4304672 66.899666 159.15228 90.12945
123.76303 0.4304672 86.65302 128.85994 125.11663 0.4304672 168.20473 0.4304672
0.4304672 0.4304672 138.11261 49.543903 179.60587 0.61567813 87.55192 103.38072
0.4346684 46.490135 0.4304672 78.25035 0.8457104 0.4304672 163.02858 0.4304672
204.68211 65.40658 112.37164 0.4304672 3.9487422 26.678852 0.4304672 0.4304672
0.43436685 0.4304672 0.43104106 99.21626 77.1106 62.442646 0.4304672 0.4304672
0.4304672 49.23663 187.17879 40.780727 0.4304672 3.37858 0.4304672 77.441635
160.45839 82.82271 70.52527 0.4304672 0.4304672 0.4304672 0.4304672 124.61241
0.4304672 65.178024 49.026234 57.093853 121.85627 0.4304672 75.23922 0.4304672
0.4304672 0.63000935 0.4304672 0.4304672 172.84863 0.4304672 81.08357 147.43562
74.612854 0.4304672 55.89788 0.4304672 0.4304672 55.80195 0.4304672 0.4304672
0.4304672 0.4304672 0.4304672 0.4304672 36.0698 0.4304672 57.937653 0.4304672
212.31168 0.43072313 71.87575 0.4304672 27.759705 0.4304672 51.887947 0.4304672
0.4304672 0.4304672 90.83915 0.4304672 61.819912 159.19699 16.267979 109.0632
107.92561 0.4304672 116.95312 84.64713 0.4304672 0.4304672 114.91542 0.4304672
0.4304672 168.93692 0.4304672 129.43904 171.30061 153.2131 0.4304672 81.19601

bn2.weight f4 [20]
00000000: 9b3b 4040 eeca e53f 9be6 e53f 20ab e33f
00000010: 02c7 4040 d2b4 e53f 35b6 e13f 689d e43f
00000020: 0d73 e13f 1830 4240 69f8 4340 8a5e e33f
00000030: 7122 4840 1c85 b13f 50c4 4240 507b bc3f
00000040: c291 e43f 3892 4540 a013 e63f 2f8f e33f
3.003638 1.7952554 1.7961 1.7786598 3.0121465 1.7945807 1.763373 1.7860537
1.7613236 3.0341854 3.0620368 1.7763226 3.1271021 1.3868747 3.043232 1.4725132
1.7856982 3.0870495 1.7974739 1.7778071

bn2.bias f4 [20]
00000000: 3225 643f 5c39 4fbf adb3 4ebf 94ee 4cbf
00000010: ea06 643f 8f77 4fbf 60f7 4ebf 899c 4dbf
00000020: 06fc 4ebf 86de 633f d59c 653f 9562 4cbf
00000030: ec86 673f 9c54 45bf ee51 643f 235e 47bf
00000040: 17be 4ebf 693d 673f a409 4fbf 6156 4dbf
0.89119256 -0.809469 -0.80742913 -0.8005154 0.8907305 -0.81041807 -0.80846214 -0.8031698
-0.8085331 0.8901142 0.8969243 -0.79837924 0.9044025 -0.7708223 0.89187515 -0.77878016
-0.80758804 0.9032808 -0.80874085 -0.8020993

bn2.running_mean f4 [20]
00000000: b1a4 b33e 488f b93e 6e89 f93e 1409 cd3e
00000010: e6cd ea3e 86e0 d83e 1b14 d43e da59 ec3e
00000020: 95d4 d13e 4a66 853e f672 7e3e dad1 d93e
00000030: ef0d 543e 195c c33e 6d0a b63e 5ecb bc3e
00000040: 7e5a c23e e9fa 9c3e 5fc9 e13e e726 f53e
0.35086587 0.36242127 0.48737663 0.4004599 0.45860213 0.42358798 0.4142159 0.461623
0.409825 0.26054603 0.24848542 0.42542917 0.2070844 0.38156202 0.3555483 0.36873907
0.37959665 0.3066018 0.44098946 0.47881243

bn2.running_var f4 [20]
00000000: be1d be3f e405 303f 31ec 4f3f 5953 553f
00000010: 9a82 0040 afeb 333f 9e07 373f 494a 4f3f
00000020: adf2 2e3f c147 683f 190a 6a3f 5c6c 3b3f
00000030: 9e4a 3c3f a5f6 2a3f a09a be3f cdcc 4b3f
00000040: 6a5b 293f a640 983f 6bdc 413f bf67 493f
1.4852827 0.6875899 0.81219774 0.83330303 2.0079713 0.702815 0.71496 0.80972725
0.68339044 0.9073449 0.9142166 0.7321222 0.73551357 0.667826 1.4890938 0.79609376
0.6615511 1.1894729 0.75726956 0.7867393
