Results/NN_MLP_MLs/MLP_Ensemble/Model_Results/MGT/test5-itr100000/best_model_0.pt (torch, 79666 bytes, 14 tensors)

country_embedding.weight f4 [8, 2]
00000000: 7259 15c1 c161 1dc1 d406 5dc1 e29f 53c1
00000010: b323 0041 89e8 c440 7024 d4c0 fe5c 1ac1
00000020: d8fb 6fc0 dca1 99c0 3109 e440 0acb 9640
00000030: d0a4 bdc0 60f4 88c0 cb97 4f41 64bf 2441
-9.334337 -9.836366 -13.814167 -13.226534 8.008716 6.1533856 -6.629448 -9.647703
-3.7497463 -4.801008 7.126122 4.712285 -5.9263687 -4.279831 12.974559 10.296726

fc1.weight f4 [200, 68]
00000000: 4390 893e ac1c 893c 8e20 3a3f 6ecd 82bf
00000010: 7e1b bd3e 1e2e 9cbe 74b7 2a3e 2619 f13d
00000020: 5e30 6cbd 5882 1abc 764b 69bd 1ff8 a03d
00000030: 7ad8 4bbf 92a6 b73e 9df1 743e ec42 88bf
00000040: 0f90 edbc 58a6 4d3d 0177 f4bf 5d65 2bbe
00000050: 26c7 813f 2ab5 323f 3b85 f9be 7228 e2bd
00000060: fa4c 153f cc35 ac3e 94e4 5e3e a634 d5bf
00000070: 8ccd b73e 98ed af3e 34c3 20bf 04e5 0a3f
00000080: f3a4 46bd 8fa5 2a3f d16b b8bf 987e 12be
00000090: 7ed8 743f 4ff4 c13e 3fd8 dcbe 9c22 87be
000000a0: 60c3 063f 4fe0 ba3e efe9 f13c 3ba1 96bf
000000b0: 7fd0 143f f6a0 ba3f 3f95 35bf 9d1a ee3d
000000c0: fa84 8238 c551 6d3f 26a6 fdbf 7647 91be
000000d0: 25aa 913f 9217 0a3e c2b7 fdbe 6578 0abf
000000e0: 022a 353f 0890 d93e 1cab 563e 3b84 70bf
000000f0: 0c3f 043f 0a45 af3f e88a 5dbf 8e8b 2b3e
00000100: 7845 14be 24fe 643f 6fa5 0341 a340 cd40
00000110: 7092 aabd ea10 9abd 1346 c9bd efc2 1fbe
00000120: bc0d aabd ae0f 40be bcd8 5cbc fd54 23bd
00000130: c332 723c d4ca 4ebd 6e03 58be bf8d 1cbe
00000140: abfd 6bbd 18f9 6e3d 4d9f 2ebe 6af3 0bbe
00000150: 9dfa c83d 4f4d 5bbb 6771 0dbe 756d 1ebe
00000160: a530 81be ee1f 0fbe bda4 1ebe c1fd 59be
00000170: b015 c8bd bc0f bcbd de7e 2ebe f6f2 f9bc
00000180: ecd2 5ebe 9a23 44bd cd33 10bd b150 68be
00000190: 6566 4dbd ae5e bdbd 9c88 8ebd d533 c5bd
000001a0: c23b b8bd 1131 06be a1b0 f3bd 958a 84bd
000001b0: 1e41 55be f001 3bbe 6bee 1cbe 526e 28be
000001c0: 1335 44be 2113 86be 435a 15be 15ff c7bd
000001d0: d0f7 c6bd 59ad d6bd 9bf7 fa39 21be 0dbe
000001e0: e789 09be d2ee 18be f96b 21bd ab9f 3bbd
000001f0: 7fa0 b23c d702 14bd fe3d 2ebc e790 f7bd
00000200: 2a41 84be 4816 60be 1962 2ebd ff17 04be
00000210: 1f98 a3bd c086 43be 46fd 50be fd50 12be
00000220: d780 c9bc 3f33 883d 8f45 863d dd85 efbd
00000230: 99eb 9a3d 5f57 c2bd 3c05 d2bc 4c67 49bd
00000240: 5859 bfbc 4b0d c3bc d8dc debd be70 d6bd
00000250: 6573 9bbc fc8d cd3a eca4 61bd 831c 3b3d
00000260: 0b89 dfbd 4f16 06bc d668 da3d f19a 4abd
00000270: 4444 e03d f0e2 333d cc21 e0bd 6d22 9d3d
00000280: 8f45 65bc 6ebc 5dbd 5d99 c63d 18b2 c8bd
00000290: f132 553c 07fe cfbc c05a b13d 9aa7 0a3d
000002a0: 59ac 6e3d 2b6b 2f3d d0e4 eebc 42ec d0bc
000002b0: 7caa ccbd 0c92 863d 8a30 c53d 82ee a93d
000002c0: 6e2f afbd 0c3a b13b 3013 afbd 60b7 88bd
000002d0: fcb7 90bd cabf 293d b8ff 93bd e663 2dbb
000002e0: 902a a73b a818 a03d d6bc bbbd f07f aabd
000002f0: 0836 90bd 3fd5 ad3d 098d 32bd 637c d13d
00000300: 7b9d 333d 4e96 7b3c 8ca4 6cba c961 c4bc
00000310: 7548 793c f1d7 e2bc 235e 5fba 2b82 7d3c
00000320: 0544 c2bd e32b 82bd ca8b c83d 898d c9bd
00000330: 13ab 0ebc 11af f53d 5e6e 333d e803 613b
00000340: 6b3a d7bd 850f 763d 48e6 b0bd c2ff 0cbd
00000350: c2a7 26bd 251d 93bc afdc ad3a a6d8 cc3d
00000360: 4809 783c 7c73 de3d 39ec 973d b203 9dbd
00000370: 1dc7 5e3d ed8f afbd fa84 52bd 3518 123d
00000380: bc02 243d f152 ba3d 58e6 1fbd 2c90 4b39
00000390: 33b8 7f3d 002f f0bd 928e b33d 1d5f cdbd
000003a0: ff11 db3a 29e6 a8bc 7acd 82bd 584d 833c
000003b0: e15e cd3d eb32 11bd a172 93bd 28b4 37bd
000003c0: 7a28 f6bd 9636 603d 9f8d 6ebd 00bd a5bd
000003d0: 1a14 8fbd 48cb 8e3d e785 833d 789e be3d
000003e0: 552b 343d d2e1 25bd 36ce 0abd 6fbe 123d
000003f0: 5b28 cc3d 680d 073d 7604 6bbd 587e 69bd
0.26867875 0.016737305 0.72705925 -1.0218942 0.36935037 -0.30503935 0.16671544 0.11772375
-0.057663314 -0.00943049 -0.05695673 0.07859825 -0.7962719 0.3586927 0.23920293 -1.0645423
-0.028999357 0.050207466 -1.9098817 -0.16737886 1.01389 0.69807684 -0.4873446 -0.110428706
0.5832058 0.33634794 0.21766883 -1.6656692 0.35899007 0.34360957 -0.62797856 0.542557
-0.04849715 0.6665887 -1.4407903 -0.14306104 0.9564284 0.37881705 -0.43133733 -0.26393592
0.5264187 0.3649926 0.029530494 -1.1767954 0.5813064 1.4580371 -0.70930856 0.1162617
6.223652e-05 0.92702895 -1.981633 -0.28374833 1.1380049 0.13485554 -0.4955426 -0.5408996
0.70767224 0.424927 0.2096371 -0.9395177 0.516587 1.3692944 -0.8654008 0.16752455
-0.14479625 0.8945029 8.227889 6.41414 -0.08328712 -0.07522757 -0.09827819 -0.15601705
-0.08303401 -0.18755981 -0.013479408 -0.039875973 0.01478261 -0.0504864 -0.21095058 -0.15288447
-0.057614964 0.058343023 -0.17052956 -0.13667074 0.09813426 -0.0033462828 -0.13812791 -0.15471442
-0.25232425 -0.13977024 -0.1549253 -0.21288206 -0.097697616 -0.091826886 -0.17040583 -0.03051136
-0.21760148 -0.047885515 -0.03520565 -0.22687031 -0.05014648 -0.09246574 -0.0695965 -0.09629027
-0.08995773 -0.13104655 -0.11898924 -0.06471745 -0.20825621 -0.18262458 -0.15325324 -0.16448334
-0.19160871 -0.2618647 -0.14585213 -0.0976545 -0.09715235 -0.10482282 0.00047868196 -0.1384206
-0.13431512 -0.14934853 -0.03940961 -0.045806568 0.021805046 -0.03613552 -0.010634897 -0.12088185
-0.25830966 -0.218835 -0.042574022 -0.12899779 -0.07987999 -0.19094372 -0.20409116 -0.14288707
-0.024597568 0.066503994 0.06556236 -0.11695454 0.07564468 -0.09489321 -0.025637262 -0.049170777
-0.023358032 -0.02381005 -0.10881966 -0.104707226 -0.018975923 0.0015682573 -0.055088922 0.045681488
-0.10914811 -0.00818403 0.10664527 -0.04946417 0.10950521 0.043917596 -0.10943946 0.07672582
-0.013993635 -0.05413478 0.096972205 -0.09799594 0.013012634 -0.025389684 0.08659887 0.033851244
0.058269832 0.042826813 -0.02916184 -0.025503282 -0.09993455 0.06570825 0.09628399 0.08297445
-0.08553968 0.005408531 -0.085485816 -0.06675601 -0.07066342 0.04144267 -0.07226509 -0.002645725
0.0051015094 0.07817203 -0.09166877 -0.083251834 -0.07041556 0.08487939 -0.043591533 0.10228803
0.043851357 0.01535566 -0.0009027205 -0.023972409 0.015215029 -0.02769086 -0.00085208024 0.015472929
-0.0948563 -0.06356027 0.09792288 -0.09841449 -0.008707779 0.11996282 0.043806426 0.0034334604
-0.10509189 0.060073394 -0.08637673 -0.034423597 -0.04068733 -0.017958233 0.0013264621 0.1000226
0.015138932 0.10861871 0.07418103 -0.076667204 0.054389108 -0.085723735 -0.051396348 0.035667617
0.04004167 0.09097851 -0.039038032 0.00019413297 0.062431525 -0.117277145 0.087674275 -0.10027907
0.0016713737 -0.020617561 -0.06386848 0.016028091 0.10027862 -0.03544895 -0.07199598 -0.044849545
-0.12019439 0.054739557 -0.05824053 -0.080926895 -0.06986256 0.069723666 0.06422024 0.09307569
0.043986637 -0.040498562 -0.033888064 0.035826143 0.09968635 0.03297177 -0.0573773 -0.057005256

fc1.bias f4 [200]
00000000: 31ce 963c 7907 e3bd 9c32 72bd b5cb 873d
00000010: 221f b53d ec6c b0bc b4ec 6ebd 5d07 9f3c
00000020: 4f04 ad3d 3724 933d 4018 88be 4011 543d
00000030: 8ece 84bd 9f52 98be d231 843c 2518 d53d
00000040: 1002 053c a911 e0bd 5478 47bd 275f d1bd
00000050: 70ee 07be 8992 3bbc 71be 29bc e9bb 9dbd
00000060: 3f84 46bc 7481 bebc db51 20bd c63f b9be
00000070: 7aee e73c 6976 fe3d df44 5fbe 76c7 42bd
00000080: 4614 7bbd 2bff 17be 94ac 39be 4538 e4bc
00000090: a07d 49be 0a0f 3ebe a264 193e 46b7 5fbe
000000a0: 9f8c 0ebd 5e43 52be 9217 ef3d 0dd3 6d3d
000000b0: 714c c33d b5c5 883e 6a7a 49bc 3c65 353d
000000c0: beef 01be c25c e83d 8967 48be 52c0 3cbd
000000d0: a6a8 0c3d 6d95 413c 038a 8e3e 959d 55be
000000e0: 31d7 95bc fe95 373e 72f1 263b 42b8 a0bc
000000f0: c315 47be 0c1e 42bd dc37 5abe de03 0a3e
00000100: 65b5 34bd 8a0c fc3b 89f8 bebe c7af 023e
00000110: d843 0c3e 06df dfbd cd5a bdbe 3ee5 803d
00000120: c307 cd3d 3766 87be bda8 e2bc a254 503e
00000130: 5c4f e23d 8934 b83c df81 5abc c43e 72bd
00000140: 1987 02be c4c8 8fbe 8961 e4bd d736 a93d
00000150: e841 b93c 7056 01be deee 0ebe e23c bb3d
00000160: b4ba 193e 42a2 b43d bf07 9a3c 61f4 40be
00000170: 699d c93d 2c17 dd3d e9ed 47be 527c f5bd
00000180: 9a97 693d 1c56 70bd ffdb 5a3e ef92 0d3d
00000190: c7bf e03d c60e 99bd 120f c9bd eb5f 76be
000001a0: 53a9 e33d 898a bcbd 711d 183e 9b2c dabd
000001b0: 9f02 d63c 73a7 323e fdbd 7f3d 2397 03bd
000001c0: d035 c93d 2766 edbc b3bb a43d 3d63 693e
000001d0: 73a6 4c3d 4cb8 9cbd 416a 20bc f6e1 cbbd
000001e0: 9bb7 e1bd 8379 863d 00b8 60bd 6edc d5bd
000001f0: 6280 0d3e 99a0 a73d c9c5 163d 2f6e 433e
00000200: 17f6 283e 9d10 d2bd 8eb0 0b3e 6689 5bbd
00000210: 3d2b b23d 68c8 4abe 4062 cbbd ec34 1ebf
00000220: cbe0 b63d 85e9 4a3c d59f 263b 224a 35bd
00000230: a554 9fbe 58a8 a4bd 72d4 22be 8049 023d
00000240: ff72 6dbe 922e bcbd 1832 3bbe 0a7f e4bd
00000250: 67c2 823b a181 923e f913 c33d 71dc a0be
00000260: 450c a23d adb9 8f3d b656 6cbe b370 863e
00000270: 3f1c a13e d38c e8bc 5830 4a3e 0da4 eb3d
00000280: c287 f93c 2e07 2d3e ea1e ce3d 1d88 603e
00000290: eb54 ec3d 152f 173d 32a9 6b3e d199 973d
000002a0: 97aa a1bd 0dfe a83c 2ba3 75be 3cb0 32be
000002b0: a2a4 3c3d d7be 35be a650 e3bd 7a45 9a3a
000002c0: 5551 263e a4b0 4c3e 169b b33d d38a 703b
000002d0: 08a8 1ebd 4de5 92bc 2404 2cbe 3c44 5c3d
000002e0: ca46 7dbe 5b8b 32bd 3704 333e 427b acbd
000002f0: 0a1c e0bd d4f8 953d de00 dfbd f66e 05bb
00000300: 56e8 81be d849 dabc 9342 a0bd 2ed9 5f3d
00000310: 46c1 25bd 9862 82be 5296 57be 27cb 81be
0.018408867 -0.1108541 -0.059130296 0.06630651 0.08843829 -0.021536313 -0.058331206 0.01941269
0.084480874 0.07184642 -0.26581 0.051774263 -0.0648471 -0.29750535 0.016137037 0.10404996
0.0081181675 -0.109408684 -0.04869874 -0.10223227 -0.1327455 -0.011448511 -0.010360346 -0.07701857
-0.012116491 -0.023255087 -0.039140563 -0.36181468 0.028311957 0.12424929 -0.21803616 -0.047553502
-0.06129863 -0.14843433 -0.1813224 -0.027858863 -0.19676828 -0.18560424 0.14979795 -0.21847257
-0.034802075 -0.20533511 0.116744176 0.0580626 0.095360644 0.26713338 -0.012297252 0.044285998
-0.1268911 0.11345817 -0.19570746 -0.04608185 0.034340523 0.011815411 0.2783967 -0.20860894
-0.018291088 0.17928311 0.0025473502 -0.019619111 -0.19441895 -0.047391936 -0.21310371 0.13478038
-0.044118304 0.0076919245 -0.37298992 0.12762366 0.13697755 -0.1093121 -0.36983338 0.062937245
0.10011246 -0.2644517 -0.027668351 0.20344785 0.11050293 0.022485988 -0.013336628 -0.05914189
-0.12746848 -0.2808286 -0.11151416 0.08262413 0.022614434 -0.1263063 -0.13958308 0.09142472
0.15012628 0.08820011 0.018802522 -0.18843223 0.09844477 0.10795435 -0.1952435 -0.11986603
0.057029344 -0.05867587 0.21372984 0.034563955 0.109740786 -0.07473521 -0.098173276 -0.24060027
0.111162804 -0.09206111 0.14854981 -0.10653039 0.026124297 0.1744669 0.062437046 -0.032126557
0.09824717 -0.028979374 0.08043613 0.22791763 0.049963426 -0.07652339 -0.009790958 -0.09955208
-0.11021348 0.06566145 -0.054862976 -0.10442434 0.13818505 0.081849284 0.036809716 0.19085
0.16500126 -0.10257075 0.13641569 -0.05359783 0.08699653 -0.19803011 -0.09930849 -0.617995
0.089295946 0.012384777 0.0025424857 -0.04426015 -0.31119266 -0.080399215 -0.15901354 0.031808376
-0.23188399 -0.0918857 -0.18280828 -0.11157043 0.0039904597 0.28614524 0.09525294 -0.31418183
0.079124965 0.07017837 -0.23079953 0.26257858 0.31466863 -0.028387463 0.19745004 0.115058996
0.030460242 0.1689727 0.1006449 0.21926923 0.11539634 0.036910135 0.23013762 0.07402385
-0.078938656 0.020628953 -0.23988025 -0.1745004 0.046055444 -0.17748581 -0.11099367 0.0011769973
0.16241963 0.19989258 0.08769815 0.003670384 -0.038734466 -0.017931605 -0.16798455 0.05377601
-0.24734035 -0.04358993 0.17482077 -0.08421947 -0.10942848 0.07322851 -0.10888837 -0.0020360327
-0.2537257 -0.02664654 -0.07825198 0.054650478 -0.040467523 -0.25465846 -0.21053436 -0.25350305

fc2.weight f4 [20, 200]
00000000: f0e8 10be df6d 863e d5e1 c53d 6a75 153e
00000010: 38e3 f43c f84f 86bc 194b 6f3e 6780 5d3e
00000020: 5e76 7cbd 2a66 53bb b6b9 953e 6eee 8dbd
00000030: e175 3fbe ebae c5bd e0a0 0abe 8cc9 a1bd
00000040: b8b7 803d 48df aabc 683b 853d 49e4 d1bd
00000050: ad6a 203e 748c 1c3d 4348 e9bd 40f0 88bb
00000060: ff55 063e 8ec3 563e 6b14 993e a9ad 09be
00000070: 45b7 0abe c354 23be 7e65 163e 0d26 853c
00000080: f34e 7cbd 7f50 713e d648 7e3e e515 afbc
00000090: 094c 9b3e 8952 883e 119e 7abe 1008 ccbd
000000a0: 8646 3b3c 2880 18be 8f68 673c d57b 95bc
000000b0: ece8 2abd 7b5a 24be c4de ed3d e0ad f63d
000000c0: 71ff ba3d cb27 d53d 8c7e 853e 8cc6 633e
000000d0: da10 043e 8c23 003e ef67 c7bd 1d9d 03be
000000e0: 746f b73d d200 f9bd 479d 793c 203b c8bd
000000f0: fd71 e5bd a186 6f3e 81f2 903e f772 1abe
00000100: b8fe 48bd fd11 67bc 9211 01be 2c32 26be
00000110: 890c 41be 3bed f83d e578 d1bd 6ecc ef3d
00000120: 91c3 0dbe 05d1 5c3e 8942 bcbc 650f 0cbe
00000130: 746f 20be 55e6 c6bd 547f e33d 4ad7 6c3e
00000140: ffc6 3ebe b1f3 69be 8a56 9c3e ed85 55bd
00000150: fc3c 7c3e c54e aabe c85e 8c3e adf6 dabd
00000160: 2a0a 44be 6905 c6bd 8619 d63d 5ffc 543e
00000170: c472 0fbe 3071 e7bd a5cf 763e b39e fbbd
00000180: 536c 3b3e 1977 763e a492 07be cccb d6bd
00000190: c402 c03d 8593 d3bc ef53 5d3d 1eb0 a5bd
000001a0: e661 fa3d 48fa f8bc b286 9bbe 1374 763e
000001b0: 5bae c9be 96f8 18be c946 8f3d 1dc2 09be
000001c0: 25da 083d 3e0f 7d3d 4c59 b53c d0fe cabd
000001d0: a31d 18be 3446 0abe b000 a13d 90f4 ad3d
000001e0: 3ab9 843e f532 6b3c 2817 06be 0047 433e
000001f0: 8e3a 74be ffeb 8cbd 7dbf 2bbe ffdd d2bd
00000200: b928 8cbe 15d0 a9bd 7ae7 a5be 4181 54be
00000210: 2699 8bbe a9b1 0bbe 0459 333c f3f8 06be
00000220: 4de2 8abd 413b debd 7d9f bb3e e341 50bd
00000230: 0ae8 f7bd 7b00 783e 6dd6 323e c16e 23bd
00000240: 64c0 50bd 1a7f cbbd a0b9 3b3e c61e 3a3e
00000250: fb72 d0bd ce55 15be 0e25 833d 91e8 32be
00000260: 028d a6bd 4ecb b03d 27af 463e fbb2 14be
00000270: c69e 40be a5d4 a73d 9dcd adbd 3faa 073e
00000280: c504 f1bd 38e1 12be 01cb 03be c77a 16be
00000290: af0b d73d b4d3 c0be 44bd 66be 98e7 cbbd
000002a0: 86d2 44bd aef1 a73d 68c4 25be f2c9 3c3e
000002b0: ecd8 a13d 0d45 303e 6711 1dbe 07f1 4dbd
000002c0: 5100 d6bd 9640 ddbd 5b57 a7bd 0a5d 0cbe
000002d0: dcf5 063d 30dc ed3d 3192 f3bc acac 1dbe
000002e0: fa29 bc3e 4336 35bc db81 e3bd dfbe 86be
000002f0: 7434 a13d 1894 1dbe b98a 0a3e 4e51 103e
00000300: 9019 623e c3e9 703b e3c8 023d 6221 433d
00000310: c101 833c 12ac 2fbe cb6a 42be 9bd8 20be
00000320: 97ce 493f cb5f efbe 0240 c6be 8ca2 96be
00000330: 44fb a1be 5d49 a53e 4e23 bfbe 1ea7 e0be
00000340: d4b2 a63e f4bc ae3e f380 e2be 2612 4b3f
00000350: d8b5 f13f e148 a840 466c 5e3f d0c9 a03e
00000360: 1da1 babe b56a b33e 3387 cabe 1a88 ba3e
00000370: e704 b9be e152 a2be 0f71 ac3e 7500 49bd
00000380: fe00 bdbe b5af cdbe 7b7a ffbe 5d2b fa3f
00000390: dcc0 a43e fce6 593f c473 b2be 8c10 8dbe
000003a0: 61ed a53e 4735 dbbe 7cc8 cebe c36d 6b3f
000003b0: d5b2 02bf 4424 afbe 3461 573f 491b c13e
000003c0: bdb3 acbe b824 4e40 0a73 c2be b2d4 b03e
000003d0: d63f 533f 2032 763f 1e8c 8ebe 8932 aebe
000003e0: b011 8dbe 5f74 a1be 513b f4be cfe1 07bf
000003f0: 86c1 d0be abef c6be c761 4e3f cc50 0d40
-0.14151359 0.262557 0.09662215 0.14595571 0.029893503 -0.016395554 0.23368491 0.21631013
-0.06163632 -0.003225694 0.2924325 -0.069302425 -0.18697311 -0.096525036 -0.13537931 -0.0789977
0.062850416 -0.020858422 0.065054715 -0.1024862 0.15665694 0.038219884 -0.11390736 -0.0041790307
0.13118742 0.20973036 0.2989839 -0.13445152 -0.13546474 -0.15950303 0.14687154 0.016253496
-0.06159873 0.23565863 0.24832472 -0.021372745 0.30331448 0.2662547 -0.2447436 -0.09962475
0.011430388 -0.14892638 0.01412405 -0.018247524 -0.041726038 -0.1605014 0.11614755 0.12044883
0.09130753 0.104079805 0.2607311 0.22243708 0.12897053 0.1251356 -0.09736621 -0.12852903
0.08956805 -0.121583596 0.015235252 -0.09776902 -0.11203382 0.233912 0.28310016 -0.15082918
-0.049071044 -0.01410341 -0.12604359 -0.16230077 -0.18852438 0.12154623 -0.10228137 0.11708914
-0.13844134 0.2156411 -0.022980945 -0.13677748 -0.15667516 -0.09711901 0.1110827 0.23129001
-0.18630598 -0.22846867 0.30534774 -0.052129675 0.24632639 -0.3326322 0.27416062 -0.10691581
-0.19144502 -0.09669001 0.10454087 0.20799397 -0.14008623 -0.11300886 0.24102648 -0.12286129
0.18303041 0.2406887 -0.13239533 -0.1048809 0.093755275 -0.025827179 0.054035123 -0.08090232
0.12225704 -0.03039278 -0.30376202 0.24067716 -0.39390835 -0.14938578 0.06995923 -0.13452955
0.033411164 0.061782114 0.022137307 -0.09911883 -0.14855056 -0.13503343 0.07861459 0.08493912
0.25922567 0.014355411 -0.13094771 0.19070053 -0.23850462 -0.0688095 -0.16772266 -0.10296249
-0.2737482 -0.082916416 -0.32403165 -0.20752431 -0.2726528 -0.1364199 0.010946516 -0.13180904
-0.06781445 -0.108511455 0.36645117 -0.050844084 -0.12104805 0.24218933 0.1746461 -0.039900545
-0.050964728 -0.09936352 0.18332529 0.18175802 -0.10178181 -0.14583513 0.06403552 -0.1747153
-0.08132364 0.08632527 0.19402753 -0.145214 -0.18810567 0.081948556 -0.08486483 0.13248537
-0.11768488 -0.14343727 -0.12870409 -0.14695273 0.10500275 -0.37661517 -0.22533137 -0.099562824
-0.048052333 0.082003936 -0.16188204 0.18436411 0.07902703 0.17213841 -0.1533867 -0.05027869
-0.10449279 -0.108033344 -0.081709586 -0.13707367 0.032949314 0.11614263 -0.029732795 -0.153979
0.36750776 -0.0110603 -0.11108752 -0.26317498 0.07871333 -0.15388525 0.13529481 0.14093515
0.22080064 0.0036760427 0.03192986 0.04763926 0.015992047 -0.17155483 -0.18986051 -0.15707628
0.78830856 -0.46752772 -0.3872071 -0.29420888 -0.31637013 0.32282534 -0.37331623 -0.438775
0.3255831 0.34128535 -0.44239005 0.7932457 1.8883619 5.2588964 0.8688396 0.3140397
-0.36451045 0.35042349 -0.39556274 0.36431962 -0.36136553 -0.31703857 0.33680007 -0.0490727
-0.3691482 -0.40173116 -0.49898133 1.9544483 0.3217839 0.8511808 -0.34853947 -0.27551687
0.32407668 -0.42814085 -0.40387332 0.9196436 -0.51054126 -0.34207356 0.84132695 0.3771613
-0.3373088 3.2209911 -0.37978393 0.34537274 0.8251928 0.96170235 -0.27841276 -0.3402293
-0.27552557 -0.31534097 -0.47701505 -0.5307893 -0.40772647 -0.38854727 0.80617946 2.2080564

fc2.bias f4 [20]
00000000: 1e7f 8d3d e1ea e13e 5e05 db3e f3d0 373e
00000010: bf9c 063f 0e05 5d3e 8487 e33e 0e08 d43e
00000020: 7f07 d63d 81d2 c43e 80c0 393d 3f06 4b3e
00000030: 9100 323d fd92 e93d 3ed0 eb3e c848 d23e
00000040: f8be 183e d00c 343e 7d74 053f 00a3 eb3e
0.06909011 0.4412451 0.42777532 0.17950802 0.52582926 0.2158396 0.44439328 0.41412395
0.104506485 0.38441852 0.045349598 0.19826601 0.04345757 0.11404989 0.46057314 0.41071153
0.14916599 0.17583013 0.5213087 0.46022797

fc3.weight f4 [1, 20]
00000000: 1645 1cbf 638e e53f 2b74 ec3f 6cb5 de3f
00000010: c946 dc3f 025c 46bf b6ff e23f 3d22 e53f
00000020: 2952 44bf 3434 e53f db6a e13f 3ea9 4bbf
00000030: e3cd 35bf 9738 4bbf 420d dd3f abae e33f
00000040: 83c1 4ebf 6cf3 22bf 2e43 ea3f cca0 e83f
-0.61042917 1.7934078 1.8472952 1.7399116 1.7209102 -0.7748414 1.7734287 1.7901074
-0.76687866 1.7906556 1.7610735 -0.7955512 -0.71017283 -0.79383224 1.7269671 1.778768
-0.80764025 -0.6365268 1.8301752 1.8174071

bn1.weight f4 [200]
00000000: 25d1 e43f 6b5f a33f 0000 803f 0000 803f
00000010: 0000 803f 0000 803f d0cc a03f c361 ac3f
00000020: 0000 803f 0000 803f 4ca5 a93f e825 ec3f
00000030: fef9 4b40 a820 f940 18b3 f33f 0000 803f
00000040: 0000 803f 0000 803f 0000 803f 0000 803f
00000050: abc3 8c3f 0000 803f 0000 803f f79e 693f
00000060: 0000 803f c62f 933f c520 a53f ab93 5d40
00000070: 0000 803f 43f5 ee3f 3f3d 8d3f 0000 803f
00000080: 0000 803f eef0 9f3f bc78 aa3f 4414 f43f
00000090: 2047 ad3f a6a7 9d3f 3439 e93f a680 583f
000000a0: 0000 803f e369 a740 0000 803f 0000 803f
000000b0: 9716 e93f 9ed5 f53f 0000 803f 0000 803f
000000c0: e088 923f 0000 803f acac ac3f 5c2a ac3f
000000d0: 4b3f a33f 0000 803f bcbf e83f 4c7d 6840
000000e0: 0000 803f 68bc e73f 0000 803f 0000 803f
000000f0: ddf6 8440 4bcd 943f faf6 9e3f e65e ee3f
00000100: 0000 803f 0000 803f a150 5540 34d8 ea3f
00000110: 65b3 ea3f 0000 803f 56b0 9c40 0000 803f
00000120: 0000 803f 0f71 993f 0000 803f 5196 f73f
00000130: 4540 e93f 0000 803f 0000 803f 24d8 9c3f
00000140: 3126 673f bacc 4a40 12c9 8a3f 0000 803f
00000150: 37fa 983f 311f 4640 80bf 833f 0000 803f
00000160: 8e9c e33f 0000 803f 0000 803f d67a 963f
00000170: 8e1d f63f 0000 803f 4da8 983f 0000 803f
00000180: ce89 813f 207c 9e3f 0cf6 f43f 49d1 eb3f
00000190: 0000 803f 48b0 4a40 0000 803f b1e3 9940
000001a0: 0000 803f 0000 803f a5c0 f63f d06a a03f
000001b0: 11b0 5b3f 4637 ee3f 0000 803f 0000 803f
000001c0: 0000 803f 0000 803f 0000 803f 9783 f33f
000001d0: 31c1 f33f 0000 803f 0000 803f 0000 803f
000001e0: 5a4a 9b3f 0000 803f 4b3f 6440 58d8 a63f
000001f0: f995 f43f 2a31 e73f 0000 803f 84bd f33f
00000200: f42f f63f 0000 803f 337b ed3f 0000 803f
00000210: b2ee fb3f 80e2 4840 0000 803f 9540 5140
00000220: 0000 803f e397 ea3f 80ca 983f 0000 803f
00000230: b09f 4f40 34bb 8f3f 6c45 a43f 0000 803f
00000240: a8c2 3f40 0000 803f b654 ac3f 123f 993f
00000250: 0000 803f 82bc e73f 0000 803f c008 4740
00000260: 0000 803f 0000 803f 29dc a83f 2f57 fc3f
00000270: 480f e83f 0000 803f 783e f43f 0000 803f
00000280: 0000 803f 4f9d e73f 0000 803f 86ba e93f
00000290: 0000 803f 1045 ef3f 53f4 f43f 0000 803f
000002a0: 0000 803f 0000 803f 247a 5d40 5d1d 993f
000002b0: faee 863f 519a 8d3f 0000 803f fcfa 993f
000002c0: 92e9 eb3f dcc9 eb3f 0000 803f 0000 803f
000002d0: 0000 803f 0000 803f 75f6 5940 4b66 ed3f
000002e0: 01d8 ae3f 0000 803f 4337 ea3f b609 4740
000002f0: dc90 8e3f 7f0e f73f 0000 803f 0000 803f
00000300: bb44 843f 0000 803f 0000 803f 0000 803f
00000310: 0000 803f caab 4440 3788 be40 ce01 0941
1.7876326 1.2763494 1.0 1.0 1.0 1.0 1.2562504 1.3467335
1.0 1.0 1.325357 1.8449068 3.1871333 7.7852364 1.903903 1.0
1.0 1.0 1.0 1.0 1.0997213 1.0 1.0 0.91258186
1.0 1.1498954 1.2900625 3.462138 1.0 1.8668598 1.1034316 1.0
1.0 1.2495401 1.3318095 1.9068685 1.3537331 1.2316787 1.8220582 0.845713
1.0 5.2316756 1.0 1.0 1.8210019 1.9205816 1.0 1.0
1.1448021 1.0 1.3490195 1.3450427 1.275369 1.0 1.8183513 3.6326475
1.0 1.8104372 1.0 1.0 4.1551347 1.162515 1.2419121 1.8622711
1.0 1.0 3.3330462 1.834723 1.8335997 1.0 4.8965254 1.0
1.0 1.1987628 1.0 1.9342748 1.8222739 1.0 1.0 1.2253461
0.9029265 3.1687455 1.0842612 1.0 1.195136 3.0956538 1.0292816 1.0
1.7782152 1.0 1.0 1.1756237 1.9227769 1.0 1.1926361 1.0
1.012018 1.238163 1.9137588 1.8423244 1.0 3.1670094 1.0 4.8090444
1.0 1.0 1.927754 1.2532597 0.8581553 1.8610618 1.0 1.0
1.0 1.0 1.0 1.9024533 1.9043332 1.0 1.0 1.0
1.2132065 1.0 3.566363 1.3034773 1.9108268 1.8061879 1.0 1.904221
1.9233384 1.0 1.8553222 1.0 1.9682219 3.1388245 1.0 3.2695668
1.0 1.8327602 1.1936798 1.0 3.2441216 1.1229005 1.2833686 1.0
2.9962559 1.0 1.3463352 1.1972373 1.0 1.8104403 1.0 3.109909
1.0 1.0 1.3192188 1.9714106 1.8129663 1.0 1.9081564 1.0
1.0 1.8094882 1.0 1.8260047 1.0 1.8692951 1.9137062 1.0
1.0 1.0 3.4605799 1.1962086 1.054168 1.1062719 1.0 1.2029719
1.8430655 1.8420978 1.0 1.0 1.0 1.0 3.4056675 1.8546842
1.3659669 1.0 1.8298115 3.1099677 1.1137958 1.9301299 1.0 1.0
1.0333475 1.0 1.0 1.0 1.0 3.0729852 5.954128 8.562941

bn1.bias f4 [200]
00000000: ceea 073e 5908 8bbe d088 c5be b90f 96be
00000010: 1f59 b9be 4fe7 ac3e 4474 84be c378 7ebe
00000020: 0cda ac3e 5b9d c83e 0a6f 70be 89f2 423e
00000030: e822 a93e d0a2 adba a898 253e d954 b63e
00000040: 675d a7be bbc2 a93e 2802 a2be d60c bf3e
00000050: eb47 20be dbbd bbbe 6ca6 a83e e463 61bd
00000060: 770e a7be f6bd 53be d859 62be 2e15 c43d
00000070: 8d96 c23e cace 223e 6cb5 83be 29b4 c0be
00000080: a289 be3e edef 50be 1234 69be a8d9 123e
00000090: 1b69 84be 9985 43be b299 4d3e f2df a13e
000000a0: 97fa 9abe f9ac e93d d983 c1be c83d c63e
000000b0: 6455 913e d76d 353e b7b8 c2be 3e19 a7be
000000c0: 275a b0be 5a76 bcbe e7c4 72be 4619 a8be
000000d0: 6ae5 9abe 5669 b9be 08e8 fa3d ef9a 053d
000000e0: 1664 81be 3b4e 233e 7be0 bbbe 3f34 ab3e
000000f0: b21d e73d b023 6cbe 39df 53be 0b9a 2f3e
00000100: 02bc bb3e b3b3 c73e cbcb ca3c c22f 513e
00000110: 5e57 253e 630f 98be ceba 3c3e e456 90be
00000120: a843 b93e 113f a6be 8e91 a33e 1ebe 3e3e
00000130: 53e2 fd3d cdd7 c43e a5d3 c3be d496 a5be
00000140: 01c6 9c3e 7eb5 563e 25c2 43be 91c9 be3e
00000150: fd02 68be 5e4a 653e 3211 84be 3204 ac3e
00000160: 6df4 1b3e 4b18 c33e ba19 89be e314 3bbe
00000170: 37c8 0f3e 2082 c43e beea 56be b1b5 9e3e
00000180: 4b95 b7be 1f8e 8fbe fd62 863e b6a7 5c3e
00000190: 923a c1be 86b4 7d3e 3922 a8be d735 003e
000001a0: b904 b8be e171 b13e 8f0f 103e e0c1 71be
000001b0: b4b7 373e 4a43 443e 0b2a a4be 1eb2 b73e
000001c0: b06c b7be 428f bfbe 1eee c1be f147 433e
000001d0: 0d7f 5d3e e375 a23e 2ae7 b7be aadd c2be
000001e0: 1811 48be 7828 c8be 3302 963e 99ad 9bbe
000001f0: de08 2e3e f656 833e f57b 9e3e 2c11 833e
00000200: fb4d 153e 2272 bf3e 89b9 063e b970 493e
00000210: 9065 693e 97dc a43e 6940 c7be f0af 4c3d
00000220: e171 c23e e02e 003e 0505 38be 516f c23e
00000230: a72d 5c3e b1d1 6fbe aa44 a6be 053c be3e
00000240: 763d 6d3e 4cfd b13e f509 63be 4ddd 31be
00000250: ee89 a13e d029 083e 460a bfbe 6b38 953e
00000260: 4c26 b43e 3716 b3be 6b81 90be 3fb1 903e
00000270: fc4b 113e f474 c0be 4272 483e ce02 b1be
00000280: 3149 c73e 4bf8 463e 371c b13e 889e 3f3e
00000290: bdd6 c1be ce10 0e3e dceb 1a3e c171 c33e
000002a0: 5297 c13e ae8b bebe 8d0a 963e 6b0a 4dbe
000002b0: 197b c7bd c0f5 23be 9200 9e3e 7304 a7be
000002c0: 836f fc3d 8281 123e c700 b13e 8e05 ab3e
000002d0: e78a c0be a710 babe e4f7 563e 48a3 733e
000002e0: d0b2 66be bf4d c13e f12b 343e bca3 2d3e
000002f0: bbfb 85be 9928 3e3e 4842 38be 66e1 afbe
00000300: 33d4 38be 1e29 afbe 9499 c1be fa46 a7be
00000310: efb9 b4be 5f01 833e 809f a83e 4c83 093e
0.13273165 -0.27154806 -0.38580942 -0.2930887 -0.36200806 0.33770224 -0.25869954 -0.24850754
0.33760107 0.39182553 -0.23479858 0.19037832 0.33034444 -0.0013247374 0.16171515 0.3561161
-0.32688448 0.3315638 -0.3164227 0.3731448 -0.15652435 -0.36668286 0.3293947 -0.055026904
-0.32628223 -0.20677933 -0.22104585 0.09574352 0.38005486 0.15899196 -0.2572435 -0.3763745
0.3721438 -0.20404024 -0.2277377 0.14340842 -0.2586144 -0.19093932 0.20078161 0.3161617
-0.3026931 0.11409945 -0.37795904 0.3871901 0.2838546 0.17717682 -0.3803155 -0.32636446
-0.3444378 -0.36809045 -0.23707925 -0.32831782 -0.30253154 -0.36213177 0.12251288 0.03261846
-0.25271672 0.15947811 -0.36694703 0.33438298 0.11284961 -0.23060489 -0.20690621 0.17148606
0.36666876 0.39004287 0.02475538 0.20428374 0.16146609 -0.2969924 0.18430635 -0.28191292
0.3618443 -0.3246999 0.31946987 0.18627211 0.123966835 0.38445893 -0.3824741 -0.32341635
0.30619815 0.20967671 -0.19117029 0.37263158 -0.2265739 0.2239165 -0.2579437 0.3359695
0.1522996 0.38104472 -0.2677744 -0.18269686 0.1404122 0.38380527 -0.20987985 0.30997995
-0.3585609 -0.28038117 0.26247397 0.21548352 -0.37739998 0.24775895 -0.3283861 0.12520538
-0.35941103 0.34657195 0.14068435 -0.23609114 0.17941171 0.19166294 -0.32063326 0.3587808
-0.3582511 -0.37413985 -0.37876981 0.19070412 0.21630497 0.31730565 -0.35918552 -0.3805974
-0.19537771 -0.39093375 0.29298553 -0.30405882 0.1699557 0.25652283 0.30953947 0.2559904
0.14580528 0.37391764 0.13156714 0.19671907 0.2279265 0.32199547 -0.3891633 0.049972475
0.37977508 0.12517881 -0.17970665 0.37975553 0.2150179 -0.23419835 -0.32474262 0.37155166
0.23167977 0.34763563 -0.22171767 -0.17369576 0.31550545 0.132972 -0.37312526 0.29144606
0.35185468 -0.34977886 -0.28223738 0.28260228 0.14189142 -0.37589228 0.19574836 -0.34572452
0.38923028 0.19430654 0.3459184 0.18712819 -0.37859145 0.13873598 0.15129036 0.38172725
0.3781076 -0.37215942 0.29304925 -0.20023505 -0.09740276 -0.16011715 0.3085981 -0.32620582
0.12325957 0.14307216 0.34570906 0.33402675 -0.37605974 -0.3634083 0.20993 0.23792756
-0.22529149 0.37754628 0.17594887 0.16956991 -0.26168618 0.18570174 -0.17994034 -0.34351653
-0.18049698 -0.34211057 -0.37812483 -0.32671338 -0.35298106 0.25586984 0.3293419 0.13428992

bn1.running_mean f4 [200]
00000000: a08e 2742 29d3 f741 0000 0000 0000 0000
00000010: 0000 0000 0000 0000 f6d6 0442 2e69 1042
00000020: 0000 0000 0000 0000 8b22 4a42 5412 b542
00000030: a2d8 9741 e47f 1e43 3609 6042 0000 0000
00000040: 0000 0000 0000 0000 0000 0000 0000 0000
00000050: 5932 c241 0000 0000 0000 0000 af73 b93c
00000060: 0000 0000 2044 af42 6485 2942 5a46 d942
00000070: 0000 0000 edb8 8542 7d15 0043 0000 0000
00000080: 0000 0000 c10e f541 3540 993e 67f7 2643
00000090: 86e8 6d42 1632 bb41 e7f0 1e43 0000 0000
000000a0: 0000 0000 f218 5d42 0000 0000 0000 0000
000000b0: 5c03 be42 9650 d042 0000 0000 0000 0000
000000c0: 76fb 923a 0000 0000 eb87 1d42 25c9 9b42
000000d0: ab7d 823f 0000 0000 b413 6942 ee51 a842
000000e0: 0000 0000 9d0f 5242 0000 0000 0000 0000
000000f0: 34e5 bc42 e50d 0242 1bee a042 f21d 9742
00000100: 0000 0000 0000 0000 750b 1043 2d50 c942
00000110: 1fcd 0f43 0000 0000 2c6e 8042 0000 0000
00000120: 0000 0000 1ad6 3542 0000 0000 6cbd 1f42
00000130: 9c3f 9b42 0000 0000 0000 0000 b2a1 ac3f
00000140: 2b61 d13d 5c44 a141 7917 9541 0000 0000
00000150: a951 3e41 bc18 8441 fdef da42 0000 0000
00000160: 6bf4 0443 0000 0000 0000 0000 22e5 ac41
00000170: 993a ba42 0000 0000 1de4 cf42 0000 0000
00000180: fe31 7d3a dda5 0b42 56f9 fe41 047c a442
00000190: 0000 0000 eaf7 6f42 0000 0000 f018 2743
000001a0: 0000 0000 0000 0000 ed27 bc42 79ec b740
000001b0: 88fc 0a3b a64e b342 0000 0000 0000 0000
000001c0: 0000 0000 0000 0000 0000 0000 1c4e bc42
000001d0: 488b 6742 0000 0000 0000 0000 0000 0000
000001e0: 7128 dc41 0000 0000 d3a5 9141 808f bb41
000001f0: be7c ea42 5008 7642 0000 0000 48eb d142
00000200: 9a6d 0243 0000 0000 653d 1a43 0000 0000
00000210: 0a3c 9042 34e9 4942 0000 0000 1a33 7542
00000220: 0000 0000 ac90 e542 ea52 d941 0000 0000
00000230: d904 0042 aa50 0442 e0d1 7e42 0000 0000
00000240: c387 1343 0000 0000 b37b 6642 83bf bd41
00000250: 0000 0000 bc30 9542 0000 0000 68e6 7642
00000260: 0000 0000 0000 0000 a751 b542 aa4d d642
00000270: 2635 aa42 0000 0000 4d4b 0943 0000 0000
00000280: 0000 0000 1d52 d042 0000 0000 90e4 d342
00000290: 0000 0000 169b 2c43 a624 8842 0000 0000
000002a0: 0000 0000 0000 0000 6804 f741 522c 9741
000002b0: 8bf1 e83e 35d1 203e 0000 0000 c1fb 3d3f
000002c0: c9bf bb42 1bae 2342 0000 0000 0000 0000
000002d0: 0000 0000 0000 0000 fc7b 2a42 0cb8 cf41
000002e0: d4b6 5c42 0000 0000 bdcd ad42 9c89 e641
000002f0: 8174 4c3b 8cee 9e42 0000 0000 0000 0000
00000300: 6f20 a242 0000 0000 0000 0000 0000 0000
00000310: 0000 0000 3b69 0d42 9830 0842 26eb d141
41.889282 30.978106 0.0 0.0 0.0 0.0 33.209923 36.102715
0.0 0.0 50.533733 90.5358 18.980778 158.49957 56.008995 0.0
0.0 0.0 0.0 0.0 24.274584 0.0 0.0 0.02263817
0.0 87.63306 42.380264 108.637405 0.0 66.86118 128.08394 0.0
0.0 30.632204 0.299318 166.96642 59.477074 23.399456 158.94102 0.0
0.0 55.27436 0.0 0.0 95.00656 104.157394 0.0 0.0
0.0011213857 0.0 39.382732 77.89286 1.0194601 0.0 58.26924 84.16002
0.0 52.515247 0.0 0.0 94.44766 32.51357 80.46505 75.55849
0.0 0.0 144.04475 100.65659 143.80125 0.0 64.21518 0.0
0.0 45.459084 0.0 39.934982 77.62424 0.0 0.0 1.3486845
0.102236114 20.158379 18.636461 0.0 11.894937 16.512077 109.46873 0.0
132.95476 0.0 0.0 21.611881 93.11445 0.0 103.94553 0.0
0.00096586335 34.911976 31.871746 82.24222 0.0 59.992104 0.0 167.09741
0.0 0.0 94.07798 5.7476163 0.002120765 89.65361 0.0 0.0
0.0 0.0 0.0 94.15256 57.886017 0.0 0.0 0.0
27.519747 0.0 18.205969 23.445068 117.24364 61.508118 0.0 104.95953
130.42813 0.0 154.23982 0.0 72.11726 50.477737 0.0 61.299904
0.0 114.78256 27.165485 0.0 32.004734 33.078773 63.704956 0.0
147.53032 0.0 57.6208 23.718512 0.0 74.595184 0.0 61.725006
0.0 0.0 90.65948 107.15169 85.103806 0.0 137.29414 0.0
0.0 104.16038 0.0 105.94641 0.0 172.6058 68.07158 0.0
0.0 0.0 30.877151 18.89664 0.45496783 0.15704806 0.0 0.7421227
93.87458 40.920025 0.0 0.0 0.0 0.0 42.62108 25.964867
55.178543 0.0 86.90183 28.817192 0.0031197371 79.46591 0.0 0.0
81.06335 0.0 0.0 0.0 0.0 35.352764 34.047455 26.239819

bn1.running_var f4 [200]
00000000: c944 cc42 6e76 2843 3266 dc3e 3266 dc3e
00000010: 3266 dc3e 3266 dc3e 7db1 1543 ac6a 0843
00000020: 3266 dc3e 3266 dc3e 079b 1e43 194d 5343
00000030: fa01 ba42 7df2 5542 b9a7 1543 3266 dc3e
00000040: 3266 dc3e 3266 dc3e 3266 dc3e 3266 dc3e
00000050: 7e2f 4a42 3266 dc3e 3266 dc3e 03a4 123f
00000060: 3266 dc3e 0e7c 6242 fe0d c942 3bb4 2843
00000070: 3266 dc3e 4d9c ca42 80e5 b942 3266 dc3e
00000080: 3266 dc3e 86ec 9542 704f ab3f d5fd 8c42
00000090: 3cf1 df42 7fc4 c542 ca6a 4142 3266 dc3e
000000a0: 3266 dc3e e4d6 0a43 3266 dc3e 3266 dc3e
000000b0: 28b5 9842 9e86 0443 3266 dc3e 3266 dc3e
000000c0: c0a7 dd3e 3266 dc3e 3cca 0b43 092e 7943
000000d0: 0e5d 7740 3266 dc3e 54d6 ea42 c493 0043
000000e0: 3266 dc3e fac6 8f42 3266 dc3e 3266 dc3e
000000f0: 3b73 9242 1e9e d742 07eb 2d43 b9bb 6143
00000100: 3266 dc3e 3266 dc3e 5a23 3743 6577 5f42
00000110: b729 9c42 3266 dc3e 00a9 7343 3266 dc3e
00000120: 3266 dc3e 5e86 3543 3266 dc3e 6fb6 e642
00000130: 6066 5242 3266 dc3e 3266 dc3e bc1d 9141
00000140: 787d bb3f 8883 7443 b52b d142 3266 dc3e
00000150: 0eb2 4b42 5290 e742 4893 1643 3266 dc3e
00000160: 9ae5 1943 3266 dc3e 3266 dc3e 457b 0c43
00000170: f110 f942 3266 dc3e d5a7 8542 3266 dc3e
00000180: fd21 dd3e 0649 0843 453c b542 07f0 7a42
00000190: 3266 dc3e 7bcc 9442 3266 dc3e fa4f a242
000001a0: 3266 dc3e 3266 dc3e 8610 8442 6933 d941
000001b0: d68f e23e 1302 0a43 3266 dc3e 3266 dc3e
000001c0: 3266 dc3e 3266 dc3e 3266 dc3e 1bd6 0743
000001d0: 7925 9c42 3266 dc3e 3266 dc3e 3266 dc3e
000001e0: 6e2b 9742 3266 dc3e 4d0b 4c43 08d4 2043
000001f0: 3756 f042 9da4 6b43 3266 dc3e 6675 0a43
00000200: 74c9 9d42 3266 dc3e 516a a543 3266 dc3e
00000210: b287 0a42 beb5 9042 3266 dc3e deee 5443
00000220: 3266 dc3e ce3c 9f42 7718 f341 3266 dc3e
00000230: 9a81 7642 2f67 6342 be18 b042 3266 dc3e
00000240: d85c 9c42 3266 dc3e 47b7 9f42 8ba6 8c42
00000250: 3266 dc3e 483d 7342 3266 dc3e db49 6442
00000260: 3266 dc3e 3266 dc3e 6d40 c442 1305 2243
00000270: 6e39 a942 3266 dc3e aeba 1f43 3266 dc3e
00000280: 3266 dc3e 0457 2943 3266 dc3e cb1f a842
00000290: 3266 dc3e 645f 0543 f972 3f43 3266 dc3e
000002a0: 3266 dc3e 3266 dc3e a482 af42 6e88 e642
000002b0: 26eb c23f 0a44 2840 3266 dc3e 98ad 5e41
000002c0: da42 bb42 4230 bb42 3266 dc3e 3266 dc3e
000002d0: 3266 dc3e 3266 dc3e 0ccf 6d42 c770 a442
000002e0: 2a75 c542 3266 dc3e 1b1f 8b42 fc01 0243
000002f0: f81e e63e b8ee 6d42 3266 dc3e 3266 dc3e
00000300: c334 9742 3266 dc3e 3266 dc3e 3266 dc3e
00000310: 3266 dc3e 5835 1b43 9de2 ab42 0f08 ce42
102.134346 168.46262 0.4304672 0.4304672 0.4304672 0.4304672 149.69331 136.41669
0.4304672 0.4304672 158.60558 211.30116 93.00386 53.486805 149.65517 0.4304672
0.4304672 0.4304672 0.4304672 0.4304672 50.54638 0.4304672 0.4304672 0.5728151
0.4304672 56.621147 100.52733 168.70403 0.4304672 101.305275 92.94824 0.4304672
0.4304672 74.96196 1.3383617 70.495766 111.97116 98.88378 48.354286 0.4304672
0.4304672 138.83942 0.4304672 0.4304672 76.35382 132.52585 0.4304672 0.4304672
0.43292046 0.4304672 139.78998 249.17982 3.8650546 0.4304672 117.41861 128.57721
0.4304672 71.888626 0.4304672 0.4304672 73.22506 107.80882 173.91808 225.73329
0.4304672 0.4304672 183.13809 55.866596 78.081474 0.4304672 243.66016 0.4304672
0.4304672 181.52487 0.4304672 115.356316 52.599976 0.4304672 0.4304672 18.139519
1.4647665 244.5138 104.585365 0.4304672 50.92388 115.781876 150.57532 0.4304672
153.89688 0.4304672 0.4304672 140.48152 124.53309 0.4304672 66.8278 0.4304672
0.43189994 136.28525 90.617714 62.7344 0.4304672 74.399376 0.4304672 81.156204
0.4304672 0.4304672 66.03227 27.150103 0.44250363 138.0081 0.4304672 0.4304672
0.4304672 0.4304672 0.4304672 135.83635 78.07319 0.4304672 0.4304672 0.4304672
75.58482 0.4304672 204.04414 160.82825 120.16839 235.64302 0.4304672 138.45859
78.89346 0.4304672 330.8306 0.4304672 34.632515 72.354965 0.4304672 212.93307
0.4304672 79.61876 30.386946 0.4304672 61.626564 56.850765 88.048325 0.4304672
78.181335 0.4304672 79.85796 70.32528 0.4304672 60.809845 0.4304672 57.072124
0.4304672 0.4304672 98.12583 162.01982 84.61217 0.4304672 159.72922 0.4304672
0.4304672 169.3399 0.4304672 84.062096 0.4304672 133.37262 191.44911 0.4304672
0.4304672 0.4304672 87.75516 115.266464 1.5228012 2.6291528 0.4304672 13.917381
93.63057 93.59425 0.4304672 0.4304672 0.4304672 0.4304672 59.452194 82.22027
98.728836 0.4304672 69.56075 130.00775 0.44945502 59.483124 0.4304672 0.4304672
75.60305 0.4304672 0.4304672 0.4304672 0.4304672 155.20837 85.942604 103.01574

bn2.weight f4 [20]
00000000: 60f6 cb3f c1ab 3340 5458 3040 5e7f 3940
00000010: 3fd2 3640 d261 d23f 3967 3240 3f70 3340
00000020: f990 d03f e1f7 3240 8342 3840 c3c9 d73f
00000030: 7cf0 de3f f26d ce3f 1482 3740 f1bf 3340
00000040: 047f d63f 9e10 d63f 79cf 3140 9351 3140
1.5934563 2.807358 2.7553911 2.8983989 2.8565824 1.6436102 2.7875502 2.803726
1.6294242 2.7963793 2.8790596 1.6858448 1.741714 1.6127303 2.8673143 2.8085902
1.6757512 1.6723821 2.7782881 2.770604

bn2.bias f4 [20]
00000000: 77a2 32bf 7d4d 4c3f 1e8d 483f 0bf6 503f
00000010: 7440 503f 01ad 33bf aa29 4c3f c95d 4c3f
00000020: 65ba 33bf b2f9 4b3f 4589 513f b9ab 33bf
00000030: a03e 37bf 92d6 32bf cc7e 503f 4fc6 4c3f
00000040: 0703 33bf 04b7 35bf 701b 4a3f 08f6 493f
-0.6977915 0.7980574 0.7834033 0.8162543 0.8134835 -0.7018586 0.79751074 0.79830605
-0.7020629 0.7967788 0.8185008 -0.701839 -0.71579933 -0.6985866 0.81443477 0.79990095
-0.69926494 -0.70982385 0.78948116 0.7889104

bn2.running_mean f4 [20]
00000000: 57cc c43e 7e08 9b3e 4f96 d73e 3ec3 803e
00000010: 20f4 903e 912f ec3e 077f a33e 2ae3 cd3e
00000020: 2319 e23e 1cf2 bd3e 66f5 c33e ec75 f63e
00000030: 43d9 db3e b177 f23e b8e1 733e a591 a63e
00000040: 051d ca3e c8e8 b33e 356f db3e 78a4 a13e
0.3843715 0.30279917 0.42106864 0.25148958 0.28311253 0.4613004 0.31932852 0.40212375
0.44159803 0.37098777 0.38273162 0.48136842 0.42939195 0.47356942 0.23816574 0.32532993
0.39475265 0.35138535 0.42858282 0.31570792

bn2.running_var f4 [20]
00000000: 56bf 153f 1bd3 983f 9fd9 e43f 290c 7f3f
00000010: f8b8 883f 39a6 263f e75f a13f bbb6 d73f
00000020: cb1b 2f3f ec22 d13f 5716 c93f 30cd 2d3f
00000030: 5a90 203f 6b5b 3c3f ae0e 6d3f 12b4 b43f
00000040: e0c3 1a3f 17fe 173f 5a63 ee3f bc56 a83f
0.5849508 1.1939424 1.7878913 0.9962793 1.0681448 0.65097386 1.2607392 1.685264
0.68401784 1.6338782 1.5709943 0.67891216 0.62720263 0.7357699 0.92600524 1.4117453
0.6045513 0.59372085 1.862407 1.3151469
