Results/NN_MLP_MLs/MLP_Ensemble/Model_Results/AGTwRD/test9/best_model_0.pt (torch, 70834 bytes, 14 tensors)

country_embedding.weight f4 [8, 2]
00000000: fd26 73c1 3517 4741 b580 45c1 01a3 1c41
00000010: 763f 6d42 c4a8 61c2 fe82 b7c1 6177 9741
00000020: 279b ddc1 17d3 c741 54ff c8c1 7bc7 c241
00000030: 21c8 ffc0 7d3b 2541 bcca b1c1 2085 b441
-15.197019 12.443166 -12.343923 9.789796 59.311974 -56.41481 -22.938961 18.93329
-27.700758 24.978071 -25.124672 24.347403 -7.99318 10.3270235 -22.223991 22.565002

fc1.weight f4 [200, 57]
00000000: a729 6f3f a725 f6c0 70ce c7be 04ff 38c0
00000010: 4832 4840 7e6b 91c0 d00c cfbf 523a 0bc2
00000020: 94cf 4540 1b10 05c1 4828 ac41 4811 b5c1
00000030: a866 aebd 3eb0 5940 8959 d1c0 f800 94c1
00000040: d0eb d341 2e60 f73f 2384 bdbd 5f57 06c1
00000050: 061f fb3f 99f1 383f e1b1 1941 3def f43e
00000060: 7977 c8bf 2d41 06c2 b566 5c40 2cce d1c0
00000070: 6818 ad41 42b5 74c1 acbe b941 8add fa40
00000080: 2aec 21c1 a5ff bc3f 64ca 6241 c118 edbd
00000090: e351 573d d66c a0c1 5dfa 98bf 501b 2f41
000000a0: 93cc 7c41 efca 993d 2b23 14c0 554d 87c1
000000b0: c775 9340 cde2 adc0 75ba 6d41 0d93 35c1
000000c0: a13a 0f42 3b75 0641 2a36 6cc1 ef45 1541
000000d0: 1317 ab41 aa62 523e e80a d1bd 91c2 1d42
000000e0: 8beb 21c2 411b 993f c30a f4c0 624f b5bb
000000f0: aa60 2bc0 4618 4540 a993 91c0 d329 c6bf
00000100: a575 0bc2 9029 5840 7ff0 01c1 3c2c ac41
00000110: c45d b3c1 d8a4 823e c76e 6740 eda0 ccc0
00000120: d3de 93c1 4bd4 d741 f2d3 1240 362e 893d
00000130: 001d 01c1 6c47 0e40 db85 253f b3d3 1941
00000140: 70ef 0d3f 7678 b0bf 8ddf 05c2 0941 6340
00000150: fc8b c5c0 cc0b b141 1554 73c1 7718 bb41
00000160: 0e69 fc40 f6f3 1fc1 6761 a53f 904e 6941
00000170: ba9f a2bd 7aea a23c 5d9b a0c1 c9ee 89bf
00000180: 38b3 3241 4b93 8041 1277 b63e 1b0a 0ac0
00000190: 0c31 85c1 5c9d 9840 6b93 aac0 2161 7441
000001a0: acec 33c1 9a2f 1042 51e8 0941 3052 6ac1
000001b0: d988 1141 1de8 ae41 9d24 213e ed22 84bd
000001c0: f193 1e42 5f31 23c2 6142 1d3d 3156 67bd
000001d0: 71c3 2abe badb 15bd 9d64 543d c9e8 c1bd
000001e0: 2b67 a5bd c668 b7bd a0bb 63bd c13d ca3b
000001f0: 71c9 263d b87f 1f3d 2475 423d acfd bbbd
00000200: cda5 50be 4dec 09be 3e9f 863c c0dd 88bd
00000210: b5d4 86bd 0bb7 3ebe 8075 50be e823 10be
00000220: 4efb 8cbd 0851 0dbc 1424 4ebc 39f3 51be
00000230: 0ab8 88b9 18d4 38be 65f9 e6bd f682 c7bd
00000240: 7949 d1bd d800 dcbd dd42 50be 5686 40be
00000250: f360 cfbd 2567 94bd 0175 76bd ae67 0ebd
00000260: f1b9 4cbe 4650 12bd 575d 963d 9d5b 0abe
00000270: 428d 103d 302e f0bc 7674 4fbe 3873 ba3b
00000280: bbc3 ccbd f61a d3bd 0761 033d 82d0 41be
00000290: fffe 8fbd 7aea cebd 4a4a 583c 4eb7 07bd
000002a0: 0a58 823d af9a 063e 9026 473d 7e0a b4bd
000002b0: 291a 49bd dffc 063e 32c5 383d aa73 fa3c
000002c0: d0b3 08bd 4e17 873d 2076 08bd c6ab 52bc
000002d0: 2a4c 8cbc 24b2 d73d e9a0 9abc 2226 6a3d
000002e0: 7e67 863d 8ced 143e 6b1f 24bd 11ef fcbc
000002f0: b040 0cbe eddd bd3d afdc 4b3c 85e6 2f3e
00000300: 7336 47bc 7d57 9d3d 62f2 713d d3bc 0a3d
00000310: f506 9d3d 4234 f43c 602c 723d a59a 9d3d
00000320: 1462 32bd 917b 19bc ad04 2b3e 3f4d 42bd
00000330: 4f07 4f3d 3aab 433e 3c04 48bc 24c5 753b
00000340: d32c 60bd 7baf 003e bd1a 1ebe 53f6 b73c
00000350: 5fd5 7f3c d1a4 253d 74eb 7b3d e05d 2d3e
00000360: 62db 9c3d 26fb 363e d476 103e 5d04 c2bc
00000370: e1a7 f43d 9e86 09bd f662 803b 12c7 ca3d
00000380: a5b1 85bc 9182 cb3d 2051 d2bd ec1d 75bd
00000390: 90f1 263b a158 7ebd c4a4 043e e3f7 05bd
000003a0: fb93 303d 63c5 223d 0d9c 88bb 6447 2ebd
000003b0: 2580 373e ee0d 84bd 50b2 8ebc 8959 353c
000003c0: d6de 91bd c93f f1bb 5602 083c e45c e3bc
000003d0: 38ba 6fbb 8c1c 563c 86a7 8f3d 6e43 2b3e
000003e0: 1a00 ad3d 4f7e 063d db47 20bd c73a cf3d
000003f0: c117 313e e1f3 c4bc 4011 da3a 1bd3 98bd
0.9342293 -7.692096 -0.39024687 -2.890565 3.128069 -4.5443716 -1.6175785 -34.806953
3.0907946 -8.316432 21.519669 -22.633438 -0.08515674 3.401382 -6.5421796 -18.500473
26.490143 1.9326227 -0.09253719 -8.396331 1.9618843 0.7224365 9.605927 0.47838774
-1.566146 -33.56365 3.4437687 -6.5564175 21.636917 -15.294252 23.218102 7.8395433
-10.120157 1.4765517 14.174412 -0.11576987 0.052568328 -20.053143 -1.1951405 10.944168
15.799945 0.0750941 -2.3146465 -16.91276 4.608127 -5.4339356 14.858022 -11.348401
35.807255 8.403621 -14.763224 9.329574 21.386267 0.2054545 -0.10207158 39.440006
-40.480022 1.1961442 -7.6263137 -0.005533145 -2.677775 3.0796065 -4.549275 -1.5481514
-34.864887 3.3775368 -8.121215 21.521599 -22.420784 0.2551639 3.6161363 -6.3946443
-18.4838 26.978659 2.294186 0.06698267 -8.06958 2.2231092 0.6465737 9.614184
0.5544348 -1.3786762 -33.46831 3.5508444 -6.173338 22.13076 -15.208028 23.386946
7.887824 -9.997061 1.292035 14.58168 -0.07940622 0.019887198 -20.075861 -1.0775996
11.168755 16.07192 0.35637718 -2.1568668 -16.648949 4.769209 -5.3304954 15.273713
-11.245281 36.046486 8.619218 -14.645065 9.09591 21.863337 0.15736623 -0.06451974
39.644474 -40.798214 0.038393382 -0.056478683 -0.16676117 -0.0365865 0.051853765 -0.09468228
-0.08076318 -0.08955531 -0.055598855 0.0061719124 0.040719453 0.03894016 0.047474995 -0.091792434
-0.20375748 -0.13469048 0.016433354 -0.066829205 -0.065835394 -0.18624513 -0.20357323 -0.14076197
-0.0688387 -0.008625276 -0.012581844 -0.20502938 -0.0002607706 -0.18049657 -0.11278037 -0.09741776
-0.10219092 -0.107423484 -0.20338006 -0.18801245 -0.101259135 -0.07246236 -0.060170177 -0.034766845
-0.19992806 -0.035721086 0.07342022 -0.1351151 0.035290964 -0.029318899 -0.2025927 0.0056900047
-0.0999827 -0.10307877 0.032074954 -0.18927196 -0.070310585 -0.101033166 0.013201306 -0.033133797
0.06364448 0.13144945 0.04862076 -0.08791064 -0.049097214 0.131824 0.045109935 0.030572731
-0.033374608 0.06596242 -0.033315778 -0.012858337 -0.017126162 0.105320245 -0.018875556 0.057165273
0.06562708 0.14543742 -0.040069025 -0.030875714 -0.13696551 0.092708446 0.012442752 0.1717778
-0.012158978 0.07682703 0.059069045 0.033871483 0.076673426 0.029810075 0.05912435 0.07695512
-0.043550566 -0.009367839 0.16701002 -0.04743695 0.05054408 0.19108286 -0.012208041 0.0037501538
-0.054730248 0.1256694 -0.15439887 0.022456324 0.0156148365 0.040440384 0.061503842 0.16930342
0.076590315 0.17869243 0.1410783 -0.023683721 0.11946083 -0.033575647 0.003918047 0.09901251
-0.01632006 0.09937013 -0.102693796 -0.05984299 0.0025473572 -0.06209624 0.12953478 -0.032707106
0.043109875 0.039739024 -0.0041689933 -0.042548552 0.17919977 -0.064479694 -0.01741901 0.01106871
-0.07122581 -0.00736234 0.008301338 -0.027754255 -0.00365795 0.01306833 0.070143744 0.16724941
0.08447285 0.0328353 -0.039131027 0.10118633 0.17294218 -0.024042072 0.0016637221 -0.0746214

fc1.bias f4 [200]
00000000: ad1f 223e 8683 6c3e 307d a53d 054f 37be
00000010: 15bd a8bd bd03 103e 9e96 54bd 1d92 ab3e
00000020: e46a 83bd 98c7 b1bd 0c2f c13e 4729 013e
00000030: ec9d 8e3e 52a8 a73e 25b3 65bc d1d9 30be
00000040: 3b9d 1abd 8fda 5bbc 6968 203d f0d8 dabd
00000050: 3f9d bc3d 15c3 a63e 6b50 d03e 7d63 7a3e
00000060: 5a7d b2bc db42 443d 18fe bc3d 6c30 9a3e
00000070: 891b e73e 3a04 9e3d a97c c83e b424 b03e
00000080: 904a 3c3d c184 813d 3417 ce3e a85e 973e
00000090: fb12 e9bc 1faf b13c dc08 01be 6222 b13e
000000a0: 3bc0 bbbd daa4 863d 471c 95bd 0390 103d
000000b0: 9d09 d4bd f734 f53d c735 13bd 2eae 413d
000000c0: 65aa c83e 4cb2 9cbd 8f7d de3e 0383 ad3e
000000d0: 5032 3b3e 1469 d03e f67c eabc e49e 393d
000000e0: fa75 c93c d58d d43d 353b 65bc 8cb5 b2bc
000000f0: f6e0 56bd 1d0d a43d c3f1 edbd 1de5 d33d
00000100: 04c2 4ebd 3180 e53e 60a1 873e 889a 673e
00000110: 5a46 a33e 73b2 a0bd bc9e 123e 87c4 f4bd
00000120: e337 003e 2fa6 ff3d 24ee 863d 4eb4 efbd
00000130: d5e3 a63d 1fd2 92bc 5b78 cc3e b2c9 623e
00000140: 1af8 0a3e 9225 9f3e 057f cb3e 887a 2b3e
00000150: efa4 ae3e 6b5f f33c 0623 94bd d5c9 703e
00000160: 910a cabd b77e 6fbd e631 b93e 718e 403d
00000170: a0be af3e 8cb5 79bc 7716 11be e9b1 8bbd
00000180: 9653 f1bb 2d47 e43e 9291 80bb 9287 1fbd
00000190: 31de c73e a5d5 873e 40a2 f33e 2c68 d5bd
000001a0: fc95 36bd 1340 893d 0c12 903d e8a3 6bbd
000001b0: 2540 1e3c 9bfd 893e a632 8cbc d320 823e
000001c0: 7d3a eb3d 57b8 ffbd d82f d73e a4bb d03e
000001d0: c820 bebd 81ca 05bd c0e7 cf3d 284a 263d
000001e0: 081d f63d 7a86 a0bc b8c4 a03d 6568 ef3d
000001f0: 3109 b3bb 331c 2ebe 1023 a83e b0fe c83d
00000200: 12c1 fc3d d8a3 823e 3a51 363e b943 c73d
00000210: 3725 9b3e 47d6 e3bc 372d cb3e b3d2 933d
00000220: b658 e8bc 7886 373d 725b c83e 1318 243c
00000230: c471 8dbd 6059 403d 415c df3e 49e4 923d
00000240: 937a 503e 02bc 833e 3d41 d03e cdf9 403e
00000250: f313 bd3e 0765 c03e c29b b03e 63e8 513e
00000260: 0a82 d93d c697 8ebd 6806 683d dc08 903a
00000270: 07c8 3d3d 7836 ae3e 25c6 8d3e 9822 75bd
00000280: 6d15 c1b8 6ef8 d9bd 0d98 9f3e b0ba 4a3c
00000290: e153 8a3e 2595 ab3e 1791 023d caa8 4abd
000002a0: 2c28 0fbe 515e 6e3e 35d9 03bd b27e d23e
000002b0: 020c a83e 5b7c 37bb 4d93 d7bd 4a3b d13e
000002c0: dce5 d13d d884 dbbd e376 cc3e a08a 293d
000002d0: 3c63 833e 4d93 7f3e ebd6 d73d 0955 e7bd
000002e0: b736 013e ecf3 03be b066 91bd 93e4 243e
000002f0: 7abc f93d 5bf1 f6bd 6c73 ad3e c580 05be
00000300: d0e0 0a3e f4d9 733d e57e 363e c2b0 23bc
00000310: e496 4abd 1ec2 043e d12f f4bd f694 ba3e
0.15832396 0.23097047 0.08080518 -0.17901237 -0.082391895 0.14063926 -0.051901452 0.33509913
-0.06416872 -0.086806476 0.37731206 0.12613402 0.2785486 0.32745606 -0.014019762 -0.1727059
-0.037747603 -0.013418808 0.039162073 -0.10685909 0.0920968 0.3257071 0.40686354 0.24452014
-0.021788288 0.04791532 0.09228152 0.30115068 0.45138195 0.0771565 0.39157608 0.34403002
0.045969546 0.06324149 0.40252078 0.29564404 -0.028451433 0.02168995 -0.12601036 0.34596545
-0.091675244 0.06574412 -0.07280784 0.03529359 -0.10353396 0.11972993 -0.035939958 0.04728525
0.391925 -0.07651195 0.4345517 0.33889017 0.18280911 0.40705168 -0.02862404 0.045317546
0.024592388 0.10378615 -0.013991167 -0.021815084 -0.052460633 0.08010314 -0.11618378 0.10346434
-0.050477996 0.44824365 0.26490307 0.22617543 0.3188961 -0.078465365 0.14318365 -0.11951547
0.12521319 0.12482869 0.065883905 -0.11704312 0.08148924 -0.01792246 0.39935574 0.22147253
0.13571206 0.3108335 0.39745346 0.1674596 0.3411021 0.029708585 -0.07233243 0.23514493
-0.09865297 -0.058470454 0.36170882 0.047010843 0.34325123 -0.015241038 -0.14168726 -0.06821043
-0.0073647005 0.44585553 -0.0039236033 -0.03894765 0.39036706 0.26530185 0.47584724 -0.1042026
-0.04457663 0.06701674 0.07034692 -0.05752936 0.009658848 0.26951298 -0.017113995 0.25415668
0.11485765 -0.12486332 0.4202869 0.40768158 -0.09283596 -0.032663826 0.10151625 0.040598065
0.12017256 -0.019595373 0.07850021 0.116898336 -0.005463742 -0.17002945 0.3283925 0.09814203
0.12341513 0.25515628 0.17804423 0.09729714 0.3030183 -0.027812136 0.39682934 0.07217922
-0.028362613 0.044805974 0.39132267 0.010015505 -0.06906465 0.046960235 0.43625072 0.07172448
0.20359258 0.25729376 0.40674773 0.18845291 0.36929283 0.37577078 0.34493834 0.20498805
0.10620506 -0.06962542 0.056646734 0.0010988968 0.04633334 0.3402593 0.27690235 -0.059847444
-9.206948e-05 -0.10643087 0.31170693 0.012373611 0.2701712 0.33512226 0.03187665 -0.049477376
-0.13980168 0.23278166 -0.032189567 0.41112286 0.3282166 -0.0027997706 -0.10526142 0.40865546
0.1024892 -0.10718697 0.39934453 0.04139197 0.25661647 0.24958535 0.10539039 -0.11295516
0.12618528 -0.12886018 -0.07099664 0.16102819 0.12194152 -0.12057754 0.33877122 -0.13037403
0.13562322 0.05953403 0.17821844 -0.009990873 -0.049460307 0.12964675 -0.11923183 0.36441773

fc2.weight f4 [20, 200]
00000000: f1f9 af3b e1d1 98bd 82ba 903c f7bd b2bd
00000010: 2559 7dbd f60d cebd c5b1 e8bd 29af 02bd
00000020: 3a1f 32be befd 59be 3c02 e3bd a807 fb3c
00000030: 7359 40bb d30b 6bbd 6964 2fbe 3167 be3d
00000040: 2206 133e b18f dabd 5180 0bbe 4138 36be
00000050: 0cfc 06be 5c31 b0bd 8267 4ebb 6d2e d0bb
00000060: 3605 6cbe f840 203e 1baf 52be 79b8 6c3c
00000070: 0321 eebc 67df 67be 54a8 b9bd dd7e 98bd
00000080: 70f8 dc3d a547 0cbd ef2b 5dbd 9743 ecbd
00000090: 1936 adbc 74f1 243e 6226 283e d48a b8bd
000000a0: 614c 5d3e 5408 293e 0d98 403e 30c8 2ebe
000000b0: c7b4 21be 98de babb c7f9 2ebd 6ffb 46be
000000c0: e80e 5abd 5bd5 f83d 15c9 2dbd 64fb bfbd
000000d0: 0875 1dbc f370 b73c 4dc0 23bc c521 1c3e
000000e0: cb1e 4dbe 8961 6a3e bb44 273e 2152 10be
000000f0: 8354 92bd f9cc 42be 5ff1 12be b4bc 233e
00000100: c130 303e 7f7e 2fbd fcaf bfbd 3f5f a6bd
00000110: 4cc8 01ba da31 5cbd e328 87bd a034 01be
00000120: 90f6 c73c fc78 51be a946 50be 8eac a0bd
00000130: 003c 573e 5467 44be 197b a2bd b3a0 c8bd
00000140: 1ab8 6bbd e54a b4bc 51c2 ffbd b546 48bc
00000150: 24d5 c8bd 6e24 793e 98b5 65be f8a9 cd3c
00000160: 9d06 293e ffca 883c bac9 0ebd 9b76 57be
00000170: f0b2 82bd ca28 ae3a 25a5 073c 2dbe 743e
00000180: d781 96bc 5436 1dbd 33d1 643e e630 163e
00000190: 7581 bdbd 4468 45bc bccc 6ebd bad6 ebba
000001a0: 7d18 14be 02d1 37bd d5b7 50bd 7c93 ebbd
000001b0: 62b6 503e 58b9 f0bd 0bd7 c8bd 9c07 58bd
000001c0: 111e 9cbd 81f7 f9bd 6d42 c73b 7920 8d3b
000001d0: c004 703e 7e7e a13d 99da f5bd 7d58 31be
000001e0: 663a 743e b54d 4e3e aa7a de3b c6c0 70bd
000001f0: 5040 16be 85af bebd 67f6 26be 6ccd 5bbe
00000200: 07dd f5bc 5f84 02bd 0005 2ebd fade d7bd
00000210: e36f cbbd 6a16 7bbe 3c12 1ebd 9546 65be
00000220: b49b 98bd 1437 5fbe 8481 9b3b 2ac9 0b3e
00000230: c52a 6fbe da12 683e 497b cabd 7cc9 3bbe
00000240: 4ae1 9ebd 20f0 87bc 3b5d 543c 8398 a3bd
00000250: 6547 b9bd bf61 0bbc f97d c5bd 95db 8dbc
00000260: 2e47 0bbe 5aad f9bd 876a 83bc d26d e5bd
00000270: 7f6f 47be b71d c6bb c866 a7bd 9850 85bd
00000280: 902f 493e 462f 5b3e ab0b 913d 702b 633e
00000290: bc03 2dbd dcb5 90bc d54c b33c c4ec 043e
000002a0: 643a 14bd e2cc 473b d142 263e 818c a33c
000002b0: 6cc7 39bd 9938 86bd 6f59 6d3e 8023 1ebe
000002c0: 0de5 633e 898a 0d3d 52c7 00bc 7404 f9bd
000002d0: 6636 46bd a904 efbd dbf7 f7bd 52a7 70bc
000002e0: 7cb8 c2bd fff3 3fbe 0277 0b3e 7c66 35bc
000002f0: fd4c 79be 1f50 573e ec40 0ebe 83cb 56be
00000300: b706 573c 841b 41be 13cd 9b3b 6236 f4bd
00000310: 96d3 1c3e b81a 1abd 7b95 6abe b252 86bd
00000320: 124b 8d3f 1f9b a53f 3084 293d eb80 0a3d
00000330: 8d9d a0bd bbce a33f 6187 843c c42b aa3f
00000340: 1236 0b3e 2168 5b3e 453a ae3f 692a 873f
00000350: 04eb 9c3f ec03 a33f 76e2 5e3e e614 9abd
00000360: 9b58 a8bd 672e ba3d 4316 cdbb 9898 773d
00000370: c67c 2e3e a672 a03f 18ce aa3f fd9a 923f
00000380: ec5b ed3d bcd8 16be 7125 1d3e 04fd b03f
00000390: 8a83 a73f ad3a 5d3d ae24 9a3f afc0 a13f
000003a0: aeb2 b0bb ae23 97be fae7 933f 4c9b a13f
000003b0: 1b68 9abe 0844 06bd 0c2a 02be f853 a73f
000003c0: f5ec 333c 9a75 89be f2e5 68ba 3a69 7e3e
000003d0: 5802 eb3d a236 0abe affa cfbe 4e93 5e3e
000003e0: d70d 943f d407 57bd a4d4 a73f 0ed4 923f
000003f0: 3390 8f3f dbcf a83f ba0d c7bc a8da 54be
0.0053703715 -0.07461906 0.017667059 -0.08727639 -0.061852593 -0.100612566 -0.11362032 -0.031905327
-0.17394724 -0.21288201 -0.110844105 0.0306433 -0.002935019 -0.057384323 -0.17128147 0.09297026
0.14357808 -0.10671938 -0.13623168 -0.17794897 -0.13182086 -0.086031646 -0.00314948 -0.0063531906
-0.23048863 0.15649784 -0.2057461 0.014448279 -0.029068476 -0.22643815 -0.09065309 -0.07446072
0.10789573 -0.034248013 -0.053996976 -0.11536329 -0.02114396 0.16107732 0.16420892 -0.09010854
0.21611167 0.16507083 0.18808003 -0.17068553 -0.15791617 -0.005702805 -0.042718675 -0.19431852
-0.053236872 0.12150069 -0.042428095 -0.09374121 -0.009610422 0.022392726 -0.009994579 0.15247257
-0.20031278 0.22888769 0.16334812 -0.1409383 -0.071450256 -0.19023503 -0.14349888 0.15989953
0.17206098 -0.042845245 -0.09359738 -0.081236355 -0.0004950806 -0.05375848 -0.065995954 -0.12617731
0.024409562 -0.20456308 -0.20339455 -0.07845412 0.21018982 -0.19180042 -0.07933635 -0.09796276
-0.05754862 -0.022008369 -0.12488235 -0.012223889 -0.09806278 0.24330303 -0.22432554 0.025105461
0.16506429 0.016698359 -0.03486035 -0.21041338 -0.06381786 0.0013287303 0.00827912 0.23900671
-0.01837246 -0.03838189 0.22345428 0.14667091 -0.092532076 -0.012048785 -0.05830072 -0.0017993071
-0.14462467 -0.04487706 -0.050956566 -0.1150274 0.20382074 -0.117541015 -0.09806641 -0.052741632
-0.07622922 -0.12205411 0.0060809166 0.0043068496 0.23439312 0.078854546 -0.12004585 -0.17318912
0.23850402 0.2014683 0.006789525 -0.058777593 -0.14672971 -0.093108214 -0.16304933 -0.21465081
-0.03001262 -0.03186452 -0.042485237 -0.10540576 -0.0993345 -0.24520269 -0.03859161 -0.22390206
-0.07451573 -0.21798354 0.004745664 0.13650957 -0.23356159 0.22663441 -0.09886796 -0.18338579
-0.07757814 -0.016593993 0.012961681 -0.07988074 -0.090468206 -0.008507191 -0.09643168 -0.017316619
-0.13601372 -0.12191267 -0.016042007 -0.11202587 -0.19476126 -0.0060460228 -0.08173901 -0.06509513
0.1964705 0.21404752 0.070823036 0.22184539 -0.04223989 -0.017664842 0.021887222 0.12980944
-0.0361885 0.003048711 0.16236426 0.019964458 -0.0453562 -0.06553764 0.23178647 -0.1544323
0.22255345 0.034555946 -0.007860022 -0.121590525 -0.048391722 -0.11670811 -0.121078216 -0.01468833
-0.09507844 -0.18745421 0.13619617 -0.011071797 -0.24345775 0.21026658 -0.13891953 -0.20976071
0.01312416 -0.18858153 0.0047546714 -0.11924435 0.15315089 -0.037623137 -0.22908585 -0.06558742
1.1038535 1.2937964 0.04138583 0.033814352 -0.078425504 1.2797464 0.016177835 1.3294606
0.13594845 0.21426441 1.3611532 1.0559818 1.2259221 1.2735572 0.21766075 -0.07523517
-0.08220025 0.09090882 -0.0062587573 0.06044826 0.17039785 1.2534988 1.3344145 1.1453549
0.11589798 -0.14731115 0.15346314 1.3827214 1.3087018 0.054011036 1.2042444 1.2636927
-0.005392394 -0.2951941 1.1555169 1.2625518 -0.3015755 -0.032779723 -0.12711352 1.30725
0.010981788 -0.26847535 -0.0008884362 0.24844828 0.114750564 -0.13497403 -0.40620944 0.2173588
1.1566724 -0.0524977 1.3111768 1.1470964 1.1215881 1.3188432 -0.024298538 -0.20786536

fc2.bias f4 [20]
00000000: fbd7 fabd 6b5e a03f a401 debd 61a1 d9bd
00000010: 18f8 963f 4c8b 2f3e 4cf4 97bd cf4e 2fbe
00000020: e572 58be 93c7 973f 924e 8e3f 6691 953f
00000030: 671c e8bd c8b5 67be 68a3 a5bd dfbd fabc
00000040: 6f2b 1fbe 26cd 37be ed31 8f3f fbea 06be
-0.12248226 1.2528814 -0.10840157 -0.10626484 1.1794462 0.17142981 -0.07419643 -0.17119907
-0.21137579 1.185778 1.1117728 1.1684997 -0.11333542 -0.22627938 -0.08087808 -0.030608116
-0.15543912 -0.17949352 1.1187111 -0.13175575

fc3.weight f4 [1, 20]
00000000: 47e3 bebf 32fb 9d3f b6d5 b2bf a8aa c2bf
00000010: b78b 9e3f c673 9ebf 94f6 6abf ef7e d1bf
00000020: e2c0 c4bf 3f1d a73f 0733 a73f 233e 903f
00000030: 5193 72bf a3ef c7bf 6467 a5bf 9609 c1bf
00000040: fc0f bdbf 4012 d1bf e36c 8a3f 23c1 c9bf
-1.491311 1.2342284 -1.3971469 -1.520833 1.2386388 -1.2379081 -0.917825 -1.6366862
-1.5371363 1.30558 1.3062447 1.1268963 -0.94756037 -1.5620006 -1.2922177 -1.508105
-1.4770503 -1.6333694 1.081448 -1.5762066

bn1.weight f4 [200]
00000000: 31da e03f d8ef 0340 5ba2 573f dd56 513f
00000010: efad 6c3f f061 f93f 0000 803f 5285 0640
00000020: 0000 803f 0000 803f f5a3 0540 3d0a e23f
00000030: 21b5 f93f 52ad 0240 0000 803f 449a 763f
00000040: 0000 803f 0000 803f 0000 803f 0000 803f
00000050: 0000 803f 3fa1 fd3f 37cf 0540 cbe6 f43f
00000060: 0000 803f 0000 803f 0000 803f b321 0240
00000070: 7bcd 0340 0000 803f 03ef f13f 31ec fb3f
00000080: 0000 803f 8975 823f 94bb f23f 2620 f53f
00000090: dd4a 923f 0000 803f 0000 803f bfb4 0340
000000a0: 0000 803f 0000 803f 665d 5e3f 0000 803f
000000b0: 0000 803f 5cd4 503f 3fe3 7e3f 0000 803f
000000c0: a92b f83f 0000 803f c078 0040 40a4 f03f
000000d0: 4e52 f93f 2f4d 0640 e51c 483f 0000 803f
000000e0: 0000 803f 0000 803f 0000 803f 0000 803f
000000f0: 5472 a43f 0000 803f 0000 803f 0000 803f
00000100: 0000 803f 0950 0240 d199 0040 535c f13f
00000110: fcf9 f83f 4aa8 453f 9f11 f13f 0000 803f
00000120: fcb0 f73f 0000 803f 0000 803f 6bf9 903f
00000130: 0000 803f 0000 803f 8cb7 0540 da7d f83f
00000140: 3c17 e83f 41c2 fc3f 17a7 e73f 2c78 ed3f
00000150: 0e4f 0140 0000 803f 0000 803f a84d 0040
00000160: 0000 803f 6763 7c3f b3f1 fb3f 0000 803f
00000170: 375d fa3f cdb5 833f 560b 623f 0000 803f
00000180: dbdc 533f 0634 0440 0000 803f 0000 803f
00000190: 7dfd f33f e125 0740 feda 0340 669d 8f3f
000001a0: 0000 803f 6727 e53f 3320 5d3f 0000 803f
000001b0: 0000 803f c91d 0040 5fa9 1e3f 01fb fe3f
000001c0: 702c f13f 0000 803f 5428 0140 49b8 0440
000001d0: 0000 803f 0000 803f 0000 803f 0000 803f
000001e0: 0000 803f 0000 803f 5d6d 1a3f 2b9b 843f
000001f0: 0000 803f 7d4e 8f3f 146f fe3f 0000 803f
00000200: d6e6 8f3f 2831 f73f 786f fc3f 0000 803f
00000210: 2db8 0140 0000 803f 1926 0140 0000 803f
00000220: e017 973f 0000 803f 1815 0240 0000 803f
00000230: 0000 803f 0000 803f cc4a f93f 0000 803f
00000240: 17eb fa3f 6f80 ee3f 5d43 0840 53bc f93f
00000250: 5821 fc3f 19f1 0040 a689 f63f 3a15 f13f
00000260: 0000 803f 0000 803f 8862 953f 0000 803f
00000270: 0000 803f baf0 fc3f d2f0 0540 52a6 313f
00000280: 0000 803f 0000 803f 6989 ec3f 0000 803f
00000290: 4700 e53f 4410 0740 bb59 933f 0000 803f
000002a0: 1515 8a3f d7c2 f33f 0000 803f 4870 fd3f
000002b0: b6a7 f53f c4a9 8c3f 0000 803f 0fe4 0140
000002c0: 0000 803f de68 9f3f 88d0 e83f 0000 803f
000002d0: ad1a 0040 08e6 f13f 0000 803f 8082 a03f
000002e0: 0000 803f 0000 803f 0000 803f 4f55 423f
000002f0: 0000 803f 0000 803f 14ea f13f 0000 803f
00000300: a20f fc3f 0000 803f 8c3d 0340 0000 803f
00000310: 0000 803f a774 ec3f 0000 803f 4bb4 0240
1.7566587 2.061514 0.8423211 0.8177317 0.924529 1.9483013 1.0 2.1018872
1.0 1.0 2.0881321 1.7659374 1.9508401 2.0418286 1.0 0.9632914
1.0 1.0 1.0 1.0 1.0 1.9814833 2.0907724 1.9132932
1.0 1.0 1.0 2.0333068 2.0594165 1.0 1.8901066 1.9681455
1.0 1.0192119 1.8963494 1.9150436 1.1429096 1.0 1.0 2.0579069
1.0 1.0 0.86861265 1.0 1.0 0.81574035 0.995655 1.0
1.9388324 1.0 2.00737 1.8800125 1.9478242 2.098461 0.7816909 1.0
1.0 1.0 1.0 1.0 1.284739 1.0 1.0 1.0
1.0 2.036135 2.0093882 1.88563 1.9451289 0.77209914 1.8833503 1.0
1.9350886 1.0 1.0 1.1326116 1.0 1.0 2.0893278 1.9413407
1.813209 1.9746782 1.8097867 1.8552299 2.02045 1.0 1.0 2.0047398
1.0 0.98589176 1.9683136 1.0 1.9559697 1.0289856 0.8829855 1.0
0.82758874 2.0656753 1.0 1.0 1.9061733 2.111687 2.0602412 1.1219909
1.0 1.790265 0.8637726 1.0 1.0 2.001818 0.6197719 1.992035
1.8841686 1.0 2.0180864 2.0737479 1.0 1.0 1.0 1.0
1.0 1.0 0.60323125 1.0359854 1.0 1.1195828 1.9877648 1.0
1.124232 1.9311876 1.9721518 1.0 2.0268662 1.0 2.0179503 1.0
1.1804161 1.0 2.0325375 1.0 1.0 1.0 1.9475951 1.0
1.9602994 1.8632945 2.1291115 1.9510597 1.9697676 2.0147154 1.9260757 1.8834603
1.0 1.0 1.1670694 1.0 1.0 1.9760964 2.0928235 0.6939441
1.0 1.0 1.8479434 1.0 1.789071 2.1103678 1.1511759 1.0
1.0787684 1.9043835 1.0 1.979989 1.9191806 1.0989308 1.0 2.0295446
1.0 1.2453878 1.8188639 1.0 2.0016282 1.8898325 1.0 1.2539825
1.0 1.0 1.0 0.7591142 1.0 1.0 1.889956 1.0
1.9692271 1.0 2.0506315 1.0 1.0 1.84731 1.0 2.0422542

bn1.bias f4 [200]
00000000: 7227 0b3f 3eb0 103f e86c 863e 8c0b 543e
00000010: 9ceb 913d 8d8f 213f 13d6 3538 af86 193f
00000020: bd9d 1a3e 98a5 213e e1be 313f e25e 043f
00000030: 8812 053f a91b 1a3f 875d 1f3e 858e 843c
00000040: 9cd1 d8bb b340 783d 667c f336 77a5 0138
00000050: d358 d03d 39b7 083f 24c9 133f a085 df3e
00000060: 959d 3a3e bb87 bbbd 7bde c53d 8a78 2a3f
00000070: 47d6 143f f54f b23c 0a99 123f 5812 103f
00000080: bc0a 13ba 69f3 c63a 8777 303f 1c9b 333f
00000090: 9319 3abe 7644 c4bd ae17 95bd a271 0c3f
000000a0: 36e7 00bd af91 57be b4fc 723c 810e 6e3e
000000b0: f58a e83d bb0a 8c3e b846 e9bd b11b 3f3e
000000c0: d9e9 1e3f 73ab 73b6 5d19 283f e756 133f
000000d0: cf52 0c3f 4e9b 2d3f 5eeb a83e d432 3fbe
000000e0: e1b9 c736 19a3 44be f0d7 7ab7 ffab 553e
000000f0: 874c 97be dc67 f93d 2b3e 013e dcc8 53b7
00000100: ffbc fbbc 2106 2d3f c13f 2e3f 7cec 253f
00000110: b5ec 243f 2ea3 8d3d e72c 043f 72e9 f43d
00000120: 0d6b 0a3f 385d 863b ddd4 ba3d 463c 7bbe
00000130: 11ea 44be b819 8a39 3084 373f 735c 183f
00000140: a1bd f83e 190b 0a3f c47d 283f f71b 103f
00000150: 43c1 2b3f 1cf0 3abe 6155 463e af95 1e3f
00000160: c85d 3bbe 9130 c5bc bcdc fa3e da85 363d
00000170: 0df1 303f 417a 3ebd 9590 1e3e 1be6 5ebe
00000180: ae63 1a3e 270b 2a3f 9a18 cdbd 05a1 3fbe
00000190: 8a66 1e3f f82b 2d3f f475 273f 975c dbbd
000001a0: 10da 713e f749 0d3f fb34 b9ba 8759 ef36
000001b0: cbc1 64bd ea1a 0e3f 4f3e b43e 2500 143f
000001c0: 75a6 ff3e e9e5 b038 b6dd 173f 2699 2f3f
000001d0: 26a1 4dbe 0c9d 2dbb 8f47 9937 eaab e236
000001e0: 2102 2dbc f62a 1db8 a035 ad3e 6b95 613c
000001f0: 0f33 d238 3750 09bd ee48 283f 1496 5e3e
00000200: c3ff 01be 67e5 1e3f 2a32 0f3f 3848 4e3e
00000210: 5e22 143f 6210 573e bc5c 093f 63b9 033e
00000220: 4c50 78be f98a c53d 1b46 353f 24d1 cdb6
00000230: 5d57 b43c 557d 75be 97cb 353f 04ed 033e
00000240: c238 203f 4f9d fd3e 244a 413f 3c08 253f
00000250: cc5a 103f 9992 0f3f 306d 293f 4677 263f
00000260: 3e94 8bb8 901f 163e 3ac3 79be 323f 0f3d
00000270: 6bfb 6b3e 0ca2 243f 67d7 403f 849b c93e
00000280: 21af eabd e564 88be d14b f23e 0c78 c0bd
00000290: 78ea 153f 2c9f 163f 4f5b 47be 5e02 5bb7
000002a0: 547a 5739 9fb1 243f 0614 59be 3ab5 153f
000002b0: cd2e 123f 9a74 eebc 5123 09be 88b1 0d3f
000002c0: 262c 22b8 2d58 6abe 0977 153f b92b 0b3e
000002d0: f466 133f c0af 2c3f 739f 3f3e 95f7 b3be
000002e0: aede 0237 c3a6 1f3e 78df 46b6 7d75 363e
000002f0: f15a 393e 971c 4cbd d1d9 0e3f b546 5f3e
00000300: 9f5e f73e 535a 2e3d 0b78 0d3f ed8f 703e
00000310: b8e8 72be abce 033f 35bb 763e af36 073f
0.54357064 0.56518924 0.26254964 0.2070753 0.07125017 0.63109666 4.3353135e-05 0.59971136
0.15099235 0.15785825 0.69431883 0.5170728 0.519814 0.60198456 0.15563022 0.01618124
-0.0066167843 0.060608577 7.256446e-06 3.0910098e-05 0.10173192 0.53404576 0.5772879 0.43656635
0.18224175 -0.09156748 0.096615754 0.6659018 0.5813946 0.021766642 0.5726477 0.5627799
-0.00056092045 0.0015178743 0.68932384 0.70158553 -0.18173818 -0.095833704 -0.07279907 0.5486089
-0.0314705 -0.21051668 0.014830757 0.2324772 0.11354629 0.27351937 -0.11390442 0.18662907
0.62075573 -3.6309618e-06 0.656637 0.5755448 0.54813856 0.678151 0.3299207 -0.18671733
5.9523013e-06 -0.19202842 -1.4951438e-05 0.20866393 -0.29550573 0.12178013 0.12621371 -1.2623346e-05
-0.030729769 0.67587477 0.6806603 0.6481397 0.64423686 0.0691589 0.51631016 0.11958589
0.54069597 0.004100468 0.09122632 -0.24534711 -0.19229914 0.00026340573 0.7168608 0.59516066
0.48582175 0.53923184 0.65816903 0.5629267 0.6709177 -0.18255657 0.19368507 0.6194715
-0.18297493 -0.02407101 0.48996532 0.044561245 0.69117814 -0.04650331 0.15484841 -0.21767466
0.15077087 0.6642327 -0.10014458 -0.18713768 0.6187521 0.67645216 0.6541436 -0.107110195
0.2361834 0.55190986 -0.0014130169 7.1331774e-06 -0.055848878 0.5550982 0.35203788 0.5781272
0.49931684 8.435158e-05 0.5932268 0.6859306 -0.20081005 -0.0026491312 1.8272343e-05 6.7553383e-06
-0.01055959 -3.7471727e-05 0.33829975 0.013768534 0.00010023091 -0.033523764 0.6573628 0.21736938
-0.12695222 0.6206879 0.5593592 0.20144737 0.5786494 0.21002343 0.53657126 0.12863688
-0.24249381 0.096456476 0.708101 -6.1338233e-06 0.022014314 -0.23973592 0.7101378 0.12883383
0.62586606 0.4953408 0.75503755 0.6446569 0.56388545 0.56083065 0.6618223 0.65025747
-6.655649e-05 0.14660478 -0.2439088 0.034972377 0.23045127 0.64309764 0.7532868 0.39376462
-0.114591844 -0.26639476 0.47323468 -0.09397897 0.58560896 0.58836627 -0.19468425 -1.3053968e-05
0.00020549569 0.6433353 -0.21199045 0.58479655 0.5710266 -0.029108334 -0.13392378 0.55349016
-3.8664926e-05 -0.22885199 0.5838476 0.13590898 0.5757897 0.67455673 0.18713169 -0.35149828
7.8004505e-06 0.15590958 -2.9634375e-06 0.17818256 0.18101098 -0.049831953 0.5580111 0.21804316
0.48314378 0.04256661 0.55261296 0.23492403 -0.23721588 0.51487225 0.24094851 0.52817816

bn1.running_mean f4 [200]
00000000: 0b6d 1846 2a0a 2545 c9b6 ea43 998b 0943
00000010: e25f 2d43 f631 0946 0000 0000 bfc9 0346
00000020: 0000 0000 0000 0000 1832 8546 cdc4 e245
00000030: 3016 4e46 7fc3 1a46 0000 0000 8be3 133e
00000040: 0000 0000 0000 0000 0000 0000 0000 0000
00000050: 0000 0000 5278 5b46 1cb0 bf45 187e 0145
00000060: 0000 0000 0000 0000 0000 0000 8313 cb45
00000070: 054e 1a46 0000 0000 72b6 de45 1d0b 1446
00000080: 0000 0000 aeb6 0945 fde0 0e46 3acd a045
00000090: 24ca 1c43 0000 0000 0000 0000 ba2d f445
000000a0: 0000 0000 0000 0000 d1de 493d 0000 0000
000000b0: 0000 0000 dc10 8341 4c66 0f45 0000 0000
000000c0: 4a4a fb45 0000 0000 bc0a 3f45 348c 6045
000000d0: ac0a 3845 1b9f 1646 9da7 af44 0000 0000
000000e0: 0000 0000 0000 0000 0000 0000 0000 0000
000000f0: 5f6a 9944 0000 0000 0000 0000 0000 0000
00000100: 0000 0000 950c 4346 ab1d 2c45 15a7 6c46
00000110: d159 0e45 84a2 1345 5ce0 9945 0000 0000
00000120: b4cf e545 0000 0000 0000 0000 315e 9845
00000130: 0000 0000 0000 0000 9c31 f445 394d bd45
00000140: a254 2c46 f033 9a45 4f63 6145 16e1 0346
00000150: b6d8 8f46 0000 0000 0000 0000 104b 2746
00000160: 0000 0000 0e14 ce44 7d6d e945 0000 0000
00000170: fd5e 0f46 37eb c142 e41f 8543 0000 0000
00000180: 794b b944 fd60 0d45 0000 0000 0000 0000
00000190: de07 e144 9a35 0546 d53e 2f46 f90b 4445
000001a0: 0000 0000 11e6 cc45 b13c 8344 0000 0000
000001b0: 0000 0000 cc3a 8145 2da6 8c45 7510 4c46
000001c0: a0c2 e845 0000 0000 1cde 0346 fffc fc45
000001d0: 0000 0000 0000 0000 0000 0000 0000 0000
000001e0: 0000 0000 0000 0000 6ba3 4845 d6a9 0845
000001f0: 0000 0000 1810 ef44 eb81 ca42 0000 0000
00000200: 3621 8a43 5a2c 2746 1157 c345 0000 0000
00000210: 0901 ae45 0000 0000 689d c745 0000 0000
00000220: 83d5 da44 0000 0000 8efe 3546 0000 0000
00000230: 0000 0000 0000 0000 ce59 3546 0000 0000
00000240: f4b9 d445 38ea ab45 2b11 e045 89d2 e745
00000250: 0c3d 0e46 7345 8346 b8c4 db45 a219 cb45
00000260: 0000 0000 0000 0000 cc84 0c43 0000 0000
00000270: 0000 0000 e431 4746 0690 8045 11a2 7e45
00000280: 0000 0000 0000 0000 00d7 f444 0000 0000
00000290: e51b 8b45 989a 9645 ae14 cf43 0000 0000
000002a0: 1ad8 3145 a4b2 b545 0000 0000 a354 2046
000002b0: da04 1645 0930 2b45 0000 0000 94a6 b243
000002c0: 0000 0000 0c7b 4a45 c3d4 4345 0000 0000
000002d0: 426f 9c44 378f b445 0000 0000 0e41 8245
000002e0: 0000 0000 0000 0000 0000 0000 94d9 1b43
000002f0: 0000 0000 0000 0000 94f1 3f45 0000 0000
00000300: a84e 6946 0000 0000 c254 fb45 0000 0000
00000310: 0000 0000 573c 9245 0000 0000 640a 6845
9755.261 2640.6353 469.428 137.5453 173.37454 8780.49 0.0 8434.437
0.0 0.0 17049.047 7256.6 13189.547 9904.874 0.0 0.1444227
0.0 0.0 0.0 0.0 0.0 14046.08 6134.0137 2071.8809
0.0 0.0 0.0 6498.439 9875.505 0.0 7126.8057 9474.778
0.0 2203.4175 9144.247 5145.6533 156.78961 0.0 0.0 7813.716
0.0 0.0 0.04928476 0.0 0.0 16.383232 2294.3936 0.0
8041.286 0.0 3056.671 3592.7627 2944.667 9639.776 1405.2379 0.0
0.0 0.0 0.0 0.0 1227.3241 0.0 0.0 0.0
0.0 12483.1455 2753.8542 15145.7705 2277.6135 2362.1572 4924.045 0.0
7353.963 0.0 0.0 4875.774 0.0 0.0 7814.201 6057.653
11029.158 4934.492 3606.2068 8440.271 18412.355 0.0 0.0 10706.766
0.0 1648.6267 7469.686 0.0 9175.747 96.959404 266.24915 0.0
1482.3585 2262.0618 0.0 0.0 1800.2458 8525.4 11215.708 3136.7483
0.0 6556.7583 1049.8966 0.0 0.0 4135.3496 4500.772 13060.114
7448.328 0.0 8439.527 8095.6245 0.0 0.0 0.0 0.0
0.0 0.0 3210.2136 2186.6147 0.0 1912.5029 101.253746 0.0
276.25946 10699.088 6250.8833 0.0 5568.1294 0.0 6387.676 0.0
1750.6722 0.0 11647.639 0.0 0.0 0.0 11606.451 0.0
6807.244 5501.2773 7170.146 7418.317 9103.262 16802.725 7032.59 6499.204
0.0 0.0 140.51874 0.0 0.0 12748.473 4114.003 4074.1292
0.0 0.0 1958.7188 0.0 4451.487 4819.324 414.16156 0.0
2845.5063 5814.33 0.0 10261.159 2400.3032 2739.0022 0.0 357.3014
0.0 3239.6904 3133.2976 0.0 1251.4768 5777.902 0.0 4168.132
0.0 0.0 0.0 155.84991 0.0 0.0 3071.0986 0.0
14931.664 0.0 8042.5947 0.0 0.0 4679.5425 0.0 3712.6494

bn1.running_var f4 [200]
00000000: 3642 8b4d ba1f bf4b bd6c 0a4a e023 9348
00000010: 5a43 cd48 8a78 614d 2bf6 273f fe91 584d
00000020: 2bf6 273f 2bf6 273f a9f3 554e 02a4 1a4d
00000030: 93dd 004e 4fd1 914d 2bf6 273f d1cd 9342
00000040: 2bf6 273f 2bf6 273f 2bf6 273f 2bf6 273f
00000050: 2bf6 273f 4418 134e 7c79 e94c 8eea 8a4b
00000060: 2bf6 273f 2bf6 273f 2bf6 273f 31a7 004d
00000070: 4bc3 904d 2bf6 273f 1480 134d 9d35 864d
00000080: 2bf6 273f 1a0c 754b dbc6 784d ab49 9a4c
00000090: bfbc d648 2bf6 273f 2bf6 273f fa0c 334d
000000a0: 2bf6 273f 2bf6 273f 8f53 0541 2bf6 273f
000000b0: 2bf6 273f 6834 1545 30a9 804b 2bf6 273f
000000c0: c7f6 3f4d 2bf6 273f 1598 fb4b 48f8 2f4c
000000d0: 70b7 e94b cf8d 8a4d 8124 294b 2bf6 273f
000000e0: 2bf6 273f 2bf6 273f 2bf6 273f 2bf6 273f
000000f0: 0249 8b4a 2bf6 273f 2bf6 273f 2bf6 273f
00000100: 2bf6 273f f6f2 e24d 6a58 d74b f5de 2a4e
00000110: 895c 9c4b b730 aa4b 24b5 9c4c 2bf6 273f
00000120: d980 1d4d 2bf6 273f 2bf6 273f 9af9 934c
00000130: 2bf6 273f 2bf6 273f 2258 314d d525 d94c
00000140: e6af b34d 6c03 974c b85a 2e4c 4bcd 544d
00000150: 9bc7 7b4e 2bf6 273f 2bf6 273f f442 a94d
00000160: 2bf6 273f 950a 2d4b cdd5 224d 2bf6 273f
00000170: 95ed 744d 8081 c947 5823 6049 2bf6 273f
00000180: 52ea 0e4b a868 a54b 2bf6 273f 2bf6 273f
00000190: 35ce 294b 85b4 524d 379d b94d a37b 024c
000001a0: 2bf6 273f cbc8 ff4c 88e0 964a 2bf6 273f
000001b0: 2bf6 273f 2a61 624c 3f7c 744c 0495 fa4d
000001c0: b765 224d 2bf6 273f 32e4 534d 43eb 424d
000001d0: 2bf6 273f 2bf6 273f 2bf6 273f 2bf6 273f
000001e0: 2bf6 273f 2bf6 273f 7cf6 f84b 0580 824b
000001f0: 2bf6 273f 9d4e 344b d9b9 a347 2bf6 273f
00000200: 950c ee48 ad7c ab4d bbf1 e24c 2bf6 273f
00000210: 8c68 b14c 2bf6 273f 9097 fc4c 2bf6 273f
00000220: 6f44 264b 2bf6 273f 1cb0 c84d 2bf6 273f
00000230: 2bf6 273f 2bf6 273f df7c c34d 2bf6 273f
00000240: e7f6 0b4d 24aa b14c c2cb 154d b994 224d
00000250: c1bb 754d e3ef 4d4e c8dd 114d cf46 f54c
00000260: 2bf6 273f 2bf6 273f 6f15 9348 2bf6 273f
00000270: 2bf6 273f dd0d ed4d c546 414c 1fa2 444c
00000280: 2bf6 273f 2bf6 273f 7fb1 6b4b 2bf6 273f
00000290: 8ee8 644c 0072 8f4c 8753 fe49 2bf6 273f
000002a0: 6393 d24b 026a ce4c 2bf6 273f 9a9e 9a4d
000002b0: 320c b64b efbb ab4b 2bf6 273f 18a9 1349
000002c0: 2bf6 273f 9e4f f94b 55ad dd4b 2bf6 273f
000002d0: 8e92 e84a 3682 ce4c 2bf6 273f 6cbc 574c
000002e0: 2bf6 273f 2bf6 273f 2bf6 273f 8a44 d748
000002f0: 2bf6 273f 2bf6 273f 7de1 064c 2bf6 273f
00000300: b19c 264e 2bf6 273f 8a39 414d 2bf6 273f
00000310: 2bf6 273f d70f 814c 2bf6 273f 9554 3d4c
2.9204653e+08 2.5050996e+07 2.2679512e+06 301343.0 420378.8 2.3642333e+08 0.6561 2.270904e+08
0.6561 0.6561 8.973789e+08 1.6215248e+08 5.405012e+08 3.058017e+08 0.6561 73.901985
0.6561 0.6561 0.6561 0.6561 0.6561 6.1696026e+08 1.224079e+08 1.8208028e+07
0.6561 0.6561 0.6561 1.3490254e+08 3.0358973e+08 0.6561 1.5466528e+08 2.8145757e+08
0.6561 1.6059418e+07 2.6086136e+08 8.0891224e+07 439781.97 0.6561 0.6561 1.8774826e+08
0.6561 0.6561 8.3329 0.6561 0.6561 2387.2754 1.686384e+07 0.6561
2.0128882e+08 0.6561 3.2976938e+07 4.612944e+07 3.0633696e+07 2.9056867e+08 1.1084929e+07 0.6561
0.6561 0.6561 0.6561 0.6561 4.564097e+06 0.6561 0.6561 0.6561
0.6561 4.759467e+08 2.8225748e+07 7.166846e+08 2.049461e+07 2.2307182e+07 8.21599e+07 0.6561
1.6515419e+08 0.6561 0.6561 7.758152e+07 0.6561 0.6561 1.8595894e+08 1.13847976e+08
3.7683117e+08 7.91745e+07 4.570595e+07 2.2313899e+08 1.05604064e+09 0.6561 0.6561 3.5496717e+08
0.6561 1.1340437e+07 1.7074504e+08 0.6561 2.5682568e+08 103171.0 918069.5 0.6561
9.366098e+06 2.1680464e+07 0.6561 0.6561 1.1128373e+07 2.2094037e+08 3.8926102e+08 3.4205324e+07
0.6561 1.34104664e+08 4.94394e+06 0.6561 0.6561 5.934404e+07 6.4090364e+07 5.2550874e+08
1.7028594e+08 0.6561 2.2218422e+08 2.0438738e+08 0.6561 0.6561 0.6561 0.6561
0.6561 0.6561 3.2632056e+07 1.7104906e+07 0.6561 1.1816605e+07 83827.695 0.6561
487524.66 3.5963434e+08 1.1898415e+08 0.6561 9.301309e+07 0.6561 1.3243098e+08 0.6561
1.0896495e+07 0.6561 4.208731e+08 0.6561 0.6561 0.6561 4.0996758e+08 0.6561
1.4676338e+08 9.314742e+07 1.5707242e+08 1.7047848e+08 2.5767016e+08 8.637626e+08 1.5295194e+08 1.28595576e+08
0.6561 0.6561 301227.47 0.6561 0.6561 4.971386e+08 5.066626e+07 5.1546236e+07
0.6561 0.6561 1.5446399e+07 0.6561 6.000697e+07 7.520666e+07 2.0834409e+06 0.6561
2.7600582e+07 1.0822043e+08 0.6561 3.2426067e+08 2.3861348e+07 2.2509534e+07 0.6561 604817.5
0.6561 3.2677692e+07 2.9055658e+07 0.6561 7.620935e+06 1.0827e+08 0.6561 5.6553904e+07
0.6561 0.6561 0.6561 440868.3 0.6561 0.6561 3.5358196e+07 0.6561
6.988217e+08 0.6561 2.0261085e+08 0.6561 0.6561 6.766559e+07 0.6561 4.9631828e+07

bn2.weight f4 [20]
00000000: fcff 1b40 ef32 fb3f e179 0d40 266c 1c40
00000010: f1d5 fd3f eefa 0840 2ff7 ab3f 5514 1d40
00000020: ed18 1c40 21cf 0040 55f0 0040 f3f1 d93f
00000030: a8db ba3f 719e 1c40 3120 f63f 8ca3 1b40
00000040: a98b 1b40 3df3 1c40 e7da dd3f 6e5a 1c40
2.437499 1.9624919 2.210564 2.4441009 1.9830915 2.1403155 1.343481 2.454366
2.4390213 2.0126421 2.0146687 1.7026962 1.4598284 2.4471705 1.9228574 2.431857
2.4303992 2.452346 1.7332429 2.4430194

bn2.bias f4 [20]
00000000: c6a8 b8bf 604f bf3f 3609 b3bf 1da9 b9bf
00000010: 95d8 be3f 817d 99bf 1f90 80bf 8107 bcbf
00000020: dae9 b9bf efd3 c03f 3fd7 c03f cbb3 b83f
00000030: aec2 87bf 887e babf 033b a9bf 486f b9bf
00000040: 8bc1 b7bf 190b bcbf 2407 ba3f 47df babf
-1.4426506 1.4946098 -1.3987186 -1.4504734 1.4909846 -1.1991426 -1.0043982 -1.468979
-1.4524491 1.5064677 1.5065688 1.4429868 -1.0606287 -1.4569864 -1.3221134 -1.4487085
-1.435594 -1.4690887 1.4533429 -1.4599389

bn2.running_mean f4 [20]
00000000: d5df 3d3e e7ed f73d 1460 833e 866e 1c3e
00000010: 39a7 363e da86 803d 9a5c 303e 0f70 333e
00000020: 9d75 583e 5f0e 4a3e 3f78 173e d12f 0a3e
00000030: 85a4 4d3e a26e 243e 3c41 453e 1357 f13d
00000040: 2a32 5a3e 602e 133e 949d 333e d510 0e3e
0.18542416 0.12105923 0.2565924 0.15276536 0.17837228 0.06275721 0.17222825 0.17523216
0.21138616 0.19732045 0.14791964 0.13494803 0.2008229 0.16057828 0.19263166 0.11784186
0.21308199 0.1437316 0.1754058 0.13873608

bn2.running_var f4 [20]
00000000: 8623 423f a70e 573f c23a cc3f 179f 7c3f
00000010: f1cd 943f fe8c 2a3f e7e6 923f 1d68 3f3f
00000020: 7258 ac3f 87aa 9f3f bb5b 843f 73ab 313f
00000030: a8d4 a33f b261 3e3f 8562 9c3f 1ba9 653f
00000040: 5497 473f 62f4 383f e0fc 3b3f a7dd 773f
0.75835454 0.8400673 1.5955431 0.9868025 1.1625348 0.66621387 1.1476716 0.7476824
1.3464491 1.2473916 1.0340494 0.69402236 1.2799273 0.7436782 1.2217566 0.8971116
0.77965283 0.722479 0.7343273 0.9682259
