Results/NN_MLP_MLs/MLP_Ensemble/Model_Results/AllVar/test13/best_model_1.pt (torch, 100765 bytes, 20 tensors)

country_embedding.weight f4 [8, 2]
000000 94 7d c3 3c 58 dd 0d 3c 8e bc d3 bb b8 40 51 bc
       0.023863591 0.0086587295 -0.0064616865 -0.012771778
000010 da cf d3 bb a5 7d 97 3b 84 76 97 3b c4 79 68 3c
       -0.006463987 0.0046231323 0.0046222825 0.014189187
000020 92 68 95 bb 6c 0d 0e 3c 7d c9 d3 3b bd ac ad 3c
       -0.004559585 0.008670192 0.0064632283 0.021200532
000030 3a b0 51 3c 7d 21 b1 3c 70 85 97 3b d0 11 0e bc
       0.012798363 0.021622414 0.0046240613 -0.008671239

fc1.weight f4 [200, 92]
000000 b7 2a 4f bb 38 ba 31 bd 4c 7d 4e bc 01 2a a1 3b
       -0.0031611153 -0.043390483 -0.012603115 0.0049183373
000010 b0 5b 09 3b 85 8c c3 bb bd f9 56 bc a8 e8 a0 3c
       0.002095919 -0.005967679 -0.013121066 0.01964219
000020 2a 65 58 bc 06 1b 30 bc e6 71 db bb c0 9c 53 3c
       -0.013207713 -0.01074863 -0.0066969274 0.01291579
000030 f0 34 98 ba 0a 27 a1 3c 37 e6 da 3b 6a 05 91 bb
       -0.0011612456 0.019671936 0.006680276 -0.0044256942
000040 fe 38 1e 3b 0c 58 c8 3c 60 6b a1 3b 28 64 ef 3b
       0.0024142857 0.024456047 0.00492613 0.0073056407
000050 23 17 01 3d ce 77 2c 3c 1e 92 57 3c 14 40 3e bb
       0.031516206 0.010526611 0.013157396 -0.0029029893
000060 14 65 58 3c d8 8d cf bb 6f b1 da 3b df 0b cd 3c
       0.013207693 -0.0063340478 0.0066739838 0.025030075
000070 42 85 2c 3c e0 f5 a1 3b 59 3d 6e 3c f6 3b b3 3c
       0.010529818 0.0049426407 0.014540994 0.021879178
000080 f9 4c db 3b 05 12 6f 3c e4 27 6a 39 b4 d2 b9 bb
       0.0066925255 0.014591699 0.0002233084 -0.0056708697
000090 4c 42 e9 38 c2 5d 6f 3c 92 1d b0 bc 6b ed 08 3d
       0.000111226545 0.014609756 -0.021498475 0.033429544
0000a0 20 27 a1 3c 96 65 58 bc 16 ac 10 3c d3 d8 59 3c
       0.019671977 -0.013207814 0.008830091 0.013296324
0000b0 93 df 56 bc 9a 41 1d bc 00 bd 52 3c 20 ee 85 3c
       -0.013114828 -0.00959816 0.012862444 0.016348898
0000c0 04 d3 b9 bb b0 bc 9f 3c ec 69 d3 3b db 7f b3 bc
       -0.005670907 0.019499153 0.006451836 -0.021911552
0000d0 82 e7 10 3c a8 f6 a1 bb a0 4d b9 3b 04 85 10 bc
       0.008844258 -0.004942734 0.0056550056 -0.008820776
0000e0 64 b9 c7 3c ef 4b 6f bc fc 30 90 38 56 65 58 bc
       0.024380393 -0.014605506 6.875579e-05 -0.013207754
0000f0 4a f4 af b9 b3 e6 82 3c 08 44 bf bb f9 82 39 bb
       -0.0003356061 0.015979147 -0.0058369674 -0.0028306826
000100 96 f5 a1 bb c6 82 2c bc de 33 b3 3c c7 da 9f 3c
       -0.004942606 -0.010529226 0.021875318 0.0195135
000110 4d 61 3b bc 66 86 53 bc 94 b3 b8 3b 6a 88 10 bc
       -0.0114367725 -0.012910461 0.0056366418 -0.008821586
000120 cf 0e cf 3c 9d ce 6d bc 78 1c bb ba 0e 68 f9 3b
       0.025275616 -0.0145145925 -0.0014275452 0.0076112812
000130 5e e4 6b bb 8e 64 58 3c 96 63 a0 bc 04 88 ce bc
       -0.0035994272 0.013207568 -0.019578736 -0.025211342
000140 22 42 6f 3c 8f 8c c3 bb 98 34 25 b7 14 65 58 bc
       0.01460317 -0.0059676836 -9.847012e-06 -0.013207693
000150 b4 8b b0 b9 e5 5d 6f 3c 48 c3 c4 bc 2c 8d b9 3b
       -0.00033673423 0.014609789 -0.024018899 0.005662581
000160 c6 62 58 bc 63 82 db bb 16 61 6f 3c 70 e8 34 3c
       -0.013207143 -0.006698893 0.014610549 0.011041746
000170 00 86 92 bb de 41 1d 3c f6 99 53 3c ac 85 c3 3b
       -0.0044715405 0.0095982235 0.012915125 0.0059668627
000180 22 58 6f bc 9a 93 53 bc 47 09 a1 3c ee 2b f9 bb
       -0.014608415 -0.012913609 0.019657744 -0.007604114
000190 37 f6 a1 3b 3b 0b e8 3b 8e fb 5a 3c 49 75 b3 3c
       0.004942681 0.007081417 0.013365639 0.021906512
0001a0 cc f4 a1 bb 2e 9e b3 3b ce a3 d3 3b e8 5d 3e bb
       -0.004942512 0.005481503 0.006458736 -0.0029047672
0001b0 fd 87 db bb 40 04 a0 39 46 d8 10 bc 80 eb 49 b9
       -0.0066995607 0.00030520745 -0.008840626 -0.00019256584
0001c0 04 18 f1 bb cf 9c 53 bc 68 29 b3 bc 9b 23 4e bc
       -0.007357599 -0.012915804 -0.02187033 -0.012581731
0001d0 66 27 a1 3c bc 66 2c 3c 46 83 2c bc 04 13 d6 3c
       0.019672107 0.010522541 -0.010529345 0.026132114
0001e0 0c d4 b9 3b 6a 66 58 3c 22 5f db 3b be 14 09 3d
       0.00567103 0.013208011 0.0066946903 0.033467047
0001f0 4c 63 3e 3b dd 8e 53 bc 50 c0 d5 39 14 65 58 3c
       0.0029050885 -0.012912479 0.0004076981 0.013207693
000200 c7 5a 92 39 3e 1f 3c bc 40 44 56 bc 08 ae f8 3b
       0.00027914924 -0.011482058 -0.0130777955 0.0075891055
000210 2d 4f 1e bb 65 e9 10 3c b9 60 d1 3b 91 bb a1 bb
       -0.002415608 0.008844708 0.006389704 -0.0049356897
000220 16 fc b0 bb bc 17 f1 bb ba 35 53 3c c0 15 6f bc
       -0.0054011447 -0.0073575657 0.012891227 -0.014592588
000230 36 f6 a1 bb 18 f4 90 3b e8 2e 31 bc bc 64 3e 3b
       -0.0049426807 0.0044236295 -0.010814406 0.0029051742
000240 97 25 a1 bc 58 65 58 3c ba 70 f9 3b 35 89 db bb
       -0.019671245 0.013207756 0.007612315 -0.006699706
000250 1a 7f c8 bc 0c ca 80 bd 16 ef 35 ba 56 65 58 bc
       -0.02447467 -0.062885374 -0.00069402286 -0.013207754
000260 c2 4d 37 ba c6 4b 86 3c 54 0a ee bb c0 ff 49 b9
       -0.0006992483 0.016393553 -0.007264415 -0.00019264128
000270 54 e8 10 3c c6 eb cc 3c 14 d9 10 bc 95 c6 ce 3c
       0.008844454 0.02501477 -0.008840818 0.025241176
000280 0e 92 53 bc 6a e8 10 3c c8 32 b3 bc 78 e0 f8 bb
       -0.01291324 0.008844474 -0.0218748 -0.007595118
000290 06 65 58 bc 31 49 c3 3b 8e 07 3c bc 84 8e 53 bc
       -0.01320768 0.005959653 -0.011476411 -0.012912396
0002a0 f4 f4 a1 bb a0 27 a1 3c be 73 53 bc 56 14 09 3d
       -0.0049425308 0.019672215 -0.012906013 0.03346666
0002b0 c1 dd 10 3c ac bc 01 3d 55 aa 34 3a 14 65 58 bc
       0.008841933 0.031674072 0.00068918365 -0.013207693
0002c0 a1 19 fc b9 b4 1f f1 3b d6 c5 e9 3c 22 83 35 3b
       -0.0004808428 0.0073585156 0.028536718 0.002769657
0002d0 4e 49 3c 3c 3e 8d db 3b f8 88 db 3b e4 ce 39 3b
       0.011492087 0.006700187 0.0066996776 0.0028352076
0002e0 64 79 8a 3b 62 71 f9 3b d2 77 f9 bb b9 87 cb 3c
       0.0042258967 0.0076123932 -0.0076131606 0.024844991
0002f0 ad 09 09 3d 4c 70 a5 bc 50 16 33 3a 17 53 da bb
       0.033456493 -0.020195149 0.0006831633 -0.006662737
000300 52 55 7f bc a6 c9 59 3c 8b 54 db bb 14 75 f9 bb
       -0.015584307 0.013292706 -0.006693428 -0.0076128338
000310 78 17 09 bd 5c 71 3e bb ca f1 57 3c 3a cc 10 bc
       -0.033469647 -0.0029059267 0.013180206 -0.008837754
000320 58 ac 6c bc 50 92 34 3a 14 f5 b0 3b 21 96 da 3b
       -0.014445387 0.00068882573 0.0054003093 0.006670729
000330 dd cf a0 3c a1 b0 6c bc f4 63 d9 3b 14 67 b2 bc
       0.019630367 -0.0144464085 0.00663423 -0.021777667
000340 8f f6 a1 3b 00 a9 0f bc 89 34 4e bc 24 7b b3 3c
       0.004942722 -0.00876832 -0.012585768 0.021909304
000350 fc 66 58 3c 7d 9c 53 3c b6 b6 da bb da e9 a3 3b
       0.013208147 0.012915728 -0.006674613 0.0050022425
000360 45 da 2f bc 40 32 0a bb 8d 99 64 b9 14 65 58 3c
       -0.010733192 -0.002108708 -0.00021800977 0.013207693
000370 c7 98 2a 39 50 e8 10 3c 6b cc c6 bb 77 b1 1a bb
       0.00016269377 0.00884445 -0.006066849 -0.0023604312
000380 1f 87 db 3b 0a 10 cf 3c a8 4a 1e bb f6 88 f9 bb
       0.0066994573 0.025276203 -0.0024153385 -0.007615204
000390 fc c9 b0 3b 58 8d db bb 69 e5 ee bb c4 1f 10 bc
       0.005395172 -0.006700199 -0.0072905314 -0.008796636
0003a0 a2 f5 a1 3b d3 67 52 bc d5 5c c8 bc d6 d4 10 bc
       0.004942612 -0.012842136 -0.024458328 -0.008839807
0003b0 a0 21 f1 bb ba 9b 53 3c b6 22 94 bc 70 18 f9 bb
       -0.0073587447 0.012915546 -0.018082958 -0.00760179
0003c0 8c 87 b5 3b 4c 6a b3 bc 27 21 e6 b9 24 64 dc 3b
       0.00553984 -0.021901272 -0.0004389372 0.006725805
0003d0 68 60 0f b7 7c 99 53 bc a2 84 71 3c a8 13 3b 3b
       -8.5459105e-06 -0.0129150115 0.014741095 0.0028545652
0003e0 c5 e8 5a bc 66 66 58 3c 44 85 db 3b 7c c3 33 ba
       -0.013361161 0.013208007 0.006699236 -0.00068574375
0003f0 80 e1 49 b9 bc 69 3e bb 96 10 da 3b c5 6d a1 3b
       -0.00019252859 -0.0029054722 0.006654809 0.0049264156

fc1.bias f4 [200]
000000 cb 91 53 bc 4f 3a 99 bb 22 f0 9d bc 1c aa ba 3b
       -0.012913178 -0.0046761404 -0.019279543 0.005696548
000010 43 92 53 3c 56 f0 9d 3c 5f 3a 99 bb 31 f2 9d bc
       0.0129132895 0.01927964 -0.004676148 -0.019280525
000020 15 83 e4 bb 36 f1 f2 bb 57 76 e4 bb c7 c7 59 bc
       -0.006973634 -0.0074140085 -0.006972115 -0.01329226
000030 34 f1 9d bc 17 97 53 3c 8a f0 9d bc f1 8f 53 bc
       -0.019280054 0.012914441 -0.019279737 -0.012912736
000040 21 92 53 bc 1e 92 53 3c 39 ef 9d 3c ce 0b 34 bd
       -0.012913258 0.012913255 0.01927911 -0.04395657
000050 58 92 53 bc 7d 14 0f 3a 42 81 e4 bb 9f 98 53 3c
       -0.012913309 0.000545807 -0.0069734165 0.012914806
000060 2d 38 99 bb 92 d9 cc bc 11 92 53 bc 36 f0 9d bc
       -0.004675886 -0.02500609 -0.012913243 -0.01927958
000070 e1 91 53 bc 1f 92 53 bc 5f 3a 99 3b 6f 73 e4 bb
       -0.012913198 -0.012913256 0.004676148 -0.0069717686
000080 b0 7f e4 3b 47 3a 99 bb fd 79 e4 bb 62 97 53 bc
       0.0069732293 -0.0046761367 -0.00697255 -0.01291451
000090 99 3a 99 bb b2 c8 59 bc 10 79 e4 3b df 01 b0 3c
       -0.004676175 -0.013292478 0.0069724396 0.021485267
0000a0 29 92 53 3c 51 92 53 3c 57 7d e4 bb 5b 3a 99 bb
       0.012913265 0.0129133025 -0.0069729495 -0.004676146
0000b0 7c fd af 3c 87 3a 99 3b 20 21 99 bc 88 3a 99 3b
       0.021483175 0.0046761665 -0.018692553 0.004676167
0000c0 7a f0 9d bc d3 96 53 bc 1f 92 53 bc 7a d0 11 3c
       -0.019279707 -0.012914377 -0.012913256 0.008899802
0000d0 69 3a 99 bb 1f 92 53 bc 54 58 e8 bb ed 3c e3 bb
       -0.0046761525 -0.012913256 -0.0070906077 -0.006934753
0000e0 90 57 e8 3b 72 f0 9d 3c 21 ce 11 bc db 91 53 bc
       0.0070905164 0.019279692 -0.008899243 -0.012913193
0000f0 d8 51 03 bd fa 39 99 3b 49 92 53 3c ef 91 53 bc
       -0.032060474 0.004676101 0.012913295 -0.012913211
000100 18 92 53 3c 56 92 53 bc 60 3a 99 bb 15 d6 9d bc
       0.012913249 -0.012913307 -0.0046761483 -0.019267121
000110 a0 3a 99 3b b0 8f 53 3c 9f 3a 99 bb 2e f0 9d bc
       0.004676178 0.012912676 -0.0046761776 -0.019279566
000120 78 92 53 3c c5 7f e4 bb f8 91 53 3c 98 3a 99 3b
       0.012913339 -0.006973239 0.01291322 0.0046761744
000130 70 3a 99 3b 39 92 53 3c 56 36 99 3b 44 38 99 3b
       0.0046761557 0.01291328 0.004675667 0.004675897
000140 56 3a 99 bb de 92 53 3c 02 02 b0 3c c2 97 53 3c
       -0.0046761436 0.012913434 0.021485332 0.0129146
000150 f0 f0 9d bc d6 c0 59 bc b2 f0 9d 3c 00 7a e4 bb
       -0.019279927 -0.013290605 0.019279812 -0.0069725513
000160 c3 90 53 3c 61 3a 99 bb 7a 38 99 bb ff 97 53 3c
       0.012912932 -0.0046761488 -0.004675922 0.012914657
000170 b5 91 53 3c 6d 3a 99 bb c7 97 53 3c ce c6 59 bc
       0.012913157 -0.0046761543 0.0129146045 -0.013292028
000180 34 92 53 3c 4a c1 59 3c 4e f0 9d bc 8a d0 11 3c
       0.0129132755 0.013290713 -0.019279625 0.008899817
000190 d5 0b 34 bd cb ce 11 3c d2 f2 9d bc 6a 3a 99 3b
       -0.043956596 0.008899401 -0.019280825 0.004676153
0001a0 92 ce f2 3b d8 57 e8 3b 88 3a 99 3b a8 57 e8 3b
       0.007409879 0.00709055 0.004676167 0.0070905276
0001b0 58 f1 f2 3b 3b 3b 99 3b 88 f1 9d bc a1 3a 99 3b
       0.0074140243 0.0046762503 -0.01928021 0.0046761786
0001c0 5a 7e e4 bb 20 92 53 3c 09 92 53 bc 4e 7c e4 bb
       -0.00697307 0.012913257 -0.012913235 -0.006972826
0001d0 d8 92 53 bc 4c f1 f2 3b 1f 92 53 3c 20 92 53 bc
       -0.012913428 0.0074140187 0.012913256 -0.012913257
0001e0 d0 91 53 bc a2 91 53 bc bb 01 b0 bc 09 92 53 bc
       -0.012913182 -0.01291314 -0.0214852 -0.012913235
0001f0 8d ff af 3c 6b 4d 15 bb 90 39 99 bb 2f f2 9d 3c
       0.02148416 -0.002278174 -0.0046760514 0.019280521
000200 ac 91 53 3c 7b 3a 99 bb 8d 38 99 3b 36 3a 99 3b
       0.012913149 -0.004676161 0.004675931 0.0046761287
000210 29 92 53 3c d6 dd cc 3c 2a 92 53 3c 2e 92 53 bc
       0.012913265 0.025008123 0.012913266 -0.01291327
000220 78 79 e4 bb a6 7e e4 bb 45 f0 9d bc 02 0c 34 bd
       -0.006972488 -0.0069731055 -0.019279609 -0.043956764
000230 ce f2 f2 3b 6f 38 99 3b ec 96 53 bc be 91 53 bc
       0.0074141985 0.004675917 -0.012914401 -0.012913166
000240 3d 7e e4 bb 1f 92 53 3c 76 3a 99 3b ff 91 53 bc
       -0.0069730566 0.012913256 0.0046761585 -0.012913226
000250 ea f1 f2 bb 72 ed 9d bc 38 c0 9d bc 8a e6 62 ba
       -0.0074140923 -0.019278262 -0.019256696 -0.0008655569
000260 ea f8 f2 bb 1d f3 9d bc fd 63 4d bc 8b 92 53 3c
       -0.007414927 -0.019280965 -0.012536046 0.012913357
000270 0a 39 99 3b 70 0b 34 bd 3a f1 9d 3c 83 92 53 3c
       0.004675989 -0.04395622 0.019280065 0.012913349
000280 19 f1 9d bc 3b f2 9d 3c 20 92 53 bc 75 ce 11 bc
       -0.019280003 0.019280544 -0.012913257 -0.008899321
000290 87 f1 9d bc 39 ea ba 3b 62 3a 99 3b 49 3a 99 bb
       -0.019280208 0.005704191 0.004676149 -0.0046761376
0002a0 bb 92 53 3c 89 96 53 3c e5 99 53 bc b8 20 99 3c
       0.012913401 0.012914308 -0.012915109 0.01869236
0002b0 4a 0b 34 3d 51 f0 9d bc 94 3a 99 3b 2e f1 9d 3c
       0.04395608 -0.01927963 0.0046761725 0.019280042
0002c0 72 3a 99 3b be 91 53 bc b7 d2 11 3c 79 92 53 3c
       0.0046761567 -0.012913166 0.008900336 0.01291334
0002d0 97 92 53 3c c2 c6 59 3c 89 e4 af 3c 88 f0 f2 bb
       0.012913368 0.013292016 0.021471279 -0.0074139275
0002e0 65 3a 99 bb d8 2b e8 3b 85 7a e4 3b a2 74 e4 3b
       -0.0046761506 0.0070853047 0.0069726133 0.0069719115
0002f0 d4 91 53 bc a0 79 e4 3b 70 81 11 bc fb c7 11 3c
       -0.012913186 0.0069725066 -0.008880958 0.008897777
000300 3a f4 9d 3c 28 ff af bc 62 3a 99 bb 8b 7d e4 3b
       0.019281495 -0.021483973 -0.004676149 0.0069729737
000310 c9 99 01 bb de 91 53 bc 4f 38 99 3b b4 91 53 bc
       -0.00197755 -0.012913195 0.004675902 -0.012913156

fc2.weight f4 [20, 200]
000000 2e d7 c3 b9 9d a7 0d bb ac f5 a2 36 fb 5f 3c b9
       -0.0003735362 -0.0021614798 4.856576e-06 -0.00017964833
000010 12 7a 38 3b 56 6e 8a 3a a9 c7 eb b9 cf 21 6c 3a
       0.0028148931 0.0010561447 -0.0004497145 0.00090077234
000020 17 76 76 b9 b2 24 8f 39 aa e2 ac b9 a0 15 be b9
       -0.0002350438 0.00027302426 -0.00032975274 -0.00036255736
000030 5a 36 08 38 64 8a 15 b9 5a 61 84 39 8e ad af b9
       3.2475546e-05 -0.00014261302 0.00025249535 -0.0003350791
000040 be 40 b6 39 0e 05 33 38 40 07 3c 38 6f 24 a9 bb
       0.00034761982 4.2681633e-05 4.4829445e-05 -0.005161814
000050 58 76 74 ba 46 8e bd bb 0e d8 3d b9 a8 00 f8 b8
       -0.0009325496 -0.0057847826 -0.00018104931 -0.00011825684
000060 17 e7 b7 b8 66 dc 7e b9 f3 2d d6 3a 4a 15 2c 38
       -8.769164e-05 -0.00024305432 0.0016340598 4.1027823e-05
000070 8f ce 3b 39 a0 58 2b 3a fe 5d fd 38 a8 52 3c b9
       0.00017910659 0.00065363385 0.000120814875 -0.00017959869
000080 c6 33 65 3b 04 2b b6 38 ce 72 fb b8 92 61 a5 bb
       0.0034973486 8.6864486e-05 -0.00011989997 -0.0050470317
000090 75 28 5c 39 d2 6f 2b bb 0d 66 26 3a 08 7f 70 b7
       0.00020995906 -0.002615918 0.0006347604 -1.43346915e-05
0000a0 6c eb f0 ba b8 b4 b5 39 a9 72 85 b8 9e 90 1b b8
       -0.0018380708 0.00034657656 -6.363291e-05 -3.7089565e-05
0000b0 44 48 40 bb 90 24 03 b7 98 26 46 38 00 6e 95 b8
       -0.0029339949 -7.816721e-06 4.7242822e-05 -7.125363e-05
0000c0 95 32 1a 39 58 c1 31 b9 3c 6c 2b 39 2e d6 28 b9
       0.00014705428 -0.00016952062 0.00016348151 -0.00016101517
0000d0 c0 e3 8d 3b b8 cd 87 37 a2 b1 ba 39 df 6e 7e 3a
       0.0043301284 1.618905e-05 0.0003560903 0.0009705852
0000e0 2a 0a 87 ba e9 0a e0 b7 98 90 f1 b7 58 0a 93 39
       -0.0010302712 -2.6707961e-05 -2.879677e-05 0.00028045732
0000f0 52 1b b4 b8 9b ee 74 b9 44 0c 4e 38 68 c9 7b bb
       -8.588158e-05 -0.00023358541 4.912565e-05 -0.0038419608
000100 80 c8 14 38 f4 4d 10 ba 72 81 fd 3b 4a bb f7 b9
       3.547268e-05 -0.000550478 0.0077363783 -0.00047251052
000110 dc b0 86 b7 28 f3 6a 39 57 d1 2c 39 7f f0 05 b9
       -1.6056401e-05 0.00022406562 0.00016481183 -0.0001277346
000120 19 30 50 3b 04 4f 21 39 d8 eb 31 38 fd 93 26 39
       0.003176695 0.00015383592 4.2419735e-05 0.00015886124
000130 e0 65 f9 36 1e 41 ea 3b c0 98 50 3a 8b ac ca bb
       7.432638e-06 0.007148876 0.0007957332 -0.0061851195
000140 a8 ee e1 b8 6d c6 54 b9 2e 77 96 b8 59 dc ca b8
       -0.00010773289 -0.00020291815 -7.174756e-05 -9.6731535e-05
000150 e2 87 19 b9 fe 88 3e 39 ac 5a 05 3b ed 0e 79 3a
       -0.00014641837 0.00018170846 0.0020348234 0.00095008203
000160 21 1b 83 3a d5 5c 16 b9 06 34 be b8 07 04 2c b9
       0.0010002592 -0.00014339697 -9.069596e-05 -0.00016404699
000170 c0 f7 a3 39 40 b4 9c b9 ca e6 ca b8 a6 d0 19 39
       0.0003127437 -0.00029888935 -9.6750984e-05 0.00014668945
000180 06 ec 61 b8 db 18 1c 3a 16 0c 23 bb 6d a2 05 3c
       -5.3863994e-05 0.00059546315 -0.002487903 0.008156401
000190 d5 d4 09 38 a4 7c 75 3a a8 61 b2 38 38 09 81 b8
       3.286156e-05 0.0009364581 8.505891e-05 -6.1529165e-05
0001a0 d0 1a a7 b9 c2 eb 54 38 74 54 1d bb 54 d3 fa b8
       -0.000318727 5.0764305e-05 -0.0024006637 -0.00011960292
0001b0 40 fa c8 39 4e 5c c6 38 0e ab 0a 3b 5f b4 7e bb
       0.00038333423 9.458569e-05 0.0021159085 -0.0038864834
0001c0 46 b1 ab b8 f4 f7 bd b8 18 dc c7 b9 86 8d 14 b8
       -8.186935e-05 -9.058407e-05 -0.0003812022 -3.5417754e-05
0001d0 92 25 00 b8 31 1d 59 b9 c7 47 47 bb fe 9b 63 3b
       -3.055257e-05 -0.00020705607 -0.0030407773 0.003473043
0001e0 34 f6 8b 39 f6 79 65 b8 d0 b3 56 b9 08 6b f9 ba
       0.00026695582 -5.471144e-05 -0.00020475616 -0.001902909
0001f0 08 29 30 3a 06 48 14 37 41 4c c2 38 1a a8 80 b7
       0.00067199813 8.838257e-06 9.264844e-05 -1.5337067e-05
000200 e4 74 cb b8 96 b1 92 3b 99 83 2c 38 93 b9 f4 38
       -9.701567e-05 0.0044767363 4.1130555e-05 0.000116693926
000210 22 2c d6 b8 d8 66 86 bb 58 5e 09 38 85 e5 83 b9
       -0.000102125356 -0.0041016154 3.275121e-05 -0.00025157272
000220 a2 e8 7f b8 5a 6e c2 ba dd 79 13 3a d0 c9 23 b8
       -6.1013394e-05 -0.0014833913 0.0005625764 -3.905018e-05
000230 7b 27 86 39 32 83 cb b8 80 3e 97 37 f8 da c8 36
       0.00025587887 -9.704231e-05 1.8029707e-05 5.985956e-06
000240 02 31 74 ba 6c ff 74 ba 45 eb 66 b8 76 bc 51 b8
       -0.0009315164 -0.0009345922 -5.5055385e-05 -5.0005e-05
000250 a6 3f bb 39 22 93 f6 b9 4a b6 b5 38 15 b0 2f bd
       0.0003571484 -0.000470304 8.6647065e-05 -0.042892534
000260 d6 06 85 b9 98 a4 2c 38 b8 9a e3 39 2a 87 83 38
       -0.0002537283 4.1161285e-05 0.00043412088 6.271743e-05
000270 8b 65 0f 3b 3d 25 e6 ba 2e 3a f5 38 3d 02 d0 3b
       0.0021880593 -0.0017558705 0.00011693347 0.006347923
000280 e6 7d bf 3b 14 90 8d b9 26 ac f1 ba 4e 6f ad 38
       0.0058438657 -0.00027000962 -0.0018438145 8.270015e-05
000290 f9 5b a6 38 ae 1c fb 3a bc 8b f4 38 80 6b 31 b4
       7.932628e-05 0.0019158327 0.00011660854 -1.6523518e-07
0002a0 26 f5 e4 3a 6c 73 e3 b8 98 7a d4 b8 80 61 fd b7
       0.001746808 -0.000108457025 -0.000101317826 -3.0205352e-05
0002b0 06 4f b8 38 b5 87 64 38 7a 13 c7 b8 ee a6 22 ba
       8.788523e-05 5.4485823e-05 -9.492687e-05 -0.0006204684
0002c0 4f 13 35 ba a1 e3 e7 ba bc a4 44 3a cb 8d 65 b9
       -0.0006907479 -0.001769174 0.0007501354 -0.00021891964
0002d0 88 36 51 ba 40 52 d1 35 76 b9 7b 3a 3e b2 f2 38
       -0.0007980843 1.5595651e-06 0.0009602526 0.000115726594
0002e0 42 33 70 bb 5e 1a a9 3a 80 2f 9a b9 b6 5d 0c 3b
       -0.0036651646 0.0012901535 -0.0002940856 0.002141816
0002f0 ac bc a6 37 58 3f e2 39 c5 cd c4 3b 98 d5 d7 b9
       1.98766e-05 0.00043153274 0.006005975 -0.00041167135
000300 59 1a c7 38 68 16 7c 38 f9 10 3c 3a b8 09 29 36
       9.493967e-05 6.010235e-05 0.000717416 2.518862e-06
000310 3c 48 6b bd 3a 70 1a b8 45 24 d1 39 8a 41 72 37
       -0.057441935 -3.682098e-05 0.0003989061 1.44395835e-05
000320 84 b6 a4 37 f1 db 58 3b 24 d5 78 38 a0 3f d3 38
       1.9635314e-05 0.003309008 5.932631e-05 0.00010073115
000330 da 2d dd 3b 49 ca 8b 3c 2d c8 94 b8 b7 42 46 39
       0.0067498507 0.01706423 -7.0944756e-05 0.00018907605
000340 03 fa 1a b9 27 70 b8 38 85 8d 54 3a e4 98 9b bb
       -0.00014779721 8.794694e-05 0.0008108246 -0.0047484506
000350 05 75 87 39 1c fa 01 3a 61 37 c6 3a c6 41 30 3b
       0.00025836393 0.00049582287 0.0015122705 0.0026894673
000360 2a 9b 3a 3b 46 21 27 39 59 9c 3f 39 db 8d bc bb
       0.0028473833 0.00015938756 0.00018273423 -0.005754215
000370 44 00 22 3b 65 7a 38 bd 2a 84 44 bb 08 65 29 b8
       0.0024719397 -0.0450386 -0.0029986002 -4.0386833e-05
000380 0a 0d bc b9 90 1a 2f 3b d0 1f 09 bc 28 77 ef b8
       -0.0003586787 0.0026718713 -0.008369401 -0.00011418603
000390 d8 af 12 39 cb 33 97 ba 0c c9 58 39 0b cb 0c 39
       0.00013989152 -0.0011535821 0.00020674261 0.0001342708
0003a0 3e c9 0f 3a 7e 07 83 38 30 d7 83 b8 6e 67 64 bb
       0.00054850045 6.247962e-05 -6.2866486e-05 -0.0034851688
0003b0 d9 c1 ca b9 80 92 89 bc 21 19 55 3b 28 b0 9d b8
       -0.0003867287 -0.01679349 0.0032516199 -7.519155e-05
0003c0 06 66 01 bb 58 85 56 b9 5a bc 04 b9 44 5a 93 3a
       -0.0019744649 -0.00020458305 -0.00012658667 0.0011242111
0003d0 c4 2d 29 39 44 09 6e 39 e2 7e 39 bb 72 b5 07 39
       0.00016134145 0.000227009 -0.0028304388 0.00012942197
0003e0 30 3c 5b b7 0b dc 26 b9 d5 ad b7 3a 48 09 9c bb
       -1.3067431e-05 -0.00015912966 0.0014013598 -0.0047618486
0003f0 e8 38 60 bb 88 64 ee 39 7f d1 41 3a cc 05 98 39
       -0.0034213606 0.000454698 0.0007393583 0.00028996018

fc2.bias f4 [20]
000000 2f 0f a3 3a 46 47 4e b9 1e e5 a7 38 0a d9 12 b9
       0.0012440438 -0.00019672242 8.005857e-05 -0.00014004498
000010 4c 9d 4f b8 86 13 77 b9 fb b2 79 b8 d7 c8 e5 39
       -4.949914e-05 -0.00023563029 -5.9532915e-05 0.0004382792
000020 9d 07 05 3a be 2f d3 38 c2 65 e5 b7 a5 d4 4a 39
       0.0005074682 0.00010070157 -2.7346312e-05 0.00019343437
000030 61 02 42 b9 3b 40 4a 39 89 76 d7 b6 bc 23 09 b9
       -0.00018502168 0.00019288149 -6.4212986e-06 -0.0001307865
000040 e6 18 c3 39 26 0b 5e ba c1 1d b8 b8 99 ca 0f ba
       0.0003721185 -0.0008470289 -8.779346e-05 -0.00054852065

fc3.weight f4 [2, 20]
000000 dc d5 57 b8 22 58 10 bd f1 c4 72 b9 01 b4 b0 bb
       -5.1459167e-05 -0.0352403 -0.00023152285 -0.005392552
000010 50 ae 4d ba e8 20 99 37 ab c0 e2 b7 b5 5c 95 bd
       -0.0007846104 1.8254344e-05 -2.7031017e-05 -0.07293073
000020 ec 1c f2 b6 7e 4f 92 bc 3c b9 81 bd 75 db 90 bd
       -7.215529e-06 -0.01786017 -0.06334159 -0.07073108
000030 8a 79 d6 b6 be 5c 1c b7 92 1f a8 36 b1 12 8f bd
       -6.391846e-06 -9.319918e-06 5.0104654e-06 -0.06985987
000040 4e 2a ac bd e7 54 51 bd 67 a9 0b 38 48 6c 9b bd
       -0.084065065 -0.05110636 3.329795e-05 -0.075890124
000050 94 7c 63 37 47 24 69 bd 20 8c a2 37 68 be 07 b9
       1.355926e-05 -0.056919362 1.9377156e-05 -0.00012945535
000060 b6 7b 2c bc a8 89 8b 36 12 06 1f b7 36 08 9b b8
       -0.010527542 4.158548e-06 -9.478552e-06 -7.392505e-05
000070 10 d4 83 37 41 4c 36 bd be f4 34 b7 9b 70 76 bd
       1.5715166e-05 -0.044506315 -1.07858195e-05 -0.060165983
000080 29 6d 11 bd 22 a8 07 b8 ec 0d c1 bc 29 90 97 bd
       -0.035504494 -3.2343094e-05 -0.023566209 -0.07400543
000090 80 0c 94 b6 92 b7 ab b7 52 5b d0 37 9c 2f 89 bd
       -4.412199e-06 -2.047027e-05 2.4838057e-05 -0.06698534

fc3.bias f4 [2]
000000 49 1f da 38 ec a5 ef 37
       0.00010400877 2.8568284e-05

fc4.weight f4 [1, 2]
000000 b9 c8 d3 c2 14 87 d4 c2
       -105.89204 -106.263824

bn1.weight f4 [200]
000000 d8 09 10 b9 70 97 17 3a d8 ca 81 37 60 1b c4 b9
       -0.00013736577 0.0005782759 1.5472455e-05 -0.0003740443
000010 15 ba 02 ba 0c e5 f6 ba f0 d5 f9 b9 1e 92 b0 39
       -0.0004986835 -0.0018836572 -0.00047652377 0.00033678202
000020 9e 44 a9 39 b8 3a 86 39 17 48 97 b9 e6 39 93 b7
       0.00032285316 0.0002560222 -0.00028854675 -1.7550727e-05
000030 64 2e 58 3a 16 69 4e 3a 04 ae f0 38 d6 e1 a3 ba
       0.0008246659 0.00078739354 0.00011476505 -0.0012503217
000040 c5 37 d3 3b 94 19 0e b9 b6 1e 41 ba e4 d5 4f ba
       0.006445857 -0.00013551704 -0.0007366942 -0.00079282955
000050 a4 30 79 ba 21 f6 ea 3d 10 54 2f b9 99 08 ec b9
       -0.0009505844 0.114727266 -0.00016720616 -0.00045019833
000060 e8 f1 bf b7 92 18 01 39 92 05 c2 39 4d df a5 38
       -2.288162e-05 0.00012311552 0.00037006714 7.909406e-05
000070 63 ce 9c b9 58 64 77 3b 1e 22 dc ba a4 f6 c2 39
       -0.0002990841 0.0037749019 -0.0016794836 0.00037186325
000080 72 ab 50 bb 1a 44 92 39 00 23 bd 39 bc ba 1b b9
       -0.003184047 0.0002789803 0.00036074966 -0.00014851516
000090 36 67 12 3a f2 81 2c bc 58 62 3c bb 70 b5 15 3a
       0.00055848376 -0.010529028 -0.002874514 0.0005710935
0000a0 81 29 8f 3b 06 20 52 ba 6d 08 00 39 7f dc 5e 39
       0.0043689613 -0.0008015636 0.0001221017 0.00021253711
0000b0 00 58 f4 39 36 8e 0a b9 10 ed 72 37 de 19 4e b9
       0.00046604872 -0.00013213683 1.4479519e-05 -0.00019655327
0000c0 7c 17 39 39 1a 63 68 39 80 0f b3 39 b0 d7 0b 38
       0.00017651723 0.00022162162 0.0003415309 3.3341057e-05
0000d0 ba 05 4f 3c c0 81 9a 39 d6 a7 e4 37 16 d3 28 b9
       0.012635643 0.0002946984 2.7257873e-05 -0.00016100364
0000e0 9a 9f 37 39 d9 e7 d9 b9 48 36 81 b8 18 83 5d b8
       0.00017511696 -0.00041562205 -6.16131e-05 -5.2812597e-05
0000f0 42 e0 e9 b9 1a 6b 32 3b aa 0f 10 39 31 d0 ae ba
       -0.00044608308 0.0027224482 0.00013738745 -0.0013337192
000100 a0 89 8b 38 1b 3c 35 39 a8 ae b9 ba 37 30 40 3a
       6.653671e-05 0.00017283896 -0.0014166432 0.00073314033
000110 51 15 13 ba f4 c9 0a 38 b2 1f 56 bb 98 bf 53 3a
       -0.00056107814 3.3089847e-05 -0.00326727 0.0008077561
000120 51 a1 5f 3a a2 c6 12 b9 e7 01 24 38 9e 99 9b b9
       0.0008530813 -0.00013997642 3.910242e-05 -0.00029678358
000130 bc 57 40 39 03 e4 85 3b 26 68 90 b8 29 10 06 3a
       0.0001834323 0.004086019 -6.885854e-05 0.00051141024
000140 51 78 83 39 60 26 ad b8 e9 87 63 b9 ff 21 3c 3a
       0.0002507591 -8.256431e-05 -0.00021699037 0.00071766967
000150 fd 82 f1 39 da db a2 38 19 1f 55 3a 4a 32 f1 39
       0.00046064696 7.7657125e-05 0.0008129939 0.0004600457
000160 e2 88 1e b9 9c 7c 35 b9 67 a0 93 39 74 3e d1 39
       -0.00015119047 -0.00017307926 0.00028157534 0.00039910118
000170 56 2c 7f b9 d3 33 30 ba 6d fb 97 3a 5d 75 cf 38
       -0.00024335211 -0.00067215896 0.0011595316 9.89239e-05
000180 f0 67 ac 38 03 af d0 b9 c3 b2 1b bb 4b 1b 48 bb
       8.220959e-05 -0.00039803245 -0.0023757673 -0.0030533846
000190 76 0f 95 38 4e 66 94 38 98 82 da b8 dd 46 89 39
       7.1077535e-05 7.076246e-05 -0.00010419375 0.00026183474
0001a0 a8 a4 1d 38 3b 6b ff 38 ee 9e fa ba be d4 20 b8
       3.7585065e-05 0.00012179321 -0.0019120851 -3.8345104e-05
0001b0 74 98 e9 ba 09 b1 e2 b8 78 c7 11 39 3e 8c b2 3b
       -0.0017821924 -0.00010809495 0.00013902585 0.005448847
0001c0 a1 fe fc b8 90 ca d9 37 2c 8f 11 bc 8f 84 12 b9
       -0.00012063725 2.5962741e-05 -0.0088842325 -0.00013973027
0001d0 c8 59 c9 39 f8 01 dd ba 91 b1 7e 3a 29 35 67 3c
       0.000384046 -0.0016861549 0.00097157905 0.014111795
0001e0 fa 28 ae b9 4c 2e 04 39 8b 02 4e 39 b6 f9 87 ba
       -0.00033218396 0.00012605748 0.00019646638 -0.0010374102
0001f0 74 52 91 39 38 0d 20 3a 64 ae 45 39 8d 26 11 39
       0.00027717988 0.00061054854 0.0001885235 0.00013842639
000200 e0 6f 96 b9 8c a5 ba 3a 36 6a 82 39 1c b2 40 39
       -0.00028693583 0.0014240011 0.00024874666 0.00018376898
000210 42 97 98 ba 27 02 69 39 e2 d0 cd b9 cc 55 c3 b7
       -0.0011641758 0.00022221413 -0.00039256277 -2.3285764e-05
000220 d0 29 71 b8 44 10 98 38 51 50 61 3a 52 f7 1b 39
       -5.749782e-05 7.2509545e-05 0.0008595037 0.00014874086
000230 e4 20 9c 38 82 aa 57 b9 ef dc 52 3a b6 9e 21 b9
       7.444786e-05 -0.00020567517 0.0008043786 -0.00015413281
000240 55 93 d6 b9 5b 9e 28 3b 3f f9 08 3a 82 1b 6a 39
       -0.00040927032 0.0025729153 0.0005225129 0.00022326226
000250 20 e2 4f 39 e2 86 10 39 98 74 e9 bb 88 cb ef 3b
       0.00019825296 0.00013783158 -0.0071244948 0.007317964
000260 a6 3d 4c 3a a8 ba cb b9 11 54 a3 ba 4c 92 11 ba
       0.0007791169 -0.00038858247 -0.0012460967 -0.0005553111
000270 7a 95 80 b8 b8 1d 69 39 68 a0 f6 b6 30 96 24 39
       -6.131358e-05 0.00022231683 -7.350045e-06 0.00015696208
000280 3c d3 7a 39 40 f0 9d b7 24 6c a2 b9 1e 20 fc b9
       0.00023920549 -1.8827734e-05 -0.0003097962 -0.00048089115
000290 5c eb 2a ba 7a 81 4c 38 c6 d2 ce b9 c4 89 58 b9
       -0.00065200566 4.8757975e-05 -0.0003944842 -0.00020650687
0002a0 68 23 c4 39 30 75 f2 b8 99 20 75 39 2a e2 cd 39
       0.00037410413 -0.00011561287 0.00023377164 0.00039269152
0002b0 27 42 a0 b8 d4 42 59 3a e0 94 b0 39 2d 13 d0 39
       -7.6417164e-05 0.0008287851 0.00033680256 0.0003968714
0002c0 b6 33 6a 3a 48 3b c7 38 de ab 02 b9 5e 87 c4 b9
       0.0008934097 9.5001014e-05 -0.00012461792 -0.0003748489
0002d0 8a 50 ec b9 5a 87 01 b9 e9 8e a9 39 ac ac c0 b9
       -0.00045073434 -0.00012352821 0.00032340668 -0.00036749744
0002e0 0c c5 8a b9 39 43 8d 3b f7 72 92 38 b8 bf 55 37
       -0.00026468222 0.004310992 6.9832364e-05 1.2740427e-05
0002f0 9c 79 ad b9 76 7b b7 b8 86 ee 9f b9 5a a9 ad 39
       -0.00033087737 -8.7491164e-05 -0.00030504557 0.00033123308
000300 6a b2 75 39 2e cc fc b7 8d 2d 7b 3b fc 91 9b ba
       0.00023431485 -3.013582e-05 0.003832671 -0.0011869068
000310 21 78 f1 3d 48 8f 2d 3a 20 a7 f6 b9 8e 55 c5 b9
       0.11790491 0.0006620777 -0.00047045294 -0.0003763851

bn1.bias f4 [200]
000000 73 97 80 39 fc 11 8b ba 9c 9e e6 b8 e4 56 59 39
       0.000245269 -0.0010610218 -0.00010996798 0.00020727102
000010 54 df f1 b9 78 aa a0 b9 34 6a 49 b9 18 dd b3 39
       -0.00046133494 -0.00030644587 -0.00019208418 0.00034306268
000020 0f eb 95 39 91 b9 36 b9 5d de d5 b8 f0 19 1f 39
       0.00028594627 -0.00017426001 -0.0001019805 0.00015173084
000030 2e c0 31 b9 bd 0e 9a b9 2c 74 03 3b 77 60 36 3a
       -0.00016951628 -0.0002938415 0.0020058258 0.00069571234
000040 de d3 6b ba b0 fd dd b9 ac 34 12 b9 20 4d 36 b9
       -0.0008996109 -0.00042341417 -0.00013943267 -0.00017385604
000050 b2 70 8b 39 47 2a 52 39 36 72 93 39 29 db 0e b9
       0.0002659611 0.0002004291 0.0002812312 -0.00013623819
000060 1e cd d1 b9 64 fb 09 3a 82 b5 a6 39 d8 d8 fa b8
       -0.0004001641 0.00052635954 0.0003179722 -0.00011961319
000070 8c a1 12 b9 4c ec b4 39 bb 06 fb b9 98 f4 e5 b8
       -0.00013983826 0.0003450833 -0.00047879465 -0.0001096513
000080 d8 ca c3 b9 7c 60 8a b9 67 6b ea b8 fe 74 e1 39
       -0.0003734443 -0.00026393298 -0.00011177995 0.0004300251
000090 1a de 98 39 14 b2 49 39 5a 17 2b b9 60 70 d7 b8
       0.00029157178 0.00019235193 -0.0001631653 -0.000102729304
0000a0 06 27 6e b9 f3 d2 c1 39 80 2f e3 b8 42 34 ba b9
       -0.00022711986 0.00036968998 -0.00010833051 -0.0003551562
0000b0 62 c5 af 38 04 d3 bd b9 56 e9 d1 b9 48 da 86 b9
       8.381416e-05 -0.00036206108 -0.00040037435 -0.00025721104
0000c0 32 21 19 39 49 88 a4 b9 47 dd 3f 39 86 fb 2b 39
       0.00014603583 -0.00031382058 0.00018297612 0.0001640153
0000d0 b5 1d b8 b9 77 3d ec b9 98 66 5e 39 aa 78 6e 39
       -0.00035117348 -0.00045059223 0.00021209789 0.000227424
0000e0 32 b7 49 39 3a 69 a5 39 90 4d fc b8 8b 00 22 b9
       0.000192371 0.00031549652 -0.000120307435 -0.00015449726
0000f0 31 c1 c6 39 1b df 3b b9 e2 5e 9b 39 4f 4a da 39
       0.00037909442 -0.00017916823 0.00029634597 0.00041635564
000100 a7 3e b8 39 0c e7 6d 39 f0 73 ab 3a cd 5a 2a b9
       0.00035141894 0.00022688153 0.0013080817 -0.0001624629
000110 b6 cc 92 39 8d 52 d7 b9 04 5c 56 39 30 13 6b ba
       0.00027999812 -0.000410695 0.00020442909 -0.0008967398
000120 46 8b 3f 39 12 90 13 3a 9e 62 96 b9 2e 7a 78 b9
       0.00018267063 0.0005629073 -0.00028683705 -0.00023696639
000130 78 9d 21 b9 10 fa 3a 3a 59 64 b6 b9 2d 2c 93 39
       -0.00015412818 0.0007132599 -0.0003478851 0.00028070938
000140 3e c1 97 39 fa 53 67 3a 51 0f f0 b8 28 b2 cc 39
       0.0002894494 0.0008824464 -0.00011446945 0.0003904265
000150 a9 74 77 39 e5 63 9f 39 5a ae 36 39 16 20 b5 39
       0.00023599215 0.0003040127 0.00017421824 0.00034546916
000160 56 75 f6 b9 96 6a 1d b9 7c ab 62 b9 74 c9 5d 39
       -0.00047008198 -0.00015012393 -0.00021616922 0.0002115125
000170 26 60 e6 39 c2 61 cb b9 8d 9f bf b9 84 a6 ea 39
       0.00043940655 -0.00038792012 -0.00036549233 0.00044756022
000180 3a 6d ae b9 f1 33 8e 39 cc ef 9f 39 63 de d8 38
       -0.00033269246 0.0002712305 0.00030505506 0.000103411054
000190 92 39 5e 39 90 97 ac 39 1c ce 2e b9 51 3c 0d b9
       0.00021193016 0.0003291932 -0.00016670715 -0.00013469277
0001a0 f7 ff 2f 3a 7b d9 99 39 66 07 8e b9 e8 14 39 39
       0.0006713862 0.0002934447 -0.00027089863 0.00017650763
0001b0 6a c0 9c 39 f6 81 64 39 10 cf d6 39 e0 7b f2 b9
       0.00029897998 0.00021792189 0.00040971534 -0.0004625013
0001c0 c0 05 16 b9 7e 30 03 b9 28 05 e4 39 85 05 29 39
       -0.00014307257 -0.00012511198 0.0004349139 0.00016119152
0001d0 54 c1 a0 b9 2f 4b 99 3a 1f d2 b0 ba 00 dc 59 39
       -0.0003066162 0.001169538 -0.0013490355 0.00020776689
0001e0 e8 ee 08 b9 31 40 83 39 a4 e1 b7 b9 a2 a5 9b 39
       -0.0001305897 0.00025034093 -0.00035072595 0.0002968731
0001f0 67 28 a0 39 04 6a dd b9 e2 41 28 39 29 e8 81 39
       0.0003054768 -0.00042231393 0.00016046272 0.0002477777
000200 a5 09 18 39 78 38 d2 38 74 fa 30 b9 6f b4 65 ba
       0.00014499442 0.000100240984 -0.00016877969 -0.00087625434
000210 70 14 05 39 3d c4 ce b9 d5 07 94 b9 3c 2f f4 39
       0.00012691482 -0.0003943759 -0.00028234595 0.000465745
000220 45 99 8a b9 03 8f 22 39 4a eb 89 39 28 61 6c 39
       -0.00026435606 0.000155028 0.0002630598 0.00022542907
000230 66 d9 17 3a e9 68 d2 b9 0e 31 09 b9 ed 93 40 b9
       0.0005792588 -0.00040132485 -0.00013083612 -0.00018365654
000240 af 32 22 bb ad b7 ef 38 46 0f 56 39 cb ad 00 3a
       -0.0024749448 0.0001143062 0.0002041432 0.00049087097
000250 3b f6 b9 b9 a0 9a 93 b9 55 0a b7 39 41 13 29 39
       -0.00035469406 -0.0002815323 0.00034912178 0.00016124269
000260 44 ea 6a 39 81 c1 28 ba 3f 1a aa ba 0f 34 56 b9
       0.0002240325 -0.0006437526 -0.0012977793 -0.00020428024
000270 2a d9 81 3a 38 9d 81 bb 94 e7 61 b9 5c bf 4a 39
       0.0009906639 -0.0039555095 -0.00021543942 0.00019335508
000280 29 22 33 39 87 27 fd b8 a4 03 38 b9 58 e1 52 b9
       0.00017083496 -0.00012071343 -0.00017548964 -0.00020111108
000290 61 ff bf b9 ec 95 db 3a a6 e2 ec b9 e0 0a 7c b9
       -0.0003662063 0.0016753054 -0.00045182294 -0.00024036644
0002a0 fc 5b 42 39 de 24 b2 b9 6d 9a 7f 39 3e 4a 59 b9
       0.00018535549 -0.00033978274 0.00024376223 -0.0002072239
0002b0 86 08 2d ba 04 49 07 39 c5 8d 9c b9 12 d9 31 3a
       -0.00066006964 0.00012901804 -0.00029860265 0.000678436
0002c0 6e d1 3a b9 1c 72 f0 39 02 ac 84 b9 04 99 47 3a
       -0.00017816361 0.00045861385 -0.00025305158 0.00076140487
0002d0 c1 10 33 b9 3f 9a 2c 39 2c 81 c5 39 c9 b2 e8 b9
       -0.00017077012 0.0001646066 0.0003767101 -0.00044383694
0002e0 7a a9 da b9 46 9f cd 39 aa 1b fd 39 b7 12 10 39
       -0.0004170647 0.00039219315 0.00048276532 0.00013739882
0002f0 a8 18 a5 39 de 83 bb 39 cc 27 51 39 7a db 08 ba
       0.00031489623 0.00035765668 0.00019946619 -0.0005220693
000300 1d fd 51 b9 8f 08 32 39 33 e7 84 39 6c b5 4b 39
       -0.00020026085 0.00016978591 0.0002534926 0.00019427174
000310 eb 69 c1 b9 b6 ad 42 b9 ad 86 33 b9 68 5a 04 3a
       -0.00036890744 -0.00018565994 -0.00017120941 0.0005048872

bn1.running_mean f4 [200]
000000 e1 f0 b3 46 ee d6 4b 46 7c c0 e2 46 a5 96 cf 46
       23032.44 13045.732 29024.242 26571.322
000010 00 b1 d3 43 96 0a 2f 46 f6 16 4c 40 56 dd ce 46
       423.3828 11202.646 3.1889014 26478.668
000020 3a 0c e4 43 e6 a9 27 42 71 ef c4 46 22 ef 4c 44
       456.09552 41.915916 25207.72 819.73645
000030 27 08 a1 46 c8 bb d5 46 ad 4b 4d 46 33 58 3a 41
       20612.076 27357.89 13138.919 11.646533
000040 21 79 7d 42 69 f8 34 44 71 8c df 46 6e 5a 2c 43
       63.36829 723.8814 28614.22 172.35324
000050 4c 4d 3e 46 00 00 00 00 79 78 bf 46 1a 5b f1 43
       12179.324 0.0 24508.236 482.71173
000060 66 3d d1 46 6b de 5a 45 67 62 38 45 30 ae 49 45
       26782.7 3501.9011 2950.1501 3226.8867
000070 64 c4 d4 46 4f e6 e3 45 5c c0 20 44 9a ef ce 46
       27234.195 7292.7886 643.0056 26487.8
000080 4f 0b 1d 42 56 5c a4 46 05 f9 ee 46 f9 5e 64 46
       39.261044 21038.168 30588.51 14615.743
000090 65 f6 df 46 08 aa 9b 41 c6 15 9c 41 a5 aa ce 46
       28667.197 19.458023 19.510632 26453.322
0000a0 b3 72 dd 44 71 f3 f5 45 f7 ee ef 46 5c 0d 90 46
       1771.5844 7870.43 30711.482 18438.68
0000b0 7c ae c0 41 e1 c6 c8 46 f3 91 bf 44 87 bf b8 46
       24.085197 25699.44 1532.5609 23647.764
0000c0 bc d9 d4 46 ce 1c 51 46 79 8b 8e 46 51 50 f9 44
       27244.867 13383.201 18245.736 1994.5099
0000d0 cd e5 8e 44 00 f6 94 46 14 d9 3d 45 ec c2 c6 46
       1143.1813 19067.0 3037.5674 25441.46
0000e0 28 ab b3 41 42 37 94 46 6d 16 56 45 f2 37 f7 46
       22.458572 18971.629 3425.4016 31643.973
0000f0 9e 69 c5 46 cc b1 02 43 77 f3 c5 46 eb fa 63 42
       25268.809 130.69452 25337.732 56.995037
000100 55 58 d5 46 52 6e 20 46 a2 ad 0f 46 e6 d8 02 42
       27308.166 10267.58 9195.408 32.711815
000110 9e 9d 8f 46 5d de 94 45 fc 5e 4c 40 a2 2d b9 46
       18382.809 4763.7954 3.1932974 23702.816
000120 b5 17 82 46 e2 a3 c8 46 84 c2 43 44 61 4e e8 46
       16651.854 25681.941 783.0393 29735.19
000130 15 fc a9 46 fd 33 3a 43 17 3c c8 46 75 9e 4a 46
       21758.041 186.20308 25630.045 12967.614
000140 68 89 a1 46 88 90 2d 44 21 a9 c2 46 1e 32 c3 46
       20676.703 694.2583 24916.564 24985.059
000150 83 ea 79 42 dd 70 be 46 e1 0e 2e 45 56 74 b5 46
       62.479015 24376.432 2784.93 23226.168
000160 fa c4 3e 45 c3 12 a3 46 d9 b6 7b 42 27 2b e3 46
       3052.311 20873.38 62.928562 29077.576
000170 32 c5 df 40 cf 7d 00 45 1a 87 6d 43 bf ee c9 46
       6.9928217 2055.863 237.52774 25847.373
000180 df 1a 95 46 08 73 b5 46 14 70 2d 46 b3 bb 82 41
       19085.436 23225.516 11100.02 16.34165
000190 71 16 0f 47 62 d0 b8 44 d7 fd cd 46 b9 8c ca 46
       36630.44 1478.512 26366.92 25926.361
0001a0 db 1d c7 46 f5 6d 13 45 18 ca 0c 45 28 9c 08 43
       25486.928 2358.8723 2252.6309 136.60999
0001b0 e8 f5 0f 42 50 c7 5a 46 9d cb 36 46 f5 ed e0 3f
       35.990143 14001.828 11698.903 1.7572619
0001c0 47 72 e7 44 65 56 d7 46 aa 5b 79 3e 7d e3 6e 45
       1851.5712 27563.197 0.24351373 3822.218
0001d0 2e 8c bc 46 7e 8e 57 41 68 0f fd 45 00 00 00 00
       24134.09 13.472288 8097.926 0.0
0001e0 4c b3 b3 46 ce fc 0a 47 a8 4d c5 46 72 06 8d 46
       23001.648 35580.805 25254.828 18051.223
0001f0 b3 45 b6 46 00 00 00 00 3d a3 7c 44 a3 76 f3 46
       23330.85 0.0 1010.5506 31163.318
000200 04 df 19 44 0f 76 ee 44 8a cc 8f 46 64 31 d1 46
       615.4846 1907.6893 18406.27 26776.695
000210 b4 cc 9a 46 34 b3 f0 3e 0e a4 97 46 55 a8 98 46
       19814.352 0.4701172 19410.027 19540.166
000220 9a 29 87 44 e5 cb d8 45 75 9f 29 46 43 56 88 46
       1081.3 6937.487 10855.864 17451.13
000230 bf 02 cf 44 dd 20 f1 46 f0 c2 95 43 cd 58 01 47
       1656.0858 30864.432 299.52295 33112.8
000240 52 1d c1 46 e4 a0 0e 46 26 d8 87 46 8f 89 a4 46
       24718.66 9128.223 17388.074 21060.78
000250 b6 5b 8c 42 b0 d0 61 45 d2 b6 80 3e 00 00 00 00
       70.17912 3613.043 0.2513948 0.0
000260 03 b6 b7 46 f9 8d c5 44 72 03 de 3d 11 dc a2 46
       23515.006 1580.4366 0.10840501 20846.033
000270 2e 42 3c 46 33 46 0d 46 20 8d c5 46 03 fb 53 46
       12048.545 9041.55 25286.562 13566.753
000280 7e b0 ce 45 96 71 2d 46 00 6f eb 45 8e 65 c6 46
       6614.0615 11100.396 7533.875 25394.777
000290 d0 79 6b 46 3a 59 3f 42 fb 4d 7c 46 ef ea ba 46
       15070.453 47.837135 16147.495 23925.467
0002a0 0b 6b 52 46 0e 87 a4 44 4f b2 47 46 1b 4c b6 46
       13466.761 1316.2205 12780.577 23334.053
0002b0 fa d4 9c 44 68 cf ae 46 7a 63 19 47 e7 c9 fe 40
       1254.6555 22375.703 39267.477 7.9621463
0002c0 7a bb a5 42 b4 6a 9d 46 fd 0e b9 42 47 13 c1 46
       82.866165 20149.352 92.529274 24713.639
0002d0 bf 5b a6 45 77 39 53 45 3b fa ad 46 35 67 42 42
       5323.4683 3379.5916 22269.115 48.60079
0002e0 3d 1b 84 44 d9 14 7c 3d 25 a1 1e 43 5d 6d c1 46
       1056.8512 0.06154332 158.62947 24758.682
0002f0 7f b7 df 46 c4 56 0c 45 e4 5a 2e 41 47 17 ad 42
       28635.748 2245.4229 10.89719 86.54546
000300 ab 18 a4 44 54 2a 3b 45 3c 91 05 46 35 60 47 43
       1312.7709 2994.6455 8548.309 199.37581
000310 00 00 00 00 82 ed 9c 46 15 d3 d0 46 b7 69 e0 46
       0.0 20086.754 26729.541 28724.857

bn1.running_var f4 [200]
000000 46 84 83 4e 7e e6 16 4e a6 a0 0c 4f f5 e3 05 4f
       1.103242e+09 6.32922e+08 2.3593385e+09 2.246309e+09
000010 14 3a a4 4a d5 3d 2a 4e 0d 73 be 45 4d 2a e4 4e
       5.381386e+06 7.1404474e+08 6094.3813 1.9139887e+09
000020 46 ae 5b 49 96 d9 b9 47 16 68 e7 4e 76 2d 9e 4a
       899812.4 95155.17 1.9411791e+09 5.183163e+06
000030 c3 c7 0b 4f e2 28 06 4f 4d fb 39 4d ee 17 c1 46
       2.3451246e+09 2.2508262e+09 1.9501589e+08 24715.965
000040 88 eb 18 48 9d 39 fa 4a ad 8e 14 4f b5 eb 71 49
       156590.12 8.1993745e+06 2.4923784e+09 990907.3
000050 8c 81 e5 4d 2b f6 27 3f 58 64 bc 4e 07 80 f6 4a
       4.8130906e+08 0.6561 1.5803464e+09 8.0773155e+06
000060 67 93 0a 4f 5e ac d3 4b 1e f3 58 4c ae 83 61 4c
       2.324916e+09 2.7744444e+07 5.6872056e+07 5.911724e+07
000070 f8 60 c3 4e 02 a8 dc 4d e4 b3 04 4b 9a 60 d2 4e
       1.638956e+09 4.6274976e+08 8.696804e+06 1.7647731e+09
000080 fc 3b eb 47 ef 7b 07 4f 8a 5d 2e 4f e3 94 45 4e
       120439.97 2.2730463e+09 2.9253658e+09 8.2871725e+08
000090 a0 90 e7 4e d7 65 47 47 5a 5e de 46 73 60 f5 4e
       1.9425075e+09 51045.84 28463.176 2.0583694e+09
0000a0 11 75 35 4c d2 e8 3e 4d 5c c3 24 4f 52 eb de 4e
       4.756794e+07 2.0018307e+08 2.7642665e+09 1.869982e+09
0000b0 b2 ec 42 47 dd 0b 32 4f 95 de 35 4b 58 a4 1e 4f
       49900.695 2.987122e+09 1.1918997e+07 2.6615706e+09
0000c0 e6 7a fb 4e 2e ee 06 4e 50 fc dc 4e a9 e1 96 4c
       2.1095677e+09 5.659391e+08 1.8537615e+09 7.910535e+07
0000d0 33 03 97 4b c2 88 f3 4e d3 eb 36 4b 07 4d cc 4e
       1.979351e+07 2.042913e+09 1.1987923e+07 1.7138001e+09
0000e0 4f 71 b0 47 68 b3 e8 4e 3d 7b 53 4c 1f 28 35 4f
       90338.62 1.9520358e+09 5.543858e+07 3.0393055e+09
0000f0 65 ee ad 4e a4 b1 b1 48 f5 49 44 4f eb 66 2b 47
       1.4590409e+09 363917.12 3.2931812e+09 43878.918
000100 cc 1d d3 4e ed c2 a5 4d 5a 3b 0d 4e 03 41 2a 47
       1.7709727e+09 3.476269e+08 5.923693e+08 43585.01
000110 05 31 df 4e 3f 88 04 4c 6f 50 33 45 b7 84 a7 4e
       1.8722659e+09 3.4742524e+07 2869.027 1.4052463e+09
000120 3a f9 9e 4e 4d 26 c7 4e 1a 00 a4 4b 22 eb 13 4f
       1.3335667e+09 1.670588e+09 2.149586e+07 2.4816604e+09
000130 2e d4 15 4f c2 29 57 49 aa cc c2 4e b8 ef 56 4e
       2.5137106e+09 881308.1 1.6340964e+09 9.015086e+08
000140 61 19 04 4f cc 34 51 4a b3 36 f8 4e 17 4c a3 4e
       2.2162557e+09 3.427635e+06 2.0821672e+09 1.3698364e+09
000150 3b b1 29 48 83 b9 a4 4e 95 cb 55 4c 33 62 94 4e
       173764.92 1.3818106e+09 5.604514e+07 1.2447318e+09
000160 d1 4c 57 4c d4 d9 13 4f d4 e9 e6 46 92 88 1c 4f
       5.643962e+07 2.4805263e+09 29556.914 2.626196e+09
000170 5a b8 5c 46 08 a6 95 4b 1f 17 29 4a 71 df cb 4e
       14126.088 1.9614736e+07 2.7703758e+06 1.7102092e+09
000180 e0 c1 d6 4e a6 e2 88 4e 9a 75 36 4e 01 9c 35 47
       1.801515e+09 1.1482775e+09 7.652901e+08 46492.004
000190 98 6e 66 4f 13 32 1c 4b 49 ab d9 4e 49 3c ff 4e
       3.8660076e+09 1.0236435e+07 1.8259406e+09 2.1410705e+09
0001a0 68 3b ca 4e 2e 07 21 4c 9a 6d 0c 4c 76 b7 0b 49
       1.6964454e+09 4.2212536e+07 3.681239e+07 572279.4
0001b0 e3 e3 07 48 f5 03 b3 4d ed 5c cf 4d 26 3e 7c 44
       139151.55 3.7542262e+08 4.348717e+08 1008.97107
0001c0 83 1b 79 4b bc fd 13 4f 2f 57 8c 42 9e d0 88 4c
       1.6325507e+07 2.4828795e+09 70.17028 7.173042e+07
0001d0 af f8 08 4f 60 b5 24 47 88 1d ed 4d 2b f6 27 3f
       2.297999e+09 42165.375 4.9726694e+08 0.6561
0001e0 ab d4 b0 4e 77 36 64 4f be 8c c1 4e ce db 9d 4e
       1.4833637e+09 3.8287747e+09 1.6236132e+09 1.324214e+09
0001f0 9d 08 97 4e 2b f6 27 3f 09 43 fd 4a 5d be 29 4f
       1.266962e+09 0.6561 8.2988845e+06 2.8478252e+09
000200 d1 9a 0b 4b 76 5d 2e 4c 5a 06 e8 4e 9b b9 d6 4e
       9.149137e+06 4.570876e+07 1.9463652e+09 1.801244e+09
000210 41 1f 03 4f b5 28 dd 43 6e 04 f2 4e ed 0e e3 4e
       2.1998636e+09 442.31802 2.0301883e+09 1.9047031e+09
000220 0f a8 36 4b 1a be cc 4c 67 34 b0 4d 41 43 01 4e
       1.1970575e+07 1.0734408e+08 3.6952803e+08 5.421671e+08
000230 2b 7c 4a 4b e5 f9 25 4f dc 84 59 49 5d 84 54 4f
       1.3270059e+07 2.7846177e+09 890957.75 3.5654444e+09
000240 c1 a5 ac 4e e0 93 04 4e c6 c4 b3 4e 74 d5 04 4f
       1.448272e+09 5.560709e+08 1.5080087e+09 2.2285814e+09
000250 ff 19 5e 48 39 67 be 4b 74 c8 20 43 2b f6 27 3f
       227431.98 2.495653e+07 160.78302 0.6561
000260 65 fd a3 4e ee 32 32 4b b3 8a 9e 40 04 b0 92 4e
       1.3756463e+09 1.1678446e+07 4.954431 1.2305044e+09
000270 eb 2d c2 4d f7 60 78 4d 89 eb 2a 4f 3e 2a 6b 4e
       4.0722365e+08 2.6044402e+08 2.8675628e+09 9.8635354e+08
000280 48 5b 2c 4d 52 ed 02 4e 5b 3c ba 4d a5 5f f9 4e
       1.8072896e+08 5.491478e+08 3.905647e+08 2.0918975e+09
000290 b7 cf 29 4e d3 78 2b 48 32 42 b3 4e f7 77 1d 4f
       7.122406e+08 175587.3 1.5037299e+09 2.641885e+09
0002a0 8c d7 32 4e 5e 29 42 4b 43 a7 46 4e e1 5c a4 4e
       7.501176e+08 1.2724574e+07 8.332126e+08 1.3787752e+09
0002b0 b1 80 7c 4b dc 18 f8 4e f1 1b 84 4f cb 9a 87 46
       1.6548017e+07 2.0811894e+09 4.4328474e+09 17357.396
0002c0 75 0c 86 48 e0 d2 dd 4e 04 5e 01 49 2b d4 c9 4e
       274531.66 1.8607923e+09 529888.25 1.6930625e+09
0002d0 43 be c1 4c 9d f1 48 4c f2 af 8c 4e 8c d8 8a 47
       1.0157724e+08 5.2676212e+07 1.1801705e+09 71089.09
0002e0 3a 07 83 4b de 0c 24 41 4a 65 85 48 d0 a2 bc 4e
       1.7174132e+07 10.253141 273194.3 1.5823933e+09
0002f0 b8 d8 08 4f 75 33 7e 4b 7e 3a 1c 46 b7 26 ba 48
       2.2959043e+09 1.6659317e+07 9998.623 381237.72
000300 d0 13 37 4b 80 d1 43 4b ed 12 f4 4d 0b ce a2 49
       1.199816e+07 1.2833152e+07 5.1186013e+08 1.3336974e+06
000310 2b f6 27 3f c8 7e ba 4e 44 c6 df 4e 4b 08 0d 4f
       0.6561 1.5644355e+09 1.8771564e+09 2.366131e+09

bn2.weight f4 [20]
000000 25 04 30 b9 d0 3d 22 b6 58 a6 7a 3d e0 36 41 b8
       -0.00016786212 -2.417586e-06 0.061193794 -4.6065892e-05
000010 57 26 8e 3d a7 5d 29 38 6d 1f 9c 39 b2 a0 f8 3d
       0.069409065 4.037996e-05 0.00029778053 0.12140025
000020 08 f3 ec 38 09 f1 6c 3d d6 11 53 3d 0e 8b d9 3d
       0.00011298625 0.057847057 0.05153068 0.10622226
000030 4d c4 5b 3d 45 e5 56 39 71 d3 79 3d aa 3a 05 3e
       0.053654004 0.0002049404 0.060992662 0.1301066
000040 3e 82 d1 3d 8d 60 0c ba 30 37 54 37 10 31 f1 3d
       0.1022992 -0.00053549634 1.2649034e-05 0.11776936

bn2.bias f4 [20]
000000 b0 3b c9 38 16 e8 3d b9 1b b8 95 38 50 08 cd b8
       9.5955445e-05 -0.00018110903 7.139166e-05 -9.77671e-05
000010 ed b2 4b b8 80 37 1e b9 2c 43 3a b8 38 32 14 39
       -4.856561e-05 -0.0001508873 -4.4408414e-05 0.00014133088
000020 e8 88 3a b8 ab af a9 39 82 eb 36 b8 48 1c 1f 39
       -4.447336e-05 0.00032365075 -4.3611515e-05 0.00015173957
000030 e4 45 44 38 43 6a 51 39 94 e7 26 39 16 9a 62 39
       4.6795132e-05 0.00019971379 0.00015917263 0.00021610441
000040 61 67 09 38 ad df 92 39 52 21 ee b9 6f fb 48 b9
       3.2759624e-05 0.00028013941 -0.00045419723 -0.00019167153

bn2.running_mean f4 [20]
000000 72 e9 94 3f 64 c0 89 3f bb 6e 1e 3f 8d f3 ac 3f
       1.1633742 1.0761838 0.6188771 1.3511826
000010 2a 95 e2 3f 8c f4 87 3f e2 b6 d1 3e 27 83 45 3f
       1.7701771 1.0621505 0.4095984 0.7715325
000020 20 fe 84 3f 62 11 8e 3f 90 33 3e 3f 5f b2 46 3f
       1.0390053 1.1099055 0.7429743 0.7761592
000030 27 46 47 3f 55 1e 7c 3f 6d 57 79 3f 0f e9 3e 3f
       0.7784142 0.98483783 0.97399026 0.7457437
000040 6c c1 43 3f c0 bc b9 3f eb 7f 42 3f 76 82 9a 3f
       0.76467013 1.4510727 0.7597644 1.2071064

bn2.running_var f4 [20]
000000 57 a8 63 40 5a 5e 4b 40 ab 9f 10 41 d7 d5 09 42
       3.5571496 3.1776338 9.038981 34.458828
000010 d8 e9 00 41 92 88 a9 41 13 6b 59 40 e2 d1 54 41
       8.057091 21.191685 3.3971603 13.301241
000020 93 24 84 40 ce 80 4c 40 93 dc 4c 41 e3 d0 5b 41
       4.1294646 3.1953616 12.803851 13.738498
000030 f5 43 0e 40 6d 24 97 41 24 c1 2b 40 04 45 01 40
       2.2228978 18.892786 2.6836634 2.0198374
000040 86 63 5d 41 1a 24 c8 40 98 e2 fb 3f 78 b0 94 40
       13.836798 6.254407 1.9678526 4.6465416

bn3.weight f4 [2]
000000 ab 6c d5 42 ab 27 d5 42
       106.71224 106.57748

bn3.bias f4 [2]
000000 54 2a d6 c2 97 41 d5 c2
       -107.08267 -106.628105

bn3.running_mean f4 [2]
000000 64 ee a7 3e ad ad b1 3e
       0.32799065 0.34702817

bn3.running_var f4 [2]
000000 f5 b9 81 3f 6e a9 56 3f
       1.0134875 0.8385228
