Results/NN_MLP_MLs/MLP_Ensemble/Model_Results/AllVar/test10_ensemblesize10/best_model_1.pt (torch, 103325 bytes, 20 tensors)

country_embedding.weight f4 [8, 2]
00000000: 37d9 97c0 38d9 97c0 155c 2640 165c 2640
00000010: 2dac d63e 36ac d63e cd5c a040 cb5c a040
00000020: 8a46 10c0 8e46 10c0 c28e 36c1 c48e 36c1
00000030: da3b f140 db3b f140 8b2c 6a40 882c 6a40
-4.7452655 -4.745266 2.5993702 2.5993705 0.41928235 0.41928262 5.011328 5.0113273
-2.2543054 -2.2543063 -11.409853 -11.409855 7.538556 7.5385566 3.6589687 3.658968

fc1.weight f4 [200, 93]
00000000: d7d0 73a6 3530 7aa6 17a0 54a6 9db4 6ca6
00000010: e1f8 84a6 92ec 89a6 b997 80a6 c93b 86a6
00000020: b94e 5ba4 1cf8 77a6 6284 60a6 8fc4 62a6
00000030: f2e9 91a6 2021 d424 ea10 6ea6 7071 51a6
00000040: 3bc8 5da6 cd7e 90a6 d657 91a6 f952 87a6
00000050: 7a74 54a6 1992 80a6 bfb5 67a6 7ff2 86a6
00000060: 55e1 2725 590e 86a6 3af0 59a6 c882 79a6
00000070: 9746 88a6 9fe3 af24 435c 88a6 2970 6da6
00000080: 152f 83a6 36b4 7ea6 ba91 91a6 1926 a3a4
00000090: 38ce 62a6 ff34 82a6 ad69 4fa6 7cba 57a6
000000a0: 1605 7ca6 a048 8ba6 18f8 5fa6 3bbd 6ca6
000000b0: 4dd5 8aa6 ea3b 5ea6 1a0c 60a6 5414 54a6
000000c0: 52d0 bfa4 de86 80a6 68d8 7aa6 a2c4 73a6
000000d0: 113d 8da6 dfd2 f2a4 68bf 62a6 0e06 82a6
000000e0: 281f 65a6 eb93 77a6 b6f8 6ba6 467c 1624
000000f0: 9476 6aa6 f7cf 64a6 5fd0 90a6 1d7c 64a6
00000100: 8d0b 8ca6 3125 8da6 356a 77a6 34a7 80a6
00000110: 1ee5 60a6 7a64 89a6 2b05 90a6 6ee2 5aa6
00000120: 1bf6 caa3 3ff5 61a6 e843 6ca6 c20b 8da6
00000130: 306c 71a6 7662 2424 1e54 8ba6 f627 87a6
00000140: 8e6e 6ba6 1f5b 72a6 231b 86a6 a52b 4fa4
00000150: ffd6 52a6 bbf6 80a6 69e6 61a6 817e 67a6
00000160: 10d5 8aa6 3732 8fa6 7d89 9126 86c8 77a6
00000170: 52b2 5ca6 88d2 0d24 f71b 5c24 d299 ff24
00000180: c43b 2225 6f11 e3a4 c921 ab23 d65b ff24
00000190: e1e3 f724 ae94 d424 fda5 f7a4 7c68 f6a4
000001a0: 0df2 cea4 31f4 ab23 fe85 2a25 6926 d8a4
000001b0: 1058 b624 9965 bda4 9edd 20a5 8074 11a4
000001c0: 8e28 c524 bfd6 1e25 d382 d4a4 1c84 1424
000001d0: 43a1 1325 02c0 e224 3f42 d524 6f2b f324
000001e0: 1070 d824 75c5 3024 84fe e9a4 33ad 0fa5
000001f0: 3bcc 9ca4 a662 9fa3 93be d1a4 3961 7a24
00000200: 5bce 5324 8af7 1aa4 2c84 8324 0b2e 5d24
00000210: e6ea d024 5b71 e624 80c3 67a4 f029 2725
00000220: 143d 9ea3 3f19 bca2 927d 21a5 503c dca4
00000230: ace7 c7a4 fe5b 92a4 4f48 f324 d2a3 5fa4
00000240: d0b5 ffa4 23a8 8324 511d 5b24 a8a1 dd24
00000250: 8312 b1a4 ae61 1424 3b25 79a4 24c3 19a4
00000260: fa58 08a5 84f4 9ba4 8598 51a4 a854 9224
00000270: e00d fa23 cd0c 2924 04c5 2a25 98c0 2625
00000280: 7063 e924 ec57 ae22 1db9 eca4 30b6 0525
00000290: 2223 2ba4 b250 5da3 5465 13a5 ff2e 07a4
000002a0: 1ab5 dca4 a037 1d25 06ea 13a5 595d 05a5
000002b0: ece8 b9a2 dc06 b9a4 16e0 7424 3bb7 83a4
000002c0: 95b8 a0a4 880b 1b23 bdb5 f724 c5b3 f0a4
000002d0: 21b1 a024 f6d5 db24 255d 2725 1082 efa4
000002e0: 5ebf 2524 4e05 fda4 5812 1225 a3bc 84a4
000002f0: d01d ce24 64ff a222 d133 55a3 06b2 aea2
00000300: bdad e823 4d4e a124 fa84 db23 1fc5 5024
00000310: 29e7 19a5 fa4b f924 3a2b 1525 546d 0d25
00000320: 11f3 fc24 d6ee f6a4 9db2 7da4 97db 1625
00000330: ac50 02a5 4538 1b25 6190 06a5 060a f1a4
00000340: df49 a724 4ddb f5a4 6cca 1ca4 97f0 f824
00000350: 6185 0725 26d0 2125 ffde 0aa4 f7fb 04a5
00000360: d475 2825 d1c9 11a4 82c9 8ca4 c3d4 2624
00000370: b24c efa4 2ce9 e024 5f75 d624 81c2 07a5
00000380: 0888 0ca5 01cb 6fa3 f4b9 8f24 1491 9ea2
00000390: 0084 ada4 0b58 7a22 d9d0 20a5 5cd8 f1a4
000003a0: 2aca e3a4 45e6 0c25 7fd1 1625 8475 68a4
000003b0: 4f8e f522 7b9b 9824 2c00 a423 c659 aba4
000003c0: 325a c524 b95a d224 4ba7 1ea3 187f a8a3
000003d0: 0f7b 1b25 968e 1525 cc02 c2a4 7f65 2725
000003e0: d25c 2924 704d e3a4 4851 bb24 ab77 ffa4
000003f0: a913 1e25 67fb dba4 3f8f 4124 9a64 5024
-8.459059e-16 -8.6801507e-16 -7.376924e-16 -8.2123725e-16 -9.226799e-16 -9.570407e-16 -8.922909e-16 -9.314323e-16
-4.7554736e-17 -8.603159e-16 -7.7895024e-16 -7.867589e-16 -1.0124807e-15 9.199646e-17 -8.259576e-16 -7.266518e-16
-7.694614e-16 -1.0026377e-15 -1.0085204e-15 -9.389997e-16 -7.371013e-16 -8.921384e-16 -8.0390536e-16 -9.363847e-16
1.4561286e-16 -9.302007e-16 -7.5612567e-16 -8.656647e-16 -9.456029e-16 7.627976e-17 -9.461903e-16 -8.23779e-16
-9.102713e-16 -8.8368184e-16 -1.0100895e-15 -7.075452e-17 -7.868898e-16 -9.034927e-16 -7.196077e-16 -7.4845843e-16
-8.7436956e-16 -9.664748e-16 -7.7704897e-16 -8.2135403e-16 -9.633489e-16 -7.710292e-16 -7.773201e-16 -7.3579825e-16
-8.3185954e-17 -8.91834e-16 -8.702946e-16 -8.457405e-16 -9.800392e-16 -1.05308e-16 -7.8668905e-16 -9.022203e-16
-7.949256e-16 -8.5895806e-16 -8.186907e-16 3.263133e-17 -8.134576e-16 -7.9385235e-16 -1.0048486e-15 -7.9271595e-16
-9.717582e-16 -9.793921e-16 -8.5839277e-16 -8.927105e-16 -7.8026123e-16 -9.533519e-16 -9.993408e-16 -7.5940813e-16
-2.2005114e-17 -7.8394927e-16 -8.197098e-16 -9.787027e-16 -8.3760293e-16 3.564523e-17 -9.667863e-16 -9.378338e-16
-8.1681833e-16 -8.408411e-16 -9.305473e-16 -4.4922938e-17 -7.314976e-16 -8.948661e-16 -7.837482e-16 -8.031567e-16
-9.633424e-16 -9.936229e-16 1.0098662e-15 -8.59671e-16 -7.65695e-16 3.0752828e-17 4.7728583e-17 1.10849203e-16
1.407151e-16 -9.847509e-17 1.8554166e-17 1.107442e-16 1.07505217e-16 9.219222e-17 -1.0740037e-16 -1.068625e-16
-8.974831e-17 1.8643276e-17 1.4790548e-16 -9.374014e-17 7.90791e-17 -8.21378e-17 -1.3952875e-16 -3.1540542e-17
8.5503834e-17 1.3777074e-16 -9.216197e-17 3.2204285e-17 1.2804855e-16 9.833715e-17 9.248625e-17 1.0545803e-16
9.386491e-17 3.833117e-17 -1.0147881e-16 -1.2461955e-16 -6.8000195e-17 -1.7280594e-17 -9.096215e-17 5.429246e-17
4.592812e-17 -3.36031e-17 5.70361e-17 4.7960736e-17 9.0603554e-17 9.993863e-17 -5.0255735e-17 1.449915e-16
-1.7156262e-17 -5.0984232e-18 -1.4007069e-16 -9.5511965e-17 -8.669496e-17 -6.347325e-17 1.05506947e-16 -4.8494178e-17
-1.10896624e-16 5.709703e-17 4.7512887e-17 9.611733e-17 -7.6792874e-17 3.2175122e-17 -5.4024804e-17 -3.3341877e-17
-1.1826266e-16 -6.763476e-17 -4.544884e-17 6.346082e-17 2.711093e-17 3.6656876e-17 1.4811901e-16 1.4463458e-16
1.01216096e-16 4.7255885e-18 -1.0266228e-16 1.1597639e-16 -3.7109473e-17 -1.1997522e-17 -1.2784549e-16 -2.9313266e-17
-9.571659e-17 1.3636426e-16 -1.2829508e-16 -1.1567539e-16 -5.0390966e-18 -8.024258e-17 5.3098874e-17 -5.71226e-17
-6.970163e-17 8.405009e-18 1.0742705e-16 -1.0438795e-16 6.968901e-17 9.5338574e-17 1.45165e-16 -1.0387006e-16
3.5940766e-17 -1.09730246e-16 1.2669696e-16 -5.756544e-17 8.9388763e-17 4.4180593e-18 -1.1557726e-17 -4.7351284e-18
2.5227071e-17 6.9955267e-17 2.3800345e-17 4.526978e-17 -1.3348955e-16 1.08115246e-16 1.2938336e-16 1.2266842e-16
1.0969935e-16 -1.070901e-16 -5.501192e-17 1.3084826e-16 -1.1303035e-16 1.3463172e-16 -1.1671565e-16 -1.0453407e-16
7.254985e-17 -1.0662332e-16 -3.3998566e-17 1.0796043e-16 1.1754574e-16 1.4035047e-16 -3.0112865e-17 -1.1534544e-16
1.4611599e-16 -3.1612808e-17 -6.105669e-17 3.6175728e-17 -1.03779655e-16 9.753952e-17 9.300654e-17 -1.1775284e-16
-1.2189154e-16 -1.2999204e-17 6.233138e-17 -4.2979593e-18 -7.525041e-17 3.3927927e-18 -1.3948548e-16 -1.04883616e-16
-9.8788037e-17 1.2221083e-16 1.3081406e-16 -5.040652e-17 6.655806e-18 6.6182886e-17 1.7780988e-17 -7.431151e-17
8.558793e-17 9.122667e-17 -8.600623e-18 -1.8268423e-17 1.3485801e-16 1.2972e-16 -8.4138827e-17 1.4519329e-16
3.6724655e-17 -9.857674e-17 8.123602e-17 -1.1079135e-16 1.3710977e-16 -9.5402e-17 4.1971538e-17 4.5188023e-17

fc1.bias f4 [200]
00000000: effb 67a6 710d c0a3 cb61 0d25 a54f 1f3f
00000010: ca83 88a6 61f6 0d25 7930 2b23 1ae9 6aa6
00000020: 137c 1f3f c68a 1f3f 30d8 4ba6 c79d 1f3f
00000030: 2dd5 86a6 4363 37a6 b69e 1f3f 8074 1f3f
00000040: a707 2ca6 f35b 17a5 ea51 5fa6 ff86 2e24
00000050: c700 e8a6 967b 1f3f 1bf9 8aa6 848a e7a4
00000060: 7154 2324 75c7 4da6 3074 1f3f 43b2 62a6
00000070: 7946 7926 b296 1f3f 44d9 5fa6 5da5 aca4
00000080: a46f 14a5 e937 58a6 e7c7 90a6 bf11 0da5
00000090: 5bca c5a3 739d 1f3f 0406 07b1 33ed 32b2
000000a0: 2ae8 f3b5 bb52 8ea6 a78a 1ab4 7a8e 6ba6
000000b0: 5fb6 85a6 9472 1f3f 324a 1f3f bfac 1f3f
000000c0: 709b 04a5 756b 1f3f dca2 66a6 7940 4ba4
000000d0: a76c 1f3f f148 b7b1 ce57 62a6 f495 67a6
000000e0: 7776 1f3f 167c 7d26 d251 1f3f 55e5 dfa4
000000f0: ae10 88a6 ca7b 1f3f 128c 1f3f 689b 1f3f
00000100: 67f8 89a6 b887 8625 de82 fda3 d1a8 1f3f
00000110: 34c4 1da5 98e5 0da4 6977 1f3f 397d e7a4
00000120: e087 1f3f 499f 1f3f 6cb3 c224 f5d5 6faa
00000130: 0def 62a6 0994 00a5 125e 51a6 f4b2 cfaf
00000140: 9aa1 1f3f cca9 9ba4 76f9 7fa6 9e42 27a6
00000150: 423d 7e24 e3bb 87a4 4ab1 87a6 6e9d 1f3f
00000160: c361 f7b1 5c71 1f3f bc9c 1f3f 6897 1f3f
00000170: 8656 01a4 1c9d 1f3f 0d9d 1f3f c795 3224
00000180: ab7c 1f3f 87d8 f0a5 6f6c 1f3f 92ce 97a6
00000190: 5e79 1f3f c5f1 a9a4 e6cb 51a6 ec67 1f3f
000001a0: 9052 1522 0d7f 88a6 a699 1f3f c833 6926
000001b0: f4bd 61af 026e a3b2 f482 1f3f d75b 91a6
000001c0: b799 1f3f 1a10 72a6 f86d 1f3f 075a 0f25
000001d0: b293 1f3f 41ce 8626 4606 dca3 dd93 1f3f
000001e0: 94ce 9fa6 0ba0 a2a6 cf75 15b5 028c 2ea4
000001f0: 0db3 1f3f 2d97 1f3f 9e54 85a6 d659 54a6
00000200: 02c7 98a6 23d1 83a6 b961 5ca6 f63d 65b6
00000210: 5b54 1f3f 619a 80a6 dba2 1f3f 69a6 1f3f
00000220: dee9 95a4 fc27 0e24 6adc b8a4 025c a5a6
00000230: 9c75 0f24 1bac 1f3f da82 1f3f 41ab 90a6
00000240: d131 54a6 e057 cca4 078a 1f3f ae3f c2b5
00000250: b26f 1f3f 3a37 72b6 b199 1f3f 96fe 2325
00000260: 94e4 45a6 527b 1f3f cbea 8da6 ed99 1f3f
00000270: 838f 52a4 514e 1f3f 5cca 0eb4 cb72 7aa6
00000280: 4a21 cbb3 4d74 1f3f 3773 6da6 dba0 1f3f
00000290: 5b05 8ea6 722e 8ea6 1b99 1f3f f598 1f3f
000002a0: 565d 0fa6 51d5 50a6 cb74 1f3f e5b8 2ab3
000002b0: 9086 b6a4 cb95 1f3f 73bf 76a6 ba83 1f3f
000002c0: 609e 1f3f 719a 1f3f d77a 1f3f fa6a b623
000002d0: 4e12 4a24 836d 06a4 7cdb 86a6 cb72 1f3f
000002e0: 539e 1f3f 0a62 1f3f c879 1f3f 90aa 0f25
000002f0: 100a 7a26 881c a6b3 1a24 81a6 4e9a 1f3f
00000300: b1c2 a1b3 4986 1f3f 2f7b 0225 bad1 4aa4
00000310: 80c0 8626 e1e3 a3a6 046f 88a4 15c5 45a8
-8.048566e-16 -2.0822374e-17 1.2262934e-16 0.622309 -9.472617e-16 1.2313277e-16 9.280193e-18 -8.150097e-16
0.622987 0.62321126 -7.072276e-16 0.62350124 -9.355899e-16 -6.3625404e-16 0.6235155 0.6228714
-5.968486e-16 -1.3128316e-16 -7.747968e-16 3.7844582e-17 -1.6098445e-15 0.6229795 -9.643194e-16 -1.00414935e-16
3.5416515e-17 -7.1393977e-16 0.62286663 -7.865109e-16 8.648474e-16 0.6233932 -7.7663117e-16 -7.4873246e-17
-1.2874779e-16 -7.5015827e-16 -1.0046191e-15 -1.2235813e-16 -2.1444484e-17 0.62349623 -1.9648505e-09 -1.04148965e-08
-1.817248e-06 -9.875653e-16 -1.4392809e-07 -8.1725095e-16 -9.278161e-16 0.6228421 0.6222259 0.62372965
-1.1501839e-16 0.6227334 -8.0017996e-16 -4.407322e-17 0.62275165 -5.3342935e-09 -7.85285e-16 -8.034745e-16
0.6229014 8.7945176e-16 0.6223422 -9.709934e-17 -9.441417e-16 0.6229826 0.62323105 0.62346506
-9.573614e-16 2.333726e-16 -2.748574e-17 0.6236697 -1.3684055e-16 -3.0768975e-17 0.6229158 -1.00392416e-16
0.62316704 0.62352425 8.443804e-17 -2.1301695e-13 -7.8733475e-16 -1.1152387e-16 -7.263893e-16 -3.7780234e-10
0.6235596 -6.750818e-17 -8.880898e-16 -5.8030047e-16 5.5129358e-17 -5.886521e-17 -9.415561e-16 0.62349594
-7.1997603e-09 0.6228235 0.6234853 0.623404 -2.8045704e-17 0.62349105 0.62349015 3.8724464e-17
0.62299603 -4.1780088e-16 0.6227483 -1.0533721e-15 0.62294567 -7.370164e-17 -7.2787775e-16 0.6226795
2.0236974e-18 -9.471333e-16 0.62343824 8.090829e-16 -2.0531116e-10 -1.9025723e-08 0.62309194 -1.0086289e-15
0.62343925 -8.398244e-16 0.62277174 1.2433775e-16 0.6233474 9.354023e-16 -2.3855105e-17 0.62334996
-1.1088834e-15 -1.1284388e-15 -5.567826e-07 -3.7848827e-17 0.62382585 0.6234005 -9.251664e-16 -7.3674026e-16
-1.060106e-15 -9.146638e-16 -7.646027e-16 -3.4159725e-06 0.6223809 -8.923629e-16 0.6235787 0.62363297
-6.5014636e-17 3.082521e-17 -8.0170676e-17 -1.1474114e-15 3.11078e-17 0.6237199 0.6230904 -1.0038426e-15
-7.361979e-16 -8.8619763e-17 0.6231999 -1.447266e-06 0.6227981 -3.6092956e-06 0.6234389 1.4224253e-16
-6.8657886e-16 0.62297547 -9.847481e-16 0.6234425 -4.565805e-17 0.62228876 -1.3298398e-07 -8.6891747e-16
-9.4589794e-08 0.62286836 -8.238204e-16 0.6235482 -9.854681e-16 -9.865818e-16 0.62342995 0.6234277
-4.9739585e-16 -7.2453594e-16 0.62287587 -3.974937e-08 -7.9157876e-17 0.6233794 -8.5607857e-16 0.62310374
0.62351036 0.62345034 0.62296814 1.9777786e-17 4.3817272e-17 -2.9149378e-17 -9.357609e-16 0.62284535
0.6235096 0.6225897 0.622952 1.2461062e-16 8.674981e-16 -7.735167e-08 -8.960958e-16 0.62344825
-7.532561e-08 0.6231428 1.1317439e-16 -4.3979413e-17 9.350295e-16 -1.1372164e-15 -5.9168666e-17 -1.0978432e-14

fc2.weight f4 [20, 200]
00000000: ae96 8f35 b2a1 3934 c3a9 5234 cdcb b03f
00000010: ba27 36b5 94b1 5830 87ec 5db4 6e51 86b4
00000020: c19c b03f 8118 b13f 5e26 2e33 6453 b13f
00000030: ea12 9a33 0454 cfb7 e3a8 b13f 4e59 b03f
00000040: 837a 5db3 e090 0d34 c289 1e3f 146e 9536
00000050: 036f c1b2 e4ad b13f b5c7 3732 c103 f4b3
00000060: e5bb f633 96ca 13b3 4f53 b03f 8075 9838
00000070: 7ce9 2434 ace7 b13f a9be 1d3f e492 b2ba
00000080: 4bc5 933b 89e2 cdb9 cd5a 1934 0cb3 19bf
00000090: 8cd1 ad34 65ab b13f 920f 173f df29 9bb2
000000a0: 613c 99b1 c98d 8eb4 bf4d 8934 760b 96b4
000000b0: 0ec4 07b4 dda5 b13f 9dc1 b03f 257e b13f
000000c0: c2dd 1f36 8e69 b13f abe8 1eb4 4750 c438
000000d0: 3480 b03f 6fc2 cbb4 9bdf 4633 c39b 8333
000000e0: cdaf b13f bac7 a6b8 89db b03f d5ab 00b4
000000f0: 29cd 3334 1d85 b03f 066f b13f 9990 b13f
00000100: 8c3a 60b4 c607 7933 2cbf 4535 6df5 b13f
00000110: 7c17 b7b3 6688 53b4 cf93 b03f b8f8 18bf
00000120: c49e b13f 918b b13f 1123 7734 da02 f037
00000130: e480 58bb 93b4 7b33 c17e 9033 ab01 8c33
00000140: 9e6a b13f b49d 3137 abea b4b3 48c1 1a3f
00000150: 1182 1a33 0ab9 53bb 40ff 37b4 6378 b13f
00000160: 86d0 3433 ec94 b03f afb0 b13f 308e b13f
00000170: 41fe 1abf 488b b13f 5358 b13f 028c 76b5
00000180: e28a b03f dce0 d932 7a6b b13f b616 d733
00000190: 835e b03f 9ec3 d833 6066 48b4 ee44 b03f
000001a0: 47b0 87b6 5a8b 1fbf 16d5 b13f e81a bc34
000001b0: b903 acb3 f298 e8b3 9527 b13f 2b5d 5e33
000001c0: 3071 b13f 30e6 c5b4 e878 b13f 9f5e a3b3
000001d0: a648 b13f cf2e 3134 32d8 1f33 1691 b13f
000001e0: e50f 1833 7ba7 b632 bee5 1e3f 5e7a 19bf
000001f0: 5ecb b13f ae5b b13f 0281 de32 3abd b8b3
00000200: d2df a3b3 5017 5e33 ccee 1b3f b872 d6b4
00000210: b296 b03f bc6a 4aba f0d7 b13f 8582 b13f
00000220: b401 8734 ab48 f4b3 cd37 8fb3 74d1 fd33
00000230: 1d8b 2db1 d0b9 b13f a3a8 b03f cdb0 a933
00000240: 2272 93b4 c18c 5fb3 68d0 b03f 6d21 4eb4
00000250: 8387 b03f 64f3 0c38 5574 b13f a473 94b4
00000260: e43a 29b3 c291 b03f 5a6a 193f 29a1 b13f
00000270: 563d 8f33 94ca b03f ac5a d7b3 e4d7 dc33
00000280: 8751 203f 176c b03f 89f6 ff33 5ad7 b13f
00000290: 9b57 1dbf 90ed eeb6 746b b13f 10d9 b13f
000002a0: aca8 4234 fcee ab35 ca8e b03f 690f 18bf
000002b0: 8f2f 9b34 5185 b13f 1565 64b3 12a3 b03f
000002c0: 87b9 b13f d4c5 b13f 9963 b03f 1711 05b4
000002d0: a7cd e234 6317 8439 14e3 37b4 e16a b13f
000002e0: 7bc3 b13f ca87 b03f 9077 b03f e0e7 e0b4
000002f0: 3afe 8a33 5d4a 18ba ca66 9137 7751 b13f
00000300: 6ec3 57b4 a1a8 b03f 8692 7ab8 80ec 82b3
00000310: 3ec1 ebb4 5061 ca36 6a91 8238 2e12 1ebf
00000320: e410 9226 aa1d 78a6 ffdf 6026 cc82 97a5
00000330: 3094 7926 3f95 6226 48e5 8726 4aa5 d126
00000340: d38f 8ca6 a562 eca6 7482 1126 5069 c4a6
00000350: b50e 9526 fa10 c726 bf31 aea6 7b4f 94a6
00000360: 9054 c825 cf94 4ea6 9390 2826 994b 86a6
00000370: 70da 80a6 1fb9 63a6 88f1 8b26 953a 52a6
00000380: 7669 8ba6 b0e4 aa22 ae8e a5a6 5147 2ca6
00000390: 99d7 d526 c726 c5a5 9dfd 4aa3 4019 5c26
000003a0: 0257 67a6 5a85 d726 46bd 8126 27cc 7026
000003b0: 28db 7526 750a aaa6 40a3 3626 f362 2e24
000003c0: 9027 c0a6 c4b0 01a5 a540 00a7 47aa f3a5
000003d0: 4f62 5126 718e 93a5 998f 1ba6 7d99 bba6
000003e0: d56d 79a6 1a70 0ea6 e4cb f326 b1ea 5726
000003f0: ae91 baa6 5791 98a5 c481 a726 268c e026
1.0698184e-06 1.7288292e-07 1.9619533e-07 1.3812195 -6.7858093e-07 7.8832696e-10 -2.0668277e-07 -2.5018693e-07
1.3797837 1.3835603 4.0547427e-08 1.3853574 7.174624e-08 -2.4715446e-05 1.3879665 1.3777254
-5.1566996e-08 1.3184354e-07 0.6192895 4.453361e-06 -2.251864e-08 1.3881192 1.069741e-08 -1.1362818e-07
1.14894455e-07 -3.4410355e-08 1.3775424 7.269811e-05 1.5358631e-07 1.3898826 0.6161905 -0.0013624099
0.004509603 -0.0003926943 1.4282269e-07 -0.6003883 3.2376226e-07 1.388043 0.59008133 -1.8063416e-08
-4.4597503e-09 -2.6552723e-07 2.5574806e-07 -2.7948016e-07 -1.2644179e-07 1.3878742 1.3809086 1.3866621
2.3821926e-06 1.3860338 -1.4799541e-07 9.360961e-05 1.3789124 -3.7953166e-07 4.6303835e-08 6.128496e-08
1.3881775 -7.952699e-05 1.3816997 -1.1983441e-07 1.6745311e-07 1.3790623 1.3862007 1.3872253
-2.0882925e-07 5.79819e-08 7.366641e-07 1.3903023 -8.525873e-08 -1.9700528e-07 1.3795108 -0.59754515
1.3876576 1.3870717 2.3016425e-07 2.8611557e-05 -0.003303581 5.8604723e-08 6.728579e-08 6.5195614e-08
1.3860662 1.058674e-05 -8.424589e-08 0.60451174 3.5974214e-08 -0.0032306337 -1.7136063e-07 1.3864864
4.2099167e-08 1.3795447 1.3882045 1.3871517 -0.6054421 1.387063 1.385508 -9.184588e-07
1.3792384 2.5364379e-08 1.3860924 1.0015849e-07 1.3778843 1.00938664e-07 -1.8663695e-07 1.3771036
-4.043835e-06 -0.6232201 1.3893154 3.5037306e-07 -8.010051e-08 -1.08311625e-07 1.3840204 5.177314e-08
1.3862667 -3.6861593e-07 1.3865023 -7.6074905e-08 1.3850296 1.6501438e-07 3.72167e-08 1.3872402
3.5404714e-08 2.126375e-08 0.6206931 -0.5995234 1.3890188 1.3856103 2.5902867e-08 -8.602588e-08
-7.630992e-08 5.1709605e-08 0.6091125 -3.9944075e-07 1.3795989 -0.0007721593 1.3894024 1.3867956
2.514695e-07 -1.13753536e-07 -6.6691065e-08 1.181933e-07 -2.525389e-09 1.388483 1.3801464 7.9018356e-08
-2.7463926e-07 -5.204925e-08 1.38136 -1.9197405e-07 1.3791355 3.3605276e-05 1.3863627 -2.7651288e-07
-3.940194e-08 1.3794482 0.59927905 1.3877307 6.670113e-08 1.3811822 -1.0028211e-07 1.02838186e-07
0.626244 1.3782986 1.1919207e-07 1.3893845 -0.614618 -7.1206086e-06 1.3860917 1.3894367
1.812902e-07 1.2810046e-06 1.3793576 -0.59398514 2.8905603e-07 1.386881 -5.317732e-08 1.3799765
1.3884743 1.3888497 1.3780395 -1.2392807e-07 4.2245412e-07 0.00025194426 -1.7125814e-07 1.3860742
1.3887781 1.379144 1.3786488 -4.1891963e-07 6.472369e-08 -0.0005809421 1.7333212e-05 1.3852986
-2.0094532e-07 1.3801461 -5.9741105e-05 -6.096616e-08 -4.3912763e-07 6.031398e-06 6.2259685e-05 -0.6174649
1.0135363e-15 -8.6082487e-16 7.8019183e-16 -2.6282956e-16 8.659006e-16 7.8611767e-16 9.429654e-16 1.454709e-15
-9.753435e-16 -1.6402527e-15 5.048378e-16 -1.3628777e-15 1.0342938e-15 1.3813e-15 -1.2087159e-15 -1.0291106e-15
3.475177e-16 -7.167228e-16 5.8482643e-16 -9.318609e-16 -8.940992e-16 -7.900733e-16 9.71053e-16 -7.293778e-16
-9.673648e-16 4.6320725e-18 -1.1487848e-15 -5.977114e-16 1.4838282e-15 -3.420033e-16 -1.1004147e-17 7.6362053e-16
-8.026214e-16 1.4954767e-15 9.002476e-16 8.3543405e-16 8.529846e-16 -1.1798954e-15 6.336518e-16 3.781405e-17
-1.33334e-15 -1.1248857e-16 -1.7798612e-15 -4.2269165e-16 7.2644674e-16 -2.5596957e-16 -5.397104e-16 -1.3017335e-15
-8.653808e-16 -4.9418073e-16 1.6916777e-15 7.4911176e-16 -1.2945829e-15 -2.6466283e-16 1.1623126e-15 1.558111e-15

fc2.bias f4 [20]
00000000: 201d 353f 24c4 3e26 c91c 353f 547d a9a6
00000010: 816d 4e26 bc1c 353f e40a 7aa4 d61c 353f
00000020: 3dc2 0925 1a1d 353f a59f 8ca5 6881 79a6
00000030: a40a 382e 47ed 1f25 d11c 353f f1db f9a4
00000040: 0426 8125 551d 353f 8109 b3a4 c6fd 1ea4
0.70747566 6.618531e-16 0.7074705 -1.1760701e-15 7.1619013e-16 0.7074697 -5.4219333e-17 0.70747125
1.1948666e-16 0.7074753 -2.4394308e-16 -8.6564607e-16 4.1846207e-11 1.3871444e-16 0.70747095 -1.0835913e-16
2.2403693e-16 0.7074788 -7.7644976e-17 -3.4475743e-17

fc3.weight f4 [20, 20]
00000000: 9ae3 b03f c8fa 35bf a8dd b03f bbfa 35bf
00000010: befa 35bf d5db b03f c9fa 35bf fedd b03f
00000020: c7fa 35bf 32e2 b03f c6fa 35bf c1fa 35bf
00000030: abf8 353f c6fa 35bf 21de b03f bbfa 35bf
00000040: c4fa 35bf 76e6 b03f bafa 35bf befa 35bf
00000050: a3ed 22a6 b88b 4ea6 88b5 37a6 9558 c9a5
00000060: f0bc 9226 0839 2ea6 2e3d 35a3 c708 0aa6
00000070: faed 36a6 0c99 26a6 f14d f8a5 d8a6 5da6
00000080: 0085 84a6 6857 55a6 aa03 67a6 0c3e 25a5
00000090: f61c a4a5 63df 8926 b273 4da5 7d5f b9a5
000000a0: 6525 c9a6 c4bf bc25 e5a3 18a7 0eb9 cc26
000000b0: 19a3 d326 40d4 8da6 e73e ec26 b8a2 04a7
000000c0: c387 c426 0311 02a7 b550 7e26 bf8c f026
000000d0: 5641 a8a6 437b 9126 9358 2da6 2d71 b126
000000e0: 3cab 8426 b3e7 0026 d811 5c26 588a a326
000000f0: 99e3 b03f b1fa 35bf 98dd b03f aefa 35bf
00000100: b1fa 35bf cadb b03f c0fa 35bf 05de b03f
00000110: c3fa 35bf 30e2 b03f bdfa 35bf bcfa 35bf
00000120: 92f8 353f b3fa 35bf 1cde b03f b9fa 35bf
00000130: bbfa 35bf 79e6 b03f bbfa 35bf bdfa 35bf
00000140: 3fe3 b03f 33f9 35bf 22dd b03f 22f9 35bf
00000150: 17f9 35bf 53db b03f 0bf9 35bf 96dd b03f
00000160: 23f9 35bf cde1 b03f 2af9 35bf 1ef9 35bf
00000170: daf6 353f 24f9 35bf b9dd b03f 27f9 35bf
00000180: 19f9 35bf fce5 b03f 11f9 35bf 17f9 35bf
00000190: a1e3 b03f dbfa 35bf 9bdd b03f e0fa 35bf
000001a0: dffa 35bf dadb b03f e1fa 35bf ffdd b03f
000001b0: dffa 35bf 28e2 b03f dffa 35bf d8fa 35bf
000001c0: a6f8 353f d9fa 35bf 28de b03f ddfa 35bf
000001d0: d0fa 35bf 75e6 b03f e3fa 35bf e2fa 35bf
000001e0: 4f96 8ea4 fbe0 34a6 c8ad d225 c0f0 89a4
000001f0: 3da6 70a5 c634 e625 ce98 30a6 d9ac 1626
00000200: a688 a5a5 1777 40a5 f014 b0a5 a436 80a4
00000210: 9503 b5a4 bccf 4fa6 f574 6aa6 81c6 1ca6
00000220: 3bef 55a5 4859 5fa6 26f5 67a5 781b 27a6
00000230: fe75 c8a6 95ac 45a6 684f 73a6 bce5 6fa6
00000240: 3612 9826 61d0 c4a5 c2d9 b4a5 ad73 0ea6
00000250: f52a 35a4 ea0f 5ca6 6979 b1a6 d953 66a6
00000260: ed8b 74a6 005c 29a6 544a 8aa6 1458 e5a5
00000270: 69b1 b8a5 f68b 9d26 b168 57a6 3338 36a5
00000280: 98e3 b03f b4fa 35bf 92dd b03f b1fa 35bf
00000290: bafa 35bf d1db b03f b1fa 35bf 07de b03f
000002a0: c9fa 35bf 28e2 b03f b2fa 35bf b4fa 35bf
000002b0: 8ff8 353f affa 35bf 17de b03f bbfa 35bf
000002c0: bafa 35bf 6fe6 b03f aafa 35bf bcfa 35bf
000002d0: 6b81 afa6 349e 50a6 8ac8 aba6 4d7e 14a6
000002e0: 3789 a526 9c94 71a6 4c63 7ea6 9375 51a6
000002f0: da72 98a6 4145 77a6 0720 7024 d4bc 9a26
00000300: 95b1 0e26 ebd4 80a6 a077 7ba6 25d4 56a6
00000310: ea14 9da6 a7f4 6526 20d2 89a6 cda1 6ea6
00000320: c088 c0a6 a4f1 9fa6 5def bca6 b8b3 f9a5
00000330: 95bf 6726 f2f3 e7a4 94c3 d7a5 d272 0a25
00000340: 0df4 0da6 1d7f eea6 10cd 5aa6 6fee 82a6
00000350: 2067 81a5 84f6 96a6 f02e 9ca6 bacf 44a4
00000360: ada4 6da5 43d5 7f26 a1ba 88a6 cc2b 44a6
00000370: e489 86ae 765f 50b0 bc69 7eae 33ab 55b0
00000380: ffc7 4fb0 f9a8 8aae 1b94 59b0 27bd 8fae
00000390: e415 53b0 cb02 86ae ca8c 4fb0 e7a3 52b0
000003a0: 0042 1cac 85d1 52b0 206a 80ae ac0e 57b0
000003b0: 963c 56b0 5929 88ae 80cd 53b0 6ae9 55b0
000003c0: a2e3 b03f dafa 35bf a5dd b03f dbfa 35bf
000003d0: dafa 35bf d9db b03f dffa 35bf 12de b03f
000003e0: e3fa 35bf 34e2 b03f d9fa 35bf d9fa 35bf
000003f0: b0f8 353f dffa 35bf 22de b03f defa 35bf
1.3819458 -0.71085787 1.3817644 -0.7108571 -0.7108573 1.3817087 -0.7108579 1.3817747
-0.7108578 1.3819029 -0.71085775 -0.71085745 0.7108256 -0.71085775 1.3817788 -0.7108571
-0.7108576 1.3820331 -0.71085703 -0.7108573 -5.65271e-16 -7.165996e-16 -6.37369e-16 -3.4927967e-16
1.0181997e-15 -6.044567e-16 -9.824985e-18 -4.7890263e-16 -6.3466453e-16 -5.7800237e-16 -4.3073957e-16 -7.6900893e-16
-9.19539e-16 -7.401768e-16 -8.014919e-16 -1.4332491e-16 -2.846909e-16 9.566834e-16 -1.7820115e-16 -3.215709e-16
-1.3957313e-15 3.2742747e-16 -2.1183085e-15 1.4205503e-15 1.4685274e-15 -9.841371e-16 1.6392839e-15 -1.840689e-15
1.363703e-15 -1.8050346e-15 8.823333e-16 1.6691495e-15 -1.1675051e-15 1.0094806e-15 -6.0141473e-16 1.2312519e-15
9.205753e-16 4.472293e-16 7.6352016e-16 1.1347895e-15 1.3819457 -0.7108565 1.3817625 -0.7108563
-0.7108565 1.3817074 -0.7108574 1.3817755 -0.71085757 1.3819027 -0.7108572 -0.71085715
0.71082413 -0.7108566 1.3817782 -0.710857 -0.7108571 1.3820335 -0.7108571 -0.7108572
1.381935 -0.7108337 1.3817484 -0.7108327 -0.71083206 1.3816932 -0.71083134 1.3817623
-0.7108328 1.3818909 -0.7108332 -0.7108325 0.7107979 -0.71083283 1.3817664 -0.710833
-0.7108322 1.3820186 -0.7108317 -0.71083206 1.3819467 -0.710859 1.3817629 -0.7108593
-0.71085924 1.3817093 -0.71085936 1.3817748 -0.71085924 1.3819017 -0.71085924 -0.7108588
0.7108253 -0.7108589 1.3817797 -0.7108591 -0.71085835 1.382033 -0.7108595 -0.7108594
-6.1837316e-17 -6.275495e-16 3.6546952e-16 -5.9822125e-17 -2.0873005e-16 3.99344e-16 -6.1269355e-16 5.2275957e-16
-2.8715534e-16 -1.6693695e-16 -3.054532e-16 -5.5603716e-17 -7.8502305e-17 -7.2099084e-16 -8.1343565e-16 -5.4392395e-16
-1.855586e-16 -7.7489666e-16 -2.0119116e-16 -5.797699e-16 -1.390977e-15 -6.8581997e-16 -8.4415176e-16 -8.323113e-16
1.0552055e-15 -3.4141783e-16 -3.137258e-16 -4.9422917e-16 -3.9284505e-17 -7.63494e-16 -1.231475e-15 -7.9910915e-16
-8.484414e-16 -5.8758337e-16 -9.59582e-16 -3.9784852e-16 -3.203913e-16 1.0932e-15 -7.4734993e-16 -1.5805025e-16
1.3819456 -0.7108567 1.3817618 -0.7108565 -0.71085703 1.3817083 -0.7108565 1.3817757
-0.7108579 1.3819017 -0.71085656 -0.7108567 0.71082395 -0.7108564 1.3817776 -0.7108571
-0.71085703 1.3820323 -0.7108561 -0.71085715 -1.2178143e-15 -7.23789e-16 -1.1919865e-15 -5.1518984e-16
1.1486367e-15 -8.3815075e-16 -8.8258525e-16 -7.2670784e-16 -1.0578249e-15 -8.5789196e-16 5.2068832e-17 1.0737079e-15
4.9506815e-16 -8.939496e-16 -8.724524e-16 -7.4533674e-16 -1.0899732e-15 7.97819e-16 -9.563239e-16 -8.279212e-16
-1.3359742e-15 -1.1098338e-15 -1.311e-15 -4.3316397e-16 8.0403867e-16 -1.0059354e-16 -3.7429084e-16 1.2008495e-16
-4.924995e-16 -1.6549022e-15 -7.5911855e-16 -9.08519e-16 -2.2447813e-16 -1.0475159e-15 -1.0837397e-15 -4.2676676e-17
-2.0612268e-16 8.875992e-16 -9.487482e-16 -6.8060516e-16 -6.118109e-11 -7.580562e-10 -5.7846825e-11 -7.773224e-10
-7.5590373e-10 -6.305529e-11 -7.915461e-10 -6.536487e-11 -7.679246e-10 -6.0941106e-11 -7.5506235e-10 -7.6630474e-10
-2.220557e-12 -7.66953e-10 -5.839618e-11 -7.8237394e-10 -7.7938844e-10 -6.191909e-11 -7.7053386e-10 -7.782065e-10
1.3819468 -0.71085894 1.381764 -0.710859 -0.71085894 1.3817092 -0.71085924 1.381777
-0.7108595 1.3819032 -0.7108589 -0.7108589 0.7108259 -0.71085924 1.381779 -0.7108592

fc3.bias f4 [20]
00000000: 8ae1 4a3f 04b8 3fa6 577b 34a7 82e1 4a3f
00000010: 17df 4a3f a1e1 4a3f ef59 b4a6 5d59 ce24
00000020: 85e1 4a3f fc48 b9a6 456d 31a5 6e7b fb30
00000030: 9ce1 4a3f 97e1 4a3f 5493 34a5 d1e1 4a3f
00000040: 00e2 4a3f d749 8b25 59e2 2631 9ae1 4a3f
0.79250395 -6.6515824e-16 -2.504688e-15 0.7925035 0.7924666 0.7925053 -1.2514386e-15 8.9489646e-17
0.79250365 -1.2856736e-15 -1.5389325e-16 1.8297734e-09 0.792505 0.7925047 -1.5662428e-16 0.7925082
0.792511 2.4162692e-16 2.4284843e-09 0.7925049

fc4.weight f4 [1, 20]
00000000: afd0 b03f 9fd3 4d3f fdd2 4dbf a0d0 b03f
00000010: 31d0 b03f afd0 b03f a5d3 4d3f e8d3 4d3f
00000020: a5d0 b03f 2ed4 4d3f f7d3 4dbf 6db6 4d3f
00000030: acd0 b03f b4d0 b03f b9d3 4d3f bed0 b03f
00000040: cbd0 b03f e4d3 4d3f 79b9 4d3f a6d0 b03f
1.3813685 0.80401033 -0.8040007 1.3813667 1.3813535 1.3813685 0.8040107 0.8040147
1.3813673 0.80401886 -0.8040156 0.80356485 1.3813682 1.3813691 0.8040119 1.3813703
1.3813719 0.80401444 0.80361134 1.3813674

bn1.weight f4 [200]
00000000: a849 9ab5 273f ce26 273f ce26 f93f b13f
00000010: 8a96 c6b3 273f ce26 273f ce26 d04d 7a32
00000020: 3048 b43f 999a b43f 2c6b 88b1 981b b53f
00000030: 178b 73b1 24b0 d237 4e23 b53f d122 b43f
00000040: b35c 6f33 273f ce26 c989 1ebf 273f ce26
00000050: 32cf c231 19e8 b23f 9bb0 02b3 273f ce26
00000060: 273f ce26 a9ec 37b3 ad24 b43f b155 98b8
00000070: a16e 70b2 d76d b43f 9ebe 1dbf 273f ce26
00000080: 273f ce26 4ce0 cd39 fe81 4933 273f ce26
00000090: 273f ce26 d30b b53f af0f 17bf e148 df33
000000a0: b485 fb37 7cd0 85b3 0dc0 c2b4 b644 5432
000000b0: 8ad0 d4b3 815f b23f 16fd b03f e93e b63f
000000c0: 273f ce26 3539 b23f a17e 5bb3 273f ce26
000000d0: f970 b33f 4575 6937 e350 7932 13be 18b2
000000e0: 0f92 b23f fc54 a738 9352 b13f 273f ce26
000000f0: 1801 42b3 b563 b43f da40 b43f 2508 b53f
00000100: fc8e d1b2 2c64 fab2 273f ce26 ee69 b53f
00000110: 273f ce26 273f ce26 040c b43f 273f ce26
00000120: ebbd b33f da50 b53f 273f ce26 0421 f1b7
00000130: 137d 583b 273f ce26 41a3 ae33 90e1 83b4
00000140: 74a2 b53f 273f ce26 0458 9db1 4fc1 1abf
00000150: 273f ce26 273f ce26 6c3d a4b3 0c4d b53f
00000160: 6442 b5b5 fba5 b33f 88f6 b43f 14ce b43f
00000170: 273f ce26 2d2f b53f 1270 b53f 273f ce26
00000180: ca6a b43f 0333 aa32 8a45 b23f 2cdc 8c33
00000190: 996f b43f 273f ce26 7d0e cb32 e873 b33f
000001a0: 273f ce26 5e8b 1f3f 479a b43f 8718 1333
000001b0: b743 8ab2 4e00 e836 8f31 b43f ac0d a4b3
000001c0: b018 b53f c865 3235 0c4c b23f 273f ce26
000001d0: 8fe4 b43f 613b 3633 273f ce26 5e90 b43f
000001e0: e3ca bcb2 ce9d 01b3 5ee7 1ebf 273f ce26
000001f0: c04b b63f bf06 b53f f059 47b2 fe29 9d32
00000200: c418 e9b2 41ca 8532 d1ee 1bbf 7b35 5bb6
00000210: ccd1 b13f 3270 4a3a c12b b53f 9bd6 b53f
00000220: 273f ce26 273f ce26 273f ce26 8f88 bcb3
00000230: 273f ce26 8eeb b53f 51a4 b43f f5b5 7b32
00000240: 5f04 9531 273f ce26 44eb b43f 43c8 fbb5
00000250: be9c b33f 3a1e 2cb8 e712 b53f 273f ce26
00000260: 6a95 db33 c249 b43f 6c6a 19bf 0ddf b43f
00000270: 273f ce26 d42f b13f f62e 6034 096a 6533
00000280: 9356 20bf 1d07 b43f d5f1 3cb2 4e0b b53f
00000290: 9657 1d3f 908f f536 8b14 b53f e589 b43f
000002a0: 1d7d 58b2 e0ab 9cb5 a3e5 b33f 6f0f 183f
000002b0: 273f ce26 02be b43f 49a5 49b3 8abb b43f
000002c0: 1209 b53f 11b9 b43f e180 b43f 273f ce26
000002d0: 273f ce26 273f ce26 ecb8 ce32 38aa b23f
000002e0: 8dfc b43f a8be b23f 0855 b43f 273f ce26
000002f0: a284 8532 d2fd 163a e379 8eb7 8849 b53f
00000300: f4f9 86b4 95dd b43f 273f ce26 273f ce26
00000310: 124e b734 a892 c9b6 273f ce26 6f14 1e3f
-1.1495331e-06 1.4311239e-15 1.4311239e-15 1.3847648 -9.2474764e-08 1.4311239e-15 1.4311239e-15 1.4569608e-08
1.408453 1.410968 -3.970305e-09 1.4149046 -3.5440217e-09 2.5115973e-05 1.4151399 1.4073125
5.5730833e-08 1.4311239e-15 -0.61928993 1.4311239e-15 5.6696985e-09 1.397708 -3.0428605e-08 1.4311239e-15
1.4311239e-15 -4.282325e-08 1.4073693 -7.263886e-05 -1.3994993e-08 1.409602 -0.61618984 1.4311239e-15
1.4311239e-15 0.0003926776 4.6917187e-08 1.4311239e-15 1.4311239e-15 1.4144233 -0.59008306 1.0397503e-07
2.9983792e-05 -6.231218e-08 -3.627505e-07 1.2355647e-08 -9.909952e-08 1.3935395 1.3827236 1.4237949
1.4311239e-15 1.3923708 -5.110508e-08 1.4311239e-15 1.4018852 1.3915186e-05 1.4512099e-08 -8.890782e-09
1.3950824 7.97901e-05 1.3853325 1.4311239e-15 -4.517014e-08 1.4092928 1.4082291 1.414311
-2.4395824e-08 -2.9149383e-08 1.4311239e-15 1.4172952 1.4311239e-15 1.4311239e-15 1.4066167 1.4311239e-15
1.4042333 1.4165299 1.4311239e-15 -2.8744813e-05 0.0033033534 1.4311239e-15 8.132202e-08 -2.456477e-07
1.4190202 1.4311239e-15 -4.5793076e-09 -0.60451216 1.4311239e-15 1.4311239e-15 -7.648018e-08 1.4164138
-1.3504873e-06 1.4035028 1.4137735 1.412539 1.4311239e-15 1.4155022 1.4174826 1.4311239e-15
1.409509 1.9813802e-08 1.3927472 6.559307e-08 1.4096557 1.4311239e-15 2.3638899e-08 1.4019747
1.4311239e-15 0.6232203 1.4109582 3.4248412e-08 -1.6096108e-08 6.9141743e-06 1.4077624 -7.639332e-08
1.4148159 6.645828e-07 1.3929458 1.4311239e-15 1.413225 4.2429182e-08 1.4311239e-15 1.4106557
-2.1978343e-08 -3.0178676e-08 -0.6207179 1.4311239e-15 1.4241867 1.4142684 -1.1603774e-08 1.8296301e-08
-2.7136032e-08 1.5575212e-08 -0.6091128 -3.2664673e-06 1.389215 0.0007722407 1.4153978 1.4206117
1.4311239e-15 1.4311239e-15 1.4311239e-15 -8.779272e-08 1.4311239e-15 1.421251 1.4112645 1.4651495e-08
4.3369677e-09 1.4311239e-15 1.4134297 -1.8759241e-06 1.4032209 -4.1036146e-05 1.4146394 1.4311239e-15
1.02251605e-07 1.4085009 -0.5992801 1.413057 1.4311239e-15 1.3842721 2.087871e-07 5.3414656e-08
-0.626321 1.4064671 -1.09980265e-08 1.4144075 0.6146177 7.318282e-06 1.4146894 1.4104582
-1.2601302e-08 -1.1672928e-06 1.4054455 0.5939855 1.4311239e-15 1.4120486 -4.6949285e-08 1.4119732
1.4143393 1.4118978 1.4101831 1.4311239e-15 1.4311239e-15 1.4311239e-15 2.4065649e-08 1.3958197
1.4139572 1.3964434 1.408845 1.4311239e-15 1.5543552e-08 0.0005759868 -1.6984477e-05 1.4163065
-2.514131e-07 1.4130121 1.4311239e-15 1.4311239e-15 3.414321e-07 -6.00734e-06 1.4311239e-15 0.6174993

bn1.bias f4 [200]
00000000: dab6 a335 b06f 8eae 6c44 022a c933 2a3f
00000010: e1c0 25b2 b0a1 c5ab 7179 1db3 1a2d fe31
00000020: 232e 2a3f f736 2a3f 134f 7dae d93e 2a3f
00000030: 4e95 90b0 9430 d2b7 d941 2a3f fc28 2a3f
00000040: 51bd 7032 083c 8733 cb89 1e3f 3420 9d36
00000050: 83cc 9531 ae43 2a3f e21b e5b1 a2de cda7
00000060: 0ca2 2027 1468 3cb3 a828 2a3f b45a 9838
00000070: 3902 3fb1 1a47 2a3f a1be 1d3f a698 b2ba
00000080: 13c8 933b c6db cdb9 435c a631 0ab3 19bf
00000090: 9584 0a34 1e42 2a3f a10f 173f 33e0 8f33
000000a0: 81b0 5d37 46bf 14b1 7136 65b4 a43a 1f32
000000b0: 58ee adb2 8043 2a3f d632 2a3f 033e 2a3f
000000c0: b4db 0736 f13e 2a3f 6f2d ecb2 bb31 c438
000000d0: 8d2c 2a3f 064a 0e37 ad3b 4331 bb06 aab0
000000e0: 1e44 2a3f dc5c a7b8 7a34 2a3f f09a d22c
000000f0: 288e 2f33 502c 2a3f ee3d 2a3f 1c40 2a3f
00000100: 8a3d b6b0 0408 3ab2 24a3 3435 c547 2a3f
00000110: 7a12 83ac f288 b8aa 7c2d 2a3f bcf8 18bf
00000120: ec41 2a3f 4d3f 2a3f 1c8f aeac b113 f137
00000130: aa7d 58bb 408d 7326 d581 8c32 2d14 31b4
00000140: a23c 2a3f b6e4 3337 1af3 e2af 50c1 1a3f
00000150: a142 48a8 2ab6 53bb 0549 95b1 cf3d 2a3f
00000160: 2ff9 52b5 e52d 2a3f 6242 2a3f d83f 2a3f
00000170: c0fd 1abf 553f 2a3f 443b 2a3f c813 8db5
00000180: af2c 2a3f c7ce cc31 1a3f 2a3f 4f14 4232
00000190: 2229 2a3f bc3b 5cac 7858 9f31 0328 2a3f
000001a0: 33b1 87b6 608b 1fbf 8d45 2a3f 3015 0832
000001b0: 0081 88b2 fac1 8836 f836 2a3f 968f 51b2
000001c0: dc3d 2a3f 21d1 0bb5 2840 2a3f 12c4 1cad
000001d0: b53a 2a3f 6370 1332 d216 2a29 4340 2a3f
000001e0: 1a7a ccb2 dc2c 15b2 36e7 1e3f 537a 19bf
000001f0: 6243 2a3f 4e3c 2a3f 3924 9bb1 4e0f 5331
00000200: a584 e2b2 5859 2e31 d2ee 1b3f 7efe 20b6
00000210: 622f 2a3f c871 4aba 9845 2a3f 383e 2a3f
00000220: 9077 2a27 4497 ddaf 48cb 4b2f 6b61 2ab3
00000230: a6ab 1dab ef42 2a3f d72e 2a3f 8cb0 c031
00000240: 0021 8132 0ff1 84a7 4731 2a3f 49de 9bb5
00000250: f62c 2a3f b4fc f437 9f3d 2a3f 389e 88b4
00000260: 332f cf32 3e2d 2a3f 686a 193f 4441 2a3f
00000270: c7aa 4db2 7c33 2a3f 87fe 0034 3651 65b1
00000280: 7b56 203f 7c2a 2a3f 4823 f9b0 7d45 2a3f
00000290: 9757 1dbf e026 f3b6 013d 2a3f ee45 2a3f
000002a0: e396 43b1 bd4b a135 482d 2a3f 780f 18bf
000002b0: bc52 992b 3e3f 2a3f 7f9d fdb1 572e 2a3f
000002c0: 0643 2a3f 3044 2a3f 6129 2a3f 4081 d9b2
000002d0: 2623 7c34 b519 8439 89eb 5831 bd3e 2a3f
000002e0: c643 2a3f 9d2d 2a3f 392b 2a3f 64be b7b4
000002f0: a5f2 0e32 0a29 19ba 4276 8f37 db3a 2a3f
00000300: 838f 2eb4 a72e 2a3f 688f 7bb8 d4e7 0f2a
00000310: 185e e2b4 7e30 c836 b49e 8238 7814 1ebf
1.2197663e-06 -6.477252e-11 1.1570058e-13 0.6648527 -9.64812e-09 -1.4042569e-12 -3.666486e-08 7.3975004e-09
0.6647665 0.6649012 -5.7595772e-11 0.6650215 -1.0519814e-09 -2.5056572e-05 0.66506726 0.6646879
1.4012884e-08 6.297347e-08 0.61929005 4.6827136e-06 4.359721e-09 0.6650952 -6.667947e-09 -5.714031e-15
2.2292306e-15 -4.386682e-08 0.66468287 7.2648196e-05 -2.7795422e-09 0.6651474 0.61619 -0.0013625815
0.0045099347 -0.0003926439 4.841725e-09 -0.60038817 1.2900485e-07 0.66507137 0.5900822 6.699738e-08
1.3213722e-05 -2.164556e-09 -2.1347093e-07 9.268351e-09 -2.0248237e-08 0.66509247 0.6648382 0.6650087
2.0244452e-06 0.6650229 -2.7494677e-08 9.355271e-05 0.6647423 8.4810945e-06 2.8410156e-09 -1.2371041e-09
0.6651019 -7.980477e-05 0.6648632 5.9857605e-12 4.0874653e-08 0.66473866 0.6650075 0.66504073
-1.3259733e-09 -1.08284475e-08 6.7292626e-07 0.6651576 -3.7252952e-12 -3.277999e-13 0.66475654 -0.5975454
0.6650684 0.6650284 -4.9612658e-12 2.8738608e-05 -0.0033033886 8.449899e-16 1.6357186e-08 -1.649175e-07
0.6649877 1.0722482e-05 -4.1281895e-10 0.6045122 -1.1116678e-14 -0.0032304623 -4.344772e-09 0.6650056
-7.8593706e-07 0.6647628 0.6650754 0.6650367 -0.6054344 0.66502887 0.6649668 -1.0511076e-06
0.6647443 5.9606893e-09 0.66502535 1.1296904e-08 0.66469014 -3.129704e-12 4.6375668e-09 0.66467303
-4.043942e-06 -0.62322044 0.66512376 7.921059e-09 -1.5891146e-08 4.0756977e-06 0.66490126 -1.2198049e-08
0.6650064 -5.208586e-07 0.66504145 -8.91111e-12 0.6649583 8.58208e-09 3.7767376e-14 0.66504306
-2.3804251e-08 -8.683141e-09 0.6207155 -0.59952277 0.6650907 0.6649827 -4.5152118e-09 3.071324e-09
-2.6370182e-08 2.5371119e-09 0.60911286 -2.3989992e-06 0.6647855 -0.0007722643 0.6651244 0.6650119
2.3657054e-15 -4.0307147e-10 1.8534962e-10 -3.966981e-08 -5.6015815e-13 0.6650838 0.6647772 5.6080065e-09
1.5032583e-08 -3.6898716e-15 0.6648144 -1.1613093e-06 0.66474855 2.920474e-05 0.66500276 -2.5447093e-07
2.4119435e-08 0.66475284 0.5992799 0.6650584 -1.1971401e-08 0.6648481 1.2013525e-07 -3.337005e-09
0.6263196 0.66471076 -1.8127162e-09 0.6651228 -0.61461776 -7.24649e-06 0.66499335 0.66512954
-2.8462004e-09 1.2017478e-06 0.66475344 -0.59398603 1.0894267e-12 0.6650275 -7.3811743e-09 0.6647696
0.6650852 0.66510296 0.6646939 -2.5320901e-08 2.3482116e-07 0.00025196155 3.1566023e-09 0.6650198
0.66509664 0.6647585 0.664722 -3.4224934e-07 8.320659e-09 -0.0005842602 1.7101996e-05 0.66496056
-1.6257222e-07 0.66477436 -5.997662e-05 1.2781383e-13 -4.2164243e-07 5.9661097e-06 6.228444e-05 -0.6174998

bn1.running_mean f4 [200]
00000000: c6c5 ea42 0000 0000 0000 0000 9e13 1345
00000010: aa8e 7441 0000 0000 0000 0000 12b1 5243
00000020: 4d44 a746 7932 b846 e2d2 9e3c 57e4 dc46
00000030: 2101 6844 8815 eb44 e550 d346 cf63 9f46
00000040: fb09 8044 0000 0000 e0ee c543 0000 0000
00000050: ba1f 8646 e5da 4f46 d214 b541 0000 0000
00000060: 0000 0000 6a87 d845 d9a5 9f46 2f16 0b3d
00000070: bc9c 4842 5756 b146 553e 9140 0000 0000
00000080: 0000 0000 a37d 4043 e7c3 8e40 0000 0000
00000090: 0000 0000 2112 cf46 48a3 ce46 40f2 ba46
000000a0: 0b94 9846 34a3 3c3e 6d50 f046 ef5a 9443
000000b0: 7ca9 a542 86d9 1a46 96c5 1144 da5b 0347
000000c0: 0000 0000 8f68 0a46 009e 0644 0000 0000
000000d0: d690 7c46 8124 7345 9570 3c44 e509 fe42
000000e0: 8a8c 2e46 6461 5243 05c5 2e45 0000 0000
000000f0: 1b0d b543 1c06 ac46 f383 a846 0a58 ce46
00000100: 4869 b03f 5272 2e44 0000 0000 0638 e146
00000110: 0000 0000 0000 0000 29df 9b46 0000 0000
00000120: 3382 9046 873d db46 0000 0000 18b6 2746
00000130: 8550 9241 0000 0000 39cb b444 1715 c046
00000140: 7abc e946 0000 0000 c7f4 6441 ca7e 153e
00000150: 0000 0000 0000 0000 58a2 883f 3347 da46
00000160: 907a de46 0a91 8846 7a50 cb46 5d4b c346
00000170: 0000 0000 3b19 d546 4657 e046 0000 0000
00000180: f06f ad46 664b 8044 1321 0f46 3f99 0b43
00000190: 64c3 ad46 0000 0000 e980 8344 0634 7c46
000001a0: 0000 0000 ea46 4043 cd7f ba46 a7a2 6044
000001b0: ecb6 1746 6fa9 cd46 ac4a a246 c967 fa42
000001c0: 4cf9 d046 487f 7543 fe1c 1246 0000 0000
000001d0: 26e0 c646 d9ae 4e44 0000 0000 1bd4 b746
000001e0: 087f 1346 4411 3844 2e5c d446 0000 0000
000001f0: d3c9 0447 217a cd46 8ff2 4844 0413 4d42
00000200: 86c1 ed45 5f9f 2043 c625 b944 b191 cd46
00000210: 9a06 b945 dd8e 6c43 90a3 d546 8391 f346
00000220: 0000 0000 0000 0000 0000 0000 2313 1246
00000230: 0000 0000 7968 f846 8ce4 b846 3d67 5643
00000240: aada 6744 0000 0000 624a c646 7f2f c046
00000250: 00b7 8646 05f5 d246 a0a1 cf46 0000 0000
00000260: 7aed a343 9270 a746 f1dd 2342 0ba0 c646
00000270: 0000 0000 104c eb44 8807 0547 8bf6 9740
00000280: e7e1 e946 5e8d 9a46 9510 1643 717b cf46
00000290: e4a4 3743 6279 2f42 abdb cf46 917b b746
000002a0: c1b4 5b44 6e66 f143 e98b 9446 d32b ca46
000002b0: 0000 0000 3732 c046 18e3 4042 8fe1 bc46
000002c0: d4b1 ce46 8823 c046 650b b146 0000 0000
000002d0: 0000 0000 0000 0000 d42c 4343 2565 3646
000002e0: 7a8b cc46 b26a 3846 f82c a946 0000 0000
000002f0: c5b9 6443 69f4 1247 eeec 8242 9f30 d946
00000300: 6d82 b446 173e c346 0000 0000 0000 0000
00000310: 1747 a344 4a2d b444 0000 0000 e1fa 2044
117.38628 0.0 0.0 2353.226 15.28483 0.0 0.0 210.69168
21410.15 23577.236 0.019387666 28274.17 928.01764 1880.6729 27048.447 20401.904
1024.3119 0.0 395.8662 0.0 17167.863 13302.724 22.635166 0.0
0.0 6928.927 20434.924 0.033956703 50.15306 22699.17 4.538859 0.0
0.0 192.49077 4.461414 0.0 0.0 26505.064 26449.64 23929.125
19530.021 0.18421632 30760.213 296.71042 82.831024 9910.381 583.0873 33627.85
0.0 8858.14 538.46875 0.0 16164.209 3890.2815 753.7591 127.019325
11171.135 210.38043 2796.3137 0.0 362.1024 22019.055 21569.975 26412.02
1.3782129 697.78625 0.0 28828.012 0.0 0.0 19951.58 0.0
18497.1 28062.764 0.0 10733.523 18.289316 0.0 1446.3507 24586.545
29918.238 0.0 14.30976 0.14599147 0.0 0.0 1.0674543 27939.6
28477.281 17480.52 26024.238 24997.682 0.0 27276.615 28715.637 0.0
22199.969 1026.3562 9160.269 139.59862 22241.695 0.0 1052.0284 16141.006
0.0 192.27701 23871.9 898.54144 9709.73 26324.717 20773.336 125.202705
26748.648 245.4972 9351.248 0.0 25456.074 826.732 0.0 23530.053
9439.758 736.2698 27182.09 0.0 33993.824 26301.064 803.79 51.26857
7608.1904 160.62254 1481.1804 26312.846 5920.825 236.55806 27345.781 31176.756
0.0 0.0 0.0 9348.784 0.0 31796.236 23666.273 214.40327
927.4166 0.0 25381.191 24599.748 17243.5 27002.51 26576.812 0.0
327.8553 21432.285 40.96674 25424.021 0.0 1882.377 34055.53 4.7488456
29936.951 19782.684 150.06477 26557.72 183.6441 43.868538 26605.834 23485.783
878.8243 482.80023 19013.955 25877.912 0.0 24601.107 48.22177 24176.78
26456.914 24593.766 22661.697 0.0 0.0 0.0 195.17511 11673.286
26181.738 11802.674 21654.484 0.0 228.72566 37620.41 65.46275 27800.31
23105.213 24991.045 0.0 0.0 1306.2216 1441.4153 0.0 643.92

bn1.running_var f4 [200]
00000000: 886b 0849 2bf6 273f 2bf6 273f 99d6 034c
00000010: d1a4 a746 2bf6 273f 2bf6 273f cd27 2848
00000020: 4edb 024f 47bd eb4e 890a ec3f 4508 064f
00000030: 3b24 154b a369 304b a9b9 e34e 2352 0c4f
00000040: d1dd 754b 2bf6 273f 83f8 a24a 2bf6 273f
00000050: 589c 054e aa55 684d 2bb3 2646 2bf6 273f
00000060: 2bf6 273f b288 2e4c 08ba 0e4f 5c9a 4b40
00000070: 1818 6547 8e8c 704e 29b9 b745 2bf6 273f
00000080: 2bf6 273f 0e99 8e49 21a0 e944 2bf6 273f
00000090: 2bf6 273f d6ce d64e 708e f44e d066 a44e
000000a0: c622 ea4e 0dcd ca41 d092 294f dba0 6349
000000b0: 0dbd 2048 74fe a34c 433f 0c4b 4bd2 524f
000000c0: 2bf6 273f 0b9a cd4c f990 7449 2bf6 273f
000000d0: e2e5 a94e 676a 1b4c 6356 624b 9474 4b49
000000e0: 67f9 f04c d42e a048 05d4 094c 2bf6 273f
000000f0: fc24 1849 5370 114f 6897 974e ebbd e24e
00000100: b010 1b44 4c61 5c4a 2bf6 273f 069f de4e
00000110: 2bf6 273f 2bf6 273f acef ea4e 2bf6 273f
00000120: a247 2c4e 0bc0 054f 2bf6 273f f5b1 a64c
00000130: 9ae1 dc46 2bf6 273f 755e 454c 1bf2 be4e
00000140: 2d3f 274f 2bf6 273f 28e9 c446 ae54 3d42
00000150: 2bf6 273f 2bf6 273f ff88 b043 1957 0a4f
00000160: b390 0e4f 6438 b84e a3be c94e 08c3 c74e
00000170: 2bf6 273f 6dd2 f94e ce43 1e4f 2bf6 273f
00000180: 22d3 114f 75a3 314b c8b7 e14c c165 2049
00000190: fe33 214f 2bf6 273f 334c db4b 574d c84e
000001a0: 2bf6 273f 5d67 b148 1cae 904e 44d3 674b
000001b0: d87d b84c 7e51 ee4e a7df b14e 081b 1649
000001c0: 00b2 fc4e 2c78 f348 9ab1 d44c 2bf6 273f
000001d0: 808b f74e 605b 804b 2bf6 273f 0b43 aa4e
000001e0: fde2 904c 90b4 ab4a 199a 094f 2bf6 273f
000001f0: fdea 3b4f 242f ff4e b835 824a 4b42 9047
00000200: 0129 504c 5f62 6d49 81e8 a34b 94b3 eb4e
00000210: f46f 724d 79b6 1a48 3243 cf4e 35aa 2f4f
00000220: 2bf6 273f 2bf6 273f 2bf6 273f b11d cc4d
00000230: 2bf6 273f 6ddb 234f ca4c 194f bfde 9948
00000240: 9f03 7d4b 2bf6 273f 54da 214f f041 bc4e
00000250: 023e ba4e 48bd f74e 24d5 f74e 2bf6 273f
00000260: 62e9 cc49 10a0 064f 3455 3748 1064 c64e
00000270: 2bf6 273f 76e7 c64b cecb 504f 8251 2b45
00000280: cb0d 324f 569a fe4e 4659 4a49 3b80 c04e
00000290: b9bf d549 e162 4947 cb8e fd4e 2381 884e
000002a0: f062 4e4b fd88 cf4a acf0 d94e 38af f34e
000002b0: 2bf6 273f b9c9 c44e e341 b747 8e04 224f
000002c0: f405 ce4e a815 a44e cbdf 244f 2bf6 273f
000002d0: 2bf6 273f 2bf6 273f 506e 084a 9cc1 714d
000002e0: b538 c34e 9edb 414e f283 114f 2bf6 273f
000002f0: 9dab 9c48 7d85 734f 8f71 5248 b714 154f
00000300: 780d 984e 0988 2a4f 2bf6 273f 2bf6 273f
00000310: feff dd4b f091 4c4b 2bf6 273f f200 e44a
558776.5 0.6561 0.6561 3.4560612e+07 21458.408 0.6561 0.6561 172191.2
2.1954104e+09 1.9775251e+09 1.8440715 2.248689e+09 9.774139e+06 1.1561379e+07 1.9102977e+09 2.3541932e+09
1.6113105e+07 0.6561 5.3402255e+06 0.6561 5.60404e+08 2.4362051e+08 10668.792 0.6561
0.6561 4.575303e+07 2.3945564e+09 3.1812963 58648.094 1.0089358e+09 5879.145 0.6561
0.6561 1.1681618e+06 1869.004 0.6561 0.6561 1.8019397e+09 2.0514877e+09 1.3791007e+09
1.9640737e+09 25.350122 2.844971e+09 932365.7 164596.2 8.598006e+07 9.191235e+06 3.536997e+09
0.6561 1.0779452e+08 1.00174356e+06 0.6561 1.4252076e+09 4.0741276e+07 1.4833251e+07 833353.25
1.26339896e+08 328054.62 3.6130836e+07 0.6561 623183.75 2.4400576e+09 1.2716411e+09 1.9020486e+09
620.26074 3.610707e+06 0.6561 1.8674819e+09 0.6561 0.6561 1.9707878e+09 0.6561
7.225939e+08 2.2439555e+09 0.6561 8.7396264e+07 28272.8 0.6561 5.1739092e+07 1.6017688e+09
2.8059354e+09 0.6561 25204.578 47.332695 0.6561 0.6561 353.07028 2.3209638e+09
2.3918477e+09 1.5453517e+09 1.692357e+09 1.6757238e+09 0.6561 2.0956586e+09 2.6552438e+09 0.6561
2.446533e+09 1.1641717e+07 1.1834118e+08 656988.06 2.7045391e+09 0.6561 2.8743782e+07 1.6802559e+09
0.6561 363322.9 1.2136648e+09 1.51929e+07 9.672672e+07 1.999159e+09 1.4921123e+09 614832.5
2.1197619e+09 498625.38 1.1151278e+08 0.6561 2.0765573e+09 1.6824e+07 0.6561 1.4282602e+09
7.5962344e+07 5.62644e+06 2.3085775e+09 0.6561 3.1527396e+09 2.1406397e+09 4.266716e+06 73860.586
5.456794e+07 972325.94 2.1483778e+07 1.9772073e+09 2.5421395e+08 158425.89 1.7386437e+09 2.9471675e+09
0.6561 0.6561 0.6561 4.2806224e+08 0.6561 2.7490665e+09 2.5719465e+09 315125.97
1.6581535e+07 0.6561 2.71544e+09 1.579219e+09 1.562313e+09 2.0781885e+09 2.0789704e+09 0.6561
1.6786362e+06 2.2586368e+09 187732.81 1.6642232e+09 0.6561 2.6070764e+07 3.5030175e+09 2741.0942
2.9872484e+09 2.1357637e+09 828820.4 1.6148146e+09 1.7510311e+06 51554.88 2.1269969e+09 1.1450822e+09
1.3525744e+07 6.8005105e+06 1.8282143e+09 2.0441733e+09 0.6561 1.6507772e+09 93827.77 2.7182075e+09
1.7282483e+09 1.3764413e+09 2.76613e+09 0.6561 0.6561 0.6561 2.235284e+06 2.5349984e+08
1.6376367e+09 8.130989e+08 2.4413435e+09 0.6561 320860.9 4.0856118e+09 215494.23 2.5011628e+09
1.2755098e+09 2.861042e+09 0.6561 0.6561 2.909798e+07 1.3406704e+07 0.6561 7.471225e+06

bn2.weight f4 [20]
00000000: 8cea b03f acfa 353f 46ee b03f a6fa 353f
00000010: adfa 353f 1def b03f aafa 353f 14ee b03f
00000020: acfa 353f f6eb b03f a6fa 353f b1fa 353f
00000030: 60fb 35bf a7fa 353f 3bee b03f affa 353f
00000040: adfa 353f 97ea b03f acfa 353f a8fa 353f
1.3821578 0.7108562 1.3822715 0.71085584 0.71085626 1.3822972 0.7108561 1.3822656
0.7108562 1.382201 0.71085584 0.7108565 -0.7108669 0.7108559 1.3822702 0.7108564
0.71085626 1.3821591 0.7108562 0.71085596

bn2.bias f4 [20]
00000000: 0f01 403f acfa 35bf a100 403f aefa 35bf
00000010: adfa 35bf 7900 403f acfa 35bf ab00 403f
00000020: a8fa 35bf f000 403f adfa 35bf aafa 35bf
00000030: 90fc 353f adfa 35bf ae00 403f abfa 35bf
00000040: a8fa 35bf 4d01 403f a8fa 35bf aafa 35bf
0.75001615 -0.7108562 0.7500096 -0.7108563 -0.71085626 0.7500072 -0.7108562 0.7500102
-0.71085596 0.7500143 -0.71085626 -0.7108561 0.71088505 -0.71085626 0.7500104 -0.71085614
-0.71085596 0.75001985 -0.71085596 -0.7108561

bn2.running_mean f4 [20]
00000000: 2cc9 c53e 3cb6 1b3f f39e 813f 0a1c 5e3f
00000010: 3fd7 343f f4aa 913f 2788 573f 4954 773f
00000020: 30fe bb3f 08bc 1a3f f27c 813f c0b1 213f
00000030: e919 413f af55 3c3f f938 7d3f 1c66 da3f
00000040: e284 d53f 879a c23e a6cf 953f d52b cc3f
0.38630044 0.6082494 1.0126632 0.86761534 0.7064094 1.1380296 0.84192127 0.96612984
1.4686947 0.6044316 1.0116255 0.6316185 0.7543016 0.7356824 0.9891506 1.7062411
1.6681178 0.3800852 1.1703994 1.5950876

bn2.running_var f4 [20]
00000000: b69c 6540 4a69 5140 1ee0 a241 3d4e 0940
00000010: fa52 dc3f d3af d441 5b0f 4240 963d 9541
00000020: 8380 9f40 83c6 e140 721e 1f40 5604 c53f
00000030: 4150 4341 5f54 6940 801a 9641 8f8b d640
00000040: 6554 b840 f208 a63f 767b 4140 2c73 bc40
3.5876899 3.2720513 20.359432 2.1454003 1.7212822 26.585852 3.0321872 18.655071
4.9844375 7.0554824 2.4862332 1.5391948 12.207093 3.6457746 18.76294 6.704536
5.760302 1.297148 3.0231605 5.889059

bn3.weight f4 [20]
00000000: 7bd1 b03f dfd4 4dbf 1ad5 4d3f 72d1 b03f
00000010: 18d1 b03f 61d1 b03f d1d4 4dbf 79d4 4dbf
00000020: 5ad1 b03f 42d4 4dbf 7ad4 4d3f 46cf 4cbf
00000030: 51d1 b03f 7ed1 b03f b1d4 4dbf afd1 b03f
00000040: b4d1 b03f 9dd4 4dbf 40e7 4cbf 65d1 b03f
1.3813928 -0.8040294 0.8040329 1.3813918 1.381381 1.3813897 -0.8040286 -0.8040233
1.3813889 -0.80402005 0.8040234 -0.80003774 1.3813878 1.3813932 -0.80402666 1.381399
1.3813996 -0.8040255 -0.8004036 1.3813902

bn3.bias f4 [20]
00000000: d1be 553f d9d4 4d3f 6cd5 4dbf cebe 553f
00000010: 24bd 553f f0be 553f d3d4 4d3f 75d4 4d3f
00000020: c3be 553f 40d4 4d3f 75d4 4dbf 6e4c 4e3f
00000030: e1be 553f e2be 553f b8d4 4d3f 1bbf 553f
00000040: 2bbf 553f a4d4 4d3f b348 4e3f eabe 553f
0.8349429 0.80402905 -0.8040378 0.8349427 0.8349173 0.8349447 0.8040287 0.8040231
0.83494204 0.8040199 -0.8040231 0.8058537 0.83494383 0.8349439 0.8040271 0.8349473
0.83494824 0.8040259 0.8057968 0.83494437

bn3.running_mean f4 [20]
00000000: f4e0 5c3e be31 603e 29cb b83c 5b4e 3c3e
00000010: 12d6 9a3e e346 e03d 8cfc 113e 82fc 2c3e
00000020: 6dbc ec3d 9c04 ac3d 153b 743e 0fd4 7d3e
00000030: 0273 be3d b2a2 4b3e 5823 693e 6155 9a3e
00000040: c85e 913e dc68 9d3e 6631 8d3e e8d1 053e
0.21570188 0.21893975 0.022557812 0.18389265 0.30241448 0.109510206 0.14256495 0.16893199
0.11559377 0.08399317 0.23850663 0.24787925 0.0929928 0.19886282 0.22767389 0.30143264
0.28392625 0.30744064 0.2757675 0.13068354

bn3.running_var f4 [20]
00000000: 5723 933f 6ca7 613f c9b5 2a3f 4dcf 823f
00000010: 6c80 bc3f 9306 3c3f 2a91 453f 58cc 593f
00000020: 5083 4a3f 7899 3e3f 115d 513f 20fe 9e3f
00000030: 7e15 3f3f 21f5 7f3f 224b 7a3f 160a bf3f
00000040: 11bd ac3f 9bdb 873f 5a15 ba3f d478 4d3f
1.149516 0.8814609 0.6668363 1.0219513 1.4726691 0.7344753 0.7717463 0.8507743
0.79106617 0.74452925 0.81782633 1.2421303 0.7464217 0.9998341 0.97770894 1.4924953
1.3495198 1.0613893 1.4537766 0.80262494
