Results/NN_MLP_MLs/MLP_Ensemble/Model_Results/AGTwRD/3layer-test1/best_model_0.pt (torch, 74525 bytes, 20 tensors)

country_embedding.weight f4 [8, 2]
0	0xc1113938	-9.076469
1	0xc1113949	-9.076486
2	0xc1175bae	-9.459883
3	0xc1175bec	-9.459942
4	0x41e75bd4	28.919838
5	0x41e75bd4	28.919838
6	0xc110ee6c	-9.058208
7	0xc110f133	-9.058887
8	0xc0bf0f86	-5.970645
9	0xc0bf1039	-5.9707303
10	0xc14dc7eb	-12.861308
11	0xc14dca21	-12.861848
12	0xc0afdeae	-5.4959326
13	0xc0afdf9f	-5.4960475
14	0xc01a4463	-2.410424
15	0xc01a45c6	-2.4105086

fc1.weight f4 [200, 57]
0	0x3ec2e34b	0.38064036
1	0xbf95ad62	-1.1693537
2	0x3faef5cd	1.3668762
3	0xc01f3aeb	-2.487971
4	0xbfb97650	-1.4489231
5	0xbf940d3f	-1.1566542
6	0xbfe50962	-1.7893488
7	0xc0cf8989	-6.485539
8	0xbfbd833d	-1.4805676
9	0xbfdc31d8	-1.7202711
10	0x4014bf7f	2.324188
11	0xc05797ce	-3.3686404
12	0x3fd7eb2b	1.6868643
13	0x3f29bb23	0.6630117
14	0xbfbf5d96	-1.4950435
15	0xbf97c037	-1.1855534
16	0x40628f52	3.5399976
17	0x3f92ae2e	1.1459405
18	0xb6169860	-2.2440436e-06
19	0xbf1d3589	-0.61409813
20	0x3e49593f	0.19662951
21	0xbfd26415	-1.6436793
22	0xbfd14e12	-1.635195
23	0xc01d815d	-2.4610207
24	0xbfc4d93e	-1.5378797
25	0xc0b0c053	-5.523477
26	0xbeceb982	-0.40375906
27	0xbfd494af	-1.6607875
28	0x400613c2	2.094956
29	0xc0733649	-3.8001883
30	0x4071d6a4	3.7787256
31	0x3f2e7ae4	0.68156266
32	0xc060df31	-3.5136225
33	0xc0930291	-4.5940633
34	0x40e76d74	7.232111
35	0x3e21a0cf	0.15784
36	0x35ab194b	1.2747854e-06
37	0xbfcac4aa	-1.5841267
38	0x3f0906c7	0.53525966
39	0xbdc2805d	-0.094971396
40	0xbfa77ff7	-1.3085927
41	0xc01067b4	-2.2563295
42	0xbf91f1dd	-1.1401936
43	0xc0170be3	-2.3601005
44	0xbe34bff5	-0.17651351
45	0xbfe06c3b	-1.7533029
46	0x401879ea	2.382441
47	0xc071e9d6	-3.7798972
48	0x403eb646	2.979875
49	0x3f78a853	0.9713184
50	0xc0529614	-3.29041
51	0xc093635c	-4.605879
52	0x41091742	8.568178
53	0x3e14d749	0.1453525
54	0xb6261c7d	-2.475251e-06
55	0x422ced1f	43.231564
56	0x422ced19	43.23154
57	0x359f9bf6	1.1891814e-06
58	0x35b381b2	1.3374286e-06
59	0x35b8be36	1.3764427e-06
60	0xb55bb29b	-8.184376e-07
61	0xb68ea1f1	-4.2507822e-06
62	0xb59bfc70	-1.1621869e-06
63	0xb668ac93	-3.4671145e-06
64	0xb6955ad2	-4.451119e-06
65	0x35bb63cc	1.396163e-06
66	0x3584262e	9.845878e-07
67	0xb69c6bec	-4.661726e-06
68	0xb565e8ff	-8.56482e-07
69	0xb6062256	-1.9987542e-06
70	0xb6054bb1	-1.9862603e-06
71	0xb6447e48	-2.9279781e-06
72	0xb46ee373	-2.2248223e-07
73	0xb6617f12	-3.3601577e-06
74	0xb4966c44	-2.801845e-07
75	0x35da03dc	1.6243389e-06
76	0x3561f1a3	8.417066e-07
77	0xb489ce9d	-2.566857e-07
78	0xb69b94bb	-4.6366745e-06
79	0xb66da73b	-3.5413093e-06
80	0x341ce68d	1.4612506e-07
81	0xb552d406	-7.853963e-07
82	0xb684fc4c	-3.963278e-06
83	0xb65df17d	-3.307213e-06
84	0x35d1ea82	1.5639964e-06
85	0x353daf1a	7.0662793e-07
86	0xb63fcf24	-2.858179e-06
87	0xb61812d4	-2.2660724e-06
88	0xb6979476	-4.517434e-06
89	0xb5cb651b	-1.5154104e-06
90	0xb6821305	-3.876516e-06
91	0xb6840b9c	-3.935258e-06
92	0xb5db665b	-1.6346561e-06
93	0x3501751b	4.8226656e-07
94	0xb63a1972	-2.773097e-06
95	0x34f0a5e5	4.4824188e-07
96	0xb664fee2	-3.4123009e-06
97	0x35c386b2	1.4567834e-06
98	0x3547952e	7.435036e-07
99	0xb68bcc3c	-4.166299e-06
100	0xb61778b3	-2.257101e-06
101	0xb5b0315e	-1.312739e-06
102	0xb584c00b	-9.890658e-07
103	0xb53acbce	-6.9586974e-07
104	0xb453bc81	-1.9719484e-07
105	0xb5a9d2b0	-1.2652799e-06
106	0xb64affc6	-3.0249225e-06
107	0x3385970f	6.2207725e-08
108	0xb6984beb	-4.538791e-06
109	0xb661955d	-3.3614554e-06
110	0xb617c847	-2.261733e-06
111	0xb5d1ffb8	-1.5646137e-06
112	0xb62d3a0b	-2.5812794e-06
113	0xb59db253	-1.1749311e-06
114	0x3ec285d6	0.37992734
115	0xbf95c1c7	-1.1699761
116	0x3faee381	1.3663179
117	0xc01f43bb	-2.488509
118	0xbfb988f3	-1.4494919
119	0xbf942212	-1.1572897
120	0xbfe51d22	-1.7899516
121	0xc0cf91bf	-6.4865413
122	0xbfbd9631	-1.481146
123	0xbfdc4777	-1.7209309
124	0x4014b392	2.32346
125	0xc057a121	-3.3692095
126	0x3fd7d6c1	1.6862413
127	0x3f29913c	0.66237235
128	0xbfbf7378	-1.4957113
129	0xbf97d83c	-1.1862864
130	0x4062842b	3.539317
131	0x3f92940c	1.145143
132	0xb5d647ce	-1.596514e-06
133	0xbf1d5fb5	-0.6147416
134	0x3e48b032	0.19598463
135	0xbfd2789b	-1.6443056
136	0xbfd16455	-1.6358744
137	0xc01d8756	-2.4613853
138	0xbfc4eb45	-1.5384299
139	0xc0b0c751	-5.5243306
140	0xbecf0c0c	-0.4043888
141	0xbfd4a952	-1.6614172
142	0x40060764	2.094201
143	0xc073402a	-3.8007913
144	0x4071cd2f	3.7781484
145	0x3f2e5099	0.6809173
146	0xc060e7ee	-3.5141559
147	0xc0931098	-4.5957756
148	0x40e76a89	7.231755
149	0x3e20ee74	0.15715963
150	0xb5c3d748	-1.4591287e-06
151	0xbfcad97e	-1.5847623
152	0x3f08da49	0.53458077
153	0xbdc3e17f	-0.09564494
154	0xbfa79530	-1.3092403
155	0xc0106bd6	-2.2565818
156	0xbf92034e	-1.1407259
157	0xc0171863	-2.3608634
158	0xbe35675b	-0.17715208
159	0xbfe08228	-1.753972
160	0x40187035	2.3818486
161	0xc071f305	-3.7804577
162	0x403ea9e5	2.9791195
163	0x3f787ddc	0.97067046
164	0xc0529c42	-3.2907872
165	0xc0936718	-4.6063347
166	0x410903de	8.563444
167	0x3e142b98	0.14469755
168	0x35cf25eb	1.5433737e-06
169	0x422ced20	43.231567
170	0x422ced1e	43.23156
171	0x3ec28609	0.37992886
172	0xbf95c25c	-1.1699939
173	0x3faee381	1.3663179
174	0xc01f43c0	-2.4885101
175	0xbfb988f2	-1.4494917
176	0xbf9422a5	-1.1573073
177	0xbfe51cf6	-1.7899463
178	0xc0cf9203	-6.4865737
179	0xbfbd960c	-1.4811416
180	0xbfdc47a2	-1.7209361
181	0x4014b37b	2.3234546
182	0xc057a0fe	-3.3692012
183	0x3fd7d6b5	1.6862398
184	0x3f29910c	0.6623695
185	0xbfbf7335	-1.4957033
186	0xbf97d87f	-1.1862944
187	0x40628430	3.539318
188	0x3f92940d	1.1451432
189	0x3616df9b	2.2481897e-06
190	0xbf1d6000	-0.6147461
191	0x3e48b223	0.19599204
192	0xbfd278e7	-1.6443146
193	0xbfd16464	-1.6358762
194	0xc01d870e	-2.461368
195	0xbfc4eb6d	-1.5384346
196	0xc0b0c71e	-5.5243063
197	0xbecf0bef	-0.40438792
198	0xbfd4a94b	-1.6614164
199	0x40060768	2.094202
200	0xc073405c	-3.8008032
201	0x4071cd15	3.7781422
202	0x3f2e50aa	0.68091834
203	0xc060e7b2	-3.5141416
204	0xc09311e1	-4.5959325
205	0x40e76a82	7.2317514
206	0x3e20ee8f	0.15716003
207	0x33c34b56	9.0940986e-08
208	0xbfcada48	-1.5847864
209	0x3f08daed	0.53459054
210	0xbdc3e2a8	-0.095647156
211	0xbfa79588	-1.3092508
212	0xc0106ba7	-2.2565706
213	0xbf920391	-1.1407338
214	0xc0171837	-2.360853
215	0xbe35660b	-0.17714708
216	0xbfe08247	-1.7539757
217	0x4018712c	2.3819075
218	0xc071f2d7	-3.7804468
219	0x403ea9c9	2.9791129
220	0x3f787df5	0.97067195
221	0xc0529c2f	-3.2907827
222	0xc09366f5	-4.606318
223	0x410903f7	8.563468
224	0x3e142930	0.14468837
225	0x3621b6e9	2.4097337e-06
226	0x422ced1c	43.231552
227	0x422ced14	43.23152
228	0x3ec28b38	0.3799684
229	0xbf95c159	-1.169963
230	0x3faee3f2	1.3663313
231	0xc01f4341	-2.4884799
232	0xbfb98772	-1.449446
233	0xbf94213d	-1.1572644
234	0xbfe51c87	-1.7899331
235	0xc0cf918b	-6.4865165
236	0xbfbd95fa	-1.4811394
237	0xbfdc46db	-1.7209123
238	0x4014b3d1	2.3234751
239	0xc057a0de	-3.3691936
240	0x3fd7d73a	1.6862557
241	0x3f299268	0.66239023
242	0xbfbf7207	-1.4956673
243	0xbf97d7ee	-1.1862772
244	0x4062847c	3.5393362
245	0x3f92940e	1.1451433
246	0x35e44dc9	1.7009962e-06
247	0xbf1d5e27	-0.6147179
248	0x3e48b72f	0.19601129
249	0xbfd2783a	-1.644294
250	0xbfd16389	-1.6358501
251	0xc01d870f	-2.4613683
252	0xbfc4ea67	-1.5384034
253	0xc0b0c688	-5.524235
254	0xbecf0a54	-0.40437567
255	0xbfd4a8ca	-1.661401

fc1.bias f4 [200]
0	0x3eb9dbbd	0.3630046
1	0xb68afee3	-4.142393e-06
2	0x3eb97c2a	0.36227542
3	0x3eb97a3b	0.36226067
4	0x3eb9816f	0.36231562
5	0x3eb9bcb8	0.36276793
6	0xb5a8ed8b	-1.258611e-06
7	0x3eb990d6	0.36243314
8	0xb5d0dac4	-1.5560877e-06
9	0xb60d448a	-2.1050532e-06
10	0x3eba0875	0.36334577
11	0x3eb9bc6a	0.3627656
12	0x3eb9e199	0.3630493
13	0x3eb9b8eb	0.36273894
14	0xb4b68676	-3.3997975e-07
15	0x3eb96f12	0.36217552
16	0xb575b8da	-9.1538607e-07
17	0xb4aeb38b	-3.254066e-07
18	0x357eed47	9.496766e-07
19	0xb62de6a6	-2.5913264e-06
20	0x3615e0be	2.2333547e-06
21	0x3eb9dc04	0.3630067
22	0x3eb96f08	0.36217523
23	0xb5aa74bf	-1.2699965e-06
24	0xb50dd4f3	-5.2836475e-07
25	0x359bf41d	1.1619446e-06
26	0x36162dc7	2.2378388e-06
27	0x3eb987c5	0.36236396
28	0x3eb9c95a	0.36286432
29	0x35fb208c	1.871043e-06
30	0x3eb9a5ef	0.3625941
31	0x3eb9bba3	0.36275968
32	0x35959f17	1.1147666e-06
33	0x3eb98832	0.3623672
34	0x3eb99684	0.36247647
35	0x3eb9992c	0.36249673
36	0x3eb97d52	0.36228424
37	0x350d315a	5.259841e-07
38	0xb64d1193	-3.055761e-06
39	0x3eb9bb7c	0.36275852
40	0xb615313d	-2.223139e-06
41	0x35d5fbc2	1.5943008e-06
42	0xb604a4fd	-1.9765569e-06
43	0x3565bf50	8.5587544e-07
44	0xb6287d63	-2.5106935e-06
45	0x3642f01b	2.9048012e-06
46	0x36745603	3.6408899e-06
47	0x3599e754	1.1466714e-06
48	0x3eb9ada6	0.36265296
49	0xb5f90758	-1.8554083e-06
50	0x3eb96f1c	0.36217582
51	0x3eb9851b	0.36234364
52	0xb600bf15	-1.918471e-06
53	0x3eb9c563	0.36283407
54	0x35ee7777	1.7767151e-06
55	0x35937fe5	1.0989576e-06
56	0x35201629	5.963689e-07
57	0x3628e6e2	2.5168342e-06
58	0xb4b62750	-3.3928745e-07
59	0xb50e01f3	-5.290196e-07
60	0x3eb96e60	0.36217022
61	0x36025c20	1.9425133e-06
62	0xb63d13cd	-2.817472e-06
63	0x362860b0	2.509023e-06
64	0xb5a44b8b	-1.2240938e-06
65	0x3eb9cb52	0.36287934
66	0xb661ad25	-3.3628396e-06
67	0x3eb9eabc	0.363119
68	0xb5b3cc47	-1.3395992e-06
69	0x35918303	1.0841471e-06
70	0x3eb96dad	0.36216488
71	0xb6427f6b	-2.898242e-06
72	0x3eb9baa1	0.362752
73	0x364b24f0	3.0270858e-06
74	0x35d67027	1.5976883e-06
75	0x3eb9a1d5	0.3625628
76	0x36049d6f	1.9761171e-06
77	0xb4e955fc	-4.3462194e-07
78	0x3eb9bb82	0.3627587
79	0x3eb9960c	0.3624729
80	0x3eb9c7ae	0.36285156
81	0x3eb9942e	0.36245865
82	0x368f9fd3	4.280338e-06
83	0x3eb994fd	0.36246482
84	0x3eba074f	0.363337
85	0x354163ab	7.204314e-07
86	0xb5eb6d59	-1.7540689e-06
87	0x3eb9bd82	0.36277395
88	0xb6208be9	-2.3923296e-06
89	0x3eb9950e	0.36246532
90	0x3eb9bb43	0.36275682
91	0x359902ca	1.14002e-06
92	0x3eb9bb46	0.3627569
93	0x3eb979ec	0.36225832
94	0xb6569fa3	-3.1981406e-06
95	0xb5de02c0	-1.6541089e-06
96	0x3eb994f3	0.36246452
97	0x35b1bc06	1.324225e-06
98	0xb3cc53a2	-9.514703e-08
99	0xb57d8872	-9.44484e-07
100	0x3eb981b4	0.36231768
101	0x3eb9bc5c	0.3627652
102	0x3eb9de1e	0.36302274
103	0x3eb9a84f	0.36261222
104	0xb591166b	-1.0809866e-06
105	0x3eb9b260	0.36268902
106	0x3eb98193	0.3623167
107	0xb5bb3ecb	-1.3950861e-06
108	0x347b8040	2.3422854e-07
109	0x3eb96e0d	0.36216775
110	0x3eb9aa14	0.36262572
111	0x3eb9d0ef	0.36292216
112	0x3eb9950b	0.36246523
113	0xb64b33d1	-3.0279518e-06
114	0x3eb9a80a	0.36261016
115	0x3eb99c7c	0.362522
116	0xb61714b1	-2.2512797e-06
117	0xb554a05d	-7.9209514e-07
118	0x3625350f	2.46178e-06
119	0x3584232c	9.845003e-07
120	0x36439142	2.9141816e-06
121	0xb4ff1d9e	-4.7519e-07
122	0x3eb9837b	0.36233124
123	0x3eb996cc	0.3624786
124	0xb40e4448	-1.3249621e-07
125	0x3eb98200	0.36231995
126	0x354325ed	7.269835e-07
127	0x361fb765	2.3799596e-06
128	0x3eb9827c	0.36232364
129	0x3eb9d475	0.36294904
130	0x3eb9a8da	0.36261636
131	0x361e5750	2.3594657e-06
132	0x3eb9b8da	0.36273843
133	0xb5350baa	-6.744473e-07
134	0x3eb986ae	0.36235565
135	0x35eaeddb	1.7503584e-06
136	0x3eb96d5b	0.36216244
137	0x3591d550	1.0865424e-06
138	0x3eb9d115	0.3629233
139	0x348264d7	2.4287758e-07
140	0xb5e0caab	-1.6748285e-06
141	0x3598d892	1.1387913e-06
142	0x3eb9bcf8	0.36276984
143	0x35e9725e	1.7393138e-06
144	0x3eb9b217	0.36268684
145	0x3eb99cba	0.36252385
146	0x3eb9ba17	0.36274788
147	0x3eb9a9f8	0.36262488
148	0x3eb9ab59	0.3626354
149	0x3eb9f454	0.3631922
150	0x3eb9b4b2	0.36270672
151	0x3eb994b5	0.36246267
152	0x362cd670	2.5754816e-06
153	0xb5e29d53	-1.68841e-06
154	0x3eb97ef3	0.36229667
155	0x32e4e885	2.6648431e-08
156	0x3596ce4d	1.1235912e-06
157	0x3eb9cf90	0.3629117
158	0x3eb9773f	0.3622379
159	0x3eb97d10	0.36228228
160	0xb1196e07	-2.2326974e-09
161	0xb62d3474	-2.580954e-06
162	0x35160e08	5.589977e-07
163	0x34a117ce	3.0005907e-07
164	0x3eb995ea	0.36247188
165	0xb5f85f29	-1.8505135e-06
166	0x3681216f	3.8483918e-06
167	0xb5a10a01	-1.1998346e-06
168	0x3eb975c4	0.3622266
169	0x3eb99218	0.36244273
170	0xb5518a52	-7.805985e-07
171	0x3eb9bd0d	0.36277047
172	0x3eb971ec	0.36219728
173	0xb44accb7	-1.8887191e-07
174	0xb62b4d5c	-2.5526015e-06
175	0x3eb9809f	0.36230943
176	0x3626ca5f	2.4853723e-06
177	0x3eb96ef7	0.36217472
178	0x3eb99600	0.36247253
179	0x3586b8ef	1.0037601e-06
180	0xb69c51dc	-4.658692e-06
181	0x3eb96e5f	0.3621702
182	0x362b8317	2.555729e-06
183	0x3eb99522	0.36246592
184	0x364d5a15	3.0599815e-06
185	0xb651b4f0	-3.1248746e-06
186	0xb5e713da	-1.7216619e-06
187	0x3eb97e66	0.36229247
188	0x36467220	2.9570729e-06
189	0xb6443a2d	-2.9240139e-06
190	0x3eb980f2	0.3623119
191	0xb6542b8a	-3.1615805e-06
192	0x3eb9e5a5	0.36308017
193	0x35c1c551	1.4437047e-06
194	0x3eb994db	0.3624638
195	0xb48212b8	-2.4228007e-07
196	0xb5a0fbc7	-1.1994206e-06
197	0x3eb96f3a	0.36217672
198	0xb64209be	-2.8913923e-06
199	0x3eb96d2e	0.3621611

fc2.weight f4 [20, 200]
0	0xb4d851c8	-4.029264e-07
1	0xb57bc331	-9.378883e-07
2	0xb365d1e9	-5.350913e-08
3	0xb63bcfbb	-2.7986086e-06
4	0xb5fefa71	-1.8997363e-06
5	0xb6459dbd	-2.9447103e-06
6	0x362478bf	2.4508188e-06
7	0xb5900aa2	-1.0731931e-06
8	0x3583de61	9.824981e-07
9	0x344ceecf	1.9085859e-07
10	0xb647db71	-2.9781042e-06
11	0x339acd63	7.2085435e-08
12	0xb5322ffb	-6.637999e-07
13	0xb5ea9ff4	-1.7480911e-06
14	0xb52ad003	-6.363263e-07
15	0xb58632db	-9.998579e-07
16	0x3471b692	2.2511293e-07
17	0x36307b64	2.6297866e-06
18	0x35ace39f	1.2881245e-06
19	0xb595bbf8	-1.1156071e-06
20	0x360e4257	2.1198264e-06
21	0xb62cda52	-2.5757076e-06
22	0xb4c17e9f	-3.604118e-07
23	0xb61115fa	-2.1619476e-06
24	0x35218b34	6.017974e-07
25	0x34ebddc5	4.393352e-07
26	0x351b5346	5.786318e-07
27	0x344ddc7d	1.9172326e-07
28	0xb5a4e9c8	-1.2286991e-06
29	0xb42ec9fe	-1.6278497e-07
30	0xb6378c6a	-2.7350857e-06
31	0xb61b2afe	-2.3121825e-06
32	0xb631f535	-2.6517785e-06
33	0xb5ce989a	-1.5392609e-06
34	0xb5bcd722	-1.4069703e-06
35	0xb64d599a	-3.0599535e-06
36	0xb59ab181	-1.1525555e-06
37	0x35404093	7.161954e-07
38	0x35218665	6.0172744e-07
39	0xb6425cb5	-2.8962215e-06
40	0xb5017c3d	-4.8237035e-07
41	0x3536ac0b	6.805064e-07
42	0x35dfb6ac	1.6667959e-06
43	0xb5354254	-6.7524275e-07
44	0xb53368a2	-6.6834957e-07
45	0xb51e75d8	-5.903107e-07
46	0xb5cdb918	-1.532756e-06
47	0x350e03b6	5.290452e-07
48	0xb5cf0018	-1.5422729e-06
49	0xb61efddc	-2.36916e-06
50	0xb59940f1	-1.1418289e-06
51	0xb6135b8f	-2.1958e-06
52	0x35448002	7.3201966e-07
53	0x345610b7	1.9936384e-07
54	0xb595a855	-1.1150356e-06
55	0xb5c9996b	-1.5020318e-06
56	0xb5db531a	-1.6340957e-06
57	0x360e09ad	2.116528e-06
58	0xb5a806c3	-1.2518943e-06
59	0x35e22b4c	1.6850913e-06
60	0xb631a4b9	-2.6470937e-06
61	0x349a850c	2.878154e-07
62	0x36084541	2.030589e-06
63	0x32eda715	2.7666411e-08
64	0x357ec154	9.4903703e-07
65	0xb5a4992c	-1.2263531e-06
66	0xb5feac87	-1.8974687e-06
67	0xb6167e83	-2.2425381e-06
68	0x346404e3	2.1235932e-07
69	0xb6101226	-2.1468236e-06
70	0xb619c376	-2.291255e-06
71	0x361906ca	2.2802728e-06
72	0xb34897bb	-4.6704127e-08
73	0xb601b194	-1.9325862e-06
74	0xb5dbd073	-1.6377438e-06
75	0xb6339332	-2.6758757e-06
76	0xb4882d69	-2.5365014e-07
77	0x34f498ad	4.5559628e-07
78	0xb61066e8	-2.1517571e-06
79	0xb64274ae	-2.897617e-06
80	0xb602a958	-1.947008e-06
81	0xb5726e1e	-9.0312267e-07
82	0xb64138c6	-2.8792288e-06
83	0xb528709a	-6.2748734e-07
84	0xb636b7c4	-2.722708e-06
85	0x361f0ebc	2.3701423e-06
86	0x358b087b	1.0358775e-06
87	0x3412bef2	1.3666775e-07
88	0xb57db688	-9.451546e-07
89	0xb4fc6888	-4.7014714e-07
90	0xb5d42ddf	-1.5808581e-06
91	0xb5d85b06	-1.6119745e-06
92	0xb5e69f37	-1.7182673e-06
93	0xb54c47a6	-7.6100184e-07
94	0xb58735a4	-1.0073895e-06
95	0x36283cb9	2.5069296e-06
96	0xb5bcd797	-1.4069836e-06
97	0xb428082c	-1.5649192e-07
98	0x342d48c8	1.6138358e-07
99	0xb5e17ebc	-1.6800691e-06
100	0xb60a59a0	-2.061577e-06
101	0xb530787d	-6.574044e-07
102	0xb5fa3266	-1.8641119e-06
103	0xb5838237	-9.798158e-07
104	0xb5165e0c	-5.601621e-07
105	0xb5e45de2	-1.7014647e-06
106	0xb6029292	-1.9456825e-06
107	0x36332ed9	2.6700347e-06
108	0xb5284770	-6.268883e-07
109	0xb64ec58d	-3.0811382e-06
110	0xb64d0a21	-3.0553276e-06
111	0xb5e4e192	-1.7052973e-06
112	0xb627015e	-2.4885735e-06
113	0x36185b6b	2.2702977e-06
114	0xb447d9b6	-1.8612522e-07
115	0xb4a33d6b	-3.0405803e-07
116	0x35311775	6.597177e-07
117	0x334a3ab8	4.7085194e-08
118	0x361059ac	2.1509868e-06
119	0x359f586b	1.1872156e-06
120	0x3520c89b	5.9896564e-07
121	0x35c86dc8	1.4933112e-06
122	0xb50f1398	-5.3300164e-07
123	0xb61b0d5d	-2.3104578e-06
124	0xb450d88b	-1.9450287e-07
125	0xb64344d6	-2.9097332e-06
126	0x35cb65e0	1.5154328e-06
127	0xb5e479b0	-1.702274e-06
128	0xb5ada93c	-1.2938758e-06
129	0xb5aa1dd6	-1.267467e-06
130	0xb5db2040	-1.6326157e-06
131	0x3549339e	7.495345e-07
132	0xb64ad3ef	-3.0223707e-06
133	0xb62c1805	-2.5643978e-06
134	0xb5ae5375	-1.2988299e-06
135	0xb3ff8284	-1.18981035e-07
136	0xb638cc98	-2.7537226e-06
137	0xb3ff5c72	-1.18911785e-07
138	0xb38e2f74	-6.621022e-08
139	0xb409fda4	-1.2851393e-07
140	0xb6102fdd	-2.1485532e-06
141	0x3607b9d1	2.0224727e-06
142	0xb62a0297	-2.5333482e-06
143	0x3530259c	6.561984e-07
144	0xb626c2a8	-2.4849232e-06
145	0xb57ea041	-9.4855574e-07
146	0x33176754	3.5251404e-08
147	0xb625756f	-2.4655271e-06
148	0xb632cba3	-2.66426e-06
149	0xb53c3af9	-7.0121274e-07
150	0xb62772e1	-2.4951808e-06
151	0xb54f145f	-7.7143153e-07
152	0x35f5bba5	1.8308534e-06
153	0x3619d378	2.2921868e-06
154	0xb5a7258a	-1.2453395e-06
155	0x34a71c66	3.1126837e-07
156	0xb47d591b	-2.3594878e-07
157	0xb4f18444	-4.4985984e-07
158	0xb5fdd587	-1.8912114e-06
159	0xb6213e06	-2.4026972e-06
160	0xb547e703	-7.4469443e-07
161	0xb4388f32	-1.718843e-07
162	0xb520e455	-5.993691e-07
163	0x3267e592	1.3498168e-08
164	0xb5c805ed	-1.4902886e-06
165	0x344b3cbb	1.8927942e-07
166	0xb457632d	-2.0059515e-07
167	0xb4f692c1	-4.5927848e-07
168	0xb5f9e5db	-1.8618842e-06
169	0xb4c12657	-3.5976947e-07
170	0xb5cdb8cf	-1.5327477e-06
171	0x32fb0cdf	2.9226099e-08
172	0xb54f9a8d	-7.733841e-07
173	0xb58ed21b	-1.0640973e-06
174	0x3617e4d8	2.2633958e-06
175	0xb6109f49	-2.1550388e-06
176	0x349593cc	2.786095e-07
177	0xb2fd42a0	-2.9483374e-08
178	0xb4d98490	-4.0515852e-07
179	0x360d4544	2.1050955e-06
180	0xb5a4adec	-1.226957e-06
181	0xb647fb0f	-2.9799446e-06
182	0x36280d48	2.5041682e-06
183	0xb5ab919e	-1.2782873e-06
184	0x35ad8b63	1.2930071e-06
185	0xb5ab3cd3	-1.2758195e-06
186	0xb443a1c8	-1.8219646e-07
187	0xb53fc051	-7.14329e-07
188	0xb572705d	-9.0315535e-07
189	0x33273520	3.8931034e-08
190	0xb652d00e	-3.1413542e-06
191	0x350b183b	5.1816795e-07
192	0xb493aa4b	-2.7504788e-07
193	0xb5b72395	-1.3644918e-06
194	0xb46af78b	-2.1883004e-07
195	0x342497b0	1.5328874e-07
196	0x3434a6ee	1.6824535e-07
197	0xb5c297c3	-1.4498295e-06
198	0xb502a33f	-4.866633e-07
199	0xb6044d3d	-1.9714491e-06
200	0xb59064fc	-1.0758226e-06
201	0xb4de102a	-4.1362483e-07
202	0xb4bad700	-3.4801633e-07
203	0xb55725de	-8.0148845e-07
204	0xb53ac668	-6.957912e-07
205	0xb4b64e1a	-3.3956968e-07
206	0xb5db5d2b	-1.6343887e-06
207	0xb5f2611b	-1.8058666e-06
208	0xb60b745b	-2.0780342e-06
209	0xb3ca3b5f	-9.4171575e-08
210	0xb5059a5a	-4.977097e-07
211	0xb64b9017	-3.0333229e-06
212	0xb5a7b7e3	-1.2495988e-06
213	0xb6151afd	-2.221844e-06
214	0x365e14cc	3.3092683e-06
215	0xb59d2eef	-1.1711071e-06
216	0xb64b7c96	-3.0321876e-06
217	0xb5b1e5bd	-1.325439e-06
218	0xb64038a3	-2.8643196e-06
219	0x3652cb47	3.1410761e-06
220	0xb3d1f258	-9.776403e-08
221	0xb6448292	-2.9282278e-06
222	0xb6093c3a	-2.0449647e-06
223	0xb5e670e3	-1.716919e-06
224	0xb64f19d1	-3.086043e-06
225	0xb64a8620	-3.0178417e-06
226	0xb348c799	-4.674766e-08
227	0xb4ed6331	-4.421686e-07
228	0xb619d304	-2.2921604e-06
229	0xb58d6140	-1.0533622e-06
230	0xb60ad989	-2.0690225e-06
231	0xb5bdd084	-1.4142283e-06
232	0x35d960bd	1.6195914e-06
233	0xb594ed88	-1.109599e-06
234	0xb62c6756	-2.5690147e-06
235	0xb48ebe6f	-2.658812e-07
236	0xb60be82c	-2.0847756e-06
237	0x323bbee2	1.0928234e-08
238	0xb633b072	-2.6775783e-06
239	0xb605bd16	-1.9928607e-06
240	0x363e64df	2.837092e-06
241	0xb65ddc2e	-3.3059728e-06
242	0x35df8c4f	1.665563e-06
243	0x362a797d	2.540269e-06
244	0x35da08f2	1.6244869e-06
245	0x34636c21	2.118036e-07
246	0xb63e66cd	-2.8372044e-06
247	0xb56d37c8	-8.837055e-07
248	0xb661b416	-3.3632436e-06
249	0x3539ef52	6.926613e-07
250	0xb529479e	-6.306162e-07
251	0xb61290bc	-2.1839942e-06
252	0xb657408a	-3.2075063e-06
253	0xb6212a3c	-2.4015453e-06
254	0xb5ba047e	-1.3859387e-06
255	0x358c77aa	1.046564e-06

fc2.bias f4 [20]
0	0x353669fc	6.795451e-07
1	0xb57b07bf	-9.351606e-07
2	0x3ef26e4a	0.4734977
3	0x34e8d081	4.3365074e-07
4	0x3ef26d93	0.47349223
5	0x356ecafc	8.895729e-07
6	0x3ef26de5	0.47349468
7	0x34ab9a62	3.196356e-07
8	0xb65002e5	-3.09961e-06
9	0x3ef26d7f	0.47349164
10	0x3ef26dbf	0.47349355
11	0x311559b9	2.1733355e-09
12	0x3ef26e3c	0.47349727
13	0xb66efb25	-3.561095e-06
14	0xb61a8800	-2.302695e-06
15	0xb644ef0a	-2.9345415e-06
16	0x3ef26de4	0.47349465
17	0x3ef26df3	0.4734951
18	0x366c2fe5	3.5194619e-06
19	0x3ef26e11	0.473496

fc3.weight f4 [20, 20]
0	0x35c7e5c4	1.4893526e-06
1	0x368d7bbe	4.216533e-06
2	0xb6749007	-3.6442668e-06
3	0xb48ad399	-2.585846e-07
4	0x361e687f	2.360466e-06
5	0x36588a47	3.2266996e-06
6	0xb6a8f1ae	-5.0349254e-06
7	0xb61726db	-2.252337e-06
8	0xb50c4087	-5.2247964e-07
9	0x35c7d6c5	1.4889162e-06
10	0x35a3fa92	1.2217372e-06
11	0x36e3dfb7	6.791171e-06
12	0xb6534915	-3.148399e-06
13	0xb599abc3	-1.1449378e-06
14	0xb6aec28e	-5.2082532e-06
15	0xb3fd21ad	-1.1787356e-07
16	0x354f5528	7.723743e-07
17	0xb6c86ecd	-5.9733634e-06
18	0x3683c5f4	3.927149e-06
19	0xb6b00239	-5.2454675e-06
20	0x36aa84be	5.081848e-06
21	0x3690b8a5	4.31303e-06
22	0x32498b80	1.17314585e-08
23	0x35558caf	7.9553405e-07
24	0xb6b24a01	-5.3134286e-06
25	0x36e0978d	6.693363e-06
26	0xb697ad55	-4.520329e-06
27	0x36e1d1a5	6.7299284e-06
28	0x354f51c0	7.723247e-07
29	0x35de9c73	1.6585822e-06
30	0xb623478e	-2.4330543e-06
31	0xb6823708	-3.8807084e-06
32	0x364253ea	2.8957097e-06
33	0x353c785b	7.02106e-07
34	0x33a75c9c	7.793389e-08
35	0xb61cf325	-2.338734e-06
36	0x361b441f	2.3136452e-06
37	0x342d2312	1.6124639e-07
38	0x366e89d5	3.5544992e-06
39	0xb6ef7221	-7.1360414e-06
40	0xbef3dce7	-0.47629473
41	0xbef3dcfd	-0.47629538
42	0x3f6e5327	0.9309563
43	0xbef3dd08	-0.4762957
44	0x3f6e52fc	0.93095374
45	0xbef3dce8	-0.47629476
46	0x3f6e537b	0.9309613
47	0xbef3dd00	-0.47629547
48	0xbef3dcc7	-0.47629377
49	0x3f6e53fe	0.9309691
50	0x3f6e534a	0.9309584
51	0xbef3dcf8	-0.47629523
52	0x3f6e5333	0.930957
53	0xbef3dcea	-0.47629482
54	0x3ef3c741	0.47612956
55	0xbef3dcc6	-0.47629374
56	0x3f6e52fa	0.9309536
57	0x3f6e54fa	0.93098414
58	0xbef3dcf1	-0.47629502
59	0x3f6e52fe	0.93095386
60	0xbef3dcba	-0.47629339
61	0xbef3dcbf	-0.47629353
62	0x3f6e5367	0.9309601
63	0xbef3dcbd	-0.47629347
64	0x3f6e5286	0.9309467
65	0xbef3dcc9	-0.47629383
66	0x3f6e5438	0.9309726
67	0xbef3dcc8	-0.4762938
68	0xbef3dc19	-0.4762886
69	0x3f6e5391	0.9309626
70	0x3f6e538f	0.9309625
71	0xbef3dcaf	-0.47629306
72	0x3f6e53f7	0.9309687
73	0xbef3dca7	-0.47629282
74	0x3ef3c6d6	0.47612637
75	0xbef3dc7f	-0.47629163
76	0x3f6e5330	0.93095684
77	0x3f6e52e1	0.93095213
78	0xbef3dca2	-0.47629267
79	0x3f6e52c6	0.9309505
80	0xbef3dcf4	-0.4762951
81	0xbef3dcf8	-0.47629523
82	0x3f6e546a	0.93097556
83	0xbef3dcc3	-0.47629365
84	0x3f6e542c	0.93097186
85	0xbef3dcf4	-0.4762951
86	0x3f6e542f	0.93097204
87	0xbef3dcea	-0.47629482
88	0xbef3dc80	-0.47629166
89	0x3f6e5369	0.93096024
90	0x3f6e549b	0.9309785
91	0xbef3dcdb	-0.47629437
92	0x3f6e5309	0.9309545
93	0xbef3dcb4	-0.4762932
94	0x3ef3c78d	0.47613183
95	0xbef3dcf7	-0.4762952
96	0x3f6e541d	0.93097097
97	0x3f6e5331	0.9309569
98	0xbef3dcf1	-0.47629502
99	0x3f6e530f	0.9309549
100	0xb68ff255	-4.2899433e-06
101	0xb60bc9e3	-2.0830128e-06
102	0xb626c7ed	-2.48523e-06
103	0xb5e02494	-1.6699946e-06
104	0x33ded00c	1.0375524e-07
105	0x35cecac8	1.5407213e-06
106	0xb6906062	-4.302755e-06
107	0x360ef2f7	2.1301073e-06
108	0xb68b80ff	-4.15754e-06
109	0xb6ef3f62	-7.130134e-06
110	0xb6c09844	-5.739772e-06
111	0xb63acb30	-2.783443e-06
112	0xb600d521	-1.9197544e-06
113	0x3614276d	2.2076667e-06
114	0x354615e9	7.379263e-07
115	0x35403765	7.1606183e-07
116	0xb50741ba	-5.0387064e-07
117	0xb541b267	-7.215771e-07
118	0xb6833cb2	-3.91117e-06
119	0xb6eb25ed	-7.007961e-06
120	0x368875c3	4.066825e-06
121	0xb60a79f6	-2.0634593e-06
122	0xb5f600c9	-1.8328657e-06
123	0x36046132	1.9726108e-06
124	0x36224c0d	2.4184149e-06
125	0xb61e031b	-2.3545642e-06
126	0xb6974728	-4.5084344e-06
127	0x36de19fc	6.6191405e-06
128	0xb63fbb6a	-2.8570307e-06
129	0xb5b7e8c7	-1.370231e-06
130	0xb6f8be89	-7.413157e-06
131	0xb30813ce	-3.168298e-08
132	0xb6639c69	-3.3916679e-06
133	0x36071705	2.0129967e-06
134	0xb6bbda8c	-5.5984765e-06
135	0x36d42b48	6.323131e-06
136	0x350371f9	4.8967155e-07
137	0xb6b2d32f	-5.3293984e-06
138	0xb5c9f286	-1.5046251e-06
139	0xb66acbd5	-3.4987363e-06
140	0x36362daa	2.7146693e-06
141	0xb63fa69e	-2.8558202e-06
142	0xb6793aee	-3.7138193e-06
143	0xb6cd516d	-6.1189553e-06
144	0xb6860ecb	-3.9952333e-06
145	0x36a41700	4.8902584e-06
146	0xb692375d	-4.357584e-06
147	0x3690c92c	4.314954e-06
148	0xb3bae789	-8.703416e-08
149	0x33508c6b	4.8556483e-08
150	0xb6ea5806	-6.9839907e-06
151	0xb62bc10a	-2.559335e-06
152	0x3646227d	2.9524374e-06
153	0xb5cb007a	-1.5124817e-06
154	0xb68a1339	-4.1149583e-06
155	0x36010d32	1.9230179e-06
156	0x360904db	2.0417417e-06
157	0xb6bef10c	-5.690503e-06
158	0xb5efeaa9	-1.7875183e-06
159	0xb69e213b	-4.7126355e-06
160	0xb5f339ac	-1.8121696e-06
161	0x360b7406	2.0780149e-06
162	0x363689c3	2.7200301e-06
163	0xb5bb6b43	-1.3963803e-06
164	0xb54b97bb	-7.584419e-07
165	0x363249e6	2.6567081e-06
166	0xb6ca8e0c	-6.0366056e-06
167	0x365db939	3.303938e-06
168	0x348465af	2.46609e-07
169	0xb6a2af61	-4.848393e-06
170	0xb6a0b748	-4.7897083e-06
171	0xb5942a83	-1.1039232e-06
172	0xb59e5faa	-1.1799759e-06
173	0xb65b8a08	-3.2713888e-06
174	0xb6a5654e	-4.9291766e-06
175	0x3506246f	4.997191e-07
176	0x364c6ce8	3.046176e-06
177	0x3612cd31	2.1875132e-06
178	0xb6e57bd6	-6.839148e-06
179	0xb677494d	-3.6848535e-06
180	0x34ae679c	3.248541e-07
181	0xb610c902	-2.1574674e-06
182	0x361d140c	2.3406492e-06
183	0x36b107ae	5.275905e-06
184	0xb6d0fce1	-6.228322e-06
185	0x34201e5c	1.4912206e-07
186	0x35a05e44	1.1948364e-06
187	0x36f87d60	7.4055715e-06
188	0x36ab3e9e	5.1034867e-06
189	0xb68477d4	-3.9478564e-06
190	0xb638e204	-2.7549695e-06
191	0x35003091	4.775439e-07
192	0xb6e507c5	-6.8256363e-06
193	0x36b46bba	5.376959e-06
194	0xb5cf6572	-1.5452226e-06
195	0x35630a48	8.457905e-07
196	0xb41cdc26	-1.4608722e-07
197	0x359d0a20	1.1700358e-06
198	0x363c84fd	2.8091592e-06
199	0xb6021cc5	-1.9388256e-06
200	0xbef3dcde	-0.47629446
201	0xbef3dcdd	-0.47629443
202	0x3f6e5344	0.93095803
203	0xbef3dcdf	-0.4762945
204	0x3f6e5393	0.93096274
205	0xbef3dcf4	-0.4762951
206	0x3f6e52d1	0.9309512
207	0xbef3dce2	-0.47629458
208	0xbef3dc48	-0.47629
209	0x3f6e5357	0.93095917
210	0x3f6e532c	0.9309566
211	0xbef3dcc4	-0.47629368
212	0x3f6e53d6	0.93096673
213	0xbef3dcac	-0.47629297
214	0x3ef3c714	0.47612822
215	0xbef3dccb	-0.4762939
216	0x3f6e53a4	0.93096375
217	0x3f6e52d2	0.93095124
218	0xbef3dcc2	-0.47629362
219	0x3f6e52dc	0.93095183
220	0x36099eeb	2.0507093e-06
221	0x36dfc5c4	6.668941e-06
222	0xb6b6632f	-5.435569e-06
223	0xb68d9c6f	-4.2203387e-06
224	0x36a5902f	4.9341684e-06
225	0x361fd31a	2.3815724e-06
226	0x35fb5e2c	1.8728365e-06
227	0x366d32b1	3.5345258e-06
228	0xb68b5a5e	-4.153043e-06
229	0xb654597a	-3.1642544e-06
230	0xb68ad0c4	-4.137024e-06
231	0x36653e85	3.416005e-06
232	0xb5dc0542	-1.6392808e-06
233	0xb5ba2b5b	-1.3870698e-06
234	0xb6bd978c	-5.6502813e-06
235	0x35b04919	1.3134296e-06
236	0xb5c4d018	-1.4663701e-06
237	0xb60a7073	-2.0629057e-06
238	0x3670129f	3.5773626e-06
239	0xb5967767	-1.1210622e-06
240	0xbef3dced	-0.4762949
241	0xbef3dcd8	-0.47629428
242	0x3f6e54f1	0.9309836
243	0xbef3dcff	-0.47629544
244	0x3f6e535f	0.93095964
245	0xbef3dcee	-0.47629493
246	0x3f6e54a2	0.9309789
247	0xbef3dcf5	-0.47629514
248	0xbef3dc9e	-0.47629255
249	0x3f6e52c0	0.93095016
250	0x3f6e5442	0.9309732
251	0xbef3dcf2	-0.47629505
252	0x3f6e52b4	0.93094945
253	0xbef3dcde	-0.47629446
254	0x3ef3c6ad	0.47612515
255	0xbef3dcf0	-0.476295

fc3.bias f4 [20]
0	0x36930ff2	4.3827977e-06
1	0xb67ed9be	-3.7975692e-06
2	0x3f15bc63	0.5849058
3	0x3f15bc5d	0.58490545
4	0x3f15bc5f	0.58490556
5	0x3607bcf5	2.0226555e-06
6	0x36b9f61b	5.54208e-06
7	0x35b0677a	1.3143137e-06
8	0x36ae831c	5.2008672e-06
9	0x36288b59	2.5115062e-06
10	0x3f15bc58	0.58490515
11	0xb4e5bce4	-4.279201e-07
12	0x3f15bc61	0.5849057
13	0x36146b02	2.2116005e-06
14	0x3f15bc62	0.58490574
15	0x36463ef2	2.9540938e-06
16	0x3f15bc5f	0.58490556
17	0x3f15bc6a	0.5849062
18	0x363b0d10	2.7872775e-06
19	0xb55a3250	-8.128454e-07

fc4.weight f4 [1, 20]
0	0xbf1c9a7e	-0.61173236
1	0xbf1c9a7c	-0.61173224
2	0x3f6e502b	0.93091077
3	0x3f6e4f86	0.93090093
4	0x3f6e5004	0.93090844
5	0xbf1c9a7c	-0.61173224
6	0xbf1c9a7d	-0.6117323
7	0xbf1c9a7e	-0.61173236
8	0xbf1c9a7a	-0.6117321
9	0xbf1c9a7d	-0.6117323
10	0x3f6e4fc9	0.9309049
11	0xbf1c9a7c	-0.61173224
12	0x3f6e4ff7	0.93090767
13	0xbf1c9a7b	-0.6117322
14	0x3f6e4ff3	0.9309074
15	0xbf1c9a7f	-0.6117324
16	0x3f6e5008	0.9309087
17	0x3f6e5059	0.9309135
18	0xbf1c9a79	-0.61173207
19	0xbf1c9a7e	-0.61173236

bn1.weight f4 [200]
0	0x3f71f8b1	0.945201
1	0x3e9aec10	0.30258226
2	0x3f6f4b4a	0.93474257
3	0x3f6f59cd	0.934964
4	0x3f6f69e8	0.93520975
5	0x3f714a53	0.94254035
6	0x37cb6cd7	2.4250168e-05
7	0x3f6fbc8d	0.9364708
8	0x37cb6cd7	2.4250168e-05
9	0x37cb6cd7	2.4250168e-05
10	0x3f73323c	0.94998527
11	0x3f714553	0.94246405
12	0x3f721333	0.94560546
13	0x3f70da8e	0.9408349
14	0x37cb6cd7	2.4250168e-05
15	0x3f6f26df	0.9341869
16	0x37cb6cd7	2.4250168e-05
17	0x37cb6cd7	2.4250168e-05
18	0x37cb6cd7	2.4250168e-05
19	0x37cb6cd7	2.4250168e-05
20	0x37cb6cd7	2.4250168e-05
21	0x3f71f8c9	0.9452024
22	0x3f6f2259	0.93411785
23	0xbe9ad7bd	-0.3024272
24	0x37cb6cd7	2.4250168e-05
25	0x37cb6cd7	2.4250168e-05
26	0x37cb6cd7	2.4250168e-05
27	0x3f6f9572	0.9358741
28	0x3f71913d	0.9436224
29	0x37cb6cd7	2.4250168e-05
30	0x3f70722c	0.9392421
31	0x3f711dab	0.94185895
32	0x37cb6cd7	2.4250168e-05
33	0x3f6f97fd	0.9359129
34	0x3f704046	0.93848073
35	0x3f7058be	0.9388541
36	0x3f6f60bf	0.93507
37	0x37cb6cd7	2.4250168e-05
38	0x37cb6cd7	2.4250168e-05
39	0x3f710e4f	0.9416246
40	0x37cb6cd7	2.4250168e-05
41	0x37cb6cd7	2.4250168e-05
42	0xbe9ae985	-0.30256286
43	0x37cb6cd7	2.4250168e-05
44	0x37cb6cd7	2.4250168e-05
45	0x3e9b1523	0.30289564
46	0x3e9b0063	0.30273733
47	0x37cb6cd7	2.4250168e-05
48	0x3f70b371	0.94023806
49	0x37cb6cd7	2.4250168e-05
50	0x3f6f0d18	0.93379354
51	0x3f6f94e1	0.93586546
52	0x3e9af8ae	0.30267853
53	0x3f718b73	0.9435341
54	0x3e9b09a2	0.30280787
55	0x37cb6cd7	2.4250168e-05
56	0x37cb6cd7	2.4250168e-05
57	0x37cb6cd7	2.4250168e-05
58	0x37cb6cd7	2.4250168e-05
59	0x37cb6cd7	2.4250168e-05
60	0x3f6ef1b0	0.93337536
61	0x37cb6cd7	2.4250168e-05
62	0x37cb6cd7	2.4250168e-05
63	0x37cb6cd7	2.4250168e-05
64	0x37cb6cd7	2.4250168e-05
65	0x3f719120	0.9436207
66	0x3e9b11c8	0.30287004
67	0x3f72a902	0.94789135
68	0x3e9b0250	0.30275202
69	0x3e9b0829	0.30279663
70	0x3f6eeb99	0.93328243
71	0x37cb6cd7	2.4250168e-05
72	0x3f70ef9f	0.9411563
73	0x37cb6cd7	2.4250168e-05
74	0x37cb6cd7	2.4250168e-05
75	0x3f706804	0.93908715
76	0x37cb6cd7	2.4250168e-05
77	0x37cb6cd7	2.4250168e-05
78	0x3f710e5f	0.94162554
79	0x3f70355e	0.9383143
80	0x3f71911d	0.9436205
81	0x3f6fe37b	0.9370648
82	0x3e9b07e6	0.30279464
83	0x3f701102	0.9377595
84	0x3f733122	0.94996846
85	0x37cb6cd7	2.4250168e-05
86	0x37cb6cd7	2.4250168e-05
87	0x3f716a35	0.94302684
88	0x37cb6cd7	2.4250168e-05
89	0x3f7016df	0.937849
90	0x3f70ff8e	0.94139946
91	0x37cb6cd7	2.4250168e-05
92	0x3f710151	0.94142634
93	0x3f6f4b49	0.9347425
94	0x3e9aff81	0.3027306
95	0x37cb6cd7	2.4250168e-05
96	0x3f700ea6	0.9377235
97	0x3e9ab899	0.30218962
98	0x37cb6cd7	2.4250168e-05
99	0x37cb6cd7	2.4250168e-05
100	0x3f6f726f	0.93533987
101	0x3f713842	0.9422647
102	0x3f71fb6f	0.9452428
103	0x3f708ba7	0.9396309
104	0x37cb6cd7	2.4250168e-05
105	0x3f70cdfb	0.940643
106	0x3f6f5da5	0.93502265
107	0x37cb6cd7	2.4250168e-05
108	0x37cb6cd7	2.4250168e-05
109	0x3f6ef451	0.9334155
110	0x3f70981a	0.9398209
111	0x3f71b7fa	0.9442135
112	0x3f700ea6	0.9377235
113	0x37cb6cd7	2.4250168e-05
114	0x3f707a53	0.9393665
115	0x3f705cc2	0.9389154
116	0x37cb6cd7	2.4250168e-05
117	0x37cb6cd7	2.4250168e-05
118	0x37cb6cd7	2.4250168e-05
119	0x37cb6cd7	2.4250168e-05
120	0x37cb6cd7	2.4250168e-05
121	0x37cb6cd7	2.4250168e-05
122	0x3f6f7ad3	0.9354679
123	0x3f7041da	0.9385048
124	0x37cb6cd7	2.4250168e-05
125	0x3f6f7083	0.93531054
126	0xbe9ad140	-0.3023777
127	0x37cb6cd7	2.4250168e-05
128	0x3f6f6e6e	0.9352788
129	0x3f71deed	0.9448078
130	0x3f708bbd	0.93963224
131	0x37cb6cd7	2.4250168e-05
132	0x3f70def6	0.9409021
133	0x37cb6cd7	2.4250168e-05
134	0x3f6f915c	0.93581176
135	0x37cb6cd7	2.4250168e-05
136	0x3f6ece35	0.93283397
137	0x37cb6cd7	2.4250168e-05
138	0x3f71b858	0.9442191
139	0x37cb6cd7	2.4250168e-05
140	0x37cb6cd7	2.4250168e-05
141	0x37cb6cd7	2.4250168e-05
142	0x3f714f7b	0.942619
143	0x37cb6cd7	2.4250168e-05
144	0x3f70cb54	0.94060254
145	0x3f706323	0.9390127
146	0x3f70def6	0.9409021
147	0x3f709333	0.9397461
148	0x3f70a6e2	0.9400464
149	0x3f72bc17	0.9481825
150	0x3f70d387	0.94072765
151	0x3f6ff7de	0.9373759
152	0x37cb6cd7	2.4250168e-05
153	0x37cb6cd7	2.4250168e-05
154	0x3f6f5ae8	0.93498087
155	0x37cb6cd7	2.4250168e-05
156	0x37cb6cd7	2.4250168e-05
157	0x3f71a05d	0.9438532
158	0x3f6f4748	0.9346814
159	0x3f6f583d	0.93494016
160	0x37cb6cd7	2.4250168e-05
161	0x37cb6cd7	2.4250168e-05
162	0x3e9a9e15	0.30198732
163	0x37cb6cd7	2.4250168e-05
164	0x3f7032d6	0.9382757
165	0x3e9b0716	0.30278844
166	0x3e9af07f	0.3026161
167	0x37cb6cd7	2.4250168e-05
168	0x3f6f4732	0.9346801
169	0x3f6fc087	0.9365315
170	0x37cb6cd7	2.4250168e-05
171	0x3f715c7b	0.9428174
172	0x3f6f3f20	0.93455696
173	0x3e9b052a	0.30277377
174	0x37cb6cd7	2.4250168e-05
175	0x3f6f60d4	0.93507123
176	0x37cb6cd7	2.4250168e-05
177	0x3f6f204d	0.9340866
178	0x3f7035a6	0.9383186
179	0x37cb6cd7	2.4250168e-05
180	0x3e9b20eb	0.30298552
181	0x3f6f0578	0.9336772
182	0x37cb6cd7	2.4250168e-05
183	0x3f7013d3	0.9378025
184	0x37cb6cd7	2.4250168e-05
185	0x37cb6cd7	2.4250168e-05
186	0x37cb6cd7	2.4250168e-05
187	0x3f6f60d4	0.93507123
188	0x37cb6cd7	2.4250168e-05
189	0x37cb6cd7	2.4250168e-05
190	0x3f6f6b52	0.9352313
191	0x37cb6cd7	2.4250168e-05
192	0x3f729ea4	0.94773316
193	0x37cb6cd7	2.4250168e-05
194	0x3f6ffcfb	0.9374539
195	0x37cb6cd7	2.4250168e-05
196	0x37cb6cd7	2.4250168e-05
197	0x3f6f2440	0.9341469
198	0x37cb6cd7	2.4250168e-05
199	0x3f6ec7b9	0.932735

bn1.bias f4 [200]
0	0x3ed5f58b	0.41788897
1	0xbe9ae822	-0.30255228
2	0x3ed5f37c	0.41787326
3	0x3ed5f06e	0.41784996
4	0x3ed5f15d	0.41785708
5	0x3ed5f52d	0.41788617
6	0x3e9b00f5	0.30274168
7	0x3ed5f3ce	0.4178757
8	0x3e9b0352	0.3027597
9	0x3e9afa8d	0.3026928
10	0x3ed5f698	0.417897
11	0x3ed5f509	0.4178851
12	0x3ed5f5c2	0.4178906
13	0x3ed5f506	0.417885
14	0xbe9b0788	-0.30279183
15	0x3ed5ecda	0.41782266
16	0x3e9afd54	0.302714
17	0x3e9afb74	0.30269969
18	0x3e9afa4a	0.3026908
19	0xbe9aec82	-0.30258566
20	0x3e9afc08	0.3027041
21	0x3ed5f58b	0.41788897
22	0x3ed5edb0	0.41782904
23	0x3e9ae218	0.3025062
24	0x3e9ae225	0.3025066
25	0x3e9afd40	0.3027134
26	0x3e9afae9	0.30269554
27	0x3ed5f3db	0.4178761
28	0x3ed5f572	0.41788822
29	0x3e9afecc	0.3027252
30	0x3ed5f4d6	0.41788357
31	0x3ed5f507	0.41788504
32	0xbe9b05a3	-0.30277738
33	0x3ed5f3de	0.41787618
34	0x3ed5f494	0.4178816
35	0x3ed5f486	0.4178812
36	0x3ed5f029	0.4178479
37	0x3e9af909	0.30268124
38	0x3e9af902	0.30268103
39	0x3ed5f50c	0.41788518
40	0xbe9afbe1	-0.30270293
41	0x3e9afeef	0.30272624
42	0x3e9aeced	0.30258885
43	0xbe9b0121	-0.302743
44	0xbe9afa2a	-0.30268985
45	0xbe9b12a0	-0.30287647
46	0xbe9afccd	-0.30270997
47	0x3e9af8dc	0.3026799
48	0x3ed5f4db	0.41788372
49	0xbe9af576	-0.30265397
50	0x3ed5f2ea	0.4178689
51	0x3ed5f358	0.4178722
52	0xbe9af50c	-0.3026508
53	0x3ed5f537	0.41788647
54	0xbe9b0803	-0.3027955
55	0xbe9b0152	-0.30274445
56	0xbe9af6dc	-0.30266464
57	0x3e9b0342	0.30275923
58	0xbe9afb53	-0.3026987
59	0x3e9b0402	0.30276495
60	0x3ed5f29a	0.41786653
61	0x3e9b06e9	0.3027871
62	0x3e9af573	0.30265388
63	0xbe9ae8a5	-0.3025562
64	0x3e9afcaf	0.30270907
65	0x3ed5f588	0.41788888
66	0xbe9b0ec2	-0.30284697
67	0x3ed5f65c	0.4178952
68	0xbe9afdda	-0.30271798
69	0xbe9b0685	-0.30278412
70	0x3ed5eb91	0.41781285
71	0x3e9afe84	0.30272305
72	0x3ed5f505	0.41788498
73	0xbe9af6a5	-0.302663
74	0xbe9afc41	-0.3027058
75	0x3ed5f4d3	0.4178835
76	0xbe9af4bf	-0.3026485
77	0x3e9b037c	0.30276096
78	0x3ed5f510	0.4178853
79	0x3ed5f493	0.41788158
80	0x3ed5f569	0.41788796
81	0x3ed5f415	0.41787782
82	0xbe9b0620	-0.3027811
83	0x3ed5f41f	0.41787812
84	0x3ed5f67a	0.4178961
85	0x3e9b082d	0.30279675
86	0xbe9af601	-0.3026581
87	0x3ed5f531	0.4178863
88	0xbe9b0782	-0.30279166
89	0x3ed5f42c	0.4178785
90	0x3ed5f50f	0.41788527
91	0xbe9b05f9	-0.30277994
92	0x3ed5f50a	0.41788512
93	0x3ed5f0fa	0.41785413
94	0xbe9afbc6	-0.30270213
95	0x3e9af580	0.30265427
96	0x3ed5f45f	0.41788003
97	0xbe9ab32b	-0.3021482
98	0xbe9b00b1	-0.30273965
99	0xbe9b02c6	-0.30275553
100	0x3ed5f074	0.41785014
101	0x3ed5f52c	0.41788614
102	0x3ed5f5ae	0.41789
103	0x3ed5f4b9	0.4178827
104	0xbe9af606	-0.30265826
105	0x3ed5f4dd	0.41788378
106	0x3ed5f3cf	0.41787574
107	0x3e9afa91	0.30269292
108	0xbe9af02e	-0.30261368
109	0x3ed5eecd	0.41783753
110	0x3ed5f4df	0.41788384
111	0x3ed5f584	0.41788876
112	0x3ed5f480	0.417881
113	0x3e9b00d3	0.30274066
114	0x3ed5f4ee	0.4178843
115	0x3ed5f49b	0.41788182
116	0xbe9b07b6	-0.3027932
117	0xbe9af8a7	-0.30267832
118	0x3e9affd5	0.3027331
119	0x3e9af40d	0.3026432
120	0xbe9b04b2	-0.3027702
121	0x3e9afc41	0.3027058
122	0x3ed5f3cb	0.41787562
123	0x3ed5f488	0.41788125
124	0xbe9afcc9	-0.30270985
125	0x3ed5f2cb	0.417868
126	0x3e9ade12	0.3024755
127	0xbe9b06b7	-0.3027856
128	0x3ed5f2bf	0.41786763
129	0x3ed5f583	0.41788873
130	0x3ed5f4d8	0.41788363
131	0xbe9b0815	-0.30279604
132	0x3ed5f4f1	0.41788438
133	0xbe9b0093	-0.30273876
134	0x3ed5f3d1	0.4178758
135	0x3e9b018c	0.30274618
136	0x3ed5ee15	0.41783205
137	0x3e9b03b8	0.30276275
138	0x3ed5f586	0.41788882
139	0x3e9b032c	0.30275857
140	0xbe9b0672	-0.30278355
141	0x3e9b00ff	0.30274197
142	0x3ed5f543	0.41788682
143	0x3e9afc34	0.3027054
144	0x3ed5f4df	0.41788384
145	0x3ed5f48c	0.41788137
146	0x3ed5f506	0.417885
147	0x3ed5f4d7	0.4178836
148	0x3ed5f4df	0.41788384
149	0x3ed5f66d	0.4178957
150	0x3ed5f4df	0.41788384
151	0x3ed5f48c	0.41788137
152	0x3e9b02b0	0.30275488
153	0x3e9afe44	0.30272114
154	0x3ed5f08b	0.41785082
155	0xbe9af3f7	-0.30264255
156	0x3e9b067c	0.30278385
157	0x3ed5f58b	0.41788897
158	0x3ed5f0d3	0.41785297
159	0x3ed5f0a7	0.41785166
160	0xbe9af362	-0.3026381
161	0xbe9afc3f	-0.30270573
162	0xbe9a9da9	-0.3019841
163	0xbe9af6ce	-0.30266422
164	0x3ed5f48e	0.41788143
165	0xbe9b0490	-0.30276918
166	0xbe9aec4c	-0.30258405
167	0x3e9b04d6	0.30277127
168	0x3ed5eff7	0.4178464
169	0x3ed5f3d7	0.41787598
170	0xbe9aea76	-0.30257004
171	0x3ed5f52a	0.41788608
172	0x3ed5ed44	0.41782582
173	0xbe9b01f8	-0.3027494
174	0x3e9afd93	0.30271587
175	0x3ed5f22b	0.41786322
176	0xbe9b0624	-0.30278122
177	0x3ed5edd1	0.41783002
178	0x3ed5f48c	0.41788137
179	0x3e9b0677	0.3027837
180	0xbe9b1caf	-0.3029532
181	0x3ed5ed62	0.4178267
182	0x3e9af575	0.30265394
183	0x3ed5f46d	0.41788045
184	0xbe9af14f	-0.3026223
185	0xbe9afa08	-0.30268884
186	0x3e9afe2e	0.3027205
187	0x3ed5f077	0.41785023
188	0x3e9b04dc	0.30277145
189	0xbe9b0505	-0.30277267
190	0x3ed5efee	0.41784614
191	0x3e9afa74	0.30269206
192	0x3ed5f60f	0.4178929
193	0xbe9af773	-0.30266914
194	0x3ed5f48e	0.41788143
195	0xbe9aeb0c	-0.30257452
196	0x3e9b0709	0.30278805
197	0x3ed5f053	0.41784915
198	0x3e9b04c0	0.3027706
199	0x3ed5ebfd	0.41781607

bn1.running_mean f4 [200]
0	0x46445470	12565.109
1	0x42c9b956	100.861984
2	0x452492c9	2633.174
3	0x4530d50e	2829.316
4	0x453d29d4	3026.6143
5	0x461ed563	10165.347
6	0x00000000	0.0
7	0x4584fb9f	4255.4526
8	0x00000000	0.0
9	0x00000000	0.0
10	0x4685356f	17050.717
11	0x461cd544	10037.316
12	0x464b9656	13029.584
13	0x46051b3b	8518.808
14	0x00000000	0.0
15	0x45045537	2117.326
16	0x00000000	0.0
17	0x00000000	0.0
18	0x00000000	0.0
19	0x00000000	0.0
20	0x00000000	0.0
21	0x4644b34d	12588.825
22	0x44fb65c0	2011.1797
23	0x3f93746f	1.1519908
24	0x00000000	0.0
25	0x00000000	0.0
26	0x00000000	0.0
27	0x4567ddc2	3709.8599
28	0x462d1aec	11078.73
29	0x00000000	0.0
30	0x45da1f94	6979.9473
31	0x46141036	9476.053
32	0x00000000	0.0
33	0x4568da4e	3725.644
34	0x45c3fc50	6271.539
35	0x45cc364d	6534.7876
36	0x45368ccd	2920.8
37	0x00000000	0.0
38	0x00000000	0.0
39	0x4610405c	9232.09
40	0x00000000	0.0
41	0x00000000	0.0
42	0x3d49da0d	0.049280215
43	0x00000000	0.0
44	0x00000000	0.0
45	0x418310dc	16.383232
46	0x4399b852	307.44
47	0x00000000	0.0
48	0x45f8e242	7964.282
49	0x00000000	0.0
50	0x44cf8d60	1660.418
51	0x4560e865	3598.5247
52	0x431e7e36	158.49301
53	0x462c20a4	11016.16
54	0x44b1c2b0	1422.084
55	0x00000000	0.0
56	0x00000000	0.0
57	0x00000000	0.0
58	0x00000000	0.0
59	0x00000000	0.0
60	0x4497a741	1213.2267
61	0x00000000	0.0
62	0x00000000	0.0
63	0x00000000	0.0
64	0x00000000	0.0
65	0x462d1875	11078.114
66	0x42f2b1b1	121.34705
67	0x466cab8d	15146.888
68	0x41f0f81c	30.121147
69	0x423c0868	47.00821
70	0x448db5c5	1133.6803
71	0x00000000	0.0
72	0x460890e0	8740.219
73	0x00000000	0.0
74	0x00000000	0.0
75	0x45d68052	6864.04
76	0x00000000	0.0
77	0x00000000	0.0
78	0x461027de	9225.967
79	0x45bd89ea	6065.2393
80	0x462cdb2a	11062.791
81	0x4596066f	4800.804
82	0x438e4bdd	284.59268
83	0x45ae4694	5576.8223
84	0x4684ae0e	16983.027
85	0x00000000	0.0
86	0x00000000	0.0
87	0x4624741a	10525.025
88	0x00000000	0.0
89	0x45b00b03	5633.3765
90	0x460d00a8	9024.164
91	0x00000000	0.0
92	0x460d90a5	9060.161
93	0x4523a70d	2618.4407
94	0x4385a348	267.27563
95	0x00000000	0.0
96	0x45acfea3	5535.8296
97	0x41f0fa24	30.122139
98	0x00000000	0.0
99	0x00000000	0.0
100	0x454bf8cb	3263.5496
101	0x4619fd36	9855.303
102	0x4645660c	12633.512
103	0x45e5ad9a	7349.7
104	0x00000000	0.0
105	0x46016cf7	8283.241
106	0x4532faf2	2863.684
107	0x00000000	0.0
108	0x00000000	0.0
109	0x449a4154	1234.0415
110	0x45ea896c	7505.1777
111	0x4635463c	11601.559
112	0x45ac9e69	5523.8013
113	0x00000000	0.0
114	0x45dbcfc8	7033.9727
115	0x45d1178b	6690.943
116	0x00000000	0.0
117	0x00000000	0.0
118	0x00000000	0.0
119	0x00000000	0.0
120	0x00000000	0.0
121	0x00000000	0.0
122	0x45527eff	3367.9373
123	0x45c4f44d	6302.5376
124	0x00000000	0.0
125	0x45461ba0	3169.7266
126	0x3f4de773	0.8043129
127	0x00000000	0.0
128	0x454153be	3093.234
129	0x463d718b	12124.386
130	0x45e5a467	7348.5503
131	0x00000000	0.0
132	0x4605f41c	8573.027
133	0x00000000	0.0
134	0x45611533	3601.325
135	0x00000000	0.0
136	0x44214300	645.0469
137	0x00000000	0.0
138	0x4635cdb4	11635.426
139	0x00000000	0.0
140	0x00000000	0.0
141	0x00000000	0.0
142	0x461f6c00	10203.0
143	0x00000000	0.0
144	0x46003c5e	8207.092
145	0x45d4554c	6794.662
146	0x46061856	8582.084
147	0x45e8d15e	7450.171
148	0x45f15192	7722.1963
149	0x4670a09f	15400.155
150	0x4603c010	8432.016
151	0x45a10336	5152.4014
152	0x00000000	0.0
153	0x00000000	0.0
154	0x453281c8	2856.1113
155	0x00000000	0.0
156	0x00000000	0.0
157	0x463212c1	11396.688
158	0x451c0c2b	2496.7605
159	0x45306bb3	2822.7312
160	0x00000000	0.0
161	0x00000000	0.0
162	0x3f42a05c	0.7602594
163	0x00000000	0.0
164	0x45bc4ab9	6025.3403
165	0x444a5464	809.3186
166	0x43d07253	416.89316
167	0x00000000	0.0
168	0x451aef78	2478.9668
169	0x45891435	4386.526
170	0x00000000	0.0
171	0x462224a3	10377.159
172	0x451642c3	2404.1726
173	0x43feba17	509.45383
174	0x00000000	0.0
175	0x4538b3e4	2955.2432
176	0x00000000	0.0
177	0x44f6ac44	1973.3833
178	0x45bec61d	6104.764
179	0x00000000	0.0
180	0x451768f4	2422.5596
181	0x44c6a224	1589.0669
182	0x00000000	0.0
183	0x45aea65f	5588.7964
184	0x00000000	0.0
185	0x00000000	0.0
186	0x00000000	0.0
187	0x4537c1e6	2940.1187
188	0x00000000	0.0
189	0x00000000	0.0
190	0x453d6dbc	3030.8584
191	0x00000000	0.0
192	0x4668e6ac	14905.668
193	0x00000000	0.0
194	0x45a3c9cd	5241.225
195	0x00000000	0.0
196	0x00000000	0.0
197	0x4501d384	2077.2197
198	0x00000000	0.0
199	0x441aac6e	618.6942

bn1.running_var f4 [200]
0	0x4deaeab5	4.926563e+08
1	0x47e0a380	115015.0
2	0x4babcd4b	2.2518422e+07
3	0x4be6cd1e	3.025158e+07
4	0x4bf67658	3.2304304e+07
5	0x4d97d6d8	3.1842995e+08
6	0x3f27f62b	0.6561
7	0x4c66287d	6.033458e+07
8	0x3f27f62b	0.6561
9	0x3f27f62b	0.6561
10	0x4e55b80f	8.9640237e+08
11	0x4d977995	3.1766595e+08
12	0x4dfb73a0	5.2733235e+08
13	0x4d52d7d5	2.2108501e+08
14	0x3f27f62b	0.6561
15	0x4b95690e	1.9583516e+07
16	0x3f27f62b	0.6561
17	0x3f27f62b	0.6561
18	0x3f27f62b	0.6561
19	0x3f27f62b	0.6561
20	0x3f27f62b	0.6561
21	0x4dec6790	4.9577626e+08
22	0x4b7a9340	1.6421696e+07
23	0x4484d98d	1062.7985
24	0x3f27f62b	0.6561
25	0x3f27f62b	0.6561
26	0x3f27f62b	0.6561
27	0x4c21dc98	4.243107e+07
28	0x4db61a72	3.818983e+08
29	0x3f27f62b	0.6561
30	0x4d0c9218	1.4739904e+08
31	0x4d859942	2.801767e+08
32	0x3f27f62b	0.6561
33	0x4c274156	4.384495e+07
34	0x4cf00c3b	1.2585417e+08
35	0x4d01dc0f	1.3616766e+08
36	0x4bf7d503	3.2483846e+07
37	0x3f27f62b	0.6561
38	0x3f27f62b	0.6561
39	0x4d7a12d1	2.6222107e+08
40	0x3f27f62b	0.6561
41	0x3f27f62b	0.6561
42	0x41054dc3	8.331485
43	0x3f27f62b	0.6561
44	0x3f27f62b	0.6561
45	0x45153468	2387.2754
46	0x49a682ce	1.3640578e+06
47	0x3f27f62b	0.6561
48	0x4d3b8439	1.966253e+08
49	0x3f27f62b	0.6561
50	0x4b00ceb2	8.441522e+06
51	0x4c30a0a8	4.6301856e+07
52	0x4896b55d	308650.9
53	0x4db565f7	3.804198e+08
54	0x4b2b3db8	1.1222456e+07
55	0x3f27f62b	0.6561
56	0x3f27f62b	0.6561
57	0x3f27f62b	0.6561
58	0x3f27f62b	0.6561
59	0x3f27f62b	0.6561
60	0x4a83d143	4.3193935e+06
61	0x3f27f62b	0.6561
62	0x3f27f62b	0.6561
63	0x3f27f62b	0.6561
64	0x3f27f62b	0.6561
65	0x4db1f6be	3.732172e+08
66	0x48688692	238106.28
67	0x4e2a9849	7.155267e+08
68	0x463b8080	12000.125
69	0x473d481b	48456.105
70	0x4ac89d01	6.5736965e+06
71	0x3f27f62b	0.6561
72	0x4d5eefd8	2.3376627e+08
73	0x3f27f62b	0.6561
74	0x3f27f62b	0.6561
75	0x4d0b6749	1.4617512e+08
76	0x3f27f62b	0.6561
77	0x3f27f62b	0.6561
78	0x4d798093	2.6162206e+08
79	0x4cd8dc1c	1.1369699e+08
80	0x4db4e17e	3.793346e+08
81	0x4c8dc7d7	7.433388e+07
82	0x49956953	1.2239784e+06
83	0x4cbff0ee	1.0063243e+08
84	0x4e564ba2	8.988202e+08
85	0x3f27f62b	0.6561
86	0x3f27f62b	0.6561
87	0x4da417c4	3.441276e+08
88	0x3f27f62b	0.6561
89	0x4cc4b4af	1.0313049e+08
90	0x4d6da0ea	2.4917162e+08
91	0x3f27f62b	0.6561
92	0x4d703f06	2.5191638e+08
93	0x4bba6de2	2.4435652e+07
94	0x49602a1c	918177.75
95	0x3f27f62b	0.6561
96	0x4cba8254	9.778448e+07
97	0x4701f980	33273.5
98	0x3f27f62b	0.6561
99	0x3f27f62b	0.6561
100	0x4c16bba6	3.951375e+07
101	0x4d8d5405	2.9638672e+08
102	0x4deb9886	4.940802e+08
103	0x4d254b7d	1.7332424e+08
104	0x3f27f62b	0.6561
105	0x4d4eaa9e	2.167055e+08
106	0x4bc0df4e	2.5280156e+07
107	0x3f27f62b	0.6561
108	0x3f27f62b	0.6561
109	0x4ab0f335	5.7982985e+06
110	0x4d24d6d4	1.728464e+08
111	0x4dc575a0	4.1410253e+08
112	0x4cb7754b	9.618492e+07
113	0x3f27f62b	0.6561
114	0x4d0ebdd2	1.496753e+08
115	0x4d054a46	1.3976483e+08
116	0x3f27f62b	0.6561
117	0x3f27f62b	0.6561
118	0x3f27f62b	0.6561
119	0x3f27f62b	0.6561
120	0x3f27f62b	0.6561
121	0x3f27f62b	0.6561
122	0x4c04a560	3.477235e+07
123	0x4ced765c	1.2449866e+08
124	0x3f27f62b	0.6561
125	0x4c05629c	3.496613e+07
126	0x438da94a	283.32257
127	0x3f27f62b	0.6561
128	0x4bfa36d5	3.2796074e+07
129	0x4ddbc177	4.6086115e+08
130	0x4d1ef55d	1.6668002e+08
131	0x3f27f62b	0.6561
132	0x4d5a8096	2.2911626e+08
133	0x3f27f62b	0.6561
134	0x4c1b551f	4.0719484e+07
135	0x3f27f62b	0.6561
136	0x49f721b1	2.0245021e+06
137	0x3f27f62b	0.6561
138	0x4dc7b154	4.1878592e+08
139	0x3f27f62b	0.6561
140	0x3f27f62b	0.6561
141	0x3f27f62b	0.6561
142	0x4d96b671	3.1606736e+08
143	0x3f27f62b	0.6561
144	0x4d4ada26	2.1270589e+08
145	0x4d0c6ff2	1.4725917e+08
146	0x4d57133f	2.2552267e+08
147	0x4d23abad	1.7162107e+08
148	0x4d2fe829	1.8445173e+08
149	0x4e2c9a9d	7.239535e+08
150	0x4d574c15	2.2575547e+08
151	0x4c992864	8.029878e+07
152	0x3f27f62b	0.6561
153	0x3f27f62b	0.6561
154	0x4be0c19d	2.9459258e+07
155	0x3f27f62b	0.6561
156	0x3f27f62b	0.6561
157	0x4dbcbaf5	3.9579613e+08
158	0x4baa2d9d	2.2305594e+07
159	0x4bdb878d	2.877417e+07
160	0x3f27f62b	0.6561
161	0x3f27f62b	0.6561
162	0x4351150f	209.08226
163	0x3f27f62b	0.6561
164	0x4cddb3ab	1.1623561e+08
165	0x4a910a8b	4.7527095e+06
166	0x49fe7141	2.0843921e+06
167	0x3f27f62b	0.6561
168	0x4bad540c	2.2718488e+07
169	0x4c6e4f27	6.2471324e+07
170	0x3f27f62b	0.6561
171	0x4d9e6665	3.3218883e+08
172	0x4bb679d7	2.3917486e+07
173	0x4a073f48	2.21589e+06
174	0x3f27f62b	0.6561
175	0x4bea1fca	3.0687124e+07
176	0x3f27f62b	0.6561
177	0x4b6aa9e0	1.5378912e+07
178	0x4ce09e04	1.1776413e+08
179	0x3f27f62b	0.6561
180	0x4b876586	1.77467e+07
181	0x4b2f6ca4	1.1496612e+07
182	0x3f27f62b	0.6561
183	0x4cbd2548	9.916678e+07
184	0x3f27f62b	0.6561
185	0x3f27f62b	0.6561
186	0x3f27f62b	0.6561
187	0x4bfe41dc	3.3326008e+07
188	0x3f27f62b	0.6561
189	0x3f27f62b	0.6561
190	0x4c013f09	3.3881124e+07
191	0x3f27f62b	0.6561
192	0x4e2592c1	6.944646e+08
193	0x3f27f62b	0.6561
194	0x4c9e2a46	8.292408e+07
195	0x3f27f62b	0.6561
196	0x3f27f62b	0.6561
197	0x4b6f60d7	1.5687895e+07
198	0x3f27f62b	0.6561
199	0x4a0c99de	2.3036075e+06

bn2.weight f4 [20]
0	0x3ef3dcf4	0.4762951
1	0x3ef3dcf7	0.4762952
2	0x3f6e5d02	0.9311067
3	0x3ef3dcf6	0.47629517
4	0x3f6e5d02	0.9311067
5	0x3ef3dd02	0.47629553
6	0x3f6e5d02	0.9311067
7	0x3ef3dcf6	0.47629517
8	0x3ef3dcfc	0.47629535
9	0x3f6e5d02	0.9311067
10	0x3f6e5d02	0.9311067
11	0x3ef3dcf6	0.47629517
12	0x3f6e5d02	0.9311067
13	0x3ef3dcfe	0.4762954
14	0xbef3c3b1	-0.47610238
15	0x3ef3dcf2	0.47629505
16	0x3f6e5d02	0.9311067
17	0x3f6e5d02	0.9311067
18	0x3ef3dcf3	0.47629508
19	0x3f6e5d02	0.9311067

bn2.bias f4 [20]
0	0xbef3dcf3	-0.47629508
1	0xbef3dcf0	-0.476295
2	0x3f077a80	0.52921295
3	0xbef3dcf6	-0.47629517
4	0x3f077a76	0.52921236
5	0xbef3dcef	-0.47629496
6	0x3f077a63	0.5292112
7	0xbef3dcee	-0.47629493
8	0xbef3dc98	-0.47629237
9	0x3f077a94	0.52921414
10	0x3f077a64	0.5292113
11	0xbef3dcd8	-0.47629428
12	0x3f077a7e	0.52921283
13	0xbef3dcc3	-0.47629365
14	0x3ef3c83f	0.47613713
15	0xbef3dcc3	-0.47629365
16	0x3f077a9b	0.52921456
17	0x3f077a87	0.52921337
18	0xbef3dce4	-0.47629464
19	0x3f077ab9	0.52921635

bn2.running_mean f4 [20]
0	0x3e4868ba	0.195712
1	0x3e3d9b02	0.18516162
2	0x3dd2d9f8	0.102954805
3	0x3d8c4b15	0.06850258
4	0x3e29d0cd	0.16583557
5	0x3e44a7ab	0.19204585
6	0x3e18c0e1	0.14917327
7	0x3e59cc4e	0.21269342
8	0x3d879580	0.06620312
9	0x3e30bbbc	0.17259115
10	0x3e16946d	0.14705057
11	0x3e3784f5	0.17921813
12	0x3e2c03be	0.16798303
13	0x3e0ebc89	0.13939108
14	0x3e3a8ccf	0.18217777
15	0x3e09f0ae	0.13470718
16	0x3e0f43e6	0.13990745
17	0x3e510b91	0.20414568
18	0x3e3ebc2d	0.18626471
19	0x3e1b7395	0.1518081
