Results/NN_MLP_MLs/MLP_Ensemble/Model_Results/MGTwRD/test10_ensemblesize10/best_model_1.pt (torch, 88925 bytes, 20 tensors)

country_embedding.weight f4 [8, 2]
17.819199 -17.819199 19.674824 -19.674826 -24.538311 24.538315 10.069567 -10.069567
10.127601 -10.127601 22.94749 -22.947489 13.830054 -13.830052 -0.96763915 0.96763855
00000000: b88d 8e41 b88d 8ec1 0a66 9d41 0b66 9dc1
00000010: 764e c4c1 784e c441 f21c 2141 f21c 21c1
00000020: a70a 2241 a70a 22c1 7694 b741 7594 b7c1
00000030: e747 5d41 e547 5dc1 33b7 77bf 29b7 773f

fc1.weight f4 [200, 75]
1.3878407e-17 -3.825084e-19 8.370187e-17 2.979682e-17 -3.5658287e-17 -5.782931e-17 -1.6049362e-17 -4.1301422e-17
-3.06832e-17 4.5847275e-18 5.707952e-17 5.2043944e-17 -9.3601184e-17 5.935807e-17 2.6749373e-17 9.0825186e-17
6.3200913e-17 -8.724162e-17 -9.103934e-17 -4.618387e-17 8.407991e-17 -1.5949033e-17 4.097723e-17 -4.4496418e-17
9.395234e-17 -4.0512186e-17 7.180626e-17 1.1338493e-18 -5.0443403e-17 4.921726e-17 -5.0826497e-17 2.816079e-17
-2.7648628e-17 -1.0497558e-17 -9.205418e-17 -4.5651906e-17 5.195773e-17 -2.327493e-17 9.5372674e-17 7.675299e-17
-4.4834314e-18 -6.3911885e-17 5.830836e-17 2.9717013e-17 -6.189514e-17 6.219394e-17 5.813039e-17 8.492109e-17
-5.3674145e-17 -1.5761061e-17 -1.8548727e-18 1.3985081e-17 -7.2667155e-17 -6.794648e-17 5.208913e-17 -2.2452926e-17
4.6771915e-17 5.4587084e-18 3.1439282e-17 2.1054403e-17 3.481503e-17 4.7464424e-17 -8.8675634e-17 4.819601e-17
-6.732432e-17 -7.224466e-17 5.822953e-18 -1.6316507e-17 5.623681e-17 -5.54527e-17 -8.51206e-17 6.968443e-17
-1.4197932e-17 5.3855883e-17 3.0782514e-17 0.7184142 -71.14647 12.426277 -31.90597 -18.607327
-24.57566 0.41561583 -18.842121 -44.09334 -21.859167 -23.350576 -16.299824 -19.589445
-16.717518 -18.981926 -10.775291 -2.142183 -22.214657 6.142588 9.813649 0.2525504
4.8923807 2.3851147 4.436505 2.136832 3.486615 5.2389317 14.079455 1.5916529
15.262253 9.9027605 0.7947807 -1.980407 6.88775 1.5536402 -9.002549e-17 4.7806983
5.984325 1.2586876 3.1252313 -2.7267625 1.1356579 2.36109 2.5195694 2.552637
10.309379 -0.45479637 12.438475 6.5492926 -3.8536024 -6.903627 14.649334 0.19154091
2.9633656e-17 2.889343 6.9718394 2.0760283 2.571971 -2.2325215 3.046521 2.7544487
2.3371947 1.9682182 11.656967 -0.7658148 9.224387 7.2539062 -2.1166294 -8.536912
16.282671 0.17701368 3.0656597e-17 -47.12135 47.121353 0.72362685 -3.485798e-17 -2.1512642e-17
-7.6305234e-17 -4.3639654e-17 -2.932416e-17 4.0946585e-17 1.7492633e-17 2.3652053e-17 9.556883e-17 9.332132e-17
6.5306287e-17 3.0490545e-18 -6.623975e-17 7.4830404e-17 -2.3943673e-17 -7.7409605e-18 -8.248911e-17 -1.8913261e-17
-6.1758396e-17 8.7986004e-17 -8.2778326e-17 -7.4636493e-17 -3.2513527e-18 -5.17732e-17 3.4260722e-17 -3.685696e-17
-4.497311e-17 5.4231206e-18 6.9312964e-17 -6.735385e-17 4.4965227e-17 6.1514094e-17 9.3662554e-17 -6.7018815e-17
2.318991e-17 -7.0801075e-17 8.174644e-17 -3.7142477e-17 5.7675704e-17 2.8506466e-18 -7.457379e-18 -3.0551887e-18
1.627715e-17 4.5136685e-17 1.5356573e-17 2.9209435e-17 -8.6130294e-17 6.975756e-17 8.348163e-17 7.914808e-17
7.078121e-17 -6.9096316e-17 -3.5494787e-17 8.4425633e-17 -7.292937e-17 8.686651e-17 -7.530767e-17 -6.7447116e-17
4.681056e-17 -6.879551e-17 -2.1936656e-17 6.9657746e-17 7.584308e-17 9.055706e-17 -1.9429369e-17 -7.442287e-17
9.4277765e-17 -2.0397506e-17 -3.9395446e-17 2.3341616e-17 -6.696069e-17 6.2935104e-17 6.00101e-17 -7.597671e-17
-7.8646705e-17 -8.387446e-18 4.0217803e-17 -2.7731379e-18 -4.8552795e-17 2.1890928e-18 -8.999918e-17 -6.7672506e-17
-6.374001e-17 7.885381e-17 8.440485e-17 -3.2523468e-17 4.2944765e-18 4.270269e-17 1.1472454e-17 -4.794753e-17
5.522299e-17 5.886121e-17 -5.5492966e-18 -1.1787164e-17 8.7013326e-17 8.3698085e-17 -5.4288767e-17 9.368093e-17
2.36957e-17 -6.360372e-17 5.241541e-17 -7.148524e-17 8.846637e-17 -6.1556366e-17 2.7080906e-17 2.9156025e-17
00000000: 7601 8023 09cb e1a0 dd00 c124 e069 0924
00000010: e071 24a4 6658 85a4 7c07 94a3 1d78 3ea4
00000020: 5480 0da4 8725 a922 cd9d 8324 a502 7024
00000030: 63d4 d7a4 d2de 8824 2cb8 f623 ba6d d124
00000040: 3cbb 9124 5d2a c9a4 24ec d1a4 4afc 54a4
00000050: 05e0 c124 971a 93a3 60f9 3c24 1934 4da4
00000060: aca3 d824 59d4 3aa4 ef92 a524 9e53 a721
00000070: 0fa1 68a4 7cf9 6224 5665 6aa4 65de 0124
00000080: 7a03 ffa3 51a5 41a3 3243 d4a4 4288 52a4
00000090: dc9c 6f24 60ac d6a3 17ea db24 f8fa b024
000000a0: d068 a5a2 eb5e 93a4 2e73 8624 a80b 0924
000000b0: 71b8 8ea4 d268 8f24 200a 8624 90d0 c324
000000c0: 3f87 77a4 c15e 91a3 8edd 08a2 57fd 8023
000000d0: 1e8f a7a4 86ac 9ca4 fe37 7024 7917 cfa3
000000e0: 88b2 5724 0b64 c922 f4fc 1024 4e31 c223
000000f0: 558e 2024 1ae4 5a24 db78 cca4 ce43 5e24
00000100: 443d 9ba4 b895 a6a4 3cd4 d622 437e 96a3
00000110: 5aac 8124 feba 7fa4 5546 c4a4 6dae a024
00000120: ebf3 82a3 ce5d 7824 94f5 0d24 fee9 373f
00000130: fe4a 8ec2 08d2 4641 6d3f ffc1 cedb 94c1
00000140: f49a c4c1 99cb d43e aabc 96c1 955f 30c2
00000150: 93df aec1 fbcd bac1 0a66 82c1 2fb7 9cc1
00000160: 7abd 85c1 fcda 97c1 9867 2cc1 8719 09c0
00000170: 9eb7 b1c1 1590 c440 b504 1d41 494e 813e
00000180: 628e 9c40 b8a5 1840 d9f7 8d40 dbc1 0840
00000190: b324 5f40 54a5 a740 7345 6141 48bb cb3f
000001a0: 3032 7441 b571 1e41 bf76 4b3f fa7d fdbf
000001b0: 7368 dc40 afdd c63f ab95 cfa4 7bfb 9840
000001c0: 977f bf40 ad1c a13f ca03 4840 4783 2ec0
000001d0: 3d5d 913f 191c 1740 a040 2140 685e 2340
000001e0: 37f3 2441 12db e8be fe03 4741 ce93 d140
000001f0: 6ca1 76c0 83ea dcc0 ac63 6a41 4d23 443e
00000200: 3fa9 0824 ffea 3840 4f19 df40 a6dd 0440
00000210: 2c9b 2440 a2e1 0ec0 33fa 4240 e348 3040
00000220: 9994 1540 93ee fb3f f082 3a41 700c 44bf
00000230: 1797 1341 0020 e840 db76 07c0 3197 08c1
00000240: e942 8241 1343 353e ec60 0d24 437c 3cc2
00000250: 447c 3c42 9c3f 393f 0ac1 20a4 4a6b c6a3
00000260: a9f2 afa4 9c40 49a4 dc3b 07a4 32d5 3c24
00000270: 5057 a123 d526 da23 e15d dc24 2f2f d724
00000280: 0796 9624 03fb 6022 0cbd 98a4 138c ac24
00000290: 66d7 dca3 a7cb 0ea3 fa34 bea4 ad71 aea3
000002a0: b967 8ea4 c5e1 ca24 b3df bea4 9c19 aca4
000002b0: 51e8 6fa2 02c3 6ea4 ecff 1d24 05f9 29a4
000002c0: e066 4fa4 ed13 c822 27d3 9f24 b24e 9ba4
000002d0: 925d 4f24 83d7 8d24 9df8 d724 ed88 9aa4
000002e0: a0e3 d523 9441 a3a4 957e bc24 194a 2ba4
000002f0: bafd 8424 3157 5222 7a90 09a3 e26e 61a2
00000300: 5521 9623 fe27 5024 afa3 8d23 6ab4 0624
00000310: 5a9a c6a4 98d9 a024 db7e c024 c880 b624
00000320: da35 a324 4453 9fa4 d9b0 23a4 19ac c224
00000330: e729 a8a4 f04c c824 cda5 ada4 c085 9ba4
00000340: 28e0 5724 b4a1 9ea4 7754 caa3 ad9e a024
00000350: dae1 ae24 74cf d024 4d34 b3a3 829b aba4
00000360: c563 d924 4022 bca3 efad 35a4 d549 d723
00000370: 9d66 9aa4 541e 9124 b65f 8a24 bc30 afa4
00000380: d258 b5a4 98b8 1aa3 cd78 3924 189f 4ca2
00000390: 06e9 5fa4 cb86 2122 2486 cfa4 cc0a 9ca4
000003a0: 76f9 92a4 13d3 b524 d49f c224 effc 15a4
000003b0: 2f70 9e22 70ee 4424 22a1 5323 741e 5da4
000003c0: cdab 7e24 87b9 8724 a0bb cca2 4f6f 59a3
000003d0: 9aa3 c824 a1fe c024 dd5c 7aa4 7603 d824
000003e0: e48d da23 02a9 92a4 32b9 7124 70d5 a4a4
000003f0: 54fd cb24 77f0 8da4 fbc6 f923 5c75 0624

fc1.bias f4 [200]
4.5627613e-17 0.723627 -1.2407067e-17 3.221271e-17 0.72340757 -3.645203e-16 8.595246e-17 1.9316368e-17
-7.928483e-18 2.6869283e-16 -3.78172e-16 -3.1051304e-16 0.72343963 0.7234551 0.7233781 7.776159e-17
0.7233748 0.72318447 -1.21735575e-17 -2.662828e-17 0.7235625 9.471049e-17 -8.14629e-17 0.7233958
2.2188857e-16 0.72336555 -6.749734e-17 0.7236401 -3.4424733e-17 6.184391e-17 0.72338736 0.72358674
-2.7138004e-17 -5.4075116e-17 7.911071e-17 6.535379e-19 -3.6023176e-16 9.109396e-17 0.723369 -2.5025815e-17
8.983251e-18 -4.6379306e-18 -3.2661993e-16 0.7233406 -5.482992e-17 -3.1691968e-16 3.622652e-16 -1.5289697e-17
0.7237142 -9.426782e-17 -1.1878814e-17 -6.03085e-17 6.432579e-17 4.4497526e-16 0.72318363 -5.8627114e-17
0.7231978 0.72330946 3.5078374e-17 3.058204e-17 0.7231902 0.72357506 0.7234992 4.4116692e-17
0.7231948 -8.069832e-17 -5.7027753e-16 0.7236311 -1.3239199e-17 0.72342503 6.889043e-17 -5.987197e-17
-4.483006e-16 3.8349634e-16 -7.633892e-17 -1.1744419e-17 -8.385564e-17 1.9688427e-17 0.7235848 0.72359055
-7.6472715e-17 -2.0899755e-17 -6.47352e-17 -3.0996142e-10 -5.0687934e-16 -5.2448667e-17 -4.4678463e-17 8.49703e-17
8.432412e-17 3.4052765e-16 0.72378737 0.7237332 0.7236396 0.72356 -1.8908567e-18 -6.4497906e-17
6.0182346e-17 7.741101e-18 0.7230198 -4.8993262e-18 -9.507312e-17 -1.7498878e-17 -2.84351e-16 0.7232807
2.2350485e-17 1.6302474e-17 2.7300907e-16 0.72341174 -4.566263e-17 0.72344047 0.72324437 0.7234365
0.7233758 0.72326195 0.72375786 2.986488e-17 3.4634204e-17 4.7326923e-16 -5.880977e-16 6.811834e-17
0.7232397 0.7232049 3.5257465e-17 6.107488e-17 0.72349495 1.7902572e-17 0.7233994 7.157172e-17
-2.810747e-17 2.5417212e-17 9.447148e-17 0.72374284 -8.6587e-17 1.1205222e-17 0.72364324 -4.2289181e-16
0.7236827 -8.9365424e-17 -2.4992296e-17 4.891657e-17 3.449373e-17 -2.9426325e-17 -1.416324e-17 3.7855866e-16
0.7235805 -8.5399873e-17 6.745779e-17 4.8545406e-18 7.229722e-17 6.231248e-17 6.50967e-17 4.4574437e-19
0.72342443 0.72320986 2.613485e-18 8.999079e-17 -5.722778e-17 4.8525115e-16 -7.237111e-17 0.72321254
-6.8738464e-17 -5.2990563e-17 0.7236381 -5.185542e-18 0.72361195 9.480662e-17 0.72370934 0.723285
0.7231814 7.735851e-17 3.7767664e-17 0.72315156 -3.3035193e-16 2.321693e-19 -4.418216e-17 0.72336936
0.7231481 0.7233841 2.3799757e-16 5.039207e-16 -5.8178445e-17 8.581726e-17 0.72324157 4.1536074e-17
-2.439232e-16 0.7237059 0.7236115 4.092765e-16 4.831545e-16 0.72333467 0.72368175 -8.805129e-17
-5.2750263e-16 0.72345465 2.352101e-17 5.164878e-17 -5.455122e-17 0.7236656 0.7230717 0.7235855
00000000: 946b 5224 9e3f 393f b8de 64a3 0e8e 1424
00000010: 3d31 393f b421 d2a5 6131 c624 7c29 b223
00000020: 3441 12a3 10e4 9a25 5600 daa5 a3ff b2a5
00000030: 5733 393f 5a34 393f 4f2f 393f 574e b324
00000040: 172f 393f 9e22 393f 0090 60a3 409a f5a3
00000050: 643b 393f 3563 da24 35d7 bba4 7830 393f
00000060: f2d1 7f25 7c2e 393f 66a3 9ba4 7a40 393f
00000070: 8dc1 1ea4 339a 8e24 ea2f 393f fb3c 393f
00000080: cd4d faa3 a160 79a4 b86a b624 ede3 4021
00000090: d3a8 cfa5 620c d224 b62e 393f 89d2 e6a3
000000a0: 34b6 2523 041c aba2 9848 bca5 d92c 393f
000000b0: bedb 7ca4 17b1 b6a5 e8d4 d025 c705 8da3
000000c0: 5545 393f e65d d9a4 1d20 5ba3 db0f 8ba4
000000d0: 3f53 9424 6141 0026 9022 393f 572f 87a4
000000e0: 7e23 393f cf2a 393f 3cc5 2124 e608 0d24
000000f0: fe22 393f 373c 393f 3e37 393f cc73 4b24
00000100: 4b23 393f e113 baa4 0e5f 24a6 e33f 393f
00000110: 5a38 74a3 6232 393f bbd9 9e24 2c0e 8aa4
00000120: bf36 01a6 1212 dd25 8b06 b0a4 73a5 58a3
00000130: a25b c1a4 fc97 b523 da3c 393f 3b3d 393f
00000140: 8655 b0a4 27c4 c0a3 eb44 95a4 3167 aaaf
00000150: 1819 12a6 75e0 71a4 050b 4ea4 9ded c324
00000160: 2d70 c224 034d c425 214a 393f 9446 393f
00000170: 7240 393f 3a3b 393f 4685 0ba2 d8b8 94a4
00000180: 63c5 8a24 51cc 0e23 d317 393f d4c0 b4a2
00000190: 4439 dba4 0f66 a1a3 cdea a3a5 ed28 393f
000001a0: 9725 ce23 215d 9623 0761 9d25 8331 393f
000001b0: eb94 52a4 6533 393f 8b26 393f 2233 393f
000001c0: 282f 393f b227 393f 3248 393f 3aba 0924
000001d0: dab8 1f24 1b69 0826 f381 29a6 f911 9d24
000001e0: 3d26 393f f523 393f ab98 2224 3fd4 8c24
000001f0: f736 393f 411f a523 b430 393f 7d08 a524
00000200: 729f 01a4 b26e ea23 1ed6 d924 3647 393f
00000210: f1a7 c7a4 2ab3 4e23 af40 393f d1c7 f3a5
00000220: 4543 393f 0910 cea4 6483 e6a3 7e96 6124
00000230: 0213 1f24 79b4 07a4 01a2 82a3 6639 da25
00000240: 923c 393f 30eb c4a4 0d8c 9b24 d719 b322
00000250: bfb4 a624 ccae 8f24 4f1a 9624 7e8f 0321
00000260: 5832 393f 4824 393f 56d7 4022 3081 cf24
00000270: 52f5 83a4 37dd 0b26 5de0 a6a4 7524 393f
00000280: 0780 9ea4 3760 74a4 5940 393f 0f50 bfa2
00000290: a23e 393f f39b da24 0445 393f 3529 393f
000002a0: 6b22 393f 6860 b224 302c 2e24 7620 393f
000002b0: 576f bea5 6f0c 8920 16c1 4ba4 bc2e 393f
000002c0: 3c20 393f b32f 393f 3e32 8925 c93e 1126
000002d0: 7e26 86a4 92e1 c524 5c26 393f 248d 3f24
000002e0: b69c 8ca5 ca44 393f 9a3e 393f 8dee eb25
000002f0: 8242 0b26 762c 393f 3543 393f 4f08 cba4
00000300: d30a 18a6 5334 393f 6af1 d823 1e30 6e24
00000310: b792 7ba4 2642 393f 3a1b 393f e63c 393f

fc2.weight f4 [20, 200]
-7.418311e-07 1.5584612 4.839373e-07 9.619024e-07 1.5598472 0.71867824 -9.46832e-07 -2.200482e-06
5.582422e-06 1.1617262e-06 2.924566e-07 4.4816247e-06 1.5601307 1.5601195 1.5596099 4.6938482e-07
1.5597761 1.558582 -2.7258073e-07 1.5222271e-07 1.5582137 0.7257851 -4.3984014e-06 1.5598588
-1.6274316e-05 1.559732 0.7159772 1.5584505 0.74685884 -0.0013359569 1.5598434 1.5581263
2.1724087e-07 9.89274e-07 -1.2841663e-06 -3.5756975e-06 -4.983599e-07 -4.7012458e-05 1.5596461 -0.00057448517
-0.00021077076 -1.210226e-07 -0.00054876576 1.5596036 8.665544e-07 2.0686027e-06 -2.9511123e-06 1.4199954e-06
1.5591038 4.783733e-07 0.00032426207 -2.1074304e-05 1.3992606e-07 -1.0101131e-06 1.5589838 4.7397693e-06
1.5585994 1.5593421 -3.6166136e-07 1.4158302e-05 1.5575486 1.5608592 1.5603534 5.9249572e-08
1.5574781 -6.152067e-06 2.605477e-07 1.5609959 -7.4916635e-08 1.5599624 0.001460236 1.2112384e-06
5.011406e-07 9.514619e-07 -1.8945126e-06 -0.0002099338 -4.7478475e-06 -9.993779e-07 1.5580646 1.5582176
2.3396026e-07 0.000106040075 -6.1101207e-07 3.6967143e-07 -0.7361082 4.6402266e-07 -2.5228214e-06 1.3143151e-06
5.2950526e-07 1.1682256e-05 1.5596594 1.5591125 1.5585788 1.5607452 -2.0720363e-07 2.6431346e-07
-5.4690968e-08 -0.72299355 1.5579369 -4.9184723e-07 -1.2718758e-06 4.316077e-07 -2.726316e-07 1.5590433
0.7140321 1.4362632e-07 -1.232349e-06 1.5598675 -1.1540105e-05 1.5600803 1.5590506 1.560005
1.5597266 1.5590587 1.5593259 6.2706044e-07 -5.0969e-07 -0.0015381235 -1.4596081e-06 3.2083102e-07
1.5589333 1.5574079 -5.955179e-07 0.00064058613 1.5584867 -3.5132375e-06 1.5598661 0.000126038
2.1020539e-07 3.6903458e-07 1.4129073e-06 1.559353 5.6947243e-07 0.00016343746 1.5586505 -2.8164695e-05
1.558772 -2.0948448e-07 0.72451377 -1.379284e-07 -1.3273967e-06 -2.745676e-07 1.377138e-06 0.7227635
1.5579735 0.72654635 0.7251264 6.243708e-08 4.2169086e-07 5.681027e-07 3.8174477e-07 0.00033065112
1.5586652 1.5579273 -3.8557417e-07 -4.7194533e-07 8.7585363e-07 4.810182e-07 6.0067963e-05 1.5572624
-1.0514996e-08 -0.7182637 1.5584846 1.0440033e-06 1.5582603 -0.7440118 1.5589392 1.5592855
1.5594002 -1.0600194e-06 -2.575818e-06 1.5590295 8.7240875e-07 -1.0089551e-06 -1.3124695e-06 1.5596275
1.5583888 1.5597326 0.00038374343 2.5408015e-05 0.71873945 3.2059934e-06 1.5591333 -4.6549468e-07
-2.3597968e-07 1.5589211 1.5584102 9.920959e-07 -0.71328825 1.5594652 1.5589513 9.884423e-05
3.3045817e-05 1.5601603 -8.2459735e-07 1.4870568e-06 -1.5844982e-05 1.5588347 1.5578647 1.5580966
9.109779e-16 -5.5013297e-16 -8.3222776e-16 -8.200406e-16 -4.8237796e-16 1.0107899e-15 3.4808949e-16 1.9758118e-16
8.945512e-16 1.0163754e-15 9.871634e-16 1.867505e-16 -4.971257e-16 -5.363114e-16 -5.7840984e-16 -9.074255e-16
-4.739466e-16 -5.4123447e-16 9.844347e-16 8.8075275e-16 -4.3281247e-16 -8.8401155e-16 -8.110689e-16 -5.54715e-16
3.2379277e-16 -5.328631e-16 9.135344e-16 -5.760678e-16 -8.933919e-16 9.174609e-16 -5.483222e-16 -5.5204504e-16
-8.0790786e-16 -8.6381627e-16 -8.366117e-16 -8.0571796e-16 9.515364e-16 8.380375e-16 -4.621465e-16 8.788039e-16
8.786674e-16 -9.085811e-16 1.0157124e-15 -5.132161e-16 -8.4692183e-16 9.539949e-16 1.0479215e-15 8.931574e-16
-5.7457156e-16 -8.279806e-16 8.643815e-16 8.6433873e-16 8.872438e-16 1.8644605e-16 -4.8045154e-16 9.019497e-16
00000000: 3f22 47b5 a87b c73f ebe7 0135 b71a 8135
00000010: 13a9 c73f 4cfb 373f cd29 7eb5 feab 13b6
00000020: a450 bb36 9cec 9b35 ee02 9d34 dd60 9636
00000030: 5db2 c73f ffb1 c73f 4ca1 c73f c2ff fb34
00000040: bea6 c73f 9d7f c73f 3657 92b4 a972 2334
00000050: 8c73 c73f 0dcd 393f fb95 93b6 74a9 c73f
00000060: d484 88b7 4ca5 c73f 484a 373f 4e7b c73f
00000070: 2432 3f3f 461b afba f3a8 c73f af70 c73f
00000080: b742 6934 32c7 8435 9e5b acb5 04f6 6fb6
00000090: 08c7 05b5 3e2f 45b8 7ca2 c73f 0c99 16ba
000000a0: 5802 5db9 70f2 01b4 0cdb 0fba 17a1 c73f
000000b0: 2a9d 6835 53d2 0a36 b90b 46b6 ac96 be35
000000c0: b790 c73f 9069 0035 b801 aa39 b9c8 b0b7
000000d0: 953e 1634 3993 87b5 c88c c73f 4f0a 9f36
000000e0: 2f80 c73f 8698 c73f 5c2a c2b4 7289 6d37
000000f0: c15d c73f 3cca c73f a9b9 c73f 9879 7e33
00000100: 715b c73f da6d ceb6 67e1 8b34 b7ce c73f
00000110: dbe1 a0b3 d9ac c73f 6465 bf3a d691 a235
00000120: 1f86 0635 f767 7f35 f546 feb5 ad21 5cb9
00000130: b34f 9fb6 5d22 86b5 a96e c73f ad73 c73f
00000140: 8236 7b34 d561 de38 6e04 24b5 4177 c634
00000150: 9671 3cbf ca1e f934 be4d 29b6 8667 b035
00000160: 5323 0e35 e8fe 4337 eba2 c73f 0091 c73f
00000170: 837f c73f 80c6 c73f b37b 5eb4 f7e6 8d34
00000180: 5be5 6ab3 1b16 39bf 7a6a c73f 7c07 04b5
00000190: 52b5 aab5 b6b7 e734 345e 92b4 bb8e c73f
000001a0: cfca 363f b437 1a34 3067 a5b5 bda9 c73f
000001b0: 609c 41b7 b6b0 c73f f88e c73f 3eae c73f
000001c0: 1fa5 c73f 3c8f c73f fe97 c73f 4453 2835
000001d0: a1d1 08b5 dc9a c9ba c1e7 c3b5 ae3e ac34
000001e0: 208b c73f 2459 c73f aedb 1fb5 02ed 273a
000001f0: 7e7c c73f f6c4 6bb6 b1a9 c73f 1129 0439
00000200: d1b4 6134 ba1f c634 20a3 bd35 e198 c73f
00000210: d9dd 1835 6960 2b39 dc81 c73f 3943 ecb7
00000220: d785 c73f a8ee 60b4 bc79 393f 7819 14b4
00000230: 0129 b2b5 4968 93b4 1ad6 b835 0707 393f
00000240: ad6b c73f f1fe 393f e2a1 393f 2615 8633
00000250: c064 e234 b87f 1835 9af2 cc34 3e5b ad39
00000260: 5782 c73f 296a c73f e900 cfb4 ac5f fdb4
00000270: 341c 6b35 521f 0135 7cf1 7b38 6054 c73f
00000280: 71a5 34b2 21e0 37bf 6c7c c73f ae1f 8c35
00000290: 1375 c73f 8f77 3ebf 528b c73f ab96 c73f
000002a0: 6d9a c73f fd45 8eb5 37dc 2cb6 478e c73f
000002b0: 792f 6a35 6f6b 87b5 1c28 b0b5 e0a1 c73f
000002c0: 4979 c73f 51a5 c73f 2c31 c939 4c23 d537
000002d0: 4fff 373f 8c26 5736 ae91 c73f 1ae9 f9b4
000002e0: 9a61 7db4 ba8a c73f fc79 c73f 2828 8535
000002f0: 0f9a 36bf 8e9c c73f b78b c73f 984a cf38
00000300: ad9a 0a38 55b3 c73f e659 5db5 e296 c735
00000310: d7ea 84b7 e587 c73f 1c68 c73f b66f c73f
00000320: 2749 8326 a690 1ea6 92df 6fa6 515c 6ca6
00000330: 3609 0ba6 91ab 9126 f1a8 c825 accb 6325
00000340: 1deb 8026 a279 9226 e743 8e26 054f 5725
00000350: 6749 0fa6 cc94 1aa6 1db7 26a6 18c6 82a6
00000360: 169b 08a6 0e00 1ca6 3bdf 8d26 15dc 7d26
00000370: d97f f9a5 8acc 7ea6 52c6 69a6 bee2 1fa6
00000380: 61a7 ba25 5b96 19a6 78a7 8326 4d0a 26a6
00000390: 58c0 80a6 5538 8426 0a0b 1ea6 bc1d 1fa6
000003a0: 14dd 68a6 64fa 78a6 0c23 71a6 7e3b 68a6
000003b0: 7f21 8926 418c 7126 6534 05a6 484c 7d26
000003c0: 3642 7d26 baf0 82a6 2c61 9226 aaec 13a6
000003d0: cd1b 74a6 337c 8926 7b05 9726 b1b7 8026
000003e0: e69b 25a6 2fa6 6ea6 1924 7926 f120 7926
000003f0: 0abb 7f26 29f5 5625 117b 0aa6 12fc 8126

fc2.bias f4 [20]
0.7927739 -9.965664e-16 0.7927783 0.79277545 0.7927789 0.79277956 0.79278034 4.536387e-16
6.1970646e-16 0.7927792 -1.0531386e-15 -2.9808257e-16 6.090746e-16 3.6797192e-16 -1.44567e-16 -5.550462e-16
-4.3434264e-16 0.7927788 -8.240651e-16 -4.0799817e-16
00000000: 3bf3 4a3f d09e 8fa6 85f3 4a3f 55f3 4a3f
00000010: 8ff3 4a3f 9af3 4a3f a7f3 4a3f a1c0 0226
00000020: 449e 3226 94f3 4a3f f5c5 97a6 39d5 aba5
00000030: c68d 2f26 121f d425 a6ac 26a5 2efb 1fa6
00000040: a961 faa5 8df3 4a3f 4685 6da6 e731 eba5

fc3.weight f4 [20, 20]
1.5566108 0.79354626 1.5566461 1.5566226 1.5566192 1.5566493 1.556689 -0.7935459
-0.79354584 1.5566224 0.7935459 -0.7935466 -0.7935457 -0.79354537 -0.7935463 -0.7935463
-0.79354614 1.5566427 -0.79354626 0.793546 3.3930848e-16 4.7636344e-16 -6.283658e-16 4.7937904e-16
-4.019226e-16 -6.8408594e-16 -7.130509e-16 1.5897693e-16 -4.4548216e-16 -4.2370745e-16 3.8409633e-16 1.2944436e-16
-3.8852994e-16 -6.3822794e-16 2.1079228e-16 3.254465e-16 -8.771153e-16 -5.838315e-16 1.8796508e-17 4.8961787e-16
1.5566105 0.7935441 1.5566456 1.556622 1.5566182 1.5566498 1.5566891 -0.7935443
-0.7935451 1.5566229 0.79354393 -0.79354435 -0.7935443 -0.7935439 -0.79354435 -0.793544
-0.79354465 1.5566418 -0.79354405 0.7935443 -6.4233016e-17 2.0528464e-16 -8.1771e-16 2.3066653e-16
-9.408975e-16 -5.7706825e-16 -1.0265244e-15 2.4006465e-16 -8.167173e-17 -8.1126963e-16 2.5867428e-16 4.675829e-16
1.9512421e-18 1.7271666e-16 3.9654933e-16 5.123118e-16 -5.456771e-17 -9.31994e-16 4.7600636e-16 2.0352837e-16
1.5566102 0.7935458 1.5566452 1.5566227 1.5566179 1.5566506 1.5566889 -0.7935451
-0.79354525 1.5566218 0.7935449 -0.79354507 -0.793545 -0.7935454 -0.7935447 -0.79354507
-0.79354453 1.5566425 -0.7935454 0.79354465 1.6773009e-16 4.7018794e-16 -6.933384e-16 3.2317732e-16
-4.4899327e-16 -6.792802e-16 -6.732425e-16 -1.7215348e-16 -5.439364e-16 -6.8590473e-16 4.2405172e-16 1.4638537e-16
-4.4726876e-16 -3.9839713e-16 3.0144081e-16 1.7352537e-16 -5.9850517e-16 -5.0705415e-16 7.830033e-17 3.871238e-16
-5.364967e-16 -2.4941314e-16 -6.163049e-16 -3.9243997e-16 -3.0776857e-16 -6.1948173e-16 -5.8685375e-16 7.652239e-16
6.4419656e-16 -5.3708644e-16 -1.2197621e-16 6.2016057e-16 9.448149e-16 1.093784e-15 8.2001175e-16 6.681309e-16
7.9035157e-16 -5.8656036e-16 7.2981036e-16 -1.8433757e-16 -2.7942426e-16 -1.4580707e-16 -4.731353e-16 -2.4993245e-16
-5.4620454e-16 -5.9405507e-16 -6.48481e-16 6.065501e-16 1.6689654e-16 -6.926558e-16 -2.2068162e-16 5.8006934e-16
2.715543e-16 2.37642e-16 7.184623e-16 5.423801e-16 3.3986903e-16 -7.691731e-16 4.2490344e-16 -2.316794e-16
1.5566102 0.79354393 1.5566471 1.5566218 1.5566183 1.5566491 1.5566899 -0.793545
-0.7935444 1.5566221 0.79354376 -0.79354405 -0.793544 -0.7935444 -0.7935444 -0.7935449
-0.79354423 1.5566456 -0.7935452 0.79354435 -7.745886e-16 -3.616617e-17 -7.4113075e-16 -2.3174274e-16
-7.8051376e-16 -5.157641e-16 -1.169458e-15 -2.5930265e-16 -7.716374e-16 -5.535136e-16 -1.2510575e-16 -3.5823813e-16
-8.641302e-16 -6.7728156e-16 -2.4538486e-16 -3.9574576e-16 -8.798519e-16 -1.2233514e-15 -3.132465e-16 3.341645e-17
1.5566105 0.7935449 1.5566459 1.5566211 1.5566194 1.5566492 1.5566913 -0.7935451
-0.7935458 1.556622 0.7935455 -0.793545 -0.7935459 -0.79354554 -0.79354525 -0.79354525
-0.7935453 1.556643 -0.793545 0.79354626 -6.182126e-16 -2.9079051e-16 -7.8495967e-16 -4.3579535e-16
-6.479849e-16 -7.1908994e-16 -7.26268e-16 -2.7837212e-17 -1.8494154e-17 -7.1434587e-16 -1.5069292e-16 2.4087238e-17
1.3227167e-16 9.660752e-17 3.0028647e-16 1.8019325e-16 -1.1863377e-16 -8.3769785e-16 8.731639e-17 -2.8599578e-16
-2.7879118e-16 -7.7965756e-16 -3.7627337e-16 -6.7044823e-16 -2.0562756e-16 -2.8407955e-16 -6.3692177e-16 9.517785e-17
4.269929e-16 -4.932657e-16 -6.334573e-16 2.502932e-16 5.4561866e-16 6.000315e-16 4.0207595e-16 3.5797778e-16
00000000: 063f c73f d925 4b3f 2e40 c73f 693f c73f
00000010: 4c3f c73f 4940 c73f 9641 c73f d325 4bbf
00000020: d225 4bbf 673f c73f d325 4b3f df25 4bbf
00000030: d025 4bbf ca25 4bbf da25 4bbf da25 4bbf
00000040: d725 4bbf 1140 c73f d925 4bbf d525 4b3f
00000050: 1899 c325 6b4d 0926 361d 35a6 ee2b 0a26
00000060: 4fb1 e7a5 a22c 45a6 df85 4da6 b549 3725
00000070: c866 00a6 2f40 f4a5 9d6a dd25 3b3d 1525
00000080: e6f8 dfa5 e9f4 37a6 e606 7325 6d9b bb25
00000090: b0cf 7ca6 2947 28a6 005e ad23 6c1f 0d26
000000a0: 033f c73f b525 4b3f 2a40 c73f 643f c73f
000000b0: 443f c73f 4d40 c73f 9741 c73f b825 4bbf
000000c0: c625 4bbf 6b3f c73f b225 4b3f b925 4bbf
000000d0: b825 4bbf b125 4bbf b925 4bbf b325 4bbf
000000e0: be25 4bbf 0a40 c73f b425 4bbf b825 4b3f
000000f0: 7b1c 94a4 55ad 6c25 59b0 6ba6 5ff8 8425
00000100: fe98 87a6 1f54 26a6 11f0 93a6 4a63 8a25
00000110: 7b52 bca4 22d5 69a6 961d 9525 87c5 0626
00000120: ecf9 0f22 f620 4725 5a98 e425 f0a9 1326
00000130: 2ea6 7ba4 8250 86a6 1233 0926 f9a6 6a25
00000140: 013f c73f d125 4b3f 2640 c73f 6a3f c73f
00000150: 413f c73f 5440 c73f 9541 c73f c625 4bbf
00000160: c825 4bbf 623f c73f c225 4b3f c525 4bbf
00000170: c425 4bbf cb25 4bbf bf25 4bbf c525 4bbf
00000180: bc25 4bbf 1040 c73f cb25 4bbf be25 4b3f
00000190: 2f61 4125 bf85 0726 58d7 47a6 8e4c ba25
000001a0: db69 01a6 08ca 43a6 870c 42a6 bd7a 46a5
000001b0: 6cc7 1ca6 d6b2 45a6 fd72 f425 56c5 2825
000001c0: 9cea 00a6 0aa9 e5a5 d0c4 ad25 a60f 4825
000001d0: e381 2ca6 fe25 12a6 5b8c b424 6429 df25
000001e0: 78a2 1aa6 e2c6 8fa5 46a3 31a6 eb39 e2a5
000001f0: a06a b1a5 af8d 32a6 2a26 29a6 8f8f 5c26
00000200: 51ad 3926 fccd 1aa6 06a1 0ca5 c6bf 3226
00000210: 8429 8826 82a1 9d26 305a 6c26 5c93 4026
00000220: a7cd 6326 8410 29a6 805a 5226 d986 54a5
00000230: be13 a1a5 a71a 28a5 395f 08a6 8513 90a5
00000240: c86e 1da6 8739 2ba6 74e9 3aa6 7fd3 2e26
00000250: 2a6b 4025 faa4 47a6 b86d 7ea5 9031 2726
00000260: 578a 9c25 c5fd 8825 2915 4f26 9654 1c26
00000270: d1eb c325 f5b2 5da6 aef0 f425 d88d 85a5
00000280: 013f c73f b225 4b3f 3640 c73f 623f c73f
00000290: 453f c73f 4740 c73f 9d41 c73f c425 4bbf
000002a0: ba25 4bbf 653f c73f af25 4b3f b425 4bbf
000002b0: b325 4bbf ba25 4bbf ba25 4bbf c225 4bbf
000002c0: b725 4bbf 2a40 c73f c725 4bbf b925 4b3f
000002d0: 8d42 5fa6 7ac9 26a4 cc9d 55a6 3197 85a5
000002e0: c0f7 60a6 aca8 14a6 6389 a8a6 517a 95a5
000002f0: ca68 5ea6 188a 1fa6 b33c 10a5 9e82 cea5
00000300: 8e11 79a6 8f36 43a6 6a74 8da5 c421 e4a5
00000310: 9c99 7da6 b34d b0a6 0693 b4a5 2e1b 1a24
00000320: 033f c73f c225 4b3f 2c40 c73f 5c3f c73f
00000330: 4e3f c73f 4840 c73f a941 c73f c625 4bbf
00000340: d125 4bbf 643f c73f cc25 4b3f c425 4bbf
00000350: d325 4bbf cd25 4bbf c825 4bbf c825 4bbf
00000360: c925 4bbf 1440 c73f c425 4bbf d925 4b3f
00000370: 0a30 32a6 1ba1 a7a5 cd3f 62a6 0b38 fba5
00000380: d9c4 3aa6 7943 4fa6 1f55 51a6 6160 00a4
00000390: 1694 aaa3 6ce5 4da6 b3bc 2da5 622a de23
000003a0: b57f 1825 04c3 de24 761a ad25 a9bf 4f25
000003b0: 82c6 08a5 3173 71a6 8056 c924 87dd a4a5
000003c0: 51b6 a0a5 93b8 60a6 26e8 d8a5 593e 41a6
000003d0: 8b12 6da5 bec2 a3a5 8894 37a6 1677 db24
000003e0: 0825 f625 962c 0ea6 e694 36a6 c248 9025
000003f0: 8d43 1d26 83f2 2c26 f0c7 e725 325c ce25

fc3.bias f4 [20]
0.8626123 -4.7487303e-16 0.86260974 7.6596575e-16 0.86261183 4.1194569e-16 -6.3876195e-16 5.507365e-16
0.8626095 3.569089e-16 0.86261106 5.0621256e-16 5.0611897e-16 -4.4350624e-16 -3.6843816e-16 0.8626117
0.8626091 4.04764e-16 0.8626125 -2.8246106e-16
00000000: 29d4 5c3f 72df 08a6 fed3 5c3f 4cc6 5c26
00000010: 21d4 5c3f 7478 ed25 501c 38a6 2ebd 1e26
00000020: fad3 5c3f 75be cd25 14d4 5c3f e5e7 1126
00000030: fde0 1126 f8a9 ffa5 e063 d4a5 1fd4 5c3f
00000040: f3d3 5c3f a054 e925 2cd4 5c3f e5d3 a2a5

fc4.weight f4 [1, 20]
1.5560266 -0.8687911 1.5560257 -0.8687916 1.5560249 -0.86879116 0.8687913 -0.8687902
1.556027 -0.8687911 1.5560256 -0.8687912 -0.8687911 -0.8687911 -0.8687915 1.5560269
1.5560256 -0.8687922 1.5560272 -0.8687905
00000000: e12b c73f 1869 5ebf da2b c73f 2069 5ebf
00000010: d32b c73f 1969 5ebf 1b69 5e3f 0969 5ebf
00000020: e52b c73f 1869 5ebf d92b c73f 1a69 5ebf
00000030: 1869 5ebf 1869 5ebf 1f69 5ebf e42b c73f
00000040: d92b c73f 2a69 5ebf e62b c73f 0e69 5ebf

bn1.weight f4 [200]
8.292302e-16 1.5878946 8.292302e-16 8.292302e-16 1.5773692 -0.71867937 8.292302e-16 8.292302e-16
8.292302e-16 1.446434e-07 2.865596e-07 -4.2830347e-06 1.5784746 1.5790927 1.5765584 8.292302e-16
1.5761778 1.5698122 1.5235278e-08 8.292302e-16 1.5857527 8.292302e-16 8.292302e-16 1.5768365
1.5180922e-05 1.5758852 8.292302e-16 1.5885221 8.292302e-16 8.292302e-16 1.5765854 1.5867115
8.292302e-16 8.292302e-16 8.292302e-16 8.292302e-16 -4.7880803e-08 8.292302e-16 1.5761517 8.292302e-16
8.292302e-16 8.292302e-16 0.00054882735 1.5750439 8.292302e-16 -4.034079e-08 2.397572e-06 8.292302e-16
1.5907502 8.292302e-16 8.292302e-16 8.292302e-16 8.292302e-16 -5.1731988e-08 1.5693345 8.292302e-16
1.5703717 1.5740751 8.292302e-16 8.292302e-16 1.5712205 1.5830423 1.5806614 8.292302e-16
1.5714995 8.292302e-16 -5.984591e-08 1.5852673 8.292302e-16 1.5780241 8.292302e-16 8.292302e-16
4.5360096e-08 1.3251197e-08 8.292302e-16 8.292302e-16 8.292302e-16 8.292302e-16 1.5867039 1.5866963
8.292302e-16 8.292302e-16 8.292302e-16 3.840023e-08 0.7361104 8.292302e-16 8.292302e-16 8.292302e-16
8.292302e-16 -1.2011461e-05 1.593196 1.5916231 1.5883125 1.582551 8.292302e-16 8.292302e-16
8.292302e-16 8.292302e-16 1.5638775 8.292302e-16 8.292302e-16 8.292302e-16 -4.0920213e-08 1.5732578
8.292302e-16 8.292302e-16 -5.583722e-08 1.5775613 8.292302e-16 1.5785424 1.5717478 1.5784338
1.5763435 1.5723878 1.5924057 8.292302e-16 8.292302e-16 0.0015388401 4.5898265e-08 8.292302e-16
1.5715977 1.5719543 8.292302e-16 8.292302e-16 1.5826833 8.292302e-16 1.5770184 8.292302e-16
8.292302e-16 8.292302e-16 8.292302e-16 1.5917424 8.292302e-16 8.292302e-16 1.5883743 2.9439292e-05
1.589829 8.292302e-16 8.292302e-16 8.292302e-16 8.292302e-16 8.292302e-16 8.292302e-16 -0.72276676
1.5866108 8.292302e-16 8.292302e-16 8.292302e-16 8.292302e-16 8.292302e-16 8.292302e-16 -0.0003332983
1.5795132 1.5715517 8.292302e-16 8.292302e-16 8.292302e-16 -1.1104927e-08 8.292302e-16 1.5724732
8.292302e-16 8.292302e-16 1.5883157 8.292302e-16 1.5875498 8.292302e-16 1.5907608 1.5731375
1.5688218 8.292302e-16 8.292302e-16 1.5680282 -3.7630592e-08 8.292302e-16 1.1857639e-08 1.5761905
1.5686275 1.5765985 -0.00038287957 -2.603255e-05 8.292302e-16 8.292302e-16 1.5715133 8.292302e-16
-2.1487661e-08 1.5906303 1.5873525 -1.7602442e-06 0.71328926 1.5749338 1.5897244 8.292302e-16
-3.21708e-05 1.5790421 8.292302e-16 8.292302e-16 8.292302e-16 1.5891204 1.5659343 1.5866735
00000000: 6402 6f26 2140 cb3f 6402 6f26 6402 6f26
00000010: 3ce7 c93f 5ffb 37bf 6402 6f26 6402 6f26
00000020: 6402 6f26 464f 1b34 74d8 9934 fdb6 8fb6
00000030: 750b ca3f b61f ca3f aacc c93f 6402 6f26
00000040: 32c0 c93f 9bef c83f bbde 8232 6402 6f26
00000050: f2f9 ca3f 6402 6f26 6402 6f26 c7d5 c93f
00000060: 90b1 7e37 9bb6 c93f 6402 6f26 b154 cb3f
00000070: 6402 6f26 6402 6f26 8dcd c93f 5d19 cb3f
00000080: 6402 6f26 6402 6f26 6402 6f26 6402 6f26
00000090: 80a5 4db3 6402 6f26 57bf c93f 6402 6f26
000000a0: 6402 6f26 6402 6f26 2edf 0f3a 0a9b c93f
000000b0: 6402 6f26 2b43 2db3 f9e5 2036 6402 6f26
000000c0: b49d cb3f 6402 6f26 6402 6f26 6402 6f26
000000d0: 6402 6f26 ec2f 5eb3 f4df c83f 6402 6f26
000000e0: f101 c93f 4b7b c93f 6402 6f26 6402 6f26
000000f0: c11d c93f 21a1 ca3f 1d53 ca3f 6402 6f26
00000100: e526 c93f 6402 6f26 a384 80b3 0aea ca3f
00000110: 6402 6f26 b2fc c93f 6402 6f26 6402 6f26
00000120: f4d1 4233 61a7 6332 6402 6f26 6402 6f26
00000130: 6402 6f26 6402 6f26 1d19 cb3f dd18 cb3f
00000140: 6402 6f26 6402 6f26 6402 6f26 80ed 2433
00000150: bb71 3c3f 6402 6f26 6402 6f26 6402 6f26
00000160: 6402 6f26 d584 49b7 d9ed cb3f 4eba cb3f
00000170: d34d cb3f 0891 ca3f 6402 6f26 6402 6f26
00000180: 6402 6f26 6402 6f26 232d c83f 6402 6f26
00000190: 6402 6f26 6402 6f26 40c0 2fb3 8360 c93f
000001a0: 6402 6f26 6402 6f26 acd1 6fb3 87ed c93f
000001b0: 6402 6f26 ad0d ca3f 082f c93f 1e0a ca3f
000001c0: a0c5 c93f 0144 c93f f3d3 cb3f 6402 6f26
000001d0: 6402 6f26 e8b2 c93a ad21 4533 6402 6f26
000001e0: 1d2a c93f cc35 c93f 6402 6f26 6402 6f26
000001f0: 5e95 ca3f 6402 6f26 bddb c93f 6402 6f26
00000200: 6402 6f26 6402 6f26 6402 6f26 37be cb3f
00000210: 6402 6f26 6402 6f26 d94f cb3f 66f4 f637
00000220: 847f cb3f 6402 6f26 6402 6f26 6402 6f26
00000230: 6402 6f26 6402 6f26 6402 6f26 3e07 39bf
00000240: 1016 cb3f 6402 6f26 6402 6f26 6402 6f26
00000250: 6402 6f26 6402 6f26 6402 6f26 8abe aeb9
00000260: 7d2d ca3f 9b28 c93f 6402 6f26 6402 6f26
00000270: 6402 6f26 fcc7 3eb2 6402 6f26 cd46 c93f
00000280: 6402 6f26 6402 6f26 ee4d cb3f 6402 6f26
00000290: d534 cb3f 6402 6f26 0d9e cb3f 925c c93f
000002a0: 27cf c83f 6402 6f26 6402 6f26 26b5 c83f
000002b0: 469f 21b3 6402 6f26 73b6 4b32 9cc0 c93f
000002c0: c9c8 c83f fbcd c93f 3abd c8b9 7a60 dab7
000002d0: 6402 6f26 6402 6f26 5927 c93f 6402 6f26
000002e0: de93 b8b2 c699 cb3f 5e2e cb3f 8841 ecb5
000002f0: 209a 363f 6e97 c93f 177c cb3f 6402 6f26
00000300: 22ef 06b8 0d1e ca3f 6402 6f26 6402 6f26
00000310: 6402 6f26 4c68 cb3f 8970 c83f 1e18 cb3f

bn1.bias f4 [200]
-6.027362e-08 0.75783944 -5.6092626e-12 -1.4909955e-07 0.7578833 0.7186798 -1.724576e-08 9.313991e-13
5.436171e-06 -6.1544355e-08 -2.751641e-07 4.388234e-06 0.75789034 0.75789034 0.75787514 -1.3394386e-11
0.7578815 0.75785196 5.382197e-09 -8.3006925e-14 0.75783074 0.72578406 -6.420772e-06 0.7578842
-1.5147587e-05 0.75787884 0.71597445 0.7578377 0.7468673 -0.0013348898 0.7578833 0.75782955
1.3344967e-13 -8.1826056e-07 6.843366e-10 6.3420194e-12 -1.3164076e-08 -4.8516973e-05 0.757876 -0.0005755529
-0.00020992623 9.7780255e-15 -0.00054879056 0.75787544 -9.108521e-13 -1.0590542e-08 -2.5219383e-06 1.9259887e-06
0.7578556 -3.9214443e-13 0.0003242303 -1.9882857e-05 -1.0076887e-08 -1.2975462e-08 0.75786483 4.998682e-06
0.75785124 0.75786924 3.4587462e-14 1.4962801e-05 0.7578226 0.7579053 0.757894 -2.542645e-12
0.7578204 -6.28657e-06 -1.6403972e-08 0.7579095 2.2617706e-12 0.75788605 0.0014610244 -1.9518114e-07
1.2540339e-08 3.4618732e-09 1.4031587e-13 -0.00020948023 -3.7568884e-06 -8.261182e-09 0.7578275 0.75783247
1.3242274e-06 0.00010558411 5.276986e-14 -4.4064066e-08 -0.7361109 -6.665907e-11 7.06219e-07 -2.6478765e-14
1.1006635e-07 1.192878e-05 0.75787026 0.7578538 0.7578422 0.757903 -7.762848e-12 -7.5362676e-13
-2.066757e-15 -0.7229981 0.75783765 -2.977311e-07 -1.6830477e-15 -6.9317224e-08 6.3029574e-08 0.7578635
0.71403134 -1.722001e-12 -2.7465605e-08 0.7578826 -1.03096045e-05 0.7578896 0.75786436 0.7578864
0.7578787 0.7578647 0.75785893 3.3458201e-12 7.98605e-12 -0.001538875 2.2191303e-08 5.087036e-15
0.7578619 0.75781834 -2.1334497e-13 0.0006412453 0.757841 -4.981764e-06 0.75788385 0.0001240316
-4.6797635e-14 -2.2895368e-14 4.2502728e-07 0.75785995 3.203625e-14 0.00016318775 0.75784343 -2.9408635e-05
0.7578452 2.3761368e-07 0.72451574 3.3746504e-15 -1.2741319e-09 8.0546984e-13 -5.927935e-12 0.7227661
0.75782615 0.72654665 0.7251254 2.3801023e-14 -1.3642314e-12 1.04858205e-10 -4.0560396e-14 0.00033331668
0.757847 0.7578321 1.4675448e-12 -9.452503e-14 -1.7185958e-12 -2.7364868e-09 6.0923354e-05 0.75781375
3.946789e-10 -0.7182617 0.75784016 -2.1350963e-14 0.7578328 -0.74401367 0.7578509 0.7578685
0.75787455 2.4818743e-15 6.869678e-09 0.7578663 -9.509112e-09 -1.166054e-11 5.837566e-09 0.7578753
0.75784534 0.7578787 0.00038305984 2.5891077e-05 0.71874166 5.467533e-06 0.75786656 5.982543e-15
-8.662548e-09 0.7578493 0.75783825 1.8179876e-06 -0.71328944 0.7578731 0.7578502 9.8018805e-05
3.2103722e-05 0.75789106 3.3132759e-09 3.6164024e-14 -1.658111e-05 0.75784904 0.757834 0.7578291
00000000: c66f 81b3 c401 423f bf5b c5ac 2c18 20b4
00000010: a404 423f 66fb 373f d423 94b2 3015 832b
00000020: 5a68 b636 5e2a 84b3 44ba 93b4 a53e 9336
00000030: 1a05 423f 1a05 423f 1b04 423f f4a2 6bad
00000040: 8604 423f 9602 423f 4eee b831 3cea baa9
00000050: 3201 423f fccc 393f 0372 d7b6 b304 423f
00000060: 6422 7eb7 5904 423f 1a4a 373f a701 423f
00000070: b232 3f3f 78f7 aeba a404 423f 1e01 423f
00000080: 4040 162a 70a6 5bb5 e81b 3c30 d523 df2c
00000090: 3828 62b2 b47e 4bb8 2904 423f b4e0 16ba
000000a0: a51f 5cb9 2f25 3028 b6dc 0fba 2004 423f
000000b0: e830 80ab b2f1 35b2 923e 29b6 3c40 0136
000000c0: d302 423f f8c1 dcaa 74fd a939 1cca a6b7
000000d0: 9e1e 2db2 afea 5eb2 6e03 423f 5aba a736
000000e0: 8a02 423f b803 423f a1c4 1b29 be08 7b37
000000f0: a900 423f 1506 423f 5705 423f 38ec 32ac
00000100: 8500 423f 3af1 d2b6 b7e8 8cb2 5b06 423f
00000110: 7028 1f2c d204 423f d87f bf3a fc92 51b4
00000120: ff70 5732 ebe5 6d31 4cfb 1d2a eca7 5bb9
00000130: da1e 7cb6 10ed 0db2 fc00 423f 4f01 423f
00000140: 1bbc b135 0a6d dd38 82a7 6d29 f440 3db3
00000150: c471 3cbf b895 92ae 0093 3d35 e07f eea8
00000160: 9e5d ec33 b821 4837 c903 423f b502 423f
00000170: f201 423f ee05 423f c290 08ad 8820 54ab
00000180: f0ec 14a7 6716 39bf a601 423f dad7 9fb4
00000190: 808d f2a6 8cdb 94b3 e05a 8733 5803 423f
000001a0: c2ca 363f a059 f2ab 81ed ebb2 9804 423f
000001b0: 6af7 2cb7 0e05 423f 6603 423f d804 423f
000001c0: 5704 423f 6c03 423f 0b03 423f f070 6b2c
000001d0: f97d 0c2d 14b4 c9ba 319f be32 a047 b727
000001e0: 3d03 423f 6200 423f 8034 70aa 3e19 283a
000001f0: de01 423f 0729 a7b6 ad04 423f 7b0e 0239
00000200: 00c2 52a9 2039 cea8 4e2f e434 1c03 423f
00000210: 4847 1029 611d 2b39 0702 423f 90b2 f6b7
00000220: 2502 423f c022 7f34 dd79 393f 502b 7327
00000230: 881d afb0 38b8 622b 1792 d0ac 3307 393f
00000240: e500 423f f6fe 393f d1a1 393f 6c61 d628
00000250: 9eff bfab ec95 e62e f4aa 36a9 02c1 ae39
00000260: 4302 423f 4901 423f e089 ce2b f8d9 d4a9
00000270: f0de f1ab c90c 3cb1 f487 7f38 1500 423f
00000280: 1efa d82f 00e0 37bf d001 423f f84f c0a8
00000290: 5501 423f ae77 3ebf 8402 423f ac03 423f
000002a0: 1104 423f 80d6 3227 540a ec31 8703 423f
000002b0: 845d 23b2 6722 4dad c693 c831 1e04 423f
000002c0: 2702 423f 5704 423f 6cd5 c839 aa30 d937
000002d0: 74ff 373f c075 b736 8b03 423f 388b d727
000002e0: 4ad2 14b2 6902 423f b001 423f 9401 f435
000002f0: 239a 36bf f903 423f 7902 423f 728f cd38
00000300: 1ca7 0638 2605 423f c4af 6331 48de 2229
00000310: aa17 8bb7 6502 423f 6901 423f 1701 423f

bn1.running_mean f4 [200]
0.0 22291.562 0.0 0.0 14503.422 323.52515 0.0 0.0
0.0 537.8888 3794.987 640.30505 15334.312 15807.535 13899.159 0.0
13605.947 8779.775 2442.038 0.0 20693.678 0.0 0.0 14113.686
773.03503 13393.744 0.0 22743.922 0.0 0.0 13927.447 21410.229
0.0 0.0 0.0 0.0 373.95306 0.0 13576.908 0.0
0.0 0.0 313.2757 12744.228 0.0 800.51807 360.47748 0.0
24390.432 0.0 0.0 0.0 0.0 327.3925 8408.383 0.0
9185.894 12017.501 0.0 0.0 9830.384 18754.975 16982.574 0.0
10033.221 0.0 57.128185 20397.701 0.0 14999.705 0.0 0.0
157.2861 227.55705 0.0 0.0 0.0 0.0 21403.555 21408.053
0.0 0.0 0.0 20994.334 0.09329521 0.0 0.0 0.0
0.0 494.23645 26168.39 25009.129 22598.408 18384.926 0.0 0.0
0.0 0.0 4196.673 0.0 0.0 0.0 812.86 11397.412
0.0 0.0 20333.371 14650.326 0.0 15388.95 10252.16 15302.017
13729.912 10728.577 25590.818 0.0 0.0 19.409924 21026.486 0.0
10136.762 10391.359 0.0 0.0 18446.627 0.0 14249.146 0.0
0.0 0.0 0.0 25101.492 0.0 0.0 22647.87 694.3393
23706.59 0.0 0.0 0.0 0.0 0.0 0.0 5267.6504
21345.04 0.0 0.0 0.0 0.0 0.0 0.0 2544.1025
16088.447 10085.106 0.0 0.0 0.0 376.93274 0.0 10774.498
0.0 0.0 22599.475 0.0 22030.889 0.0 24394.863 11308.664
8024.988 0.0 0.0 7404.024 352.58908 0.0 20644.771 13604.827
7860.8535 13933.335 663.2931 99.93736 0.0 0.0 10070.197 0.0
139.00388 24284.658 21899.834 392.52765 802.37244 12661.479 23630.29 0.0
129.59157 15761.102 0.0 0.0 0.0 23194.604 5786.255 21386.838
00000000: 0000 0000 2027 ae46 0000 0000 0000 0000
00000010: b09d 6246 38c3 a143 0000 0000 0000 0000
00000020: 0000 0000 e278 0644 cb2f 6d45 8613 2044
00000030: 3f99 6f46 24fe 7646 a32c 5946 0000 0000
00000040: ca97 5446 1a2f 0946 9ca0 1845 0000 0000
00000050: 5bab a146 0000 0000 0000 0000 be86 5c46
00000060: 3e42 4144 fa46 5146 0000 0000 d8af b146
00000070: 0000 0000 0000 0000 ca9d 5946 7544 a746
00000080: 0000 0000 0000 0000 0000 0000 0000 0000
00000090: fef9 ba43 0000 0000 a223 5446 0000 0000
000000a0: 0000 0000 0000 0000 4aa3 9c43 e920 4746
000000b0: 0000 0000 2821 4844 1e3d b443 0000 0000
000000c0: dd8c be46 0000 0000 0000 0000 0000 0000
000000d0: 0000 0000 3db2 a343 8861 0346 0000 0000
000000e0: 9387 0f46 01c6 3b46 0000 0000 0000 0000
000000f0: 8999 1946 f385 9246 26ad 8446 0000 0000
00000100: e2c4 1c46 0000 0000 4383 6442 675b 9f46
00000110: 0000 0000 d25e 6a46 0000 0000 0000 0000
00000120: 3e49 1d43 9b8e 6343 0000 0000 0000 0000
00000130: 0000 0000 0000 0000 1c37 a746 1b40 a746
00000140: 0000 0000 0000 0000 0000 0000 ab04 a446
00000150: 8f11 bf3d 0000 0000 0000 0000 0000 0000
00000160: 0000 0000 441e f743 c870 cc46 4262 c346
00000170: d18c b046 daa1 8f46 0000 0000 0000 0000
00000180: 0000 0000 0000 0000 6225 8345 0000 0000
00000190: 0000 0000 0000 0000 0a37 4b44 a615 3246
000001a0: 0000 0000 0000 0000 beda 9e46 4ee9 6446
000001b0: 0000 0000 cd73 7046 a430 2046 1118 6f46
000001c0: a687 5646 4fa2 2746 a3ed c746 0000 0000
000001d0: 0000 0000 8647 9b41 f944 a446 0000 0000
000001e0: 0c63 1e46 705d 2246 0000 0000 0000 0000
000001f0: 411d 9046 0000 0000 96a4 5e46 0000 0000
00000200: 0000 0000 0000 0000 0000 0000 fc1a c446
00000210: 0000 0000 0000 0000 bdef b046 b795 2d44
00000220: 2e35 b946 0000 0000 0000 0000 0000 0000
00000230: 0000 0000 0000 0000 0000 0000 349d a445
00000240: 14c2 a646 0000 0000 0000 0000 0000 0000
00000250: 0000 0000 0000 0000 0000 0000 a401 1f45
00000260: ca61 7b46 6d94 1d46 0000 0000 0000 0000
00000270: 0000 0000 6477 bc43 0000 0000 fe59 2846
00000280: 0000 0000 0000 0000 f38e b046 0000 0000
00000290: c71d ac46 0000 0000 ba95 be46 a8b2 3046
000002a0: e7c7 fa45 0000 0000 0000 0000 3160 e745
000002b0: 674b b043 0000 0000 8b49 a146 4f93 5446
000002c0: d4a6 f545 57b5 5946 c2d2 2544 eedf c742
000002d0: 0000 0000 0000 0000 ca58 1d46 0000 0000
000002e0: fe00 0b43 51b9 bd46 ab17 ab46 8a43 c443
000002f0: d697 4844 ead5 4546 949c b846 0000 0000
00000300: 7197 0143 6844 7646 0000 0000 0000 0000
00000310: 0000 0000 3535 b546 0ad2 b445 ad15 a746

bn1.running_var f4 [200]
0.6561 2.0120714e+09 0.6561 0.6561 7.1854483e+08 1.4663868e+06 0.6561 0.6561
0.6561 4.5670985e+06 7.369401e+07 6.338153e+06 7.8591866e+08 8.409862e+08 6.7595283e+08 0.6561
6.3038816e+08 2.997392e+08 4.789031e+07 0.6561 1.7671982e+09 0.6561 0.6561 6.7624557e+08
9.227975e+06 6.1350835e+08 0.6561 2.0993802e+09 0.6561 0.6561 6.580603e+08 1.9017206e+09
0.6561 0.6561 0.6561 0.6561 2.1036562e+06 0.6561 6.393358e+08 0.6561
0.6561 0.6561 1.3070474e+06 5.610703e+08 0.6561 9.29813e+06 2.1697052e+06 0.6561
2.3132178e+09 0.6561 0.6561 0.6561 0.6561 1.7037432e+06 2.5389955e+08 0.6561
3.2795872e+08 5.1184832e+08 0.6561 0.6561 4.435386e+08 1.1429339e+09 9.619133e+08 0.6561
4.6565962e+08 0.6561 43437.793 1.3642574e+09 0.6561 7.6333146e+08 0.6561 0.6561
323450.6 759934.4 0.6561 0.6561 0.6561 0.6561 1.9079968e+09 1.8876844e+09
0.6561 0.6561 0.6561 1.8202378e+09 31.221592 0.6561 0.6561 0.6561
0.6561 3.9194388e+06 2.5874268e+09 2.4365074e+09 2.0510318e+09 1.1061663e+09 0.6561 0.6561
0.6561 0.6561 8.451262e+07 0.6561 0.6561 0.6561 1.0169607e+07 4.7663917e+08
0.6561 0.6561 1.7087876e+09 7.331297e+08 0.6561 7.960481e+08 3.811846e+08 7.9386925e+08
6.4802477e+08 4.1898854e+08 2.5237975e+09 0.6561 0.6561 18994.0 1.8261335e+09 0.6561
3.7915757e+08 5.024189e+08 0.6561 0.6561 1.3690136e+09 0.6561 6.897351e+08 0.6561
0.6561 0.6561 0.6561 2.4200858e+09 0.6561 0.6561 2.0488292e+09 7.2644625e+06
2.2331889e+09 0.6561 0.6561 0.6561 0.6561 0.6561 0.6561 1.3493952e+08
1.9091342e+09 0.6561 0.6561 0.6561 0.6561 0.6561 0.6561 5.2736788e+07
1.01844717e+09 4.3976058e+08 0.6561 0.6561 0.6561 2.1672412e+06 0.6561 5.486899e+08
0.6561 0.6561 2.0653893e+09 0.6561 1.9962e+09 0.6561 2.339584e+09 4.529637e+08
2.1097829e+08 0.6561 0.6561 1.9209069e+08 1.9608086e+06 0.6561 1.7585531e+09 6.439034e+08
2.4990035e+08 6.6857984e+08 6.7610405e+06 207980.8 0.6561 0.6561 3.619337e+08 0.6561
282947.56 2.3216937e+09 1.9478886e+09 2.5015115e+06 9.497316e+06 5.6357946e+08 2.1900214e+09 0.6561
258739.42 8.327362e+08 0.6561 0.6561 0.6561 2.123575e+09 1.5550405e+08 1.8999078e+09
00000000: 2bf6 273f 8cdb ef4e 2bf6 273f 2bf6 273f
00000010: 7f50 2b4e 9600 b349 2bf6 273f 2bf6 273f
00000020: 2bf6 273f 7560 8b4a 678f 8c4c d26c c14a
00000030: ab60 3b4e b981 484e e328 214e 2bf6 273f
00000040: d74b 164e 42ed 8e4d e2af 364c 2bf6 273f
00000050: 9caa d24e 2bf6 273f 2bf6 273f c13a 214e
00000060: c7ce 0c4b 9445 124e 2bf6 273f 0044 fa4e
00000070: 2bf6 273f 2bf6 273f d0e4 1c4e e8b3 e24e
00000080: 2bf6 273f 2bf6 273f 2bf6 273f 2bf6 273f
00000090: a165 004a 2bf6 273f f66d 184e 2bf6 273f
000000a0: 2bf6 273f 2bf6 273f 3b8d 9f49 03c5 054e
000000b0: 2bf6 273f d2e0 0d4b a56d 044a 2bf6 273f
000000c0: e7e0 094f 2bf6 273f 2bf6 273f 2bf6 273f
000000d0: 2bf6 273f faf9 cf49 3223 724d 2bf6 273f
000000e0: 0662 9c4d 7c11 f44d 2bf6 273f 2bf6 273f
000000f0: e57e d34d 933f 884e 8756 654e 2bf6 273f
00000100: 370b de4d 2bf6 273f cbad 2947 d5a1 a24e
00000110: 2bf6 273f 0efe 354e 2bf6 273f 2bf6 273f
00000120: 53ef 9d48 e687 3949 2bf6 273f 2bf6 273f
00000130: 2bf6 273f 2bf6 273f 7173 e34e 8e07 e14e
00000140: 2bf6 273f 2bf6 273f 2bf6 273f 40fd d84e
00000150: d2c5 f941 2bf6 273f 2bf6 273f 2bf6 273f
00000160: 2bf6 273f 3b39 6f4a 0039 1a4f 273a 114f
00000170: 8680 f44e 84dd 834e 2bf6 273f 2bf6 273f
00000180: 2bf6 273f 2bf6 273f ee31 a14c 2bf6 273f
00000190: 2bf6 273f 2bf6 273f 072d 1b4b 7e47 e34d
000001a0: 2bf6 273f 2bf6 273f 0fb4 cb4e b0ca 2e4e
000001b0: 2bf6 273f ecca 3d4e 53c3 b54d ef45 3d4e
000001c0: 4b80 1a4e 10ca c74d 186e 164f 2bf6 273f
000001d0: 2bf6 273f 0064 9446 2cb1 d94e 2bf6 273f
000001e0: e2cb b44d 6f92 ef4d 2bf6 273f 2bf6 273f
000001f0: fb32 a34e 2bf6 273f 1772 244e 2bf6 273f
00000200: 2bf6 273f 2bf6 273f 2bf6 273f 943f 104f
00000210: 2bf6 273f 2bf6 273f 4e3d f44e 9db1 dd4a
00000220: c21b 054f 2bf6 273f 2bf6 273f 2bf6 273f
00000230: 2bf6 273f 2bf6 273f 2bf6 273f 38b0 004d
00000240: 2796 e34e 2bf6 273f 2bf6 273f 2bf6 273f
00000250: 2bf6 273f 2bf6 273f 2bf6 273f c52c 494c
00000260: 15d1 724e b6b1 d14d 2bf6 273f 2bf6 273f
00000270: 2bf6 273f 2547 044a 2bf6 273f 60d1 024e
00000280: 2bf6 273f 2bf6 273f ae36 f64e 2bf6 273f
00000290: 30f7 ed4e 2bf6 273f 3873 0b4f 6cfd d74d
000002a0: 5f34 494d 2bf6 273f 2bf6 273f 2431 374d
000002b0: 455b ef49 2bf6 273f c8a2 d14e bf84 194e
000002c0: d452 6e4d e066 1f4e a154 ce4a 331b 4b48
000002d0: 2bf6 273f 2bf6 273f 5c95 ac4d 2bf6 273f
000002e0: 7228 8a48 3c62 0a4f d834 e84e 1eae 184a
000002f0: e4ea 104b 295e 064e 1389 024f 2bf6 273f
00000300: dbac 7c48 2f8a 464e 2bf6 273f 2bf6 273f
00000310: 2bf6 273f 5e26 fd4e db4c 144d 967c e24e

bn2.weight f4 [20]
1.5571449 -0.7935454 1.5571599 1.5571694 1.5571829 1.5571476 1.55714 0.793545
0.7935453 1.5571827 -0.7935455 0.79354477 0.7935448 0.79354525 0.7935447 0.7935447
0.79354507 1.5571619 0.7935453 -0.7935451
00000000: 8650 c73f cb25 4bbf 0451 c73f 5451 c73f
00000010: c551 c73f 9d50 c73f 5d50 c73f c425 4b3f
00000020: c925 4b3f c351 c73f cc25 4bbf c025 4b3f
00000030: c125 4b3f c825 4b3f bf25 4b3f bf25 4b3f
00000040: c525 4b3f 1551 c73f c925 4b3f c625 4bbf

bn2.bias f4 [20]
0.8277088 0.79354554 0.82771116 0.82770914 0.82771075 0.82771206 0.827713 -0.79354537
-0.7935456 0.8277115 0.7935452 -0.79354537 -0.7935455 -0.7935455 -0.79354554 -0.7935454
-0.79354537 0.8277115 -0.79354537 0.7935456
00000000: b9e4 533f cd25 4b3f e1e4 533f bfe4 533f
00000010: dae4 533f f0e4 533f 00e5 533f ca25 4bbf
00000020: ce25 4bbf e7e4 533f c725 4b3f ca25 4bbf
00000030: cc25 4bbf cc25 4bbf cd25 4bbf cb25 4bbf
00000040: ca25 4bbf e7e4 533f ca25 4bbf ce25 4b3f

bn2.running_mean f4 [20]
1.1483803 1.1281371 1.2291248 1.2825314 1.3453048 1.1620419 1.1127615 1.7607689
1.2055447 1.3365374 1.1398432 1.5888412 0.9141574 0.869935 1.6154861 1.4679348
1.1135375 1.2463949 1.5200813 1.0847806
00000000: 20fe 923f cc66 903f f653 9d3f fd29 a43f
00000010: f332 ac3f cabd 943f f86e 8e3f e060 e13f
00000020: 4a4f 9a3f a813 ab3f 62e6 913f 265f cb3f
00000030: 3806 6a3f 0fb4 5e3f 40c8 ce3f 4ae5 bb3f
00000040: 6688 8e3f de89 9f3f 0692 c23f 17da 8a3f

bn2.running_var f4 [20]
23.431574 22.15677 21.320637 24.692677 26.19414 20.0017 16.201002 7.8617835
5.1623626 25.809193 22.38829 6.8275046 3.4199257 3.3133092 7.1229677 6.262317
4.1456823 21.95115 5.5777116 19.698538
00000000: dd73 bb41 1141 b141 aa90 aa41 9a8a c541
00000010: 998d d141 7b03 a041 a79b 8141 bb93 fb40
00000020: 1332 a540 3a79 ce41 381b b341 eb7a da40
00000030: 10e0 5a40 420d 5440 5aef e340 e764 c840
00000040: 6ea9 8440 f59b af41 9d7c b240 9b96 9d41

bn3.weight f4 [20]
1.5560492 0.868791 1.5560495 0.8687913 1.5560504 0.8687912 -0.8687913 0.8687909
1.5560476 0.86879146 1.5560496 0.868791 0.86879134 0.86879116 0.8687908 1.5560477
1.5560436 0.8687913 1.5560488 0.8687915
00000000: 9f2c c73f 1669 5e3f a12c c73f 1b69 5e3f
00000010: a92c c73f 1a69 5e3f 1b69 5ebf 1569 5e3f
00000020: 912c c73f 1e69 5e3f a22c c73f 1669 5e3f
00000030: 1c69 5e3f 1969 5e3f 1369 5e3f 922c c73f
00000040: 702c c73f 1b69 5e3f 9b2c c73f 1f69 5e3f

bn3.bias f4 [20]
0.8974885 -0.8687914 0.8974864 -0.86879116 0.89748734 -0.8687921 0.868792 -0.86879176
0.8974868 -0.8687916 0.8974878 -0.86879134 -0.8687921 -0.8687919 -0.8687915 0.8974876
0.89748603 -0.8687914 0.8974883 -0.8687916
00000000: cec1 653f 1d69 5ebf abc1 653f 1969 5ebf
00000010: bbc1 653f 2969 5ebf 2769 5e3f 2369 5ebf
00000020: b2c1 653f 2069 5ebf c3c1 653f 1c69 5ebf
00000030: 2969 5ebf 2569 5ebf 1f69 5ebf bfc1 653f
00000040: a5c1 653f 1d69 5ebf cbc1 653f 2069 5ebf

bn3.running_mean f4 [20]
0.172725 0.17798081 0.18254144 0.39905137 0.20848587 0.27501515 0.14144024 0.2555031
0.11863482 0.26980358 0.17004287 0.3058455 0.15732469 0.17984883 0.2929504 0.14906538
0.03870461 0.31501916 0.16010071 0.22620171
00000000: d3de 303e 9a40 363e 25ec 3a3e 7650 cc3e
00000010: 527d 553e c9ce 8c3e b6d5 103e 4dd1 823e
00000020: d0f6 f23d b223 8a3e b81f 2e3e c897 9c3e
00000030: b919 213e 4b2a 383e 98fd 953e 98a4 183e
00000040: ba88 1e3d 314a a13e 71f1 233e 6ca1 673e

bn3.running_var f4 [20]
0.9890242 0.77077246 1.1522412 0.96622807 1.17565 0.76655245 0.7561659 0.9274957
0.87118405 0.8819459 1.1014185 0.85908526 0.77956873 0.73716414 0.7742921 0.8874891
0.66762316 0.8027684 0.90736616 0.9095392
00000000: b130 7d3f 5851 453f a47c 933f b95a 773f
00000010: b37b 963f c83c 443f 1794 413f 5c70 6d3f
00000020: eb05 5f3f 35c7 613f 48fb 8c3f 03ed 5b3f
00000030: d191 473f cab6 3c3f 0238 463f 7c32 633f
00000040: 5ae9 2a3f 3b82 4d3f 2649 683f 90d7 683f
