Results/NN_MLP_MLs/MLP_Ensemble/Model_Results/AGT/test10_ensemblesize10/best_model_0.pt (torch, 70557 bytes, 20 tensors)

country_embedding.weight f4 [8, 2]
000000 37 54 78 c1 6e be 89 c1 a0 e4 81 c1 1f 2c 5b c1
       -15.52056 -17.217983 -16.236633 -13.698272
000010 d8 75 1c c0 d1 43 9f bf cb 2f b3 c0 df c3 4f c1
       -2.4446926 -1.2442571 -5.599584 -12.98532
000020 ad 3d 4a c1 1e 09 62 c1 89 4f 43 3f a0 6a 8c c0
       -12.640058 -14.127226 0.76293236 -4.3880157
000030 f8 48 3d c1 a9 5b 26 c1 70 62 a1 40 2f e5 af 40
       -11.830315 -10.397378 5.0432663 5.4967265

fc1.weight f4 [200, 52]
000000 fb 1c 43 b7 9e af 87 b7 bf a0 ff b7 21 8f 0c b8
       -1.1629653e-05 -1.6175032e-05 -3.0473222e-05 -3.35119e-05
000010 8b 8b f7 b7 a7 60 23 b7 54 6c 3e b8 2c 62 02 b8
       -2.9509674e-05 -9.738061e-06 -4.540042e-05 -3.1085845e-05
000020 83 aa 34 b8 63 fc 2f b8 a1 26 ec b7 ab b9 28 b8
       -4.3074146e-05 -4.1958305e-05 -2.815138e-05 -4.0227238e-05
000030 14 c5 47 b8 f2 8d 37 b8 9d 6e 14 b8 37 36 48 b7
       -4.762884e-05 -4.3762797e-05 -3.5388966e-05 -1.1933552e-05
000040 8e 04 1f b8 f3 4c b7 b7 f0 d0 00 b8 7d 0d 18 b8
       -3.7912796e-05 -2.1851132e-05 -3.0712166e-05 -3.6252186e-05
000050 24 4a 10 b8 c0 a5 23 b7 06 06 31 b8 48 9d 08 b8
       -3.4401324e-05 -9.754149e-06 -4.22057e-05 -3.2571406e-05
000060 7c 29 30 b8 91 63 3d b8 79 cf 05 b8 80 d6 28 b8
       -4.2000305e-05 -4.515384e-05 -3.1902895e-05 -4.025409e-05
000070 b5 90 49 b8 a3 c0 3d b8 a6 48 fd b7 23 62 5f b7
       -4.8056903e-05 -4.524052e-05 -3.019378e-05 -1.3314685e-05
000080 ca f0 1a b8 69 7a a1 b7 17 93 c1 b7 1c 4a d9 b7
       -3.6940713e-05 -1.9249697e-05 -2.3075887e-05 -2.5902926e-05
000090 8c 98 f3 b7 a9 a5 6d b7 aa 1b 2c b8 80 1c 1f b8
       -2.9038893e-05 -1.4164872e-05 -4.103376e-05 -3.7935097e-05
0000a0 41 8f 2a b8 17 96 20 b8 d2 fd 16 b8 ba 0e 20 b8
       -4.0664574e-05 -3.8286755e-05 -3.5999175e-05 -3.8160688e-05
0000b0 f2 cb 2f b8 8c e5 25 b8 60 76 18 b8 1f cc 77 b7
       -4.191319e-05 -3.9552848e-05 -3.634987e-05 -1.4769873e-05
0000c0 12 06 04 b8 4a 65 b8 b7 1c 2f d3 37 6f 22 44 b7
       -3.1476906e-05 -2.1981676e-05 2.5175097e-05 -1.1690528e-05
0000d0 2b 4f a3 b7 35 83 94 b7 89 e1 df b7 35 48 ce b7
       -1.946798e-05 -1.7704073e-05 -2.6688695e-05 -2.4590738e-05
0000e0 0c 36 ad b7 4d 67 e2 37 39 6e 98 b7 b8 e6 97 b7
       -2.0648375e-05 2.6989403e-05 -1.8171138e-05 -1.810804e-05
0000f0 61 a8 b5 b7 d0 30 e4 b7 76 51 ba b7 f0 90 d9 b7
       -2.1655289e-05 -2.7202448e-05 -2.2210861e-05 -2.5935908e-05
000100 eb e7 e6 b7 81 a2 97 b7 ec 36 9d b7 02 e3 92 37
       -2.7526132e-05 -1.8076275e-05 -1.8741433e-05 1.7510265e-05
000110 8e 2c b6 b7 c2 a8 c5 b7 75 7d c5 b7 03 42 d2 b7
       -2.1716838e-05 -2.3562814e-05 -2.354265e-05 -2.506469e-05
000120 27 94 ad b7 59 88 a4 37 78 5c ae b7 7e 4d a8 b7
       -2.0692196e-05 1.9613815e-05 -2.0785475e-05 -2.0063246e-05
000130 cd 26 9f b7 a8 0a ae b7 33 6c e9 b7 96 92 da b7
       -1.8972345e-05 -2.0747379e-05 -2.7826149e-05 -2.6055885e-05
000140 ec 94 a8 b7 c1 35 b5 b7 d2 4a e0 b7 e9 3f a5 37
       -2.0096508e-05 -2.1601913e-05 -2.6737722e-05 1.9699293e-05
000150 05 5c 95 b7 b7 fb a0 b7 a1 4f d1 b7 c2 48 c9 b7
       -1.7805034e-05 -1.91907e-05 -2.4951822e-05 -2.3994948e-05
000160 3b ce e7 b7 b4 8a bd 37 eb 1d df b7 cd e9 df b7
       -2.763338e-05 2.2595144e-05 -2.6597603e-05 -2.6692544e-05
000170 1f b9 c0 b7 3d c9 b7 b7 3e 28 d0 b7 57 7c a4 b7
       -2.2974387e-05 -2.1909009e-05 -2.4814271e-05 -1.9608224e-05
000180 9f d2 d8 b7 f1 cf 96 b7 8f 7b a0 b7 85 9a 99 37
       -2.5847285e-05 -1.7978224e-05 -1.9131023e-05 1.8310975e-05
000190 8f 29 c9 b7 01 5c bc b7 96 f8 b7 b7 5d fe b3 b7
       -2.398042e-05 -2.245419e-05 -2.1931057e-05 -2.145691e-05
0001a0 30 88 82 3d 97 51 81 bb c5 83 cd 40 47 36 3c c1
       0.06373632 -0.003946494 6.422335 -11.763251
0001b0 9f ae 4f c0 b6 0e ba c0 ff 79 27 c1 e8 e5 43 3a
       -3.245033 -5.814296 -10.467284 0.00074729184
0001c0 69 fa e6 c0 5a 47 c7 40 25 f7 cd c0 b4 3f b7 3e
       -7.2180676 6.22746 -6.436419 0.3579079
0001d0 00 08 52 ba 96 80 b2 3f 11 f8 21 c0 07 d8 d1 c0
       -0.00080120564 1.3945491 -2.5307658 -6.5576205
0001e0 b7 7f cd bf ec 50 82 bb a2 e7 97 40 0b 9d 28 c1
       -1.60546 -0.003976932 4.7470255 -10.538341
0001f0 a9 76 b9 c0 2f 4b 48 c0 7f 72 d0 c0 25 3e 10 3a
       -5.795735 -3.1295888 -6.5139766 0.00055024243
000200 7d 8c cf c0 79 6b 85 40 43 94 3b c0 62 83 7e 3e
       -6.4858994 4.169369 -2.9309242 0.24854806
000210 b0 83 ae ba 8c 8a df bd e3 13 07 c0 2b e7 8e c0
       -0.0013314392 -0.109150976 -2.1105888 -4.4657187
000220 80 10 f6 bf 8b 0a 82 bb 5b 39 20 40 36 8f 10 c1
       -1.9223785 -0.003968542 2.5035007 -9.034964
000230 8b 31 b8 c0 00 c6 0b c0 2b 24 54 c0 81 aa 43 ba
       -5.7560477 -2.18396 -3.3147075 -0.0007464067
000240 91 f9 80 c0 e6 c6 5c 40 d3 e6 64 c0 53 3e 8a 3e
       -4.0304646 3.4496398 -3.5765884 0.27000675
000250 2b 83 d7 ba 07 4e 3f bf 73 5d 9f bf 09 d2 b0 c0
       -0.0016442289 -0.74728435 -1.2450393 -5.525639
000260 84 74 d4 bf 1a 76 bd c0 ab 91 ed bf f4 85 93 bd
       -1.6598058 -5.9206667 -1.8560079 -0.07203284
000270 d1 df d4 b7 ed 8d be b7 15 74 09 b8 40 e0 c3 b7
       -2.5376592e-05 -2.2715854e-05 -3.2771455e-05 -2.3350236e-05
000280 8e 43 8b b7 11 95 a7 35 ca 86 09 b7 97 23 04 b8
       -1.6601549e-05 1.2485854e-06 -8.197219e-06 -3.1504398e-05
000290 69 58 35 b6 e7 33 4c b7 ed af 56 b7 25 ef 3d b7
       -2.7022563e-06 -1.2171432e-05 -1.2796355e-05 -1.1320958e-05
0002a0 ec c7 23 b7 c9 55 48 b7 51 6a 02 b8 b9 3f cb b7
       -9.762105e-06 -1.1940902e-05 -3.109343e-05 -2.4229159e-05
0002b0 46 4e 05 b8 22 31 b3 b7 82 6d c8 b7 02 87 c1 b7
       -3.178257e-05 -2.1361342e-05 -2.3892851e-05 -2.307026e-05
0002c0 b1 d4 a4 b7 d1 3e 26 37 d0 bc 85 b7 5f 0f fd b7
       -1.9649366e-05 9.908997e-06 -1.5942758e-05 -3.0167108e-05
0002d0 6c e7 a6 b6 ff 30 15 b7 85 31 92 b7 50 8b 40 b7
       -4.9741266e-06 -8.8925e-06 -1.7427616e-05 -1.1476528e-05
0002e0 98 72 1c b7 bc 85 29 b7 96 1b 0d b8 0c 86 d9 b7
       -9.3250055e-06 -1.0104322e-05 -3.364271e-05 -2.5930836e-05
0002f0 4f ef fe b7 8e ba a6 b7 70 5a 05 b8 8c f7 be b7
       -3.0390596e-05 -1.9875613e-05 -3.1793898e-05 -2.2765038e-05
000300 8e 02 78 b7 3f 76 a9 b6 ae b6 6a b7 07 ef ef b7
       -1.4782547e-05 -5.050358e-06 -1.399002e-05 -2.8602326e-05
000310 a6 5e 03 b7 b7 e2 81 b7 ce f8 89 b7 5f a7 30 b7
       -7.8302455e-06 -1.548357e-05 -1.6447531e-05 -1.0529387e-05
000320 ba b2 68 b7 a0 8c ec b7 ec a3 d8 b7 2b 67 b7 b7
       -1.3869891e-05 -2.8198876e-05 -2.5825539e-05 -2.1863341e-05
000330 b2 9e eb b7 52 56 ce b7 b6 66 d7 b7 b1 9c b5 b7
       -2.8088081e-05 -2.459731e-05 -2.5677826e-05 -2.1649847e-05
000340 43 f2 96 b6 f4 91 2c 36 4f 21 78 b6 18 c6 c5 b5
       -4.4985513e-06 2.5714953e-06 -3.6974268e-06 -1.4735297e-06
000350 e1 c2 e9 b5 ca 59 4e b5 c2 de 73 33 52 aa 8f 36
       -1.741657e-06 -7.687164e-07 5.6780443e-08 4.28156e-06
000360 ae f4 2d 35 21 03 9c 36 cb 18 55 36 dc 3c 5c b6
       6.480358e-07 4.6495265e-06 3.1753905e-06 -3.281798e-06
000370 d9 3d 1c 36 40 41 76 b6 ef a4 13 b6 fe eb cc 35
       2.3281812e-06 -3.6694837e-06 -2.200071e-06 1.5267867e-06
000380 6b 0d e6 35 cf ac 82 36 30 49 e0 b5 cd c3 0e 32
       1.714024e-06 3.8944195e-06 -1.6710601e-06 8.310008e-09
000390 0d 58 33 36 dd 72 a8 b6 97 db 7b 36 b1 08 90 b6
       2.672433e-06 -5.020162e-06 3.7529733e-06 -4.2925462e-06
0003a0 f6 a3 99 33 a9 e8 6c b5 e4 78 37 b6 4b 2c 38 35
       7.154442e-08 -8.8255416e-07 -2.7339493e-06 6.8609796e-07
0003b0 84 08 90 36 29 aa cb b5 15 d2 4e b6 50 d6 00 b6
       4.292526e-06 -1.5174202e-06 -3.0818676e-06 -1.9198233e-06
0003c0 5f a3 ac b6 60 3f 1d 36 15 4e 27 b6 c8 79 68 b6
       -5.1450183e-06 2.3431712e-06 -2.493039e-06 -3.464158e-06
0003d0 dc b0 48 b6 d1 4a 48 36 a4 7b 38 36 f5 af 85 36
       -2.9905268e-06 2.9845871e-06 2.7490105e-06 3.984193e-06
0003e0 ab b7 fc 35 5c ad e8 b5 74 b2 c2 b5 2a d5 cd 35
       1.8828918e-06 -1.7335801e-06 -1.4506063e-06 1.5335729e-06
0003f0 8d 2e 8f 36 d8 6e bd 35 51 d3 24 b6 a1 c1 23 b6
       4.2671513e-06 1.4113857e-06 -2.4560907e-06 -2.44016e-06

fc1.bias f4 [200]
000000 46 08 6f b7 52 8e b3 b7 6c 86 93 bd ba 12 b7 b7
       -1.4247436e-05 -2.1404736e-05 -0.07203373 -2.182402e-05
000010 37 9b f9 b5 ea 0f b7 b7 d7 01 e6 37 d4 e2 bc 3d
       -1.8597119e-06 -2.182271e-05 2.7418993e-05 0.092229515
000020 ee 04 b2 b7 aa ec d9 b7 a0 93 f3 b5 9b 19 05 b8
       -2.122155e-05 -2.5978621e-05 -1.8147875e-06 -3.1733518e-05
000030 2a 6d 86 b5 8e bb a6 b7 3a 5e a4 b7 e0 3c a5 b6
       -1.0015549e-06 -1.9876079e-05 -1.9594201e-05 -4.92447e-06
000040 22 8a 28 3d c9 59 03 be a9 26 8a b6 b4 21 74 b5
       0.04114736 -0.12827219 -4.117221e-06 -9.094613e-07
000050 42 01 d9 bd 87 78 ca b7 df f2 24 b6 c0 7b d5 37
       -0.10595943 -2.4136401e-05 -2.4579274e-06 2.5449204e-05
000060 b7 a3 88 3e c3 ce ad 36 d9 3d 9c 36 fa 6b e8 b7
       0.26687405 5.179872e-06 4.6563623e-06 -2.7706836e-05
000070 42 91 7c 3b e3 74 22 b8 f2 5b 94 3e 3a 33 df b7
       0.003853873 -3.873267e-05 0.289764 -2.6607526e-05
000080 19 90 b5 b5 ef 3e 89 3d 2f 51 84 b7 35 2d 0b b8
       -1.3527489e-06 0.06701457 -1.577343e-05 -3.3182285e-05
000090 47 e2 65 36 ed 5f a6 36 30 00 86 b7 97 d5 ff bb
       3.425537e-06 4.9583527e-06 -1.5974132e-05 -0.0078074443
0000a0 3e 66 a0 bb fe 12 58 36 4d bb a4 3d de ed 40 bc
       -0.0048950007 3.2197563e-06 0.08043537 -0.011775462
0000b0 34 b1 6c b6 9d ca a8 bb 72 44 f8 b5 7f e7 b2 b7
       -3.5269886e-06 -0.0051511065 -1.849736e-06 -2.1327052e-05
0000c0 46 cc c3 b7 89 a9 12 ba 18 2e a7 b6 f8 a7 67 36
       -2.3340934e-05 -0.0005594721 -4.982354e-06 3.4519453e-06
0000d0 ab f3 a1 b6 c5 cf 28 36 b9 5e 17 3e d1 77 9e b7
       -4.8265406e-06 2.5154889e-06 0.14782228 -1.8890862e-05
0000e0 57 d9 aa b7 38 ab 88 bb f6 30 0f bd 08 f3 40 b5
       -2.0366786e-05 -0.0041708015 -0.034958802 -7.187923e-07
0000f0 f2 47 95 37 b9 5e a4 35 b9 e1 d7 b7 9f 0f 41 3d
       1.7795686e-05 1.224652e-06 -2.5735108e-05 0.047134038
000100 0b 8e 23 b6 de 88 21 3d 4c 1a 87 b6 b7 ea 1d b8
       -2.4371573e-06 0.039437167 -4.026375e-06 -3.7650312e-05
000110 90 f4 c7 b7 f5 c2 a9 b7 63 79 a0 b7 eb bb 56 b6
       -2.3836532e-05 -2.0237154e-05 -1.9130011e-05 -3.1997868e-06
000120 23 ad a4 36 77 60 3b b5 37 bb 09 3b 84 25 43 35
       4.9077366e-06 -6.9803303e-07 0.002101613 7.2697753e-07
000130 f0 97 5c 36 ed 43 0a b6 ea 5d af 3e fc 23 06 b3
       3.2870994e-06 -2.060314e-06 0.34251338 -3.1232034e-08
000140 b8 0f e1 b7 5a eb 86 36 13 a4 3d b6 13 d6 66 b6
       -2.682941e-05 4.0209097e-06 -2.8258698e-06 -3.4397278e-06
000150 36 80 71 3d 23 cd 9f b6 53 23 a0 37 f0 a5 8d 36
       0.058960162 -4.7624503e-06 1.9089935e-05 4.221445e-06
000160 19 f1 5d b5 f4 12 53 3d a1 2a 8d b6 a4 7a c0 b7
       -8.267976e-07 0.051531747 -4.20709e-06 -2.2945293e-05
000170 68 7b c3 3d d4 11 a0 b7 1c 3c 8b 36 6b 6f 57 b6
       0.09545022 -1.9081788e-05 4.1495205e-06 -3.210235e-06
000180 d1 d4 c9 b7 71 31 c0 3d 7a a1 b4 b7 be 42 7f 36
       -2.4060168e-05 0.0938443 -2.1532866e-05 3.803681e-06
000190 d1 37 ee b5 2f f1 38 34 b0 77 d8 b4 70 10 97 b6
       -1.7748627e-06 1.7224077e-07 -4.032022e-07 -4.5020643e-06
0001a0 d6 c6 a9 36 65 eb b4 b7 55 65 a3 36 c1 e2 b6 b7
       5.05974e-06 -2.1567286e-05 4.869575e-06 -2.1801681e-05
0001b0 bb 9a dc b7 3d 75 2b 3d f1 45 e5 35 fe 76 b0 b5
       -2.6298096e-05 0.041859854 1.7082185e-06 -1.3147653e-06
0001c0 32 60 d7 b7 dd a6 9a b7 52 65 c5 3d b9 36 ad 36
       -2.5674792e-05 -1.8435932e-05 0.09638466 5.1621723e-06
0001d0 4a b7 b5 b7 50 29 65 36 0e 29 66 b6 36 8f c1 37
       -2.1662232e-05 3.4147706e-06 -3.4296568e-06 2.307408e-05
0001e0 4e 75 da b5 38 21 f9 b4 ca ca 91 bc ed c0 c8 37
       -1.6276406e-06 -4.6404034e-07 -0.017796893 2.3931696e-05
0001f0 87 7b 88 3d d1 76 62 b5 72 d4 20 b6 4b 7a c9 b7
       0.06664186 -8.436446e-07 -2.3965517e-06 -2.4018014e-05
000200 5a 50 60 b6 35 69 88 b7 3a 61 73 b6 64 63 b9 bd
       -3.3425372e-06 -1.6261454e-05 -3.6266415e-06 -0.090521604
000210 d8 07 07 b8 01 97 e4 3d 02 6a 20 b9 cc de dc 37
       -3.2193813e-05 0.11161614 -0.0001529828 2.6329792e-05
000220 a8 d8 7a b6 70 d0 d9 b8 d0 e0 8d b7 64 43 09 bd
       -3.7379014e-06 -0.00010386191 -1.6913196e-05 -0.033511534
000230 35 fb df 37 51 01 88 b6 a5 4f 63 3b 25 83 68 36
       2.6700649e-05 -4.053269e-06 0.0034684923 3.464703e-06
000240 3d f0 8a 36 65 8d f8 b7 95 0d 84 34 a1 23 53 3d
       4.140688e-06 -2.9629746e-05 2.4596798e-07 0.05154765
000250 aa 3c 81 b6 f8 eb 6d 36 75 a4 ec 3c ba 51 a6 b7
       -3.851562e-06 3.5453104e-06 0.028887013 -1.9826799e-05
000260 64 c5 d5 b7 83 7f 1a b6 3b f4 91 ba 46 0c 32 35
       -2.5483496e-05 -2.302201e-06 -0.0011135408 6.632803e-07
000270 ae a6 47 36 de 9b 14 36 41 6d 8b 36 f8 45 97 37
       2.975033e-06 2.2144445e-06 4.1552416e-06 1.8033184e-05
000280 0f 95 b8 3d b0 f5 9d b7 13 96 86 3e df ac 59 b6
       0.09012806 -1.8830266e-05 0.26286373 -3.2436144e-06
000290 8d 42 cc 3d 0c c2 e2 b7 1d 04 7d b6 b3 01 18 bd
       0.09973631 -2.703166e-05 -3.7702332e-06 -0.037110996
0002a0 9a 40 b3 b7 91 82 bf 3d 33 62 cc 3e a9 50 55 36
       -2.1368545e-05 0.093510754 0.3991867 3.1786424e-06
0002b0 47 df 7c 3d cc 90 af b7 eb 10 00 b8 5f 9e 02 3e
       0.06173637 -2.0929052e-05 -3.0533334e-05 0.12755726
0002c0 dd 28 8f b6 9c f0 0e b6 6c c3 9a b6 13 07 69 3d
       -4.266489e-06 -2.1299702e-06 -4.6123077e-06 0.056891512
0002d0 aa 25 3d b5 68 61 09 b6 cd 59 97 36 57 42 70 b8
       -7.0462795e-07 -2.0471289e-06 4.510605e-06 -5.7282243e-05
0002e0 c9 90 8b b7 c0 64 06 3e e8 1b cd b5 11 01 93 b6
       -1.6637512e-05 0.1312437 -1.5281812e-06 -4.3810655e-06
0002f0 60 a3 78 3d c2 03 bc 3d 9c 33 63 b6 fd 46 cf 3d
       0.06070268 0.09180404 -3.3855677e-06 0.10120962
000300 d0 dd b1 3d 0f 6d 83 b7 44 9d 8e 36 db 75 95 36
       0.086848855 -1.5667201e-05 4.250238e-06 4.454266e-06
000310 fc 9f e6 3b 65 59 95 b4 5d 69 ad 3e 0b 4a 33 ba
       0.0070381146 -2.7818456e-07 0.33869448 -0.00068393414

fc2.weight f4 [20, 200]
000000 ee a0 02 bb 56 b1 22 3d 4a dd b6 3b 55 95 34 3c
       -0.0019932347 0.039719902 0.005580579 0.011021932
000010 2b ee 65 bc 62 7f 0c bd d3 fa 02 39 fb 16 c0 3a
       -0.014033834 -0.03430117 0.00012491205 0.0014655286
000020 f7 74 8a 3d d0 c2 5d 3d fe 8e 2d bc 7d 91 14 3d
       0.067605905 0.054140866 -0.010593174 0.03627156
000030 59 b9 86 bc c0 8e 1a 3d b2 04 22 3d 76 59 5c 3c
       -0.016445803 0.037733793 0.03955526 0.0134490635
000040 33 5e 7b 37 df 9d 84 bc bd 21 36 bc 2d c4 10 bd
       1.4982698e-05 -0.01618856 -0.011116442 -0.035343338
000050 21 04 26 bd 0d ee 73 3d 12 4a ba 3b 18 ae 4d 3d
       -0.04053128 0.059553195 0.0056850994 0.050214857
000060 91 9b a0 bc 99 0f 90 3c be 47 68 bc 72 4e 12 bd
       -0.01960543 0.017585563 -0.014177261 -0.035719343
000070 10 be 8c b9 4f 9e ff 3c 21 0c 80 bc f3 88 ce 3b
       -0.00026844488 0.031203417 -0.015630784 0.0063029467
000080 78 6a 22 bc 32 a7 83 39 10 bc 6f 3d 6d d3 57 3d
       -0.009913079 0.00025110837 0.05852896 0.052691866
000090 8f 98 7f bd 5f bb c4 3b b7 1b 88 3d 40 74 ed bb
       -0.06240135 0.0060037817 0.06645911 -0.007246524
0000a0 20 7c c0 ba 5b 99 93 bc 5e a5 08 3b 9d 83 14 bd
       -0.001468543 -0.018017462 0.002085052 -0.03625833
0000b0 b8 19 bf 3d b6 ee 96 ba 03 39 12 3c 70 12 43 3d
       0.09331077 -0.0011515233 0.008924725 0.047625005
0000c0 81 47 4d 3d 20 1d 3b ba 9d da 08 bd 45 31 16 bb
       0.05011702 -0.0007137824 -0.03341161 -0.002291755
0000d0 64 ef ac bc f9 a3 2d 3a 26 a2 4f ba 9a 60 2e bc
       -0.021110244 0.000662386 -0.00079205853 -0.010643149
0000e0 12 43 ff 3c 14 0a 56 ba 4c af 98 b9 5b 05 59 3d
       0.031159911 -0.0008164954 -0.00029122306 0.052983623
0000f0 ab 7e 1f 3d b1 95 00 bd 04 fd be 3d 72 8c 91 39
       0.03893916 -0.031392757 0.09325603 0.00027761195
000100 7f e5 e8 bb 92 c0 5c ba 3a 5f 3c bc 5f e7 a7 3b
       -0.007107436 -0.0008421029 -0.011497313 0.005124017
000110 64 b2 7c 3c d1 d0 25 3d 1e d0 50 3d 08 e3 a2 bb
       0.015423391 0.040482346 0.050979726 -0.004970912
000120 35 86 aa bd 53 1d ea 3c 96 d0 15 bd 17 8a 24 bc
       -0.08326379 0.028578436 -0.036575876 -0.010042689
000130 78 27 7d 3c 33 a4 73 bc 3c 41 5d bc 0b 66 c4 bc
       0.015451305 -0.014870691 -0.013504323 -0.02397444
000140 1b 47 4b 3d 52 ef 90 3d ed ee 37 3c 65 13 f9 bc
       0.04962836 0.07076897 0.011226398 -0.030404756
000150 ec 7f 56 3a 48 37 38 bb d6 7b 6e 3d dc 70 38 bd
       0.0008182514 -0.0028109122 0.058223568 -0.045029506
000160 36 f5 30 bc 2b 09 5b 3a 02 87 a0 3c a4 b1 a2 bc
       -0.01080065 0.0008355553 0.019595627 -0.019860096
000170 1f 6a 14 3b 7e 82 1a 3d c7 48 c8 3d 61 09 fd bc
       0.002264626 0.037722103 0.09779506 -0.030888261
000180 25 69 1c 3c 10 83 01 39 58 64 3c 3d 52 31 e6 b9
       0.009546553 0.00012351223 0.045994133 -0.00043905765
000190 52 dd 8b bb 6e 28 82 3b 63 ba bb 3c 0b 7f 11 bd
       -0.004268327 0.0039721048 0.022916025 -0.03552155
0001a0 aa 3b 3c 3c ed 1f 1d 3d 8b b6 0b 3c 8c 75 53 3d
       0.011488834 0.038360525 0.008527408 0.051625773
0001b0 d2 d9 54 3d 09 26 d3 bb e2 0c 41 bd 5a 83 c1 3c
       0.051965542 -0.006443743 -0.047131427 0.023622204
0001c0 e5 98 00 3d b3 0a 47 3d b6 32 82 3c ab 40 d3 3c
       0.03139581 0.048594188 0.015893321 0.025787672
0001d0 08 0b 28 3d c7 1a 15 bd 45 b0 20 3d b9 f6 30 3d
       0.041026145 -0.03640249 0.039230604 0.043204043
0001e0 ec b9 42 bd 3c 6e 50 bb 5e ed 9a ba 21 39 48 3d
       -0.04754059 -0.0031803986 -0.0011820009 0.048882607
0001f0 ef a7 bb bb bc 86 27 3c d8 4e c5 bc 8f 09 29 bd
       -0.0057268064 0.010224994 -0.024085447 -0.04126888
000200 88 fc 0f 3c 25 42 cf bc 33 a4 14 3c 7f 4b 34 bc
       0.0087882355 -0.025300095 0.009072351 -0.011004328
000210 ff 59 6a 3d 78 ea ad bc 94 ea a1 ba 6b a3 20 3d
       0.057214733 -0.021229967 -0.0012353235 0.039218348
000220 7f 24 08 3d d2 ae 52 3d 4c 51 db bc 13 76 04 3d
       0.03323793 0.051436253 -0.026772164 0.032339167
000230 90 29 1d 3d 94 af aa 3d de 07 2b bc e5 0d 9f 3c
       0.038369715 0.0833427 -0.010438887 0.019415805
000240 c8 d9 b6 39 d6 ae 5c 3d 1f 20 9d bc 1f 91 43 bc
       0.00034876005 0.053877674 -0.019180356 -0.011936455
000250 94 73 13 3c de 06 9e 3a f9 cf e8 38 0e b3 53 bb
       0.008999724 0.001205649 0.0001110136 -0.003230277
000260 f6 aa af bc 9b 2a ae bc 8b f2 d0 ba 51 50 d3 bc
       -0.021443825 -0.02126055 -0.0015941424 -0.025795134
000270 fe 7a 1c 3c 47 d4 2a 3c 62 27 98 3b 5f c3 8c 3d
       0.009550808 0.010426587 0.0046433667 0.068732016
000280 52 66 cc bb 62 ef 5b 3d e7 53 23 3d e0 c5 36 bc
       -0.0062377835 0.05369509 0.039874937 -0.0111555755
000290 63 90 0d 3b 0b b0 29 3d 97 76 29 bc 2f a6 8a 3b
       0.0021600954 0.041427653 -0.010343215 0.0042312364
0002a0 11 45 1f 3d 02 81 2b 3a 0e 2d 11 be 2c 69 39 bd
       0.038884226 0.0006542356 -0.14177343 -0.045266315
0002b0 c6 f8 ff 39 5d a6 13 bd 6d 40 65 3d 54 4b be 3a
       0.0004882274 -0.03604733 0.055969644 0.0014518299
0002c0 0e 4f 1f bd 53 6f 6f 3c 19 6d 2c 3d 88 d3 ab b8
       -0.03889375 0.014613944 0.04209623 -8.193316e-05
0002d0 96 03 80 3c 61 b3 9c bc fa a0 5e bc 60 7c c0 3c
       0.01562671 -0.019128503 -0.0135881845 0.023496807
0002e0 30 13 46 3d c8 32 ba bb ab d0 71 3d 19 bf 0f 3d
       0.048358142 -0.005682323 0.059036892 0.035094354
0002f0 02 41 77 ba 99 e1 73 bb c6 05 9a 3c bc d6 ac 3c
       -0.0009431989 -0.0037213324 0.018801581 0.021098487
000300 88 c9 a9 3c 27 a7 8f bd f8 01 6d 3c 8a c1 16 3d
       0.02072598 -0.07014304 0.014465801 0.036805667
000310 d0 f3 da bb aa e0 d8 bb 45 2a d8 bb 54 be 05 bc
       -0.0066818967 -0.006618579 -0.006596836 -0.008163054
000320 72 a2 05 3e d4 d7 6e 3d fa 5c 87 3b 0e 60 f8 3d
       0.13050249 0.0583113 0.0041309567 0.12127696
000330 47 56 0c 3e ac 68 10 3e a4 99 3b bc 81 ab 29 bc
       0.13704787 0.14102429 -0.011450205 -0.010355831
000340 b3 57 67 3d 33 ed 3c be 59 80 0e 3e f2 c6 29 be
       0.05648012 -0.1844986 0.13916148 -0.16579798
000350 fc 28 e1 3d 21 1c 6f 3d 90 bd 6e 3d af af 1d be
       0.10994145 0.058376435 0.05828625 -0.15399049
000360 7f 3f 6f bc bd 0e ed bd 48 83 02 be 3e 81 2d 3e
       -0.014602541 -0.11575077 -0.12745392 0.16943833
000370 ea 46 97 3d 29 f1 6c 3d 5d 12 0a 3e 9d 55 6e 3d
       0.07386573 0.057847176 0.13483568 0.058187116
000380 39 a8 8e bd 5c 30 37 be 2d 01 2f 3e b1 f8 37 3c
       -0.0696568 -0.17889541 0.17090292 0.011228726
000390 48 c1 f8 bb 2a 25 42 3c c3 4e 94 be f1 b3 0b be
       -0.0075914003 0.011849681 -0.2896634 -0.13642861
0003a0 33 5b 1e 3e dc da ba bc c2 54 6d 3d 86 08 5d 3d
       0.15464477 -0.022809438 0.05794216 0.053963207
0003b0 e8 8b 57 3d 49 b7 c1 3c d8 56 6a 3d 3a 6a b0 bd
       0.05262366 0.023646967 0.057211727 -0.08614011
0003c0 9c e1 16 3b 1e 4b 9a bd 9a 79 6a 3c 3e 58 05 be
       0.0023022657 -0.07533859 0.014311219 -0.13021943
0003d0 02 12 41 be 70 2c df bb d8 77 13 be a8 93 6e 3d
       -0.18854526 -0.0068107173 -0.14401186 0.058246285
0003e0 86 c6 6d 3d 08 80 d9 3b 42 cd 27 3e 84 11 c3 bd
       0.058050655 0.006637577 0.16386893 -0.09524825
0003f0 e8 81 05 3e a2 fa d1 3d 93 95 b3 3d 9c 29 15 3e
       0.13037837 0.102528825 0.087687634 0.14566654

fc2.bias f4 [20]
000000 a6 42 35 bd 29 bf 86 bd d0 31 17 b9 2b 23 a3 bf
       -0.044253014 -0.0657943 -0.00014419039 -1.2745107
000010 88 bb 96 3f 4c d0 08 3f 84 ef a3 3f 16 17 66 3f
       1.177598 0.53442836 1.2807469 0.89878976
000020 2b be e3 bd dc 19 a4 3f 46 8e 0d be 4a b5 10 bf
       -0.11120256 1.2820392 -0.13823804 -0.56526625
000030 ef d7 1a b8 59 38 a3 37 e5 ee 99 3f d9 f5 a4 3f
       -3.6917565e-05 1.9457353e-05 1.202603 1.2887527
000040 53 a7 c6 3f f3 bb c4 3f 82 05 9d 3f e4 fd ba b8
       1.5519813 1.5369858 1.2267306 -8.916462e-05

fc3.weight f4 [20, 20]
000000 9b e0 80 b8 3c 18 15 b5 8b 47 db 34 84 42 ad 37
       -6.145352e-05 -5.554209e-07 4.0843983e-07 2.065418e-05
000010 3b f5 da b7 a8 48 65 b8 61 18 cf b7 60 ed 92 b8
       -2.610182e-05 -5.466552e-05 -2.4687675e-05 -7.006037e-05
000020 80 41 a1 b7 c1 81 dc b7 cb bb 1b b8 8a 9c ce 37
       -1.9223196e-05 -2.6286465e-05 -3.7129776e-05 2.4630008e-05
000030 b6 b5 9e b6 e0 cb 80 b6 97 65 f5 b7 b1 72 0d b8
       -4.729921e-06 -3.8384314e-06 -2.9253582e-05 -3.3723834e-05
000040 bf 02 36 b8 ac 51 e8 b7 f3 fd a6 b7 6b c7 d5 36
       -4.339474e-05 -2.7694587e-05 -1.9906996e-05 6.37111e-06
000050 ab 82 a9 bf d2 50 6f bd c3 0d ad bf d0 a6 94 c0
       -1.3243002 -0.058426686 -1.3519825 -4.645363
000060 25 6e b6 3f 45 01 25 c1 29 f0 f0 3f 52 97 4b 40
       1.4252363 -10.31281 1.8823291 3.1811109
000070 33 bb b2 3f 64 2f e7 3f 7a a7 1c bf a0 c0 3f c0
       1.3963379 1.8061337 -0.6119305 -2.996132
000080 89 3f ac 3f 6a 65 d6 bf 9b 51 fe 3f f1 ba ea 3f
       1.3456889 -1.6749699 1.9868654 1.83383
000090 88 e7 fd 3f 6a af f8 3f f1 94 be 3f 7f 0e ab bf
       1.9836283 1.9428532 1.4889203 -1.3363799
0000a0 ee 35 cd b8 7c 42 b0 b6 58 c1 3e 37 49 04 c0 38
       -9.785207e-05 -5.2529485e-06 1.1369899e-05 9.1560716e-05
0000b0 72 9d e4 b7 32 7c d4 b5 d5 3a 80 b8 6c ba 76 b8
       -2.7253034e-05 -1.5831376e-06 -6.114474e-05 -5.882459e-05
0000c0 0b 7f 1f b8 f0 f5 99 b8 0d d5 8e 37 57 df 86 38
       -3.8026872e-05 -7.341418e-05 1.7026929e-05 6.431218e-05
0000d0 fb ca 83 b6 37 dc 4c b7 98 23 ff b7 d7 db 97 b8
       -3.9277343e-06 -1.221062e-05 -3.0414943e-05 -7.2411895e-05
0000e0 8d b0 6e b7 04 58 c5 b6 46 54 8e b8 d0 ec 65 b6
       -1.4227012e-05 -5.881304e-06 -6.786785e-05 -3.4261502e-06
0000f0 2a f1 26 bf 7a 0c 3e 3e b2 97 1c bf 83 f0 c5 bf
       -0.6521174 0.18559447 -0.6116897 -1.5464023
000100 a3 6c b7 3e 85 d3 a8 bf 89 58 84 3f bf 81 ae 3f
       0.3582507 -1.3189551 1.0339519 1.3633345
000110 f3 ab 3f 3f 43 e8 76 3f a5 fe 0c c0 ce ed 7c bf
       0.7487175 0.96448153 -2.2030423 -0.9880036
000120 8f 91 25 3f bb e7 b1 bf df d7 60 3f c2 53 82 3f
       0.6467523 -1.3898844 0.87829393 1.0181811
000130 18 b9 39 3f d1 28 42 3f b4 00 ca 3e 61 e9 1e bf
       0.72548056 0.7584353 0.3945366 -0.6207486
000140 42 6e ce bf b5 f1 ae bd 86 58 d2 bf 06 4b aa c0
       -1.6127398 -0.08542196 -1.6433265 -5.321658
000150 87 8b c5 3f a8 cc bb c0 8f df 0b 40 45 df 88 40
       1.5433205 -5.8687325 2.18552 4.2772546
000160 be 19 db 3f a5 a3 05 40 23 2c 87 c0 f9 68 4c c0
       1.7117231 2.088113 -4.224138 -3.193907
000170 b9 62 d3 3f 49 eb 01 c0 f3 03 12 40 36 0b 08 40
       1.6514503 -2.0299857 2.281491 2.1256843
000180 06 00 09 40 2c 6b 07 40 10 2e ce 3f 11 c4 d0 bf
       2.1406264 2.1159163 1.6107807 -1.6309835
000190 33 33 dd b7 72 f3 58 37 cb 71 5d b7 19 f0 c2 37
       -2.6369094e-05 1.2931285e-05 -1.3199121e-05 2.3238406e-05
0001a0 b9 08 58 b7 fd bb 96 b8 79 59 1f b8 98 7e 99 b8
       -1.2876634e-05 -7.187573e-05 -3.7991882e-05 -7.3191884e-05
0001b0 eb 32 21 b7 31 df 83 b8 8c 21 0c b8 89 da 6c 37
       -9.608203e-06 -6.2881394e-05 -3.3409844e-05 1.4117578e-05
0001c0 c4 42 c3 37 b7 2c 5e 37 a2 d3 be b7 4c a2 96 b8
       2.3276902e-05 1.3242642e-05 -2.2748314e-05 -7.1827875e-05
0001d0 5f 5b b1 b7 4e 01 17 b8 1f 9e f3 b7 55 8b 97 37
       -2.1142592e-05 -3.600242e-05 -2.9041488e-05 1.8065484e-05
0001e0 88 5b aa bf a5 0b c8 bd c2 55 b1 bf d1 1a 9a c0
       -1.3309183 -0.09767846 -1.3854296 -4.8157735
0001f0 fb 05 a9 3f 50 6d 30 3f 0f f3 e1 3f 75 1c 0c 40
       1.320495 0.689168 1.7652301 2.1892369
000200 ad ca b5 3f 1d a5 d7 3f 43 0d ca bf b7 4e 44 c0
       1.4202477 1.6847264 -1.5785297 -3.0673044
000210 a6 a9 b1 3f 5e bc d2 bf 7a b1 ef 3f e2 ed da 3f
       1.3879898 -1.6463735 1.8726037 1.7103846
000220 3a 39 e4 3f c3 dc df 3f 2d cb b1 3f 66 09 b0 bf
       1.7829964 1.7489246 1.3890129 -1.3752868
000230 bb c6 57 b8 1e e9 8d 38 5b b0 b5 b8 bc 0b 2b 38
       -5.1445077e-05 6.7668254e-05 -8.663601e-05 4.0780506e-05
000240 5a 4b b6 b8 46 32 17 b7 1f 20 c8 b8 1a 40 c2 b7
       -8.6924716e-05 -9.012007e-06 -9.542726e-05 -2.3156452e-05
000250 29 65 c2 b6 41 87 04 b9 91 e8 c3 36 12 5a 04 38
       -5.793427e-06 -0.00012638887 5.838527e-06 3.1555137e-05
000260 7f 92 74 b8 6e ed 34 37 e9 f0 b7 b8 02 71 ef b8
       -5.831057e-05 1.0784117e-05 -8.770993e-05 -0.000114174574
000270 94 6a c5 b7 7d 14 a5 b7 8c 8a a6 b8 b0 94 a7 35
       -2.353386e-05 -1.9679073e-05 -7.941303e-05 1.2485743e-06
000280 14 27 13 b8 fd f0 b1 37 f9 60 e5 b7 72 e7 5f b5
       -3.5083925e-05 2.1212263e-05 -2.7344084e-05 -8.341077e-07
000290 8f 2e 01 b8 3d 78 a8 b7 2d 22 46 b8 b3 74 00 b9
       -3.0799358e-05 -2.0083151e-05 -4.7238707e-05 -0.00012250505
0002a0 62 a6 bb b7 dc 7c 94 b8 9f c7 0b b8 41 f6 77 b6
       -2.2369615e-05 -7.080447e-05 -3.3326094e-05 -3.6949207e-06
0002b0 f7 b4 4f 37 32 5b a3 36 43 0a 8f b8 e6 82 36 b8
       1.2380296e-05 4.868395e-06 -6.820683e-05 -4.351409e-05
0002c0 d0 7d 55 b8 ef 18 65 b8 2e 7c a9 b7 cb ba 54 37
       -5.090033e-05 -5.4621076e-05 -2.0204196e-05 1.2679676e-05
0002d0 10 6b 44 3d b2 d5 24 be c6 12 44 3e a8 6f 09 3d
       0.047953665 -0.16097143 0.19147786 0.03355375
0002e0 60 5d 7d bd 45 0f e4 be 44 11 0b bd 35 ec e6 be
       -0.061856627 -0.445429 -0.033952013 -0.45102087
0002f0 a4 ee 41 be 95 32 1d bd c6 8d 6e be bc 7d 8b 3d
       -0.1893869 -0.038378317 -0.2329627 0.06811091
000300 2b f2 49 be 8d b3 3d 3e 7b 22 10 bd 38 8d 1a bd
       -0.19721286 0.18525524 -0.035189133 -0.037732333
000310 df 29 56 bd 79 6e 5a bd f7 41 69 bd 83 d5 4b 3e
       -0.052286025 -0.05332801 -0.056947675 0.19905667
000320 f2 8a c4 bf 4c 6f c3 bd 54 0a cd bf 0d 19 b8 c0
       -1.5354903 -0.095427126 -1.6018777 -5.753058
000330 0a 96 cd 3f e0 07 36 be ce c2 0c 40 83 16 27 40
       1.6061413 -0.17776442 2.19939 2.610749
000340 c5 5a d3 3f c7 bf 06 40 72 73 78 c0 ea 3c 58 c0
       1.6512076 2.1054552 -3.8820462 -3.378718
000350 f7 9e ce 3f b0 81 ee bf 0a 65 12 40 46 d1 08 40
       1.6142262 -1.8633327 2.287417 2.137773
000360 03 77 07 40 8e 29 06 40 aa 2b d8 3f f8 52 cc bf
       2.116639 2.0962863 1.6888325 -1.596282
000370 d3 34 a2 bf b1 94 c9 bd e7 5f a8 bf 66 26 91 c0
       -1.2672371 -0.09842814 -1.3154267 -4.5359373
000380 e0 72 9f 3f 74 20 24 3f ff 2a d4 3f ff c3 05 40
       1.2456932 0.6411202 1.6575621 2.0900877
000390 79 63 ac 3f 09 69 ca 3f 43 0a bd bf c4 7e 3e c0
       1.3467857 1.5813304 -1.4768757 -2.9764872
0003a0 df 70 a8 3f fe 25 c9 bf 20 e0 e1 3f 38 81 cd 3f
       1.3159446 -1.5714719 1.7646523 1.605506
0003b0 14 2d d8 3f ed 8c d3 3f fe 9e a7 3f 51 f4 a6 bf
       1.6888757 1.6527382 1.3095396 -1.304331
0003c0 82 2a 9c bf ad f2 52 3d c9 f5 a5 bf 2e be 99 c0
       -1.2200472 0.051500965 -1.2965633 -4.8044653
0003d0 63 d4 b4 3f af 95 68 c0 58 d9 db 3f 5b 2c 52 40
       1.4127315 -3.634136 1.7175703 3.2839572
0003e0 bb f2 a5 3f 51 96 d2 3f b7 72 88 c0 0e 30 4f c0
       1.29647 1.6452123 -4.2640033 -3.237308
0003f0 2c 7a a1 3f d8 92 be bf 3e 3d ef 3f a5 e6 d4 3f
       1.2615409 -1.4888563 1.8690565 1.6632887

fc3.bias f4 [20]
000000 79 a6 0c 38 62 9a d7 3f 4f 92 9f b7 0f b9 47 3f
       3.353364e-05 1.6843989 -1.9022407e-05 0.7801675
000010 4e 32 01 40 d9 30 ff 37 76 79 db 3f 1c 41 e8 37
       2.0186954 3.0421115e-05 1.7146442 2.7686874e-05
000020 54 ab 8f b8 fe 0d 4e be 31 16 fb 3f 6a bd d0 3f
       -6.850684e-05 -0.20122525 1.9616147 1.6307805
000030 3e 1e cd 3f 3b 13 b9 3f 0a 47 ec 3f bb a8 e0 3f
       1.6024854 1.4458994 1.8459179 1.7551492
000040 c4 cb 82 b8 a2 c9 aa 36 a8 63 92 b9 01 c3 b4 b7
       -6.236837e-05 5.089868e-06 -0.0002792154 -2.1548478e-05

fc4.weight f4 [1, 20]
000000 81 7a c5 bf f2 cc 0a 40 68 9f c5 bf b2 9d 5e 3f
       -1.542801 2.1687589 -1.5439272 0.86959374
000010 fc a7 1e 40 1c 84 c5 bf af af f5 3f 04 f3 c3 bf
       2.479003 -1.5430942 1.9194239 -1.5308537
000020 11 10 c6 bf 0c 61 26 3e 36 41 16 40 53 d2 e7 3f
       -1.5473653 0.16247958 2.3477302 1.8111061
000030 59 3e 06 40 de be e2 3f b3 8b 09 40 ff 78 fc 3f
       2.0975554 1.7714498 2.1491516 1.9724425
000040 f2 16 c2 3f 63 61 c5 bf f7 db c5 3f 68 91 c5 bf
       1.5163252 -1.5420345 1.5457753 -1.5435

bn1.weight f4 [200]
000000 28 0a 16 37 26 61 37 3f 59 d9 18 40 00 49 a1 38
       8.943061e-06 0.7163261 2.3882658 7.6906756e-05
000010 1b 01 1d 38 1b 6c 33 38 de 5a fe 39 32 cd 0e 3e
       3.7432746e-05 4.2777607e-05 0.00048514357 0.13945463
000020 31 44 39 3f 75 86 05 38 1b 01 1d 38 64 9c 0e 38
       0.72369677 3.1834894e-05 3.7432746e-05 3.400109e-05
000030 1b 01 1d 38 dc 40 37 3f a7 64 37 3f 1b 01 1d 38
       3.7432746e-05 0.7158334 0.7163796 3.7432746e-05
000040 6c db 0c 3e e3 e5 2e bf 1b 01 1d 38 1b 01 1d 38
       0.13755578 -0.6831953 3.7432746e-05 3.7432746e-05
000050 6f ec 67 40 12 17 38 3f 1b 01 1d 38 c8 7d 37 3f
       3.6238058 0.719102 3.7432746e-05 0.716763
000060 7f ea 9f 3f 1b 01 1d 38 1b 01 1d 38 dd eb a7 38
       1.2493438 3.7432746e-05 3.7432746e-05 8.0071135e-05
000070 65 68 75 b9 08 19 bb b7 47 69 ce 3f b2 67 11 b9
       -0.00023403911 -2.2303793e-05 1.6125878 -0.00013866907
000080 1b 01 1d 38 f8 71 d3 3d e7 fb 37 3f 94 a3 35 3f
       3.7432746e-05 0.10324472 0.7186875 0.70952725
000090 1b 01 1d 38 1b 01 1d 38 6e d2 38 3f 17 46 48 3c
       3.7432746e-05 3.7432746e-05 0.7219609 0.012223742
0000a0 a9 7a 1e 3b 1b 01 1d 38 5d ba 36 3f 84 70 5a bd
       0.0024181998 3.7432746e-05 0.7137812 -0.05332996
0000b0 1b 01 1d 38 13 1c 10 3b 1b 01 1d 38 bf 6c 37 3f
       3.7432746e-05 0.002198939 3.7432746e-05 0.7165031
0000c0 91 e5 37 3f 17 c3 dc 39 1b 01 1d 38 1b 01 1d 38
       0.71834666 0.00042107023 3.7432746e-05 3.7432746e-05
0000d0 1b 01 1d 38 1b 01 1d 38 52 fa ac 3e 16 ac 33 b8
       3.7432746e-05 3.7432746e-05 0.3378473 -4.2837193e-05
0000e0 01 53 22 38 27 7e cf 3a 0a d8 92 bd 1b 01 1d 38
       3.8701113e-05 0.0015830443 -0.071701124 3.7432746e-05
0000f0 27 51 37 3f 1b 01 1d 38 c0 b2 a2 38 05 e5 28 3e
       0.71608204 3.7432746e-05 7.758057e-05 0.16493614
000100 1b 01 1d 38 13 7d 74 3d 1b 01 1d 38 c5 a1 12 38
       3.7432746e-05 0.059689593 3.7432746e-05 3.4959772e-05
000110 b1 01 55 37 63 54 37 3f b8 db 37 3f 1b 01 1d 38
       1.2696183e-05 0.7161314 0.7181964 3.7432746e-05
000120 1b 01 1d 38 1b 01 1d 38 c3 75 88 3f 1b 01 1d 38
       3.7432746e-05 3.7432746e-05 1.0660938 3.7432746e-05
000130 1b 01 1d 38 1b 01 1d 38 d0 e7 c5 3f 1b 01 1d 38
       3.7432746e-05 3.7432746e-05 1.5461369 3.7432746e-05
000140 2b 94 37 3f 1b 01 1d 38 1b 01 1d 38 1b 01 1d 38
       0.7171046 3.7432746e-05 3.7432746e-05 3.7432746e-05
000150 5e 1a b9 3e 1b 01 1d 38 10 66 88 38 1b 01 1d 38
       0.3615293 3.7432746e-05 6.503996e-05 3.7432746e-05
000160 1b 01 1d 38 51 3a cf 3e 1b 01 1d 38 9f 65 a0 38
       3.7432746e-05 0.4047418 3.7432746e-05 7.648323e-05
000170 10 14 52 3e a1 47 37 3f 1b 01 1d 38 1b 01 1d 38
       0.20515466 0.7159367 3.7432746e-05 3.7432746e-05
000180 3c 9d 05 39 32 82 f8 3d a1 c1 25 38 1b 01 1d 38
       0.00012742443 0.12134208 3.9519397e-05 3.7432746e-05
000190 1b 01 1d 38 1b 01 1d 38 1b 01 1d 38 1b 01 1d 38
       3.7432746e-05 3.7432746e-05 3.7432746e-05 3.7432746e-05
0001a0 1b 01 1d 38 71 55 37 3f 1b 01 1d 38 6e d7 37 3f
       3.7432746e-05 0.7161475 3.7432746e-05 0.71813095
0001b0 1e 9c 37 3f c0 ec a5 3d 1b 01 1d 38 1b 01 1d 38
       0.7172259 0.08101797 3.7432746e-05 3.7432746e-05
0001c0 36 e3 2b 38 2e 39 80 36 59 6b e5 3f 1b 01 1d 38
       4.0981184e-05 3.821354e-06 1.7923385 3.7432746e-05
0001d0 94 58 37 3f 1b 01 1d 38 1b 01 1d 38 70 63 37 3f
       0.71619534 3.7432746e-05 3.7432746e-05 0.71636105
0001e0 1b 01 1d 38 1b 01 1d 38 34 0a a0 ba c3 7d 37 3f
       3.7432746e-05 3.7432746e-05 -0.0012210072 0.7167627
0001f0 17 99 2f 3f 1b 01 1d 38 1b 01 1d 38 28 a7 8d b8
       0.6859297 3.7432746e-05 3.7432746e-05 -6.754539e-05
000200 1b 01 1d 38 1a c5 e2 38 1b 01 1d 38 e9 35 9c be
       3.7432746e-05 0.00010813233 3.7432746e-05 -0.3050988
000210 b3 e1 37 3f f4 21 08 40 65 3e 55 b9 27 66 37 3f
       0.71828765 2.1270723 -0.00020336507 0.7164025
000220 1b 01 1d 38 d2 ee 92 b8 9a f3 4d b7 6a 23 0b 40
       3.7432746e-05 -7.006306e-05 -1.227567e-05 2.1740365
000230 34 60 c8 b6 1b 01 1d 38 87 71 8b 3b 1b 01 1d 38
       -5.971664e-06 3.7432746e-05 0.004255477 3.7432746e-05
000240 1b 01 1d 38 e6 1f 38 3f 1b 01 1d 38 43 98 b3 3e
       3.7432746e-05 0.71923673 3.7432746e-05 0.35077104
000250 1b 01 1d 38 1b 01 1d 38 cb 43 89 3d 37 e0 60 38
       3.7432746e-05 3.7432746e-05 0.067023836 5.3614578e-05
000260 28 15 6d 37 1b 01 1d 38 fe 40 ed b8 1b 01 1d 38
       1.4131227e-05 3.7432746e-05 -0.000113131464 3.7432746e-05
000270 1b 01 1d 38 1b 01 1d 38 1b 01 1d 38 50 97 38 3f
       3.7432746e-05 3.7432746e-05 3.7432746e-05 0.72105885
000280 70 02 3a 3f 8d b5 37 3f 46 80 4a 40 1b 01 1d 38
       0.7265997 0.717614 3.1640792 3.7432746e-05
000290 1c 17 41 3e a6 5d 37 3f 1b 01 1d 38 42 5d 1a bd
       0.18856472 0.7162727 3.7432746e-05 -0.037686594
0002a0 32 66 37 3f 10 5a 03 3e 55 bb 70 3f 1b 01 1d 38
       0.7164031 0.12827325 0.94035846 3.7432746e-05
0002b0 76 54 40 3e bf d3 12 b8 03 c9 37 3f 5c 8f 61 3f
       0.1878222 -3.5006316e-05 0.71791095 0.88109374
0002c0 1b 01 1d 38 1b 01 1d 38 64 5f 37 3f 10 46 07 3e
       3.7432746e-05 3.7432746e-05 0.7162993 0.1321032
0002d0 1b 01 1d 38 1b 01 1d 38 1b 01 1d 38 29 44 37 3f
       3.7432746e-05 3.7432746e-05 3.7432746e-05 0.7158838
0002e0 66 bf 37 3f ae 85 68 3f 1b 01 1d 38 1b 01 1d 38
       0.71776426 0.9082898 3.7432746e-05 3.7432746e-05
0002f0 80 5a 0e 3f 3b e1 24 3e 1b 01 1d 38 ca f6 be 3f
       0.5560684 0.16101544 3.7432746e-05 1.4919064
000300 76 ae 8e 3f 65 50 c6 b6 1b 01 1d 38 1b 01 1d 38
       1.1146991 -5.910219e-06 3.7432746e-05 3.7432746e-05
000310 2e 43 90 40 1b 01 1d 38 22 e7 40 c0 5f a6 35 3b
       4.5082006 3.7432746e-05 -3.0141072 0.0027717573

bn1.bias f4 [200]
000000 4e cc 86 b7 16 5e 37 bf 26 4e b2 3f f1 33 6f b8
       -1.6069182e-05 -0.7162794 1.3930099 -5.7030415e-05
000010 b2 f4 04 b8 14 cf bb b6 21 86 e7 b9 69 b8 d9 3d
       -3.1699143e-05 -5.5971414e-06 -0.00044159687 0.106308766
000020 25 44 39 bf ed 91 2e b6 0a ad ec b5 52 ff 00 b8
       -0.72369605 -2.601296e-06 -1.7633731e-06 -3.0755364e-05
000030 62 ba e2 37 85 3d 37 bf 6d 61 37 bf 15 fe 02 b8
       2.702809e-05 -0.71578246 -0.71633035 -3.1231048e-05
000040 21 77 c6 3e 41 5b 39 3f 0b b3 c6 38 01 73 0b b8
       0.38762763 0.7240487 9.474725e-05 -3.324729e-05
000050 62 a5 ad 3f 11 15 38 bf c5 b8 30 b8 1e 7b 37 bf
       1.3566096 -0.71907145 -4.213375e-05 -0.71672237
000060 74 6e 4a 3f cc 98 1a 37 dd 11 4d b7 a7 77 a0 b8
       0.7907479 9.214691e-06 -1.2223111e-05 -7.6516815e-05
000070 31 e6 09 bb 10 80 4b 38 1c d8 40 3f 5b 0a 4d 39
       -0.0021041746 4.851824e-05 0.75329757 0.00019554181
000080 d3 e9 8a 37 83 a4 62 3e 39 f9 37 bf 43 d4 35 bf
       1.6559765e-05 0.22133069 -0.7186466 -0.7102701
000090 a5 e5 ca b7 9b 09 d8 b8 90 d1 38 bf 84 2b 13 3e
       -2.4187213e-05 -0.00010301472 -0.72194767 0.14372069
0000a0 98 be 63 3c ae 11 ce b8 59 64 94 3f fd fa 76 3d
       0.013900422 -9.8261386e-05 1.1593124 0.060297955
0000b0 0c 9d 65 34 f0 40 3b 3c ca 77 cc 36 4e 69 37 bf
       2.138442e-07 0.0114290565 6.093619e-06 -0.7164506
0000c0 2d e6 37 bf f3 06 43 3b 5f eb 42 37 fa 73 45 b7
       -0.71835595 0.002975878 1.1618103e-05 -1.1769118e-05
0000d0 3e d4 2e b7 da 0a e6 37 36 f4 2c bd d3 1a 86 38
       -1.0420625e-05 2.742319e-05 -0.042225085 6.394614e-05
0000e0 7d 6b 8c b7 a8 ee a2 3b fb 51 43 3e de c5 54 b9
       -1.6739354e-05 0.0049722977 0.19074242 -0.00020291607
0000f0 d0 4e 37 bf 7e b0 1e 39 f4 3d 42 b8 74 68 9a 3e
       -0.71604633 0.00015133803 -4.6310903e-05 0.30157816
000100 ac 4f ac b7 9c eb 14 3e 75 50 25 b7 1b 69 dd b7
       -2.0541098e-05 0.14543003 -9.853499e-06 -2.6394197e-05
000110 82 06 ac b7 d2 50 37 bf fc da 37 bf 77 db d4 b8
       -2.0507028e-05 -0.71607697 -0.7181852 -0.00010149826
000120 d3 62 b7 38 f8 7c fb 36 94 51 36 3f 0f 6b 89 38
       8.7445274e-05 7.494931e-06 0.7121823 6.55261e-05
000130 cf ad aa b7 e2 f7 f5 37 83 59 4e 3f 6a 32 f0 37
       -2.0346515e-05 2.9321705e-05 0.80605334 2.8633705e-05
000140 f5 90 37 bf d8 ea 6c b7 2a 04 9a b7 cf d2 fa 36
       -0.7170556 -1.4121375e-05 -1.836017e-05 7.475122e-06
000150 27 4c 37 3f c7 8b eb 36 f8 cc 5e b8 2c d7 c9 37
       0.71600574 7.019818e-06 -5.3119817e-05 2.4061264e-05
000160 ee 32 52 39 36 be 29 3f c5 e5 ce 37 fc 41 c1 b7
       0.00020046133 0.66305864 2.4664108e-05 -2.303812e-05
000170 02 bb 06 3e 31 45 37 bf 35 7c b3 37 b8 1e a6 36
       0.13157275 -0.7158995 2.1396301e-05 4.9507616e-06
000180 60 c6 a3 b8 e2 8a 33 3d b7 78 36 37 4f 00 28 b8
       -7.809396e-05 0.04383362 1.08761515e-05 -4.005461e-05
000190 98 7c 20 b8 66 4b 02 39 24 98 0e b8 c8 d5 ee 37
       -3.826301e-05 0.00012425854 -3.399713e-05 2.847136e-05
0001a0 c0 61 5b 35 78 52 37 bf a1 0b ab 37 a1 d5 37 bf
       8.17261e-07 -0.7161021 2.0390204e-05 -0.71810347
0001b0 52 9a 37 bf 0d 2f 16 3e 51 33 13 37 2a 35 05 b6
       -0.7171985 0.14666386 8.773831e-06 -1.984949e-06
0001c0 50 f5 a8 36 a7 63 da 37 d7 97 4b 3f 02 96 85 39
       5.0353483e-06 2.603403e-05 0.79528564 0.000254795
0001d0 9a 54 37 bf 02 42 12 38 4c 7f 54 b8 4f 60 37 bf
       -0.71613467 3.4870587e-05 -5.0663293e-05 -0.7163133
0001e0 98 2e 66 b5 c7 3b a0 b8 d0 e7 12 3b 15 7b 37 bf
       -8.574948e-07 -7.640529e-05 0.0022416003 -0.71672183
0001f0 a4 0d 46 3f 15 41 91 b8 f7 70 73 b8 5c 82 c5 38
       0.77364564 -6.926261e-05 -5.804092e-05 9.417973e-05
000200 05 57 f3 37 04 da a9 b8 9e ab 05 38 1e 73 8c 3e
       2.9008379e-05 -8.0991565e-05 3.1869502e-05 0.27431577
000210 b8 df 37 bf 21 b0 99 3f 26 83 aa b7 c6 62 37 bf
       -0.7182574 1.2006875 -2.032665e-05 -0.7163509
000220 71 7a d8 37 b5 88 ab 37 8a 3f d7 37 d6 46 01 40
       2.5806223e-05 2.0448448e-05 2.5659585e-05 2.0199485
000230 18 93 33 38 bf 6f 88 b8 9d 76 12 3d af 22 21 38
       4.2813917e-05 -6.5058e-05 0.03575765 3.8417693e-05
000240 30 8e dd b9 16 1e 38 bf 14 7b 30 b7 68 13 83 3e
       -0.00042258343 -0.7192091 -1.0519074e-05 0.25600743
000250 f6 cc fc b6 53 91 8e 3b 8b b2 d0 3d 59 63 60 b8
       -7.534046e-06 0.00435082 0.10190304 -5.3498286e-05
000260 da cc b8 37 c8 b8 0f b8 00 c9 9c 39 2e bb c6 37
       2.20299e-05 -3.4265948e-05 0.00029904395 2.3690602e-05
000270 d3 e0 00 ba 06 d9 fc b8 e0 ab 89 b8 76 96 38 bf
       -0.0004916314 -0.0001205672 -6.564683e-05 -0.72104585
000280 1e b4 9d 3e f2 b2 37 bf dc 1d 7e bf f8 e5 06 b8
       0.3080148 -0.71757424 -0.9926431 -3.2162265e-05
000290 03 e1 26 3e 47 5a 37 bf 2d 38 00 38 c0 d3 82 3e
       0.16296773 -0.7162213 3.0569896e-05 0.25552177
0002a0 e5 62 37 bf fa 3f 31 3e 3e 8c 43 3f 3a b0 ae 37
       -0.71635276 0.17309561 0.7638587 2.0824478e-05
0002b0 45 a3 c2 3e 6d 09 6f 38 57 c7 37 bf 49 cd 5b 3f
       0.3801519 5.699082e-05 -0.71788543 0.85860115
0002c0 cf dd 05 b7 06 c1 d7 b7 ff 5b 37 bf 23 64 33 3e
       -7.979062e-06 -2.571988e-05 -0.7162475 0.17518668
0002d0 d3 f4 39 37 c8 e3 6f b6 5a 73 71 39 e1 28 37 bf
       1.1083862e-05 -3.5746361e-06 0.00023026523 -0.7154675
0002e0 89 bd 37 bf 5a b7 80 3f 13 a6 6c b9 ea 48 62 b7
       -0.7177358 1.0055954 -0.00022568581 -1.3487626e-05
0002f0 84 d1 fa bd 03 d0 7c 3d ee 38 3b b9 fa f1 1a 3f
       -0.12246993 0.061721813 -0.00017854918 0.60525477
000300 d3 a4 7d 3f 56 b2 d8 37 3a 61 a6 38 d0 b3 69 39
       0.99079627 2.583225e-05 7.933607e-05 0.00022287597
000310 2b 70 d0 3f 41 92 5d 37 85 54 36 40 c1 f7 f7 3c
       1.6284231 1.3206679e-05 2.8489087 0.030269505

bn1.running_mean f4 [200]
000000 13 f0 f1 42 c2 5f 48 41 45 18 08 43 18 51 b4 41
       120.968895 12.523378 136.0948 22.539597
000010 00 00 00 00 0f be 9c 41 ae 54 1c 41 0f f4 30 43
       0.0 19.592802 9.770674 176.95335
000020 6f 8e 80 42 c5 b5 1b 3d 00 00 00 00 cd 0c 62 42
       64.27819 0.038015146 0.0 56.5125
000030 00 00 00 00 07 80 49 41 cf b4 18 41 00 00 00 00
       0.0 12.593757 9.544143 0.0
000040 6e b8 c1 42 21 1c 41 43 00 00 00 00 00 00 00 00
       96.860214 193.10988 0.0 0.0
000050 0a ca 32 43 03 a6 32 42 00 00 00 00 ba f0 04 41
       178.78922 44.66212 0.0 8.308771
000060 74 53 01 43 00 00 00 00 00 00 00 00 0b 41 a9 42
       129.32599 0.0 0.0 84.62704
000070 1e 51 47 43 dc e8 de 42 4b a4 0d 43 2e 33 38 41
       199.31686 111.4548 141.64177 11.512495
000080 00 00 00 00 42 c4 35 43 f4 bb 3a 41 7b 9d 63 42
       0.0 181.76663 11.670887 56.90379
000090 00 00 00 00 00 00 00 00 79 75 52 41 18 09 0e 43
       0.0 0.0 13.15368 142.03552
0000a0 d8 5f 18 43 00 00 00 00 54 14 0e 43 ee c6 38 43
       152.37439 0.0 142.0794 184.77707
0000b0 00 00 00 00 56 69 25 43 00 00 00 00 cc 7b 21 40
       0.0 165.41147 0.0 2.523181
0000c0 27 32 0b 43 6d ae b8 42 00 00 00 00 00 00 00 00
       139.1959 92.340675 0.0 0.0
0000d0 00 00 00 00 00 00 00 00 b8 d5 3e 43 aa e9 9a 3e
       0.0 0.0 190.83484 0.30256397
0000e0 34 ae 66 42 6b 42 e1 42 ae 4b 18 43 00 00 00 00
       57.67012 112.62972 152.29562 0.0
0000f0 9f b2 b4 40 00 00 00 00 b3 60 80 3a 75 ba d6 42
       5.6468043 0.0 0.0009794444 107.364174
000100 00 00 00 00 e6 e5 e8 42 00 00 00 00 9e 85 ff 42
       0.0 116.44902 0.0 127.76097
000110 43 91 b9 42 42 ab 66 41 ab 05 86 42 00 00 00 00
       92.783714 14.416811 67.01107 0.0
000120 00 00 00 00 00 00 00 00 be ef 0b 43 00 00 00 00
       0.0 0.0 139.9365 0.0
000130 00 00 00 00 00 00 00 00 f0 f9 2a 43 00 00 00 00
       0.0 0.0 170.97632 0.0
000140 09 15 f0 3f 00 00 00 00 00 00 00 00 00 00 00 00
       1.875642 0.0 0.0 0.0
000150 1f 78 e5 42 00 00 00 00 a4 32 1d 41 00 00 00 00
       114.73461 0.0 9.824863 0.0
000160 00 00 00 00 a5 40 c1 42 00 00 00 00 93 4d 68 3c
       0.0 96.62626 0.0 0.014178651
000170 80 20 41 43 00 da 05 41 00 00 00 00 00 00 00 00
       193.12695 8.365723 0.0 0.0
000180 87 2d 02 3f f3 44 34 43 e2 3a 05 3f 00 00 00 00
       0.5085072 180.26933 0.52042973 0.0
000190 00 00 00 00 00 00 00 00 00 00 00 00 00 00 00 00
       0.0 0.0 0.0 0.0
0001a0 00 00 00 00 ef 96 1c 41 00 00 00 00 54 9f 9e 41
       0.0 9.786849 0.0 19.827797
0001b0 bd 44 82 41 d3 5b e3 42 00 00 00 00 00 00 00 00
       16.283564 113.679344 0.0 0.0
0001c0 ce ba 04 3f ba 7d 93 40 5b 6d c5 42 00 00 00 00
       0.5184754 4.6090975 98.713585 0.0
0001d0 d8 f2 b0 41 00 00 00 00 00 00 00 00 c1 0c 82 40
       22.118576 0.0 0.0 4.064057
0001e0 00 00 00 00 00 00 00 00 f7 cd 81 42 93 69 16 41
       0.0 0.0 64.902275 9.400775
0001f0 68 b6 db 42 00 00 00 00 00 00 00 00 16 3d 86 40
       109.85626 0.0 0.0 4.194957
000200 00 00 00 00 1c 1e d8 41 00 00 00 00 45 cb 81 42
       0.0 27.014702 0.0 64.89701
000210 09 3e c1 41 f4 5d 0b 43 5c 46 aa 42 fa 9e 3f 41
       24.15529 139.367 85.13742 11.976313
000220 00 00 00 00 00 00 00 00 8e 96 25 41 96 d2 1c 43
       0.0 0.0 10.3492565 156.8226
000230 2c 95 38 41 00 00 00 00 7f 9a 16 43 00 00 00 00
       11.536419 0.0 150.6035 0.0
000240 00 00 00 00 c6 3e bd 41 00 00 00 00 cd 6b 77 42
       0.0 23.655651 0.0 61.855274
000250 00 00 00 00 00 00 00 00 9d 69 22 43 40 e1 0e 43
       0.0 0.0 162.41255 142.87988
000260 3f af 86 3d 00 00 00 00 fe 21 ba 42 00 00 00 00
       0.06576394 0.0 93.06639 0.0
000270 00 00 00 00 00 00 00 00 00 00 00 00 1b 06 b7 41
       0.0 0.0 0.0 22.877981
000280 66 4a 75 42 61 d5 0d 41 31 ef 29 43 00 00 00 00
       61.322655 8.864594 169.93434 0.0
000290 39 ce 3a 43 52 44 3c 41 00 00 00 00 de fb ec 42
       186.80556 11.76668 0.0 118.49193
0002a0 70 b5 38 41 74 4a 3a 43 5f ab 20 43 00 00 00 00
       11.544296 186.29083 160.66942 0.0
0002b0 61 5f db 42 1f 9c de 40 bd 37 c4 42 b4 4f 0f 43
       109.68629 6.9565578 98.108864 143.31134
0002c0 00 00 00 00 00 00 00 00 6b 82 c9 40 35 e3 f8 42
       0.0 0.0 6.29717 124.44376
0002d0 00 00 00 00 00 00 00 00 00 00 00 00 a1 c9 3a 43
       0.0 0.0 0.0 186.78761
0002e0 d1 18 cd 41 27 b4 0d 43 00 00 00 00 00 00 00 00
       25.637117 141.70372 0.0 0.0
0002f0 a8 80 fb 42 87 d6 2d 43 00 00 00 00 8b e6 1b 43
       125.75128 173.838 0.0 155.90056
000300 a2 d8 2b 43 2d 84 bc 42 00 00 00 00 00 00 00 00
       171.84622 94.258156 0.0 0.0
000310 50 6a a8 42 00 00 00 00 65 8d 39 43 0f da 35 43
       84.20764 0.0 185.55232 181.85179
