Results/NN_MLP_MLs/MLP_Ensemble/Model_Results/AGT/test10_ensemblesize10/best_model_6.pt (torch, 69725 bytes, 20 tensors)

country_embedding.weight f4 [8, 2]
-14.129363 6.6827383 -22.8933 25.142372 -2.7590528 0.97813356 -2.815208 7.2321887
-15.326035 1.3148234 3.1674871 5.174108 -4.3832674 8.447966 4.307814 -5.462437
00000000: df11 62c1 fed8 d540 7a25 b7c1 9423 c941
00000010: 5294 30c0 f666 7a3f 5e2c 34c0 176e e740
00000020: 7037 75c1 224c a83f 1cb8 4a40 4b92 a540
00000030: ba43 8cc0 de2a 0741 9dd9 8940 49cc aec0

fc1.weight f4 [200, 51]
-1.7704326e-11 -3.3000998e-11 -1.4795968e-11 -1.2362055e-11 -1.1303902e-11 -2.1087689e-11 -3.192636e-11 -2.8640557e-11
-3.0459805e-11 -2.052988e-11 -2.41446e-11 -1.1978028e-11 -1.0569415e-11 -2.3245373e-11 -1.04937205e-11 1.1686964e-11
-4.6618598e-11 -3.1931634e-11 -1.4334581e-11 -1.2574035e-11 -1.12575765e-11 -2.1218426e-11 -3.1263495e-11 -2.8110845e-11
-2.9901363e-11 -2.0109636e-11 -2.4220095e-11 -1.1952977e-11 -7.818768e-12 -2.2785116e-11 -1.0664916e-11 1.0783778e-11
-4.484243e-11 -3.1874312e-11 -1.3859674e-11 -1.2546438e-11 -1.0735182e-11 -2.1009661e-11 -3.098388e-11 -2.9511126e-11
-2.911601e-11 -1.9651192e-11 -2.3078234e-11 -1.1557195e-11 -7.489757e-12 -2.2183087e-11 -1.08645775e-11 1.1995977e-11
-4.4788662e-11 1.9724715e-11 -1.6240903e-11 -1.00603096e-17 -1.6253565e-17 -1.6309853e-17 1.4416744e-17 -2.6983485e-17
4.8552418e-17 2.7930468e-17 -4.5944606e-17 -1.7801435e-17 4.5274768e-17 -1.8834767e-17 -4.9136884e-17 3.325029e-17
-4.137465e-17 -1.2190948e-17 -1.4512169e-17 -2.7889016e-17 4.8774665e-17 2.8549398e-17 -2.3015632e-17 -2.902078e-18
-1.811573e-17 -1.3037219e-17 2.0511502e-17 -6.323188e-18 1.7351599e-17 -8.175271e-18 -4.1095845e-17 5.1982637e-17
5.0865394e-17 -2.6070938e-17 -1.6251968e-17 -3.053434e-17 2.9064046e-17 2.5959062e-17 1.7675543e-17 -1.6387305e-17
2.3988765e-18 3.4080295e-17 1.4755226e-17 4.9766044e-17 2.2130574e-17 -3.838995e-17 -4.290751e-17 3.1782678e-17
-9.319325e-18 -2.0506717e-17 2.7632576e-17 -1.2682591e-17 -3.9719406e-17 -2.1749382e-17 -2.3336472e-16 2.1178235e-16
-2.1427565e-16 -2.4196883e-16 -1.7535186e-16 2.474775e-16 2.0125053e-16 -2.5696947e-16 -2.4967696e-16 2.5971888e-16
2.0803645e-16 -2.2543824e-16 2.6808746e-16 2.1248425e-16 -2.3147748e-16 -2.549419e-16 -1.8327945e-16 2.4569459e-16
-2.341276e-16 -2.5138945e-16 -1.8489816e-16 2.5593294e-16 2.438551e-16 -2.0022717e-16 -1.8317351e-16 2.4706008e-16
1.8165477e-16 -2.4643627e-16 2.0901327e-16 2.8012446e-16 -2.016929e-16 -2.573425e-16 -2.0600148e-16 2.025166e-16
-1.7902556e-16 -2.4262367e-16 -2.1028742e-16 2.6264493e-16 2.648533e-16 -2.3996226e-16 -1.8081358e-16 2.360137e-16
2.1856981e-16 -2.7755528e-16 2.3739083e-16 -2.2308947e-16 -2.3475044e-16 2.114449e-16 -1.8010054e-16 -2.4320116e-16
2.0799295e-16 -1.7278312e-17 -1.3474292e-17 -3.085468e-17 4.8660858e-17 4.9132603e-17 -3.4361734e-17 -3.2768614e-17
9.451803e-18 1.4854265e-17 -1.8232354e-17 -4.9040954e-17 4.84444e-17 -1.2294596e-17 3.948349e-17 -2.4024223e-17
-1.4944697e-17 2.4173842e-17 3.5935232e-18 -9.5190506e-18 -1.3489765e-17 3.3487603e-17 2.5599255e-17 6.5108792e-18
4.5848335e-17 6.514368e-18 4.91809e-17 -5.8721233e-18 4.810255e-17 1.0314995e-17 -3.544383e-17 -2.3679299e-17
-5.1751576e-17 2.2092798e-17 2.5851795e-17 5.0718904e-17 -3.487349e-17 -8.210853e-18 -4.503443e-17 3.4610372e-17
-6.4404055e-18 -3.0504783e-17 -9.580147e-18 1.7686971e-17 4.5032345e-17 -2.1297745e-17 1.4421747e-18 -3.7147636e-17
1.5471985e-17 7.668151e-18 1.9749184e-17 3.094477e-17 -2.0808632e-16 2.3485886e-16 -2.7575536e-16 -2.3381307e-16
-2.562633e-16 -2.2461093e-16 1.9797775e-16 -2.2830622e-16 1.866885e-16 2.6250922e-16 -2.545248e-16 -2.556494e-16
2.7394223e-16 2.3853747e-16 -2.6788394e-16 -2.5937737e-16 2.2640542e-16 1.7763596e-16 -1.9502766e-16 -1.9661149e-16
-2.6978418e-16 -2.2182049e-16 2.7053166e-16 -2.5541585e-16 1.8253474e-16 2.0971572e-16 -2.6669356e-16 -2.1523142e-16
2.0499938e-16 1.8425287e-16 -2.6304436e-16 -1.8590082e-16 1.9484033e-16 2.4776725e-16 -2.5117476e-16 -2.529691e-16
-1.929886e-16 -2.195782e-16 2.7726533e-16 -2.1166366e-16 2.6206779e-16 1.9207667e-16 -2.5972045e-16 -2.0953857e-16
1.9206643e-16 2.3741365e-16 -2.6490794e-16 -1.8553436e-16 2.2600644e-16 2.3996316e-16 2.3733845e-16 -2.8448397e-13
00000000: 99ba 9bad d223 11ae 8f25 82ad bf79 59ad
00000010: 40dc 46ad 417d b9ad e369 0cae cdec fbad
00000020: b1f6 05ae 2e95 b4ad ce60 d4ad 3eb8 52ad
00000030: 6af0 39ad ed77 ccad 849b 38ad 6899 4d2d
00000040: e007 4dae d36f 0cae 372d 7cad 6b34 5dad
00000050: 9e0b 46ad a6a3 baad 917f 09ae ff43 f7ad
00000060: f181 03ae e0e2 b0ad ce0a d5ad 6c47 52ad
00000070: 9a8c 09ad 856b c8ad 839e 3bad d2b5 3d2d
00000080: 1638 45ae 492f 0cae 6cd2 73ad 22b8 5cad
00000090: f6da 3cad 8dcd b8ad bf44 08ae 93ca 01ae
000000a0: b70d 00ae 8dda acad 90ff caad fb50 4bad
000000b0: dec2 03ad df1f c3ad b521 3fad 1409 532d
000000c0: 8dfb 44ae 1c80 ad2d 43db 8ead 7894 39a3
000000d0: a5e9 95a3 8d6e 96a3 93f8 8423 f4e0 f8a3
000000e0: 94e8 5f24 7ace 0024 d1e1 53a4 7330 a4a3
000000f0: 03cb 5024 56b8 ada3 989a 62a4 0457 1924
00000100: 91ce 3ea4 20e2 60a3 e4d9 85a3 8a9d 00a4
00000110: f6ee 6024 2ea9 0324 2048 d4a3 b422 56a2
00000120: 8f16 a7a3 877e 70a3 6a2f bd23 d248 e9a2
00000130: 4e0a a023 a0ce 16a3 6985 3da4 44ba 6f24
00000140: 4293 6a24 4376 f0a3 e0e5 95a3 96d0 0ca4
00000150: c508 0624 1a6e ef23 3207 a323 6e25 97a3
00000160: 7f01 3122 e92a 1d24 cb17 8823 6081 6524
00000170: 571e cc23 da0a 31a4 3fe0 45a4 5d92 1224
00000180: 45e9 2ba3 1e24 bda3 93dd fe23 d8f3 69a3
00000190: 662c 37a4 479a c8a3 8e86 86a5 1e2b 7425
000001a0: 020b 77a5 4c7c 8ba5 bc2a 4aa5 3ca9 8e25
000001b0: ac06 6825 0022 94a5 d1ed 8fa5 beb7 9525
000001c0: 86d9 6f25 d0f4 81a5 ba8a 9a25 48fa 7425
000001d0: 0c70 85a5 c9f6 92a5 8c4e 53a5 1fa2 8d25
000001e0: 23f7 86a5 89ea 90a5 4e2c 55a5 0989 9325
000001f0: a992 8c25 a1d8 66a5 472f 53a5 a26b 8e25
00000200: 066f 5125 930f 8ea5 d4f9 7025 137b a125
00000210: 3d89 68a5 0d59 94a5 e880 6da5 5a7c 6925
00000220: 0567 4ea5 efdc 8ba5 e471 72a5 8d67 9725
00000230: 73ad 9825 2e54 8aa5 c076 50a5 790d 8825
00000240: 6cfe 7b25 eeff 9fa5 b4d8 8825 329a 80a5
00000250: 0d53 87a5 85c7 7325 4ca4 4fa5 2832 8ca5
00000260: afcc 6f25 435d 9fa3 8b8e 78a3 c74a 0ea4
00000270: 9a68 6024 8a95 6224 2d77 1ea4 5a1e 17a4
00000280: e15a 2e23 a401 8923 ee29 a8a3 5729 62a4
00000290: 0d69 5f24 97cb 62a3 e115 3624 9895 dda3
000002a0: 2bd7 89a3 dff6 de23 de93 8422 7298 2fa3
000002b0: 9dd7 78a3 2f6f 1a24 881c ec23 8435 f022
000002c0: 2970 5324 7756 f022 8fce 6224 a3a4 d8a2
000002d0: 78d5 5d24 3047 3e23 b074 23a4 2a67 daa3
000002e0: 7aa9 6ea4 25c5 cb23 d370 ee23 50e6 6924
000002f0: 5ad3 20a4 a876 17a3 45af 4fa4 b79c 1f24
00000300: e99b eda2 b1ad 0ca4 f7b8 30a3 2e22 a323
00000310: cfac 4f24 e16f c4a3 d2d3 d421 3050 2ba4
00000320: 31b4 8e23 d273 0d23 7127 b623 23b5 0e24
00000330: 3ee8 6fa5 0d63 8725 4ff6 9ea5 b8c8 86a5
00000340: cab9 93a5 b97a 81a5 b840 6425 0d9c 83a5
00000350: b83c 5725 8653 9725 3bb9 92a5 315f 93a5
00000360: bdea 9d25 eb81 8925 b16c 9aa5 5885 95a5
00000370: 8b83 8225 e2cc 4c25 01da 60a5 78ad 62a5
00000380: 1e85 9ba5 dabd 7fa5 6df3 9b25 ba3c 93a5
00000390: bf72 5225 28c9 7125 06bd 99a5 1a25 78a5
000003a0: 2359 6c25 d96d 5425 7fa2 97a5 3d54 56a5
000003b0: b7a2 6025 fed3 8e25 daca 90a5 a6d3 91a5
000003c0: 2e80 5ea5 0c28 7da5 24d5 9f25 1608 74a5
000003d0: 6112 9725 0773 5d25 f9b7 95a5 df94 71a5
000003e0: 0170 5d25 12dc 8825 83b5 98a5 14e8 55a5
000003f0: aa48 8225 5054 8a25 f9d0 8825 7626 a0aa

fc1.bias f4 [200]
-1.7757067e-11 2.9923417e-17 -2.7740006e-16 -3.880395e-18 -2.2140278e-16 -3.142242e-13 1.6379924e-16 -3.8614506e-16
-9.199001e-13 -6.5335216e-11 -1.085453e-17 -3.3911242e-11 -4.4904254e-17 1.9465818e-17 -1.7539393e-12 -1.691174e-12
-1.9624112e-15 -0.14504288 -2.8010355e-16 5.1873075e-17 -2.6171746e-17 5.206894e-17 2.5579087e-16 5.2188942e-17
-3.6615866e-16 -8.5727764e-14 -4.1637174e-13 1.7970794e-16 4.1305965e-17 -0.11290717 4.8669884e-17 1.707263e-17
4.5126312e-17 3.4807376e-17 -3.9402304e-11 -2.2555967e-10 -0.26307082 4.494876e-17 -3.537457e-15 -3.9127753e-13
-9.569705e-11 3.9133538e-17 -1.8311709e-17 -2.5137722e-16 2.0168887e-16 -2.6272323e-16 2.0017605e-17 -2.57676e-16
-2.445738e-16 -3.1579797e-17 -9.697431e-13 -2.0777206e-16 -3.0223194e-15 -4.965718e-17 -7.5208006e-18 5.9082145e-18
4.9735128e-17 -1.771736e-16 4.3061984e-17 -2.5539814e-16 1.18501365e-17 -2.8706345e-13 -3.5428302e-16 2.9214818e-17
2.3144631e-17 -9.608678e-11 3.309357e-17 -2.4969774e-16 -7.974754e-14 3.284027e-17 -0.023922492 -7.6514385e-17
-6.73351e-18 -1.5682956e-17 -2.430857e-12 -2.1269288e-16 -3.6522962e-16 4.373754e-17 -1.5953401e-09 -4.436395e-12
1.3114358e-17 -2.1549738e-15 -2.4823433e-16 -1.5015796e-17 -3.8049978e-13 1.2771776e-17 2.7979884e-17 2.4792943e-16
-3.8295654e-16 2.767054e-16 1.7779351e-16 4.677026e-17 -2.6896152e-17 8.514344e-18 -0.13635337 -2.4804243e-16
-1.596859e-16 -2.682053e-16 2.2807034e-17 -0.13921107 -1.5400613e-15 -4.0903036e-12 -4.6033137e-17 -2.5266254e-16
-1.6519203e-10 -2.6607102e-16 -2.2361804e-17 1.15726795e-17 3.356633e-17 4.0229532e-17 -0.1570295 -4.102639e-17
-1.9025203e-15 2.485585e-17 -1.9714497e-14 4.2359347e-17 7.927374e-19 7.311593e-18 -4.5834683e-17 -3.2740041e-07
-3.770745e-17 -1.3941397e-16 -1.5364493e-17 2.2654934e-16 -4.4629948e-17 -2.2112939e-16 -5.1350032e-17 -1.8991028e-12
-0.083138466 -9.497315e-18 4.4694587e-17 -3.0247758e-17 -3.159751e-17 -0.035799373 1.95996e-16 1.8052762e-17
2.959156e-17 3.9769517e-17 5.116955e-18 1.21964e-17 3.4265143e-17 2.5845505e-17 -1.0008328e-16 -4.368463e-16
-3.3456544e-16 -3.2332214e-17 2.3351926e-17 -0.22335826 -3.8995726e-17 2.2042304e-17 4.73892e-17 2.5120898e-17
-0.12758335 -9.188129e-18 -1.9486096e-16 3.734316e-17 -4.7168426e-17 -4.9793666e-17 5.1921326e-17 -3.329268e-16
4.3643885e-17 3.7361374e-18 -2.0326713e-16 2.0567207e-16 -1.7051742e-13 6.2611083e-18 -9.270137e-12 -1.3165891e-18
4.5440207e-17 -3.866955e-17 0.4061554 0.42248 -2.2395578e-16 -3.3839195e-17 3.3261948e-17 -3.9923455e-18
-2.8816897e-16 -5.714229e-13 -4.139772e-15 -5.7417235e-16 -2.589434e-16 -3.309116e-13 -8.2733537e-14 1.9969997e-16
-2.3478806e-16 -4.3341602e-14 -0.0008893703 6.104437e-18 2.5351852e-16 -3.4070176e-18 5.0359805e-17 -0.0017707343
1.1065017e-17 4.5059473e-17 -5.011337e-17 -2.9243526e-12 -0.09386724 -2.6091664e-17 -3.260193e-15 -6.865755e-10
00000000: 5c31 9cad 56ff 0924 06e9 9fa5 4b29 8fa2
00000010: 9142 7fa5 7be4 b0aa 01d9 3c25 f498 dea5
00000020: e576 81ab 75ac 8fae 123b 48a3 aa24 15ae
00000030: 9615 4fa4 5d8a b323 53d8 f6ab f702 eeab
00000040: 1968 0da7 1f86 14be fd77 a1a5 eb38 6f24
00000050: 4a64 f1a3 2720 7024 1274 9325 d4ad 7024
00000060: 7b13 d3a5 b10a c1a9 7e65 eaaa 6c30 4f25
00000070: 7a7d 3e24 e03b e7bd 4273 6024 9c77 9d23
00000080: bf1b 5024 4c85 2024 0d4b 2dae 6701 78af
00000090: 38b1 86be 214a 4f24 90e6 7ea7 0945 dcaa
000000a0: a670 d2ae ba78 3424 4de5 a8a3 bbe8 90a5
000000b0: 0c88 6825 1b73 97a5 3ca1 b823 448a 94a5
000000c0: b9fc 8ca5 d8a2 11a4 ad7a 88ab 7d8b 6fa5
000000d0: f4c7 59a7 da00 65a4 fabb 0aa3 82f9 d922
000000e0: e05c 6524 6b44 4ca5 9e96 4624 1d3a 93a5
000000f0: b098 5a23 349a a1aa f23a cca5 c5ba 0624
00000100: b778 d523 0c4c d3ae fe9d 1824 e2f0 8fa5
00000110: 5493 b3a9 f372 1724 1af9 c3bc 1f6e b0a4
00000120: 346c f8a2 55a6 90a3 6d0e 2bac dc37 75a5
00000130: 618a d2a5 2cb4 4924 0a43 dbb0 7e17 9cac
00000140: ceea 7123 4048 1ba7 ec18 8fa5 0c7f 8aa3
00000150: cc33 d6aa 0299 6b23 d108 0124 edeb 8e25
00000160: 69c2 dca5 8282 9f25 62fb 4c25 94b0 5724
00000170: be12 f8a3 da0f 1d23 38a0 0bbe 9afc 8ea5
00000180: f51a 38a5 1e9c 9aa5 965b d223 598d 0ebe
00000190: 3cf2 dda6 2eea 8fac 564a 54a4 69a6 91a5
000001a0: 6ca1 35af 2761 99a5 5140 cea3 6f7a 5523
000001b0: 21cc 1a24 a686 3924 57cc 20be 6a33 3da4
000001c0: 4e17 09a7 3741 e523 8992 b1a8 1759 4324
000001d0: 8bf9 6921 06e0 0623 0b60 53a4 92c5 afb4
000001e0: 19e5 2da4 bebb 20a5 62b6 8da3 c898 8225
000001f0: bed1 4da4 e0f1 7ea5 6bcf 6ca4 32a3 05ac
00000200: 8044 aabd cd31 2fa3 0e1e 4e24 407e 0ba4
00000210: c1b7 11a4 5da2 12bd cff7 6125 e181 a623
00000220: 8c77 0824 8f67 3724 46c8 bc22 dffb 6023
00000230: 2405 1e24 f961 ee23 bec6 e6a4 23d3 fba5
00000240: 25dd c0a5 241b 15a4 2d62 d723 07b8 64be
00000250: 07d6 33a4 eb4d cb23 4b8b 5a24 0bb3 e723
00000260: 36a5 02be b67d 29a3 cea8 60a5 0637 2c24
00000270: a686 59a4 fca1 65a4 e271 6f24 53eb bfa5
00000280: 9b45 4924 d2d6 8922 de59 6aa5 ae1f 6d25
00000290: 4dfc 3faa 7ffe e622 fc14 23ad 544b c2a1
000002a0: 548e 5124 f254 32a4 9af3 cf3e 4c4f d83e
000002b0: 0a1a 81a5 450e 1ca4 c764 1924 a34a 93a2
000002c0: 3c1e a6a5 5cd7 20ab a826 95a7 717e 25a6
000002d0: 4d45 95a5 6349 baaa a34c baa9 073d 6625
000002e0: 9a58 87a5 7731 43a9 a124 69ba c736 e122
000002f0: bb24 9225 be64 7ba2 5d3e 6824 fc17 e8ba
00000300: 111d 4c23 d6cc 4f24 6d1b 67a4 74c8 4dac
00000310: 783d c0bd 33a7 f0a3 f2eb 6aa7 75b9 3cb0

fc2.weight f4 [20, 200]
-0.7797241 -0.0013333769 0.0017745738 -0.78313524 -0.78313595 0.780996 -0.7831355 -0.7831354
-0.78313506 0.0019162635 -0.7831347 0.0014143804 -0.78313535 0.7831351 0.001429676 -0.7831348
-0.78313583 -2.344807 -0.78313583 -0.78313476 0.7831355 0.77851343 -0.7831352 0.78313524
0.00046299904 0.0027570135 0.0011262954 -0.78313553 -0.7831352 1.3911694 -0.7831352 -0.783135
-0.7831356 0.0020779364 0.7829179 -0.00070308935 2.5927687 0.7831356 0.78313553 0.0005433159
0.00033442356 0.78313524 0.7831356 -0.7831357 -0.7831356 -0.7831349 -0.78313565 -0.78313524
-0.78313524 -0.7831357 -0.78313535 0.001223508 -0.00030896466 0.7831357 0.7831353 -0.0006614066
-0.7760783 -0.0029016624 -0.7831351 0.78313553 -0.7831357 -0.77580667 -0.7831355 0.78313524
0.78313553 -0.0008058595 -0.78313583 0.00034942402 -0.7831344 0.78313506 1.3258935 -0.0017203655
0.78313524 0.78313494 0.7811462 -0.7831352 -0.7831351 0.7831352 -0.78240204 0.78313583
0.7831351 0.78313553 -0.7831353 -0.78313553 0.00033131725 -0.7831351 -0.78313524 0.78313637
-0.78313553 -0.7831356 0.78313583 0.78313535 -0.0016234103 0.7831351 1.6644385 -0.7831351
-0.78313583 -0.78313535 0.7831352 1.5878627 -0.78313524 -0.0023021724 -0.7831354 0.78374046
0.002440413 -0.783135 -0.7831352 0.78313535 0.78313464 -0.00070491876 1.4339684 -0.78313535
-0.78313607 0.0011264139 0.001687052 -0.0010860125 -0.7831353 0.7831355 -0.7831356 0.00010891381
0.7831354 -0.783136 -0.78313535 0.7831356 0.78313535 -0.7831351 0.78313535 0.0022454388
1.4610044 -0.783135 0.78313535 -0.7799852 -0.0010813746 2.1308374 -0.78313565 -0.78313553
-0.783135 0.7831357 -0.78313565 0.78313524 0.783135 0.783135 0.7831354 -0.7831353
0.78313494 0.78313506 -0.7831349 -1.4643393 -0.7831352 -0.7831351 -0.7831352 0.78313524
3.5140307 -0.0029276242 0.0023711692 0.78313535 -0.779405 -0.78313535 -0.7831351 -0.783135
-0.78313535 0.7831356 0.783135 -0.7831358 -0.7810129 0.7831351 -0.78313524 -0.7831356
-0.7831355 0.78313524 -0.9713159 1.0362779 -0.7831353 0.78313565 -0.0011530246 -0.002695864
0.7831356 0.008098889 0.78313506 0.78313553 0.78313524 -0.0012436849 -0.005477139 -0.7831359
-0.7831354 -0.7831358 0.0027158614 -0.0016529745 -0.783136 -0.0013639794 -0.7831356 -0.0016923209
-0.78313535 -0.78313524 -0.7831356 0.0037958438 1.4281569 -0.78313506 0.77962613 0.78313494
-0.7796626 -0.0013328494 0.0017750676 -0.78308237 -0.78308177 0.7809375 -0.7830826 -0.78308177
-0.783082 0.0019122649 -0.7830821 0.0014129711 -0.7830826 0.7830821 0.001429294 -0.78308207
-0.7830816 -2.3449504 -0.78308177 -0.7830824 0.78308254 0.7784512 -0.78308177 0.78308225
0.00046096716 0.0027530072 0.0011229279 -0.78308254 -0.78308254 1.3912756 -0.7830819 -0.783082
-0.7830819 0.0020796945 0.7828719 -0.0007019961 2.5928361 0.783082 0.7830816 0.0005429039
0.00033177328 0.7830826 0.7830822 -0.7830813 -0.7830819 -0.783081 -0.78308207 -0.7830822
-0.78308237 -0.7830824 -0.7830813 0.0012235801 -0.00031092938 0.78308195 0.7830824 -0.00066054764
00000000: 009c 47bf b4c4 aeba d198 e83a 8d7b 48bf
00000010: 997b 48bf 5bef 473f 917b 48bf 907b 48bf
00000020: 8a7b 48bf 222b fb3a 847b 48bf bb62 b93a
00000030: 8f7b 48bf 8b7b 483f f763 bb3a 867b 48bf
00000040: 977b 48bf 5111 16c0 977b 48bf 857b 48bf
00000050: 917b 483f a84c 473f 8c7b 48bf 8d7b 483f
00000060: aebe f239 03af 343b 34a0 933a 927b 48bf
00000070: 8c7b 48bf d711 b23f 8c7b 48bf 897b 48bf
00000080: 937b 48bf fd2d 083b 4f6d 483f 874f 38ba
00000090: ecef 2540 937b 483f 927b 483f 506d 0e3a
000000a0: 9255 af39 8d7b 483f 937b 483f 957b 48bf
000000b0: 937b 48bf 877b 48bf 947b 48bf 8d7b 48bf
000000c0: 8d7b 48bf 957b 48bf 8f7b 48bf 1e5e a03a
000000d0: 89fc a1b9 957b 483f 8e7b 483f 3f62 2dba
000000e0: 11ad 46bf d129 3ebb 8b7b 48bf 927b 483f
000000f0: 957b 48bf 449b 46bf 917b 48bf 8d7b 483f
00000100: 927b 483f 5140 53ba 977b 48bf e632 b739
00000110: 7f7b 48bf 8a7b 483f e1b6 a93f e37d e1ba
00000120: 8d7b 483f 887b 483f 33f9 473f 8c7b 48bf
00000130: 8b7b 48bf 8c7b 483f 804b 48bf 977b 483f
00000140: 8b7b 483f 927b 483f 8e7b 48bf 927b 48bf
00000150: a6b4 ad39 8b7b 48bf 8d7b 48bf a07b 483f
00000160: 927b 48bf 937b 48bf 977b 483f 8f7b 483f
00000170: 9cc8 d4ba 8b7b 483f 520c d53f 8b7b 48bf
00000180: 977b 48bf 8f7b 48bf 8c7b 483f 163f cb3f
00000190: 8d7b 48bf 0be0 16bb 907b 48bf 37a3 483f
000001a0: 56ef 1f3b 897b 48bf 8c7b 48bf 8f7b 483f
000001b0: 837b 483f 4cca 38ba 478c b73f 8f7b 48bf
000001c0: 9b7b 48bf 2ea4 933a 1220 dd3a 8858 8eba
000001d0: 8e7b 48bf 917b 483f 937b 48bf a868 e438
000001e0: 907b 483f 9a7b 48bf 8f7b 48bf 937b 483f
000001f0: 8f7b 483f 8b7b 48bf 8f7b 483f 3628 133b
00000200: 3102 bb3f 897b 48bf 8f7b 483f 1cad 47bf
00000210: e9bc 8dba a45f 0840 947b 48bf 927b 48bf
00000220: 897b 48bf 957b 483f 947b 48bf 8d7b 483f
00000230: 897b 483f 897b 483f 907b 483f 8e7b 48bf
00000240: 887b 483f 8a7b 483f 877b 48bf 786f bbbf
00000250: 8c7b 48bf 8b7b 48bf 8c7b 48bf 8d7b 483f
00000260: e1e5 6040 62dd 3fbb 9e65 1b3b 8f7b 483f
00000270: 1687 47bf 8f7b 48bf 8b7b 48bf 897b 48bf
00000280: 8f7b 48bf 937b 483f 897b 483f 967b 48bf
00000290: 76f0 47bf 8b7b 483f 8d7b 48bf 937b 48bf
000002a0: 917b 48bf 8d7b 483f 29a8 78bf c1a4 843f
000002b0: 8e7b 48bf 947b 483f 1621 97ba 18ad 30bb
000002c0: 937b 483f 34b1 043c 8a7b 483f 927b 483f
000002d0: 8d7b 483f 2403 a3ba 9279 b3bb 987b 48bf
000002e0: 907b 48bf 967b 48bf 98fc 313b 9fa8 d8ba
000002f0: 9a7b 48bf 8ec7 b2ba 937b 48bf ded0 ddba
00000300: 8f7b 48bf 8d7b 48bf 937b 48bf b1c3 783b
00000310: d8cd b63f 8a7b 48bf 9495 473f 887b 483f
00000320: f897 47bf 01b3 aeba 63a9 e83a 1678 48bf
00000330: 0c78 48bf 85eb 473f 1a78 48bf 0c78 48bf
00000340: 1078 48bf f6a4 fa3a 1278 48bf 7133 b93a
00000350: 1a78 48bf 1278 483f 2657 bb3a 1178 48bf
00000360: 0978 48bf ab13 16c0 0c78 48bf 1778 48bf
00000370: 1978 483f 9448 473f 0c78 48bf 1478 483f
00000380: f7ad f139 cc6b 343b 352f 933a 1978 48bf
00000390: 1978 48bf 5215 b23f 0e78 48bf 1078 48bf
000003a0: 0e78 48bf 7c4b 083b 4b6a 483f 2906 38ba
000003b0: 07f1 2540 1078 483f 0978 483f aa51 0e3a
000003c0: dbf1 ad39 1a78 483f 1378 483f 0478 48bf
000003d0: 0e78 48bf ff77 48bf 1178 48bf 1378 48bf
000003e0: 1678 48bf 1778 48bf 0478 48bf 8960 a03a
000003f0: 3c04 a3b9 0f78 483f 1778 483f 9a28 2dba

fc2.bias f4 [20]
0.86442316 0.8643737 -1.0254351e-15 0.8643474 0.8643667 -1.2081732e-08 0.8643985 -0.00018688355
-0.22044548 -1.5418532e-09 0.86435735 0.86439055 -0.1794948 -1.9398457e-17 0.8643819 0.86438924
-0.2459978 -6.473352e-15 0.864383 0.864405
00000000: d64a 5d3f 9847 5d3f e1c7 93a6 df45 5d3f
00000010: 2347 5d3f 0590 4fb2 3849 5d3f 2cf6 43b9
00000020: 76bc 61be 23e9 d3b0 8646 5d3f b348 5d3f
00000030: 7ccd 37be 50eb b2a3 2248 5d3f 9d48 5d3f
00000040: d9e6 7bbe 223a e9a7 3448 5d3f a549 5d3f

fc3.weight f4 [20, 20]
1.4937284 1.4944549 0.50180435 1.4947115 1.4945976 0.5018062 1.4941869 -0.49859458
3.8857024 0.5018148 1.4946284 1.4943051 -6.214843 0.49700108 1.4943352 1.4941888
-5.1389065 0.50180453 1.4941437 1.4940215 -7.093605e-13 -7.0905884e-13 -6.916078e-13 -7.0941186e-13
-7.091907e-13 7.047106e-13 -7.0936643e-13 -5.1873886e-13 5.422209e-13 -1.8579615e-13 -7.092661e-13 -4.574347e-13
-7.088195e-13 1.1658664e-15 -7.093159e-13 -7.095397e-13 6.773875e-13 -5.753525e-13 -6.53441e-13 -7.0915577e-13
-7.091271e-13 -7.0953703e-13 -7.087348e-13 -7.094263e-13 -7.0940356e-13 7.082757e-13 -7.095069e-13 -7.0768185e-13
7.010081e-13 -6.556413e-13 -7.0929373e-13 -6.6210665e-13 -7.088406e-13 1.248274e-14 -7.0930534e-13 -7.093036e-13
7.0734884e-13 -6.9555776e-13 -6.9900325e-13 -7.0949973e-13 -2.829821e-16 -2.5394066e-16 1.9269335e-16 -3.306783e-16
2.6149728e-16 5.6711783e-16 -7.621388e-16 -6.630817e-17 2.8398235e-16 -8.7179765e-16 -2.3539864e-16 -1.3633509e-16
-1.1647093e-16 1.9917478e-17 -2.1575381e-16 -3.4098743e-16 3.0098842e-16 1.9344177e-16 -2.581413e-16 -3.127303e-16
-2.3169342e-16 6.8021054e-17 2.2799067e-16 -4.670458e-16 -4.042387e-16 1.7802897e-16 -2.752464e-16 2.5155108e-16
3.4082205e-16 -3.0009866e-16 -3.3289017e-16 -1.8245627e-16 3.0647199e-18 -9.950499e-17 -3.433915e-16 -1.9226633e-16
-1.2021945e-16 -5.7735996e-17 -1.577296e-16 -1.0711872e-16 -1.9717472e-12 -1.9680757e-12 -2.1420968e-12 -1.9680251e-12
-1.9678276e-12 2.1159624e-12 -1.9703046e-12 -2.1572273e-12 2.2248915e-12 -2.1204386e-12 -1.969625e-12 -2.1586387e-12
-1.9588454e-12 -1.730516e-12 -1.9690215e-12 -1.970992e-12 -2.2420913e-12 -2.1363501e-12 -2.1419273e-12 -1.9684525e-12
-2.1223156e-12 -2.122537e-12 -2.0729505e-12 -2.122536e-12 -2.1223756e-12 2.0867622e-12 -2.122544e-12 -1.9007842e-12
-2.0087944e-12 -2.0539677e-12 -2.12247e-12 -1.868329e-12 -2.1219808e-12 2.4159126e-14 -2.1223735e-12 -2.122582e-12
2.083086e-12 -1.988554e-12 -2.0714055e-12 -2.122339e-12 -4.285017e-14 -4.177851e-14 -4.273548e-14 -4.2741635e-14
-4.263978e-14 4.316822e-14 -4.2885373e-14 4.1950035e-14 4.3184335e-14 -1.8736284e-14 -4.2783065e-14 -4.3201614e-14
1.7309601e-16 1.6386759e-16 -4.278537e-14 -4.2887643e-14 -4.2806684e-14 -4.2988592e-14 -4.278733e-14 -4.129865e-14
-2.1852598e-12 -2.1867395e-12 -2.0319323e-12 -2.1870984e-12 -2.1872107e-12 2.1240054e-12 -2.1841214e-12 -1.6749082e-12
-1.7936426e-12 -2.1708373e-12 -2.185773e-12 -1.2269637e-12 -2.1867477e-12 6.0308856e-15 -2.1862531e-12 -2.1851804e-12
1.9649278e-12 -1.8293863e-12 -1.5790506e-12 -2.187115e-12 -7.3531985e-13 -7.3532776e-13 -7.2476026e-13 -7.353158e-13
-7.3521435e-13 7.337451e-13 -7.3553707e-13 -7.2345813e-13 5.9374126e-13 -4.5221718e-13 -7.355688e-13 -6.8860065e-13
-7.349845e-13 7.454013e-16 -7.351067e-13 -7.355271e-13 7.299943e-13 -7.3307126e-13 -7.152514e-13 -7.354121e-13
-3.7742226e-16 -2.3900393e-16 6.8330644e-18 -4.2698656e-16 -1.06507134e-16 2.546859e-16 -1.10081275e-16 4.1954024e-16
6.9070926e-16 -3.3175795e-16 -3.7987525e-16 -3.8841146e-16 4.841186e-17 3.2260674e-16 -3.561211e-16 -2.998748e-16
1.706204e-17 9.03612e-17 -4.9757792e-17 -2.8856846e-16 1.4936882 1.4944174 0.50188726 1.4946736
1.4945594 0.501889 1.4941467 -0.49886438 3.8857832 0.50189424 1.4945896 1.4942702
-6.2146873 0.49660376 1.4942945 1.494148 -5.138767 0.5018872 1.4941025 1.493969
-9.487536e-16 -1.0838343e-15 -3.6323397e-17 -2.5713606e-15 -5.713737e-16 2.5922416e-15 -1.2516135e-15 2.3080824e-15
1.3459554e-15 -1.1104229e-15 -1.3543913e-15 -1.240869e-15 3.2800054e-16 1.9898824e-16 -1.0364686e-15 -1.1755361e-15
00000000: 7e32 bf3f 4c4a bf3f 4076 003f b552 bf3f
00000010: f94e bf3f 5f76 003f 8441 bf3f ca47 ffbe
00000020: 59af 7840 ef76 003f fc4f bf3f 6445 bf3f
00000030: fedf c6c0 ed76 fe3e 6046 bf3f 9441 bf3f
00000040: ec71 a4c0 4376 003f 1a40 bf3f 193c bf3f
00000050: d0aa 47ab 1395 47ab 98ab 42ab 83ae 47ab
00000060: 939e 47ab c05b 462b 3dab 47ab 1303 12ab
00000070: 229f 182b 1830 51aa 02a4 47ab a5c1 00ab
00000080: d483 47ab e104 a826 99a7 47ab b9b7 47ab
00000090: eaaa 3e2b 84f2 21ab 63ed 37ab 0f9c 47ab
000000a0: fe99 47ab 88b7 47ab b97d 47ab 8daf 47ab
000000b0: eaad 47ab a55c 472b 5cb5 47ab da31 47ab
000000c0: f550 452b ef8b 38ab 00a6 47ab d05d 3aab
000000d0: 5985 47ab 7ade 6028 d6a6 47ab b6a6 47ab
000000e0: db19 472b 38c8 43ab 7ec0 44ab d8b4 47ab
000000f0: c920 a3a5 0763 92a5 0a29 5e25 819f bea5
00000100: 30be 9625 e975 2326 ebab 5ba6 6fe5 98a4
00000110: 66b4 a325 5047 7ba6 b5b2 87a5 042f 1da5
00000120: 2748 06a5 d1b4 b723 49bf 78a5 dd90 c4a5
00000130: 0d82 ad25 ef05 5f25 efce 94a5 d946 b4a5
00000140: ea8f 85a5 8bd8 9c24 7c6d 8325 e69d 06a6
00000150: 1a07 e9a5 e140 4d25 33ab 9ea5 6302 9125
00000160: 7578 c425 bffe aca5 ebe5 bfa5 965b 52a5
00000170: ec22 6222 6171 e5a4 a4f3 c5a5 01ab 5da5
00000180: 859a 0aa5 5121 85a4 90d9 35a5 bbff f6a4
00000190: d7bf 0aac b37d 0aac 96bc 16ac ca7c 0aac
000001a0: 3b79 0aac cae5 142c daa5 0aac 27cd 17ac
000001b0: 1590 1c2c 6d36 15ac 9c99 0aac 94e6 17ac
000001c0: 6cd7 09ac 698c f3ab bd8e 0aac 3cb2 0aac
000001d0: edc5 1dac 1055 16ac 88b9 16ac 7d84 0aac
000001e0: 3d58 15ac 3a5c 15ac f5de 11ac 365c 15ac
000001f0: 5259 15ac c4d7 122c 5a5c 15ac 7cc1 05ac
00000200: 395b 0dac fe88 10ac 055b 15ac d378 03ac
00000210: 3552 15ac 279b d928 4859 15ac 0a5d 15ac
00000220: 8b95 122c 9bee 0bac 20c3 11ac a958 15ac
00000230: e2fa 40a9 5827 3ca9 a776 40a9 c07d 40a9
00000240: 5208 40a9 9269 4229 7823 41a9 19ed 3c29
00000250: 267c 4229 eec2 a8a8 84ad 40a9 1290 42a9
00000260: ed90 4725 2ded 3c25 2cb0 40a9 1626 41a9
00000270: bfc8 40a9 799a 41a9 6fb2 40a9 1afe 39a9
00000280: 24c6 19ac cce0 19ac 0afc 0eac 43e7 19ac
00000290: 49e9 19ac ae76 152c a2b1 19ac edb8 ebab
000002a0: c96e fcab 54c2 18ac 63cf 19ac 07ae acab
000002b0: f2e0 19ac 1a49 d927 09d8 19ac b6c4 19ac
000002c0: fe44 0a2c 4bbb 00ac 4b3b deab 90e7 19ac
000002d0: 61f9 4eab f3f9 4eab 7b00 4cab 16f9 4eab
000002e0: c7f1 4eab e887 4e2b 0809 4fab a7a2 4bab
000002f0: 911f 272b 5d93 feaa 510b 4fab e8d2 41ab
00000300: 37e1 4eab e8d8 5626 05ea 4eab 5008 4fab
00000310: a279 4d2b 5a57 4eab 4c53 49ab 0700 4fab
00000320: b291 d9a5 c1c6 89a5 7818 fc22 1824 f6a5
00000330: b796 f5a4 01d1 9225 84d4 fda4 36d9 f125
00000340: 5915 4726 d53e bfa5 b1fb daa5 6ae7 dfa5
00000350: a342 5f24 5af8 b925 334a cda5 b6dd aca5
00000360: 9a5e 9d23 d65b d024 a277 65a4 3059 a6a5
00000370: 2d31 bf3f 1249 bf3f af7b 003f 7751 bf3f
00000380: b94d bf3f cc7b 003f 3340 bf3f 276b ffbe
00000390: acb0 7840 247c 003f b64e bf3f 3f44 bf3f
000003a0: b8de c6c0 d942 fe3e 0b45 bf3f 3e40 bf3f
000003b0: c770 a4c0 ae7b 003f c03e bf3f 603a bf3f
000003c0: d4ba 88a6 6e32 9ca6 1983 27a4 3b49 39a7
000003d0: f0af 24a6 6bca 3a27 6360 b4a6 9b50 2627
000003e0: fdf8 c126 6007 a0a6 3830 c3a6 fcd3 b2a6
000003f0: 5614 bd25 f66a 6525 f15e 95a6 a169 a9a6

fc3.bias f4 [20]
0.5562154 -6.332081e-13 -6.9953093e-13 -2.4282513e-16 3.514383e-16 -2.157854e-12 -1.935548e-12 -4.273548e-14
-1.392082e-12 -7.296275e-13 4.9334024e-17 0.5562906 -2.2713898e-15 1.2128134 -2.1275117e-12 1.2128011
3.089409e-16 1.2127819 1.212821 7.7335465e-17
00000000: 2264 0e3f 743b 32ab 84e6 44ab aafa 8ba5
00000010: 2497 ca25 71d8 17ac bc33 08ac a776 40a9
00000020: 0aeb c3ab 345f 4dab 5683 6324 1069 0e3f
00000030: bfab 23a7 783d 9b3f d8b5 15ac 113d 9b3f
00000040: a117 b225 703c 9b3f b83d 9b3f cd52 b224

fc4.weight f4 [1, 20]
3.2567792 -1.2014664 -1.2014655 -1.2014662 -1.2014666 1.201441 -1.2014652 -1.2014652
-1.2014655 -1.2014656 -1.2014664 3.2566664 -1.2014661 2.6637719 -1.2014654 2.6637735
-1.2014662 2.6637752 2.6637676 -1.2014651
00000000: 126f 5040 a7c9 99bf 9fc9 99bf a5c9 99bf
00000010: a8c9 99bf d2c8 993f 9dc9 99bf 9dc9 99bf
00000020: 9fc9 99bf a0c9 99bf a7c9 99bf 396d 5040
00000030: a4c9 99bf 3d7b 2a40 9ec9 99bf 447b 2a40
00000040: a5c9 99bf 4b7b 2a40 2b7b 2a40 9cc9 99bf

bn1.weight f4 [200]
0.66649383 3.7567634e-16 -0.000113386806 3.7567634e-16 0.6640259 -0.66670394 0.6640262 0.6640257
0.66402596 -0.00010831822 3.7567634e-16 2.312266e-05 3.7567634e-16 3.7567634e-16 5.7981983e-05 0.66402656
0.6640264 -1.4828048 0.6640265 3.7567634e-16 3.7567634e-16 3.7567634e-16 0.66402614 3.7567634e-16
-0.00028695771 0.0005429886 -0.0009571769 0.66402626 3.7567634e-16 1.46747 3.7567634e-16 3.7567634e-16
3.7567634e-16 3.7567634e-16 -0.66692513 -3.4987133e-05 4.853694 3.7567634e-16 -0.6640263 -0.00047090097
-0.0003611556 3.7567634e-16 3.7567634e-16 0.66402614 0.6640262 0.6640261 3.7567634e-16 0.66402626
0.66402656 3.7567634e-16 0.6640272 -5.605456e-05 6.236738e-05 3.7567634e-16 3.7567634e-16 3.7567634e-16
3.7567634e-16 -4.278499e-05 3.7567634e-16 -0.6640263 3.7567634e-16 0.6712548 0.664026 3.7567634e-16
3.7567634e-16 0.00010814777 3.7567634e-16 -0.0005777418 0.6640264 3.7567634e-16 4.2174444 9.135992e-05
3.7567634e-16 3.7567634e-16 -0.6667525 0.6640268 0.66402596 3.7567634e-16 0.6673074 -0.664026
3.7567634e-16 -0.66402537 0.6640258 3.7567634e-16 0.0011958781 3.7567634e-16 3.7567634e-16 -0.66402614
0.66402596 0.6640263 -0.6640261 3.7567634e-16 3.7567634e-16 3.7567634e-16 2.5280719 0.6640265
0.66402626 0.664026 3.7567634e-16 2.2498765 0.66402626 0.0006795015 3.7567634e-16 -0.6675123
7.86039e-05 0.66402626 3.7567634e-16 3.7567634e-16 3.7567634e-16 3.7567634e-16 1.4959108 3.7567634e-16
0.6640262 3.7567634e-16 -0.0009575789 3.7567634e-16 3.7567634e-16 3.7567634e-16 3.7567634e-16 -0.0015590482
3.7567634e-16 0.66402674 3.7567634e-16 -0.66402596 3.7567634e-16 0.66402656 3.7567634e-16 0.0013355243
1.4456937 3.7567634e-16 3.7567634e-16 3.7567634e-16 3.7567634e-16 2.1607974 0.6640263 3.7567634e-16
3.7567634e-16 3.7567634e-16 3.7567634e-16 3.7567634e-16 3.7567634e-16 3.7567634e-16 -0.664026 0.66402626
-0.6640263 3.7567634e-16 3.7567634e-16 1.9181931 3.7567634e-16 3.7567634e-16 3.7567634e-16 3.7567634e-16
2.6777902 3.7567634e-16 -0.0005413996 3.7567634e-16 3.7567634e-16 3.7567634e-16 3.7567634e-16 0.6640262
3.7567634e-16 3.7567634e-16 -0.66402626 0.6640263 0.6664431 3.7567634e-16 0.66402644 3.7567634e-16
3.7567634e-16 3.7567634e-16 -4.184631 0.9004686 0.6640265 3.7567634e-16 3.7567634e-16 3.7567634e-16
-0.6640265 -0.0014583183 -0.6640263 -1.7757236e-16 -0.66402614 0.00014934453 0.00044926 0.6640268
0.6640263 0.6640261 -0.0009016703 3.7567634e-16 0.6640264 3.7567634e-16 3.7567634e-16 -0.0003931506
3.7567634e-16 3.7567634e-16 3.7567634e-16 -0.00055850623 1.4066532 3.7567634e-16 -0.66629255 -0.6640254
00000000: 579f 2a3f 0b90 d825 14ca edb8 0b90 d825
00000010: 9afd 293f 1cad 2abf 9ffd 293f 97fd 293f
00000020: 9bfd 293f e728 e3b8 0b90 d825 89f7 c137
00000030: 0b90 d825 0b90 d825 ae31 7338 a5fd 293f
00000040: a2fd 293f 8ccc bdbf a4fd 293f 0b90 d825
00000050: 0b90 d825 0b90 d825 9efd 293f 0b90 d825
00000060: d072 96b9 5957 0e3a 0eeb 7aba a0fd 293f
00000070: 0b90 d825 0fd6 bb3f 0b90 d825 0b90 d825
00000080: 0b90 d825 0b90 d825 9bbb 2abf 26bf 12b8
00000090: 7651 9b40 0b90 d825 a1fd 29bf 42e3 f6b9
000000a0: 7c59 bdb9 0b90 d825 0b90 d825 9efd 293f
000000b0: 9ffd 293f 9dfd 293f 0b90 d825 a0fd 293f
000000c0: a5fd 293f 0b90 d825 b0fd 293f 201c 6bb8
000000d0: 3bcb 8238 0b90 d825 0b90 d825 0b90 d825
000000e0: 0b90 d825 0874 33b8 0b90 d825 a1fd 29bf
000000f0: 0b90 d825 5bd7 2b3f 9cfd 293f 0b90 d825
00000100: 0b90 d825 64cd e238 0b90 d825 9973 17ba
00000110: a2fd 293f 0b90 d825 4ef5 8640 7c98 bf38
00000120: 0b90 d825 0b90 d825 4bb0 2abf a9fd 293f
00000130: 9bfd 293f 0b90 d825 a8d4 2a3f 9cfd 29bf
00000140: 0b90 d825 91fd 29bf 98fd 293f 0b90 d825
00000150: 03bf 9c3a 0b90 d825 0b90 d825 9efd 29bf
00000160: 9bfd 293f a1fd 293f 9dfd 29bf 0b90 d825
00000170: 0b90 d825 0b90 d825 eecb 2140 a4fd 293f
00000180: a0fd 293f 9cfd 293f 0b90 d825 fafd 0f40
00000190: a0fd 293f 9320 323a 0b90 d825 16e2 2abf
000001a0: 26d8 a438 a0fd 293f 0b90 d825 0b90 d825
000001b0: 0b90 d825 0b90 d825 017a bf3f 0b90 d825
000001c0: 9ffd 293f 0b90 d825 0806 7bba 0b90 d825
000001d0: 0b90 d825 0b90 d825 0b90 d825 fa58 ccba
000001e0: 0b90 d825 a8fd 293f 0b90 d825 9bfd 29bf
000001f0: 0b90 d825 a5fd 293f 0b90 d825 c20c af3a
00000200: 7e0c b93f 0b90 d825 0b90 d825 0b90 d825
00000210: 0b90 d825 814a 0a40 a1fd 293f 0b90 d825
00000220: 0b90 d825 0b90 d825 0b90 d825 0b90 d825
00000230: 0b90 d825 0b90 d825 9cfd 29bf a0fd 293f
00000240: a1fd 29bf 0b90 d825 0b90 d825 5a87 f53f
00000250: 0b90 d825 0b90 d825 0b90 d825 0b90 d825
00000260: ea60 2b40 0b90 d825 b6ec 0dba 0b90 d825
00000270: 0b90 d825 0b90 d825 0b90 d825 9ffd 293f
00000280: 0b90 d825 0b90 d825 a0fd 29bf a1fd 293f
00000290: 049c 2a3f 0b90 d825 a3fd 293f 0b90 d825
000002a0: 0b90 d825 0b90 d825 7fe8 85c0 1c85 663f
000002b0: a4fd 293f 0b90 d825 0b90 d825 0b90 d825
000002c0: a4fd 29bf 0b25 bfba a1fd 29bf 1cba 4ca5
000002d0: 9efd 29bf 5e99 1c39 a88a eb39 a9fd 293f
000002e0: a1fd 293f 9dfd 293f 125e 6cba 0b90 d825
000002f0: a2fd 293f 0b90 d825 0b90 d825 c81f ceb9
00000300: 0b90 d825 0b90 d825 0b90 d825 b868 12ba
00000310: 360d b43f 0b90 d825 2692 2abf 92fd 29bf

bn1.bias f4 [200]
-0.66649467 -5.504815e-05 0.00011325735 -0.664026 -0.6640262 0.66670454 -0.66402644 -0.66402626
-0.66402626 0.00010816825 -0.664026 -2.3049173e-05 -0.66402644 0.66402614 -5.7989455e-05 -0.6640264
-0.6640264 -0.9971077 -0.66402644 -0.66402614 0.66402626 0.6667087 -0.66402614 0.66402626
0.00028686796 -0.0005428995 0.0009570929 -0.6640264 -0.66402626 0.9391886 -0.6640261 -0.6640263
-0.6640264 0.00012428404 0.66692513 3.499685e-05 0.55384415 0.66402626 0.6640261 0.00047096243
0.0003612013 0.6640263 0.66402596 -0.6640261 -0.6640264 -0.66402596 -0.66402614 -0.6640262
-0.6640264 -0.6640261 -0.6640271 5.606089e-05 -6.234008e-05 0.664026 0.66402596 -6.0207567e-05
-0.6707197 4.286511e-05 -0.6640263 0.6640262 -0.66402644 -0.6712552 -0.66402644 0.66402626
0.66402614 -0.00010818831 -0.6640261 0.00057786773 -0.664026 0.6640263 0.5178034 -9.137791e-05
0.66402614 0.6640264 0.66675264 -0.6640262 -0.6640265 0.6640264 -0.6673073 0.66402644
0.6640264 0.66402584 -0.664026 -0.6640262 -0.0011958131 -0.6640262 -0.66402614 0.6640263
-0.6640261 -0.6640263 0.66402614 0.6640263 -9.780101e-05 0.6640263 0.858336 -0.66402626
-0.6640263 -0.66402614 0.66402626 0.8732686 -0.66402626 -0.00067949324 -0.6640263 0.66751266
-7.854393e-05 -0.6640262 -0.6640265 0.6640263 0.66402614 7.633463e-05 0.5636221 -0.664026
-0.6640259 6.180628e-05 0.0009575827 -0.0004208281 -0.6640263 0.66402644 -0.6640262 0.00155917
0.66402626 -0.6640263 -0.6640264 0.66402626 0.6640262 -0.664026 0.6640264 -0.0013355808
0.6780829 -0.66402686 0.6640264 -0.6668974 0.0005870287 0.7990751 -0.6640264 -0.6640259
-0.66402626 0.664026 -0.664026 0.66402644 0.66402626 0.66402674 0.664026 -0.6640264
0.664026 0.66402626 -0.6640265 -0.5939493 -0.6640263 -0.6640262 -0.6640262 0.66402626
0.8995585 -0.0011760494 0.0005414119 0.6640263 -0.666482 -0.66402626 -0.6640264 -0.6640263
-0.66402614 0.6640261 0.66402614 -0.66402626 -0.6664432 0.66402626 -0.6640267 -0.66402596
-0.66402626 0.6640262 -1.3131069 0.59313196 -0.664026 0.6640264 -3.0855183e-05 -0.0012855472
0.66402644 0.0014582968 0.664026 0.6640264 0.66402626 -0.00014924667 -0.00044925246 -0.6640263
-0.66402614 -0.66402614 -0.0010909267 -0.0004463679 -0.6640264 -0.00034742826 -0.66402644 -0.0026473626
-0.66402614 -0.6640263 -0.6640261 0.00055859913 0.66650414 -0.6640265 0.66629285 0.6640257
00000000: 659f 2abf 80e3 66b8 9484 ed38 9cfd 29bf
00000010: 9ffd 29bf 26ad 2a3f a3fd 29bf a0fd 29bf
00000020: a0fd 29bf 63d8 e238 9cfd 29bf b959 c1b7
00000030: a3fd 29bf 9efd 293f b439 73b8 a2fd 29bf
00000040: a2fd 29bf 7342 7fbf a3fd 29bf 9efd 29bf
00000050: a0fd 293f 6cad 2a3f 9efd 29bf a0fd 293f
00000060: c466 9639 5e51 0eba 6be5 7a3a a2fd 29bf
00000070: a0fd 29bf aa6e 703f 9dfd 29bf a1fd 29bf
00000080: a2fd 29bf 3e52 0239 9bbb 2a3f 95c9 1238
00000090: bbc8 0d3f a0fd 293f 9dfd 293f 82eb f639
000000a0: 9e5f bd39 a1fd 293f 9bfd 293f 9dfd 29bf
000000b0: a2fd 29bf 9bfd 29bf 9efd 29bf 9ffd 29bf
000000c0: a2fd 29bf 9dfd 29bf aefd 29bf ec22 6b38
000000d0: 93bc 82b8 9cfd 293f 9bfd 293f 6287 7cb8
000000e0: 49b4 2bbf 10ca 3338 a1fd 29bf 9ffd 293f
000000f0: a3fd 29bf 61d7 2bbf a3fd 29bf a0fd 293f
00000100: 9efd 293f 28e3 e2b8 9dfd 29bf 0c7c 173a
00000110: 9cfd 29bf a1fd 293f c38e 043f 24a2 bfb8
00000120: 9efd 293f a2fd 293f 4db0 2a3f 9ffd 29bf
00000130: a4fd 29bf a2fd 293f a7d4 2abf a3fd 293f
00000140: a2fd 293f 99fd 293f 9cfd 29bf 9ffd 29bf
00000150: d4bc 9cba 9ffd 29bf 9efd 29bf a1fd 293f
00000160: 9dfd 29bf a1fd 29bf 9efd 293f a1fd 293f
00000170: 841a cdb8 a1fd 293f e8bb 5b3f a0fd 29bf
00000180: a1fd 29bf 9efd 29bf a0fd 293f 888e 5f3f
00000190: a0fd 29bf 0520 32ba a1fd 29bf 1ce2 2a3f
000001a0: f4b7 a4b8 9ffd 29bf a4fd 29bf a1fd 293f
000001b0: 9efd 293f d815 a038 8a49 103f 9cfd 29bf
000001c0: 9afd 29bf fe9d 8138 4a06 7b3a 97a2 dcb9
000001d0: a1fd 29bf a3fd 293f 9ffd 29bf 105d cc3a
000001e0: a0fd 293f a1fd 29bf a2fd 29bf a0fd 293f
000001f0: 9ffd 293f 9cfd 29bf a2fd 293f a80e afba
00000200: d796 2d3f aafd 29bf a2fd 293f cab9 2abf
00000210: d4e2 193a 3090 4c3f a2fd 29bf 9afd 29bf
00000220: a0fd 29bf 9cfd 293f 9cfd 29bf a3fd 293f
00000230: a0fd 293f a8fd 293f 9cfd 293f a2fd 29bf
00000240: 9cfd 293f a0fd 293f a4fd 29bf 100d 18bf
00000250: a1fd 29bf 9ffd 29bf 9ffd 29bf a0fd 293f
00000260: 7749 663f ab25 9aba 8aed 0d3a a1fd 293f
00000270: 909e 2abf a0fd 29bf a2fd 29bf a1fd 29bf
00000280: 9efd 29bf 9dfd 293f 9efd 293f a0fd 29bf
00000290: 069c 2abf a0fd 293f a7fd 29bf 9bfd 29bf
000002a0: a0fd 29bf 9ffd 293f e313 a8bf 7fd7 173f
000002b0: 9cfd 29bf a2fd 293f 806a 01b8 ce7f a8ba
000002c0: a3fd 293f 5224 bf3a 9cfd 293f a2fd 293f
000002d0: a0fd 293f 197f 1cb9 a589 ebb9 a1fd 29bf
000002e0: 9efd 29bf 9efd 29bf 6dfd 8eba 7c06 eab9
000002f0: a2fd 29bf 0827 b6b9 a3fd 29bf 607f 2dbb
00000300: 9efd 29bf a1fd 29bf 9dfd 29bf f46e 123a
00000310: 04a0 2a3f a4fd 29bf 2b92 2a3f 97fd 293f

bn1.running_mean f4 [200]
176.65294 0.0 0.08848313 0.0 7.2052426 188.06195 15.1746025 140.57555
88.99364 64.334145 0.0 157.29521 0.0 0.0 136.75389 141.20433
70.39612 149.96301 12.938963 0.0 0.0 0.0 8.768059 0.0
109.01825 140.3898 140.64085 26.342754 0.0 168.03012 0.0 0.0
0.0 0.0 190.76115 176.26306 49.754845 0.0 51.491867 130.98636
155.18704 0.0 0.0 25.586376 10.003881 93.84777 0.0 90.012726
4.447255 0.0 91.64243 54.80664 85.28742 0.0 0.0 0.0
0.0 0.089108855 0.0 7.5820794 0.0 174.01747 136.38757 0.0
0.0 168.52112 0.0 0.27166936 68.68302 0.0 66.15883 57.062687
0.0 0.0 140.13326 98.68599 59.39871 0.0 102.13876 57.68011
0.0 49.071976 11.776255 0.0 179.58203 0.0 0.0 1.63235
67.479836 10.44905 1.5923115 0.0 0.0 0.0 106.83107 58.714912
51.070576 9.41806 0.0 121.59559 44.15685 181.45969 0.0 0.0026232596
96.747314 5.6552124 0.0 0.0 0.0 0.0 112.93519 0.0
112.13594 0.0 78.31267 0.0 0.0 0.0 0.0 165.009
0.0 16.09061 0.0 11.885495 0.0 1.1165861 0.0 61.059658
95.05977 0.0 0.0 0.0 0.0 140.77005 11.868807 0.0
0.0 0.0 0.0 0.0 0.0 0.0 44.157505 117.1483
77.25144 0.0 0.0 105.81367 0.0 0.0 0.0 0.0
88.44106 0.0 0.59970117 0.0 0.0 0.0 0.0 70.37045
0.0 0.0 5.3041854 10.213388 140.90662 0.0 137.22562 0.0
0.0 0.0 59.183754 53.432186 85.61732 0.0 0.0 0.0
40.51477 114.83068 115.24762 0.0 5.538825 136.14177 67.582054 8.262515
51.408672 61.82543 172.611 0.0 10.493453 0.0 0.0 115.14366
0.0 0.0 0.0 124.755516 83.06646 0.0 122.39844 124.52264
00000000: 27a7 3043 0000 0000 a536 b53d 0000 0000
00000010: 5991 e640 dc0f 3c43 2ccb 7241 5793 0c43
00000020: befc b142 15ab 8042 0000 0000 934b 1d43
00000030: 0000 0000 0000 0000 ffc0 0843 4f34 0d43
00000040: d0ca 8c42 88f6 1543 fe05 4f41 0000 0000
00000050: 0000 0000 0000 0000 f849 0c41 0000 0000
00000060: 5809 da42 ca63 0c43 0fa4 0c43 f6bd d241
00000070: 0000 0000 b607 2843 0000 0000 0000 0000
00000080: 0000 0000 0000 0000 dbc2 3e43 5843 3043
00000090: f604 4742 0000 0000 acf7 4d42 82fc 0243
000000a0: e22f 1b43 0000 0000 0000 0000 e6b0 cc41
000000b0: e60f 2041 0fb2 bb42 0000 0000 8406 b442
000000c0: ea4f 8e40 0000 0000 ed48 b742 003a 5b42
000000d0: 2993 aa42 0000 0000 0000 0000 0000 0000
000000e0: 0000 0000 b47e b63d 0000 0000 65a0 f240
000000f0: 0000 0000 7904 2e43 3863 0843 0000 0000
00000100: 0000 0000 6885 2843 0000 0000 3f18 8b3e
00000110: b55d 8942 0000 0000 5251 8442 3140 6442
00000120: 0000 0000 0000 0000 1d22 0c43 3a5f c542
00000130: 4798 6d42 0000 0000 0c47 cc42 6fb8 6642
00000140: 0000 0000 b449 4442 8a6b 3c41 0000 0000
00000150: 0095 3343 0000 0000 0000 0000 d8f0 d03f
00000160: adf5 8642 4f2f 2741 ddd0 cb3f 0000 0000
00000170: 0000 0000 0000 0000 82a9 d542 12dc 6a42
00000180: 4548 4c42 60b0 1641 0000 0000 f130 f342
00000190: 9da0 3042 ae75 3543 0000 0000 feea 2b3b
000001a0: a07e c142 80f7 b440 0000 0000 0000 0000
000001b0: 0000 0000 0000 0000 d1de e142 0000 0000
000001c0: 9a45 e042 0000 0000 16a0 9c42 0000 0000
000001d0: 0000 0000 0000 0000 0000 0000 4e02 2543
000001e0: 0000 0000 92b9 8041 0000 0000 fd2a 3e41
000001f0: 0000 0000 4bec 8e3f 0000 0000 173d 7442
00000200: 9a1e be42 0000 0000 0000 0000 0000 0000
00000210: 0000 0000 22c5 0c43 a2e6 3d41 0000 0000
00000220: 0000 0000 0000 0000 0000 0000 0000 0000
00000230: 0000 0000 0000 0000 49a1 3042 ee4b ea42
00000240: bd80 9a42 0000 0000 0000 0000 99a0 d342
00000250: 0000 0000 0000 0000 0000 0000 0000 0000
00000260: d3e1 b042 0000 0000 0486 193f 0000 0000
00000270: 0000 0000 0000 0000 0000 0000 acbd 8c42
00000280: 0000 0000 0000 0000 e3bb a940 0a6a 2341
00000290: 18e8 0c43 0000 0000 c239 0943 0000 0000
000002a0: 0000 0000 0000 0000 2abc 6c42 8fba 5542
000002b0: 113c ab42 0000 0000 0000 0000 0000 0000
000002c0: 200f 2242 4fa9 e542 c87e e642 0000 0000
000002d0: 0e3e b140 4b24 0843 032a 8742 4333 0441
000002e0: 7ba2 4d42 3e4d 7742 6a9c 2c43 0000 0000
000002f0: 2fe5 2741 0000 0000 0000 0000 8e49 e642
00000300: 0000 0000 0000 0000 0000 0000 d382 f942
00000310: 0722 a642 0000 0000 00cc f442 970b f942

bn1.running_var f4 [200]
387.57022 0.6561 1.6193547 0.6561 6.596664 1252.0087 171.16 965.63684
1436.9722 365.8851 0.6561 434.16626 0.6561 0.6561 443.46533 527.46454
719.53345 958.14545 3.7557783 0.6561 0.6561 0.6561 6.1246586 0.6561
518.55035 370.288 322.93472 63.483475 0.6561 329.70975 0.6561 0.6561
0.6561 0.6561 358.33887 375.36346 506.81937 0.6561 1026.8928 545.1706
309.18616 0.6561 0.6561 50.370007 3.7618015 134.1655 0.6561 357.82602
3.700906 0.6561 902.80023 465.0553 751.2109 0.6561 0.6561 0.6561
0.6561 1.0910659 0.6561 2.5934331 0.6561 730.3036 547.30566 0.6561
0.6561 308.22897 0.6561 1.9704237 292.55594 0.6561 789.0858 636.24664
0.6561 0.6561 118.20998 431.78497 509.7657 0.6561 550.5186 700.5972
0.6561 761.25214 4.6537313 0.6561 489.74442 0.6561 0.6561 6.750854
599.9955 8.7034855 9.454057 0.6561 0.6561 0.6561 490.41443 391.38812
420.55447 10.784232 0.6561 539.7476 358.6568 1704.9646 0.6561 0.6592696
584.89886 4.2376266 0.6561 0.6561 0.6561 0.6561 1090.1256 0.6561
452.64923 0.6561 1071.2789 0.6561 0.6561 0.6561 0.6561 1794.7291
0.6561 12.374314 0.6561 4.0731654 0.6561 10.001005 0.6561 278.87515
448.59073 0.6561 0.6561 0.6561 0.6561 276.3499 2.9616866 0.6561
0.6561 0.6561 0.6561 0.6561 0.6561 0.6561 565.72705 293.2454
1324.0875 0.6561 0.6561 446.18582 0.6561 0.6561 0.6561 0.6561
290.46783 0.6561 3.3164315 0.6561 0.6561 0.6561 0.6561 847.8506
0.6561 0.6561 3.1745253 3.1771 244.10947 0.6561 619.8793 0.6561
0.6561 0.6561 963.27673 1003.4009 257.1006 0.6561 0.6561 0.6561
914.51587 1173.287 184.94083 0.6561 9.4861 508.6511 519.82007 2.9887233
590.218 357.74976 408.4206 0.6561 2.3205023 0.6561 0.6561 1035.6388
0.6561 0.6561 0.6561 961.7849 494.15338 0.6561 1122.1221 469.54117
00000000: fdc8 c143 2bf6 273f 0447 cf3f 2bf6 273f
00000010: df17 d340 4780 9c44 f628 2b43 c268 7144
00000020: 1c9f b344 4bf1 b643 2bf6 273f 4815 d943
00000030: 2bf6 273f 2bf6 273f 90bb dd43 bbdd 0344
00000040: 24e2 3344 4f89 6f44 ac5e 7040 2bf6 273f
00000050: 2bf6 273f 2bf6 273f 34fd c340 2bf6 273f
00000060: 39a3 0144 dd24 b943 a577 a143 14ef 7d42
00000070: 2bf6 273f d9da a443 2bf6 273f 2bf6 273f
00000080: 2bf6 273f 2bf6 273f 602b b343 86ae bb43
00000090: e168 fd43 2bf6 273f 925c 8044 eb4a 0844
000000a0: d497 9a43 2bf6 273f 2bf6 273f e37a 4942
000000b0: 5bc1 7040 5e2a 0643 2bf6 273f bbe9 b243
000000c0: a5db 6c40 2bf6 273f 37b3 6144 1487 e843
000000d0: 7fcd 3b44 2bf6 273f 2bf6 273f 2bf6 273f
000000e0: 2bf6 273f 0ca8 8b3f 2bf6 273f cffa 2540
000000f0: 2bf6 273f 6e93 3644 90d3 0844 2bf6 273f
00000100: 2bf6 273f 4f1d 9a43 2bf6 273f d836 fc3f
00000110: 2947 9243 2bf6 273f 7e45 4544 c90f 1f44
00000120: 2bf6 273f 2bf6 273f 826b ec42 7ae4 d743
00000130: 02e2 fe43 2bf6 273f 31a1 0944 3926 2f44
00000140: 2bf6 273f 2350 3e44 5eeb 9440 2bf6 273f
00000150: 49df f443 2bf6 273f 2bf6 273f ff06 d840
00000160: b6ff 1544 7a41 0b41 d143 1741 2bf6 273f
00000170: 2bf6 273f 2bf6 273f 0c35 f543 aeb1 c343
00000180: f946 d243 378c 2c41 2bf6 273f d9ef 0644
00000190: 1254 b343 de1e d544 2bf6 273f e4c5 283f
000001a0: 8739 1244 a39a 8740 2bf6 273f 2bf6 273f
000001b0: 2bf6 273f 2bf6 273f 0544 8844 2bf6 273f
000001c0: 1a53 e243 2bf6 273f ede8 8544 2bf6 273f
000001d0: 2bf6 273f 2bf6 273f 2bf6 273f 5557 e044
000001e0: 2bf6 273f 31fd 4541 2bf6 273f 5f57 8240
000001f0: 2bf6 273f 1e04 2041 2bf6 273f 0570 8b43
00000200: 9d4b e043 2bf6 273f 2bf6 273f 2bf6 273f
00000210: 2bf6 273f ca2c 8a43 468c 3d40 2bf6 273f
00000220: 2bf6 273f 2bf6 273f 2bf6 273f 2bf6 273f
00000230: 2bf6 273f 2bf6 273f 886e 0d44 699f 9243
00000240: cd82 a544 2bf6 273f 2bf6 273f c917 df43
00000250: 2bf6 273f 2bf6 273f 2bf6 273f 2bf6 273f
00000260: e23b 9143 2bf6 273f 6a40 5440 2bf6 273f
00000270: 2bf6 273f 2bf6 273f 2bf6 273f 70f6 5344
00000280: 2bf6 273f 2bf6 273f 6c2b 4b40 9b55 4b40
00000290: 061c 7443 2bf6 273f 46f8 1a44 2bf6 273f
000002a0: 2bf6 273f 2bf6 273f b6d1 7044 a8d9 7a44
000002b0: e08c 8043 2bf6 273f 2bf6 273f 2bf6 273f
000002c0: 04a1 6444 2fa9 9244 daf0 3843 2bf6 273f
000002d0: 11c7 1741 5753 fe43 7cf4 0144 3e47 3f40
000002e0: f48d 1344 f8df b243 d635 cc43 2bf6 273f
000002f0: 1c83 1440 2bf6 273f 2bf6 273f 7174 8144
00000300: 2bf6 273f 2bf6 273f 2bf6 273f 3c72 7044
00000310: a213 f743 2bf6 273f e843 8c44 45c5 ea43

bn2.weight f4 [20]
1.618856 1.6184222 -0.98828983 1.6181662 1.6185279 -0.98828655 1.6187887 0.9868534
-3.782819 -0.98828316 1.6183165 1.618798 5.055779 -0.9981931 1.6185808 1.6186287
5.0970206 -0.98828965 1.6183718 1.6187214
00000000: ac36 cf3f 7528 cf3f 9000 7dbf 1220 cf3f
00000010: ec2b cf3f 5900 7dbf 7834 cf3f 6da2 7c3f
00000020: b519 72c0 2000 7dbf ff24 cf3f c634 cf3f
00000030: f1c8 a140 9589 7fbf a82d cf3f 3a2f cf3f
00000040: cb1a a340 8d00 7dbf cf26 cf3f 4332 cf3f

bn2.bias f4 [20]
0.89698577 0.8969416 0.98828936 0.8969228 0.89693356 0.9882862 0.8969592 -0.99271846
0.92413807 0.98828405 0.8969288 0.8969504 -0.8247479 0.99819237 0.89694893 0.89695734
-0.91581583 0.98828965 0.8969551 0.8969681
00000000: dca0 653f f79d 653f 8800 7d3f bc9c 653f
00000010: 709d 653f 5300 7d3f 1e9f 653f cc22 7ebf
00000020: 5094 6c3f 2f00 7d3f 209d 653f 8b9e 653f
00000030: ae22 53bf 8989 7f3f 729e 653f ff9e 653f
00000040: e872 6abf 8d00 7d3f d99e 653f b49f 653f

bn2.running_mean f4 [20]
0.5258401 0.2718062 0.08343327 0.13656817 0.31659186 0.8219073 0.4688341 0.68738335
0.72240436 0.27432266 0.21370365 0.4648392 0.53762144 0.66545826 0.3581775 0.3902312
0.3293047 0.12555373 0.26464573 0.44440508
00000000: 759d 063f 2f2a 8b3e 10df aa3d 87d8 0b3e
00000010: 5418 a23e 8468 523f 060b f03e 5bf8 2f3f
00000020: 7eef 383f 0574 8c3e 21d5 5a3e 67ff ed3e
00000030: 8fa1 093f 795b 2a3f 0b63 b73e 62cc c73e
00000040: a09a a83e 2891 003e a57f 873e 1089 e33e

bn2.running_var f4 [20]
5.055661 2.1805391 0.71356237 1.2467787 2.1740203 1.9283361 3.7397237 1.745896
1.9247954 1.8064685 1.6526388 3.510519 1.6903493 2.2073216 2.8146164 3.2383595
1.693022 0.9560333 2.6275847 3.9222527
00000000: fac7 a140 f48d 0b40 06ac 363f 7296 9f3f
00000010: 2623 0b40 b8d3 f63f a257 6f40 8579 df3f
00000020: b25f f63f 5c3a e73f ab89 d33f 58ac 6040
00000030: 5e5d d83f c244 0d40 ad22 3440 4841 4f40
00000040: f2b4 d83f 99be 743f 592a 2840 3006 7b40

bn3.weight f4 [20]
3.256915 1.2014652 1.201466 1.2014658 1.2014652 -1.2014741 1.201466 1.201466
1.2014655 1.2014661 1.2014655 3.256846 1.2014661 2.663909 1.2014663 2.6638987
1.2014656 2.6639075 2.6639082 1.2014657
00000000: 4c71 5040 9dc9 993f a3c9 993f a2c9 993f
00000010: 9dc9 993f e7c9 99bf a3c9 993f a3c9 993f
00000020: 9fc9 993f a4c9 993f 9fc9 993f 2a70 5040
00000030: a4c9 993f 7c7d 2a40 a6c9 993f 517d 2a40
00000040: a0c9 993f 767d 2a40 797d 2a40 a1c9 993f

bn3.bias f4 [20]
1.236469 -1.201466 -1.2014657 -1.2014657 -1.2014657 1.2014782 -1.2014656 -1.2014662
-1.2014661 -1.2014657 -1.2014657 1.2364509 -1.2014661 1.2321823 -1.201466 1.232174
-1.201466 1.2321635 1.2321868 -1.2014657
00000000: 9e44 9e3f a3c9 99bf a1c9 99bf a1c9 99bf
00000010: a1c9 99bf 0aca 993f a0c9 99bf a5c9 99bf
00000020: a4c9 99bf a1c9 99bf a1c9 99bf 0644 9e3f
00000030: a4c9 99bf 26b8 9d3f a3c9 99bf e1b7 9d3f
00000040: a3c9 99bf 89b7 9d3f 4cb8 9d3f a1c9 99bf

bn3.running_mean f4 [20]
0.08873418 0.24377578 0.13580887 0.18463224 0.17784451 0.35048226 0.27826807 0.26458192
0.25053042 0.22458458 0.31418598 0.16235098 0.18351366 0.21072817 0.38463822 0.15771715
0.18993115 0.18146284 0.2092753 0.19233705
00000000: 44ba b53d 5ca0 793e 7b11 0b3e 3c10 3d3e
00000010: df1c 363e 6972 b33e 2779 8e3e 4877 873e
00000020: 8645 803e 80f9 653e fcdc a03e 563f 263e
00000030: 01eb 3b3e 20c9 573e 4def c43e 9b80 213e
00000040: 507d 423e 65d1 393e 444c 563e 01f4 443e

bn3.running_var f4 [20]
0.7383101 0.83710426 0.71182317 0.7731895 0.71208054 0.9579079 0.7812527 0.89231336
0.80760634 0.8748613 0.91459155 0.96016335 0.74933255 1.3600518 1.0018543 1.070792
0.8341682 1.218884 1.3898422 0.8654236
00000000: e401 3d3f 774c 563f 0b3a 363f bfef 453f
00000010: e94a 363f 7439 753f 2d00 483f a66e 643f
00000020: 4abf 4e3f e9f6 5f3f ac22 6a3f 44cd 753f
00000030: 42d4 3f3f 2d16 ae3f c33c 803f b60f 893f
00000040: 0c8c 553f 6404 9c3f 59e6 b13f 678c 5d3f
