Results/NN_MLP_MLs/MLP_Ensemble/Model_Results/MGTwRD/test3/best_model_1.pt (torch, 116722 bytes, 14 tensors)

country_embedding.weight f4 [8, 10]
00000000: b777 04bf 3df2 69be 4a68 c3be 31f8 dcbf
00000010: 45f3 87be 2a77 b5bd ed50 f5bf b180 17c0
00000020: 07f9 1fbf 1eb0 48bf 5a37 d9be f875 b03f
00000030: 736c d03e 9d71 8cbe 113a e0be a91f 993e
00000040: c7a0 5ebf 823f f5bf c20b c93f 1967 e6be
00000050: f72c fb3f 9aee 9ebf ff37 0ec0 1dc3 1340
00000060: cffc 2540 2765 833f 9cc1 62c0 284c 3bc0
00000070: 2c62 d1bf 27fe cdbf 2c30 ae3e 2858 ae3e
00000080: 6423 a63f 2adf e4be 60ff 833e 657c efbe
00000090: 2e9a 3fbf f2c5 52bf 2e8f ec3e 954d e8bf
000000a0: fa03 2e3f 65db 893f f20e bdbe d528 37bf
000000b0: 9045 f63f 0136 bfbf 3787 843f 2e58 88bf
000000c0: 8f60 f1be 0395 c1be 05c4 b03f 4b61 6fbf
000000d0: 9f6c 4b3e cec8 773f c17c f83f a9c9 3a40
000000e0: 630e 6dbf 5223 913d dd03 4abf b6cd 01c0
000000f0: d13f 0540 1915 35bf 2090 7dc0 1443 92bf
00000100: ea5e d0be 4a83 8ebf 4d8d 91bf 10d4 f5bf
00000110: 48df ef3e 1b55 18bf 5e48 3f40 6587 a03f
00000120: e0ae eebf f3b4 95bf 50f3 06c0 19e8 ecbf
00000130: 2056 e0bf bcb7 e6bf 17e4 c43f 083c 12c0
-0.5174517 -0.22846313 -0.38165504 -1.7263242 -0.26552787 -0.08860619 -1.9165322 -2.3672297
-0.6248936 -0.78393734 -0.42425042 1.3786001 0.4070774 -0.2743043 -0.437943 0.29906967
-0.86964077 -1.9160006 1.5706713 -0.45000532 1.9623097 -1.2416565 -2.2221677 2.3087838
2.5935552 1.0265244 -3.543067 -2.9265232 -1.6358085 -1.6093186 0.34021127 0.34051633
1.297955 -0.4470151 0.25780773 -0.46774593 -0.74844635 -0.8233329 0.46202987 -1.8148676
0.6797482 1.0770079 -0.36925465 -0.7154668 1.9239979 -1.4938356 1.0353764 -1.065191
-0.4714398 -0.37809 1.380982 -0.9350783 0.19865654 0.9679078 1.9413072 2.9185584
-0.9260008 0.07086815 -0.78912145 -2.0281806 2.08202 -0.7073532 -3.9619217 -1.1426721
-0.40697414 -1.1133816 -1.1371247 -1.9205341 0.46850038 -0.5950486 2.988792 1.2541319
-1.8647118 -1.1695846 -2.1086006 -1.850833 -1.7526283 -1.8024821 1.5382107 -2.284914

fc1.weight f4 [200, 114]
00000000: f51c 85be aa4e 473e 0876 14be f104 19bf
00000010: d6af 35be 76c0 2fbd 0764 0bbe ca7d 08be
00000020: a360 883e 35c2 15bc 617a 65be 73c9 afbe
00000030: 0c1e 81be c4fc 8e3e 0f4d 46be 3b25 27be
00000040: e8ae 73bd 5b14 53be 7af4 663e b5e9 cabd
00000050: e8c7 e1bd 755f 08be 09f4 9ebd b421 193d
00000060: 7ed3 853e 1da6 6bbe 01d0 37be b380 abbe
00000070: bf93 4dbe 098d 8c3e 07f4 42bd 0aab 31be
00000080: acc0 48be 73d2 0bbe 8ba9 d8bf 4524 8f3d
00000090: 92ff a6bd 78a7 eabe cd6f adbe 6520 a9be
000000a0: aeed edbd ade8 44be 15e3 bd3e 01ca 7cbe
000000b0: 84a1 92be a452 c8be eb4c abbe d906 7b3e
000000c0: 56fc 8ebe f6af e6bd 62ee 9fbe f56a 90be
000000d0: 7340 b13e 1bf1 0dbc 50f5 0cbe 85e5 49bd
000000e0: 6bc5 91bd 7138 ac3c 3608 843e 1fa0 6abe
000000f0: cfe8 9fbe 3997 b3be 150d a5be 4728 943e
00000100: bf9b 47bd b082 87be 41d5 7ebe 10bd 34bd
00000110: 7559 8ebf d32c 813d 702b 3dbe 43b8 b1be
00000120: c5e4 80be 0dfe d1bd 3a5f 6ebe 1dd6 5abe
00000130: b9c5 763e f554 85be 4312 5bbe b66a dabe
00000140: 6db0 b6be c69d 9c3e a4cc e6bd 4256 12be
00000150: 57f1 053d 540b 4bbe ecd5 6c3e b7f1 bbbd
00000160: 5c94 8abe 7556 22be b6eb 22be 9612 173d
00000170: 7695 ad3e bd65 02be b325 34be 488a 7ebe
00000180: 7fe7 4dbe f923 843e bced 11be be5a 2ebe
00000190: 8cd6 9dbe 3ede a7bd 9659 91bf d58d 97bc
000001a0: 6a76 f9be bc38 dcbe d4b1 dabe e595 313e
000001b0: 1be9 bc3d efa3 203e 357e 883d b44c 0cbe
000001c0: 9518 8cbe 2116 053f b122 55be 4710 aa3e
000001d0: a3d0 05be 54f4 04bf 6bd8 50be 81f1 15bd
000001e0: 1f1d febd f03b 38be e61c a83e e805 45be
000001f0: 1a6f 18be 7478 9dbe 8189 9cbe 772f 8b3e
00000200: 0661 ddbd 58e6 e5bd 30ec debd 8faa 4ebe
00000210: 6675 4a3e e866 b23c 9f6f 32be 6a82 17be
00000220: d5f9 05be 20de ad3c e547 873e d63b 2abe
00000230: 12bf 8ebe 73e5 90be 1668 b9be c0b4 613e
00000240: 223e abbd d9e7 aabe bcc2 9dbe fa2a 94bd
00000250: fad7 d8bf 7568 b53d 0ed2 42be ed3b 12bf
00000260: 09d4 83be a5a6 8bbe 00d0 40be d574 a4bd
00000270: 10ef 3e3e af4f 70be 351b 73be 39c0 e2be
00000280: 73fc b2be f948 883e 8495 93be 0cf4 68be
00000290: bef6 98be 7b64 9bbe 5895 463e 3fb5 e6bd
000002a0: a6f2 a2be f0cd 17be 11a9 f0bd 2877 693d
000002b0: 3335 9b3e 7006 54be ecf3 48be b369 d4be
000002c0: 5911 70be 1e1c b03e e710 0abe d75a 8ebe
000002d0: 0665 4ebe f114 70bd 036f a4bf d0aa bb3d
000002e0: ac56 1bbe 8be1 f3be 6a56 86be 0734 08be
000002f0: fb9d 16be c06f 9cbd 22b5 903e 9ed8 96be
00000300: df1f 5bbe 5e39 b1be 7a8d b0be f122 7a3e
00000310: d36f 52be 4432 6ebe 5298 423c 9da0 6abe
00000320: da88 863e a800 7cbc 4516 33be 827c 4abe
00000330: adc4 6bbe 1287 2f3d 2978 5e3e c818 2ebe
00000340: d09c 66be 8fb8 b2be e6ea 91be 4a25 683e
00000350: 94fd 9cbd 3c28 5bbe 125c 90be 525b 46be
00000360: 3ce3 93bf c20d a93a c697 febe 61cc 01bf
00000370: 71d1 c4be be78 573e ff68 1e3d c1a4 0c3e
00000380: db9a 8f3c f31c f7bd 14a3 71be b958 253f
00000390: 30bf 1c3f 3753 d4be 040b 843e d47f 6cbe
000003a0: a44a dabe 3099 dbbe 74e7 cbbe b0b7 acbe
000003b0: 0365 5f3e 2df0 473e 35da 9abe 4017 b73e
000003c0: a880 b0be d0db a6be e2a6 723e b524 ca3e
000003d0: 5dcf 483e 5b06 1f3e 471f a9bc fc8a a5be
000003e0: 77cd 29bd 14a8 dd3d e575 f4bd cd02 40be
000003f0: 6f1c 203e 5d1c a23e bd19 b83e e0f4 3ebe
-0.25998655 0.19463602 -0.1449815 -0.59773165 -0.17742857 -0.042908154 -0.13612376 -0.13329235
0.26636228 -0.009140541 -0.22409965 -0.3433338 -0.25218236 0.2792722 -0.19365333 -0.16322796
-0.059492975 -0.20613234 0.22554198 -0.09907857 -0.11024457 -0.13317664 -0.0776139 0.037385657
0.26137918 -0.23012586 -0.17950441 -0.33496627 -0.20075892 0.2745135 -0.047596004 -0.17350402
-0.19604748 -0.13654499 -1.692674 0.0698934 -0.08154215 -0.45830894 -0.3387436 -0.33032528
-0.116175994 -0.19229384 0.37087312 -0.24686433 -0.28638852 -0.3912555 -0.3345712 0.24514331
-0.27926892 -0.11264031 -0.3123656 -0.28206602 0.34619483 -0.008663441 -0.13765454 -0.049291153
-0.071177326 0.021023007 0.25787514 -0.22912644 -0.31232306 -0.3507631 -0.32236543 0.2893698
-0.048732515 -0.26466894 -0.24886037 -0.044125617 -1.112105 0.06307378 -0.18473601 -0.34710893
-0.25174537 -0.102535345 -0.23278514 -0.2137074 0.24098863 -0.2604138 -0.21393685 -0.4265954
-0.35681477 0.30589122 -0.11269501 -0.14290717 0.032700863 -0.1982854 0.2312848 -0.09176963
-0.27066314 -0.15853293 -0.15910229 0.03688296 0.33903092 -0.12734123 -0.17592506 -0.24857438
-0.2010784 0.25808695 -0.14250845 -0.17026803 -0.3082775 -0.08196686 -1.1355464 -0.018500248
-0.48723155 -0.43012035 -0.42713797 0.17342336 0.09224149 0.15687536 0.06664697 -0.13701135
-0.27362505 0.5198689 -0.20814015 0.33215544 -0.1306787 -0.51935315 -0.20395057 -0.03660727
-0.12407898 -0.17991614 0.32834548 -0.19240534 -0.14886132 -0.3075596 -0.30573657 0.2718465
-0.108095214 -0.11225575 -0.10884893 -0.2018225 0.19771346 0.021777585 -0.17425393 -0.14795843
-0.13083585 0.021224082 0.2642204 -0.16624388 -0.2788015 -0.28300056 -0.36212224 0.22041607
-0.0836146 -0.3338001 -0.30812633 -0.0723476 -1.6940911 0.08857814 -0.19025442 -0.5712269
-0.25747707 -0.27275577 -0.18829346 -0.080300964 0.18645883 -0.23467897 -0.23740847 -0.4428728
-0.34958228 0.26618174 -0.2882501 -0.22749346 -0.2987575 -0.30350098 0.19392908 -0.11265039
-0.3182575 -0.14824653 -0.11750997 0.056998402 0.30314025 -0.2070558 -0.19624299 -0.41486892
-0.23444118 0.34396452 -0.1348301 -0.2780368 -0.20155725 -0.05861372 -1.2846378 0.09163439
-0.15169781 -0.47633013 -0.26237804 -0.13301097 -0.14708702 -0.07638502 0.28263193 -0.2946214
-0.21398877 -0.3461408 -0.34482938 0.24427392 -0.2055047 -0.23261362 0.011877136 -0.22912832
0.26276284 -0.015381016 -0.17488964 -0.19774058 -0.23024245 0.042853422 0.21725525 -0.17001641
-0.22520757 -0.34906432 -0.28499526 0.22670475 -0.07665554 -0.21402067 -0.28195244 -0.19370773
-1.1553721 0.0012897777 -0.4972517 -0.5070248 -0.3844104 0.21042153 0.03867435 0.13734724
0.017529896 -0.120660685 -0.23597366 0.64588505 0.6122923 -0.41469738 0.25789654 -0.23095638
-0.4263507 -0.4289031 -0.39825022 -0.33733892 0.21815877 0.19525214 -0.30244604 0.35759926
-0.34473157 -0.3258958 0.23696473 0.3948113 0.19610353 0.15529768 -0.020644797 -0.323326
-0.041455712 0.10823074 -0.11936549 -0.18751068 0.15635847 0.31662264 0.35957137 -0.186481

fc1.bias f4 [200]
00000000: 1fb4 e9be 18ee a9be 6b41 acbe 8ef9 b4bf
00000010: 7e61 953f 8180 a53f bd7f 4bbf d0fc 8e3f
00000020: b7dc 963f b1b9 73be b419 c8be 356c a43f
00000030: 85aa 9b3f 6eef d2be 680b 873f 5e3a 9a3f
00000040: b7f9 953f a403 38bf a961 a13f b354 a13f
00000050: c092 a13f 6581 49be 6e1a 0ebf ca84 ac3f
00000060: 8c01 a73f 6af3 9a3f defb a23f bf95 16bf
00000070: 6fe3 febe 8d36 7f3f 2f24 8e3f 151e c8be
00000080: 4e76 9c3f a50f 953f 2aed 953f a3bd 8d3f
00000090: 796c 1fbe 8d05 9a3f 7416 ac3f b6d9 6d3f
000000a0: 9ef6 a7be 6ef2 783f 2ac2 f4be d0a0 40bf
000000b0: ca92 a53f abe8 873f 6cc0 27bf fee0 963f
000000c0: 39aa 20bf 4a6a ccbe 89a4 753f ec25 53be
000000d0: 3c44 be3f d8f3 abbf 3b50 763f 0f4d 823f
000000e0: 3ac2 943f c118 693f 6860 b9bd 1bbc 983f
000000f0: 7b1b 8d3f cf64 a2be a97e 923f 9a36 31bf
00000100: c967 833f b4b0 a73f c3cc 40be 4651 813f
00000110: 4f67 e1be 08bf 55be ca29 9d3f a474 763f
00000120: f5a0 8c3f a6cf 6cbe a738 d3be fbc5 ad3f
00000130: e39a 803f 6a09 853f c7b4 a43f db91 5fbf
00000140: fac0 7b3f 4380 8e3f 027d 713f 3b52 793f
00000150: 5ca3 a23f d643 54bf c256 02bf 1d79 66be
00000160: e850 5ebf 1f32 8b3f 90af 9cbe d91d 733f
00000170: f2f0 a13f e2b9 15bf 6086 babd a3ca 923f
00000180: 06f4 19bf 9b3e 9c3f b954 04bf 07f3 e2be
00000190: 2412 763f 3483 973f 04b3 bbbe 6180 a23f
000001a0: 9f81 9c3f bb17 2fbf 1325 06bf 5503 bd3f
000001b0: ed4b 7b3f 40b7 8e3f 0f08 7e3f ad08 57be
000001c0: e189 1dbe 596b 9bbe b303 813f 1e3e 70be
000001d0: 0f92 a03f aac3 a03f 9353 8b3f c930 f9be
000001e0: e376 84bf ed69 93be 70cd 9d3f 066d 973f
000001f0: 151b 7d3f 09ab 56be 7008 933f 6956 8fbe
00000200: 0b06 5ebe 8c2b abbe a893 8f3f a3b2 8c3f
00000210: a4fd 913f bb58 0fbf 6623 8d3f ffd1 5abe
00000220: 91a3 833f bf72 853f 0f0c b2be 34f1 f1bc
00000230: 31e8 9c3f 3194 05bf 2aee 853f bdae 9d3f
00000240: 3d70 36bf f51c 7cbe d719 7f3f 9220 e8be
00000250: f50a 98be fcf4 8c3f e294 a63f 9e61 853f
00000260: afcb 11bf 2a10 8c3f 7283 cdbe b9f1 8a3f
00000270: c400 0bbf e364 dabe 88ed 803f ca95 b83f
00000280: 34e1 9f3f 054e 09bf ec9c 883f 8dc4 8d3f
00000290: bae5 963f 2249 f0be d864 8bbe defa 8f3f
000002a0: c1e6 07bf 6dc4 893f 3e23 e0be fe14 8e3f
000002b0: 1c5d a83f 6064 1dbf df1d 943f 0634 a8be
000002c0: a1cd 823f aff2 893f 3ece 59be 5e40 9a3f
000002d0: 4c4a 0fbf 828a 54be c89b d7be 2bab 793f
000002e0: 967a bebe 4329 00bf b448 653f a94a 36bf
000002f0: ee40 973f 125d 953f 30c2 913f 4d25 913f
00000300: 497b 7b3f 10fe a83f 3c30 95be 8f55 ac3f
00000310: 8204 adbe 097c 8b3f 6284 cdbe 2e56 a0be
-0.45645234 -0.33189464 -0.3364366 -1.4138658 1.1670377 1.2929841 -0.7949179 1.1170902
1.1786107 -0.23801304 -0.3908211 1.2845522 1.2161413 -0.41198295 1.0550356 1.2049062
1.1716832 -0.71880555 1.2607929 1.2603973 1.262291 -0.19678266 -0.5550908 1.3478024
1.3047347 1.2105534 1.2733114 -0.58822244 -0.49782893 0.9969261 1.1104792 -0.3908545
1.2223604 1.1645399 1.1713002 1.1073498 -0.15568723 1.2032944 1.3444352 0.92910326
-0.3280534 0.9724492 -0.47804385 -0.7524538 1.2935421 1.061788 -0.6552799 1.1787412
-0.6275974 -0.39924842 0.95954186 -0.20619935 1.4864573 -1.343379 0.9621617 1.0179766
1.1621773 0.91053396 -0.09051591 1.1932405 1.1024011 -0.31717536 1.1444904 -0.6922394
1.0266048 1.31008 -0.1882811 1.0102928 -0.4402413 -0.20873654 1.2278378 0.9627173
1.098662 -0.23126087 -0.4125416 1.3576044 1.0047268 1.0393498 1.2867669 -0.8733193
0.98341334 1.1132892 0.9433137 0.973911 1.2706103 -0.8291601 -0.5091363 -0.22507139
-0.86842203 1.0874671 -0.30602694 0.9496742 1.2651656 -0.5848676 -0.09107661 1.146809
-0.60137975 1.2206606 -0.51691777 -0.4432604 0.9612143 1.1836915 -0.36660016 1.2695428
1.2227057 -0.68395585 -0.5240032 1.4766642 0.9816273 1.1149673 0.99231046 -0.20999403
-0.15384628 -0.30355337 1.0079254 -0.23461196 1.2544574 1.2559712 1.088488 -0.48670033
-1.0348781 -0.28791752 1.232832 1.1830146 0.9886945 -0.20963682 1.148695 -0.27995613
-0.21681993 -0.3343166 1.1216936 1.0992016 1.140553 -0.55994767 1.1026428 -0.2136917
1.0284292 1.0425643 -0.34774825 -0.02953396 1.2258359 -0.5217925 1.0463307 1.2318951
-0.7126501 -0.24620421 0.99648803 -0.4533735 -0.2969586 1.1012263 1.3014185 1.0420415
-0.5695142 1.0942433 -0.40139347 1.0855018 -0.54298043 -0.42655095 1.0072489 1.4420712
1.2490602 -0.53634673 1.0672889 1.1075608 1.1788857 -0.46930796 -0.27225375 1.1248434
-0.5308648 1.0763069 -0.43776888 1.1100156 1.3153415 -0.61481285 1.1571616 -0.3285219
1.0219003 1.0777186 -0.21270081 1.2050893 -0.55972743 -0.20755962 -0.4211104 0.97526807
-0.372029 -0.5006296 0.8956406 -0.7120767 1.181669 1.1669028 1.1387386 1.1339508
0.98234993 1.3202534 -0.29138362 1.346361 -0.33792502 1.0897228 -0.40140063 -0.3131575

fc2.weight f4 [20, 200]
00000000: 93a1 d03c 4634 7ebd c4d1 a83c 30dd 40bd
00000010: 876d 81bc b64a 23bd 1353 da3c 7398 dbbc
00000020: 372b 14bd e3ab 1ebc cb89 94bd bc99 83bd
00000030: 8c79 30bd 21ea 343c bff0 93bd efdb 1d3c
00000040: 5d71 1cbd e7c8 ec3b d173 ca3c 0379 babc
00000050: 3538 85bd 8b06 23bc eba4 1a3c 225c 8a3c
00000060: 0c37 34bd 45c0 c6bc 941a 04bd 629a f3bc
00000070: 60dd a53c 51a6 f3bc a55c 623c 8a75 0bbd
00000080: 80a4 1a3c 0a73 fcbc 3289 3ebd eac6 40bd
00000090: 78c2 99bd a422 193d 386b 01bd 25b2 083c
000000a0: e50b 29bd d608 263d a539 633d c878 1ebd
000000b0: dee2 14bd bfb5 78bd 131b acbd e0b0 18bd
000000c0: e514 cbbc 7f49 313a 8d07 41bd 1f7d a6bc
000000d0: 9363 563d c42f d23c 2c08 dc3c f275 8ebd
000000e0: fde8 323d cebb 06bd accd 5bbd 3b74 b53a
000000f0: db51 53bc 4815 a4bd 5d4b 89bc 6a0d 78bd
00000100: 6231 91bd 7cc8 5ebb fe0b 1ebd 4b5b 86bd
00000110: 0045 fabc b255 a8bd f193 303d e94c 113d
00000120: 4d44 7e3a 8a9f 17bd 4dee dabd 7c74 30bd
00000130: 3862 29bd 1af7 e13c 92ad 1b3d f575 d1bd
00000140: 417c 5abd a8f2 9cbd cdb8 b6bc 1636 72bd
00000150: 9b2d 40bd a6f5 b4bb 6b48 aabc 32d8 d1bd
00000160: 37dd afba 9388 e5bc 393f d03b 15dd 6dbd
00000170: 8bdf 9cbd 236c 70bd a6f8 84bb e2fb 4cbd
00000180: 4725 afbd 9ea3 84bd 574b 99bd 6a7f bdbd
00000190: 631e 5bbd 723a e5bc be88 88bc 6c92 b8bd
000001a0: dda3 893c 1f08 08bd 98f0 d7bc 33fc 363d
000001b0: 56d8 6ebd 62fe 463b 4636 523b bb46 31bd
000001c0: 7444 6d3c bd21 7fbd bcaf 853c e6e3 f93c
000001d0: 9991 583d 69e7 b8bd bc59 243d a357 30bc
000001e0: db10 fabd 3cbc 99bd 5d20 143c 89cb 793d
000001f0: 67ee cc3a e0a9 d83b a021 90bd 8d76 44bc
00000200: 323a 58bd fedd afba 1b79 acbb c008 d23c
00000210: c443 9bbc 4d60 a2bb f427 1cbd 864c b0bd
00000220: 0a9e a5bd 62c5 7f3c 93bb b8bd bb18 20bd
00000230: bea5 83bc e6f5 213d ed41 9b3c a5f3 aa3b
00000240: 4441 9ebd 4159 f2bb 69b9 273d fd8f 8abd
00000250: 67aa c73b 4588 6c3d 8fe4 0bbc 74a1 03bd
00000260: 8d9f ad3c 3be4 18bd 76c7 c2bd bddf d4bb
00000270: 0295 313c 1452 d4bd bfeb 6fbd e3d5 8fbd
00000280: 9b9a aebc d34b 4bbd e51d 84bc 18d0 29bd
00000290: 8903 af3b d4b0 c9bc c010 353d 0504 0fbd
000002a0: 1365 1bbc 7581 203d 100e 67bb ca55 22bd
000002b0: 5494 19bc 8c79 223d a056 c7bc a91e aabc
000002c0: 2105 2b3d 4c33 a7bc b353 8d3c ab17 5e3d
000002d0: 2db3 313d 2ad2 173d f204 9abd 6686 75bd
000002e0: 431c 493c d78c 983c 3d52 23bc 7ea4 0e3d
000002f0: 7d6a c9bc 724f 583d e25f 62bd cc68 5a3d
00000300: 4be5 dd3c aef5 62bd 9da8 b0bb 0553 1d3d
00000310: 2352 033d 9319 3cbd 4996 84bd 1a2e cbbd
00000320: 09ea d6bf 1c61 d6bf 1402 efbf 23a3 48c0
00000330: 879a 243f 7579 723f 7ae2 a8bf ac6f 233f
00000340: c06a 763f 9b1d efbf 02a6 a2bf dcae 633f
00000350: b1f1 833f f37f cebf 21e5 3c3f 3630 653f
00000360: b501 3e3f 53b5 c1bf 5428 343f 4de8 5b3f
00000370: 02d9 393f 969f f7bf 67f0 b5bf 7d37 383f
00000380: c4c9 763f 34fd 853f 9328 7a3f c22a bfbf
00000390: fad6 d5bf 8ef2 6a3f fe63 283f 0d84 cbbf
000003a0: 3ade 7d3f b0aa 583f ca8a 723f 8e35 283f
000003b0: 3571 eebf f99b 823f f612 743f 2e44 323f
000003c0: ef01 ebbf feeb 413f 9408 dfbf 07e5 a2bf
000003d0: c0b0 483f 707f 363f 2355 a1bf 0dae 7b3f
000003e0: 842c bbbf 0d74 d5bf 5b3a 3b3f 6234 d0bf
000003f0: 2ef7 643f 2dd5 52c0 6f67 333f 6cc3 323f
0.02546767 -0.06206157 0.020607837 -0.04708594 -0.015799297 -0.03986617 0.026650941 -0.026806092
-0.036174025 -0.009684536 -0.072528444 -0.06425807 -0.043084666 0.011042149 -0.07223653 0.009634956
-0.03819405 0.007226098 0.024713429 -0.022762781 -0.06504861 -0.00995029 0.009438734 0.016889635
-0.04399781 -0.024261603 -0.03225191 -0.029736701 0.020247161 -0.029742392 0.0138160335 -0.03404764
0.009438634 -0.030816574 -0.04651756 -0.0470647 -0.07507795 0.03738655 -0.031596392 0.008343254
-0.04127111 0.04053577 0.055474896 -0.038689405 -0.03634917 -0.0607202 -0.084036015 -0.037278056
-0.024790237 0.0006762966 -0.04712634 -0.020323334 0.052341055 0.025657542 0.026859365 -0.0695609
0.043679226 -0.03289395 -0.05366294 0.0013843843 -0.012897934 -0.080118716 -0.016759569 -0.060559668
-0.07089497 -0.003399401 -0.038585655 -0.065603815 -0.03055048 -0.0821947 0.043109838 0.035473738
0.00096995087 -0.037017383 -0.106899835 -0.04307984 -0.041353434 0.027583648 0.038007326 -0.10227577
-0.053341154 -0.076634705 -0.022304917 -0.05913361 -0.046918493 -0.0055224476 -0.020786485 -0.10246314
-0.0013417368 -0.028019225 0.006355193 -0.05807217 -0.07659825 -0.058696877 -0.0040579615 -0.0500449
-0.08552032 -0.0647652 -0.07485073 -0.09252818 -0.053495776 -0.02798197 -0.016666766 -0.09012303
0.016801769 -0.03321087 -0.026359841 0.04467411 -0.058311783 0.0030364026 0.0032075807 -0.043280344
0.0144816525 -0.062288035 0.016319148 0.030504178 0.052873228 -0.09028513 0.04012464 -0.010763082
-0.12210246 -0.07506606 0.009040919 0.060985122 0.0015635014 0.0066120476 -0.070376635 -0.011991155
-0.052789874 -0.0013417599 -0.0052634603 0.025638938 -0.018953212 -0.0049553276 -0.03812404 -0.08608346
-0.08086784 0.015611025 -0.09020152 -0.039086085 -0.016070243 0.039541148 0.018952334 0.005217033
-0.07727292 -0.007395894 0.040948305 -0.06765745 0.0060933116 0.057747144 -0.008538379 -0.032136396
0.021194244 -0.037327033 -0.095107004 -0.0064963982 0.010838749 -0.10367218 -0.058574434 -0.070232175
-0.021313956 -0.04963286 -0.016127536 -0.04145822 0.0053409976 -0.024620451 0.044205427 -0.034915943
-0.009484547 0.03918596 -0.0035256185 -0.039632596 -0.009373743 0.039666697 -0.024333298 -0.020766573
0.04175294 -0.020410202 0.017251825 0.05422179 0.043383766 0.037065662 -0.075204745 -0.059942625
0.0122748045 0.018621845 -0.009968338 0.03482484 -0.02458691 0.05281014 -0.055267222 0.0533226
0.027086874 -0.05541008 -0.005391194 0.03840925 0.032060754 -0.045922827 -0.06473977 -0.099209026
-1.6790172 -1.6748385 -1.8672509 -3.134957 0.6429829 0.9471658 -1.3194115 0.6384227
0.9625664 -1.868091 -1.2706912 0.8893869 1.0308133 -1.6132797 0.7378712 0.8952669
0.74221355 -1.5133461 0.70374036 0.8590134 0.7259675 -1.9345577 -1.421399 0.7195967
0.9640162 1.0467896 0.9771816 -1.4934924 -1.6706231 0.9177636 0.65777576 -1.5899674
0.99167216 0.8463545 0.94743025 0.6570672 -1.8628298 1.0203849 0.9534143 0.69635284
-1.8359965 0.7575072 -1.7424493 -1.2726144 0.783947 0.71288204 -1.2604107 0.98312455
-1.462296 -1.6676041 0.7313592 -1.6265986 0.89439666 -3.2942612 0.700797 0.6982944

fc2.bias f4 [20]
00000000: 499d 53bd 05f6 4b3f abee 4c3f 54fe 7a3f
00000010: a2a6 713f e1c9 8b3f 2cf4 693f e81d 9e3f
00000020: 2baa 813f ae8c 833f 3734 2dbc 6683 7a3f
00000030: 607c 70bd 9442 523f 94ec 8ebd 36c1 16bd
00000040: 13c6 78bd 0f0c 983f d830 703c 9470 f5bd
-0.05166367 0.7967227 0.8005168 0.98044324 0.94394886 1.0920984 0.913882 1.2352877
1.0130056 1.0277307 -0.010571531 0.9785675 -0.058712363 0.8213284 -0.069787174 -0.036805354
-0.060735773 1.187868 0.014660083 -0.11984363

fc3.weight f4 [1, 20]
00000000: bf8f afbf 6f83 903f a170 8f3f e147 883f
00000010: 918d 873f 5a76 843f 5c88 f03f e72f 963f
00000020: 5936 893f 783a 913f c62a abbf 620d 8e3f
00000030: 5a5c b3bf 8871 873f 8f82 acbf 3b48 b2bf
00000040: 1e68 b4bf 5141 9c3f 5035 b0bf 992b a3bf
-1.3715743 1.129011 1.1206247 1.0646936 1.0590078 1.0348618 1.8791614 1.1733369
1.071971 1.1345968 -1.3372428 1.1097834 -1.4012558 1.0581522 -1.3477343 -1.3928293
-1.4094274 1.2207433 -1.376627 -1.274768

bn1.weight f4 [200]
00000000: 160c 3440 ab25 3440 9fda 4740 7961 8f40
00000010: 552a df3f d60a 0740 3038 3640 3f28 e33f
00000020: eaa4 0740 99e1 3240 4984 2f40 5a94 fb3f
00000030: 48e8 0640 fc61 3440 ba85 e33f 8eb7 f63f
00000040: abec df3f eb40 3b40 e474 de3f 87e8 f53f
00000050: 3e64 e53f 1348 3740 cbf4 3240 2a84 eb3f
00000060: 9043 0840 ec68 0740 1293 0740 c4d1 3940
00000070: dc4a 3340 67ad 0840 cb6d e43f 0d55 3340
00000080: 817b 0740 49c4 f33f f4ae 0840 9099 e23f
00000090: efa4 3740 d01d 0740 d69c 0640 5b22 e23f
000000a0: 7051 2b40 569d e23f ea2f 3340 a067 3340
000000b0: 8469 e63f 8de0 e23f 0026 3840 5c54 0740
000000c0: b27d 3a40 283d 3340 a6f8 df3f 2a5d 3140
000000d0: e98c fa3f a166 9640 ca40 e13f 1a58 e43f
000000e0: 32bf e33f 78c6 e33f 3025 2b40 ed05 0740
000000f0: d79c 0840 391f 4c40 9f28 f63f f3f4 3e40
00000100: d283 df3f 60eb 0640 dbfa 2840 01d9 e03f
00000110: 98f8 3340 4b1c 6c40 22df 0740 01a5 e33f
00000120: 2368 e43f 0e93 5140 a7e1 8940 9fed 0840
00000130: 41af e13f 2ebe e13f 6529 0840 6a6b 8c40
00000140: daea df3f 5d86 f73f 130f e13f 2b84 e13f
00000150: f110 0940 f180 8b40 36f9 6c40 cecd 2740
00000160: 238e a340 b079 0740 5092 5040 ba9a f63f
00000170: 43cf f63f 4af2 3440 3ee0 4640 dcf3 0540
00000180: cf35 3240 26d3 0940 91e5 3140 18f7 3440
00000190: 1978 df3f 5357 e13f 9cbc 3440 1be4 0840
000001a0: 2f15 e03f bdbe 9140 47af 3740 846f e53f
000001b0: 58d5 e03f 5063 dd3f ecd5 df3f 550a 6440
000001c0: 52ff 3240 5108 3340 db01 e23f b0d9 3340
000001d0: 9297 e33f 2fce 0840 d409 e43f 6c7b 3340
000001e0: f642 9440 cb6d 3640 0767 0840 b719 e33f
000001f0: 499f df3f 8f89 8140 e1a9 e43f 4d40 2b40
00000200: 6a50 2540 b4ec 3040 92f6 dd3f 2c87 df3f
00000210: 577f 0740 8914 4640 7960 e23f 29a9 3340
00000220: fb4e e23f 29c8 df3f 066d 3740 44e5 4540
00000230: 3b3d e73f e899 3640 7b4b df3f 5264 e43f
00000240: 1e5e 3840 798f 3040 040f df3f 6616 3340
00000250: 6c08 2940 fce9 dc3f 5ab3 0640 5689 e13f
00000260: a9a6 3440 e2e6 1240 7762 3240 e21a e53f
00000270: c5b6 3340 931d 3b40 3640 e13f d1a5 e53f
00000280: 5109 0840 aa9b 3140 e2d1 e13f d75e e03f
00000290: bb34 e53f e3ee 3640 d9ea 3340 b798 0740
000002a0: 1508 3240 ba3e df3f 256c 2e40 640b df3f
000002b0: 12e1 0740 b5a6 3640 600f 0640 5b7a 2640
000002c0: 64f0 de3f e9ca e23f b535 3640 a514 e83f
000002d0: 6d35 3440 6169 3540 d5dc 4640 20be e13f
000002e0: 7b8d 3240 4d83 3040 8754 e03f f748 3e40
000002f0: 75d6 e03f 8fad 0140 e37e e63f 64dc 0640
00000300: ad17 e33f 9be2 ff3f e374 2a40 bbe8 e63f
00000310: dbfc 3040 af8e 0740 19de 3040 16be 2940
2.8132377 2.814799 3.1227186 4.4806485 1.7434794 2.1100364 2.8471794 1.7746657
2.1194406 2.7950194 2.742449 1.9654648 2.1079273 2.8184805 1.7775185 1.9274766
1.74941 2.9258373 1.7379422 1.9211587 1.7921216 2.863774 2.796191 1.8399708
2.1291237 2.115779 2.1183515 2.903428 2.801444 2.1355836 1.7846006 2.802066
2.116913 1.9044276 2.1356783 1.7703114 2.8694417 2.1111946 2.1033225 1.7666734
2.6768456 1.7704265 2.7997994 2.8031998 1.8000951 1.7724777 2.8773193 2.114524
2.9139218 2.8006077 1.7497756 2.7713113 1.9574252 4.700028 1.7597897 1.7839386
1.7792723 1.7794943 2.6741447 2.1097367 2.1345727 3.1894057 1.9231147 2.9837005
1.7462103 2.1081161 2.640311 1.7566224 2.812048 3.6892269 2.122994 1.778473
1.784428 3.2746005 4.3087955 2.1395032 1.7631608 1.7636163 2.1275265 4.388112
1.7493546 1.933788 1.7582725 1.761846 2.141659 4.35949 3.7027106 2.6219363
5.1111007 2.1168022 3.2589302 1.9265969 1.9282001 2.8272882 3.1074367 2.093009
2.7845342 2.1535125 2.7796366 2.8275814 1.7458526 1.7604774 2.8240118 2.1389225
1.7506465 4.5545335 2.870073 1.7924657 1.7565107 1.7295933 1.7487159 3.5631306
2.7968335 2.7973826 1.7656816 2.8101616 1.778063 2.1375844 1.7815499 2.804408
4.633174 2.8504512 2.1312883 1.7742223 1.7470485 4.048042 1.7864343 2.6757996
2.583033 2.7644472 1.7340872 1.7463126 2.1171472 3.0950034 1.7685691 2.8071997
1.7680353 1.7482959 2.8660293 3.0921183 1.8065561 2.8531437 1.744491 1.7843115
2.8807445 2.7587569 1.7426457 2.798242 2.641139 1.7258906 2.1046968 1.7620037
2.8226721 2.295342 2.7872598 1.7898829 2.8080304 2.92368 1.7597721 1.7941228
2.1255686 2.775126 1.7642176 1.7528943 1.7906717 2.8583305 2.811209 2.118696
2.7817433 1.7441018 2.7253506 1.7425351 2.1231122 2.853925 2.0946884 2.601218
1.7417111 1.7718173 2.847028 1.81313 2.8157609 2.8345568 3.1072285 1.7636147
2.7898853 2.758014 1.7525796 2.9732034 1.7565447 2.0262182 1.8007473 2.1072016
1.77416 1.999103 2.6633842 1.8039774 2.765433 2.1180837 2.7635558 2.652227

bn1.bias f4 [200]
00000000: f408 c0bf 3a76 bfbf ea2d babf 0c7e c4bf
00000010: 8183 a53f 878b b43f 952b c3bf e8d9 a13f
00000020: 1d14 af3f c073 b6bf ac24 bdbf fc73 a33f
00000030: c4a4 af3f 8538 bfbf 8333 a43f d0f4 a23f
00000040: 3dab a13f c0a0 c1bf 27a6 a23f 1645 a43f
00000050: 64ca a03f 104d babf 09fd bfbf 0ca5 a13f
00000060: 711b b13f ef86 b13f 28b7 b53f 2a32 c5bf
00000070: a147 bebf 1240 a83f 6388 a33f 3c1d c0bf
00000080: 589a b13f a1d7 a13f f875 b13f bd02 a13f
00000090: 5540 bbbf fd26 b53f 2a40 b13f bf7e a33f
000000a0: 4c12 b9bf 928e a33f a77a c2bf d025 bfbf
000000b0: 900c a13f fe03 a13f dc5b c0bf 0171 b23f
000000c0: 5b68 bfbf e733 bdbf 987e a13f 6e6e bcbf
000000d0: d9fc a23f 36e0 c3bf 0603 a03f a9d7 a03f
000000e0: 57c5 a33f d135 a13f 385e b3bf 40f5 b33f
000000f0: 56f1 b03f f710 c7bf e571 a03f b319 bebf
00000100: a1b8 a33f 11f9 b03f e24b b6bf 9711 a13f
00000110: ff18 c0bf 11e5 bdbf bf81 b43f 6cad 9f3f
00000120: caea a03f 4688 bebf 5355 c2bf 2d54 b03f
00000130: adde a33f a547 a43f 60bc b43f 7c64 c2bf
00000140: b692 a13f 8992 a53f 786e a13f f7b3 a13f
00000150: d7fd b03f d659 bfbf f936 bcbf 3fc4 b7bf
00000160: 7064 c2bf 2c13 b13f 803a c2bf fe9b a03f
00000170: fafd a23f 2077 c0bf 00a6 bfbf 3aa8 b03f
00000180: 56ae c3bf 0f3f ae3f 3514 c6bf 1dcf c1bf
00000190: 6777 a23f 7991 a13f 886d bebf cd04 b13f
000001a0: b3c9 a43f 57b8 c0bf 329f c1bf 366f a43f
000001b0: a6c7 a43f 05ea a13f 27c9 a33f ea73 b8bf
000001c0: d0b4 bdbf b87e bebf ed70 a33f b74e bbbf
000001d0: d16d a53f 699f b03f 6f8d a03f 74ab c0bf
000001e0: 4f2f c2bf 11a8 c1bf f4c5 b43f d5ea a53f
000001f0: 3159 a33f fd76 b5bf 4240 a43f 390c b6bf
00000200: 02f6 b7bf 3e2b bdbf f8f1 a63f 5b47 a23f
00000210: d184 b13f 00a4 b9bf fff4 a13f cd61 c0bf
00000220: b328 a13f 72f0 a13f 86aa bcbf 3349 bdbf
00000230: 6d31 a03f 840f bebf 3191 983f c9d1 a03f
00000240: 38dd c1bf 07e7 b3bf 1b22 a13f cf21 bdbf
00000250: dd24 bcbf 5ba4 a33f ae78 b23f 9b04 9e3f
00000260: dbf6 c5bf 5213 ae3f ee73 c2bf 7276 a13f
00000270: 5dce bdbf baa6 bcbf 120e a33f 316d a23f
00000280: 8af3 b33f 8d0f c2bf 0ce4 a33f 8150 9e3f
00000290: 65c5 a23f 8358 c0bf 51c8 bbbf ffd3 b03f
000002a0: 7740 bcbf 67fa a43f b19f c2bf 8635 9e3f
000002b0: 5f2c b13f 5165 c0bf 16a0 b03f 3f43 b7bf
000002c0: 1273 9a3f 0700 a23f aa65 babf 63c9 a43f
000002d0: 31b6 c4bf 2bc5 bbbf 815d cdbf 4f1d a43f
000002e0: f7b5 bebf 3b7a c1bf fded 9e3f 04a1 bdbf
000002f0: e6c6 a13f 5c63 a23f e20b 9f3f 9d09 b33f
00000300: 5f42 a53f aaa1 a73f c305 b5bf 6861 a23f
00000310: b499 bbbf a89f a63f 54c4 bebf 7007 bcbf
-1.5002732 -1.4957955 -1.4545262 -1.5350966 1.2930757 1.410508 -1.5247675 1.2644625
1.3678013 -1.4254074 -1.4776816 1.2769771 1.3722157 -1.4939123 1.282822 1.2730961
1.2630383 -1.5127182 1.2706956 1.2833583 1.2561765 -1.4554768 -1.4999095 1.2628493
1.38365 1.3869303 1.419652 -1.5405934 -1.486561 1.3144553 1.2775997 -1.5008922
1.3875227 1.264393 1.3864126 1.2578961 -1.4629008 1.4152523 1.3847706 1.2773055
-1.4458709 1.2777884 -1.519368 -1.4933414 1.2581959 1.2579343 -1.5028033 1.3940736
-1.4953722 -1.4781464 1.2616758 -1.47212 1.2733413 -1.5302799 1.2500923 1.2565814
1.2794598 1.2594548 -1.4013128 1.4059219 1.382365 -1.5552052 1.2534758 -1.4851593
1.2790719 1.3826009 -1.4241908 1.2583493 -1.5007628 -1.483553 1.4102095 1.2474799
1.2571652 -1.4885337 -1.5182289 1.3775688 1.280233 1.2834364 1.4119987 -1.5186915
1.2622898 1.2935344 1.2611837 1.2633046 1.3827466 -1.4949291 -1.4704276 -1.4356765
-1.5186901 1.3833976 -1.5174103 1.2547605 1.2733757 -1.5036354 -1.4972534 1.3801339
-1.5287578 1.3612994 -1.5474917 -1.5141331 1.2692689 1.262252 -1.4877176 1.382959
1.2874054 -1.5056256 -1.5126708 1.2846439 1.2873428 1.2649542 1.2795762 -1.4410374
-1.4820805 -1.4882421 1.2768837 -1.4633397 1.2924138 1.3798648 1.2543162 -1.5052323
-1.5170687 -1.5129415 1.412291 1.296229 1.2761594 -1.4176937 1.283211 -1.422248
-1.4371951 -1.4778821 1.3042593 1.2678026 1.3868657 -1.4503174 1.2652892 -1.5029846
1.2590545 1.2651503 -1.473954 -1.4787964 1.2515084 -1.4848485 1.1919309 1.2564021
-1.5145636 -1.4054879 1.2588533 -1.4775943 -1.469875 1.2784532 1.3943079 1.2345155
-1.5465959 1.3599646 -1.5191629 1.2614272 -1.4828602 -1.4738381 1.2738669 1.2689573
1.4058697 -1.5160996 1.2803969 1.2368318 1.271649 -1.5027012 -1.4670507 1.3814696
-1.4707173 1.2888917 -1.5204984 1.2360084 1.3841666 -1.5030919 1.3798854 -1.4317397
1.2066367 1.2656258 -1.4562275 1.2873958 -1.53681 -1.4669546 -1.604416 1.2821444
-1.4899281 -1.5115427 1.2416378 -1.4814763 1.2638824 1.2686572 1.2425501 1.3987309
1.291088 1.3096211 -1.4142383 1.2685976 -1.4656281 1.3017473 -1.4903665 -1.468977

bn1.running_mean f4 [200]
00000000: a12b ff3d 5a33 633e 845a 623e 27fc 423e
00000010: 3cf2 4a3e 0741 123e 6dfb 0b3e 9d85 2a3e
00000020: ab8b 403e 5641 373e fa99 553e e6c4 533e
00000030: 967c 3c3e 5d8b ca3d 1e89 153e b2d6 d93d
00000040: aca8 263e cb5b 5c3e 9e03 683e f873 ef3d
00000050: 1513 4f3e 32d4 3e3e d745 773e 48ff 693e
00000060: 3764 503e 2179 bb3e 9220 9b3d b5af 1c3e
00000070: 928f 053e 40e7 4f3e 5f92 f43d 8525 373e
00000080: a04f 913e 320e 733e c18d d73d 50dc 173e
00000090: dbb4 013e 2a49 cb3d 9e16 893e f3bf 283e
000000a0: 2bf3 c53d 6b09 473e 2a04 3c3e d95c 303e
000000b0: fab5 3e3e 5b08 1f3e 9452 0c3e 8d0d 593e
000000c0: a05d 723e 61db 063e 8b9a 4f3e cfa5 593e
000000d0: 5541 1b3e 6bd5 373e ee31 a03e 50fa 093e
000000e0: 041a da3d 1e87 f73d 5ccd 473e 4967 3b3e
000000f0: ea20 1a3e ed5c 263e 7a5b ef3d e553 133e
00000100: 6632 2f3e 8adb 4d3e d073 803e bb45 0d3e
00000110: b9d1 1a3e ccd4 4f3e f754 023e 2d0c eb3d
00000120: ee99 063e 4c6b 793e 6845 153e 09cc 0c3e
00000130: 0592 de3d 4004 b13d 1eef cc3d 1fcf 5f3e
00000140: 5da5 393e 59f8 0b3e 953b 023e ddf7 2f3e
00000150: 058d 013e 9f61 1c3e 2380 5e3e 4737 3b3e
00000160: a21c 123e be98 7a3e e8ed f03d 0bd4 193e
00000170: 8735 253e 6848 463e 190d 3f3e 89f7 d73d
00000180: 4159 fd3d a89f 9a3e 541b fd3d 24bc dc3d
00000190: ce9f 0e3e 7a61 613e 750e d63d 147e 233e
000001a0: 2526 6d3e 8268 563e ba24 b73d b0fd 623e
000001b0: 30f3 793e d185 b33e 6e32 403e 0071 193e
000001c0: 140c 8d3e d07a 233e a8f4 a03d d606 293e
000001d0: 5736 233e 98e9 f73d 949e cc3d a67e 213e
000001e0: 02f9 1c3e 3436 2d3e 6d75 403e de9a 413e
000001f0: 6041 303e 3149 323e f6b5 613e ea5a 413e
00000200: 6fbf 6f3e 347c 953e fb95 633e 4317 083e
00000210: 3662 513e 535f 483e 77ca 453e 7a11 253e
00000220: 2756 2b3e 885c 373e 3ee9 6e3e ee77 433e
00000230: c755 873e d657 5a3e 19c7 243e 8fd6 423e
00000240: 5454 7b3e 90cf 1d3e 37e5 6b3e 5cde f13d
00000250: 82be 993d de19 a23e 90ff c23e 2ad5 4c3e
00000260: d610 8e3d 818d f53d 9722 2b3e 0272 f43d
00000270: eaa6 da3d acca b53d 3685 063e 7ddb 373e
00000280: 9a0d 063e f799 203e e198 413e 1ce8 2b3e
00000290: 6887 373e dbd7 b83d ba32 343e de40 833e
000002a0: 7809 203e 23d0 453e 7448 673e 1209 663e
000002b0: 6aef 5c3e 6c89 383e 9646 823e b41d fc3d
000002c0: d970 433e 6dcc 2a3e 942b 573e b796 073e
000002d0: 121a e23d b68c 173e 2b2d 503e df4e 183e
000002e0: 0688 243e 6264 ec3d 352a 143e 7683 1f3e
000002f0: 5d1b 4e3e ab71 463e edf3 153e 3e8d d83d
00000300: 8d0c 383e 304f bb3e 0e8a 0f3e db72 043e
00000310: 4274 3f3e 4e01 d33d 67fa 8b3e d047 2a3e
0.124594934 0.22187558 0.22104841 0.19041501 0.19818968 0.14282618 0.1367013 0.16652532
0.18803279 0.17896017 0.20859519 0.2068058 0.18406901 0.09889863 0.14603087 0.10636653
0.1627528 0.21519391 0.2265763 0.11692041 0.20222123 0.18635634 0.24147736 0.22851288
0.20350729 0.36615852 0.07574572 0.15301402 0.13043049 0.20303059 0.119419806 0.17885406
0.28381062 0.23735884 0.10525084 0.14830136 0.12666647 0.09926064 0.26775068 0.16479473
0.09665521 0.19437186 0.18360963 0.17222919 0.18624106 0.15530531 0.13703376 0.21196575
0.23668528 0.13169624 0.20273797 0.21254657 0.15161641 0.17952506 0.31288093 0.13474393
0.10649493 0.120863184 0.19511932 0.18301119 0.15051618 0.16246386 0.1168737 0.14387472
0.17109069 0.20103279 0.25088358 0.13796131 0.15119065 0.2029602 0.12727724 0.11476932
0.13144657 0.24357337 0.14577258 0.13749708 0.10867695 0.08643389 0.100065455 0.21856354
0.18129487 0.13668956 0.12718041 0.17184396 0.12651451 0.15271614 0.21728568 0.18282805
0.14268735 0.24472329 0.11764127 0.15022294 0.161337 0.19363558 0.1865734 0.105452605
0.123705395 0.30199933 0.12358728 0.107780725 0.13928148 0.2200984 0.10451976 0.15966064
0.23159082 0.20938304 0.08942552 0.22167087 0.24409175 0.3506303 0.18769237 0.14984512
0.27548277 0.15964818 0.078591645 0.16506514 0.15938698 0.12105101 0.09991184 0.15770969
0.15329364 0.16915208 0.18794794 0.18906733 0.17212439 0.17410733 0.22042069 0.18882337
0.2341287 0.29196322 0.22225182 0.13290124 0.20447621 0.19567613 0.19315515 0.16119948
0.16732083 0.17906392 0.23331162 0.19088718 0.2643263 0.21322569 0.16091575 0.1902716
0.24543887 0.1541121 0.23036657 0.1180999 0.075070396 0.3166036 0.38085604 0.2000319
0.06936805 0.1198988 0.16712414 0.11935808 0.106763676 0.08876547 0.13136753 0.17954822
0.13091126 0.15683733 0.18905975 0.16787761 0.17922747 0.09025546 0.17597476 0.25635427
0.15628612 0.19317679 0.22586232 0.22464398 0.21575704 0.18021172 0.25444478 0.12310353
0.19086017 0.16679545 0.21012717 0.13241087 0.11040129 0.1479977 0.2032973 0.14873837
0.16067514 0.11542584 0.14469226 0.15577492 0.20127626 0.19379298 0.14643832 0.10573815
0.17973538 0.36583853 0.14017507 0.12934439 0.18696693 0.10302983 0.2733948 0.16628957

bn1.running_var f4 [200]
00000000: 764a 8d3e bd41 9f3e 09ca 883e 9d5a 863e
00000010: e53b b63e 3c26 633e 7deb 8e3e 06a0 ad3e
00000020: 5d88 7f3e 021d 9a3e 464d 9d3e 48ab 863e
00000030: 7d5e 653e c438 7b3e e636 863e 58b3 583e
00000040: 39f2 943e 3fdb 8f3e bced 8e3e bdf5 503e
00000050: 2931 6c3e e562 723e 4fc2 d73e 7174 903e
00000060: 0fe7 773e 4c6c 9b3e 7598 563e 67c1 a23e
00000070: 16eb 6c3e 6fa1 6f3e eb9c 863e f538 8f3e
00000080: 1803 9a3e 6984 863e e8bd 5d3e 1154 ae3e
00000090: 95a2 5e3e cda9 533e 143b 913e aec5 c43e
000000a0: 6613 803e 4207 d83e 02bb 7a3e a4e1 c33e
000000b0: dc41 af3e e118 783e 1619 b93e e62a 863e
000000c0: e970 093f 2242 903e 98b7 bc3e f2bd 7a3e
000000d0: 2407 6a3e 5b3f 853e fcab 333f a9fd 853e
000000e0: 8100 593e f7ae 8f3e 662a 823e 8c02 783e
000000f0: b52d 733e 96e9 843e 1d10 5e3e 464e 7e3e
00000100: 5d23 a43e a1df 6c3e 6358 7f3e 7cef 813e
00000110: 1645 823e 7678 693e f0fd 623e fa58 8e3e
00000120: 669e 773e 9a03 8b3e 0e8f 853e 53e7 593e
00000130: b7d4 6c3e 62f2 753e 572c 5f3e ae31 733e
00000140: c6b1 bd3e 2784 8d3e 3fc1 9b3e 4fbb b13e
00000150: 6e85 643e f5bb 6d3e a67d e93e f3e4 b23e
00000160: c074 893e a2be 7e3e 8d58 953e aef5 7d3e
00000170: 68f5 833e 1d75 d73e b5a2 733e 245a 813e
00000180: a20f 7d3e a17e 913e a42e 723e 9ac0 aa3e
00000190: 539d 843e 822f c53e c19f 6e3e 2484 643e
000001a0: 2a86 d63e f1c8 6d3e afbe 683e 5c3d 963e
000001b0: d8ad 053f 01e5 323f 126f ae3e 2923 603e
000001c0: 0bea 0a3f bd85 923e 3d0f 693e dac2 9b3e
000001d0: d055 8f3e db20 6a3e 1a89 7d3e 6e3c 753e
000001e0: f2df 8e3e 9d52 b33e 141a 773e 25cb 863e
000001f0: 519f a63e 3eae 7e3e 5be0 e53e 9eeb 833e
00000200: c08f d53e 3fea 923e 1250 cf3e e68f 9d3e
00000210: 9364 df3e c6f6 a93e 2561 d73e c2a4 963e
00000220: 6c28 cb3e 9082 b93e c24c db3e b9f0 6c3e
00000230: d64c ab3e 3b9b 803e d47b ac3e 1d09 793e
00000240: e469 f53e 0f51 5c3e 9679 b73e 42ad 6f3e
00000250: 8d0e 603e 1698 2e3f a2bb 9a3e a6d9 b33e
00000260: 5ac9 6d3e 3bf4 633e 6271 8b3e 5992 933e
00000270: 76f3 583e 2379 723e 30d3 833e 0ef3 9d3e
00000280: fb55 603e ae29 823e 63e2 ac3e 328e a73e
00000290: 4435 8f3e d5db 5f3e 5077 8a3e 8fbb 863e
000002a0: e2ad 943e 3b83 b53e 08f2 793e 12d0 d63e
000002b0: e434 8f3e be8c 8d3e ca77 993e 1485 5a3e
000002c0: a3ab 7e3e a10a 9d3e 3f0d 843e 341e 733e
000002d0: f699 903e 933d 683e 0b0d fb3e e669 bc3e
000002e0: 98aa 7d3e 1bd3 633e 4996 b03e 39e2 8e3e
000002f0: b940 b23e d626 893e ecdd 813e e574 643e
00000300: b083 c93e b0c9 9b3e 84e7 923e ad98 5d3e
00000310: 2661 e93e 5238 783e ab6a 0f3f 8b78 613e
0.27595872 0.31104842 0.2671664 0.26241007 0.3559257 0.22182554 0.27914038 0.3391115
0.24954362 0.30100256 0.30723017 0.26302552 0.22399326 0.24533373 0.2621376 0.21162164
0.2909105 0.2809696 0.27915752 0.20406242 0.23065628 0.23670538 0.42140433 0.28213838
0.24209236 0.3035606 0.20956595 0.3178818 0.23136553 0.23401426 0.26291594 0.27973142
0.30080485 0.26272896 0.21654475 0.34048513 0.21741708 0.20670243 0.28365386 0.38432068
0.250148 0.42193037 0.244854 0.38258088 0.34229934 0.2422824 0.36151952 0.26204604
0.5368791 0.28175455 0.3685882 0.24486521 0.22854286 0.260249 0.701843 0.2617009
0.21191598 0.28063175 0.25422972 0.24219722 0.23747905 0.25959462 0.21685834 0.24834546
0.3205823 0.23132183 0.2493606 0.25378025 0.25443333 0.22799858 0.22167182 0.2780226
0.24181518 0.27151185 0.26085705 0.2127965 0.2312802 0.24018243 0.21794258 0.2374942
0.37049693 0.27639887 0.30420873 0.34713218 0.22316524 0.23216231 0.45603675 0.349403
0.26846886 0.24877408 0.2916912 0.2480075 0.25773168 0.42081538 0.23792537 0.25264084
0.24712995 0.28416923 0.23650604 0.33350068 0.2590128 0.38512808 0.23303129 0.22316033
0.41899234 0.23221184 0.2272899 0.29343688 0.5221839 0.6988068 0.34069115 0.21888413
0.5426337 0.2861766 0.22759719 0.30422097 0.27995157 0.22864096 0.24759331 0.23948833
0.27905232 0.35023966 0.24131042 0.26326862 0.32543424 0.24871156 0.44897732 0.257657
0.41711235 0.2869434 0.40490776 0.30773848 0.4363142 0.33196086 0.42066303 0.29422575
0.39679277 0.36232424 0.42832 0.23138703 0.3345706 0.2511843 0.33688223 0.24319883
0.4793235 0.21515296 0.3583495 0.23405936 0.2188055 0.68200815 0.30221277 0.3512699
0.23221341 0.22261135 0.27234942 0.28822592 0.21186623 0.23679022 0.2574706 0.308495
0.21907799 0.25422424 0.3376647 0.32725674 0.27970326 0.21861203 0.27044153 0.2631497
0.29038912 0.35451683 0.24408734 0.4195562 0.2797004 0.2764644 0.29974204 0.21339828
0.24870162 0.30672172 0.25791356 0.2374199 0.28242463 0.22679739 0.49033388 0.36799544
0.24772108 0.22248499 0.34489658 0.2790697 0.34815004 0.26787442 0.25364625 0.22310217
0.39358282 0.30427313 0.28692257 0.21640272 0.4558193 0.24240234 0.5602214 0.2201864

bn2.weight f4 [20]
00000000: 819e 1440 8610 0540 e99a 0440 12e0 0440
00000010: e2f0 0540 6001 0540 6bd8 3140 d623 0340
00000020: b237 0440 f513 0840 2fe1 1d40 bd4c 0440
00000030: 6f92 1140 6e38 0740 43ff 1d40 5e89 1240
00000040: 1f92 1240 75bb 0240 9c52 1340 ebb6 2640
2.3221743 2.0791335 2.071955 2.0761762 2.0928273 2.078209 2.778834 2.0490623
2.0658994 2.126218 2.466869 2.0671837 2.2745626 2.1128192 2.468705 2.2896342
2.2901685 2.0426915 2.301917 2.6049144

bn2.bias f4 [20]
00000000: bac4 aabf fd55 a93f 78d7 a93f 32b7 b03f
00000010: 5b23 b33f 0aae b63f 6a05 b73f 0fbd a23f
00000020: d9b6 ae3f 9cb8 ab3f 42c5 bbbf f21e aa3f
00000030: 4da5 a3bf a23c b63f 200d bdbf 35e7 a5bf
00000040: 7e19 a6bf f206 9e3f 7283 a7bf fc7a cdbf
-1.3341286 1.3229367 1.3268881 1.3805907 1.3995165 1.4271863 1.4298527 1.2713946
1.3649551 1.3415713 -1.4669573 1.3290694 -1.2784821 1.4237254 -1.476963 -1.2961184
-1.297653 1.234587 -1.3086989 -1.6053157

bn2.running_mean f4 [20]
00000000: 8892 573e ad65 753e bc5b 5d3e 8fb4 693e
00000010: bf66 6e3e c031 393e e29e 993e b108 ae3e
00000020: 2008 323e ffa1 563e 900b 4e3e 91d1 523e
00000030: f0f1 893e 0474 3e3e 0351 493e 8e82 743e
00000040: 8080 5b3e 1038 653e 45cd 673e 904c 583e
0.21051991 0.23964567 0.21617025 0.22822784 0.23281382 0.18085384 0.3000403 0.33991006
0.17385912 0.20960234 0.20121598 0.20587756 0.26942396 0.18598944 0.1965981 0.23877928
0.21435738 0.22384667 0.22636898 0.21122956

bn2.running_var f4 [20]
00000000: 4f44 963e 5e48 fd3e 6ee1 133f f898 ed3e
00000010: 7ac0 c33e 62ec bd3e a222 d43e 46ae ea3e
00000020: dbb7 be3e ac91 163f 3b6e a83e 3d45 003f
00000030: 7311 cb3e f36d a23e bcc4 bd3e 62db ae3e
00000040: d792 ac3e a43a d13e 3d83 8f3e cf61 943e
0.2934899 0.49469274 0.57765853 0.46405768 0.38232785 0.37094408 0.41432673 0.45836085
0.37249646 0.5881603 0.328966 0.5010565 0.3966175 0.3172451 0.3706416 0.3415175
0.3370578 0.40865052 0.28029814 0.28980872
